results/duoCW/Worm/Worm-7499973.onnx (onnx, 581953 bytes, 9 tensors)

network_body._body_endoder.seq_layers.0.weight f4 [256, 39]
0.19316123 -0.25376782 0.18042375 -0.05439837 -0.059298307 0.22831537 0.08681718 -0.1557399
-0.03355581 0.11609671 0.08366086 0.11665126 -0.045389585 0.035602264 0.16048267 0.025666025
-0.17480877 0.114440516 -0.33136117 0.09244563 0.19340168 0.10614327 -0.17811441 -0.29806638
0.0040361756 0.0117534315 -0.2227669 -0.15002848 0.18321583 0.078343324 0.06676301 -0.20444043
0.07929999 -0.07344818 0.4054285 -0.06768624 0.073734805 -0.14200135 -0.13260892 -0.026930066
-0.08815349 0.28374907 -0.10141635 0.0019719226 -0.10912277 -0.026848882 0.33465323 -0.13500577
0.18201709 -0.2608873 0.08616963 0.10820077 -0.07798376 0.1217784 -0.21117853 0.051283386
-0.093983084 -0.16159564 0.097974196 -0.024494529 -0.15386333 -0.4458224 -0.0007378514 -0.111617275
-0.04944165 0.054349132 -0.07274493 -0.039478384 0.058262303 -0.07334932 -0.059734847 -0.04250082
-0.21873152 -0.06005966 0.0154573815 -0.16071098 -0.06586073 -0.1936668 -0.062089574 0.3011862
0.13593362 -0.1525619 0.21128759 0.08392291 0.027275799 -0.16558878 0.12724581 -0.13864765
0.33934608 0.054768547 0.22815394 0.40675107 -0.17963205 0.30454564 0.08333513 -0.21810105
0.07222434 0.15923673 0.14385006 0.14822769 0.032326553 0.12264101 -0.10373186 0.19613616
0.054075684 0.10646451 0.20875025 0.092725225 0.286761 0.050145406 -0.022143217 -0.30496448
0.17480417 -0.019297548 0.08906893 0.36715922 0.12011368 0.10972149 0.19421776 0.101841666
-0.020470912 0.11856979 -0.012599512 -0.111683846 0.34545708 0.057461925 -0.20987956 0.15530248
-0.050377127 0.034011684 -0.20384331 -0.11609044 0.26311877 0.33260837 -0.17094715 0.2647929
0.1393259 0.066245355 0.15051904 0.2096132 0.37943533 -0.083593614 0.08284457 0.23550463
0.05666992 0.015231755 0.28656858 -0.14686275 -0.116133966 0.053242955 -0.076996505 0.036110405
-0.07054526 0.23341602 -0.10144033 -0.05387604 0.009590216 0.035347033 -0.014445127 -0.24651176
-0.041985877 0.009121644 0.15814833 0.301397 -0.117292985 0.12915754 0.027038425 0.12901153
-0.19693087 -0.08886187 -0.0076770405 -0.00196021 0.2112765 0.24434331 0.13890418 0.15819176
-0.004749587 0.25240365 -0.0022404736 -0.3542225 0.10767858 -0.0850341 -0.06702123 -0.019278012
0.042151403 -0.010713964 -0.053971283 -0.1696148 0.029671285 -0.08809363 -0.15347153 -0.25733984
0.0610088 0.09038115 -0.18388772 0.14440866 -0.11908492 -0.11824396 -0.1936467 0.2313644
-0.01767861 0.13280955 -0.43020654 0.25756592 -0.032944206 -0.10643875 0.2662766 0.27266067
-0.42657796 0.068604015 -0.04771325 -0.15373984 0.09172553 -0.38703212 -0.04974916 -0.27474272
0.24206418 -0.03118755 0.06709983 0.08211773 0.053797074 0.048214298 0.19943184 -0.07152208
0.1553797 0.19381173 -0.09632876 -0.049106654 -0.21402499 -0.10760816 -0.03943077 -0.023699837
0.021293852 0.094031006 0.07771227 0.22056845 -0.014957177 0.19772074 -0.13593493 -0.11873153
-0.3323414 -0.1116377 -0.14842692 -0.21514946 0.16084044 -0.21289104 -0.20023304 0.33307105
0.04334583 0.03573704 0.22243549 -0.028078761 -0.05316081 -0.11449028 0.019372486 -0.10107918
00000000: 0fcc 453e dbed 81be 01c1 383e d3d0 5ebd
00000010: c8e2 72bd 81cb 693e 35cd b13d 487a 1fbe
00000020: d171 09bd 1dc4 ed3d 6356 ab3d dbe6 ee3d
00000030: 6eea 39bd aed3 113d 9255 243e 8e41 d23c
00000040: 1201 33be ca5f ea3d 2ca8 a9be 2254 bd3d
00000050: 170b 463e a561 d93d a063 36be 289c 98be
00000060: e541 843b 7791 403c 021d 64be 11a1 19be
00000070: ee9c 3b3e 7772 a03d 0cbb 883d d558 51be
00000080: 0868 a23d 006c 96bd 5394 cf3e 159f 8abd
00000090: 4602 973d cd68 11be a2ca 07be 719c dcbc
000000a0: d189 b4bd 8f47 913e 60b3 cfbd 5f3b 013b
000000b0: c27b dfbd 30f2 dbbc ab57 ab3e f43e 0abe
000000c0: b062 3a3e 0593 85be b479 b03d 5e98 dd3d
000000d0: f3b5 9fbd f466 f93d 2f3f 58be 870e 523d
000000e0: 347a c0bd 5479 25be b2a6 c83d c0a8 c8bc
000000f0: 598e 1dbe d542 e4be 5f6c 41ba 9997 e4bd
00000100: 5483 4abd 329d 5e3d 4bfb 94bd 16b4 21bd
00000110: 74a4 6e3d 2b38 96bd 87ac 74bd 5715 2ebd
00000120: 28fb 5fbe 1e01 76bd f540 7d3c 6b91 24be
00000130: fee1 86bd 9750 46be a351 7ebd 1435 9a3e
00000140: 2f32 0b3e 3039 1cbe c65b 583e c6df ab3d
00000150: 7f71 df3c 1b90 29be ba4c 023e a6f9 0dbe
00000160: c5be ad3e fc54 603d 30a1 693e ad41 d03e
00000170: 77f1 37be 68ed 9b3e 9cab aa3d e255 5fbe
00000180: 5bea 933d f40e 233e 6e4d 133e 00c9 173e
00000190: d968 043d 362b fb3d 5f71 d4bd ebd7 483e
000001a0: 777e 5d3d 110a da3d a0c2 553e b9e6 bd3d
000001b0: 56d2 923e 4565 4d3d b165 b5bc 4e24 9cbe
000001c0: ddff 323e e415 9ebc c569 b63d 4bfc bb3e
000001d0: 29fe f53d a9b5 e03d 05e1 463e 5d92 d03d
000001e0: 9db2 a7bc b8d4 f23d 2f6e 4ebc 80ba e4bd
000001f0: c0df b03e 325d 6b3d abea 56be 9d07 1f3e
00000200: 3f58 4ebd d64f 0b3d 4dbc 50be d3c0 edbd
00000210: 81b7 863e a54b aa3e c50c 2fbe ef92 873e
00000220: 73ab 0e3e a5ab 873d aa21 1a3e d8a4 563e
00000230: 5945 c23e 2133 abbd 6aaa a93d 2028 713e
00000240: b81e 683d 9c8e 793c 1eb9 923e 3063 16be
00000250: a5d7 edbd 4915 5a3d 58b0 9dbd 81e8 133d
00000260: 097a 90bd 9c04 6f3e f3bf cfbd 1fad 5cbd
00000270: 4820 1d3c 0dc8 103d 41ab 6cbc 946d 7cbe
00000280: 62f9 2bbd f372 153c a3f1 213e b550 9a3e
00000290: 4e37 f0bd e041 043e b07f dd3c 991b 043e
000002a0: 3fa8 49be 36fd b5bd af8f fbbb de76 00bb
000002b0: de58 583e 2235 7a3e e63c 0e3e 05fd 213e
000002c0: 6ca2 9bbb 0d3b 813e e9d4 12bb a75c b5be
000002d0: 9686 dc3d 5c26 aebd 6d42 89bd ecec 9dbc
000002e0: f3a6 2c3d 9f89 2fbc fe10 5dbd 81af 2dbe
000002f0: 3211 f33c 6f6a b4bd a427 1dbe 0cc2 83be
00000300: 5de4 793d c119 b93d 104d 3cbe dddf 133e
00000310: cbe2 f3bd e429 f2bd 524b 46be caea 6c3e
00000320: bbd2 90bc 3aff 073e 0844 dcbe aedf 833e
00000330: 81f0 06bd 8ffc d9bd 6855 883e 2e9a 8b3e
00000340: 6d68 dabe 4380 8c3d f86e 43bd fa6d 1dbe
00000350: 98da bb3d 1329 c6be c6c5 4bbd 14ab 8cbe
00000360: acdf 773e 087d ffbc a36b 893d 572d a83d
00000370: 525a 5c3d 5b7c 453d dc37 4c3e 2b7a 92bd
00000380: db1b 1f3e 9576 463e 0348 c5bd 0f24 49bd
00000390: 5e29 5bbe ab61 dcbd 2982 21bd 2926 c2bc
000003a0: 7270 ae3c 5493 c03d 9c27 9f3d b2dc 613e
000003b0: f30e 75bc 4e77 4a3e 8732 0bbe 8429 f3bd
000003c0: a728 aabe 4ea2 e4bd 3afd 17be 2450 5cbe
000003d0: 5bb3 243e 1c00 5abe e409 4dbe 4a88 aa3e
000003e0: 668b 313d 0161 123d 21c6 633e 6e05 e6bc
000003f0: 26bf 59bd e179 eabd 0cb3 9e3c 9a02 cfbd

network_body._body_endoder.seq_layers.0.bias f4 [256]
0.012125066 -0.05224151 -0.002066527 0.004339786 -0.0067939195 0.023709772 -0.026292363 0.036182974
-0.06145686 0.010968082 -0.038454365 0.036332928 0.055462256 0.071972854 0.06979757 0.021182084
-0.02124096 0.027552798 -0.00049159257 0.022698287 0.05177011 0.040557858 -0.016637204 -0.04960828
0.0110832825 0.042829704 0.000172545 -0.0057147946 0.012502846 0.045638893 0.04978683 0.07020613
-0.027200513 0.039184384 0.009597025 -0.076225266 -0.010236557 0.036381055 0.01717044 0.03138665
0.052311737 9.333949e-06 0.014914395 0.0059655034 0.028979516 0.0031810948 0.024966974 -0.014241675
0.0289998 -0.04167392 -0.007905168 0.037725683 -0.035869695 0.028852733 -0.030536203 0.058584277
0.07323872 -0.007226267 -0.029499086 0.010426054 0.016319703 -0.03179054 0.039635804 -0.0377913
0.032684803 -0.02652279 0.041774444 0.017063584 0.069529526 -0.004853854 -0.025551064 0.026236033
0.020378245 0.029893395 0.07335326 0.008061056 -0.03787513 -0.042706106 -0.008179195 -0.063329265
-0.004874141 0.022483584 0.007894866 -0.029177686 -0.02754241 -0.014037927 0.0073229577 0.0328213
0.009273817 0.023099663 0.03957155 0.05684059 0.0550286 -0.01656338 0.05619141 0.050524957
-0.040639814 -0.03495132 0.005482643 0.015670745 -0.010073802 0.01586493 0.0015542209 0.02386467
0.009176447 -0.013518393 0.033037987 0.0072132815 0.020990282 0.0075868573 0.016780403 0.027687116
0.006728003 0.018537655 -0.009284807 0.016583908 -0.0036698692 0.01982838 0.01572481 0.019875042
-0.030981675 0.003899695 -0.00072016654 -0.006385929 -0.013203687 -0.019944103 0.040361434 -0.06585458
0.017251004 -0.07501194 0.050803997 -0.004177335 0.028540868 0.012631792 0.02665937 0.057047233
-0.020521875 0.010676915 -0.025773061 0.0054094717 0.05873037 0.016751176 -0.0011504084 -0.010882198
-0.05349429 -0.048115924 -0.009090773 -0.04540566 -0.030988181 -0.012544878 -0.052940886 -0.020297028
-0.034421522 -0.016547926 0.024839595 0.051595505 -0.036033012 -0.016394276 -0.012766755 0.020117147
-0.002175812 0.07159299 -0.027498826 0.035631184 0.0019026008 0.028100744 -0.0027573446 -0.02207705
-0.010607328 -0.026421731 -0.040570337 0.0057700654 0.06305405 0.016597359 0.023122502 0.041712496
0.060003404 0.02491687 -0.024723472 0.023980489 0.0055017713 -0.027812868 -0.029783571 -0.02679948
-0.013123897 0.037897818 0.00027670903 -0.013341163 0.022084022 -0.0292778 -0.03876613 0.024629915
0.083939224 0.0148330545 0.051833216 0.13261932 0.054967802 -0.03893691 -0.0025967162 0.0117767565
-0.0026333723 -0.040110905 -0.07815898 0.036309864 0.011299023 -0.03427427 0.008535699 0.013579979
0.010177158 0.08536118 -0.02412384 0.06142506 -0.029731754 -0.01037668 -0.0017712127 0.050905183
-0.010471059 0.018357396 0.03400594 0.026965978 -0.021431986 -0.073225215 0.013391251 0.01152911
0.07561821 0.040895022 -0.011041734 -0.004681581 0.03130075 0.023345837 0.075045474 0.00723106
0.02718871 0.045350768 0.11730779 0.04613344 -0.045751464 0.0511685 0.04843464 -0.028775806
0.031504422 0.042216517 -0.05063288 0.08440869 0.0034965645 0.03186728 0.020860704 0.04921234
0.07862811 0.030934382 0.028177828 0.026224675 -0.018058151 0.058228403 -0.02815596 0.046631712
00000000: 36a8 463c 32fb 55bd 926e 07bb c334 8e3b
00000010: 879f debb ff3a c23c 1563 d7bc 9934 143d
00000020: 30ba 7bbd 78b3 333c 5382 1dbd d6d1 143d
00000030: 642c 633d 8166 933d 07f2 8e3d 0d86 ad3c
00000040: 8601 aebc 68b6 e13c 38de 00ba c2f1 b93c
00000050: e50c 543d ff1f 263d bf4a 88bc 0d32 4bbd
00000060: a896 353c 336e 2f3d 32ed 3439 2c43 bbbb
00000070: bdd8 4c3c d9ef 3a3d 46ed 4b3d 3bc8 8f3d
00000080: 9cd3 debc ce7f 203d d73c 1d3c fe1b 9cbd
00000090: 3bb7 27bc 4d04 153d 06a9 8c3c 4a8f 003d
000000a0: d544 563d 0199 1c37 825b 743c 457a c33b
000000b0: 7366 ed3c ea79 503b 8a87 cc3c ea55 69bc
000000c0: fd90 ed3c 46b2 2abd ae84 01bc 3f86 1a3d
000000d0: 1aec 12bd 915c ec3c 0f27 fabc 11f6 6f3d
000000e0: 2ffe 953d 52ca ecbb 11a8 f1bc 0ad2 2a3c
000000f0: e6b0 853c cc36 02bd 2759 223d 0dcb 1abd
00000100: 80e0 053d 5246 d9bc ae1b 2b3d eec8 8b3c
00000110: 7f65 8e3d 140d 9fbb 7750 d1bc f3ec d63c
00000120: 47f0 a63c fee2 f43c 3c3a 963d 8512 043c
00000130: f422 1bbd 99ec 2ebd 0802 06bc c6b2 81bd
00000140: 42b7 9fbb 7e2f b83c 7859 013c 0b06 efbc
00000150: 9fa0 e1bc 55ff 65bc 6cf5 ef3b a16f 063d
00000160: 35f1 173c 813b bd3c c715 223d aed1 683d
00000170: ab65 613d edaf 87bc f728 663d 42f3 4e3d
00000180: ef75 26bd 1e29 0fbd bea7 b33b ef5f 803c
00000190: 970c 25bc 2bf7 813c 00b7 cb3a d77f c33c
000001a0: cf58 163c 407c 5dbc d752 073d 645d ec3b
000001b0: d0f3 ab3c 2c9b f83b 0e77 893c 17d0 e23c
000001c0: 9476 dc3b 48dc 973c 4e1f 18bc fada 873c
000001d0: 3082 70bb 206f a23c 51d1 803c fcd0 a23c
000001e0: 48cd fdbc 0692 7f3b 8fc9 3cba 0e41 d1bb
000001f0: 4754 58bc d161 a3bc 0852 253d c4de 86bd
00000200: fa51 8d3c dc9f 99bd da17 503d 07e2 88bb
00000210: 8ace e93c 93f5 4e3c c064 da3c 5caa 693d
00000220: 7e1d a8bc 3aee 2e3c 0722 d3bc f041 b13b
00000230: 428f 703d c339 893c 4dc9 96ba 3f4b 32bc
00000240: d41c 5bbd 3415 45bd 77f1 14bc 49fb 39bd
00000250: edda fdbc 0889 4dbc 8bd8 58bd f445 a6bc
00000260: 95fd 0cbd 848f 87bc 687c cb3c cf55 533d
00000270: 5a97 13bd 4a4d 86bc a72b 51bc b7cc a43c
00000280: 1198 0ebb 589f 923d 3845 e1bc 01f2 113d
00000290: b060 f93a 8833 e63c 91b4 34bb eeda b4bc
000002a0: 5cca 2dbc 6372 d8bc 152d 26bd d112 bd3b
000002b0: 7b22 813d 2ff7 873c 676b bd3c b9da 2a3d
000002c0: 21c6 753d 771e cc3c e188 cabc bb72 c43c
000002d0: 3448 b43b d0d7 e3bc adfc f3bc 958a dbbc
000002e0: 9d05 57bc be3a 1b3d 4213 9139 e594 5abc
000002f0: 8de9 b43c ffd7 efbc 3cc9 1ebd adc4 c93c
00000300: 54e8 ab3d 5706 733c 114f 543d 5ccd 073e
00000310: eb25 613d 4f7c 1fbd ab2d 2abb 4cf3 403c
00000320: a894 2cbb 554b 24bd d111 a0bd a7b9 143d
00000330: 8a1f 393c 2d63 0cbd 51d9 0b3c 8f7e 5e3c
00000340: 18be 263c d8d1 ae3d 5c9f c5bc d898 7b3d
00000350: 0290 f3bc f302 2abc 0928 e8ba f481 503d
00000360: ce8e 2bbc 4062 963c d049 0b3d c1e7 dc3c
00000370: 2292 afbc 1af7 95bd fa66 5b3c 98e4 3c3c
00000380: b8dd 9a3d 8a81 273d 64e8 34bc f367 99bb
00000390: 3735 003d c53f bf3c 71b1 993d 87f2 ec3b
000003a0: dcba de3c bac1 393d 113f f03d 6bf6 3c3d
000003b0: e365 3bbd 1096 513d 6763 463d 3dbb ebbc
000003c0: c80a 013d 3aeb 2c3d 6c64 4fbd 77de ac3d
000003d0: 9e26 653b 4487 023d 11e4 aa3c e192 493d
000003e0: c607 a13d 1a6a fd3c 30d5 e63c 21d5 d63c
000003f0: b0ee 93bc e880 6e3d 54a7 e6bc e500 3f3d

network_body._body_endoder.seq_layers.2.weight f4 [256, 256]
-0.021318514 0.083878815 0.025147608 0.055975955 -0.019948235 -0.1293638 -0.10688452 0.017732345
-0.09844188 0.038307827 -0.07242282 -0.14358751 0.062469892 0.034834083 0.045206405 -0.09453077
0.098591946 0.046656396 0.07824852 -0.026312605 -0.048569586 0.014113544 -0.039652534 0.054340757
0.12817422 -0.045828354 -0.041909803 -0.09060694 0.09636329 0.14677005 -0.04049375 -0.056626502
0.023233386 -0.008302237 -0.100724414 0.010149628 0.020231498 -0.07185973 -0.0757569 -0.009041144
-0.06757635 0.03567696 0.14653923 0.041259434 0.062293667 -0.050229087 0.11022591 0.04366699
0.01856861 0.022854608 -0.12605394 -0.014619122 0.002517514 -0.042506747 -0.16242588 -0.02664907
-0.05013615 0.024066621 0.13178045 -0.021280475 0.087857895 0.100101836 0.0269251 0.044439167
-0.0075055547 0.008967033 0.03434676 -0.12495693 -0.012816342 0.0766024 -0.05794496 -0.06285242
-0.016141413 -0.12212322 -0.047266055 -0.1298325 -0.0009192696 0.08187211 0.042799897 -0.047664
0.032259066 -0.023213448 0.13677071 0.012116163 0.107979685 -0.09690251 0.06535317 -0.065196194
-0.021784874 -0.11447571 -0.059820693 0.05643923 0.006515292 0.065322995 0.05540927 0.17396186
-0.05564049 0.1423787 -0.0054850886 -0.03381561 -0.057521608 0.014119816 0.16336143 0.10211673
0.01048153 -0.0678619 -0.094345234 0.08505908 0.1087516 0.13529332 -0.093733564 -0.021545483
-0.0071945037 -0.037876863 -0.10561907 0.097145855 0.011700067 -0.025389828 -0.12515062 -0.0014823006
-0.05702261 -0.028804218 -0.0700459 -0.09492781 0.022797216 -0.026745055 0.0029633697 -0.03410889
-0.08463912 0.07300618 0.014255387 -0.04041827 -0.04020803 -0.040808946 0.012617161 0.11552439
0.0028161325 0.07564849 0.06081695 -0.020380598 0.11331002 0.039022084 0.067470714 0.073367976
-0.068364374 0.14817137 -0.11132457 0.09948154 -0.031508632 -0.0043349606 -0.036465738 -0.11876605
-0.0029933548 0.025389794 -0.0003929133 -0.047951274 -0.05670846 0.045380816 -0.07084132 -0.020674923
-0.03502794 -0.048256602 0.043454643 -0.007721828 0.058512483 0.12232645 -0.081270285 0.03602032
0.026003784 0.12222134 0.061001364 0.0033922216 -0.091229655 0.002364158 0.03924402 0.06767134
0.14083965 0.012593371 -0.031487033 -0.090808384 0.010202667 -0.15498877 0.08812833 -0.04620463
0.18606737 -0.11625472 -0.019674862 0.0933731 0.0535938 0.16061449 -0.08810101 -0.006202104
-0.1179316 0.01308942 0.012073063 0.105478086 0.0046018823 -0.028319046 -0.16998746 -0.026685352
-0.12710139 -0.07337741 -0.10496599 -0.03029285 -0.07614553 -0.06334229 0.14417875 -0.13742767
-0.027554473 0.00576496 -0.10980006 0.05835615 0.04225203 -0.060370326 0.02080081 -0.02013273
0.09414777 -0.10370496 0.06087498 -0.1273833 -0.03917809 -0.086628236 -0.08008014 -0.008544512
0.04796628 -0.113106385 -0.1744928 0.035398707 0.084005244 -0.0073713087 -0.050785832 -0.039508756
-0.063831605 0.09804315 -0.061264023 0.059280116 -0.06707744 -0.07069185 0.13368332 0.01723189
-0.122118294 0.015449392 -0.07233892 -0.0045224978 -0.19740732 -0.015088421 -0.085653655 0.0702553
-0.06845302 -0.042718217 0.016416105 0.045707636 -0.0040269895 0.036878534 -0.035038207 -0.022295626
00000000: 2aa4 aebc a8c8 ab3d 5b02 ce3c 0b47 653d
00000010: 7b6a a3bc f277 04be 45e6 dabd 6c43 913c
00000020: e59b c9bd abe8 1c3d 6a52 94bd 9b08 13be
00000030: 6ee0 7f3d 2fae 0e3d 5a2a 393d 5999 c1bd
00000040: 93ea c93d c71a 3f3d c340 a03d 888d d7bc
00000050: e7f0 46bd 7e3c 673c b26a 22bd 6a94 5e3d
00000060: 1a40 033e 83b6 3bbd 9da9 2bbd 2290 b9bd
00000070: 1e5a c53d e34a 163e c6dc 25bd 31f1 67bd
00000080: f153 be3c 1b06 08bc 9a48 cebd a04a 263c
00000090: 87bc a53c 322b 93bd 6f26 9bbd 4e21 14bc
000000a0: 7865 8abd 0122 123d 610e 163e a7ff 283d
000000b0: a527 7f3d 04bd 4dbd 1fbe e13d 28dc 323d
000000c0: 331d 983c 9639 bb3c 4914 01be 0b85 6fbc
000000d0: e0fc 243b 8e1b 2ebd f852 26be 274f dabc
000000e0: 905b 4dbd 5d27 c53c 74f1 063e 6454 aebc
000000f0: d7ee b33d 3102 cd3d 0792 dc3c d805 363d
00000100: 28f1 f5bb 76ea 123c 30af 0c3d 6be9 ffbd
00000110: a2fb 51bc b8e1 9c3d b257 6dbd c5b8 80bd
00000120: ff3a 84bc bd1b fabd 0d9a 41bd d0f2 04be
00000130: 23fb 70ba 91ac a73d f24e 2f3d 543b 43bd
00000140: 1522 043d 212a bebc 9f0d 0c3e df82 463c
00000150: 7424 dd3d d374 c6bd e2d7 853d 9585 85bd
00000160: 3176 b2bc 3e72 eabd 8b06 75bd d22c 673d
00000170: 3b7e d53b 10c8 853d d5f4 623d 0f23 323e
00000180: 48e7 63bd b9cb 113e 42bc b3bb 3d82 0abd
00000190: c79b 6bbd cd56 673c 3848 273e 9322 d13d
000001a0: b9ba 2b3c 2efb 8abd 1338 c1bd 7433 ae3d
000001b0: 29b9 de3d 558a 0a3e 62f7 bfbd 2780 b0bc
000001c0: dfbf ebbb c524 1bbd d04e d8bd 68f4 c63d
000001d0: a3b1 3f3c 54fe cfbc 7c27 00be c149 c2ba
000001e0: 8a90 69bd d3f6 ebbc 3a74 8fbd 8369 c2bd
000001f0: 3ac1 ba3c 7218 dbbc 1835 423b c3b5 0bbd
00000200: 4657 adbd 4484 953d 6d8f 693c a18d 25bd
00000210: 2db1 24bd 4827 27bd 35b8 4e3c 0d98 ec3d
00000220: dd8e 383b 98ed 9a3d 321b 793d 36f5 a6bc
00000230: 150f e83d 9fd5 1f3d 162e 8a3d f341 963d
00000240: 9f02 8cbd 3cba 173e 23fe e3bd fabc cb3d
00000250: 320f 01bd 490c 8ebb 195d 15bd 9d3b f3bd
00000260: 292c 44bb 42fe cf3c eeff cdb9 8e68 44bd
00000270: 2147 68bd 3ce1 393d 4115 91bd 755e a9bc
00000280: 7579 0fbd b7a8 45bd 7ffd 313d 6307 fdbb
00000290: c9aa 6f3d 4a86 fa3d 0971 a6bd 0b8a 133d
000002a0: e305 d53c 2f4f fa3d 91dc 793d 0950 5e3b
000002b0: 9dd6 babd fdef 1a3b 56be 203d 4697 8a3d
000002c0: 4538 103e 6d54 4e3c 8cf8 00bd bff9 b9bd
000002d0: 1629 273c 60b5 1ebe a07c b43d 1141 3dbd
000002e0: 7288 3e3e f416 eebd 2d2d a1bc 653a bf3d
000002f0: 2c85 5b3d 2078 243e 4d6e b4bd 053b cbbb
00000300: 1f86 f1bd 0275 563c 19ce 453c e504 d83d
00000310: 63cb 963b 58fd e7bc 3111 2ebe 3d9b dabc
00000320: de26 02be e546 96bd 69f8 d6bd b628 f8bc
00000330: 30f2 9bbd 9ab9 81bd 98a3 133e d7b9 0cbe
00000340: ebb9 e1bc fde7 bc3b dbde e0bd dc06 6f3d
00000350: 7710 2d3d e046 77bd 7666 aa3c 65ed a4bc
00000360: 8cd0 c03d 4463 d4bd 0b58 793d c570 02be
00000370: 3479 20bd 256a b1bd 0e01 a4bd 48fe 0bbc
00000380: 4a78 443d 52a4 e7bd 3eae 32be 3cfe 103d
00000390: f10a ac3d 058b f1bb ce04 50bd efd3 21bd
000003a0: 25ba 82bd d9ca c83d fcef 7abd b5cf 723d
000003b0: e65f 89bd e3c6 90bd 48e4 083e e429 8d3c
000003c0: 2819 fabd 721f 7d3c 6d26 94bd 7631 94bb
000003d0: 2525 4abe 6d35 77bc 2f6b afbd 03e2 8f3d
000003e0: 1931 8cbd 4cf9 2ebd 117b 863c ee37 3b3d
000003f0: d6f4 83bb f20d 173d 3984 0fbd 51a5 b6bc

network_body._body_endoder.seq_layers.2.bias f4 [256]
0.005038824 -0.011645312 0.02281266 0.03160394 0.06812062 0.022897327 0.01120304 0.017699214
0.043265983 0.024955692 0.014111177 -0.037001923 -0.048601307 0.021155382 -0.028752893 -0.009327344
0.009774227 0.0034049836 0.074894644 0.034253318 -0.007991705 0.044004053 0.015576149 0.0030328361
-0.030548785 -0.00891556 0.023671538 0.045752183 -0.0764032 0.0029878216 0.009239788 0.02898461
-0.015154437 -0.059590597 -0.03886047 0.035331357 -0.04929551 0.024698872 -0.053819444 0.058095798
-0.068195336 -0.079107136 0.024851367 0.026615353 0.01612965 -0.0640558 0.04011266 0.028133063
-0.028811468 -0.00039296187 0.062450994 -0.02777752 0.004884491 -0.020304846 0.02153896 0.01994432
0.060264233 0.0015569661 -0.05759 -0.033992946 0.007262302 0.0051286723 0.009912187 -0.0104164835
-0.033517923 0.011431373 -0.04077008 -0.009387571 -0.024019813 0.065368466 0.01159086 -0.007347772
0.03181685 0.025610767 0.004619268 0.00905449 0.02513938 -0.010872571 0.0151756015 0.022758719
-0.027497485 -0.008680455 0.0068122083 0.014754652 0.016760888 0.03277803 -0.04164024 0.014898943
-0.021941647 0.003752598 -0.04226176 0.00013711833 0.07834165 -0.022377538 0.0026344792 -0.0008030067
0.027484763 0.01856056 -0.0021423409 0.043200962 0.022887975 -0.009599274 -0.017290976 0.041508578
0.00034433661 0.010443518 0.035629302 0.003029287 0.014575886 -0.0010241928 0.032086726 0.048520327
-0.008020157 0.017169992 0.0558808 -0.01559518 -0.02675671 -0.06728319 -0.017386097 -0.0026010163
-0.023081055 -0.060116515 -0.020457434 0.051297456 0.029599149 -0.01136388 0.024599142 0.03065153
0.05094498 0.080254726 -0.01223153 -0.016858337 0.018169241 -0.030016562 0.04709284 0.0036299508
-0.0031519984 0.015676472 0.006896715 0.06493136 0.018223071 0.05642692 0.0071433065 0.003385885
0.024350483 0.0032034025 -0.013110326 0.00888942 0.05730051 0.048580486 -0.009289776 0.042778023
0.035487916 -0.008873025 -0.01652931 0.07704461 0.088061355 -0.030383958 0.0049841227 0.02233162
-0.06605089 -0.030644603 0.0031373494 -0.013820615 0.03701562 0.025775084 0.024989298 0.008836756
0.016348135 -0.00054147944 -0.035431437 0.010858914 0.088109285 -0.0023708574 0.046407714 0.008264576
-0.0036686477 -0.024765326 -0.019884989 -0.008211667 0.015070409 -0.010854364 0.05838247 0.0110781025
0.004250933 0.0037560957 0.08179234 0.07003673 0.02220328 -0.001191523 -0.019325167 0.05263253
0.05179592 -0.02464661 0.10271558 -0.03189074 0.045877315 0.013200113 0.014018999 -0.0122137
0.019821327 0.025201106 0.01867512 0.058817785 0.07217853 0.056025464 -0.0060660113 -0.00606154
0.024301574 0.009755102 0.029962469 -0.0075375983 0.052612353 0.03981703 0.039147682 -0.015831549
-0.0112003395 -0.010676736 0.047817033 0.058781464 0.045654435 0.045498848 0.057581723 -0.03462507
0.017643316 -0.009370491 0.0051295743 -0.048577964 -0.0006962514 -0.021608645 0.051633514 0.029601952
0.0017050726 0.028594358 0.09287573 -0.015540119 0.02454328 0.01599283 -0.005589352 -0.027210236
0.038208958 -0.0059008086 0.037372295 0.010005212 -0.003930388 -0.003145474 -0.024792057 0.005295836
-0.05065525 -0.03191537 0.02658641 -0.07314225 0.02702536 -0.011003268 -0.0028198864 0.060795967
00000000: b81c a53b fbcb 3ebc 9ee1 ba3c 2273 013d
00000010: d382 8b3d 2d93 bb3c f58c 373c f1fd 903c
00000020: ac37 313d e16f cc3c 9132 673c 548f 17bd
00000030: 2a12 47bd 0d4e ad3c 308b ebbc b7d1 18bc
00000040: 1424 203c 2526 5f3b 5d62 993d 354d 0c3d
00000050: a4ef 02bc 983d 343d 1b33 7f3c 8cc2 463b
00000060: 7241 fabc 9212 12bc d0ea c13c a466 3b3d
00000070: 4879 9cbd 54cf 433b 7b62 173c 2271 ed3c
00000080: 514a 78bc 4515 74bd 282c 1fbd 9db7 103d
00000090: 17ea 49bd 4a55 ca3c c771 5cbd dcf5 6d3d
000000a0: ffa9 8bbd ec02 a2bd 1895 cb3c 7108 da3c
000000b0: 5422 843c b02f 83bd 2c4d 243d 4f77 e63c
000000c0: 0706 ecbc 7306 ceb9 9dcc 7f3d ae8d e3bc
000000d0: 150e a03b 5956 a6bc 7972 b03c 4562 a33c
000000e0: a1d7 763d 1d13 cc3a 7ee3 6bbd 303c 0bbd
000000f0: 9bf8 ed3b 6c0e a83b ba66 223c e6a9 2abc
00000100: 174a 09bd a74a 3b3c 87fe 26bd 54ce 19bc
00000110: 33c5 c4bc e7df 853d 97e7 3d3c 94c5 f0bb
00000120: 6352 023d accd d13c 3a5d 973b 4959 143c
00000130: 1af1 cd3c de22 32bc 16a3 783c 7e70 ba3c
00000140: 6842 e1bc 7838 0ebc f238 df3b 7fbd 713c
00000150: 214e 893c 4142 063d f58e 2abd b21a 743c
00000160: f8be b3bc 26ee 753b ab1a 2dbd 6cc7 0f39
00000170: 9671 a03d 1951 b7bc 3aa7 2c3b de80 52ba
00000180: ba27 e13c 510c 983c 8466 0cbb 7ef3 303d
00000190: 907f bb3c 4646 1dbc cea5 8dbc e604 2a3d
000001a0: 1488 b439 4a1b 2b3c 08f0 113d 0187 463b
000001b0: b2cf 6e3c 353e 86ba 5f6d 033d 40bd 463d
000001c0: fa66 03bc 15a8 8c3c 44e3 643d ed82 7fbc
000001d0: e330 dbbc c5cb 89bd 4a6d 8ebc d075 2abb
000001e0: 7b14 bdbc bc3c 76bd 5996 a7bc 481d 523d
000001f0: ea79 f23c 912f 3abc 2484 c93c eb18 fb3c
00000200: afab 503d 975c a43d c166 48bc 7f1a 8abc
00000210: a9d7 943c 4be5 f5bc 6ce4 403d 78e4 6d3b
00000220: c291 4ebb f26b 803c d7fd e13b bcfa 843d
00000230: 8d48 953c ea1f 673d 6612 ea3b b9e5 5d3b
00000240: aa7a c73c 2df0 513b b1cc 56bc eea4 113c
00000250: f1b3 6a3d 55fc 463d 2534 18bc 0238 2f3d
00000260: c75b 113d 2a60 11bc 7a68 87bc 91c9 9d3d
00000270: 8359 b43d c7e7 f8bc da51 a33b cdf0 b63c
00000280: b045 87bd 640a fbbc fd9b 4d3b dc6f 62bc
00000290: b19d 173d 4526 d33c 5bb6 cc3c 0bc8 103c
000002a0: 86ec 853c 12f2 0dba 8e20 11bd 96e9 313c
000002b0: a472 b43d 6360 1bbb 0416 3e3d 2568 073c
000002c0: b26d 70bb a7e0 cabc d8e5 a2bc 3a8a 06bc
000002d0: e0e9 763c 81d6 31bc 7522 6f3d ee80 353c
000002e0: 694b 8b3b d428 763b be82 a73d 6b6f 8f3d
000002f0: a7e3 b53c e12c 9cba d04f 9ebc 3595 573d
00000300: f527 543d b0e7 c9bc 8c5c d23d dd9f 02bd
00000310: dae9 3b3d 4945 583c f2af 653c f91b 48bc
00000320: 5660 a23c 8d72 ce3c 91fc 983c ebea 703d
00000330: 56d2 933d f57a 653d 64c5 c6bb e29f c6bb
00000340: 1814 c73c ddd3 1f3c da73 f53c f5fd f6bb
00000350: 0d80 573d 2f17 233d 5259 203d 2ab1 81bc
00000360: a181 37bc 7aed 2ebc cbdb 433d d5c4 703d
00000370: 2500 3b3d 005d 3a3d d0da 6b3d 04d3 0dbd
00000380: b788 903c b086 19bc fd15 a83b b0f9 46bd
00000390: a484 36ba 9d04 b1bc aa7d 533d cb7f f23c
000003a0: be7c df3a b73e ea3c a135 be3d fc9b 7ebc
000003b0: fd0e c93c 6503 833c e226 b7bb 00e8 debc
000003c0: ff80 1c3d 925b c1bb b113 193d e7ec 233c
000003d0: 7cca 80bb 4c24 4ebb b618 cbbc b188 ad3b
000003e0: e17b 4fbd b1b9 02bd becb d93c 9bcb 95bd
000003f0: 4a64 dd3c 0d47 34bc d8cd 38bb 3105 793d

network_body._body_endoder.seq_layers.4.weight f4 [256, 256]
-0.018657168 0.07495404 -0.08263507 -0.09858126 -0.019062001 -0.16153336 -0.032120526 0.0333552
-0.041473545 -0.04488098 -0.06629129 -0.057682578 -0.08626647 -0.08818127 -0.0093879495 0.057021257
-0.08821388 0.016051134 -0.023021167 0.068492785 -0.046957582 -0.04505247 -0.0095186895 0.10708366
0.09995721 0.0204025 0.050827283 0.04808524 0.08345838 -0.00071430067 -0.0093997335 0.03916898
-0.03203133 -0.04326219 -0.12938835 -0.027896702 -0.027189316 -0.15180853 0.12332818 0.038926978
0.06723759 0.14670338 0.022881048 -0.030793473 -0.04904642 -0.038304854 -0.024810849 -0.043333948
-0.07260829 -0.03528597 0.04917946 0.07621774 0.017697964 0.040089536 0.10460318 -0.07695425
-0.10760897 -0.06892301 0.08065012 -0.06627316 0.028006395 -0.019313714 0.025267838 0.061668716
-0.1200535 -0.009437974 -0.13544795 -0.11055227 0.023540828 -0.100562885 -0.030968266 0.13413616
0.007719103 -0.040248934 0.016149344 0.06694838 -0.036180068 -0.10790905 -0.006043231 0.0680049
0.09398496 0.19198973 0.018205887 0.0032068796 0.032812394 -0.0534542 -0.08021152 0.011938894
0.002735528 0.043875694 0.00510707 -0.08414672 0.17980854 -0.0680973 -0.041984044 0.0403232
0.10825541 0.007446108 -0.050852295 0.04989487 0.028977105 0.08764475 0.060348853 0.0152537655
0.103268765 -0.0031107406 -0.021649914 0.0019660548 0.009187978 0.12832457 0.0289019 0.14499475
0.005812678 0.12221 0.026060732 -0.08611901 0.009851808 0.017376399 -0.074751675 -0.12029149
0.013344625 0.051975194 -0.08333017 0.071770124 0.03276581 0.044486947 0.08997789 0.08246334
0.09328966 0.004839739 -0.0041296165 0.060220923 -0.021649497 0.015291591 -0.01285281 -0.101266205
0.091547236 0.05576981 -0.042699438 -0.011923806 0.12588546 0.031146895 -0.15146509 0.018231098
-0.10237628 -0.055470396 0.066383585 0.09650517 -0.021587757 0.08142366 -0.084447525 0.064460814
-0.020023275 0.04889373 -0.025503526 -0.060226433 0.083254226 -0.06586367 0.017005106 -0.099714465
0.165117 -0.12542957 0.06335329 -0.052210793 -0.13640535 0.1106032 0.010578509 -0.12448774
-0.005090395 -0.0018613845 -0.026106743 -0.06635756 -0.07371481 0.07174497 0.0017787792 -0.22128218
-0.07109352 0.064831115 -0.048175722 0.017846743 -0.05090403 0.0053102933 0.039270937 -0.051212423
0.098550186 0.05268583 0.05223182 0.1604404 0.0060970234 0.061213672 -0.04440489 0.077178344
-0.045110203 -0.119819604 -0.045440968 -0.004227518 0.11130558 -0.0830598 0.075665645 0.0115337055
-0.07087599 0.00541684 0.0006053751 0.018051669 -0.029697347 -0.1373866 -0.015387863 0.079437025
-0.014116678 -0.16121297 -0.087841526 0.03414161 -0.05867515 0.100745484 -0.1265461 0.06056592
-0.1046181 0.02175247 -0.04085032 -0.07788046 0.040666446 -0.021142587 0.0034876943 0.020069033
-0.07533233 0.015126685 0.003455626 -0.04369564 -0.09438061 -0.032707095 -0.043936566 0.037684843
0.108536735 -0.08157457 0.06587144 0.014990742 0.031530958 0.11250042 -0.03524523 -0.08606384
0.062829375 -0.1479111 0.08118287 0.057316177 0.04445888 0.15076433 -0.093740225 -0.053303275
-0.019011538 -0.03334517 -0.043857887 -0.009081832 0.0060670213 -0.028710501 0.071115874 0.0037921446
00000000: ebd6 98bc 8181 993d 933c a9bd f9e4 c9bd
00000010: ea27 9cbc 0069 25be d090 03bd 769f 083d
00000020: 2ae0 29bd 1ed5 37bd bac3 87bd 9144 6cbd
00000030: 7aac b0bd 6298 b4bd eacf 19bc 1f8f 693d
00000040: 7ba9 b4bd ab7d 833c e396 bcbc f245 8c3d
00000050: 9856 40bd f088 38bd 47f4 1bbc ae4e db3d
00000060: 5eb6 cc3d 2523 a73c 4530 503d 07f5 443d
00000070: 3aec aa3d e83f 3bba 5701 1abc a76f 203d
00000080: 4933 03bd b233 31bd 617e 04be a087 e4bc
00000090: 21bc debc b273 1bbe 7c93 fc3d e571 1f3d
000000a0: ddb3 893d 6939 163e 0971 bb3c 9842 fcbc
000000b0: e6e4 48bd 8de5 1cbd 1f40 cbbc f07e 31bd
000000c0: a8b3 94bd 0588 10bd 6770 493d 0c18 9c3d
000000d0: 52fb 903c ed34 243d 313a d63d 319a 9dbd
000000e0: 1762 dcbd 8227 8dbd e42b a53d 39ba 87bd
000000f0: ab6d e53c cb37 9ebc 7ffe ce3c 5698 7c3d
00000100: 9cde f5bd bba1 1abc deb2 0abe 3b69 e2bd
00000110: b2d8 c03c eaf3 cdbd 29b1 fdbc fd5a 093e
00000120: 87f0 fc3b 11dc 24bd a14b 843c 3b1c 893d
00000130: 8d31 14bd 6cff dcbd 4c06 c6bb 2746 8b3d
00000140: 307b c03d f598 443e 8324 953c 832a 523b
00000150: 4a66 063d cbf2 5abd f045 a4bd 5a9b 433c
00000160: 8b46 333b 00b7 333d 3559 a73b 1e55 acbd
00000170: bb1f 383e 9976 8bbd 76f7 2bbd f129 253d
00000180: 03b5 dd3d 7bfe f33b 7f4a 50bd 905e 4c3d
00000190: 6561 ed3c 177f b33d 5c30 773d eeea 793c
000001a0: 937e d33d 91dd 4bbb 295b b1bc edd8 003b
000001b0: 2c89 163c 8467 033e adc3 ec3c 8179 143e
000001c0: 4778 be3b 3d49 fa3d 517d d53c 2a5f b0bd
000001d0: 7a69 213c f358 8e3c 6817 99bd 625b f6bd
000001e0: 6aa3 5a3c f1e3 543d 02a9 aabd 37fc 923d
000001f0: 7135 063d f237 363d 5446 b83d 8ae2 a83d
00000200: a60e bf3d ac96 9e3b bc51 87bb 37aa 763d
00000210: 495a b1bc 9589 7a3c 9894 52bc a864 cfbd
00000220: 1e7d bb3d e26e 643d 9be5 2ebd 115c 43bc
00000230: 1ee8 003e c627 ff3c aa19 1bbe 6259 953c
00000240: a8aa d1bd ed34 63bd 1ef4 873d 81a4 c53d
00000250: cfd8 b0bc 73c1 a63d d3f2 acbd 0804 843d
00000260: da07 a4bc cb44 483d c5ec d0bc feaf 76bd
00000270: 3181 aa3d 88e3 86bd 4b4e 8b3c 1937 ccbd
00000280: 6e14 293e 9c70 00be 5fbf 813d fcda 55bd
00000290: d8ad 0bbe ee83 e23d 7c51 2d3c 6ef3 febd
000002a0: 54cd a6bb b3f9 f3ba cfdd d5bc 79e6 87bd
000002b0: caf7 96bd 07ef 923d ed25 e93a cc97 62be
000002c0: 7b99 91bd 2dc6 843d e853 45bd 5533 923c
000002d0: bf80 50bd f801 ae3b 90da 203d 1ec4 51bd
000002e0: aed4 c93d 19cd 573d 08f1 553d 7d4a 243e
000002f0: 8ac9 c73b 30bb 7a3d e7e1 35bd ae0f 9e3d
00000300: 7ac5 38bd fb63 f5bd 4f20 3abd fe86 8abb
00000310: 2ef4 e33d 421b aabd 97f6 9a3d def7 3c3c
00000320: 6e27 91bd bf7f b13b 09b2 1e3a 18e1 933c
00000330: da47 f3bc 13af 0cbe 601d 7cbc e1af a23d
00000340: a449 67bc 0315 25be 42e6 b3bd 13d8 0b3d
00000350: 5b55 70bd a653 ce3d 4d95 01be f813 783d
00000360: 0442 d6bd 3c32 b23c aa52 27bd ca7f 9fbd
00000370: dc91 263d 3833 adbc cd91 643b d067 a43c
00000380: d647 9abd ead5 773c c977 623b 33fa 32bd
00000390: 9f4a c1bd e0f7 05bd d4f6 33bd 6c5b 1a3d
000003a0: 8248 de3d 9110 a7bd 9be7 863d bb9b 753c
000003b0: 9b26 013d 9f66 e63d 4d5d 10bd 3d42 b0bd
000003c0: b0ac 803d 0276 17be 3443 a63d 5ec4 6a3d
000003d0: 841a 363d f761 1a3e e0fa bfbd 8954 5abd
000003e0: 16be 9bbc f294 08bd 54a4 33bd f7cb 14bc
000003f0: ddcd c63b 4932 ebbc 33a5 913d a185 783b

network_body._body_endoder.seq_layers.4.bias f4 [256]
-0.0028044912 0.0059369965 0.060317222 0.057571582 0.010257967 0.057499476 0.008486942 0.014914072
-0.013494538 0.019169997 0.01678183 0.005331593 0.043112725 -0.03565299 0.07155758 0.054055694
-0.027888352 0.035844024 0.0027989964 0.0054881494 0.017400982 0.014744102 0.03971407 0.007810864
0.029567199 0.018958472 -0.06668869 0.03251394 0.0045812563 0.0728255 0.02000669 0.020768333
0.046643816 0.06401904 0.046345126 0.021766415 0.016071081 0.001439636 0.04163043 0.006145253
0.012253455 0.032596856 0.013173294 0.021925457 0.0108026005 0.02850388 -0.0056343516 -0.0113892825
0.029946169 -0.0033096978 0.037486907 0.032572363 -0.013976789 0.023068558 -0.001601555 0.045620646
0.030299433 0.029033717 0.019745156 0.029560352 0.013456335 -0.001983675 -0.028642807 -0.021771027
-0.0034623023 0.00088917476 -0.004322095 -0.029349321 0.03514115 -0.00087611366 -0.022471717 0.021313349
0.06506884 0.026823876 -0.01423183 0.028884698 0.030058222 0.012008688 0.027658876 -0.015734289
0.01652209 0.022064475 0.020876871 0.028453378 0.06681929 -0.0041242978 0.008629167 0.022462524
0.00983635 0.027021177 -0.017588643 0.01771078 0.009738523 0.030393839 -0.0067033935 0.01740541
0.07294076 -0.025372088 0.036573503 0.030808242 0.025475303 0.018726815 -0.0013642552 0.04785993
0.022019094 0.0037522041 0.07400357 0.023159403 0.047280528 0.04983758 0.015164712 -0.0021616137
0.054754175 0.0126135005 0.0016238204 -0.0037429635 0.025290556 0.0005912758 -0.015089587 0.009939849
0.06130513 0.047542665 0.056444578 0.019614154 0.009448097 0.07678291 0.01116513 0.019852016
0.002299695 -0.02487069 0.020849666 0.03563873 0.014129836 -0.0129306065 0.052144185 -0.02312037
0.016265912 0.04034951 0.03468426 0.02855549 0.0018781339 0.033094116 -0.03628851 0.0028746217
0.012301627 0.002440859 0.039574087 0.040767927 0.06686582 0.05969681 0.028556027 -0.016053634
0.026611218 0.009443573 0.070507914 -0.0058603575 0.09477102 0.03991278 0.023331363 0.01884094
0.08110948 0.040304963 0.03978312 0.02346271 0.019226827 0.055313513 -0.03233644 -0.05167343
0.012777889 0.031926747 0.01738307 0.014192807 0.034783166 0.022497406 0.0020823402 0.011299934
0.013788227 -0.04357632 -0.018487202 0.049725465 0.045807146 0.03289429 0.05004854 -0.009259802
0.04144844 0.049198188 0.024455924 0.043498177 0.056727055 0.058070607 0.0053778286 0.02939987
0.011237278 0.036780212 0.0006230313 -0.005775382 0.021950949 0.05005094 -0.002824407 0.024904089
0.016767269 0.026728863 0.0024451648 0.016870271 0.016229607 0.09420204 0.016377527 0.0020086463
0.027795613 0.054589316 0.02006809 0.023081219 0.026067106 0.05990451 0.030619577 0.067478575
0.030910956 -0.02534997 0.030350523 0.045568593 0.03857688 0.04466838 0.049830317 0.039595332
-0.0067607365 0.00021832022 -0.0027500282 -0.015915353 0.045354363 0.013163442 0.0366782 0.055147156
0.053525746 0.013855393 0.017079353 0.026104197 0.036984265 0.022840312 0.030216761 0.019829853
0.029813418 0.05329875 0.01339007 0.023727577 0.009048199 0.008412864 -0.008972086 0.075247884
0.017144557 -0.027557911 0.03293519 0.006345689 0.01273682 0.025824845 0.027909208 0.035427086
00000000: 8ecb 37bb 238b c23b 310f 773d 2ed0 6b3d
00000010: 0811 283c 9284 6b3d d10c 0b3c 275a 743c
00000020: 3218 5dbc 660a 9d3c 0c7a 893c a5b4 ae3b
00000030: f896 303d df08 12bd c88c 923d 8169 5d3d
00000040: 1d76 e4bc 2fd1 123d 5e6f 373b efd5 b33b
00000050: 818c 8e3c 3f91 713c 38ab 223d 47f2 ff3b
00000060: e936 f23c cc4e 9b3c 1494 88bd 562d 053d
00000070: 5d1e 963b 8925 953d 12e5 a33c 5a22 aa3c
00000080: 960d 3f3d 6a1c 833d 63d4 3d3d 7b4f b23c
00000090: 80a7 833c 2bb2 bc3a ab84 2a3d 1e5e c93b
000000a0: b7c2 483c 4884 053d cdd4 573c 049d b33c
000000b0: 64fd 303c f880 e93c 5ea0 b8bb 1d9a 3abc
000000c0: ab51 f53c 84e7 58bb df8b 193d 996a 053d
000000d0: e7fe 64bc 46fa bc3c 45eb d1ba b7dc 3a3d
000000e0: 8436 f83c 1ed8 ed3c 98c0 a13c 8d28 f23c
000000f0: f677 5c3c 8b00 02bb 52a4 eabc 2759 b2bc
00000100: cbe7 62bb 8217 693a 5ca0 8dbb fd6d f0bc
00000110: 2bf0 0f3d feaa 65ba 9b16 b8bc 5599 ae3c
00000120: d042 853d bfbd db3c 9f2c 69bc 9a9f ec3c
00000130: a93c f63c 17c0 443c de94 e23c 32e5 80bc
00000140: 5659 873c 8fc0 b43c f905 ab3c 0f17 e93c
00000150: 8dd8 883d 1e25 87bb 5a61 0d3c 5403 b83c
00000160: a428 213c 845b dd3c 0f16 90bc 3316 913c
00000170: 538e 1f3c 80fc f83c 24a8 dbbb ca95 8e3c
00000180: f761 953d 20d9 cfbc 19ce 153d 9161 fc3c
00000190: 95b1 d03c fa68 993c cfd0 b2ba c608 443d
000001a0: 6361 b43c 8ae7 753b 2f8f 973d cab8 bd3c
000001b0: 3aa9 413d 7e22 4c3d 6a75 783c dca9 0dbb
000001c0: ea45 603d dba8 4e3c 5fd6 d43a 824c 75bb
000001d0: 242e cf3c d9ff 1a3a 513a 77bc c0da 223c
000001e0: 171b 7b3d 19bc 423d 6e32 673d ddad a03c
000001f0: 31cc 1a3c 5c40 9d3d f3ed 363c b2a0 a23c
00000200: 7bb6 163b 9ebd cbbc ebcc aa3c ebf9 113d
00000210: d480 673c e5da 53bc 2495 553d ee66 bdbc
00000220: 1740 853c 8745 253d 1511 0e3d 34ed e93c
00000230: b72b f63a b28d 073d 43a3 14bd 2664 3c3b
00000240: c38c 493c d2f6 1f3b 7018 223d 45fc 263d
00000250: f2f0 883d a484 743d 54ee e93c e982 83bc
00000260: c5ff d93c 37b9 1a3c 7466 903d 3e08 c0bb
00000270: 4f17 c23d 957b 233d 6a21 bf3c 5158 9a3c
00000280: ba1c a63d d116 253d a0f3 223d df34 c03c
00000290: 9481 9d3c 6c90 623d 3773 04bd 85a7 53bd
000002a0: 5a5a 513c 9fc5 023d f166 8e3c f288 683c
000002b0: cb78 0e3d 7b4c b83c df77 083b 5c23 393c
000002c0: 04e8 613c 157d 32bd 7972 97bc eeac 4b3d
000002d0: 46a0 3b3d 2abc 063d b3ff 4c3d 6db6 17bc
000002e0: d7c5 293d 0a84 493d ca57 c83c 252b 323d
000002f0: a15a 683d 72db 6d3d 7f38 b03b ffd7 f03c
00000300: 8f1c 383c d9a6 163d ec52 233a 6a3f bdbb
00000310: 7ad2 b33c 3702 4d3d b019 39bb a903 cc3c
00000320: 835b 893c 7df6 da3c 0f3f 203b 8633 8a3c
00000330: f4f3 843c 00ed c03d 2a2a 863c 7ea3 033b
00000340: a0b3 e33c 0c99 5f3d d665 a43c d314 bd3c
00000350: af8a d53c 6e5e 753d e8d5 fa3c 3532 8a3d
00000360: f938 fd3c beaa cfbc a9a1 f83c 22a6 3a3d
00000370: ca02 1e3d 31f6 363d e01a 4c3d b72e 223d
00000380: 2b89 ddbb e3ec 6439 d139 34bb ea60 82bc
00000390: 7fc5 393d 7aab 573c e13b 163d fce1 613d
000003a0: d03d 5b3d bb01 633c 00ea 8b3c 78d8 d53c
000003b0: d07c 173d 9b1b bb3c 2489 f73c 3772 a23c
000003c0: 453b f43c ca4f 5a3d 0662 5b3c 5660 c23c
000003d0: e63e 143c 1cd6 093c a8ff 12bc 901b 9a3d
000003e0: be72 8c3c 21c1 e1bc 0de7 063d 7fef cf3b
000003f0: 18ae 503c a08e d33c daa1 e43c fe1b 113d

action_model._continuous_distribution.log_sigma f4 [1, 9]
-0.046053793 0.04849658 -0.02270611 -0.03412033 -0.106777534 0.025587415 0.13682911 0.15977727
0.102343075
00000000: e7a2 3cbd 5aa4 463d 2a02 babc c2c1 0bbd
00000010: 2eae dabd b39c d13c ee1c 0c3e a79c 233e
00000020: 3f99 d13d

action_model._continuous_distribution.mu.weight f4 [9, 256]
0.011037921 -0.028916404 -0.010974618 0.0027989782 0.036440413 0.046604037 -0.06499678 -0.028266048
0.033976067 -0.020598128 0.02239302 -0.05669949 -0.070393175 0.06543696 0.037252557 0.030532904
0.014134801 -0.003118418 -0.046905566 0.05681731 -0.012105942 -0.019178685 -0.010045453 -0.028550657
0.00049234374 -0.074450314 -0.010590791 -0.06696663 0.01679979 0.0042974427 -0.033273205 -0.0241916
-0.018764405 -0.018391268 0.016554462 -0.04728243 -0.013637334 0.035167083 -0.008107113 0.0017903046
-0.03976637 0.03782983 -0.024222994 0.008163283 0.03416808 0.025197905 0.059125714 0.025431586
-0.014898075 0.0041625327 -0.05116612 0.041973617 0.012870818 -0.09578698 -0.023191826 -0.05279962
-0.032734085 -0.07471521 -0.045939684 0.01972918 0.007610445 0.016821574 -0.05019894 -0.022122473
0.064718224 -0.08654854 0.023538353 -0.06862786 0.09127455 -0.029322479 -0.016844574 -0.03647727
0.01180133 -0.031758018 -0.102890074 0.037400443 0.06259653 0.037241325 -0.0013622087 0.004263822
0.03205333 0.05837255 0.017715335 0.023857623 0.022144575 -0.07272474 -0.02675653 -0.108156405
-0.07833311 0.0067181513 -0.04661531 -0.071271844 0.016339967 0.023320373 0.00473077 -0.059442364
0.023698648 0.016821932 0.045789476 -0.030388366 -0.0040087616 -0.032902084 0.01061022 0.09032673
0.013311556 0.030334067 -6.501042e-05 -0.061736688 -0.029034227 0.035809517 -0.03353916 0.03522709
0.023594728 -0.005819978 0.095230825 0.0054713567 -0.033148427 0.04668016 0.0268295 0.01785447
-0.059542447 -0.075060874 0.08915768 0.043092463 0.010926496 -0.028933281 0.016705943 0.06216367
-0.04446237 0.086676165 -0.06389635 0.05248444 0.005014892 0.014998808 -0.012445209 -0.06779756
-0.016753579 -0.04228491 0.098987125 0.029864984 -0.05213791 -0.06664177 -0.021272069 0.007727808
0.001005449 -0.005915303 0.03144886 -0.08715961 0.059721176 0.017059304 -0.031199357 0.047576632
0.10092446 0.02384981 0.056451578 -0.06608131 0.02214191 -0.00123895 0.035484646 0.09413721
-0.047907554 0.049563624 0.030815788 -0.026925802 0.029828554 -0.052164633 -0.07610526 0.017288396
-0.03005142 -0.02404913 -0.022861173 0.022869762 -0.07690013 0.050478376 -0.0043622507 0.0018451262
0.04350169 -0.025466576 0.016054835 0.013108314 0.014214958 0.10104099 -0.018076781 0.052897453
-0.01734267 -0.013775379 0.035804093 0.0344111 0.0030271634 -0.023681117 0.04678372 -0.08234305
-0.0022884912 0.039964642 -0.063207 -0.034259055 0.004604045 -0.011185922 -0.08288299 -0.047365848
-0.027405074 0.044182472 0.0016694324 0.008148065 -0.078627884 -0.05487361 0.011769776 0.014255052
0.08547011 -0.052891664 0.03571844 0.018114727 0.04293153 0.042275306 -0.03844058 -0.078609474
0.044682153 -0.07168398 -0.04826229 0.057225678 0.052942302 0.10801316 -0.05820877 0.059146687
0.07539555 -0.018445572 0.011227726 -0.018360589 0.018481137 -0.04580853 0.014064224 0.004186786
-0.12885688 -0.048099972 0.05594192 -0.012854181 -0.02889089 0.008951033 0.03543326 -0.023899188
-0.021209575 -0.012816848 -0.0023871812 -0.033953954 0.038638096 0.024753595 0.01736768 0.051565792
0.07194208 0.07282043 0.09771197 -0.032207806 0.04941528 0.024846217 -0.020463236 -0.028298266
00000000: 65d8 343c 18e2 ecbc e2ce 33bc 106f 373b
00000010: 8b42 153d e0e3 3e3d 081d 85bd 338e e7bc
00000020: 7d2a 0b3d 68bd a8bc 9171 b73c b93d 68bd
00000030: 4c2a 90bd d003 863d 2396 183d 2420 fa3c
00000040: a795 673c 5f5e 4cbb 0d20 40bd 45b9 683d
00000050: 0058 46bc 9e1c 9dbc af95 24bc 11e3 e9bc
00000060: a110 013a 6879 98bd ff84 2dbc cd25 89bd
00000070: b79f 893c 90d1 8c3b 7c49 08bd 762d c6bc
00000080: cfb7 99bc 49a9 96bc 399d 873c 39ab 41bd
00000090: 206f 5fbc 5c0b 103d b2d3 04bc a7a8 ea3a
000000a0: 10e2 22bd 74f3 1a3d 4d6f c6bc 4abf 053c
000000b0: d4f3 0b3d d66b ce3c ce2d 723d e755 d03c
000000c0: 0e17 74bc db65 883b 9193 51bd 87ec 2b3d
000000d0: 20e0 523c f72b c4bd c9fc bdbc 6a44 58bd
000000e0: 2d14 06bd 4a04 99bd 402b 3cbd 179f a13c
000000f0: 0a61 f93b 66cd 893c 679d 4dbd 303a b5bc
00000100: fd8a 843d 5c40 b1bd 81d3 c03c c38c 8cbd
00000110: 27ee ba3d b235 f0bc a2fd 89bc 3169 15bd
00000120: 5e5a 413c b214 02bd 08b8 d2bd 3531 193d
00000130: 9c32 803d 5c8a 183d 248c b2ba 88b7 8b3b
00000140: 5a4a 033d 0e18 6f3d c01f 913c 1071 c33c
00000150: 8a68 b53c b5f0 94bd 8330 dbbc 1b81 ddbd
00000160: 1c6d a0bd f023 dc3b b2ef 3ebd f9f6 91bd
00000170: 65db 853c 5e0a bf3c 9304 9b3b d679 73bd
00000180: ab23 c23c 26ce 893c bf8d 3b3d 06f1 f8bc
00000190: ee5b 83bb 56c4 06bd 7dd6 2d3c 38fd b83d
000001a0: b618 5a3c 267f f83c 3456 88b8 9cdf 7cbd
000001b0: 30d9 edbc 00ad 123d 5c60 09bd 484a 103d
000001c0: bb49 c13c 84b5 bebb 6108 c33d 1149 b33b
000001d0: a5c6 07bd b233 3f3d 8ac9 db3c 8a43 923c
000001e0: c8e2 73bd 84b9 99bd 4d98 b63d b981 303d
000001f0: 0c05 333c 7d05 edbc e7da 883c 559f 7e3d
00000200: 2d1e 36bd 4683 b13d 17dc 82bd edf9 563d
00000210: f753 a43b 8fbd 753c fde6 4bbc 72d9 8abd
00000220: cd3e 89bc f132 2dbd c3b9 ca3d 69a7 f43c
00000230: 908e 55bd 7b7b 88bd c342 aebc 8d39 fd3b
00000240: 45c9 833a 28d5 c1bb 85d0 003d bd80 b2bd
00000250: 319e 743d f4bf 8b3c cb95 ffbc b7df 423d
00000260: 7cb1 ce3d ad60 c33c c539 673d a355 87bd
00000270: f362 b53c 4364 a2ba 5958 113d 02cb c03d
00000280: b63a 44bd 3a03 4b3d 6471 fc3c 8093 dcbc
00000290: 035b f43c 95aa 55bd 13dd 9bbd 65a0 8d3c
000002a0: 652e f6bc ae02 c5bc 5b47 bbbc 5e59 bb3c
000002b0: d17d 9dbd 6ac2 4e3d 36f1 8ebb 29d8 f13a
000002c0: d42e 323d 489f d0bc 6e85 833c 41c4 563c
000002d0: dbe5 683c 94ee ce3d c215 94bc 00ab 583d
000002e0: 3712 8ebc 21b2 61bc 50a7 123d a7f2 0c3d
000002f0: 6063 463b e7fe c1bc 49a0 3f3d 79a3 a8bd
00000300: 83fa 15bb f7b1 233d ac72 81bd 3953 0cbd
00000310: 87dd 963b 2845 37bc 8fbe a9bd b102 42bd
00000320: 9b80 e0bc aef8 343d dbd0 da3a 767f 053c
00000330: a807 a1bd 27c3 60bd 05d6 403c 068e 693c
00000340: f40a af3d eea4 58bd 804d 123d 5665 943c
00000350: f9d8 2f3d df28 2d3d df73 1dbd 01fe a0bd
00000360: a204 373d 0dcf 92bd aeae 45bd 7965 6a3d
00000370: 07da 583d 0136 dd3d 526c 6ebd cc43 723d
00000380: fb68 9a3d 2b1b 97bc 7ff4 373c f268 96bc
00000390: c165 973c baa1 3bbd a26d 663c 4e31 893b
000003a0: 0ff3 03be 7a04 45bd 5b23 653d 589a 52bc
000003b0: 96ac ecbc 5ba7 123c 7722 113d 3bc8 c3bc
000003c0: b4bf adbc c2fd 51bc 4172 1cbb 4d13 0bbd
000003d0: fb42 1e3d 0dc8 ca3c aa46 8e3c a736 533d
000003e0: 5f56 933d e122 953d 371d c83d 55ec 03bd
000003f0: ad67 4a3d 4b8a cb3c 84a2 a7bc c4d1 e7bc

action_model._continuous_distribution.mu.bias f4 [9]
0.016851984 -0.029331498 -0.005774905 -0.015384471 0.0040696277 -0.027041376 -0.018759228 -0.031701732
-0.00048294844
00000000: 2c0d 8a3c 9c48 f0bc 6a3b bdbb 260f 7cbc
00000010: 835a 853b e085 ddbc f4ac 99bc add9 01bd
00000020: 3e34 fdb9
