results/duoCW/Worm/Worm-480023.onnx (onnx, 581953 bytes, 9 tensors)

network_body._body_endoder.seq_layers.0.weight f4 [256, 39]
0.18976529 -0.25158864 0.18769392 -0.06119645 -0.064671814 0.22615154 0.07307793 -0.15990648
-0.043487594 0.11393287 0.06992161 0.11248468 -0.051706925 0.05113916 0.1580331 0.022842314
-0.18521124 0.11647995 -0.33876592 0.07399697 0.20434482 0.09013595 -0.17776029 -0.30103362
0.004510032 0.0187406 -0.20859383 -0.1761446 0.18733068 0.08432957 0.060596935 -0.20657802
0.08579827 -0.06416367 0.4014298 -0.062990084 0.06748062 -0.14822084 -0.13293001 -0.035067208
-0.07942819 0.29271525 -0.11070999 -0.0039864136 -0.11762574 -0.030599779 0.32475218 -0.14378557
0.17351434 -0.26463807 0.0762679 0.11390048 -0.0686964 0.12865777 -0.21893027 0.031274505
-0.097578 -0.15535094 0.08881742 -0.01379926 -0.15671942 -0.4407585 -0.012126169 -0.115922436
-0.04166685 0.04935642 -0.07942319 -0.046036363 0.05593569 -0.08073288 -0.058892466 -0.0449377
-0.21352895 -0.07985597 -0.0013562235 -0.16905777 -0.06861722 -0.19322757 -0.036424745 0.28931463
0.09421127 -0.12695792 0.2233363 0.09526328 0.040178478 -0.14424725 0.1535752 -0.12730676
0.3522486 0.07610968 0.23910339 0.39541999 -0.18489727 0.3147155 0.09599651 -0.2030226
0.069073334 0.17525597 0.15171805 0.15678792 0.030607823 0.14061458 -0.092092715 0.19150105
0.060728684 0.09255316 0.21658345 0.10567851 0.29927438 0.080056965 0.00301049 -0.3431003
0.21603204 -0.015641905 0.082873195 0.35835627 0.12533015 0.12061328 0.17519362 0.10256885
-0.009865979 0.1324496 0.0058490885 -0.12340604 0.3611812 0.06794103 -0.19143113 0.1435804
-0.034653503 0.025975717 -0.20780064 -0.09779534 0.276732 0.34633613 -0.17114134 0.2725315
0.16113302 0.05443488 0.14925872 0.2215132 0.3870054 -0.06002142 0.06941583 0.25338632
0.06626276 -0.0057337354 0.29734018 -0.13772419 -0.11294827 0.055198632 -0.09357488 0.047003277
-0.08289082 0.22671558 -0.096518524 -0.049727734 0.00061254844 0.047243323 -0.0004111927 -0.25694352
-0.05088277 -0.0034458768 0.17614469 0.30153567 -0.12756172 0.11658978 0.04503451 0.12915014
-0.20501925 -0.06918969 0.005247707 7.350574e-06 0.18718393 0.22538413 0.14345731 0.14544536
-0.012055674 0.2532443 -0.0102688335 -0.3624674 0.09624396 -0.0882143 -0.076854974 -0.03735458
0.033252582 -0.015041378 -0.05232155 -0.17599633 0.013311676 -0.07419716 -0.14463839 -0.26657006
0.074304186 0.085038565 -0.17416684 0.13795975 -0.10741131 -0.11168283 -0.19784023 0.22860162
-0.03064864 0.15092576 -0.44973564 0.2564737 -0.045914322 -0.08832197 0.24674766 0.26323414
-0.42040187 0.060406256 -0.04610936 -0.15975219 0.07818025 -0.38655946 -0.064161494 -0.28609663
0.23570329 -0.033778463 0.068303704 0.07686037 0.053473398 0.048274737 0.19123045 -0.0706696
0.15063082 0.18658891 -0.096024685 -0.046292987 -0.23446731 -0.09912659 -0.04312169 -0.02754195
0.03086633 0.09571612 0.07694493 0.22457547 -0.027389048 0.1935706 -0.1502383 -0.12314654
-0.35467574 -0.10287224 -0.15240437 -0.21956441 0.13850676 -0.20412564 -0.210156 0.3285313
0.043911483 0.028912295 0.21135528 -0.013595857 -0.07792664 -0.107650764 0.028373783 -0.103179105
00000000: d551 423e 3ad0 80be d632 403e 21a9 7abd
00000010: a872 84bd 4594 673e e2a9 953d 86be 23be
00000020: 0c20 32bd a355 e93d 1033 8f3d 5e5e e63d
00000030: a4ca 53bd 4c77 513d 6ed3 213e ce1f bb3c
00000040: 04a8 3dbe 0a8d ee3d ba72 adbe b98b 973d
00000050: c53f 513e 3299 b83d cb06 36be 1421 9abe
00000060: e4c8 933b e385 993c 9f99 55be 405f 34be
00000070: 9dd3 3f3e fbb4 ac3d 7e34 783d 3089 53be
00000080: 01b7 af3d 3e68 83bd 3588 cd3e f200 81bd
00000090: 4833 8a3d 34c7 17be ce1e 08be a2a2 0fbd
000000a0: 3fab a2bd c6de 953e ebbb e2bd 76a0 82bb
000000b0: c4e5 f0bd 63ac fabc eb45 a63e 863c 13be
000000c0: bead 313e a47e 87be 5832 9c3d a844 e93d
000000d0: b3b0 8cbd ddbe 033e 422f 60be b219 003d
000000e0: f9d6 c7bd 5114 1fbe e8e5 b53d 4b16 62bc
000000f0: 0e7b 20be 19ab e1be d7ac 46bc be68 edbd
00000100: dcaa 2abd f529 4a3d a0a8 a2bd a090 3cbd
00000110: d21c 653d 4857 a5bd 3a39 71bd 9810 38bd
00000120: 55a7 5abe 878b a3bd 4fc3 b1ba 7b1d 2dbe
00000130: 2f87 8cbd 73dd 45be 1d32 15bd 0c21 943e
00000140: d7f1 c03d 4201 02be 45b2 643e 6519 c33d
00000150: 3092 243d 8db5 13be d142 1d3e b45c 02be
00000160: ee59 b43e 64df 9b3d 85d7 743e 7d74 ca3e
00000170: b655 3dbe 6422 a13e d199 c43d 28e5 4fbe
00000180: 5276 8d3d 4d76 333e fa5b 1b3e 038d 203e
00000190: 42bd fa3c 45fd 0f3e 1b9b bcbd da18 443e
000001a0: a4be 783d 838c bd3d 0dc8 5d3e fa6d d83d
000001b0: 7e3a 993e e8f4 a33d a44b 453b d8aa afbe
000001c0: 8137 5d3e 7423 80bc 6cb9 a93d 797a b73e
000001d0: 8c56 003e 1804 f73d f565 333e 9e0f d23d
000001e0: eaa4 21bc dea0 073e b6a9 bf3b 4ebc fcbd
000001f0: beec b83e ab24 8b3d 8606 44be be06 133e
00000200: d5f0 0dbd 07cb d43c b1c9 54be ec48 c8bd
00000210: d1af 8d3e f852 b13e ad3f 2fbe 4089 8b3e
00000220: 0e00 253e 1cf7 5e3d 47d7 183e 5bd4 623e
00000230: 9225 c63e 05d9 75bd e329 8e3d dabb 813e
00000240: c5b4 873d 0fe2 bbbb f93c 983e 9207 0dbe
00000250: 6c51 e7bd f617 623d 30a4 bfbd 8286 403d
00000260: aac2 a9bd 2128 683e 81ab c5bd 4faf 4bbd
00000270: 6e93 203a 3782 413d 5a95 d7b9 1a8e 83be
00000280: 746a 50bd 38d4 61bb 465f 343e e262 9a3e
00000290: 8a9f 02be 9fc6 ee3d 1b76 383d ef3f 043e
000002a0: 91f0 51be 53b3 8dbd f5f4 ab3b f3a4 f636
000002b0: 25ad 3f3e 19cb 663e 79e6 123e a1ef 143e
000002c0: 2985 45bc 3da9 813e 9c3e 28bc 5495 b9be
000002d0: 8e1b c53d b3a9 b4bd 2466 9dbd 1e01 19bd
000002e0: dc33 083d 1d70 76bc 1f4f 56bd 6238 34be
000002f0: 3719 5a3c aef4 97bd 161c 14be df7b 88be
00000300: cb2c 983d b328 ae3d cb58 32be 5245 0d3e
00000310: 76fa dbbd f8b9 e4bd a196 4abe 8b16 6a3e
00000320: db12 fbbc 488c 1a3e c043 e6be 8550 833e
00000330: a810 3cbd 26e2 b4bd 6bab 7c3e a0c6 863e
00000340: ea3e d7be 8d6c 773d 2bdd 3cbd 1496 23be
00000350: f81c a03d 1feb c5be 1a67 83bd 427b 92be
00000360: 345c 713e 495b 0abd d0e2 8b3d f868 9d3d
00000370: ec06 5b3d bbbb 453d ead1 433e 39bb 90bd
00000380: f73e 1a3e 2a11 3f3e 97a8 c4bd b79d 3dbd
00000390: 3318 70be e202 cbbd 5fa0 30bd a89f e1bc
000003a0: 63db fc3c d006 c43d 4e95 9d3d 1df7 653e
000003b0: ff5e e0bc 5f37 463e 12d8 19be 4134 fcbd
000003c0: 0f98 b5be aeae d2bd e40f 1cbe 7ed5 60be
000003d0: b7d4 0d3e 5006 51be 2233 57be 4135 a83e
000003e0: 87dc 333d 7ad9 ec3c 856d 583e 28c1 5ebc
000003f0: 0198 9fbd 0178 dcbd 2370 e83c 914f d3bd

network_body._body_endoder.seq_layers.0.bias f4 [256]
0.0053258925 -0.061531268 0.023630956 0.014884018 -0.01725542 0.019503485 -0.030361425 0.047125816
-0.050185803 0.012987823 -0.03615006 0.036338624 0.052015267 0.06967618 0.07379076 0.006702135
-0.027513485 0.032144807 -0.012718869 0.02732804 0.04678209 0.029413048 -0.01920359 -0.05185813
0.023488764 0.045497704 0.009880662 -0.009672851 -0.0019058354 0.046713896 0.049065974 0.07026104
-0.033447858 0.051489215 -0.005667336 -0.08102935 -0.015950149 0.036465283 0.0074967495 0.016627064
0.0599811 -0.0021651024 0.02560801 0.0023510125 0.029579489 -0.00072806614 0.02966088 -0.015581115
0.0221732 -0.044467654 -0.0017665324 0.03539391 -0.03946025 0.020926643 -0.05030706 0.070117064
0.079071805 -0.007276318 -0.041930962 0.007859676 -0.001366503 -0.033958092 0.031063812 -0.045759756
0.033505443 -0.013217555 0.056333955 0.015578895 0.06249522 0.0006110424 -0.035930596 0.026787583
0.0297447 0.041582253 0.07734664 0.002813037 -0.029967772 -0.04867097 -0.008541693 -0.07756353
-0.007468102 0.023524612 0.00972756 -0.011728224 -0.017279878 -0.025700642 0.015270252 0.03805509
-0.0023818084 0.030968962 0.045380693 0.05467744 0.058640517 -0.0049494985 0.060631 0.027910616
-0.029114148 -0.03140926 0.009370214 0.01914388 -0.00523268 0.017480904 0.0028414512 0.018512473
0.030686188 -0.010770784 0.0212243 0.0005446754 0.00976219 0.009233188 0.014034049 0.033482414
0.021231296 0.0062109786 0.0013255591 0.012985806 0.0018960548 0.014234215 0.0006105197 -0.008769894
-0.049990844 0.0049253837 0.02018107 0.0026828567 -0.013119826 -0.02178221 0.039675497 -0.054592274
0.017923865 -0.069541804 0.03884046 -0.0037413768 0.027120901 -0.0017600694 0.009593378 0.06191823
-0.024565818 -0.004274486 -0.031643365 -0.005096926 0.047617964 0.009225563 -0.0020879286 -0.011400286
-0.04891638 -0.06852085 -0.017584436 -0.043567386 -0.0342447 -0.01552764 -0.06491424 -0.016303627
-0.035704043 -0.027308105 0.030474098 0.05328122 -0.028744427 -0.010773971 -0.0036550756 0.03567539
-0.008399485 0.06981157 -0.012769255 0.011402954 -0.0058731525 0.028768672 -0.0016709354 -0.017571451
-0.010723301 -0.016050573 -0.04723712 0.0039055855 0.062689036 0.011977858 0.0072550597 0.032720033
0.053618386 0.027788274 -0.028138952 0.02444803 0.014307518 -0.019485382 -0.03639388 -0.01574947
-0.014001506 0.047508795 0.005115556 -0.03034824 0.020776775 -0.035852395 -0.045020804 0.031704087
0.09089962 0.02156115 0.05780622 0.12841275 0.04999015 -0.05347155 -0.011243136 0.016233876
-0.00017123036 -0.053108923 -0.08991477 0.03363112 0.017145157 -0.027450453 0.002029944 0.009267888
0.010565769 0.092694364 -0.021508785 0.052599266 -0.03917165 -0.008142384 0.008143642 0.044059046
-0.012158597 0.026412038 0.04471884 0.019490264 -0.029292045 -0.07175866 0.013261808 -0.0005659901
0.07653712 0.029246952 0.00036099245 0.011959771 0.048193954 0.033692043 0.07897997 0.0055011
0.032035932 0.055171438 0.10322262 0.05128945 -0.053751342 0.042265907 0.044778094 -0.033534072
0.041465513 0.046363737 -0.05935715 0.08784267 0.008178953 0.029146485 0.016855167 0.040697515
0.053614594 0.0287811 0.025189875 0.012383438 -0.02851006 0.06383284 -0.033930756 0.054873813
00000000: d384 ae3b 3608 7cbd b595 c13c 19dc 733c
00000010: 3d5b 8dbc c6c5 9f3c 86b8 f8bc 0007 413d
00000020: a18f 4dbd e1ca 543c 1612 14bd cfd7 143d
00000030: f60d 553d 63b2 8e3d 9c1f 973d 959d db3b
00000040: f663 e1bc 46aa 033d ce62 50bc 0edf df3c
00000050: 949e 3f3d a2f3 f03c d950 9dbc 3169 54bd
00000060: 826b c03c cd5b 3a3d 80e2 213c e17a 1ebc
00000070: 39cd f9ba 1257 3f3d 67f9 483d 05e5 8f3d
00000080: 9f00 09bd 5be6 523d 0fb5 b9bb b7f2 a5bd
00000090: e3a9 82bc 9f5c 153d 4ba7 f53b 7b35 883c
000000a0: beae 753d 64e4 0dbb e4c7 d13c 7213 1a3b
000000b0: af50 f23c b1db 3eba 60fb f23c ef47 7fbc
000000c0: 92a4 b53c b723 36bd fe8a e7ba 34f9 103d
000000d0: 12a1 21bd 5a6e ab3c c70e 4ebd 8999 8f3d
000000e0: 66f0 a13d 2e6e eebb cdbf 2bbd dfc5 003c
000000f0: 3b1c b3ba a417 0bbd 8979 fe3c 956e 3bbd
00000100: 013d 093d 728e 58bc 6fbe 663d 9f3e 7f3c
00000110: fdfa 7f3d 5c2e 203a f62b 13bd a271 db3c
00000120: 28ab f33c 2752 2a3d ea67 9e3d ee5a 383b
00000130: f97e f5bc 365b 47bd 75f2 0bbc a1d9 9ebd
00000140: fbb6 f4bb b0b6 c03c 5860 1f3c bd27 40bc
00000150: 888e 8dbc 278a d2bc 1430 7a3c a7df 1b3d
00000160: 1d18 1cbb 9fb2 fd3c 1be1 393d 74f5 5f3d
00000170: 0a31 703d 672f a2bb 3658 783d cea4 e43c
00000180: cb80 eebc ffa6 00bd 8785 193c a0d3 9c3c
00000190: e776 abbb 1d34 8f3c a437 3a3b 78a7 973c
000001a0: 9a61 fb3c f177 30bc 95de ad3c 8cc8 0e3a
000001b0: 98f1 1f3c cc46 173c 11ef 653c db24 093d
000001c0: 41ed ad3c 7785 cb3b 62be ad3a 6bc2 543c
000001d0: 0b85 f83a a036 693c 490b 203a 9aaf 0fbc
000001e0: 33c3 4cbd 1d65 a13b c552 a53c ded2 2f3b
000001f0: 8af4 56bc 9b70 b2bc c682 223d 269c 5fbd
00000200: 12d5 923c ef6b 8ebd 2d17 1f3d e331 75bb
00000210: a72c de3c 21b2 e6ba 8b2d 1d3c f89d 7d3d
00000220: 413e c9bc fd10 8cbb 799c 01bd 1d04 a7bb
00000230: 0e0b 433d d126 173c a1d5 08bb 44c8 3abc
00000240: 8b5c 48bd a954 8cbd 3c0d 90bc b773 32bd
00000250: 2c44 0cbd a467 7ebc c2f1 84bd 2f8f 85bc
00000260: 673e 12bd 3fb5 dfbc d1a4 f93c 693d 5a3d
00000270: 6f79 ebbc 4f85 30bc fe89 6fbb 5c20 123d
00000280: fe9d 09bc 5ef9 8e3d 2336 51bc 75d3 3a3c
00000290: 9373 c0bb 47ac eb3c 4a03 dbba 01f2 8fbc
000002a0: c9b0 2fbc 7e7c 83bc b67b 41bd daf4 7f3b
000002b0: 1c63 803d c73e 443c dabb ed3b 7105 063d
000002c0: f49e 5b3d 3ca4 e33c a983 e6bc 3c47 c83c
000002d0: 146a 6a3c cf9f 9fbc c011 15bd 0805 81bc
000002e0: 9366 65bc 9598 423d 65a0 a73b df9c f8bc
000002f0: 0e34 aa3c f6d9 12bd bc67 38bd 25dc 013d
00000300: 9429 ba3d 02a1 b03c 37c6 6c3d a27e 033e
00000310: 79c2 4c3d fc04 5bbd 2135 38bc e8fc 843c
00000320: 4d8c 33b9 be88 59bd 3c25 b8bd c9c0 093d
00000330: 0074 8c3c c6df e0bc cf08 053b 57d8 173c
00000340: 0c1c 2d3c 8bd6 bd3d 3133 b0bc 5472 573d
00000350: 7472 20bd a267 05bc e96c 053c 4277 343d
00000360: da34 47bc 0f5e d83c 1a2b 373d 0caa 9f3c
00000370: dff5 efbc 34f6 92bd 0e48 593c f45e 14ba
00000380: 7ebf 9c3d 4e97 ef3c 9643 bd39 eaf2 433c
00000390: 0667 453d ab00 0a3d 40c0 a13d 9242 b43b
000003a0: 1c38 033d 72fb 613d 6266 d33d e314 523d
000003b0: 5e2a 5cbd 041f 2d3d 3c69 373d 065b 09bd
000003c0: bed7 293d e7e7 3d3d 7c20 73bd dce6 b33d
000003d0: 0401 063c 9cc4 ee3c d913 8a3c 70b2 263d
000003e0: fa9a 5b3d 57c6 eb3c ff5a ce3c e7e3 4a3c
000003f0: ee8d e9bc cbba 823d fafa 0abd 5dc3 603d

network_body._body_endoder.seq_layers.2.weight f4 [256, 256]
-0.013613939 0.080664374 0.024311874 0.06676309 -0.010943426 -0.12715112 -0.11414709 0.015267708
-0.107060716 0.0444368 -0.060099985 -0.1288083 0.05733598 0.0352145 0.04874311 -0.08415667
0.10488141 0.027882315 0.076468855 -0.029981028 -0.04480674 0.010683218 -0.044086415 0.048745893
0.1334821 -0.047141254 -0.053018272 -0.09244846 0.09986726 0.14119917 -0.056636255 -0.053296212
0.03335669 -0.008209706 -0.1049215 0.0033541059 0.02067634 -0.080045305 -0.08035993 -0.016467776
-0.060969345 0.038928382 0.14326827 0.04831705 0.0592305 -0.0483257 0.10879419 0.03620238
0.013411565 0.016245414 -0.1258214 -0.027056005 0.0053378367 -0.041066855 -0.16883934 -0.014076608
-0.048568834 0.022107733 0.121519126 -0.011819745 0.08698408 0.108276255 0.023815606 0.051156666
0.00018516263 0.012199774 0.048047636 -0.12309725 -0.01724877 0.08637431 -0.056752544 -0.056038078
-0.012984554 -0.11934371 -0.06467501 -0.1366241 -0.0061829234 0.07261035 0.037487064 -0.051912732
0.02230393 -0.026445173 0.13856559 -0.011955677 0.09658133 -0.09238646 0.063807435 -0.055772014
-0.02128589 -0.1020031 -0.05065945 0.05114252 -0.009704579 0.06241871 0.050725687 0.16484088
-0.049232207 0.13620497 0.003301048 -0.026498994 -0.059961636 0.002366835 0.1698679 0.10068965
0.019326966 -0.07887656 -0.09146611 0.09896546 0.111578256 0.13591737 -0.08488467 -0.02179521
-0.013063944 -0.04685686 -0.09091431 0.09240306 0.005058647 -0.036544826 -0.14802332 -0.014261993
-0.06263281 -0.033119123 -0.07221175 -0.087014176 0.009929821 -0.02114961 -0.0010312372 -0.029864091
-0.08943789 0.06865386 0.007446781 -0.03685035 -0.049681254 -0.04076223 0.0147224 0.11308456
-0.0027045663 0.08436479 0.06348549 -0.035822697 0.09940421 0.024094021 0.06836953 0.07765152
-0.06777118 0.14760134 -0.12170492 0.0862031 -0.023060039 -0.0036840064 -0.06688037 -0.12379034
-0.016003363 0.02866563 -0.004716825 -0.034547865 -0.06400597 0.049849693 -0.0844467 -0.013682858
-0.044000257 -0.05895708 0.044576943 -0.012395892 0.06566987 0.12140978 -0.071229145 0.010042038
0.016724033 0.103796795 0.04866045 0.0027339393 -0.08964396 -0.009461113 0.04284854 0.081119
0.13877569 0.014391846 -0.043886814 -0.09327046 0.031258434 -0.15255481 0.07660164 -0.040330023
0.20334041 -0.11956074 -0.015008945 0.092857026 0.050990265 0.16815592 -0.08896011 0.008023519
-0.11252046 -0.008557708 0.020931603 0.10395076 -0.00047165842 -0.033075333 -0.17200047 -0.007333434
-0.12885797 -0.064564824 -0.10470821 -0.025143266 -0.07813714 -0.07309817 0.13966812 -0.14495905
-0.033569075 0.005849656 -0.10917115 0.05607584 0.0421258 -0.06711616 0.008471409 -0.04013636
0.0975339 -0.08492585 0.062878326 -0.14029534 -0.042336576 -0.085255645 -0.09114493 -0.0065988563
0.028181752 -0.1207532 -0.18894362 0.039748956 0.07106139 -0.0009274632 -0.05545773 -0.03607486
-0.075713456 0.11857011 -0.06967894 0.04910535 -0.07470608 -0.06616583 0.13719045 0.023927908
-0.13861573 0.0058709346 -0.07151551 -0.011677921 -0.2053093 -0.019077485 -0.08663985 0.057948414
-0.08334729 -0.043480314 0.018573249 0.020604543 -0.015026646 0.02822067 -0.034159735 -0.03277129
00000000: 000d 5fbc 5d33 a53d b229 c73c 16bb 883d
00000010: 0e4c 33bc e733 02be f3c5 e9bd 6925 7a3c
00000020: a642 dbbd 5d03 363d 672b 76bd 53e6 03be
00000030: 22d9 6a3d 143d 103d dba6 473d 555a acbd
00000040: 11cc d63d 7469 e43c b49b 9c3d c69a f5bc
00000050: 4687 37bd aa08 2f3c f593 34bd c6a9 473d
00000060: 88af 083e 3017 41bd b029 59bd 9e55 bdbd
00000070: 3587 cc3d 8496 103e 6bfb 67bd 214d 5abd
00000080: 06a1 083d 0182 06bc 15e1 d6bd 8fd0 5b3b
00000090: 6e61 a93c cbee a3bd bf93 a4bd 6ee7 86bc
000000a0: feba 79bd 5e73 1f3d ebb4 123e 19e8 453d
000000b0: ae9b 723d 2bf1 45bd 7dcf de3d f248 143d
000000c0: 2ebc 5b3c 1a15 853c 53d7 00be 8ea4 ddbc
000000d0: 05e9 ae3b b835 28bd 38e4 2cbe 93a1 66bc
000000e0: 1df0 46bd 471b b53c 05df f83d 9ba7 41bc
000000f0: b624 b23d f1bf dd3d f218 c33c a789 513d
00000100: 3728 4239 90e1 473c 99cd 443d 691a fcbd
00000110: 4b4d 8dbc 04e5 b03d 5b75 68bd 2f88 65bd
00000120: 2bbd 54bc 7a6a f4bd 5574 84bd 30e7 0bbe
00000130: 1f9a cabb bcb4 943d 098c 193d 72a2 54bd
00000140: bbb6 b63c 8ca3 d8bc 23e4 0d3e bee1 43bc
00000150: 6fcc c53d 1d35 bdbd 79ad 823d 3271 64bd
00000160: bf5f aebc 00e7 d0bd 4980 4fbd d27a 513d
00000170: f4ff 1ebc c3aa 7f3d bdc5 4f3d 0ccc 283e
00000180: b6a7 49bd 5179 0b3e 6556 583b 6b14 d9bc
00000190: 559a 75bd e71c 1b3b daf1 2d3e 6036 ce3d
000001a0: 9653 9e3c 098a a1bd 9552 bbbd 67ae ca3d
000001b0: 2483 e43d ec2d 0b3e 04d8 adbd de8b b2bc
000001c0: 270a 56bc fbec 3fbd 4831 babd d13d bd3d
000001d0: 02c3 a53b 07b0 15bd 6d93 17be 22ab 69bc
000001e0: a145 80bd eba7 07bd c1e3 93bd 7d34 b2bd
000001f0: b0b0 223c f241 adbc 942a 87ba 8aa5 f4bc
00000200: 362b b7bd 659a 8c3d 2004 f43b 65f0 16bd
00000210: 927e 4bbd 4cf6 26bd 3936 713c e198 e73d
00000220: 183f 31bb 72c7 ac3d ae04 823d d2ba 12bd
00000230: 6f94 cb3d d360 c53c 5305 8c3d c307 9f3d
00000240: 9ecb 8abd ce24 173e 6e40 f9bd 408b b03d
00000250: 68e8 bcbc 5f6f 71bb 93f8 88bd ca85 fdbd
00000260: 7c19 83bc 2fd4 ea3c 998f 9abb 1082 0dbd
00000270: 9015 83bd 312f 4c3d 64f2 acbd 112e 60bc
00000280: 9d39 34bd fb7c 71bd 5096 363d 2418 4bbc
00000290: ed7d 863d b1a5 f83d 96e0 91bd 5c87 243c
000002a0: d700 893c 6a93 d43d 2e50 473d e42b 333b
000002b0: 4197 b7bd c902 1bbc f381 2f3d b821 a63d
000002c0: 371b 0e3e c7cb 6b3c a9c2 33bd 9504 bfbd
000002d0: d808 003d 5437 1cbe 52e1 9c3d 1831 25bd
000002e0: 7838 503e 43dc f4bd 14e8 75bc d32b be3d
000002f0: 2bdb 503d 1131 2c3e b830 b6bd 1475 033c
00000300: 2071 e6bd a135 0cbc c178 ab3c 23e4 d43d
00000310: ec48 f7b9 007a 07bd e420 30be 4e4d f0bb
00000320: 58f3 03be 903a 84bd 4271 d6bd 40f9 cdbc
00000330: 5d06 a0bd 7eb4 95bd 2905 0f3e 2570 14be
00000340: ba7f 09bd 79ae bf3b 2095 dfbd c8af 653d
00000350: 1a8c 2c3d 3374 89bd aacb 0a3c 0666 24bd
00000360: dabf c73d 9bed adbd 5ac6 803d 95a9 0fbe
00000370: 1e69 2dbd 839a aebd 31aa babd 383b d8bb
00000380: 6bdd e63c 744d f7bd 707a 41be cdcf 223d
00000390: a288 913d 0021 73ba a527 63bd 3bc3 13bd
000003a0: a80f 9bbd e3d4 f23d d5b3 8ebd b122 493d
000003b0: 80ff 98bd f381 87bd a77b 0c3e 7604 c43c
000003c0: 48f1 0dbe f860 c03b b976 92bd c054 3fbc
000003d0: 9a3c 52be 6348 9cbc 3c70 b1bd 515b 6d3d
000003e0: fcb1 aabd 6a18 32bd ed26 983c dcca a83c
000003f0: 5232 76bc 092f e73c 14eb 0bbd 303b 06bd

network_body._body_endoder.seq_layers.2.bias f4 [256]
-0.00015606356 -0.014339665 0.031217821 0.030732144 0.055051453 0.024577128 0.011357574 0.0040081954
0.045342714 0.039561395 0.007603204 -0.03496832 -0.043764472 0.020298535 -0.047243603 -0.00046843174
0.017175226 -0.0095571205 0.07213285 0.022865277 0.0045118877 0.040511385 0.016859904 0.010481401
-0.022199584 -0.0059653767 0.02352756 0.046240896 -0.07865649 0.0068755434 0.01711454 0.026579179
-0.017195461 -0.071588136 -0.04058487 0.038525704 -0.04802012 0.015666818 -0.051646467 0.05506826
-0.07295166 -0.08574976 0.021869563 0.031554647 0.03126621 -0.06669388 0.037371226 0.031561017
-0.030097473 0.00560018 0.054156993 -0.026106443 0.015208914 -0.025330923 0.026799766 0.017644787
0.06395718 0.007953458 -0.054350905 -0.042071365 0.0045328457 0.013568363 0.02155895 0.008452216
-0.033236332 0.0068240673 -0.025591481 -0.006536295 -0.02261052 0.058772426 0.016511405 -0.0120123895
0.033041913 0.024684725 0.0009597249 -0.008117873 0.031091716 -0.034470573 0.015960505 0.02993886
-0.025135426 -0.006268128 0.017155483 0.0032119392 0.024988666 0.029225953 -0.020136412 0.013811692
-0.019369552 0.006745045 -0.050445735 -0.0028919305 0.07758968 -0.03097434 -0.0037144108 -0.0013873037
0.019177416 0.025004402 -0.0123908315 0.025579503 0.014352728 -0.0107947225 -0.026882466 0.026156267
0.00616095 0.0019212455 0.03314524 0.007315355 0.022448067 -0.0052287327 0.021542368 0.042707905
-0.006622273 0.016134454 0.061337113 -0.0056957575 -0.01691707 -0.06382933 -0.019379187 -0.0056541297
-0.03181959 -0.06524167 -0.013975536 0.054373965 0.02262093 -0.0047467616 0.026508674 0.03570413
0.039297923 0.08164177 -0.0063297492 -0.0030133382 0.032545403 -0.03158748 0.045376137 -0.00693317
-0.002196443 0.012680461 0.00031037335 0.068450846 0.022575637 0.04771388 0.008922771 -0.0008831726
0.022253156 0.00019883616 0.0012314675 0.010959201 0.062997565 0.040901955 -0.01363748 0.032673288
0.03726 -0.011336651 -0.011248939 0.08307251 0.08422181 -0.015469481 0.0021794322 0.02015486
-0.07612104 -0.03663362 -0.0046042837 -0.024018595 0.027841931 0.022797026 0.008561579 0.0162142
0.008661344 0.017610533 -0.030240273 0.008386796 0.09346844 0.0031163534 0.051551975 0.0069969273
-0.00053701224 -0.036881555 -0.026575413 -0.015048523 0.002157222 -0.00023235021 0.06056944 0.015682187
0.012972184 0.010160873 0.09761239 0.060930043 0.019009894 0.0061134184 -0.021855887 0.057182144
0.05117248 -0.024317551 0.110503726 -0.03464624 0.046037577 0.018337326 0.01002519 -0.018344676
0.013136846 0.033168692 0.014034025 0.06551075 0.072931364 0.046105456 -0.0039705806 -0.0125279045
0.01945553 0.02413109 0.034596935 -0.01270511 0.05334481 0.050048627 0.038552325 -0.017809464
-0.022553427 -0.0028609377 0.052104615 0.04420605 0.035224915 0.047249127 0.044668358 -0.016731922
0.011023964 -0.015073451 0.0009232725 -0.059460737 -0.02026215 -0.027327674 0.04844853 0.033737507
-0.0068991226 0.023638038 0.092736416 -0.01968072 0.033795714 0.035755463 0.007141677 -0.03035353
0.046925835 -0.025835462 0.03321007 0.02651303 -0.0059725163 -0.004400415 -0.029334716 -0.0015271027
-0.05878345 -0.03134034 0.040573563 -0.067915335 0.036163572 -0.018933503 -0.015035489 0.053996485
00000000: fea4 23b9 eaf0 6abc 84bc ff3c fac1 fb3c
00000010: a27d 613d f955 c93c 1e15 3a3c 2e57 833b
00000020: 48b9 393d 210b 223d 4c24 f93b f13a 0fbd
00000030: 6042 33bd 1d49 a63c 8282 41bd d897 f5b9
00000040: 0fb3 8c3c 7895 1cbc 63ba 933d f64f bb3c
00000050: 75d8 933b 44ef 253d c81d 8a3c 2fba 2b3c
00000060: e7db b5bc 3579 c3bb dfbc c03c 1867 3d3d
00000070: a716 a1bd 3d4c e13b cb33 8c3c 94bc d93c
00000080: 7fdd 8cbc cd9c 92bd 523c 26bd 21cd 1d3d
00000090: bfb0 44bd b357 803c 3f8b 53bd 418f 613d
000000a0: ae67 95bd 929d afbd cc27 b33c 723f 013d
000000b0: ff10 003d cd96 88bd 9212 193d 2046 013d
000000c0: fa8e f6bc b781 b73b b9d3 5d3d 2edd d5bc
000000d0: cf2e 793c cc82 cfbc 2f8b db3c cd8b 903c
000000e0: fbfb 823d 394f 023c 0e9f 5ebd 0653 2cbd
000000f0: 4488 943b d74d 5e3c 659c b03c 2a7b 0a3c
00000100: d222 08bd 6d9c df3b 3aa5 d1bc 6b2e d6bb
00000110: b239 b9bc 5bbb 703d ed42 873c 9dcf 44bc
00000120: f556 073d 9f37 ca3c 0c96 7b3a d400 05bc
00000130: 0eb4 fe3c 0431 0dbd 9bbf 823c 5742 f53c
00000140: cfe8 cdbc de64 cdbb a889 8c3c 667f 523b
00000150: 08b5 cc3c 446b ef3c 1ef5 a4bc 6f4a 623c
00000160: e5ac 9ebc 8a05 dd3b 30a0 4ebd 8b86 3dbb
00000170: 57e7 9e3d e6bd fdbc 796d 73bb 30d6 b5ba
00000180: f519 9d3c 08d6 cc3c ea02 4bbc 1b8c d13c
00000190: b427 6b3c 59dc 30bc 9e38 dcbc ab45 d63c
000001a0: cbe1 c93b 4dd2 fb3a 4ec3 073d a5b5 ef3b
000001b0: 02e5 b73c ca55 abbb 9f79 b03c 7cee 2e3d
000001c0: a7ff d8bb 672c 843c a03c 7b3d 7aa3 babb
000001d0: ab95 8abc f4b8 82bd 1ac1 9ebc 4746 b9bb
000001e0: 4255 02bd 6d9d 85bd a6f9 64bc 3cb7 5e3d
000001f0: 874f b93c b98a 9bbb b828 d93c 7e3e 123d
00000200: dcf6 203d cd33 a73d c969 cfbb 6d7b 45bb
00000210: 544e 053d e061 01bd 54dc 393d a52f e3bb
00000220: 33f2 0fbb b5c1 4f3c 9bb9 a239 f52f 8c3d
00000230: 8bf0 b83c a16f 433d d030 123c b684 67ba
00000240: 404c b63c ad7e 5039 3169 a13a 388e 333c
00000250: de04 813d cf88 273d bd6f 5fbc 6dd4 053d
00000260: f19d 183d 5cbd 39bc 784d 38bc ec21 aa3d
00000270: 7c7c ac3d b573 7dbc ced4 0e3b ce1b a53c
00000280: 59e5 9bbd 220d 16bd 88df 96bb a5c2 c4bc
00000290: c314 e43c d4c0 ba3c dd45 0c3c a4d3 843c
000002a0: 4fe8 0d3c f743 903c 73ba f7bc c668 093c
000002b0: 626c bf3d bc3b 4c3b 2a28 533d 7b46 e53b
000002c0: 48c6 0cba 1d11 17bd aeb4 d9bc 158e 76bc
000002d0: 2e60 0d3b 09a3 73b9 a917 783d ee77 803c
000002e0: 4989 543c ca79 263c 01e9 c73d c891 793d
000002f0: a3ba 9b3c 1253 c83b 1e0b b3bc d337 6a3d
00000300: 3c9a 513d 9a35 c7bc c74f e23d 37e9 0dbd
00000310: e691 3c3d 2938 963c b240 243c 9347 96bc
00000320: ed3b 573c e5db 073d f8ee 653c 802a 863d
00000330: 0a5d 953d 13d9 3c3d a51b 82bb d741 4dbc
00000340: 3461 9f3c 90ae c53c 84b5 0d3d 1829 50bc
00000350: 1680 5a3d caff 4c3d 0be9 1d3d 27e5 91bc
00000360: f7c1 b8bc 927e 3bbb a66b 553d 6711 353d
00000370: 0048 103d 4d88 413d 2bf6 363d 6211 89bc
00000380: db9d 343c a3f6 76bc c507 723a 1a8d 73bd
00000390: cffc a5bc 49de dfbc f771 463d 5730 0a3d
000003a0: 0912 e2bb 8fa4 c13c 97ec bd3d 7639 a1bc
000003b0: 606d 0a3d 5274 123d bb04 ea3b f7a7 f8bc
000003c0: 4e35 403d e4a4 d3bc 4807 083d db31 d93c
000003d0: 19b5 c3bb 5b31 90bb 5c4f f0bc 1029 c8ba
000003e0: eac6 70bd ba5e 00bd 7730 263d 3217 8bbd
000003f0: 4120 143d 6f1a 9bbc 6957 76bc 6b2b 5d3d

network_body._body_endoder.seq_layers.4.weight f4 [256, 256]
-0.027843228 0.07935972 -0.0952737 -0.1090078 0.000297818 -0.14658609 -0.041435838 0.058766615
-0.04618318 -0.046933174 -0.104811646 -0.056044348 -0.040276725 -0.08405876 -0.0077972813 0.041189432
-0.06672772 0.021920495 0.008486153 0.07879411 -0.04541543 -0.048087414 0.0023810645 0.120275415
0.08302926 0.052396677 0.041534595 0.054672 0.077670515 0.017057233 -0.0023674527 0.061665952
-0.013112317 -0.06016624 -0.102583274 -0.039906185 -0.009686963 -0.16006017 0.11010455 0.041657712
0.0685419 0.16593333 0.031201022 -0.03889604 -0.06498595 -0.02220417 -0.00039790754 -0.05356037
-0.050189447 -0.03367604 0.0395934 0.072880946 0.020948304 0.042787377 0.12138673 -0.071266994
-0.09372576 -0.06973728 0.082361355 -0.06677675 0.0497914 -0.021116925 0.063607246 0.06391727
-0.12118369 -0.00074235897 -0.14744058 -0.10556366 0.015398798 -0.103023574 -0.033335254 0.1346127
-0.012124549 -0.03220209 0.00223193 0.05268462 -0.04529732 -0.10519916 0.0017015545 0.065777645
0.09569903 0.19617532 0.012387374 0.01415543 0.035219625 -0.05172786 -0.068937264 0.017445004
0.0063001467 0.06540297 0.03333062 -0.088114895 0.18881631 -0.05238678 -0.04394663 0.032057025
0.113522604 0.012068925 -0.026639413 0.038425732 0.017061697 0.08729727 0.07301348 0.024406811
0.081174985 0.009638209 -0.016804092 0.010116608 0.007876413 0.16803719 0.035125557 0.14117405
0.01394477 0.13669081 0.017667545 -0.048025787 0.02874921 0.015791452 -0.046170447 -0.11763857
0.017026665 0.06641477 -0.10245439 0.092901535 0.04481429 0.06783687 0.12148713 0.055386614
0.096417494 0.0037196681 -0.0048841443 0.06480118 -0.0036565377 0.016565349 -0.0021986072 -0.08046034
0.106734306 0.043653823 -0.08348002 -0.020799424 0.11464852 0.034879908 -0.14397113 0.02313601
-0.07057983 -0.049566664 0.06270613 0.103205994 -0.003225239 0.081390336 -0.07636937 0.047361046
-0.009110855 0.07459143 -0.0076025953 -0.02660242 0.08369366 -0.07624799 0.03403742 -0.10830665
0.21291532 -0.12800108 0.060064785 -0.05310401 -0.12447874 0.117491275 0.029297125 -0.1370639
-0.0014671155 -0.014359649 -0.024395188 -0.06913742 -0.065056 0.08209861 0.00917059 -0.22042598
-0.08167199 0.06455276 -0.059149597 0.02532567 -0.05898836 0.0046355883 0.047094196 -0.0667432
0.09242996 0.05611823 0.059389573 0.17486084 0.008369979 0.06661875 -0.05897545 0.08148056
-0.07115188 -0.12661326 -0.033425402 -0.016948413 0.12210595 -0.08729451 0.0969785 0.0040352843
-0.07335056 0.003824245 0.0050617293 0.0062086703 -0.026309317 -0.12875229 0.009561997 0.07253289
0.0025874646 -0.15990174 -0.09914187 0.016408416 -0.05067606 0.10903661 -0.1668653 0.056921676
-0.095028356 0.014541236 -0.031697433 -0.09124578 0.041627824 0.002395566 0.02880079 0.043071676
-0.08123564 0.025718128 0.009370436 -0.03819769 -0.06500781 -0.045801908 -0.032701753 0.039715312
0.10064674 -0.030589439 0.05822862 0.034970712 0.03011573 0.12205512 -0.048165545 -0.085276455
0.08955552 -0.14292999 0.08495723 0.0675056 0.044274554 0.15595123 -0.13347691 -0.039261132
-0.012981669 -0.06067074 -0.04244557 -0.028099967 -0.0032107462 -0.038575422 0.06851268 0.028781993
00000000: 7b17 e4bc 5987 a23d dc1e c3bd 7b3f dfbd
00000010: 7524 9c39 aa1a 16be a0b8 29bd 43b5 703d
00000020: 932a 3dbd 003d 40bd 7da7 d6bd c28e 65bd
00000030: 35f9 24bd 0027 acbd 5680 ffbb 40b6 283d
00000040: 8ba8 88bd 9c92 b33c 8109 0b3c ce5e a13d
00000050: 8805 3abd 4ff7 44bd a20b 1c3b f552 f63d
00000060: 3f0b aa3d e69d 563d 2e20 2a3d bfef 5f3d
00000070: b811 9f3d 9cbb 8b3c 4427 1bbb 7095 7c3d
00000080: 0bd5 56bc e070 76bd 2e17 d2bd ab74 23bd
00000090: 11b6 1ebc d0e6 23be 7f7e e13d 47a1 2a3d
000000a0: b25f 8c3d 6dea 293e 4999 ff3c 7451 1fbd
000000b0: 5b17 85bd 85e5 b5bc 3f9e d0b9 1e62 5bbd
000000c0: 7393 4dbd e3ef 09bd b02c 223d 9b42 953d
000000d0: c79b ab3c d141 2f3d 9b99 f83d 6ef4 91bd
000000e0: 4bf3 bfbd 6bd2 8ebd 12ad a83d 40c2 88bd
000000f0: 11f2 4b3d 67fd acbc 8444 823d 0fe7 823d
00000100: 282f f8bd de9a 42ba aafa 16be c331 d8bd
00000110: 3d4b 7c3c 06fe d2bd 8c8a 08bd e9d7 093e
00000120: 0ba6 46bc 57e6 03bd 9245 123b d4cb 573d
00000130: af89 39bd a872 d7bd b206 df3a 6eb6 863d
00000140: dafd c33d 2fe2 483e 6af4 4a3c 2dec 673c
00000150: 7442 103d 98e0 53bd fb2e 8dbd d3e8 8e3c
00000160: 7671 ce3b fef1 853d b085 083d 9575 b4bd
00000170: 1059 413e 8593 56bd 6201 34bd 3a4e 033d
00000180: 8a7e e83d bebc 453c e63a dabc 4d64 1d3d
00000190: f9c4 8b3c e9c8 b23d 1788 953d cbf0 c73c
000001a0: 123f a63d 94e9 1d3c bca8 89bc 21c0 253c
000001b0: 120c 013c f111 2c3e d1df 0f3d ee8f 103e
000001c0: 9b78 643c adf8 0b3e 87bb 903c b0b6 44bd
000001d0: 7783 eb3c 135d 813c 391d 3dbd 7eec f0bd
000001e0: 817b 8b3c 7804 883d 9bd3 d1bd 2943 be3d
000001f0: 308f 373d 0fee 8a3d 3fce f83d 13dd 623d
00000200: 8976 c53d adc5 733b 2c0b a0bb 7bb6 843d
00000210: 86a2 6fbb 0eb4 873c 8216 10bb 64c8 a4bd
00000220: 8497 da3d 5ace 323d 93f7 aabd 8e63 aabc
00000230: d8cc ea3d 3cde 0e3d 2b6d 13be bb87 bd3c
00000240: 288c 90bd 6a06 4bbd 126c 803d aa5d d33d
00000250: 885e 53bb faaf a63d 8b67 9cbd a8fd 413d
00000260: b245 15bc 64c3 983d 311f f9bb 51ed d9bc
00000270: 9567 ab3d e827 9cbd d26a 0b3d e0cf ddbd
00000280: 7906 5a3e b712 03be 7e06 763d 9783 59bd
00000290: b6ee febd 449f f03d 8600 f03c 7b5a 0cbe
000002a0: 3a4c c0ba bc44 6bbc 6bd8 c7bc eb97 8dbd
000002b0: 153c 85bd 5123 a83d 3e40 163c 59b7 61be
000002c0: a543 a7bd 3d34 843d d946 72bd c877 cf3c
000002d0: c79d 71bd 22e6 973b d8e5 403d a9b0 88bd
000002e0: eb4b bd3d 3bdc 653d 7b42 733d b80e 333e
000002f0: 3d22 093c 696f 883d 3e90 71bd 48df a63d
00000300: 14b8 91bd e8a6 01be 13e9 08bd 66d7 8abc
00000310: af12 fa3d 77c7 b2bd aa9c c63d 6b3a 843b
00000320: d238 96bd 2fa0 7a3b dddc a53b 1a72 cb3b
00000330: a386 d7bc a4d7 03be eca9 1c3c 208c 943d
00000340: 7492 293b 48bd 23be e50a cbbd f16a 863c
00000350: b391 4fbd 964e df3d bdde 2abe b426 693d
00000360: 3a9e c2bd 5d3e 6e3c 2bd5 01bd 11df babd
00000370: f081 2a3d eefe 1c3b a2ef eb3c ed6b 303d
00000380: df5e a6bd d3ae d23c 7586 193c 2e75 1cbd
00000390: d122 85bd c89a 3bbd 46f2 05bd 86ac 223d
000003a0: e11f ce3d b496 fabc 2281 6e3d 733d 0f3d
000003b0: 43b5 f63c 09f8 f93d 3c49 45bd 6ca5 aebd
000003c0: e268 b73d 3d5c 12be 0efe ad3d 6040 8a3d
000003d0: 3c59 353d aeb1 1f3e 2cae 08be 48d0 20bd
000003e0: 11b1 54bc e281 78bd 68db 2dbd e731 e6bc
000003f0: 626b 52bb 4301 1ebd 6050 8c3d 37c8 eb3c

network_body._body_endoder.seq_layers.4.bias f4 [256]
0.0089026885 0.0025426405 0.060049143 0.06013146 0.0047288425 0.05077514 0.013426604 0.0024368484
-0.010440295 0.02381279 0.023440348 0.0034279216 0.04575619 -0.025144158 0.0733258 0.03659552
-0.02574726 0.03421419 0.010731781 0.0029940554 0.020084 0.024067685 0.045442995 0.0047343974
0.02507827 0.015120926 -0.07574566 0.045286343 0.010687549 0.0690669 0.022096138 0.016585322
0.034980427 0.068262674 0.048360784 0.01837976 0.023409775 -0.0015949033 0.047551263 0.012185071
0.0076784827 0.03327409 0.016750105 0.0036709209 0.006640274 0.026522322 -0.014033748 -0.01230737
0.041687693 -0.0035750323 0.042955983 0.028541606 0.0015127969 0.024531003 -0.004544665 0.046984468
0.03729615 0.025568062 0.021707654 0.013585172 0.0037870437 0.0113192 -0.032845248 -0.022748908
0.013164777 0.010152596 -0.009080829 -0.033210553 0.026642425 -0.0077958573 -0.009740553 0.012496223
0.05571712 0.025620567 -0.010891503 0.03223535 0.031988118 -0.0028481963 0.025621625 -0.017826186
0.012742653 0.0073243505 0.021076225 0.032503173 0.059239496 0.0017412993 0.015033776 0.03949977
0.0007085898 0.024926554 -0.008162648 0.012605979 -0.002901209 0.02188835 -0.0040200967 0.0244906
0.08878767 -0.033395924 0.0457666 0.03316498 0.025500627 0.028134251 -0.00474185 0.057537053
0.0046563325 -0.000851128 0.06254967 0.03662745 0.05405399 0.04001705 0.015724102 -0.014083319
0.06443028 0.02174469 0.006048971 0.007929737 0.037028752 -0.014167887 -0.0151383 0.010349492
0.07559945 0.05702771 0.05467707 0.020681694 -0.00041354605 0.101450235 0.02374488 0.013474901
0.0019151891 -0.031467866 0.020215958 0.038744807 0.017902723 -0.014716278 0.05481255 -0.018165579
0.009739711 0.038201984 0.039295185 0.022931129 0.015978368 0.028979197 -0.026551327 0.0119973635
-0.0048634503 0.010715908 0.045320515 0.030841136 0.058786366 0.058640357 0.022220824 -0.011721512
0.019635169 -0.0043211053 0.07376899 -0.0044729146 0.08860448 0.031473365 0.035529785 0.013629828
0.08535801 0.04745276 0.038153086 0.01696784 0.012115696 0.058870777 -0.019676853 -0.05082889
0.011340326 0.03538853 0.026078526 0.013012341 0.02843287 0.034033492 -0.011776561 0.017743489
0.008502013 -0.04811892 -0.020812279 0.04065555 0.05108171 0.03335497 0.059543785 -0.009359263
0.04321059 0.054366194 0.015530248 0.042586513 0.058331657 0.06651381 -0.00036926984 0.021857167
0.0051880903 0.026709253 0.009321924 -0.004246809 0.019663684 0.046671998 -0.010132858 0.038575944
0.017460575 0.01553224 -0.0015113971 0.014089164 0.016830286 0.10029886 0.013016708 -0.004645676
0.020787826 0.068964444 0.023439964 0.033165026 0.0132099725 0.06280111 0.034772765 0.083899096
0.030387394 -0.033276998 0.020579964 0.041521437 0.033773217 0.042226844 0.064745486 0.027447585
-0.0026225438 -0.0045581637 0.0059525156 -0.024141664 0.028319739 0.028270664 0.036136277 0.053432327
0.05079087 0.010164138 0.012996183 0.028481776 0.040729173 0.017053634 0.027359871 0.010517552
0.032634202 0.051092707 0.008683012 0.023478715 -0.004409836 0.007116875 -0.011107712 0.07535996
0.009060993 -0.036829747 0.03613204 -0.0045534475 0.012492022 0.027868498 0.023565574 0.042063203
00000000: 95dc 113c 6ea2 263b 17f6 753d 684c 763d
00000010: 68f4 9a3b 98f9 4f3d 42fb 5b3c 88b3 1f3b
00000020: c50d 2bbc 0a13 c33c f905 c03c fba6 603b
00000030: d86a 3b3d 1ffb cdbc d62b 963d 2fe5 153d
00000040: ebeb d2bc 2e24 0c3d 5ad4 2f3c ea37 443b
00000050: 3387 a43c 9829 c53c 6f22 3a3d 0123 9b3b
00000060: f270 cd3c c3bd 773c 8a20 9bbd 2c7e 393d
00000070: d41a 2f3c f272 8d3d f602 b53c f1dd 873c
00000080: a347 0f3d 4dcd 8b3d f515 463d 2791 963c
00000090: dbc5 bf3c 130c d1ba 1dc5 423d e4a3 473c
000000a0: c89b fb3b 6a4a 083d 8437 893c d593 703b
000000b0: a896 d93b 5745 d93c ceed 65bc daa4 49bc
000000c0: b7c0 2a3d 174b 6abb 9df2 2f3d 16d0 e93c
000000d0: 0a49 c63a 3ef5 c83c 6aeb 94bb c972 403d
000000e0: d9c3 183d 1d74 d13c 40d4 b13c 5794 5e3c
000000f0: 0d30 783b 2a74 393c bd88 06bd eb5b babc
00000100: 14b1 573c 1357 263c c2c7 14bc ca07 08bd
00000110: 3741 da3c 6474 ffbb d796 1fbc f5bc 4c3c
00000120: a337 643d 39e2 d13c 4672 32bc 3709 043d
00000130: f905 033d cea8 3abb 71e4 d13c 3908 92bc
00000140: 8fc6 503c 1b01 f03b 0ca8 ac3c 0c22 053d
00000150: 1da5 723d 4f3c e43a 3a50 763c 83ca 213d
00000160: a8c0 393a c632 cc3c a1bc 05bc 4f89 4e3c
00000170: 3622 3ebb 324f b33c 04bb 83bb 83a0 c83c
00000180: 4fd6 b53d 2aca 08bd c275 3b3d 01d8 073d
00000190: b1e6 d03c cd79 e63c 8561 9bbb f9ab 6b3d
000001a0: 2694 983b 3c1e 5fba 0b1a 803d aa06 163d
000001b0: b767 5d3d ebe8 233d d5cf 803c b9bd 66bc
000001c0: 06f4 833d ec21 b23c 7236 c63b baeb 013c
000001d0: 76ab 173d 6d20 68bc a206 78bc ea90 293c
000001e0: e2d3 9a3d e395 693d 10f5 5f3d a86c a93c
000001f0: 36d1 d8b9 24c5 cf3d 9f84 c23c d5c5 5c3c
00000200: 1507 fb3a 73e4 00bd f09b a53c e0b2 1e3d
00000210: bba8 923c 8b1c 71bc 2083 603d fbcf 94bc
00000220: 4f93 1f3c af79 1c3d fdf3 203d 10da bb3c
00000230: 11e5 823c c865 ed3c 2b82 d9bc 9790 443c
00000240: 945d 9fbb c791 2f3c 01a2 393d 8da6 fc3c
00000250: f9c9 703d df30 703d 7208 b63c 960b 40bc
00000260: efd9 a03c 0f98 8dbb 3214 973d 8791 92bb
00000270: 4476 b53d 37ea 003d ae87 113d a44f 5f3c
00000280: 2ed0 ae3d d35d 423d 6946 1c3d 2400 8b3c
00000290: ea80 463c 7c22 713d 5a31 a1bc f431 50bd
000002a0: c6cc 393c 90f3 103d a2a2 d53c b731 553c
000002b0: 0dec e83c b466 0b3d 7af2 40bc cb5a 913c
000002c0: 074c 0b3c 5818 45bd 837e aabc 6f86 263d
000002d0: 0e3b 513d 399f 083d 2fe4 733d 9857 19bc
000002e0: 96fd 303d 16af 5e3d 9572 7e3c 326f 2e3d
000002f0: 2ded 6e3d 6438 883d 8f9a c1b9 cd0d b33c
00000300: db00 aa3b 5dcd da3c fcba 183c d128 8bbb
00000310: bc15 a13c 232b 3f3d 4904 26bc cf01 1e3d
00000320: 7b09 8f3c f07a 7e3c 121a c6ba 3dd6 663c
00000330: abdf 893c 7d69 cd3d 0844 553c c13a 98bb
00000340: 3b4b aa3c 3b3d 8d3d 2b05 c03c 0dd8 073d
00000350: a46e 583c de9d 803d e36d 0e3d 4ad3 ab3d
00000360: fcee f83c 764d 08bd 5097 a83c 6212 2a3d
00000370: c955 0a3d 0ef6 2c3d 4899 843d c2d9 e03c
00000380: fcde 2bbb a65c 95bb 520d c33b bdc4 c5bc
00000390: ccfe e73c e197 e73c a203 143d dbdb 5a3d
000003a0: 160a 503d 7c87 263c f1ed 543c 9d52 e93c
000003b0: a2d3 263d 10b4 8b3c cf21 e03c cf51 2c3c
000003c0: 71ab 053d 9646 513d 3143 0e3c 6f56 c03c
000003d0: 6380 90bb ad34 e93b 1ffd 35bc 5356 9a3d
000003e0: 8f74 143c cada 16bd 31ff 133d 1635 95bb
000003f0: 56ab 4c3c 7a4c e43c 970c c13c 774a 2c3d

action_model._continuous_distribution.log_sigma f4 [1, 9]
0.0030143938 0.13120958 0.05567675 0.025403066 -0.03999487 0.07556416 0.2135675 0.23465602
0.19020973
00000000: 238d 453b ce5b 063e 4e0d 643d 171a d03c
00000010: a9d1 23bd 62c1 9a3d 70b1 5a3e ab49 703e
00000020: 57c6 423e

action_model._continuous_distribution.mu.weight f4 [9, 256]
0.015131117 -0.014517371 -0.00057916716 0.0065446626 0.02771778 0.046424195 -0.07399776 -0.03544839
0.0340564 -0.011840314 0.014530294 -0.06530756 -0.07161919 0.092909135 0.051838573 0.036671035
0.007469831 0.0005207705 -0.049262207 0.06694019 -0.0014160501 0.000177082 -0.018227946 -0.013830306
0.00057599554 -0.06750328 -0.02968749 -0.09546173 0.008123082 -0.0008654463 -0.034131404 -0.018694548
-0.021819893 -0.016312681 0.012901183 -0.045697447 -0.023630638 0.051606633 -0.004324581 0.0098051755
-0.03966302 0.051775046 -0.022299632 0.011396539 0.030833092 0.027095309 0.077586174 0.019960932
-0.018848117 0.00027356128 -0.04630115 0.05258657 0.018546356 -0.096809894 -0.030559529 -0.06093448
-0.034770124 -0.086179934 -0.044938985 0.02034635 0.013912595 0.0138032865 -0.023299716 -0.029225137
0.079310544 -0.09456823 0.022274902 -0.061562657 0.100648455 -0.019502241 -0.013640614 -0.04011666
0.011126758 -0.03498672 -0.11247876 0.037330966 0.06894732 0.03550223 -0.0016730721 -0.006150847
0.033127453 0.07222228 0.029416407 0.01796243 0.030510126 -0.09064142 -0.027559837 -0.12584062
-0.069342576 0.008208451 -0.059138935 -0.07031601 0.016893161 0.032531526 0.00061258505 -0.06584667
0.019546475 0.027425375 0.027183995 -0.028450325 0.007234789 -0.032246683 0.011892761 0.09574722
0.011479968 0.032027554 0.0073170634 -0.06573134 -0.033207584 0.03663807 -0.043166228 0.047012366
0.03075331 -0.028558655 0.07520222 -0.0071143704 -0.034313656 0.045976914 0.025970623 0.027831098
-0.04723999 -0.090032585 0.09252755 0.057417173 0.0012263822 -0.035073668 -0.0060859635 0.073888674
-0.05518028 0.088580415 -0.05206565 0.05653753 -0.0060168877 0.027288603 -0.014711933 -0.06812061
-0.01397932 -0.044055864 0.10661341 0.030362157 -0.052730035 -0.06162887 -0.032419577 0.011591639
0.009738336 -0.020761628 0.03592696 -0.090377994 0.05335566 0.012914057 -0.021181267 0.042441577
0.0906622 0.017410738 0.060429692 -0.087746635 0.02880739 -0.0010727508 0.033481073 0.08637936
-0.055308335 0.047475558 0.022349784 -0.01720678 0.046008397 -0.041983657 -0.085119225 0.009074783
-0.03295265 -0.017536707 -0.021689298 0.022754407 -0.088560864 0.053095326 -0.0062582716 0.0025149838
0.03941024 -0.021241345 0.014295474 0.009446717 0.032676995 0.10954515 -0.015141825 0.054955836
-0.012499848 -0.010565873 0.037914682 0.025078442 0.009678368 -0.017596863 0.04620707 -0.06607957
-0.009761963 0.04503076 -0.06302202 -0.035504144 -0.0018874181 -0.017278438 -0.08121934 -0.04906415
-0.025361555 0.05384141 0.010368656 0.0200491 -0.075010285 -0.051200323 0.005306589 0.010455275
0.08980723 -0.06178514 0.033626277 0.028587725 0.04514538 0.033328023 -0.036004383 -0.080128886
0.04671619 -0.07593536 -0.04466787 0.07576348 0.055388317 0.119738795 -0.062258914 0.05974555
0.07740406 -0.005923738 0.002896267 -0.01105573 0.026548158 -0.0432607 0.021327585 0.003385499
-0.1451859 -0.0439115 0.06550101 -0.014130942 -0.0388503 0.018347314 0.041877575 -0.036568437
-0.018208252 -0.021529203 -0.013935186 -0.045407426 0.040666692 0.029948786 0.017773876 0.05667664
0.071398884 0.06291671 0.08446528 -0.03379045 0.050324522 0.022437066 -0.02155117 -0.03239714
00000000: 81e8 773c 44da 6dbc 40d3 17ba 9c74 d63b
00000010: 6610 e33c 4c27 3e3d 238c 97bd 5532 11bd
00000020: b97e 0b3d e0fd 41bc 7810 6e3c f8bf 85bd
00000030: 15ad 92bd 2547 be3d af54 543d 5e34 163d
00000040: 7cc5 f43b 5184 083a 2bc7 49bd f017 893d
00000050: c29a b9ba 16af 3939 c652 95bc 8298 62bc
00000060: 68fe 163a 293f 8abd 2e33 f3bc 7181 c3bd
00000070: ad16 053c 1edf 62ba 5fcd 0bbd 4f25 99bc
00000080: a2bf b2bc 2ca2 85bc 7c5f 533c 3f2d 3bbd
00000090: 0a95 c1bc 7a61 533d 37b5 8dbb e3a5 203c
000000a0: b175 22bd 1212 543d b8ad b6bc 8db8 3a3c
000000b0: ae95 fc3c fbf6 dd3c 80e5 9e3d 1c85 a33c
000000c0: 5e67 9abc c66c 8f39 46a6 3dbd 0465 573d
000000d0: 87ee 973c 4444 c6bd fa57 fabc 6f96 79bd
000000e0: 1e6b 0ebd 1b7f b0bd f111 38bd 63ad a63c
000000f0: a7f1 633c 2e27 623c 0cdf bebc 8e69 efbc
00000100: 916d a23d fdac c1bd db79 b63c 2029 7cbd
00000110: c720 ce3d 2ac3 9fbc e27c 5fbc 5e51 24bd
00000120: 014d 363c 3c4e 0fbd 445b e6bd 5be8 183d
00000130: 4134 8d3d c96a 113d fc4a dbba 0b8d c9bb
00000140: a7b0 073d 46e9 933d adfa f03c f225 933c
00000150: 5ff0 f93c 35a2 b9bd 2bc5 e1bc 5ddc 00be
00000160: 7b03 8ebd bd7c 063c ab3b 72bd d701 90bd
00000170: 8763 8a3c c73f 053d e395 203a 9eda 86bd
00000180: ee1f a03c 2eab e03c f8b0 de3c a810 e9bc
00000190: cf11 ed3b 1915 04bd dbd9 423c 1e17 c43d
000001a0: 7a16 3c3c 532f 033d fac3 ef3b 279e 86bd
000001b0: ad04 08bd cd11 163d 12cf 30bd 0a90 403d
000001c0: 5eee fb3c d7f3 e9bc 9f03 9a3d aa1f e9bb
000001d0: 7a8c 0cbd 4a52 3c3d 58c0 d43c 0bfe e33c
000001e0: b87e 41bd 0163 b8bd 167f bd3d 452e 6b3d
000001f0: 8fbe a03a 68a9 0fbd c36c c7bb f252 973d
00000200: b804 62bd a669 b53d ca42 55bd e693 673d
00000210: 5029 c5bb 598c df3c 520a 71bc d282 8bbd
00000220: 8509 65bc ec73 34bd 2258 da3d 0fba f83c
00000230: 73fb 57bd 8e6e 7cbd 64ca 04bd dcea 3d3c
00000240: 8b8d 1f3c 4a14 aabc 2628 133d 1918 b9bd
00000250: 778b 5a3d 7b95 533c 5684 adbc 38d7 2d3d
00000260: 1aad b93d f7a0 8e3c 2085 773d 82b4 b3bd
00000270: 7afd eb3c 8b9b 8cba 7323 093d a9e7 b03d
00000280: fe8a 62bd bb75 423d e516 b73c 3cf5 8cbc
00000290: 4d73 3c3d 0ef7 2bbd fd52 aebd 66ae 143c
000002a0: 5cf9 06bd 24a9 8fbc c1ad b1bc 7367 ba3c
000002b0: 665f b5bd 7c7a 593d 3012 cdbb 6dd2 243b
000002c0: a26c 213d 5402 aebc 9037 6a3c 67c6 1a3c
000002d0: 50d8 053d 3559 e03d 6b15 78bc 5f19 613d
000002e0: 2acc 4cbc 7c1c 2dbc 6d4c 1b3d 4e71 cd3c
000002f0: 0592 1e3c 4c27 90bc a043 3d3d ba54 87bd
00000300: a4f0 1fbc 2d72 383d b011 81bd cb6c 11bd
00000310: 3e63 f7ba 838b 8dbc 5356 a6bd 7df7 48bd
00000320: 09c3 cfbc cf88 5c3d 4ce1 293c 033e a43c
00000330: fe9e 99bd 6eb7 51bd e5e2 ad3b 9a4c 2b3c
00000340: daec b73d 6a12 7dbd b5bb 093d ce30 ea3c
00000350: 5dea 383d f782 083d 5579 13bd 9d1a a4bd
00000360: 7a59 3f3d ff83 9bbd a8f5 36bd e229 9b3d
00000370: dcde 623d 9d39 f53d 3403 7fbd c0b7 743d
00000380: 0586 9e3d ea1b c2bb 4ccf 3d3b 1823 35bc
00000390: 867b d93c 2232 31bd 30b7 ae3c 3fdf 5d3b
000003a0: 9dab 14be 8cdc 33bd 6525 863d 7785 67bc
000003b0: 7e21 1fbd 1b4d 963c d287 2b3d c9c8 15bd
000003c0: 7929 95bc 035e b0bc 6850 64bc 23fd 39bd
000003d0: 1e92 263d 2857 f53c 859a 913c c425 683d
000003e0: 9439 923d 7ada 803d 22fc ac3d db67 0abd
000003f0: 1621 4e3d f0cd b73c 148c b0bc ddb2 04bd

action_model._continuous_distribution.mu.bias f4 [9]
0.0081063965 -0.032540694 -0.0048100282 -0.02115202 0.00854273 -0.0302194 -0.024000129 -0.025696173
0.0045839585
00000000: b1d0 043c 6449 05bd 719d 9dbb 0047 adbc
00000010: cef6 0b3c ad8e f7bc eb9b c4bc c880 d2bc
00000020: 0835 963b
