results/duoCW/Worm/Worm-10982.onnx (onnx, 95636 bytes, 7 tensors)

network_body._body_endoder.seq_layers.0.weight f4 [128, 39]
0	0x3d0e4794	0.03473623
1	0x3e764f77	0.24053751
2	0xbe921867	-0.28534243
3	0xbe0ef0fd	-0.13959117
4	0x3c9de25f	0.019272981
5	0x3e2c4990	0.16824937
6	0xbd76345d	-0.06010853
7	0xbd97fbbf	-0.07421064
8	0x3e07b3dd	0.13252206
9	0xbd1fd667	-0.03902283
10	0x3dd7268d	0.105054
11	0x3dff09b6	0.12453024
12	0x3c0ffdd8	0.008788548
13	0x3dd23b56	0.10265224
14	0x3de7a568	0.113108456
15	0x3da70c96	0.081566975
16	0x3b86f450	0.00411848
17	0x3d6a1bf7	0.057155576
18	0xbdc8f928	-0.09813148
19	0xbd846b8f	-0.06465828
20	0x3e34247e	0.17592046
21	0xbb5b3bb1	-0.0033452327
22	0x3c91ef19	0.017814206
23	0x3e0fc72c	0.14040822
24	0x3e4a3294	0.19745857
25	0xbdc87d15	-0.097894825
26	0xb9debb27	-0.0004248258
27	0xbca7fbec	-0.020505868
28	0xbde93dc8	-0.11388737
29	0xbe15f370	-0.14643645
30	0x3dcd69d9	0.100299545
31	0x3e6b81a4	0.22998673
32	0x3c5852b2	0.01320331
33	0x3d81837b	0.06323906
34	0x3c824e9e	0.015906628
35	0xbda695e2	-0.08134057
36	0xbbd48931	-0.006486081
37	0x3e1e67e0	0.15469313
38	0x3d932c4a	0.07186182
39	0xbe09b317	-0.13447224
40	0x3dbcdfdd	0.09222386
41	0xbd1fea13	-0.03904159
42	0xbd12a08d	-0.035797644
43	0xbe5480f7	-0.20752321
44	0xbe890b73	-0.26766548
45	0x3d2d12f9	0.04225442
46	0xbe41d864	-0.18930203
47	0x3de7643c	0.11298415
48	0xbd29bc16	-0.04143914
49	0x3e648a34	0.22318345
50	0x3da72ed2	0.08163227
51	0xbcb960df	-0.0226292
52	0x3cb82f10	0.022483379
53	0xbd5bc6fc	-0.053656563
54	0x3e1ae820	0.15127611
55	0x3e26499a	0.16239014
56	0x3d0728bb	0.032997828
57	0xbe71eb11	-0.23624827
58	0xbdf64a84	-0.120259315
59	0x3e43b87d	0.19113345
60	0xbeb7fe59	-0.3593624
61	0x3e48d3be	0.19612023
62	0x3e4afa92	0.19822147
63	0x3e3efaf5	0.1865042
64	0xbd4bfc72	-0.049801297
65	0xbdcda7fb	-0.10041805
66	0xbe2209dc	-0.15824074
67	0x3d7988c6	0.060921453
68	0x3e22b9ce	0.15891191
69	0xbe6a2934	-0.2286728
70	0xbe0a0b62	-0.13480905
71	0xbe238dcf	-0.15972064
72	0x3cb5648b	0.02214267
73	0x3e16a86c	0.14712685
74	0xbef6dc83	-0.48215112
75	0x3e18add3	0.14910059
76	0x3c09e699	0.008416795
77	0xbd25bdb5	-0.04046412
78	0x3e19bfb0	0.15014529
79	0xbe07030e	-0.13184759
80	0x3e54df2c	0.20788258
81	0xbca4851a	-0.020082999
82	0x3e99c5f4	0.3003384
83	0xbe036848	-0.12832749
84	0x3d5299ca	0.051416196
85	0xbd6861cc	-0.05673389
86	0x3d8c158d	0.06840048
87	0x3c7e8ad1	0.015536026
88	0x3cce8e54	0.025214352
89	0xbe974847	-0.2954733
90	0xbe337217	-0.1752399
91	0x3d95cb88	0.07314211
92	0x3e06d22f	0.13166116
93	0xbeabe61d	-0.33574
94	0xbd69ec9b	-0.05711041
95	0x3d5f88aa	0.054573692
96	0xbe135dac	-0.14391202
97	0x3dc4f3ae	0.09616791
98	0x3d509660	0.05092466
99	0xbd37bc69	-0.044857416
100	0xbad4ca88	-0.0016234675
101	0x3dde4666	0.10853271
102	0xbdb1ceda	-0.08682032
103	0x3d9403d5	0.072272934
104	0xbe42dc3e	-0.19029328
105	0x3eb4e365	0.35329738
106	0x3d7e7b3b	0.06212924
107	0xbe7bab95	-0.24577172
108	0xbc21067c	-0.009828206
109	0x3ded93f0	0.116004825
110	0xbe86dbd5	-0.26339594
111	0xbe2f04d0	-0.1709168
112	0xbe6a3493	-0.22871618
113	0xbe3577d2	-0.17721489
114	0x3d039de7	0.03213301
115	0x3d7cf733	0.061759185
116	0x3e74d57a	0.2390956
117	0x3d5b5d5e	0.05355584
118	0xbe3563d0	-0.17713857
119	0x3ebaac0e	0.36459392
120	0x3d84c9fa	0.064838365
121	0x3d2102ea	0.03930942
122	0xbe53d447	-0.20686446
123	0xbde8c2ba	-0.11365266
124	0xbda2d8f4	-0.07951537
125	0x3e1481b3	0.14502601
126	0x3e015868	0.1263138
127	0xbe2b6165	-0.16736372
128	0xbe1a4a75	-0.15067466
129	0xbf0389c3	-0.5138208
130	0xbdd8293b	-0.10554739
131	0xbeb0eb4c	-0.34554517
132	0xbd436071	-0.047699396
133	0x3d3141ef	0.04327577
134	0xbd3d05df	-0.046148177
135	0x3e0c67a4	0.13711411
136	0xbdc93de7	-0.0982626
137	0x3e9a731a	0.3016594
138	0x3e8ff24d	0.28114548
139	0xbcad62da	-0.0211653
140	0x3d7b387b	0.06133316
141	0xbbc692b1	-0.0060599674
142	0x3e868617	0.26274177
143	0x3b9a4718	0.004708182
144	0x3e1c5cb4	0.15269738
145	0x3e153c4e	0.14573786
146	0x3d8cce71	0.06875313
147	0x3e0e0acc	0.13871306
148	0x3cd6bc06	0.026212703
149	0xbaca8b3d	-0.0015452873
150	0x3e25ab48	0.1617862
151	0x3d9bebff	0.07613372
152	0x3e6cf8fb	0.23141854
153	0x3de575cb	0.11204108
154	0x3e7739ae	0.24143097
155	0xbc0ad365	-0.008473252
156	0x3d377fe7	0.04479971
157	0x3dc90d1c	0.098169535
158	0x3e898f24	0.2686702
159	0x3d3f0dcb	0.046644013
160	0x3daf2ccb	0.085534655
161	0xbe69efd6	-0.22845396
162	0xbd97fe19	-0.07421512
163	0xbe12c7ac	-0.14333981
164	0xbd8629d5	-0.065509476
165	0x3e863aee	0.26216835
166	0xbe557e7b	-0.2084903
167	0xbe35b934	-0.1774643
168	0xbdceaf90	-0.1009208
169	0x3c87f50e	0.016596343
170	0xbe6acf05	-0.22930534
171	0xbd258af3	-0.040415715
172	0x3b021a11	0.0019851963
173	0xbdbe68cf	-0.092973344
174	0x3d03569c	0.03206502
175	0xbde3cd02	-0.111230865
176	0xbd6fc162	-0.058534034
177	0x3cc82bcf	0.024434952
178	0x3dc52dab	0.09627851
179	0x3e53d367	0.20686112
180	0x3d2259a6	0.039636277
181	0x3e6c0b4c	0.23051184
182	0x3e0695f4	0.1314314
183	0xbe33cd99	-0.17558898
184	0xbc225c6b	-0.0099097295
185	0xbbd0002c	-0.0063476767
186	0xbdbcbaed	-0.09215341
187	0xbe76824f	-0.24073146
188	0xbd68a733	-0.05680008
189	0x3d0626a1	0.032751683
190	0xbcabe44b	-0.020982882
191	0xbda696d5	-0.08134238
192	0xbe291899	-0.1651329
193	0xbde83e47	-0.113400035
194	0xbdced2b0	-0.10098779
195	0xbd416cdd	-0.04722296
196	0x3d7c8641	0.061651472
197	0xbeaee9a1	-0.3416262
198	0x3e4380d5	0.19092114
199	0x3db40a77	0.087910585
200	0xbe66488d	-0.22488613
201	0x3e2001b4	0.1562565
202	0xbdf2b873	-0.11851587
203	0x3cd92464	0.02650661
204	0xbdcf7e42	-0.10131504
205	0xbe8236e7	-0.25432512
206	0x3ccbc486	0.024873983
207	0x3e9091ec	0.2823633
208	0xbd95b71a	-0.073103145
209	0x3d58b7c5	0.05290963
210	0x3d415096	0.047195993
211	0xbcc80ab0	-0.024419159
212	0x3e4d5c5c	0.20054764
213	0x3cf4fb3a	0.02990495
214	0x3d697ea6	0.057005547
215	0xbf0f192e	-0.55897796
216	0x3d16c484	0.036808506
217	0x3dfcad89	0.12337787
218	0xbeb2b8b3	-0.3490654
219	0x3dc20374	0.09473315
220	0xbde03927	-0.10948401
221	0x3e0ad441	0.13557531
222	0xbe4b0851	-0.19827391
223	0x3ee78f07	0.4522631
224	0xbd9f73ef	-0.077857845
225	0xbc122993	-0.008921045
226	0x3cbb9328	0.022897318
227	0xbe25f586	-0.16206941
228	0xbcbf8f5e	-0.023383792
229	0xbe3e9b0f	-0.18613838
230	0xbc7a951b	-0.015294339
231	0xbd66c939	-0.056344245
232	0xbb826333	-0.0039791106
233	0xbe759c6c	-0.23985451
234	0xbd01e44c	-0.03171186
235	0x3eac0a99	0.33601835
236	0xbd8e7d6c	-0.06957516
237	0xbdc11395	-0.09427563
238	0x3ca4c6b3	0.020114278
239	0x3e283119	0.1642498
240	0x3e2a85dc	0.16652626
241	0x3de5ced9	0.11221094
242	0x3e93be64	0.28856194
243	0x3d8629a2	0.065509096
244	0x3c4a7a7e	0.012358306
245	0x3e30269a	0.17202225
246	0xbe110bbc	-0.14164633
247	0x3e5aa2b0	0.21351123
248	0x3e223d28	0.15843642
249	0xbd968a2c	-0.07350573
250	0x3d9caf97	0.076506786
251	0xbdbbe27f	-0.0917406
252	0x3eb74297	0.35792992
253	0x3e3b16bf	0.18270396
254	0x3d8bf894	0.06834522
255	0x3d1cee8d	0.038313437

network_body._body_endoder.seq_layers.0.bias f4 [128]
0	0xba831a4d	-0.0010002345
1	0x39de7b6c	0.00042435096
2	0xbab83a44	-0.001405545
3	0x3ac33f59	0.0014896198
4	0xb9b977d8	-0.0003537524
5	0x39f67c29	0.00047013283
6	0x3b44c392	0.0030023796
7	0x3a401a4c	0.0007328137
8	0x3a065f94	0.00051259366
9	0xba4de91e	-0.00078548666
10	0x3b29bdfa	0.0025900588
11	0xbad49bb6	-0.0016220722
12	0x386733a3	5.5122782e-05
13	0x3ab78d25	0.0014003856
14	0xb82df8c5	-4.14781e-05
15	0xb8bd6d25	-9.032552e-05
16	0xba7174fc	-0.00092108524
17	0xba81a5a3	-0.0009891283
18	0x3a7b155b	0.00095780723
19	0xba888f75	-0.001041873
20	0x3b042a1b	0.0020166698
21	0x3b38108f	0.0028086042
22	0xbb004225	-0.0019570675
23	0xbb09a194	-0.002100085
24	0x3b3e7a22	0.0029064496
25	0x3b08447b	0.002079277
26	0xbb30130e	-0.0026866826
27	0xbb12cf05	-0.0022401225
28	0x3abb9bf2	0.0014313443
29	0xb914f8cf	-0.00014207068
30	0x3a331e4c	0.00068328227
31	0xbacce48f	-0.0015632081
32	0x39151231	0.00014216524
33	0x39dbed07	0.00041947534
34	0xba43ebf8	-0.0007473822
35	0x3ad4d898	0.0016238866
36	0xba9fa7f7	-0.0012180795
37	0xbac8d9f1	-0.0015323741
38	0x3a97bf4f	0.00115774
39	0xb9085145	-0.00013000246
40	0xbac6b45b	-0.0015159951
41	0x3aa6b5dc	0.0012718993
42	0x39e9953d	0.00044552414
43	0xbb440de0	-0.0029915497
44	0xbab003c9	-0.0013428862
45	0xba2422eb	-0.00062613067
46	0x3b5c47ec	0.0033612205
47	0xba52b921	-0.00080384506
48	0x3b6aa96b	0.0035806547
49	0x3a1f5e28	0.0006079399
50	0x3b1eb775	0.0024218236
51	0x3ac0c421	0.0014706888
52	0xba230301	-0.0006218404
53	0x39558cbf	0.00020365695
54	0xba8ade5b	-0.0010594832
55	0xb87446c3	-5.8240035e-05
56	0x3ab133d7	0.0013519478
57	0xbabf4121	-0.0014591553
58	0x3b012c33	0.0019710183
59	0x3ab6dce0	0.0013951324
60	0xba83c1ee	-0.0010052302
61	0x3a968fc2	0.0011486935
62	0x3ac29381	0.0014844985
63	0xba0ad425	-0.0005295894
64	0xb9bffcca	-0.000366187
65	0xbb3aa0ce	-0.0028477195
66	0xba16da5e	-0.0005754585
67	0x39afff94	0.00033569022
68	0xba3c3ccf	-0.0007180692
69	0x3aa72ccb	0.0012754438
70	0x38e2155f	0.000107805005
71	0xb91134d8	-0.00013847963
72	0x3a4a4f29	0.0007717484
73	0xb803bb83	-3.1407468e-05
74	0xb9469cba	-0.00018941137
75	0xba139acb	-0.0005630671
76	0xbaac23a9	-0.0013133186
77	0xbb330b47	-0.0027319954
78	0x3a8d5f1a	0.0010785789
79	0x3a2f8ecb	0.0006696998
80	0x3aac5e1e	0.0013150608
81	0x3a67de28	0.00088450545
82	0x3a8942c7	0.0010472172
83	0x3b1b84dd	0.0023730316
84	0xb9d72dd1	-0.00041042131
85	0xba461d38	-0.00075574545
86	0xbb23cafa	-0.002499281
87	0xba9d1a6b	-0.0011986023
88	0xbabb7b35	-0.0014303686
89	0x39eaf2af	0.0004481277
90	0x3a9bc0e8	0.0011883052
91	0x3a0ec52e	0.0005446252
92	0xba6e4a50	-0.0009090053
93	0xb9dabe02	-0.00041721767
94	0xba30ea00	-0.0006748736
95	0x3aa8c9c1	0.001287751
96	0x3a84bbc9	0.0010126765
97	0xba8c96a4	-0.0010726047
98	0x3ae4b8b0	0.0017450061
99	0x3aafa999	0.0013401984
100	0xba3a341b	-0.0007103101
101	0xbad612b2	-0.0016332476
102	0x3abac80f	0.0014250296
103	0xb998d366	-0.00029149203
104	0x399f9d07	0.00030443838
105	0xbb02ea1b	-0.0019975964
106	0xba1632d1	-0.0005729618
107	0x3908eea9	0.00013058879
108	0xb9c6b102	-0.00037897384
109	0xbab28766	-0.0013620674
110	0xb9cbed46	-0.0003889596
111	0xb98e08a5	-0.0002709079
112	0xbac64c1a	-0.0015128881
113	0x39f6d74c	0.00047081185
114	0x3a6d79cd	0.0009058982
115	0xba49f915	-0.00077046576
116	0x3b1675dd	0.0022958436
117	0x3a4c5b77	0.0007795612
118	0xb9c6acf3	-0.0003789436
119	0x37c23721	2.3152274e-05
120	0xbabce54b	-0.0014411596
121	0x3b4a64e7	0.0030882896
122	0xbb4ad82a	-0.0030951598
123	0x39203755	0.00015279402
124	0x3a100212	0.00054934726
125	0x3a5aca91	0.0008346225
126	0x39b9f146	0.00035465712
127	0x3b257545	0.00252469

network_body._body_endoder.seq_layers.2.weight f4 [128, 128]
0	0x3d7eaa4e	0.062174134
1	0xbcae667d	-0.021289105
2	0x3ca2bc0c	0.019865058
3	0x3d42ce56	0.04756006
4	0x3d9d2788	0.076735556
5	0x3cbba3ab	0.022905191
6	0x3d31a746	0.043372415
7	0x3dbd1a70	0.09233558
8	0xbabffb9d	-0.001464713
9	0x3e1a8d8b	0.15093057
10	0xbdbb97d6	-0.0915982
11	0x3c1a5302	0.009419205
12	0x3d22b384	0.03972198
13	0xbd9d5153	-0.07681527
14	0xbd95d498	-0.0731594
15	0xbd39771d	-0.04527961
16	0xbd32659b	-0.04355393
17	0xbca7a76f	-0.02046558
18	0xbdaf92aa	-0.08572896
19	0xbdca793f	-0.09886407
20	0xbd5cb2f3	-0.053881597
21	0xbd80c1fe	-0.06287001
22	0xbd9f696c	-0.077837795
23	0xbc529f12	-0.012855308
24	0xbcaf616a	-0.021408755
25	0x3d490ee1	0.049086455
26	0x3d637f5f	0.055541392
27	0xbd08efdd	-0.033431876
28	0x3e0221d2	0.12708214
29	0x3e134596	0.14382014
30	0x3bdf00ca	0.006805514
31	0xbd826e5f	-0.06368708
32	0xbca61389	-0.020272987
33	0x3d95bf10	0.07311833
34	0x3e22ce9e	0.1589913
35	0xbda72d02	-0.081628814
36	0xbcb1fd02	-0.021727089
37	0x3d23f343	0.040026914
38	0x3e518c92	0.2046378
39	0x3df1be4d	0.11803875
40	0xbd1c2349	-0.038119588
41	0x3c12d621	0.008962185
42	0x3d8dd10e	0.0692464
43	0xbdef5047	-0.116852336
44	0xbe56388d	-0.2092001
45	0x3e2088f1	0.15677239
46	0x3de2b9c3	0.110705875
47	0x3da9bb20	0.082876444
48	0xbe5af130	-0.21381068
49	0xbd8642b0	-0.065556884
50	0x3d6446db	0.055731636
51	0xbde62cd9	-0.11239023
52	0x3c136806	0.008996969
53	0xbd2f6989	-0.042825256
54	0xbd01fd12	-0.031735487
55	0x3d1e10da	0.03859029
56	0x3cb8c680	0.02255559
57	0x3d9f0cae	0.0776609
58	0xbdd41c91	-0.10357011
59	0xbd259328	-0.040423542
60	0x3d8b9d50	0.06817114
61	0xbe055885	-0.13022049
62	0x3c97854e	0.018496182
63	0x3e2b5d9f	0.16734932
64	0xbdafacd7	-0.085778885
65	0xbd058346	-0.032595895
66	0x3c7d5e45	0.01546437
67	0xbd899855	-0.06718508
68	0xbe3ce298	-0.18445814
69	0xbc05afc4	-0.008159582
70	0xbddacbd0	-0.106834054
71	0x3da2fe87	0.079587035
72	0x3db41491	0.08792985
73	0x3d369007	0.04457095
74	0x3c919562	0.017771427
75	0x3e01d8d7	0.12680374
76	0xba88fb70	-0.0010450911
77	0xbe280606	-0.16408548
78	0x3affacaf	0.001950642
79	0xbd4c42dc	-0.04986845
80	0x3e402695	0.18764718
81	0x3dbc42fd	0.091924645
82	0x3de21a06	0.1104012
83	0x3dbcae21	0.092129
84	0xbd413467	-0.047169115
85	0x3d211ac1	0.039332155
86	0x3e578749	0.21047701
87	0xbd3fafaa	-0.046798386
88	0x3d940977	0.07228368
89	0x3d4e4398	0.05035743
90	0x3ddef9b8	0.10887474
91	0x3e155d05	0.14586265
92	0xbd853536	-0.0650429
93	0xbd51599b	-0.051110845
94	0x3dff7650	0.12473738
95	0x3d639bab	0.05556838
96	0xbcb78363	-0.022401517
97	0xbd435442	-0.047687776
98	0x3ba8cbc6	0.005151245
99	0x3cb25387	0.021768345
100	0x3d664ff1	0.05622858
101	0x3e36a47c	0.17836183
102	0xbcdbf8f3	-0.026852107
103	0xbe16f80c	-0.1474306
104	0xbd095637	-0.033529487
105	0xbdbb6039	-0.091492124
106	0x3cbc6443	0.022997027
107	0xbdc9fa6a	-0.09862216
108	0x3db393e0	0.08768439
109	0x3df2e80a	0.11860664
110	0xbdce10d5	-0.10061804
111	0x3dbd7141	0.09250117
112	0x3dfc89e0	0.12330985
113	0x3c7f6784	0.015588645
114	0xbe6f870b	-0.23391359
115	0x3c2b04f9	0.010438197
116	0xbc63fcac	-0.013915222
117	0xbd35cdf5	-0.04438587
118	0xbdb86f6f	-0.09005629
119	0x3c664a81	0.014055849
120	0xbdd73835	-0.105087675
121	0xbd3caee0	-0.04606521
122	0xbc1282ec	-0.008942347
123	0x3c8568d3	0.016285336
124	0x3d33423c	0.043764338
125	0xbda50d9e	-0.08059238
126	0xbd39607f	-0.04525804
127	0x3d1006e0	0.035162807
128	0xbd5278f0	-0.051384866
129	0xbe0804fc	-0.13283151
130	0xbda4a626	-0.08039503
131	0xbc8aac32	-0.016927812
132	0x3d96f433	0.07370796
133	0xbd87bdeb	-0.06628021
134	0x3d9da05a	0.076966
135	0xbd45f501	-0.048329357
136	0x3e24e55d	0.1610312
137	0x3e0baf64	0.13641125
138	0x3e2975e6	0.16548881
139	0x3d8c7cc9	0.068597384
140	0xbdc602cf	-0.096685044
141	0x3df9c739	0.12196202
142	0xbb8c2b80	-0.0042776465
143	0xbdc68e51	-0.096951135
144	0x3cd590a3	0.026069945
145	0x3dd3ac0a	0.10335548
146	0x3caf2ada	0.021382738
147	0xbcb0429b	-0.021516135
148	0xbd2be7b0	-0.041969
149	0x3d542207	0.051790264
150	0xbcd7f680	-0.026362658
151	0xbdf3e619	-0.11909122
152	0x3e21b6de	0.15792415
153	0x3e1f5f71	0.15563752
154	0x3e44f5ee	0.1923444
155	0x3d899b5b	0.06719085
156	0x3d09433b	0.03351138
157	0xbc87feee	-0.016601052
158	0x3d2d948d	0.042377997
159	0xbde25d16	-0.11052911
160	0xbdcb75db	-0.099345885
161	0xbd582587	-0.052770164
162	0xbcbc1d36	-0.022963148
163	0x3e35f376	0.17768654
164	0xbdec2386	-0.11530213
165	0x3e2208b3	0.15823631
166	0x3e13e231	0.14441754
167	0x3d9ba4d7	0.075998
168	0x3df0a745	0.11750654
169	0xbc7dcdfb	-0.015491004
170	0x3db235ea	0.087016895
171	0x3d86de3e	0.06585358
172	0xbd6a309f	-0.057175275
173	0x3db88301	0.09009362
174	0x3e2561e2	0.1615062
175	0x3e1494c6	0.14509878
176	0x3caab43e	0.0208379
177	0x3d7ed697	0.062216368
178	0x3d7c1ef0	0.06155294
179	0x3da107cb	0.078628145
180	0xbd52ac92	-0.051434107
181	0xbd7046d7	-0.05866131
182	0xbdf9a821	-0.12190271
183	0xbe225396	-0.15852198
184	0xbdca78c7	-0.09886318
185	0xbc889170	-0.016670913
186	0x3b2db6e4	0.0026506716
187	0x3c246607	0.010034091
188	0xbe492ed3	-0.19646768
189	0xbcea3dd1	-0.02859393
190	0x3c8d3f8e	0.01724222
191	0x3c9c3082	0.0190661
192	0x3b4aad26	0.0030925958
193	0x3cbc6d1b	0.023001244
194	0xbdfc097d	-0.12306497
195	0x3e11c2c9	0.14234461
196	0x3e4e93b0	0.20173526
197	0x3e040273	0.1289156
198	0xbd2e8b87	-0.042613532
199	0xbd48df33	-0.049040984
200	0xbd9db114	-0.076997906
201	0xbddfcfc5	-0.10928301
202	0xbdcbcc11	-0.09951032
203	0xbd21ea7e	-0.03953027
204	0x3d46669c	0.0484377
205	0x3cbfdcbc	0.023420684
206	0x3d00750a	0.031361617
207	0xbd5fd706	-0.05464842
208	0x3d0cc00f	0.03436285
209	0x3d03e75f	0.032203075
210	0x3c6ea208	0.014564998
211	0x3ccebbdd	0.025236065
212	0x3dc712af	0.097203605
213	0x3c5349e2	0.012896033
214	0x3d82ff9c	0.0639641
215	0xbdd9518a	-0.106112555
216	0x3cd551b7	0.026039941
217	0x3dbeb9ea	0.09312804
218	0x3da84095	0.08215443
219	0xbd7507fd	-0.05982207
220	0xbddeb59b	-0.10874482
221	0x3d89d221	0.06729532
222	0xbdb5f261	-0.08884121
223	0xbdd8f904	-0.10594371
224	0x3d4d8fa4	0.050185814
225	0xbd06e8ab	-0.032936733
226	0x3ca0d234	0.019631483
227	0xbde7ea45	-0.1132398
228	0x3d3c4bbc	0.045970663
229	0xbdba903a	-0.0910954
230	0x3d7db759	0.061942432
231	0x3d86fd0b	0.06591233
232	0xbd098d2a	-0.03358189
233	0x3daf3423	0.08554866
234	0xbdaf1fe5	-0.08551005
235	0x3e897ac0	0.26851463
236	0x3d5f7fe3	0.05456532
237	0xbe0e2e41	-0.13884832
238	0x3ce20a81	0.0275929
239	0x3b14017e	0.0022583897
240	0x3d7bd694	0.061483935
241	0xbd1e220c	-0.03860669
242	0xbca89d75	-0.020582894
243	0xbda6b836	-0.08140604
244	0x3d78807c	0.060669407
245	0x3d761715	0.060080606
246	0xbe43414c	-0.19067878
247	0xbc9e2317	-0.019303842
248	0x3e06a21d	0.13147779
249	0xbcf119a6	-0.029431175
250	0xbcba8795	-0.022769729
251	0xbd228561	-0.03967798
252	0x3dc741c9	0.097293444
253	0xbde2ba47	-0.11070686
254	0x3e6a07f0	0.2285459
255	0xbe110c42	-0.14164832

network_body._body_endoder.seq_layers.2.bias f4 [128]
0	0xbaf22755	-0.0018474857
1	0xb9df60b3	-0.0004260592
2	0xbaeac0a6	-0.0017910197
3	0xbb080de9	-0.0020760244
4	0x39cd913f	0.00039208864
5	0x3a033f04	0.00050066435
6	0x3b1729d7	0.002306571
7	0xba8868e3	-0.0010407235
8	0xbac948c6	-0.0015356771
9	0x3a373201	0.0006988347
10	0x3af49dab	0.0018662711
11	0x38e6860d	0.000109922235
12	0x38d0e7d3	9.9613935e-05
13	0x3a090cef	0.00052280625
14	0x3a1d9181	0.00060107565
15	0xb91fc5ee	-0.00015237156
16	0x3abfe968	0.0014641704
17	0xb921f340	-0.00015444774
18	0x3a16dd96	0.0005755065
19	0xbac73800	-0.0015199184
20	0x3a501eec	0.0007939178
21	0xbafd8f5b	-0.0019345091
22	0x3b06a47f	0.0020544825
23	0xbac1d4bf	-0.0014788135
24	0xb9dcb20f	-0.00042094334
25	0x39ac8a5f	0.0003290949
26	0xbaf0c83b	-0.001837022
27	0x3a8035d4	0.0009781667
28	0xb9c3bd5e	-0.00037334388
29	0xb9d0757b	-0.0003976038
30	0x3968c005	0.00022196777
31	0x3a204069	0.00061131135
32	0xba95d603	-0.0011431578
33	0x3a5ec592	0.0008498068
34	0x3ac31d06	0.0014885969
35	0xbad7897b	-0.0016444171
36	0xbb0fcfe7	-0.0021943988
37	0x3a6b7fdc	0.0008983591
38	0x3b22bac3	0.0024830557
39	0x3a6d1a73	0.0009044774
40	0xbaada697	-0.00132485
41	0x3a733bdc	0.0009278634
42	0x3abaa937	0.0014241104
43	0x3b0077e8	0.001960272
44	0xbae01399	-0.0017095684
45	0x3ac8c81b	0.0015318425
46	0x39c50001	0.0003757477
47	0xbaf39d07	-0.0018586227
48	0x3a63270f	0.0008665183
49	0xb9a2b0de	-0.00031030824
50	0xba889d99	-0.0010422944
51	0xb9ff7f72	-0.00048732344
52	0xba4df2ea	-0.00078563264
53	0x3ac839b8	0.0015275991
54	0xba949851	-0.0011336898
55	0xbaa0a670	-0.0012256633
56	0x3a995e2f	0.0011701043
57	0x3a5f770f	0.0008524516
58	0x3a1d2f25	0.00059961
59	0x3b0a33f0	0.0021088086
60	0xb9d08866	-0.00039774476
61	0x3b1baf1a	0.0023755492
62	0xbb0c8317	-0.002144044
63	0x3aaa0661	0.0012971872
64	0x383bca0e	4.4772452e-05
65	0xbaad80f3	-0.0013237282
66	0x3b142762	0.0022606482
67	0x3ab37edc	0.0013694423
68	0x3a00dd86	0.0004915822
69	0x3b1d727b	0.0024024535
70	0xb9ac236c	-0.00032832788
71	0x3a1bca9e	0.0005942973
72	0xbb26cef7	-0.002545295
73	0xbb139ed6	-0.0022525094
74	0xb680218e	-3.8186035e-06
75	0x391f8ecd	0.00015216619
76	0x3af0a721	0.0018360355
77	0x3b277867	0.0025553943
78	0x3b27fe88	0.002563389
79	0x3af84a84	0.0018943106
80	0xb9d9392f	-0.0004143207
81	0x393dc39a	0.00018097312
82	0xba8ed7c6	-0.0010898046
83	0xbb0adeb8	-0.002118988
84	0x3a100615	0.00054940704
85	0xbab61595	-0.001389193
86	0x3a27d146	0.00064017286
87	0xbaa4237e	-0.0012522785
88	0xba51984f	-0.0007995413
89	0x3aeb7237	0.0017963116
90	0x3a0c9c3a	0.0005363856
91	0x3af831b7	0.0018935715
92	0x3ad4563c	0.0016200016
93	0x3a954880	0.0011389405
94	0x3a68d41e	0.00088817056
95	0x38d7c0ca	0.00010287909
96	0x3a56a3e5	0.00081878743
97	0x3a9beccb	0.0011896131
98	0xba72196a	-0.00092353544
99	0xbaef142b	-0.0018240263
100	0x3a7eb6fb	0.0009716597
101	0x3a02a55e	0.0004983748
102	0x3afb6421	0.0019179621
103	0x3b45708b	0.0030126895
104	0xb90bb836	-0.00013324697
105	0xba37262c	-0.0006986584
106	0x3af70533	0.0018846154
107	0xbaca3581	-0.0015427322
108	0xba8193ae	-0.0009885931
109	0x3a08d967	0.0005220384
110	0xba32a5dd	-0.00068148767
111	0xba3fbcb5	-0.00073141913
112	0xba4668fe	-0.00075687456
113	0x3ae510c8	0.0017476315
114	0x3a3a103b	0.00070977554
115	0x3a857e1c	0.0010184678
116	0xb814666b	-3.5381334e-05
117	0xba478969	-0.0007611723
118	0xbaf7dd70	-0.0018910598
119	0xba858cf6	-0.0010189104
120	0xb9653743	-0.00021859728
121	0x3acd55da	0.0015665845
122	0xbb2782b8	-0.0025560092
123	0x3a4ff37d	0.0007932706
124	0x3aa427f2	0.0012524112
125	0xbaa233dc	-0.0012375074
126	0x39d987ee	0.0004149074
127	0xb9d966d1	-0.0004146607

action_model._continuous_distribution.log_sigma f4 [1, 9]
0	0xbd651854	-0.055931404
1	0x3d383a98	0.044977754
2	0xbc9ceb85	-0.019155273
3	0xbd2e39ca	-0.04253558
4	0xbddcbf1a	-0.10778637
5	0x3cb022ad	0.02150091
6	0x3e072c9b	0.1320061
7	0x3e1ece26	0.15508327
8	0x3dca0ea0	0.09866071

action_model._continuous_distribution.mu.weight f4 [9, 128]
0	0xbce13904	-0.027493007
1	0x3d0c3379	0.034228776
2	0xbc9560ab	-0.018234571
3	0x3c52f2e6	0.012875294
4	0xbc610c71	-0.013735876
5	0xbcc1889d	-0.023624713
6	0x3d04fa70	0.0324654
7	0xbc9982cf	-0.018739132
8	0xbc3421d4	-0.010994393
9	0x3c0c2d80	0.00855577
10	0xbcd430f9	-0.025902258
11	0xbd184495	-0.03717478
12	0x3cedd05a	0.029030014
13	0x3c85f29a	0.016351033
14	0x3c1efbab	0.009703557
15	0xbb978acc	-0.0046247
16	0xbc926e8b	-0.017874977
17	0xbb0c64be	-0.0021422352
18	0x3c3f19ea	0.011663893
19	0x3b406143	0.0029354848
20	0x3c8227c4	0.015888102
21	0xbbaa4ef9	-0.0051974026
22	0x3c023eff	0.00794959
23	0xb6b8b59b	-5.504769e-06
24	0xbaf650ae	-0.0018792355
25	0xbc785404	-0.01515675
26	0x3c9b96f6	0.018992882
27	0xbaf96dbb	-0.0019029895
28	0xbcda2fad	-0.026634062
29	0xbc26edb3	-0.010188508
30	0xbc7713b3	-0.01508038
31	0xbc174862	-0.009233566
32	0xbb1a5ecd	-0.002355504
33	0xbc8e362b	-0.017359814
34	0x3d0f5a81	0.03499842
35	0xbd18c39e	-0.03729593
36	0x3c8bf79c	0.017085843
37	0x3b3075f7	0.0026925781
38	0xbc529923	-0.012853893
39	0x3cbbfcee	0.022947755
40	0x3ca2e4e3	0.019884532
41	0xbd1725c3	-0.036901247
42	0xb7b983e2	-2.2115131e-05
43	0x3cc2eed7	0.023795528
44	0xbbc5e894	-0.0060396884
45	0x3aec67bf	0.001803629
46	0x3c8e5c74	0.01737807
47	0xbb4d9b3e	-0.003137305
48	0xbc0c2343	-0.008553329
49	0x3ca3d15f	0.019997297
50	0x3c13d03a	0.009021813
51	0x3c4301db	0.011902298
52	0xbc125d74	-0.008933414
53	0xbc4995d7	-0.012303791
54	0x3bc2881e	0.0059366366
55	0x3bfc63b2	0.0077023143
56	0xbc7acfe5	-0.015308355
57	0xbc9a1bfb	-0.01881217
58	0x3be593a8	0.0070061274
59	0x3c0eaec4	0.00870866
60	0x3c7740d6	0.015091142
61	0x3a88d92f	0.0010440702
62	0xbc96b909	-0.018398779
63	0x3c3ad0b7	0.011402301
64	0x3c73d7a8	0.014882959
65	0x397fc4f2	0.00024392063
66	0x3be2d33e	0.0069221547
67	0x3c755eb0	0.014976189
68	0xbccbaeff	-0.024863718
69	0x3cf07241	0.029351356
70	0xbca4c91a	-0.020115424
71	0x3cfd14c7	0.030893696
72	0xbc88c4ac	-0.016695343
73	0x3c285f3a	0.01027661
74	0x3b33223b	0.0027333635
75	0xbcacbc58	-0.021085903
76	0x3cf31990	0.029675275
77	0x3c4ebe08	0.012618549
78	0x3ccdf7df	0.025142608
79	0x3c411b4b	0.011786292
80	0x3d07fc81	0.03319979
81	0x3bdd2ac0	0.006749481
82	0xbc411ba2	-0.011786373
83	0x3c1f3f66	0.009719705
84	0xbc211a7b	-0.009832974
85	0xbc1de38a	-0.009636769
86	0x3c581f91	0.01319112
87	0xbc4b0aad	-0.012392682
88	0x3cbc46f9	0.022983061
89	0xbcda9170	-0.026680678
90	0xbcd43a69	-0.025906758
91	0x3b49ad82	0.0030773585
92	0x3cb0f982	0.02160335
93	0x3c6533a4	0.013989363
94	0x3ca8465c	0.020541362
95	0xbb7c450c	-0.0038493304
96	0x3c3db13c	0.0115779005
97	0x3d292328	0.041293293
98	0x3b42b275	0.002970842
99	0xbc4d2bed	-0.01252268
100	0x3be85e23	0.0070913
101	0x3ba9b52c	0.005179068
102	0x3cbc8898	0.023014352
103	0xbcb0ee1c	-0.021597914
104	0xbcf6fe1d	-0.030150468
105	0x3c6d857c	0.014497157
106	0x3c8a7368	0.016900733
107	0xbc6a9a96	-0.014319083
108	0xbbd1ec28	-0.006406326
109	0x3c209472	0.009801017
110	0x3ac7d01c	0.0015244517
111	0x3bc3f295	0.0059798458
112	0xbcb25b4a	-0.021772046
113	0x3c02e0b3	0.007988143
114	0x3c0a1cd5	0.008429726
115	0xbc13b41b	-0.009015108
116	0xbbc730b3	-0.0060788034
117	0xbc72edc8	-0.014827199
118	0xbd064f65	-0.03279056
119	0xbc54a36c	-0.012978416
120	0xbb2def87	-0.0026540475
121	0x3cc2147f	0.023691414
122	0x3c0f1532	0.008733081
123	0xbc59bbe6	-0.013289427
124	0xbc8c033a	-0.017091382
125	0x3c72fba8	0.014830507
126	0x3cea0bed	0.02857014
127	0xbc8236ba	-0.015895236
128	0xbb814a14	-0.0039455984
129	0x3bef6c77	0.007306631
130	0xbab3b777	-0.0013711293
131	0x3ce5fd13	0.028074777
132	0x3b6a9b8e	0.0035798284
133	0xbca7ea2a	-0.0204974
134	0xbc068bbb	-0.008212025
135	0xbc674594	-0.01411571
136	0xbc8946a4	-0.016757317
137	0x3b885b41	0.004161269
138	0xbb791de8	-0.003801221
139	0xbc8e9b4a	-0.017408032
140	0x3cffb818	0.031215712
141	0xbb92d9d4	-0.0044815335
142	0x3cf5e110	0.030014545
143	0x3c959fa9	0.018264608
144	0x3c99bc4a	0.018766541
145	0x3c107f5f	0.00881943
146	0x3bf29617	0.007403146
147	0xbb77c982	-0.0037809317
148	0x3c0ba416	0.008523008
149	0xbc4c275e	-0.012460558
150	0x3bce7bd6	0.0063013835
151	0xbc8e3077	-0.017357094
152	0x3b77ac20	0.0037791803
153	0xbbdb5ad7	-0.0066941786
154	0xbb860c8a	-0.0040908502
155	0x3cdc92fd	0.026925558
156	0xbc9f9bd5	-0.019483486
157	0xbb8bb62f	-0.0042636613
158	0xbc34bb44	-0.011030976
159	0xbaf8f202	-0.0018993022
160	0xbc33ad24	-0.010966573
161	0xbb869601	-0.0041072373
162	0x3c2fd782	0.010732533
163	0x3c47a76c	0.012185913
164	0xbc8d4382	-0.017244104
165	0x3b09156b	0.0020917307
166	0xbb08dd68	-0.0020883922
167	0x3cba1616	0.02271561
168	0x3d06f717	0.032950487
169	0x3b9911c5	0.0046713077
170	0x3c3fa6e3	0.011697504
171	0x3cb07f57	0.021545095
172	0x3c6fb9a1	0.01463166
173	0x3a97e1d1	0.0011587684
174	0xbbf24221	-0.007393137
175	0xbc947901	-0.018124105
176	0xbc20f538	-0.00982409
177	0x3c2440d3	0.010025221
178	0xbc361fb3	-0.011115956
179	0x3cf424c9	0.029802697
180	0xbbc1bc3b	-0.0059123314
181	0x3cb7a7c8	0.022418872
182	0x3c1c9d54	0.009558994
183	0x3c455f77	0.012046686
184	0xbc0570e5	-0.008144592
185	0x3d245d60	0.04012811
186	0xbbd71503	-0.006563784
187	0xbca763cf	-0.020433335
188	0x3ba8ba12	0.0051491344
189	0x3ca1bc5a	0.019743133
190	0xbbe701c3	-0.0070497706
191	0xbcc798a4	-0.024364777
192	0xbb9b3f9e	-0.0047378084
193	0x3b55d18f	0.0032626127
194	0x3c1d9d65	0.009620045
195	0xbb109894	-0.00220636
196	0xbb89fc76	-0.004211004
197	0x3ce4c2e5	0.027924964
198	0xba17ca97	-0.0005790381
199	0x3ccc4f9e	0.024940308
200	0x3c2e34f7	0.010632745
201	0xbbbdb733	-0.0057896613
202	0xbcce41c6	-0.025177848
203	0x37ff5907	3.0439825e-05
204	0x3c2495ec	0.01004551
205	0x3c81b02b	0.015831074
206	0x3ced13c2	0.028940085
207	0xbb1110d2	-0.002213527
208	0xbbb74e56	-0.005594055
209	0xb9817603	-0.00024692723
210	0xbc8ff333	-0.017572021
211	0xbc3a41e8	-0.011368252
212	0x3c732441	0.014840187
213	0x3c52852e	0.012849135
214	0x3ba7821b	0.0051119453
215	0x3be2e87c	0.006924687
216	0x3cac18d2	0.021007929
217	0xbc892523	-0.016741341
218	0xba8fb33d	-0.0010963451
219	0x3cea05c0	0.028567195
220	0xbba08cea	-0.0048996108
221	0x3c52a6d3	0.012857157
222	0xbae139aa	-0.0017183323
223	0xb8c38420	-9.322935e-05
224	0x3c3fa686	0.011697417
225	0x3cbf78eb	0.023373088
226	0x3cab0843	0.020877963
227	0x3cc47634	0.023982145
228	0xbbb6a6e8	-0.005574096
229	0x3b0becec	0.0021350933
230	0xbc3ff8f1	-0.011717067
231	0xbc8daab6	-0.017293315
232	0x3c078862	0.008272262
233	0xbcd3aa50	-0.025838047
234	0x3caf1f6e	0.021377292
235	0xbd095fc7	-0.033538606
236	0xbc6a99ee	-0.014318926
237	0xbcd968a9	-0.026539164
238	0xbc16d40a	-0.0092058275
239	0x3c806921	0.01567513
240	0x3c85534a	0.016275067
241	0xbbc6e69d	-0.0060699717
242	0x39a3516f	0.00031150455
243	0xbc61e23d	-0.01378685
244	0xbc537137	-0.0129054105
245	0xbc527734	-0.012845803
246	0x3b674850	0.0035290904
247	0x3ac5c183	0.0015087578
248	0x3b0c138e	0.002137396
249	0x3cf37811	0.029720338
250	0xbb25cad4	-0.0025297897
251	0xbc1f3a15	-0.009718438
252	0xbc4a978a	-0.012365231
253	0xbc30d228	-0.010792293
254	0xbae9b3ad	-0.0017830037
255	0xbb97d5ab	-0.0046336255

action_model._continuous_distribution.mu.bias f4 [9]
0	0x3c908f8e	0.017646577
1	0xbcee7001	-0.029106142
2	0xbbeacf77	-0.007165845
3	0xbc6bc1d0	-0.01438947
4	0x3b927a66	0.0044701574
5	0xbccef1ca	-0.025261778
6	0xbc8e24ef	-0.017351596
7	0xbd1b29b5	-0.03788157
8	0x3b25739f	0.0025245917
