results/soloCrawler/Crawler/Crawler-933160.onnx (onnx, 711108 bytes, 9 tensors)

network_body._body_endoder.seq_layers.0.weight f4 [256, 154]
000000 b8 14 72 3d 65 ea 37 bd 57 35 e6 bc 2d e7 13 be
       0.05910179 -0.04490127 -0.028101606 -0.14443655
000010 ba 9c 96 3c 91 ec d0 bb 64 bb 75 3d bc 69 23 bd
       0.01838528 -0.006375857 0.059993163 -0.039895758
000020 71 e8 11 3d 45 97 86 3c f2 9d 98 bd 9c 1a af bd
       0.035622064 0.016429553 -0.07452001 -0.08549997
000030 13 51 d5 bd 04 06 1d be bd 8f d3 bd d4 e4 e3 bd
       -0.10415854 -0.15334326 -0.1033015 -0.1112763
000040 bf 42 dd bd 0b f6 11 3d 9c 19 64 bd 19 ac 0a 3c
       -0.108037464 0.035635035 -0.055688486 0.008463883
000050 4b d6 40 3e 37 39 01 3c f4 a5 bb 3d cb b6 1b bc
       0.18831746 0.007887176 0.091625124 -0.00950403
000060 02 16 dc bc c2 97 35 bd 65 1e c4 3d fb ac c7 3d
       -0.026865963 -0.04433418 0.0957611 0.0974979
000070 fa 73 83 bd 8f 5e ec 3d 79 4f 5b 3e b1 07 04 3b
       -0.06418605 0.11541473 0.21417035 0.0020146186
000080 36 4f ab bc 83 d1 96 3d e4 92 65 bc d3 7e 8f 3d
       -0.020911794 0.0736418 -0.014012072 0.07006612
000090 f9 d5 7f bd 07 0f 6b 3d 83 2c b1 bd 03 cc 0d 3e
       -0.06245992 0.057387378 -0.08651068 0.13847356
0000a0 d3 20 74 3d 04 68 a0 3d d1 6f e2 3d 03 98 83 3d
       0.059601616 0.078323394 0.110564835 0.06425478
0000b0 0b 85 60 bd 3d 05 8a 3d 31 85 bb 3c 75 39 88 bd
       -0.05481438 0.067392804 0.022890659 -0.06651584
0000c0 15 93 8f 3d 74 80 6c bc 3b 3f 4f bc b3 2e 32 bc
       0.070104755 -0.0144349225 -0.012649353 -0.010875392
0000d0 9d b2 99 bd 75 97 94 bd 45 fd 46 3d 97 dd 81 bd
       -0.07504771 -0.07255451 0.04858138 -0.06341093
0000e0 fc 3d 3a 3d d7 29 78 bd 85 33 8a 3d f9 96 d3 bd
       0.04546927 -0.060586777 0.06748108 -0.1033153
0000f0 93 ed 5e be 39 7c 85 3d 0a 8d 6c 3d e5 60 88 3d
       -0.21770315 0.06517834 0.057751693 0.06659106
000100 fa 9b 1c be ba ff cd bd 37 02 24 3e 70 2f 6e 3b
       -0.15293875 -0.100585416 0.1601647 0.0036344193
000110 fd c4 c3 3d f9 18 f6 3b e6 ef 46 be 63 e7 9c 3d
       0.09559057 0.007510301 -0.19427451 0.07661321
000120 26 cd 2e bd 7d e3 16 bd e8 44 1c bb 90 4d a3 3c
       -0.042676114 -0.036838043 -0.0023844782 0.019934446
000130 53 dd 1f 3d 69 0b aa bc eb 82 8d 3c 1a 4f 0f 3d
       0.03902943 -0.020757394 0.01727434 0.034987547
000140 f8 5b fa bc 82 c3 94 3d e2 de 74 ba 11 3c 87 3e
       -0.030561432 0.07263853 -0.00093410735 0.26413015
000150 31 78 3b 3c e4 30 a5 3d 22 e4 79 3c 64 09 cc bd
       0.01144223 0.08065966 0.015252145 -0.099627286
000160 04 2d e9 3c 71 90 b8 3d f1 c5 34 bd d7 28 2f 3c
       0.028463848 0.09011925 -0.044134084 0.010690889
000170 af 41 28 be 6a f6 8f bc 2f 86 c5 bd 4d db 95 3d
       -0.16431306 -0.017573554 -0.09644734 0.07317219
000180 8f 27 b4 bd b7 94 3b be d7 9e b3 3d fb 8e 31 3e
       -0.08796608 -0.18318449 0.08770531 0.17339699
000190 29 00 1b 3e ff 6f 35 bd 98 50 33 bd b8 95 8d bd
       0.1513678 -0.04429626 -0.043778032 -0.06913322
0001a0 af 23 1b 3e 6a 14 75 3c 81 08 6d 3d 2d 90 e1 3c
       0.15150331 0.01495848 0.057869438 0.027534569
0001b0 15 05 d6 3d f0 b2 41 bd 31 af a1 bc 75 31 70 3c
       0.10450188 -0.04728979 -0.019736858 0.014660229
0001c0 32 be cb bc c5 04 1d 3d 4b d7 02 bd c3 8c 46 be
       -0.024870966 0.038334627 -0.0319436 -0.19389634
0001d0 fd d6 70 be 97 08 4a bd a9 4a 51 3d 41 c4 94 bd
       -0.23519512 -0.0493246 0.051096592 -0.07263995
0001e0 c6 1a 1b bd 51 1d 86 3d 68 8c 85 3d aa 12 5a bb
       -0.03786733 0.065485604 0.06520921 -0.0033275285
0001f0 73 f5 49 3d bc b9 33 3d 20 44 fb bb 29 95 33 bd
       0.049306344 0.043878302 -0.0076680332 -0.043843422
000200 62 37 05 3e 1e b5 ca bc 0b 49 0c 3d 6b a2 a1 3d
       0.13009408 -0.024744567 0.034249347 0.07892307
000210 40 14 e4 3d 1a 40 f5 bc 27 b6 23 be f5 00 b0 bd
       0.11136675 -0.029937793 -0.15987454 -0.085939325
000220 81 c3 d0 bb ad 56 bb bd 70 79 ad bd e0 92 07 3d
       -0.006370962 -0.091473915 -0.08470428 0.033099055
000230 e8 37 70 3d 14 d8 1f 3d 07 e8 3f 3c 36 3f ab 3d
       0.058647066 0.039024428 0.0117130345 0.08361666
000240 53 6b 9f bd 07 2f a9 3c 5c 54 0f bc af ff d8 3c
       -0.07784142 0.020652307 -0.00874814 0.026489107
000250 de 59 01 bd 94 ed 10 3d bd 63 40 3e a3 d9 14 bc
       -0.031579845 0.035382822 0.18788047 -0.009085092
000260 92 61 44 3e 75 70 21 3e b8 34 34 bc 6c fb 98 3d
       0.19177845 0.15765555 -0.010998897 0.0746983
000270 05 48 fb bb 60 6f 77 bc 14 30 85 bd 24 f3 1f 3e
       -0.0076684975 -0.015102237 -0.06503311 0.15620095
000280 f6 eb fc bd a8 be 9e 3d ae 58 12 be 4c a6 a8 3d
       -0.123496935 0.077512085 -0.14291641 0.082348436
000290 ae dc 0b 3e 90 d3 f3 3c 32 91 00 3e cc d3 85 bd
       0.13658401 0.029763967 0.12555388 -0.06534538
0002a0 fe a7 a4 bc b5 49 1c 3e 35 15 0f be 0c 17 c8 bd
       -0.020099636 0.15262492 -0.13972934 -0.09770021
0002b0 d9 b3 88 bd 4c 81 49 bc a7 46 c1 bd 02 04 58 3d
       -0.06674928 -0.012298893 -0.09437304 0.052738197
0002c0 08 91 3b be 25 79 0f 3d 4b 6e e8 bd ba ea 2f bd
       -0.18317044 0.03502764 -0.11349162 -0.042948462
0002d0 eb cd 5d bd 51 6d 10 be d8 1a 7c 3d 68 c2 8c 3d
       -0.054151457 -0.14104201 0.061549038 0.068730175
0002e0 9d ff 39 bd e9 dd b9 3c 35 7c 0e bd f0 21 87 bd
       -0.045409787 0.022688823 -0.03478642 -0.0659827
0002f0 24 d6 16 bd 95 df 47 3c ce a4 1f be cc a4 11 be
       -0.036825314 0.012199302 -0.15590212 -0.14223021
000300 16 81 8b 3b b5 ec fb bd 32 20 03 be a6 c4 6c be
       0.0042573316 -0.12301008 -0.1280525 -0.2312189
000310 38 d6 2e 3b 80 22 1e bd 2a d4 44 be 68 5f b8 3c
       0.0026677977 -0.03860712 -0.19221559 0.02250643
000320 34 b5 d3 bd 61 6a 93 bd 12 fe 6d bd 6c 64 db bd
       -0.10337296 -0.071980245 -0.05810363 -0.10712513
000330 5a ee 58 bc 88 44 8a be c5 d4 c6 3d 28 f8 02 3c
       -0.013240421 -0.2700541 0.09708551 0.007993735
000340 c7 dc 4d 3e 2b 95 1a 3d cf 50 e3 bc aa 07 58 3d
       0.20103751 0.037739914 -0.027748493 0.052741684
000350 9d 9a b6 bc 61 6c a7 3d 95 97 bc bc 68 3e 3a 3c
       -0.022290522 0.081749685 -0.023021499 0.011367418
000360 fb 50 d6 3d 2c f5 37 bd 17 a2 9b bd f6 7f 6a bd
       0.104646645 -0.04491155 -0.075992756 -0.05725094
000370 00 69 df bd 38 c8 03 3d 1d f2 39 3d f3 06 1e 3d
       -0.10908699 0.032173365 0.045396913 0.038580846
000380 7c 5f a3 3c e1 83 92 bc ab 22 05 3e 02 64 fa bd
       0.019942991 -0.01788515 0.13001506 -0.12226106
000390 6f 7b 88 bc 46 bb 88 bc 1a 37 af bd a1 c3 fe 3b
       -0.01666042 -0.016690861 -0.08555432 0.0077747856
0003a0 44 8c 09 be 14 f6 5a 3c 23 b9 44 be cc a6 cd bd
       -0.13432413 0.013364334 -0.19211249 -0.100415796
0003b0 35 2c 07 3e db b4 a1 bd 53 40 b7 3d 1a 56 12 be
       0.13200457 -0.078958236 0.08947816 -0.14290658
0003c0 bd 01 27 be dd e6 9b bc c1 b6 ce bc c9 a8 79 bd
       -0.16309257 -0.019030983 -0.025233628 -0.06095198
0003d0 98 66 a9 3c 81 d9 87 bd fc b2 0c 3e 5c e3 aa bd
       0.020678803 -0.066332825 0.13740152 -0.083441466
0003e0 a3 3b 2b 3d a8 a0 62 bb 7a 75 4c bc 5d 7a 14 be
       0.04180492 -0.0034580622 -0.0124791805 -0.14499803
0003f0 84 b1 95 3d d6 5e 37 3e e8 ba cc 3d f1 22 02 bc
       0.07309249 0.17907271 0.09996587 -0.007942901

network_body._body_endoder.seq_layers.0.bias f4 [256]
000000 22 6a 83 3b 1c e3 fe bc 74 97 3d 3b c1 04 18 3b
       0.0040104548 -0.031114154 0.0028929384 0.0023196193
000010 f3 89 24 3c bf 97 01 bc d7 10 92 3a 72 e0 bc b9
       0.010042655 -0.007909714 0.0011143935 -0.0003602538
000020 19 fb 6b 3b 97 c2 fe bc fa 0f ef 3b 7a 62 1d b9
       0.003600782 -0.031098647 0.0072956057 -0.00015009372
000030 d3 c1 86 3c 04 17 6e 3c 7f 34 cc 3b 83 b6 41 bc
       0.016449844 0.014531855 0.006231844 -0.011823299
000040 7f 4e f0 ba f8 cf 27 3b a9 16 ac 3a 7f ce 8b bc
       -0.001833394 0.0025606137 0.0013129312 -0.017066238
000050 77 1e cf bc cb 30 a0 3b 1d 8f c0 3b 02 09 a0 bb
       -0.025283081 0.004888629 0.0058764354 -0.0048838863
000060 9f 77 03 3d 42 cf 8d 3a b7 34 bd bb da 30 88 3a
       0.0320965 0.0010819214 -0.0057741064 0.0010390535
000070 ef 67 a9 3c 07 3a 76 3c 74 d2 01 3c d4 d6 33 3c
       0.020679442 0.015028483 0.007923711 0.010976512
000080 3f 86 58 3c 4d 4f ca 3b be 80 ff 3a 37 30 bf 3c
       0.0132156005 0.006174004 0.0019493324 0.02333842
000090 59 51 38 3c 60 02 5e 3a fd 6b 53 3b d5 be 18 38
       0.011249864 0.0008468982 0.003226041 3.641735e-05
0000a0 5e f9 81 bb 55 fa b7 3c 7f 72 8e ba d5 3b d6 3c
       -0.0039664945 0.022458235 -0.0010867863 0.026151577
0000b0 61 8f 8b bc 0a b6 30 3c 71 4c 16 3c 9c 58 40 3b
       -0.017036142 0.010785589 0.0091734985 0.002934969
0000c0 07 4f 6e 3c 56 02 cb 3b 82 9b bb b8 d8 df fc 3b
       0.014545209 0.006195347 -8.9458204e-05 0.007717114
0000d0 39 06 08 3b 0d 0f 07 3c 4f c4 ca ba 5f b5 ec bc
       0.0020755662 0.0082433345 -0.0015469881 -0.028895078
0000e0 e0 f8 cc bb 63 f6 08 bb 34 55 91 3b 24 fd 74 ba
       -0.006255254 -0.002089881 0.004435206 -0.0009345582
0000f0 65 1c b3 bc 22 27 1d 3c c5 bd 0b bd 8c 7d 10 3c
       -0.021864126 0.0095918495 -0.034116525 0.008818995
000100 24 5e 8b ba fd 07 76 3b a3 40 21 bc 0e db 0b 3c
       -0.0010632914 0.0037541382 -0.009842071 0.008536113
000110 31 21 ba 3c 50 a6 1f 3c 56 2b ba 3c 16 2b 1e ba
       0.022720905 0.009744242 0.022725742 -0.0006033642
000120 01 10 9e 3c 83 94 47 3c 87 3d 87 3c 31 77 47 bb
       0.01929474 0.012181404 0.01650883 -0.0030436034
000130 49 bf a3 3a 7a 4d 1a 3a b5 78 17 bd 00 b7 8c 3b
       0.001249292 0.00058861787 -0.03698035 0.0042942762
000140 d9 57 f0 bc 99 1b f6 bb be d5 f4 3b 87 0f 0e 3c
       -0.029338764 -0.007510614 0.007471769 0.008670694
000150 94 dc 43 bc 5d 3c e5 bb 78 d2 d9 3c 4a 57 cb 3b
       -0.011954445 -0.0069957213 0.026589617 0.006205474
000160 ed 55 65 ba bb 19 af 3c d4 f2 71 3c b3 a7 e0 3b
       -0.00087484607 0.021374574 0.014767367 0.006855929
000170 1b 20 03 bc d9 30 8e 3c 96 b3 80 3c c0 65 71 3c
       -0.00800326 0.017357277 0.015710633 0.014733732
000180 86 3e 0c 3d d7 f4 c7 ba 4c 7b 83 bb 53 85 1b 3c
       0.034239314 -0.0015255463 -0.004012501 0.009492236
000190 9a a8 5d 3b 11 82 84 3b 54 c5 75 3c 4c 32 ff 3b
       0.0033822418 0.0040438254 0.01500066 0.0077879783
0001a0 8a e4 d3 bb ef 9b 80 3c f9 e5 82 3c 8f 46 21 3b
       -0.006466453 0.015699355 0.0159788 0.0024608707
0001b0 be 53 2b 3b 17 c5 c8 3b e7 d3 64 bb 83 26 80 3b
       0.0026142444 0.0061270106 -0.0034916343 0.003910841
0001c0 7e b6 88 ba 5e 51 51 3c 1e bd d0 3c f8 38 bd 3b
       -0.0010430363 0.012775747 0.025480803 0.0057746135
0001d0 2c 35 bb bb af 49 34 3b fa 43 95 bc 59 d9 c1 3c
       -0.0057131257 0.002750974 -0.01822089 0.02366321
0001e0 00 75 67 bc 47 25 69 ba b6 e7 55 ba 50 40 61 3c
       -0.014127016 -0.00088937994 -0.0008159833 0.013748243
0001f0 0b f8 8e bc 3a e7 19 bc f9 a8 5d bc c8 93 a7 bc
       -0.01745226 -0.009393508 -0.013529056 -0.02045621
000200 48 49 70 3c d9 b1 30 3c f8 f7 fd 3c a7 da 57 bb
       0.014665909 0.01078459 0.03100203 -0.0032936723
000210 c1 a0 06 bb c1 68 49 3c 08 21 06 3c 63 4c 18 3c
       -0.0020542594 0.012293042 0.008186586 0.009295556
000220 cb e3 02 bb 4d 21 c1 3b b3 ea 0b 3c c0 a9 c0 bc
       -0.00199722 0.0058938623 0.008539843 -0.023518443
000230 80 5a a1 3b ab f9 0a 3c 7b 3f 8e 3a 15 37 a7 3c
       0.0049241185 0.008482377 0.0010852659 0.020412007
000240 88 f3 83 3c aa c1 8b bb 46 3a 61 3c df 91 c2 3b
       0.016107336 -0.00426503 0.013746804 0.0059377993
000250 1a 82 2c bc cb 10 28 3c ca 1a 0b 3b de 9a 8e 3b
       -0.0105290655 0.01025791 0.0021225684 0.0043519577
000260 b4 b3 5f 3b 2e 45 82 3c e2 58 74 bb 93 90 87 bb
       0.003413421 0.015902128 -0.0037284424 -0.0041371076
000270 4d 05 a8 3b 6a 36 75 bb 92 d6 81 3c 39 10 a6 3c
       0.005127585 -0.0037416467 0.015849385 0.020271407
000280 07 31 11 3c f2 68 57 3c be f4 88 bc b6 6c 26 3c
       0.008861787 0.0131475795 -0.016718265 0.010157755
000290 93 dc 92 3a d4 7c bc 3c 9e 08 8e 3c b4 d3 a6 3b
       0.0011204652 0.023008741 0.017338093 0.005091155
0002a0 33 28 b0 b9 5f 9a 12 3b 79 de 20 b9 65 08 b4 3c
       -0.00033599287 0.0022369844 -0.00015341667 0.02197666
0002b0 80 27 aa 3b bf c1 92 bb e7 39 d2 bb 30 23 45 3c
       0.005192697 -0.0044786627 -0.006415594 0.012032315
0002c0 db 2d 64 bb 48 14 36 3c 8e af 84 3c 0d 37 a4 3a
       -0.003481737 0.011113234 0.016196992 0.0012528613
0002d0 3b b3 f9 bb c1 8e 1b 3d c5 8d 8c ba 11 23 73 3c
       -0.007620243 0.037977938 -0.0010723403 0.014839903
0002e0 58 4b ec ba 3c e1 63 bb a0 9e 43 3c ee 59 07 3c
       -0.0018027825 -0.0034771701 0.011939675 0.008261187
0002f0 6d f0 40 3c 4e 41 2b 3c 68 9f 58 bc f4 6f 84 3b
       0.011776072 0.010452582 -0.013221599 0.004041666
000300 97 6f 1e 3c d8 99 14 bd fe 2d e8 bc f3 25 ba 3a
       0.00967016 -0.03627953 -0.028342243 0.0014201984
000310 95 2f 9a 3a ae 6a 85 3c 65 f8 36 3c 09 0a 98 3c
       0.0011763448 0.01628622 0.01116762 0.018559473
000320 f6 57 76 ba 9d 45 87 3c c8 63 7a 38 71 87 cc 3b
       -0.00093972625 0.016512686 5.9697573e-05 0.006241732
000330 6a c9 16 3c 65 c9 2d 3c ff d7 1a 3c 6d 42 22 3c
       0.009203294 0.010607098 0.009450912 0.009903532
000340 5a 2e 8a bc ed b1 93 3c ba 44 ee 3c 88 49 0d 3d
       -0.016867805 0.018029178 0.029085506 0.034493953
000350 91 ad b8 3c d4 5b 49 3c 37 71 e7 bb 1f 6a 28 3c
       0.0225437 0.01228996 -0.007063057 0.0102792075
000360 70 28 99 bb 55 0f 8c bc ef ff a1 bb be f1 c3 3a
       -0.00467401 -0.017097155 -0.0049438397 0.0014949364
000370 cf 62 c4 3b c0 d4 98 3b 39 1b 8c 3c a7 77 4e 3c
       0.005993224 0.0046640337 0.017102825 0.0126017695
000380 e5 b0 6e 3b 3f 84 9e 3b 73 75 ac 3c 2b 07 f4 3b
       0.0036421355 0.0048375423 0.021052098 0.0074471436
000390 4e f3 4d bc 2f 7f 4e 3b 61 bc 9f 3c 54 51 b9 bb
       -0.012570215 0.0031508913 0.019499006 -0.005655447
0003a0 99 6a 9d 3b c4 59 cd bb 92 a6 d6 bb be d4 5f 3c
       0.004803967 -0.0062668044 -0.0065506184 0.0136615615
0003b0 76 34 85 3c 92 e5 51 3c 33 53 24 b7 b0 1d f9 3b
       0.016260367 0.0128110815 -9.794533e-06 0.007602416
0003c0 aa db 95 3c 96 f0 1e 3c df b0 9a bb c8 df 43 bb
       0.01829322 0.009700915 -0.0047207917 -0.0029888023
0003d0 2d 92 fd 3b 27 73 dd 3c 70 25 df 3b ef dd 43 3c
       0.007738373 0.027032448 0.006809883 0.011954769
0003e0 36 9b a9 bb 1b d8 89 3b 02 79 da 3b 0f b9 a5 3b
       -0.0051759733 0.00420667 0.0066672573 0.005057461
0003f0 e7 85 9d bc a1 4d 81 3c 13 f2 dd 3b 7e 5e ac bb
       -0.019228889 0.015784087 0.0067732423 -0.005260288

network_body._body_endoder.seq_layers.2.weight f4 [256, 256]
000000 9a 7c 92 3d 98 26 34 38 a2 9d c7 3c ef db 08 bd
       0.07152672 4.2951287e-05 0.024367157 -0.03341287
000010 bb 80 d0 3d 40 c0 a6 3c dd 32 14 bd 19 de aa b9
       0.101808034 0.020355344 -0.03618132 -0.00032590402
000020 c5 d0 05 3d c8 72 ae bd ca 90 1c bd de dc 0e 3d
       0.0326698 -0.085179865 -0.03822402 0.034878604
000030 1c 6e fc 3c 2c c7 9b bc 9a b9 9f bd c7 d5 db bc
       0.030814223 -0.019015871 -0.077990726 -0.026835335
000040 92 5e 07 bd b6 5a 60 bd 01 aa 4a bd b4 42 33 bc
       -0.033049174 -0.05477401 -0.049478535 -0.010941196
000050 5f fc 97 3c 4b fd 6d bd c4 f9 fd bc 89 76 c5 bd
       0.018552957 -0.058102887 -0.031002887 -0.096417494
000060 67 d5 e3 bd ff af b0 bc d3 6f 4a 3c 1b f7 81 bd
       -0.11124688 -0.021568296 0.0123557625 -0.0634596
000070 12 ef 70 bd c1 14 fa 3d be 91 33 bc 0c b1 5b bb
       -0.058821745 0.1221099 -0.010960041 -0.0033522276
000080 90 d7 83 3c 2b 57 b6 bd 49 6a c1 3d 33 25 fb bd
       0.016094 -0.08903345 0.094441004 -0.122629546
000090 2e 9e b3 3b 58 12 ad bd 31 14 6d 3d 7e 24 10 3c
       0.005481503 -0.084507644 0.057880584 0.008797763
0000a0 10 ee cc 3d 91 8a 1a 3b 13 ae 82 bd 1b 7a 0f 3e
       0.10006344 0.0023581127 -0.06380858 0.14011423
0000b0 b4 41 5e bd 79 b7 c0 bd 47 f2 46 bd 9b 68 bd bc
       -0.054261878 -0.09409995 -0.048570897 -0.023121169
0000c0 d4 bc 13 bb 1b 16 36 3d 4e 8c e3 bd 50 4f 66 3d
       -0.002254297 0.044454675 -0.11110745 0.056227982
0000d0 00 f0 d2 bd 66 fd 12 3c a2 94 eb 3c c1 09 5a bd
       -0.102996826 0.008971548 0.028757397 -0.05323196
0000e0 56 a2 73 bc 86 d2 c7 bd 44 67 30 3d 4c 8e 7d 3d
       -0.014870247 -0.09756951 0.04306723 0.061903283
0000f0 0b e2 61 3d aa 31 a2 bc b2 1a 1f 3d 4b db 98 3d
       0.055147212 -0.019799072 0.038843818 0.07463702
000100 43 3f 0a be df ec c7 3b bc 0e c5 bd 26 37 66 bb
       -0.13500695 0.0061012353 -0.09621951 -0.0035128086
000110 c0 7b a4 bc 8f cc 18 bc 49 de 2e bc 15 bb ed 3d
       -0.02007854 -0.009326114 -0.010673114 0.11607949
000120 ad b3 69 3d d1 0e df bd 43 ea 13 3d 32 7d 6d bd
       0.057056118 -0.10891498 0.03611208 -0.057980724
000130 ec 65 ec 3d 59 c0 73 3d 58 f7 98 3c 80 39 cc bd
       0.115428776 0.05950961 0.01867263 -0.09971905
000140 ab 45 25 bd b1 5b e2 3b 89 46 3d bc ca 15 18 3e
       -0.040349644 0.006907903 -0.011552461 0.14852062
000150 d0 a0 a8 3d 22 67 39 bd 54 97 11 3d d8 03 8a bd
       0.082337976 -0.04526437 0.03554471 -0.067390144
000160 01 29 9a bb 5a a6 0f bc 80 fc 30 3c 52 b4 fb 3d
       -0.004704595 -0.008767689 0.010802388 0.12290253
000170 5b 62 dc 3c d4 4e 88 3c e7 be 6c bd 72 c5 13 3d
       0.026902368 0.01663915 -0.057799246 0.03607697
000180 34 01 56 3c ae 1e 49 bd bc ee 4c 3d 81 72 1f 3c
       0.01306181 -0.049101524 0.050032362 0.00973189
000190 11 1b c5 bc 50 dc 71 bd b2 19 9a bc 49 7e 8d 3d
       -0.024060758 -0.059047997 -0.01881108 0.069088526
0001a0 76 3e f6 bd 0c df 2c 3d 9b 87 80 3c 62 4e d1 bd
       -0.12023632 0.0422049 0.015689662 -0.102200285
0001b0 5f d9 9f bd 06 1d 70 bd 09 97 d0 bb ff f9 2e bd
       -0.07805132 -0.05862143 -0.006365661 -0.042718884
0001c0 20 18 bb 3d 61 ac 5b 3e fd 1c 39 bd 56 ab d3 3d
       0.09135461 0.21452476 -0.04519366 0.10335414
0001d0 94 ed 9d bd 66 37 89 bc fa 30 41 bd e8 dc 31 3e
       -0.0771133 -0.016750049 -0.04716585 0.17369425
0001e0 4f e7 01 be cb e0 05 bc a0 01 b7 3c 18 f1 a3 bb
       -0.12685893 -0.008171271 0.022339642 -0.005003106
0001f0 88 3d 86 3d 42 58 08 be 43 98 b1 bd b8 e2 91 3c
       0.06554705 -0.13314918 -0.0867162 0.017808303
000200 ce 66 38 3c ff 24 7c bd 7c 78 a9 3c 1d d6 aa 3d
       0.011254979 -0.06155872 0.020687334 0.0834162
000210 9a 06 8f 3d f0 4e 04 bd ed a5 e2 bd 49 dd 99 bd
       0.06983681 -0.032301843 -0.11066804 -0.0751291
000220 a0 92 83 3d 1c 46 49 bc dc bc ff 3d 57 52 59 3d
       0.06424451 -0.012284782 0.12487194 0.05305704
000230 70 cb c4 bd ad ea 99 bd 17 b2 4b 3d ac e4 60 3d
       -0.09609115 -0.07515464 0.049730387 0.05490558
000240 51 43 15 be c1 eb cc 3d 49 0d 4d bd cb 97 a5 bd
       -0.1457646 0.10005904 -0.050061498 -0.08085593
000250 fe 10 bc bd f4 f9 93 3d 31 72 8d 3c f0 8b ad 3d
       -0.091829285 0.07225409 0.017266365 0.084739566
000260 e4 5a 29 bd d1 f4 37 3c bc e7 8a bd 41 94 89 bd
       -0.041346446 0.011227802 -0.06782481 -0.0671773
000270 c2 24 32 3d 0d 2a 80 bd f6 d8 02 bd 35 6b 91 3c
       0.043492086 -0.062580206 -0.03194519 0.017751316
000280 e2 9e 70 3d b7 e8 2c bd fa 6c 5a 3b a8 a5 80 3d
       0.058745272 -0.04221412 0.0033329115 0.062815964
000290 1b 1b 9d 3d d6 64 0c 3e 96 a4 5c be 72 e5 55 3d
       0.076711856 0.13710341 -0.2154716 0.05222077
0002a0 ea 04 80 3c b7 b4 10 3c 5f 1c 85 bd 4a 80 4c 3c
       0.015627343 0.008832148 -0.06499552 0.012481758
0002b0 2c a1 79 bc 95 c5 48 bd 1b 64 9c 3c 26 4a c7 bc
       -0.01523618 -0.049016554 0.019090703 -0.024327349
0002c0 f8 7b 4a bd 0f 38 09 3b 9b d2 ff 3d fa dc 3d 3c
       -0.049434632 0.0020937955 0.12491342 0.011588329
0002d0 e5 3f 22 3d f5 c5 da bc c8 eb 0d 3a c5 03 cf 3b
       0.039611716 -0.026705721 0.0005413857 0.006317588
0002e0 17 42 3c bd a3 07 8a 3c 34 26 e1 3d 35 c1 c7 bc
       -0.045961466 0.016849345 0.10993615 -0.02438412
0002f0 8f bc 6d 3d 85 26 c1 3c 63 22 74 bd e9 14 6e bd
       0.05804115 0.023577938 -0.059603106 -0.05812541
000300 09 af bf 3d 1b 29 88 bd b2 dd 3b bd a9 a4 90 3d
       0.09359557 -0.06648465 -0.045865722 0.070626564
000310 ad 0f 48 bd 5c 90 3f bc 9d bf 34 3d 00 3a dd 3b
       -0.048843075 -0.011692133 0.04412805 0.006751299
000320 99 f2 a9 3c 23 01 a2 3d fc be 8c bd 8a 78 98 bd
       0.020745562 0.07910373 -0.06872365 -0.07444866
000330 ea ab b8 3c 8b a5 6d 3d 01 74 c6 bc c2 8d 93 3d
       0.022542913 0.058019202 -0.024225237 0.072047725
000340 97 83 3d 3d ee d9 33 bb 0d c8 36 bd e6 c2 b3 3d
       0.046268072 -0.0027443129 -0.044624377 0.08777408
000350 4e 9e 8f 3d 9a 29 ad 3d c3 97 07 bc 88 02 19 3b
       0.07012616 0.084552005 -0.008275929 0.0023347456
000360 ea d0 1c bd 55 f0 64 bc 7f 29 61 bd 20 82 1b 3d
       -0.038285173 -0.013973315 -0.054971214 0.037965894
000370 bd 6a 70 bd f9 d3 8a 3d 10 af 8c bc 7c 32 ea bd
       -0.058695544 0.06778712 -0.01717332 -0.114354104
000380 75 80 86 3a d8 e5 dd bb 84 6d 2e 3d 76 d2 0b 3d
       0.0010261672 -0.0067717843 0.04258491 0.034136258
000390 b9 73 fa 3d 81 c6 08 bd 4a af 6a 3d ca 0e 3c bc
       0.122291036 -0.033392433 0.057296075 -0.011478135
0003a0 f5 24 47 bc 8a f8 24 bd b6 fe 7f bc 7e 73 90 3d
       -0.012154807 -0.040276088 -0.015624693 0.070532784
0003b0 4d 7d a0 3d cd 69 b9 3d da ef bc bd e6 e9 63 3c
       0.07836399 0.09053383 -0.092254356 0.013910746
0003c0 1f 94 6b 3c 34 47 35 bc ab 45 2f be f9 29 7d 3b
       0.014378577 -0.011064339 -0.1711642 0.0038629754
0003d0 cd 18 99 3a d7 0b 35 3d 31 b2 9c bd 00 36 77 bb
       0.0011680365 0.044200744 -0.07651175 -0.0037721395
0003e0 42 73 83 bd 0e 74 33 bd 1b f8 e4 bd 70 2f 84 bd
       -0.06418468 -0.04381185 -0.11180135 -0.064543605
0003f0 cd ab 58 3d 9f 8b 07 be 67 40 86 bc 8f 42 08 bd
       0.052898217 -0.13236855 -0.016388131 -0.0332666

network_body._body_endoder.seq_layers.2.bias f4 [256]
000000 c2 7c 32 3c 88 d7 32 3c f6 c6 8b 3b f1 d8 19 bc
       0.010894002 0.0109156445 0.0042656614 -0.009390102
000010 da 03 dd 3b fb 7c c1 3b f2 fd 2f 3b 22 04 8f bb
       0.006744844 0.0059047914 0.0026854244 -0.0043645063
000020 63 ed ae 3c 6b 7a dd 3b b7 8d 2c bc 54 15 16 3a
       0.02135343 0.006758978 -0.010531834 0.0005725224
000030 3f be c6 3b ce f8 c1 3b f4 14 3c 3b 21 61 42 3c
       0.0060651596 0.0059195524 0.0028699012 0.011863978
000040 cc 0b 4f 3b 07 92 c1 ba 44 17 4c 3b e2 d9 21 3c
       0.0031592725 -0.0014768251 0.0031141797 0.0098786075
000050 bc 3c 9e 3c 2d 29 44 bc bd 1c ef 3b 3d 7f d1 3b
       0.01931607 -0.011972708 0.007297127 0.006393342
000060 85 ab 89 3c 4b 43 6a 3c 5d 61 c3 3b 80 e2 4f bc
       0.01680542 0.01429827 0.0059625343 -0.012688279
000070 1d 67 a4 bb 4c 68 97 3b 4b 5e c0 3c 4b 2f 88 bc
       -0.005017175 0.0046205875 0.023482462 -0.016624114
000080 df 78 01 3c 3f 67 cf 3b b1 cd 02 bb 96 82 6f 3b
       0.007902353 0.0063294466 -0.0019959027 0.003654634
000090 9e af bb 3b d6 00 71 bb 19 1c 3a 3c e0 88 44 bb
       0.0057277223 -0.003677418 0.011359238 -0.002998881
0000a0 89 b8 e7 3b 9c 45 36 bb 4f 78 6a 3c 7b 91 80 3b
       0.007071559 -0.0027812487 0.01431091 0.0039235926
0000b0 82 e1 9b 3c 91 77 50 ba d0 f5 8e 3b 04 e5 75 3b
       0.019028429 -0.0007952387 0.004362799 0.0037520537
0000c0 ee a1 96 3b 43 bf 0a 39 cc ff 21 3c dc 10 82 3b
       0.0045969402 0.00013231956 0.009887647 0.003969295
0000d0 d9 31 1d 3c d8 46 84 3c 22 65 a2 3a d1 3b 83 3b
       0.009594404 0.016147062 0.0012389759 0.0040049334
0000e0 0e be f8 3b 1c 75 24 3c 0a 17 95 b9 f9 24 9c 3b
       0.0075910157 0.010037687 -0.0002843666 0.0047651497
0000f0 73 38 9f 3c c6 1f 72 3c cc d7 13 3c 96 f4 91 39
       0.019436097 0.014778083 0.009023618 0.00027838786
000100 b0 62 fa b8 98 4b 99 3b e3 3d 5e 3c c5 8a 72 3c
       -0.00011939311 0.004678201 0.01356456 0.014803593
000110 a9 aa 6c 3a 4b fb 3e bc 86 f3 08 3c 6e cf 0e 3a
       0.0009028116 -0.011656593 0.008358842 0.00054477795
000120 bc e9 bb 3a 30 b8 81 3b eb 54 21 3b 7d 16 5b bc
       0.0014336626 0.0039587244 0.0024617265 -0.013372061
000130 c3 9f 36 3c 07 29 bb 3a d1 f3 04 bb 6f 93 a8 3b
       0.011146489 0.0014279195 -0.0020286927 0.0051445286
000140 81 e4 70 3c 24 d6 0f 3c 13 f6 0a 3b 64 55 24 3c
       0.014702917 0.008779082 0.00212038 0.010030124
000150 cc e2 ee 3b 03 54 aa bc 33 75 79 3c d3 76 3d bc
       0.00729022 -0.020792013 0.015225696 -0.011563974
000160 db 5b a0 bb d7 26 c6 3c a8 6a ba ba 7c 2b 04 3c
       -0.0048937625 0.024188442 -0.001422246 0.008067008
000170 bd 2f dd 3b 77 ee 93 ba 0f 33 73 bb f2 04 09 3c
       0.0067500756 -0.0011286278 -0.003710929 0.008362995
000180 7c 21 5b bb df d4 4a 3c 02 3b 84 3c 76 fd 5c 3b
       -0.0033436706 0.012379854 0.016141418 0.003372041
000190 38 a1 14 3c 14 a5 94 3b 61 6f 9f bb 3c 73 ed 3b
       0.009071641 0.0045362804 -0.0048655723 0.007246403
0001a0 b6 64 09 3c 90 27 78 3c 35 9c 4a 3c 11 b8 92 bb
       0.008385828 0.015146151 0.012366344 -0.004477509
0001b0 b2 50 7b 3c 68 a5 d2 3b 19 b3 09 3c ae 94 a4 bc
       0.0153390635 0.0064284094 0.008404517 -0.020090427
0001c0 7c cd f8 3a 52 b5 d8 3b d7 ba 00 bc e5 00 82 3c
       0.0018982138 0.006613412 -0.007857046 0.015869567
0001d0 85 ce ae 3b 5f c0 39 bc 41 30 b8 3b c4 37 8a bc
       0.0053346776 -0.011337369 0.0056209867 -0.016872294
0001e0 99 a4 24 3b b7 57 06 3c 83 95 d8 38 a8 54 f4 bb
       0.0025122522 0.008199624 0.00010327531 -0.007456381
0001f0 b8 c5 07 bc 87 c1 fc bb 56 2e f3 3b 95 3e b2 3b
       -0.008286886 -0.0077135 0.007421295 0.0054395893
000200 37 e7 d6 3b 31 0c a1 3b 59 3e 5e bc c9 e5 38 3c
       0.0065583247 0.0049147834 -0.0135646695 0.011285254
000210 34 ee 7a 3b e1 16 72 3b b2 aa 12 3c 39 1b 03 3c
       0.0038288953 0.0036939906 0.00895183 0.008002096
000220 15 a5 07 3c 30 f8 7b 3c f8 c4 6b 3c ef 93 85 bb
       0.008279105 0.015378997 0.014390223 -0.004076473
000230 82 92 1e b9 70 c4 00 bc 8b 61 d5 bb 74 46 74 3b
       -0.00015122633 -0.007859334 -0.006511872 0.0037273439
000240 0e ad 7a 3a d5 2d e7 3b 53 be e1 3b c3 52 06 3c
       0.00095625303 0.007055024 0.0068891435 0.008198443
000250 af 4d 39 3c cd 94 25 3c f5 7f 2c bc 4c 5a 21 3c
       0.011310025 0.010106278 -0.010528554 0.009848189
000260 96 71 11 3c ad 2c 27 bb 55 88 b3 39 72 19 80 ba
       0.008877179 -0.0025508807 0.00034243116 -0.0009773208
000270 4f 1c 85 3b a3 16 5f 3c 2e 4b 60 3a 05 1c bb 3b
       0.0040622125 0.013616237 0.00085561245 0.0057101273
000280 55 86 5b 3c 0c 0a 70 bb 8a df 86 3b 73 2f 34 3c
       0.0133987265 -0.0036627082 0.0041160034 0.010997641
000290 7d 77 c0 3b 3f 86 b9 bb 5e c9 58 bc 12 c9 ac 3b
       0.005873619 -0.0056617553 -0.013231603 0.005272993
0002a0 64 10 12 3c 9a 5e 0d 3c 57 83 63 3c 88 a8 27 bb
       0.008915041 0.008628512 0.013886294 -0.002558263
0002b0 7f 9e f2 3b 8e 33 f9 ba 67 56 19 ba fd 66 44 3c
       0.007404148 -0.0019012557 -0.0005849362 0.011987445
0002c0 d1 fc 04 bc da eb 85 3c 11 d2 8e bc 78 98 07 3b
       -0.008116917 0.016347814 -0.017434152 0.0020690244
0002d0 1d f2 cb bb 60 41 5f 3c ff ce 9d 39 2d 0f 57 bb
       -0.0062239305 0.013626426 0.00030099598 -0.0032815442
0002e0 67 dc 15 bb 43 e2 89 ba a0 09 79 3c e1 38 6e 3b
       -0.0022866966 -0.0010519702 0.015200049 0.003634982
0002f0 3f b8 45 bb e9 07 16 3c ec 2e 91 3b 5a d0 51 3c
       -0.0030169634 0.009157159 0.0044306424 0.012806023
000300 25 c4 53 3c ef d4 0e bb 87 c0 97 3b fe bd a6 bb
       0.0129251825 -0.0021794399 0.0046311053 -0.005088567
000310 8c c7 2f 3b 97 2d fb 3b bb b1 f0 3a 0e 5a dc 3c
       0.002682182 0.007665347 0.0018363515 0.02689841
000320 ce de 8e 3c 7b b0 3c bc 55 b2 85 3b 52 0d 87 3b
       0.017440226 -0.011516686 0.0040800967 0.004121461
000330 c9 23 03 3c 60 f9 85 bc 15 f4 d7 3b af 5d 83 bc
       0.008004137 -0.016354263 0.006590376 -0.016035883
000340 8b 23 30 3c fe d8 11 3b bc aa 0a 3c 5b 14 26 3c
       0.010750662 0.0022254582 0.008463558 0.010136689
000350 4c ec 82 3c 99 e9 83 bc 70 65 f7 b9 4f a1 5d 3b
       0.015981816 -0.016102599 -0.00047187088 0.0033818071
000360 1e a7 86 3c 97 33 4f bb 4b ce 7d bb 4f f8 c0 3b
       0.01643711 -0.0031616443 -0.0038727697 0.0058889757
000370 b8 31 4b 3c 5d 3b 28 3c 0f b0 9f 3c 3a 6c 3f 3c
       0.012401991 0.01026806 0.019493131 0.011683518
000380 89 9a 12 3b b5 fe 57 3c 62 89 11 3b ef 20 dd bb
       0.0022369942 0.0131832855 0.002220713 -0.0067483108
000390 4f e4 1c bb 12 ff 15 3c 24 31 4c 3c 5e 9e 73 3c
       -0.0023939793 0.009155052 0.012462888 0.014869301
0003a0 de 22 71 3b 5e 7f 05 3c 58 87 39 bb cc 85 32 3b
       0.0036794464 0.0081480425 -0.002830943 0.0027240394
0003b0 b5 f2 c5 bb a8 37 0a 3c c4 73 a3 3c 9c ee b5 3b
       -0.006040896 0.008436121 0.019952662 0.005552126
0003c0 26 ad 16 bb b8 dc c7 3a d0 a2 48 3b 94 6c 7a bc
       -0.0022991388 0.0015248274 0.0030614622 -0.015284676
0003d0 f4 15 9e bb 58 13 5f bc b7 9d 3f bb 2b 63 f7 bb
       -0.0048243944 -0.013615452 -0.0029238292 -0.0075496635
0003e0 1d af 91 3c 70 3c da 3a 10 23 20 3c 9e 69 94 bc
       0.017783696 0.0016650092 0.009773985 -0.018116768
0003f0 82 eb f9 3a 0e 16 2d bc 92 ea 6a 3b 56 ec 3f bb
       0.0019067379 -0.01056434 0.0035845381 -0.0029285154

network_body._body_endoder.seq_layers.4.weight f4 [256, 256]
000000 68 0f 88 3d aa 33 72 bd 9d da b7 3c 92 5c 6a bd
       0.066435635 -0.059131302 0.02244311 -0.05721719
000010 40 9c 15 3e 50 e2 7b bd 74 a2 69 bc da 15 b3 3d
       0.14610386 -0.061495125 -0.014259923 0.08744402
000020 b5 b9 85 bd 03 26 95 3c 52 71 c9 3b b6 a7 c9 bc
       -0.065295614 0.018206602 0.006147542 -0.024616104
000030 ab 3b e3 3c 8e 49 00 3b 74 08 aa bd 65 4a c0 3d
       0.027738413 0.0019575092 -0.083023936 0.0938919
000040 74 7f b2 bd 03 56 88 bd c5 59 58 3d ca ee 0e bc
       -0.08715716 -0.066570304 0.052819986 -0.008723924
000050 82 e3 28 bd dc 12 2e 3d 2f a0 97 3d b2 06 ae 3d
       -0.041232593 0.042498454 0.074035995 0.08497371
000060 ce 2e 7a 3d 10 49 4c 3b 6c 2e 9d 3d cf fa 65 bd
       0.061079793 0.0031171478 0.0767487 -0.056147393
000070 28 86 d7 3b d2 ef 44 bd 12 61 7b bd d7 3b 22 3e
       0.006577272 -0.048080273 -0.06137187 0.1584314
000080 6a 09 52 3d 0d dc 74 3d 54 97 1d bd ed c5 0e bd
       0.05127851 0.05978017 -0.038474396 -0.034856725
000090 aa d7 bc bd e2 2f 1d be be ee 82 3c b0 b3 81 bc
       -0.09220822 -0.15350297 0.015982982 -0.015832752
0000a0 f1 6b 99 bd eb ba 97 bd 89 9a 2f 3c e6 74 01 bd
       -0.07491291 -0.07408699 0.010717996 -0.031605624
0000b0 a6 f6 12 bd fb da a0 3c e9 82 87 bc ee f7 e0 bd
       -0.035879754 0.019635668 -0.016541915 -0.10984789
0000c0 e3 42 73 3c 71 3a 04 3d ae bf 77 3d 63 1d c7 3d
       0.01484749 0.032282297 0.060485534 0.09722402
0000d0 a9 41 09 bd 78 16 27 bd 9c 2b 27 3c 71 4d b6 3d
       -0.033509884 -0.040792912 0.010203268 0.089014895
0000e0 d9 3e a3 3d 13 73 53 3d 49 16 49 bd 3b 86 8d bd
       0.079709716 0.051623415 -0.04909352 -0.06910368
0000f0 09 a2 9c bd 79 f6 1c 3d 36 4c 68 3d 22 7c 10 bd
       -0.07648093 0.038320992 0.056713305 -0.035274632
000100 1a 8d f4 3b 83 e6 57 bd ae 0a d4 3c 6d 4e 9b 3d
       0.0074631097 -0.052710067 0.025883999 0.07583318
000110 dd 6d 0b 3e 97 4e 1c bd 68 5e 8e bd 7c 3a e1 bd
       0.13616128 -0.038160887 -0.069516 -0.10997483
000120 a9 12 04 bb bf bc 51 3d 95 55 35 3d c7 89 a8 bd
       -0.0020152724 0.051205393 0.04427107 -0.08229404
000130 f5 6c a6 bd 3d bf 7b 3d 6b 6e c2 bd 07 7a 0f 3d
       -0.08126251 0.061461676 -0.09493717 0.035028484
000140 58 02 7e bd 2b 57 10 be 7e 15 de 3b 9a 86 6c 3d
       -0.062013954 -0.14095752 0.0067774644 0.057745554
000150 1b 80 00 3d 63 60 18 3b 5f ff 7f 3d f7 b3 b8 3d
       0.03137217 0.002325081 0.0624994 0.090187006
000160 72 79 15 bd 14 6a c4 bc 47 69 88 bd ae 88 e0 bc
       -0.036492772 -0.023976363 -0.06660705 -0.027408924
000170 5c a0 0c 3d 7d 4e ab bd a7 32 65 bd 47 f1 a4 3d
       0.034332618 -0.0836458 -0.05595651 0.080538325
000180 37 f9 e9 3d 43 cc 8d 3d 9f 31 06 bd 36 67 88 bd
       0.11424487 0.069237255 -0.032762166 -0.06660311
000190 d2 b7 56 bd c0 69 aa 3c b3 0f 47 bc 97 84 8d 3c
       -0.0524214 0.020802379 -0.012149739 0.017275138
0001a0 76 9c 0f 3d df 1c a6 3c a7 e9 6d 3d 67 e5 30 bd
       0.035061322 0.020277439 0.058084156 -0.043187525
0001b0 d0 95 8a 3d 44 ea eb bd 1e 4d 9e bd 57 3d 49 3c
       0.06766856 -0.11519292 -0.07729553 0.012282691
0001c0 09 f4 ab 3c c9 cd 5f 3d 5a 11 a4 3a a4 c2 61 3d
       0.020990388 0.05463961 0.0012517378 0.055117264
0001d0 26 75 15 be af ef 01 be 01 90 93 bb bf fe f9 bd
       -0.1459547 -0.12689088 -0.0045032506 -0.12206792
0001e0 20 cb d8 3c 44 a1 b4 bc 5b 46 be bc 2e 79 84 bd
       0.026464045 -0.022049554 -0.023226907 -0.06468426
0001f0 c1 05 3d 3d 5b c7 25 be 5c 22 24 bc 66 9d 2d 3d
       0.046148065 -0.1618933 -0.010017958 0.042386435
000200 ae 23 2e bd b3 c1 07 3d c5 4c 20 bb 99 d9 57 3c
       -0.042514496 0.03314371 -0.002445982 0.013174438
000210 48 86 68 3d 01 0e 8a 3c a8 f0 82 3d af ca b5 3d
       0.056768686 0.01685238 0.06393558 0.088765495
000220 85 48 f8 bc bf 01 91 3d 39 63 c2 3d 69 be 23 3d
       -0.030308018 0.07080411 0.094915815 0.03997651
000230 d0 e0 bf bd 4d a5 de bd 0e 77 19 bd 6b 3d 2c bc
       -0.093690515 -0.10871372 -0.037467055 -0.01051269
000240 43 84 ee bd 1d 64 70 3c f0 f5 d2 3c dc 8d 62 3c
       -0.11646321 0.014672306 0.025752038 0.013827767
000250 8c e0 01 3e fd aa ff bd 9f 36 87 bd 80 2b a6 3b
       0.12683314 -0.12483785 -0.06602215 0.0050711036
000260 5b c7 92 bd 5c 74 bd 3d dc 76 95 3a 5e 9a 88 bd
       -0.0716693 0.092507094 0.0011403221 -0.06670068
000270 34 8f 63 3d 8f 87 07 be fd 9d 59 3b ee d9 1f be
       0.05555649 -0.13235305 0.003320574 -0.15610477
000280 7a f7 d9 3d 06 81 08 3d 6a 6f bf bd 91 a3 c5 3c
       0.106429055 0.03332617 -0.093474224 0.024125846
000290 c7 fb 90 bd 0d 44 aa 3d 1e dd a3 bc b8 4e f9 3c
       -0.07079273 0.08313761 -0.020002898 0.030433044
0002a0 7a a7 b9 3b 9b 96 2f 3c b6 0e be 3c 97 3b 7f bd
       0.0056657167 0.0107170595 0.023200374 -0.06231269
0002b0 1f 85 07 bd e6 3a aa 3c 63 cd 2b 3c 53 f2 06 3d
       -0.03308594 0.020780038 0.01048598 0.032945942
0002c0 7a 60 8e bc e3 b9 7b 3d 91 d1 cc 3d a2 16 ed bc
       -0.017379988 0.061456572 0.10000909 -0.028941456
0002d0 5f a4 96 bd cb 7a 1a bd d4 51 37 3d d0 2d ab bc
       -0.0735557 -0.03771476 0.04475577 -0.020895869
0002e0 68 4b ba 3c ab 60 1b bd f3 72 fa 3d 10 01 86 bd
       0.022741035 -0.037933987 0.12228956 -0.065431714
0002f0 3d b8 44 bd 1f 60 0e bd d9 ea 4f 3c 45 a1 fd bd
       -0.048027266 -0.034759637 0.012690269 -0.12384275
000300 fa 45 78 bd 8b c3 c2 bc 1b c7 c9 3c 75 43 c4 bd
       -0.06061361 -0.023774883 0.024631074 -0.09583179
000310 38 e3 9d bc 67 5a b4 38 cd 4c dd 3c 4c fa 46 3d
       -0.019273385 8.5999076e-05 0.02701416 0.048578545
000320 0d b1 82 3c 8d 80 62 3d 38 6c b9 3d 76 42 9e 3d
       0.015953565 0.055298377 0.09053844 0.0772752
000330 d5 46 96 bd b3 b8 bf bc 4d bb 44 bd b8 ac ba bd
       -0.07337729 -0.023403501 -0.048030186 -0.09114975
000340 df 16 82 bc ec a7 73 3c 56 a1 ae 3c 14 bd 25 3d
       -0.015880046 0.014871579 0.021317165 0.040463522
000350 bb be 58 bd 91 2f 58 bd 32 09 6c 3d a1 08 c9 3d
       -0.05291627 -0.052779738 0.057625957 0.09816099
000360 c5 02 c1 3d 50 ff 55 3d 33 40 98 bc 9f 32 cb bd
       0.09424356 0.052245438 -0.0185853 -0.099217646
000370 f1 c8 62 bd b1 ef db 3a 11 43 96 bc 0c df 98 3b
       -0.055367414 0.0016779808 -0.018342527 0.004665261
000380 45 ba 6f bd c6 af a9 3d 29 c7 82 bc b3 69 b1 bd
       -0.05852725 0.08285479 -0.015964108 -0.08662739
000390 26 f0 4c 3d ea dd 42 3c 67 a2 4a bd 7b e0 3a 3d
       0.05003371 0.011893729 -0.049471285 0.045624238
0003a0 11 49 86 bc 97 d4 81 3d 78 40 c5 bc 94 fc 8b bd
       -0.016392263 0.063393764 -0.024078593 -0.06835285
0003b0 62 17 b7 3d 5f 30 21 bb ec 0e 94 3d 9a 8a cc bd
       0.08940007 -0.0024595482 0.072294086 -0.09987374
0003c0 ad 82 8a bd 9e f3 11 bb e7 c5 93 3a 90 c6 b0 bb
       -0.06763206 -0.0022270451 0.001127419 -0.0053947642
0003d0 c6 5e b4 bd c8 b9 2d 3d 66 ea f6 bd d2 4d 6f 3d
       -0.08807139 0.042413503 -0.12056427 0.058423825
0003e0 2c d0 18 bd ec 63 d4 bd 64 9d 97 3b c4 67 00 be
       -0.037307903 -0.10370621 0.0046269167 -0.12539583
0003f0 01 ce d1 bc 16 ea 03 bd 74 ce 9e bd e1 e7 26 bd
       -0.025610926 -0.032205664 -0.077542216 -0.04074848

network_body._body_endoder.seq_layers.4.bias f4 [256]
000000 68 aa 92 bb 9d 10 a5 3a 54 13 2d 3c 8b b7 22 3b
       -0.0044758804 0.0012593452 0.01056369 0.0024828638
000010 34 c0 26 3b b4 b1 59 3c 43 9e 83 3c f3 ae a8 3b
       0.0025444152 0.013286997 0.016066676 0.0051478087
000020 b6 87 7d 3c 6d 19 3a 3b b7 32 19 3c 14 fe 08 bc
       0.015474251 0.0028396503 0.00935047 -0.008361358
000030 5b fa 89 3c 26 45 c5 bb 64 4d 35 3c 78 f9 91 3c
       0.016843012 -0.006020206 0.011065815 0.017819151
000040 b4 f8 c6 bb 28 77 42 3c 6f 6d 73 bc 60 f4 9f 3b
       -0.006072128 0.011869229 -0.014857634 0.0048814267
000050 a8 ff 1a bc 97 8e 78 bc 72 f6 65 3b 55 df bf bb
       -0.009460367 -0.015170715 0.003508952 -0.0058554807
000060 30 0c 51 3c 32 7c c5 3b a7 6d 9b bb aa 4c 90 3c
       0.012759253 0.006026768 -0.004743296 0.017614681
000070 87 db f0 39 f6 f0 80 bb f8 49 12 bc aa aa ba bb
       0.00045939928 -0.003934975 -0.008928768 -0.0056966143
000080 d5 72 9e bc f2 1c af 3b 25 a6 45 3c 92 64 31 3b
       -0.019341866 0.0053440267 0.012063538 0.0027068001
000090 28 43 20 3c 8a c1 43 3c 32 b1 25 3c d5 8e 82 bc
       0.009781636 0.011947999 0.010113047 -0.015937248
0000a0 bc 78 35 3c 7e d7 20 3c e3 49 05 bc 32 50 5e 3c
       0.011076149 0.009817002 -0.008135292 0.013568925
0000b0 55 7b 9b 3c 32 af 6d 3b c0 57 35 3c e6 7d 65 bb
       0.018979708 0.0036267755 0.0110682845 -0.0035017668
0000c0 d2 d5 eb 3a 41 fd f3 3b 22 db 9b 3c 43 f2 eb 3a
       0.00179928 0.0074459617 0.01902539 0.0018001277
0000d0 af 16 21 3c 6c 60 b0 3b 5f 69 01 bb 32 9b 12 3c
       0.009832068 0.005382588 -0.0019746644 0.008948134
0000e0 8c 2c b2 3b 24 24 6d bb c6 84 2b 3b 84 85 6b 3c
       0.0054374393 -0.0036184872 0.0026171668 0.014375094
0000f0 14 ee 5a 3c 80 7b 10 bb 6e d1 b6 bb bc 11 95 3b
       0.013362426 -0.0022046268 -0.005579165 0.0045492332
000100 2a 71 82 3c d1 7b bb 3b 53 8e 69 bc 06 b0 65 bc
       0.015923101 0.005721547 -0.014255124 -0.014019018
000110 d4 f6 84 bc 5a 67 00 3d bd a0 25 bc 04 03 99 3c
       -0.016230978 0.031348564 -0.010109124 0.018678196
000120 bb 52 c6 3b 64 2d a4 3c 41 bb dd bb cd 6a 59 3c
       0.0060523427 0.020041175 -0.006766707 0.013270092
000130 ac cc c0 ba 59 e8 b9 3b 1c 35 8c 3b 69 f2 4a 3a
       -0.0014709434 0.00567345 0.004278792 0.00077418104
000140 c1 2a 08 bc ba a0 8a 3b 08 55 ff bb e5 78 e6 3a
       -0.008310975 0.004230586 -0.007792119 0.0017583637
000150 f8 8a 04 ba cc ee b5 3b 56 64 85 bb 00 8e 8d 3c
       -0.00050561083 0.0055521484 -0.004070799 0.017279625
000160 e8 4e bd bc c7 2b 32 3b 46 be 68 bb ba ed 88 bb
       -0.023108914 0.0027186738 -0.0035513802 -0.00417873
000170 e7 f5 13 bc 4a f2 d2 3b 63 ec 52 3b d5 5d b3 bb
       -0.009030796 0.0064375745 0.0032184354 -0.005473832
000180 41 ec 5a ba be 1a 3c 3c aa 90 0f 39 33 ce ca bb
       -0.00083512446 0.011480985 0.00013691434 -0.0061891316
000190 4d 6c f2 ba 6e 3b 0b 3b 30 bb 4e 3c a9 0f 6a 3b
       -0.0018495411 0.002124514 0.012617871 0.00357149
0001a0 5f 69 b9 3b b7 5d f7 3c c0 8e 30 3c 37 4b e7 3b
       0.005658313 0.030196054 0.010776222 0.007058527
0001b0 37 40 fa 3b 1f 8d 7c 3b da d1 26 bc b1 3f 2b 3c
       0.0076370495 0.0038536263 -0.010181868 0.010452197
0001c0 68 9a 95 bb 95 79 9a bb 56 34 01 bb e5 dd 28 3c
       -0.004565526 -0.0047142007 -0.0019715033 0.01030681
0001d0 d8 8f 10 3c e8 13 06 bb 97 5d 39 3c 5e 16 86 3c
       0.0088233575 -0.0020458642 0.011313817 0.016368087
0001e0 7d 46 92 bc 7c 5d 30 3c c5 90 55 3b 7b a3 be bc
       -0.017855877 0.010764476 0.003258751 -0.023271313
0001f0 76 de 0a bc 56 73 52 ba 8f 01 07 bc 7a c7 0d bc
       -0.00847589 -0.00080280507 -0.008240118 -0.008653516
000200 a3 e0 20 3b b2 bd a6 3c 94 9f bd bb 6f d7 1c 3c
       0.0024547956 0.020354126 -0.0057868455 0.009572848
000210 39 07 1f 3c 9d a4 9e 3c ec 5d ed 3b df 82 06 bb
       0.009706312 0.019365603 0.0072438624 -0.0020524783
000220 c7 9c 14 bb c4 72 c3 3b 3c e9 a0 3b b1 ac ae bb
       -0.0022676454 0.005964609 0.004910616 -0.005330645
000230 52 3c 75 bc 7c a5 ee 3b 4a 4c b8 bb 22 65 5e bb
       -0.014967995 0.007282911 -0.0056243287 -0.0033934792
000240 8b e5 94 3c 66 05 59 bc 8f 2c 7f bb 1c b4 be bc
       0.01817586 -0.013245916 -0.003893647 -0.023279242
000250 a6 3f 9b bb e5 28 ba bb 7e 27 63 3b 0a f0 02 3b
       -0.004737812 -0.0056811445 0.003466099 0.00199795
000260 81 42 12 3b 5d f9 f9 3a f2 2a ff bb 6e 97 68 3b
       0.0022317471 0.0019071508 -0.007787102 0.003549065
000270 74 1b 9e 3c 6c be 83 3b cc d3 0d 3d 50 25 e6 3c
       0.0193002 0.004020503 0.034625813 0.028093964
000280 18 85 2a 3c 18 89 98 bb 80 84 93 b9 87 b2 5e bb
       0.010407709 -0.0046550147 -0.00028136745 -0.0033980922
000290 88 2b cd bb ce a4 f8 3b 07 1c 30 3c 76 aa 8e ba
       -0.006261293 0.0075880056 0.01074887 -0.0010884542
0002a0 65 eb 16 bb 70 9d aa ba 01 08 b5 bc ee 97 90 3b
       -0.002302849 -0.0013016891 -0.022098543 0.0044126427
0002b0 f1 96 25 3c b2 70 b4 3b 3f 1b 88 bc 9a b3 dc 3b
       0.010106788 0.0055065984 -0.016614554 0.0067352774
0002c0 28 04 dd 3c 2d 62 b2 bb c0 8b 59 bb bd fb 1d bc
       0.02697952 -0.0054438324 -0.003319487 -0.009642539
0002d0 57 b3 a4 bb 22 fa f2 bb 5f a2 8a 3b 27 b0 ba bb
       -0.005026262 -0.007415072 0.004230782 -0.0056972685
0002e0 96 40 30 bb 38 f4 85 bb ad 7b be bb 1e 28 d4 b8
       -0.0026893965 -0.004087951 -0.005813083 -0.0001011642
0002f0 4d 2c 0d bc 9b 2f e2 3b 8e ca 0d bc 68 75 02 bc
       -0.008616519 0.0069026477 -0.00865425 -0.007962562
000300 5d f0 09 bc 54 75 86 3b 71 eb 5b 3c ca c0 2f 3c
       -0.0084191235 0.004103342 0.013422833 0.010727117
000310 85 5b 43 3c 01 7b aa 3b 53 18 44 3b 8d 47 02 3c
       0.011923675 0.0052026515 0.0029921725 0.007951629
000320 97 16 87 3b 7f 2e 62 3c 2b f7 5b 3c a7 48 14 3b
       0.004122566 0.013805031 0.013425629 0.0022626312
000330 44 46 1a bc cc 14 80 bc 0b 4a 59 bc 48 6b 9a 3b
       -0.009416167 -0.015634917 -0.013262282 0.004712496
000340 ed 9e 84 3c f2 d8 b8 3a 6d 69 17 3c 9f ad 8a 3b
       0.016189063 0.0014102741 0.009241444 0.004232123
000350 6e 06 9c 3b 12 94 99 ba 9f 4d 41 bb d4 e2 95 3c
       0.0047615087 -0.0011717102 -0.0029495729 0.018296637
000360 d7 55 7a 3c 5a 9b ba 39 e8 a7 d6 3b 62 fa bd ba
       0.015279255 0.0003559243 0.0065507777 -0.0014494176
000370 74 24 bb bb 3e f2 bf bc af cd 86 3b 69 82 89 3c
       -0.0057111327 -0.02343094 0.004113875 0.016785817
000380 f1 46 78 3c 50 10 70 bb 07 e2 97 3c 2a bf b2 3b
       0.0151536325 -0.0036630817 0.018540395 0.0054549174
000390 3a ef 92 bb 58 69 18 bc e1 21 3a 3c a8 8f 58 3c
       -0.0044840844 -0.00930246 0.011360616 0.013217844
0003a0 b9 47 c3 3b 67 e9 c3 3c cf 52 46 3c 9a 0f 8f 3c
       0.0059594777 0.023915006 0.012104704 0.017463494
0003b0 29 35 38 3b 6a b7 f8 3b 86 07 06 bc f4 32 e6 39
       0.0028107858 0.007590224 -0.008180505 0.00043906982
0003c0 85 4d 6b 3c 1b 4e 51 39 fe 55 88 bc 54 e0 bb bb
       0.014361744 0.0001996089 -0.016642567 -0.005733529
0003d0 47 f2 51 3c fe 60 9e bc 3e 12 b9 3c a7 ff 58 3c
       0.012814111 -0.019333359 0.022591706 0.013244546
0003e0 7c 24 36 3c ab 68 9a bb 5f a3 12 bc 41 d3 86 3b
       0.011117097 -0.0047121844 -0.0089500835 0.004114539
0003f0 21 8b 22 bb e4 43 16 3b 64 2a 81 3b 13 c5 12 bb
       -0.0024802166 0.002292865 0.003941821 -0.0022395297

action_model._continuous_distribution.log_sigma f4 [1, 20]
000000 11 13 3d bd e3 c7 97 bd b9 5a eb bd e5 56 48 bd
       -0.04616076 -0.07411172 -0.11491913 -0.048910994
000010 db d4 62 bd 05 eb 4a bd 07 f9 6d bd 54 98 6e bc
       -0.055378776 -0.04954054 -0.05809882 -0.014562685
000020 10 7b e0 bd 76 c9 a8 be 5a 21 b5 bd eb 19 fb bb
       -0.10960972 -0.32966202 -0.08844252 -0.007663002
000030 5e 5c 01 bd 6b d5 3c bd f6 78 ec bc d1 e5 4e bd
       -0.03158223 -0.04610197 -0.028866272 -0.05051214
000040 0a a9 6f bd 38 74 7e 3c 78 de 1e bd 83 2e 9a bd
       -0.058510818 0.015530638 -0.03878638 -0.07528403
