results/soloCrawler/Crawler/Crawler-330750.onnx (onnx, 711108 bytes, 9 tensors)

network_body._body_endoder.seq_layers.0.weight f4 [256, 154]
00000000: 305d 853d a9a9 90bd c9b9 f5bb d10f 37be
00000010: b9cd 3a3c 4dcc 9d3c 7ee5 743d 0933 27bd
00000020: a83e 203d 9901 893c 01e1 e7bd 73f1 bfbd
00000030: 5926 bcbd 7c10 1dbe 84f4 cabd 72f2 94bd
00000040: 9ecf b7bd 0887 ff3c d80c e6bd babc 293c
00000050: 115c 333e c0d7 993c 5e53 3d3d f29e 1ebc
00000060: afbe 19bd e6d6 5fbd f8e7 b53d 1346 be3d
00000070: 5ad4 64bd 6497 7b3d e3be 543e d614 fa3b
00000080: 15f2 dfbc 2805 8d3d b74f a63a d635 9c3d
00000090: 994f 15bd 82ae 493d f882 cfbd 1b33 0f3e
000000a0: 82ca 333d 9bc9 a33d 5cd4 e63d 2472 ca3d
000000b0: 14f4 7fbd 5f1a 703d 8664 573d 8130 a1bd
000000c0: dde5 8c3d df2b e6bc 0221 453d 5b8e 1ebc
000000d0: 5fb9 69bd 3c6b 94bd cd09 6e3d 320c 92bd
000000e0: a47f 183d 8c5a 5dbd 7ef3 613d c5b7 d2bd
000000f0: 41b0 46be 8f5c 7f3d 6048 5a3d 0649 493d
00000100: cec1 1ebe b5d8 a3bd be0d fb3d b61a 7f3c
00000110: 25e3 ce3d a755 81bc 4c49 3dbe e5f9 bd3d
00000120: b54f 5fbd 86d4 02bd 99b3 623b b384 15bc
00000130: 8393 153d 12c4 19bb b371 893c b7c2 9a3c
00000140: 5bd9 ebbc 4d02 543d 2aab c7bb d8b6 863e
00000150: efa9 393c dc37 9e3d d660 293d 464a d5bd
00000160: 33eb b73c 06de c53d 2bb4 a0bd 1df4 723b
00000170: bf00 0ebe 1ea2 91bc 35f6 c7bd d68f 9e3d
00000180: f887 8dbd 1bc0 37be f536 c93d 0acc 073e
00000190: 0e43 d23d 83f5 0ebd 3f75 2cbd 2416 89bd
000001a0: 8891 1b3e 5e0e 883c 79ea 8c3d 3d32 02bd
000001b0: 59ef 7a3d 502e 16bd c87e cebc 4ca3 7c3c
000001c0: a61b cbbc c869 2a3d d15f d8bc 9068 13be
000001d0: b2d5 42be 07ae 40bd 7651 663d 00ce 92bd
000001e0: fbad 55bd ed0c 883d d7b7 323d 2d1d 763d
000001f0: 4303 fdbc 0b0a 093d 3bc5 dc3b 4f4e 27bd
00000200: 4349 063e 0246 48bb dbac 703c fc98 ab3d
00000210: 9d2c e33d 2dd8 73bc 6123 1fbe 66e3 b0bd
00000220: af5a 04bc 287d c8bd 5561 9dbd 320a 123d
00000230: b661 323d a679 373d 7662 06bc 3514 bc3d
00000240: 4534 91bd 1111 be3c 432a bbbc 3bf8 f73c
00000250: 07bd 19bd d10d 093d 6522 043e 7349 35bc
00000260: 22c1 4a3e a7ba 203e 737d 1a3b 542c 853d
00000270: 0b15 053c bba9 02bb 8492 72bd ba27 bb3d
00000280: 7f8d ecbd 35c0 b43d d52e 1ebe e492 893d
00000290: 4da0 f23d fc63 083d ec9a ee3d 8e65 5cbd
000002a0: cf81 12bc 6b33 163e ec32 1fbe e498 d9bd
000002b0: 47a4 86bd cd4a 6fbc d381 a8bd e87a 203d
000002c0: bdce 28be acac 003d a8a8 e7bd fe10 babc
000002d0: cc99 71bd d797 08be 1aed 373d f4b6 a33d
000002e0: 683f 47bd 2c2b 853c 7c6d 5ebc 9f05 5bbd
000002f0: 8a4a 0ebd d0df b63b ddb0 02be 60a8 fabd
00000300: c2a8 833c 979e e5bd 4e37 f5bd caba 69be
00000310: 3992 7abb b346 bdbc a82d 32be 87b7 d93c
00000320: 37d7 b9bd d1a0 7bbd af27 58bd 82bb b7bd
00000330: bb5f 41bd 3f20 85be 46f5 8b3d 044f 9f3b
00000340: 4854 3b3e c8ca 3e3d f20a 2bbc 2ec6 1e3d
00000350: e3c6 50bc b47f 853d 9ba8 fabc 3775 d13b
00000360: eca4 d63d 419d ddbc bfd2 91bd 20bb 76bd
00000370: 5996 93bd 9aae b13c 384d 553d f803 433d
00000380: 5b9f 283c 66ca 113c e6c4 f33d e30c a8bd
00000390: c8d7 9cbb 2876 4abd e574 11bd abdb d63c
000003a0: 75fc 03be 4f46 e63c f106 3ebe e46c afbd
000003b0: 2a4e 173e a765 9cbd aabc c63d 8ef4 2bbe
000003c0: cc9a 2ebe 452f 953c 96b8 9ebd 9cc2 6ebd
000003d0: 9864 0a3d 55e5 77bd 6da7 943d e784 9abd
000003e0: 62c2 1b3d 440e f8bb 793c 2dbc 4406 0ebe
000003f0: 8c18 983d 92de 253e a51b a53d bafe 193b
0.06511915 -0.0706361 -0.007498954 -0.17877127 0.011401587 0.019262457 0.059789173 -0.040820155
0.039122254 0.016724395 -0.11322213 -0.09372225 -0.09187002 -0.1533832 -0.09909919 -0.07272805
-0.08975147 0.031192318 -0.112329185 0.010359937 0.1751559 0.018779635 0.046222083 -0.00968145
-0.037535366 -0.054648302 0.08882135 0.09290709 -0.055866577 0.061423674 0.20775943 0.0076318784
-0.027337113 0.06885749 0.0012688552 0.07627456 -0.036452863 0.04923869 -0.10132402 0.13984339
0.0438943 0.079974376 0.11270973 0.09885052 -0.06248863 0.0586189 0.0525861 -0.078705795
0.068797804 -0.028097091 0.04812718 -0.009677495 -0.05706155 -0.07247016 0.058114816 -0.07131232
0.037231103 -0.05404143 0.055163853 -0.102889575 -0.19403173 0.06234413 0.05329168 0.049141906
-0.15503618 -0.08000318 0.122584805 0.015570333 0.10101918 -0.015787913 -0.18484992 0.09276179
-0.054519374 -0.03194096 0.0034591912 -0.009125876 0.03651763 -0.0023462814 0.016777849 0.018891675
-0.028790167 0.051760007 -0.0060934024 0.26311374 0.011332019 0.07725498 0.041352116 -0.10414557
0.022451019 0.09661488 -0.07846864 0.0037071772 -0.13867472 -0.017777499 -0.09763757 0.07742278
-0.069106996 -0.17944376 0.09824935 0.13261428 0.10266696 -0.034902107 -0.042104002 -0.06693676
0.15192235 0.016608413 0.068806596 -0.031786192 0.061263416 -0.03666526 -0.025206938 0.015419792
-0.024793457 0.041604787 -0.026412876 -0.14395356 -0.19026831 -0.047040965 0.05623003 -0.07168198
-0.052167874 0.066430904 0.043632355 0.060086418 -0.030885344 0.033456843 0.006737379 -0.040846165
0.13113885 -0.0030559306 0.014689649 0.08378789 0.11092494 -0.014883083 -0.1554084 -0.08637123
-0.008078261 -0.09789497 -0.0768458 0.035654254 0.043550216 0.044793747 -0.008202186 0.09183542
-0.07090048 0.023201497 -0.0228473 0.030269733 -0.037533786 0.033460442 0.12903745 -0.011064875
0.19800237 0.15696202 0.0023573309 0.065025955 0.008122693 -0.0019937593 -0.05922176 0.091384366
-0.11550426 0.08825723 -0.15447553 0.0671747 0.11846981 0.033298478 0.11650643 -0.053807788
-0.008942082 0.14668052 -0.15546769 -0.10624865 -0.06574302 -0.014605236 -0.08227887 0.039179713
-0.16485114 0.031414673 -0.113114655 -0.02271318 -0.058984563 -0.13339172 0.044903852 0.0799388
-0.048644453 0.016255938 -0.013575908 -0.053472158 -0.034739055 0.0055808797 -0.1276278 -0.12239146
0.016071681 -0.11211889 -0.11973439 -0.2282516 -0.0038234128 -0.023105001 -0.17400229 0.02657677
-0.09074252 -0.061432663 -0.05277222 -0.08971311 -0.047210436 -0.26001164 0.068338916 0.0048617143
0.1829387 0.046580106 -0.010439621 0.038763218 -0.012742731 0.06518498 -0.030597975 0.006392147
0.10480675 -0.027052524 -0.07120275 -0.06023705 -0.07206411 0.021689702 0.052075595 0.047611207
0.0102919 0.008898353 0.1190279 -0.08205583 -0.0047864653 -0.04942909 -0.03551187 0.026227793
-0.12889273 0.028109698 -0.18557335 -0.08565691 0.14775911 -0.07636576 0.097039536 -0.16792509
-0.17051238 0.018211016 -0.07750051 -0.058291063 0.03378734 -0.060521442 0.072584964 -0.0754488
0.038027175 -0.00757006 -0.0105735 -0.13869578 0.07426557 0.16198185 0.080619134 0.0023497776

network_body._body_endoder.seq_layers.0.bias f4 [256]
00000000: d94f a53b fa52 d4bc 736e 3c3b 164d 06bb
00000010: a83e 573b 2f3b a4bb d032 05bc aae0 6fbb
00000020: d8ad fc3a 24e7 9cbc 9ca4 ee38 0d4f ccba
00000030: d1f4 853c 3112 f93b e6b5 07bc 8f57 20bb
00000040: 253b 6abb 72ab 023c 72ab e8ba 6ef8 91bc
00000050: ed4d 43bc 785a 20bb 45a1 e23b 7046 adba
00000060: 0016 043d 95e0 973b c526 4ebb db55 bbba
00000070: c1b6 843c 1d06 9d3b 5d10 0a3c 2563 813b
00000080: 0d54 fb3b ef73 303c 65cf bbba 9caa a9b9
00000090: 536a e13b 5e7f 90bb 3a22 aa3a 9551 f63a
000000a0: 36aa a7bb 4200 f73b d916 dcbb 9693 8b3c
000000b0: dc68 e7bc 1f03 ba3b 3dc9 a63b 4cee 4d3b
000000c0: 7135 e63b 6d8a cd3b 0efd a6bb 54a4 403b
000000d0: f4b2 513a 986b 59bc 90be bfbb 543a f1ba
000000e0: df39 8d3a 6a86 57bb 7d5f 9d3b f78b 81bb
000000f0: cb41 8abc fe2b acbb c611 b7bc e9a2 4bbb
00000100: 6cff af3b f5fd 063c d49d 59bc d69e 983b
00000110: 75cc 023c 732a 403c 2862 1c3c be77 9a3a
00000120: 801e 0c3c a07d 0e3c dabe e73b 3344 d6bb
00000130: fcaa 83bb 68e3 043b 01bf e3bc 0f6b d6ba
00000140: f494 b5bc c7e3 86bb da28 033c 75ea 923b
00000150: 0a7a 56bc ac08 f539 ddc9 923c 9e26 533b
00000160: 7b50 c73a 2d66 913c b759 093c fe04 6b3b
00000170: 0583 4abc 04af 703c a1b7 893c 01ae 5e3c
00000180: 33b1 ce3c b012 9ab9 c875 25bc 7049 b13a
00000190: 1f5b 9e3b fa01 fe3b f651 a13b b83d f93b
000001a0: 2597 19bc 55d9 14b7 ef92 613c 1239 88b9
000001b0: 2bd7 6f3b 9b6f 92bb a592 32bb d03e 8bbb
000001c0: ea52 553b da6d ceba 9926 a03c 6048 1c3b
000001d0: 9c5f 1fbc 8ff0 033b be12 e9bb abf9 993b
000001e0: 098d cabb 792b c938 ce2f 6f39 6af7 b33b
000001f0: 9614 f7bb 0f7b f3bb 17d8 17bc 20c4 c7bc
00000200: 3d35 b238 b97d 27bb 57a7 e73c 0491 9bbb
00000210: 4eae 4fbb 5f6c 903b 625e 3e3c 4a0f 403b
00000220: 19c4 02bb ece2 bc3b a249 e03b 6ae7 ddbc
00000230: 27b2 68ba e7ce e53a 6e7c e93a 181e 163c
00000240: bf35 7d3b e71d 8139 ce5d 6a3c be10 54bb
00000250: 41be 04bc 395d aa3b 1fb5 b1bb b462 763a
00000260: 14b0 8d3b 321e f43b 879c 83bb eff1 95ba
00000270: a67e 5fb8 b2ec 11bc c11d 693c e33e e53b
00000280: 4318 a33b d0bf 23bc 016d 25bc 64fb da3a
00000290: c0b1 85b9 4d9c 883c 10bc 243c 57c9 953a
000002a0: 9ca5 22bb 1520 ed3b dade da3b c7e2 713c
000002b0: 1f05 9a3b 2d57 af3b 7d4b bcb9 ac38 173c
000002c0: 8908 29ba 30a9 6a3c e506 843c baba 3a3b
000002d0: ed76 62bb 88fa 913c da4e 863b b456 a83b
000002e0: a495 caba f336 b7bc a266 153c 0420 253c
000002f0: 1ed8 2f3c a37e bfba 30a6 94bb c13b bf3b
00000300: cb47 0739 0ce8 f4bc 5f96 a0bc 38aa 613a
00000310: 2f6c c63b 2ed6 303c b6f2 ad3b ac3c 873c
00000320: 13c9 c83b a839 513c 0fa3 1b3b 53c7 08b9
00000330: fd01 e43b 2565 2e3b 4e27 0a3c 0275 f63b
00000340: 73e0 05bc 50e4 ed3b 33e0 833c 1fcf a23c
00000350: 5566 4f3c a65b 093c cffe 07ba fe77 d53b
00000360: 6fc6 71bb 7876 68bc 4410 37bc 961a 0a3c
00000370: bda1 7abb b19a 1a3c 04ef 803c 9b03 bbba
00000380: 938c 4ebb 56c8 e33b 4612 af3c 0b20 b3b9
00000390: 6e2b dfbc e0db a43b 54c5 9c3c 5ffc c9bb
000003a0: 05f0 a43b bad5 95bb 3b00 7abb a2ac 433c
000003b0: af14 313c e18b ee3a dccf 8f3b 32f4 89bc
000003c0: dc65 d53a 1741 c43b 3f2f aa38 e5a2 81bb
000003d0: cdaa 363a 51d0 a43c 1d3a 14bc c095 063c
000003e0: cccb 7bba 5508 9e3b 01ca 643b b936 6739
000003f0: b8f2 69bc 8ead b93b b014 ce3b 3bf4 09ba
0.005044919 -0.025918473 0.0028752356 -0.0020492724 0.0032843743 -0.005011938 -0.00812979 -0.0036602416
0.0019277884 -0.019153185 0.00011379385 -0.0015587524 0.01635209 0.0076010455 -0.008283114 -0.0024466251
-0.003574082 0.007975446 -0.001775129 -0.017818656 -0.011920434 -0.0024467986 0.0069161975 -0.0013219845
0.032247543 0.0046349266 -0.0031456214 -0.0014292555 0.016200425 0.0047919885 0.008426753 0.0039485865
0.0076699317 0.010769828 -0.0014328776 -0.00032361306 0.00687913 -0.0044097146 0.0012980171 0.0018792624
-0.0051167263 0.0075378725 -0.006716591 0.017038148 -0.028248243 0.0056766416 0.0050899074 0.0031422554
0.0070254137 0.006272605 -0.0050960844 0.0029394822 0.00079993834 -0.013270281 -0.0058515742 -0.0018404224
0.0010774693 -0.0032886514 0.004802643 -0.0039534527 -0.016877076 -0.0052542677 -0.022347342 -0.0031072444
0.005371025 0.008239259 -0.013282258 0.0046576066 0.007983317 0.011728871 0.009544887 0.0011784954
0.008552194 0.0086969435 0.007072312 -0.0065388917 -0.0040181857 0.0020277146 -0.027801039 -0.001635881
-0.022165753 -0.0041165086 0.008005345 0.004483516 -0.01309062 0.00046736503 0.017918522 0.0032219063
0.001520648 0.017748917 0.008383206 0.003586113 -0.012360339 0.0146901645 0.016811194 0.01359129
0.02523098 -0.00029387092 -0.010098882 0.0013525914 0.00483264 0.0077517005 0.0049231006 0.0076062344
-0.009374415 -8.872089e-06 0.013767942 -0.00025982462 0.0036596756 -0.004468871 -0.0027248051 -0.004249431
0.0032550641 -0.0015749291 0.019549655 0.002384685 -0.009727385 0.0020132398 -0.00711283 0.004698952
-0.0061813635 9.592524e-05 0.00022810625 0.0054921405 -0.007540296 -0.007430441 -0.009267828 -0.024385512
8.497618e-05 -0.0025557114 0.028278036 -0.004747512 -0.0031689587 0.00440745 0.011619182 0.0029305988
-0.001995331 0.005764356 0.006844715 -0.027087886 -0.00088766444 0.0017532975 0.0017813572 0.009162448
0.0038636771 0.00024627076 0.014304591 -0.0032358612 -0.008102001 0.0051991013 -0.0054232026 0.0009398863
0.0043239687 0.0074498886 -0.0040164622 -0.00114399 -5.3285294e-05 -0.00890653 0.014228285 0.006996022
0.0049772575 -0.009994462 -0.010096789 0.0016707 -0.0002550017 0.016676093 0.010054603 0.0011427802
-0.002481795 0.0072364905 0.006679398 0.014763541 0.0047003175 0.0053509683 -0.00035914397 0.00922982
-0.000644811 0.014322564 0.016116569 0.0028492645 -0.0034555749 0.017819658 0.0040987553 0.005137289
-0.0015455973 -0.022365069 0.009118708 0.010078434 0.010732679 -0.0014609884 -0.0045364127 0.0058359806
0.00012901348 -0.029895805 -0.019602953 0.00086084334 0.006055377 0.010793252 0.0053084744 0.016508423
0.0061274855 0.012770094 0.0023748314 -0.00013044225 0.006958245 0.002661058 0.0084322225 0.0075212726
-0.008171189 0.007259883 0.016098117 0.019874154 0.012658675 0.008383667 -0.0005187811 0.0065145483
-0.0036891957 -0.014188401 -0.011173312 0.00842919 -0.0038243376 0.009436295 0.015738972 -0.0014268042
-0.0031516894 0.006951372 0.021371018 -0.00034165414 -0.027242389 0.005031094 0.019137062 -0.006164118
0.0050334954 -0.0045725973 -0.003814711 0.011943014 0.010808154 0.0018199646 0.0043887924 -0.016840074
0.0016280967 0.0059892046 8.115032e-05 -0.003956186 0.00069682003 0.020118864 -0.009047058 0.008214414
-0.0009605258 0.0048227706 0.0034910443 0.00022050262 -0.01427906 0.0056664413 0.0062890872 -0.00052625284

network_body._body_endoder.seq_layers.2.weight f4 [256, 256]
00000000: 5185 573d 267c f3ba 6cd6 df3b 96b6 11bd
00000010: 3f40 c33d 082a 1e3d 1730 11bd 4900 cfba
00000020: e1e7 f13c cb5a aebd 1625 e3bc a754 e03c
00000030: afa1 983c 7aef 523c ae2d 7fbd 9159 65bd
00000040: 76cf 23bd 0310 1bbd 01ae 36bd 2505 63bc
00000050: 1344 043d f5aa 83bd 5ba4 a5bc 5056 a4bd
00000060: e8d5 cabd ae6d 9bbc 384a bc3a 54b1 2bbd
00000070: 83c9 aabd f294 d03d 589b 4abb aec4 73bc
00000080: 7f00 81bc 1652 a7bd 0d8a ae3d b6e3 c9bd
00000090: 7797 803a 50fa 9fbd da85 1d3d 02b5 433c
000000a0: 5db3 c63d 2865 4b3c 7cb6 9fbd 704b 063e
000000b0: 6874 23bd 595e c2bd ee60 4bbd 3cc7 6ebc
000000c0: 832d 69bc 6e8a 873d 82f8 cebd 1e19 063d
000000d0: b341 d2bd 67f1 013d 32b0 503d c891 42bd
000000e0: 7d39 13bd 51ed 89bd 7e0d 203d 011b 923d
000000f0: 5b62 863d bb56 b7bc 7698 cf3c c814 983d
00000100: 5aa3 e4bd 3447 e83c ea16 c4bd d58b 03bd
00000110: a57e f7bc 57f7 3dbc c495 273c cc00 d33d
00000120: 61c0 343d 5b36 c1bd 3c5f 8a3d 5546 9ebd
00000130: 8621 b73d 0a61 513d 8ef4 853c 0664 aebd
00000140: 2bac 19bd 73f5 8c3b 016d 1d3c b1a3 113e
00000150: 6266 a73d 8669 11bd 9449 f13c 4af9 91bd
00000160: a24e 30bc 66c6 3bbd 397c c63b 1643 023e
00000170: 6b4e 213d 793b af3c d724 dcbc 77df 203d
00000180: 2a6e 563c 87dc 45bd 809a 563d eef5 4dbc
00000190: 89c2 e2bc 8641 56bd 75b4 1abb a4be 383d
000001a0: e0fe 14be 4aca 4d3d 9ee3 733d e3e1 a7bd
000001b0: c35f adbd 7047 ccbc e79a b9bc 06a8 24bd
000001c0: f5d4 a93d 87b0 4b3e 2f8d 38bd 1db4 c33d
000001d0: 2c1c aebc 7608 b73a 2cad 5ebd ad9d 423e
000001e0: 01c1 f4bd 5be1 9dbc 115b cc3b 77f8 52bc
000001f0: a429 f63c 8842 05be fbbf a3bd c958 4b3c
00000200: 0826 2cbc 5df5 73bd 7a71 15bc b510 b73d
00000210: e844 803d 67e4 44bd 3427 ccbd 95e7 54bd
00000220: 8245 6d3d 359b 01bd e201 eb3d 69a4 753d
00000230: d5cb c5bd 1a52 9fbd 0711 433d 48ca 173d
00000240: 5470 94bd 0e68 bc3d f822 7cbb def1 90bd
00000250: 79d4 b4bd 6199 8d3d 94ec 67b9 9095 a43d
00000260: 6922 29bd 3d0e a7bc c144 a2bd 428a 9cbd
00000270: dcfe e13c fd30 a1bd 71f5 dcbc 42c0 213c
00000280: ed55 6a3d 9942 1abd 7292 c83b 21a9 6e3d
00000290: 4056 a93d 7631 dd3d 43f4 35be 559d 2f3d
000002a0: 9c14 123d 8c16 ed3b 0521 80bd c93b 8e3c
000002b0: c85a e2bc 7707 2ebd e9ef 0a3d becb 0ebd
000002c0: 5864 6ebd 4a0b f23c c256 003e d663 b83b
000002d0: cfc6 083d 3027 0abd 9e07 10bb a488 c1bb
000002e0: 0893 d5bc 6e7b 893d 0a23 d33d 3b06 9bbc
000002f0: e53a 303d 82e1 25bb 1c1a 82bd 3350 68bd
00000300: fa9b 423d 529e 88bd b766 1bbd 2e82 953d
00000310: b2e3 fcbc 6a7c 79bc 44f0 013d b7f5 39bb
00000320: 625b aa3c 52d3 a53d 9ff5 90bd 3113 bebd
00000330: c9bc 043c cebd 883d 2038 f5bc 4d98 183d
00000340: ffbe 093d 4926 d13c 90b3 94bd d6f3 843d
00000350: a8a9 a03d 760f a93d b3f8 1c39 9ca3 38bc
00000360: 254d 6cbd 2e9e 553c 7dbd 1cbd eb20 173d
00000370: a74d 7ebd 3ded 913d c590 82bc 82a1 c9bd
00000380: 728c 30bc 3176 543c d079 303d 4b13 053d
00000390: b4ea b23d 0b7e 85bc 83e4 443d 6b5c 793c
000003a0: fa30 eabb 339f fdbc 44fd 83bc 5bf3 943d
000003b0: 02ab 8c3d 8dd1 b83d c9df b9bd a74d ca3c
000003c0: 3538 8a3b fe61 55bc 9a98 0ebe 67fb 3c3a
000003d0: 8431 efbc f4b1 233d 9881 b0bd 8f7a 403b
000003e0: 7165 4fbd b137 bcbc c525 dfbd 6c8c 97bd
000003f0: 7df1 7e3d ad3d cebd 93b7 f0bc dcee 1bbd
0.052617375 -0.0018576428 0.006830981 -0.03557452 0.09533738 0.038614303 -0.035446253 -0.0015792932
0.029529514 -0.08513411 -0.027727645 0.027384115 0.018631784 0.0128744785 -0.062299423 -0.05599362
-0.039992772 -0.037857067 -0.044599537 -0.013856207 0.032291483 -0.06429092 -0.020219972 -0.08024275
-0.09904081 -0.018973198 0.0014365381 -0.04191716 -0.083392166 0.10184659 -0.0030915346 -0.014878435
-0.015747307 -0.081699535 0.08522425 -0.098578855 0.0009810765 -0.07811415 0.03845773 0.011945011
0.097021796 0.012414254 -0.07798478 0.13114715 -0.039905936 -0.09490652 -0.049652986 -0.014573868
-0.014232042 0.066182 -0.10105993 0.032738797 -0.102664374 0.03172436 0.050949283 -0.04750231
-0.035943497 -0.06734718 0.039075367 0.07134057 0.065617286 -0.022380223 0.025341254 0.07425839
-0.11163969 0.028354265 -0.09574683 -0.032115776 -0.030211756 -0.011594615 0.010228578 0.10302886
0.04412878 -0.094341956 0.06756446 -0.077282585 0.08941941 0.051117934 0.016351964 -0.08515172
-0.037517708 0.0043017208 0.009608508 0.142226 0.08173825 -0.035501026 0.02945403 -0.07127626
-0.010760935 -0.045843504 0.006057289 0.12720904 0.039381426 0.021390663 -0.026873035 0.039275613
0.013087789 -0.048306014 0.052393436 -0.012570841 -0.027680652 -0.05230858 -0.0023606096 0.045103684
-0.14550352 0.050241746 0.059543245 -0.08197381 -0.08465531 -0.024936408 -0.022656871 -0.040199302
0.082925715 0.19891559 -0.04505652 0.09555838 -0.021253668 0.0013964314 -0.05436437 0.19005461
-0.11950875 -0.019272497 0.006236442 -0.012876621 0.030049153 -0.13013661 -0.07995602 0.012411305
-0.010507114 -0.05956017 -0.009121293 0.089387335 0.06263143 -0.048069384 -0.09968415 -0.051978666
0.057927616 -0.031642158 0.114749685 0.059971247 -0.096580185 -0.077793315 0.04762366 0.037058145
-0.072479874 0.09199534 -0.0038472991 -0.070773825 -0.088295884 0.0691402 -0.00022118009 0.08036339
-0.04129258 -0.020392532 -0.0792327 -0.07643558 0.027587347 -0.07870672 -0.026972504 0.009872498
0.05721085 -0.03766117 0.0061209733 0.058266763 0.08268404 0.108004496 -0.1776896 0.042874653
0.035664186 0.007235354 -0.06256298 0.017362492 -0.027631178 -0.042487588 0.033920202 -0.034862272
-0.058201164 0.029546399 0.12533095 0.0056271357 0.033392724 -0.03372878 -0.0021977196 -0.0059061814
-0.026071087 0.067129955 0.103094175 -0.01892387 0.043024916 -0.0025311415 -0.06352636 -0.05671711
0.047512032 -0.06670822 -0.037939753 0.073002204 -0.030870292 -0.0152274165 0.031723276 -0.0028375217
0.020795528 0.08096947 -0.070780985 -0.09281004 0.0081016505 0.06676827 -0.029933989 0.03725462
0.033629414 0.025530951 -0.07260811 0.064918205 0.07844859 0.08254902 0.00014969967 -0.011269476
-0.05769076 0.013038201 -0.038266648 0.036896627 -0.062085774 0.07125328 -0.015938172 -0.09845258
-0.010775672 0.012967632 0.04308492 0.032489102 0.08736172 -0.016295454 0.04806949 0.015219788
-0.0071469517 -0.030959701 -0.016111977 0.07272979 0.06868555 0.09024344 -0.09075887 0.02469523
0.004218126 -0.013023851 -0.139254 0.0007209093 -0.029198416 0.03996463 -0.08618468 0.0029369926
-0.05063385 -0.022975774 -0.10895876 -0.0739983 0.06224202 -0.100703575 -0.02938441 -0.03806959

network_body._body_endoder.seq_layers.2.bias f4 [256]
00000000: ae6e 913b 5c53 113c 70c2 e2ba fc4f cabb
00000010: 53bc e43b 4df0 9a3b f1c4 f6b9 8183 ccbb
00000020: 0547 7d3c 3391 f13b d38e babb 06ba 1239
00000030: 6f0e d53b dac9 d33b 49a3 5d3a 86c5 ec3b
00000040: 3864 59bb bfab fc3a be8d f0ba f42f d53b
00000050: 634a d13b 4d7e 82bb 1f26 fd3b 24b2 923b
00000060: fb2e 883b 3732 583c 3b19 883b a31e bbbb
00000070: 9121 f6ba 1ff7 633b 584d 483c 9fcb cabb
00000080: fde7 c73b c150 1a3c 88f6 513b 9e64 cf3b
00000090: 398e ad3b d49d 0a3b 2cef f83b 09b5 e93b
000000a0: b10b 2e3b 4555 b9bb fc13 4a3c c3b7 8c3b
000000b0: fe46 3f3c 0270 3ebb 2b54 d2ba a1ea 873b
000000c0: 9ff7 9b3b da6a ee3a 75e7 9f3b 78c0 743a
000000d0: f2d8 e33b 632b bc3b 621d e1b8 11ab 0b3b
000000e0: f987 9bb9 728f f93b 6c01 acbc d483 733b
000000f0: 723c 6a3c dc47 1b3c df64 c43b ee20 d53a
00000100: cdd0 993a 1ab5 2e3b f539 0c3c dd8f 463a
00000110: fe4c a13b ca88 8ebb 2382 923b 4cb6 b33b
00000120: 06d6 423b 08cc fe3b f348 c63a af04 3bbc
00000130: bff0 633b a09c fdb9 d19f e0ba c9d9 ce3b
00000140: 548c 2f3b bf0d fb3b 760e 6e3b bd72 4f3b
00000150: d405 a43a 59e1 47bc 9a97 573c b7dd 25bc
00000160: 6769 1cbc a451 463c 01de 143b 7530 6239
00000170: 584b ca3b 7beb b0ba 6d3f b0bb 46da 9b3b
00000180: 59a9 b2bb 6b8e 933b fad0 3c3c d4f9 263a
00000190: c84a d43b a7b9 823b 404e 89bb 0d7d 1f3b
000001a0: b619 533b 4416 1d3c 2a8d eb3a 8fcd 0b3b
000001b0: 53ea 733c 9eeb eb3b 2fb9 073c b132 9dbb
000001c0: e3a2 893b 7fbd a03b 3394 95bb e5a7 313c
000001d0: a7b3 be3b 79ef 823a 484e 123c f071 98bc
000001e0: 708e 61bb 2cf0 073c 13ff ccba 76cc 47bb
000001f0: af96 debb 38b9 81bb a79c acba c60e 86bb
00000200: 9a88 a53b 74cc 5a3a 157f 25bc d2a4 153c
00000210: 3ec4 003b 651f 1c3b f8c8 2fba 6327 f73b
00000220: a49a 163b 5e59 173c c58a 2e3c a08c cebb
00000230: 130d 0e3b c589 c4bb b7c3 073b 6bb7 853b
00000240: d618 153b fb9e 803b f236 063c 9088 923b
00000250: 7670 123c 22cf c13b 6232 aaba 956b ad3b
00000260: fa65 fc3b 0b36 9dba 4d22 883a 40f2 9c39
00000270: 1389 a4ba 658d 2a3c 53e9 74ba fe95 303a
00000280: df68 443c bd99 aabb d4e3 983b cf83 673b
00000290: 60b4 b43b df18 61bb 6ea1 f2bb 2f32 373b
000002a0: ca8f 283c 9d95 083b 1a76 443b 886e ab3b
000002b0: 51dc 923b 589c 3eba 1f29 503b 7921 633c
000002c0: 09e0 fbba 16ad 1b3c ae11 c6bb c320 633b
000002d0: 13cc a1bb 1bf0 3a3b 6c79 bbba 2696 00bc
000002e0: 84b6 a7bb 64fa 8a3a e20f 103c c14c b13b
000002f0: fcab 50bb df7f d43b 7397 923a a03d db3b
00000300: 7913 dd3b 400b 8a3a e87b 7b3b 223b a93b
00000310: 1f7b 6e3b 961a d53b 7cb8 bc3b 2fe1 903c
00000320: 2634 293c 9fc3 debb ce95 8aba c9f7 f53b
00000330: 2f8a 653b 8984 15bc 2eb1 d63b 6423 89bc
00000340: e897 363c b638 4e38 1eb3 3c3b 8487 a636
00000350: bb45 093c 76e2 e6bb fea8 6abb 2b5c d13a
00000360: 70fd f23a cd1d be3a 3f56 c4bb 4688 173c
00000370: cdd7 1d3c 32b7 d93b 9e05 493c 983f 4d3b
00000380: 2329 2d3b 4b37 ef3b a24c 253b 3c14 ec38
00000390: d5f9 08b8 3d3d 123c d1d0 e03b 46b4 443c
000003a0: ed6b b239 df21 113c 85c8 5db9 c416 263a
000003b0: 5a74 23bb 6192 5b39 2e08 f83b 19d0 733b
000003c0: 8a5c 3c3b 5538 8c3b 87b3 9d3b 5626 8ebc
000003d0: db67 53bb 3c6e a8bb 308d bc3a 3fad ecbb
000003e0: 3932 5f3c 6b37 7e3b bf4f 8a39 e793 92bc
000003f0: 7065 47ba a632 11bc a40d e23b bee0 deba
0.004438243 0.008869972 -0.0017300379 -0.0061740857 0.006980458 0.004728353 -0.0004706751 -0.0062412624
0.015458827 0.0073720454 -0.0056932955 0.00013992944 0.0065019648 0.0064632716 0.00084548123 0.007225695
-0.0033171307 0.0019277259 -0.0018352789 0.0065059606 0.0063870414 -0.0039823414 0.0077254917 0.0044768024
0.004155991 0.013195566 0.0041533983 -0.0057104393 -0.0018778314 0.0034784747 0.012225471 -0.0061888243
0.006100653 0.009418667 0.0032037813 0.006329133 0.0052964953 0.0021151202 0.007596871 0.007132177
0.0026557262 -0.005655917 0.012333866 0.004294367 0.011674641 -0.002905846 -0.0016046813 0.004147843
0.0047597433 0.0018189803 0.0048798868 0.00093365414 0.006953352 0.005742477 -0.00010734309 0.002131168
-0.0002966521 0.007615977 -0.020996772 0.0037157433 0.014296638 0.009477582 0.00599347 0.0016260424
0.0011735201 0.0026658238 0.00855874 0.0007574538 0.0049225083 -0.0043498026 0.00447108 0.005484378
0.0029729619 0.0077757873 0.0015127942 -0.011414691 0.0034780947 -0.00048372615 -0.0017137473 0.006312583
0.0026786523 0.007661551 0.0036324537 0.0031654083 0.0012513944 -0.012199723 0.013158703 -0.010123662
-0.009546614 0.012104426 0.0022715332 0.00021571091 0.0061735325 -0.0013497913 -0.0053786547 0.004756245
-0.0054523167 0.0045030615 0.011524433 0.0006369625 0.006478641 0.0039894166 -0.0041902363 0.002433601
0.003221137 0.009587828 0.0017971147 0.002133224 0.01488741 0.0071997186 0.008283897 -0.0047973027
0.004200326 0.004905402 -0.004564786 0.010843252 0.005819756 0.0009989581 0.0089297965 -0.018609017
-0.0034417175 0.0082970075 -0.0015639983 -0.0030486858 -0.006792865 -0.0039588474 -0.0013169245 -0.0040911166
0.0050516846 0.0008346506 -0.0101010995 0.0091335345 0.001964822 0.0023822424 -0.0006705667 0.007542537
0.0022980357 0.009237615 0.010653202 -0.006303385 0.0021675273 -0.0059978687 0.002071602 0.004080703
0.00227504 0.003925202 0.008191811 0.004471846 0.008937946 0.0059145847 -0.0012984986 0.005292366
0.0077025862 -0.0011994255 0.0010386199 0.0002993513 -0.0012553058 0.010409688 -0.00093426293 0.0006736218
0.011987894 -0.0052063153 0.004665831 0.0035326367 0.0055146664 -0.00343471 -0.007404498 0.0027953496
0.010288188 0.002084113 0.002997762 0.005231682 0.00448183 -0.0007271222 0.0031762791 0.013862961
-0.0019216548 0.009501716 -0.006044588 0.0034656979 -0.0049376576 0.0028524462 -0.0014303154 -0.007848298
-0.005118193 0.0010603187 0.008792849 0.005410761 -0.0031840792 0.00648497 0.0011184051 0.006690696
0.006746706 0.0010531917 0.0038373414 0.00516452 0.0036389304 0.0065034134 0.005759297 0.0176855
0.010327375 -0.006798222 -0.001057321 0.007506345 0.003502499 -0.009125837 0.006551883 -0.016740508
0.011144616 4.9167043e-05 0.0028793286 4.9629616e-06 0.008378441 -0.007046039 -0.0035806294 0.0015972903
0.0018538665 0.0014504731 -0.0059917266 0.009248799 0.00963397 0.006644153 0.012269406 0.0031318422
0.0026422224 0.0073002926 0.0025222679 0.00011257126 -3.26576e-05 0.008925733 0.0068608304 0.012005871
0.00034031217 0.008858173 -0.00021150902 0.000633579 -0.0024941177 0.00020939998 0.0075693345 0.0037202893
0.002874168 0.0042791762 0.004812661 -0.017352264 -0.0032257948 -0.005140094 0.0014385339 -0.007222801
0.013622814 0.0038790356 0.00026380827 -0.017892791 -0.0007606363 -0.008862173 0.0068985987 -0.0017004234

network_body._body_endoder.seq_layers.4.weight f4 [256, 256]
00000000: a13f ab3d 7cdd 19bd 8d2a b33c 9d8d 52bd
00000010: 78d2 183e 1bc9 64bd 5a77 83bb a1d6 cb3d
00000020: 732a 94bd 0938 aa3c 008a 873c 656e ffbc
00000030: db09 e13c 1022 453c f7b6 92bd 914d bc3d
00000040: aa42 93bd 17b8 4ebd 4a13 6a3d 1863 39bc
00000050: 8ff2 ccbc 8dc6 213d 6e4a 933d c48b b43d
00000060: 00b8 463d 579f 033b 592b b83d d742 3dbd
00000070: f7da f33c 6f77 cbbc 921f 45bd 0ac1 1f3e
00000080: 3e23 683d 2bec 833d 7c2d 21bd 5cb6 febc
00000090: 1f3e b1bd 3e74 1abe c6b0 e93c b6b2 5fbb
000000a0: c3f1 86bd 753b 6ebd 11db 723c be76 84bc
000000b0: 6bd1 26bd 1d43 5b3d 9238 80bc 9b63 f5bd
000000c0: 2a31 d83c aeec 413d 38e9 903d c233 ca3d
000000d0: 46a4 36bd 7717 12bd 8974 b03c b7ee 983d
000000e0: 56ec a63d 8205 4e3d af6f 0fbd 9866 86bd
000000f0: f0b8 a0bd 72bd 203d f070 8c3d 0ee2 afbc
00000100: d9ff 0c3c ad92 a2bc 2e2e 403d 8514 9e3d
00000110: a36a 153e 004f 7ebc 3824 80bd c855 eabd
00000120: 17d5 8f3c 20e1 5a3d 4cf7 823d f445 aabd
00000130: 8b87 56bd 664a 813d 9f52 9fbd e63c 7d3d
00000140: 16cd 27bd 75ba 0ebe d738 693c a648 993d
00000150: 0869 123d 9f8f 66bc d210 843d 01a9 ea3d
00000160: 2bf3 8dbc e5ea 1bbc 8073 76bd 1cf8 15bc
00000170: 653b 583d 3351 9ebd 94b5 11bd 5556 a63d
00000180: fcfe f03d 9372 6c3d 0dc4 d1bc 96d2 90bd
00000190: d0bc 7abd ba62 e43c ec6b 21bc edb1 873c
000001a0: 213a 123d 87ec d73c a3dd 9a3d 9c77 01bd
000001b0: 9353 a43d f94b e2bd dd34 58bd f9bf 0b3d
000001c0: a520 983c 7995 973d 01c7 e03b a5ab 6b3d
000001d0: 580d 0fbe 349d 05be 8dbe 48bc 39ad fdbd
000001e0: e3e8 3c3c 6695 b8bb 91d1 10bc 2066 2ebd
000001f0: 6e25 823d f77b 01be a4ec 9b3b ea1d 893d
00000200: d3fa 26bd 7684 d73c 67f4 b73a 23df de3b
00000210: 50d7 6d3d a379 653c ef78 9a3d 2822 d83d
00000220: cda9 02bd aac1 a03d 9070 cc3d 10ed 223d
00000230: af47 a9bd 32e5 b1bd af6c 0bbd d01c 803b
00000240: a929 d0bd 4187 c83c 3d02 e33c 4a43 863b
00000250: c444 ed3d 5d45 f1bd 8d10 0cbd f963 253b
00000260: aaff 94bd 1eeb cc3d cffd bc3c fb75 77bd
00000270: 9107 7e3d 8d52 f0bd 9e04 423c f6af 01be
00000280: f24c f83d 0ae9 6a3d 3b2a a9bd ad07 c43c
00000290: e25c 1abd 11ca bf3d 9f74 e23b 91f0 143d
000002a0: 1bb9 b839 9d69 143d 8fea 4b3d 9fb0 37bd
000002b0: 755d 1abd 4e39 bf3c 6e1e b93c 3b60 1f3d
000002c0: df0b 6fbc 9878 a33d cced cd3d b031 f3bc
000002d0: 3552 99bd d1c6 84bc bb07 803d a084 f7bc
000002e0: f91f a63c 1bfd a3bc 4b81 103e 5bb3 85bd
000002f0: 6c88 17bd 1c3b 36bd 8659 b73c 393d d5bd
00000300: 1f8d c8bc e55a f7bc 1cce 6f3c 312d c3bd
00000310: d435 95bc dcdc 013a 67a6 273d b1bb 943d
00000320: 2492 a53c b03e 9d3d de76 a13d a050 ad3d
00000330: 53d2 8bbd d6d4 15bc 9acd 2fbd 8c0b 6cbd
00000340: 1df1 daba dd65 8a3c 9a71 c73c 5f29 5f3d
00000350: d3a2 42bd 100c f1bc 0463 793d 281d dc3d
00000360: 823a db3d 3da4 6c3d 70b5 8dbc 6d20 c6bd
00000370: f4f8 78bd d435 4c3c 4aa0 adbc 69c1 7b3b
00000380: 3d43 52bd 2c81 a83d ab81 c7bb 560c b4bd
00000390: 908d 563d 0566 903c 2db0 cfbc b370 283d
000003a0: d060 ecbc 051a 863d 8700 87bc 8cc4 9ebd
000003b0: d1ea c63d 390d 9cbb 4428 8a3d f6f5 bebd
000003c0: b67e 75bd d7e5 ec3b 1708 933c 8c5b adbb
000003d0: d5d3 c5bd f03e 413d deea edbd 6bbc 833d
000003e0: 005d 23bd ea00 9dbd e57f f5ba e357 00be
000003f0: 367f 733c a93d abbc 627d 82bd dea9 32bd
0.083617456 -0.03756474 0.021870876 -0.051404584 0.14924037 -0.05585585 -0.0040120305 0.099530466
-0.07234659 0.020778673 0.016545296 -0.03118057 0.02747052 0.012032047 -0.07163804 0.09194482
-0.071904495 -0.05046853 0.0571473 -0.01131513 -0.025018005 0.039495993 0.07191931 0.08815721
0.04851532 0.0020083988 0.08992643 -0.04620632 0.029767497 -0.024837224 -0.04812581 0.15600982
0.056674235 0.0644153 -0.039350018 -0.031092815 -0.08654427 -0.15083405 0.028526675 -0.003413362
-0.06589081 -0.05816217 0.014822737 -0.016169902 -0.04072706 0.0535308 -0.015651975 -0.11981889
0.02639063 0.047344856 0.07075733 0.09873153 -0.044590257 -0.03566691 0.021539943 0.07467406
0.08150546 0.05029822 -0.03501862 -0.06562537 -0.07847774 0.03924317 0.068574786 -0.021470096
0.008605921 -0.019845331 0.04691904 0.077187575 0.1459146 -0.015521765 -0.06256908 -0.11442143
0.017557664 0.053437352 0.063948244 -0.08314124 -0.052375358 0.063130185 -0.077794306 0.061825655
-0.04096707 -0.13938315 0.014234743 0.0748456 0.035744697 -0.014072328 0.06448521 0.11458016
-0.017327866 -0.009516452 -0.060168743 -0.009153392 0.052791018 -0.07730331 -0.035573557 0.08121935
0.117673844 0.057726454 -0.02560618 -0.07071416 -0.061215222 0.027879108 -0.009852391 0.016564334
0.035699967 0.026357902 0.07561805 -0.03160821 0.08023753 -0.11049647 -0.05278479 0.034118626
0.018570254 0.074015565 0.0068596606 0.05753674 -0.13969934 -0.1304825 -0.012252462 -0.12386555
0.011530134 -0.005633044 -0.008839027 -0.042577863 0.063547954 -0.12644945 0.0047584344 0.06695159
-0.04076655 0.02630828 0.001403463 0.0068015023 0.058066666 0.014006051 0.075425975 0.1055339
-0.031900216 0.078494385 0.09982407 0.03977686 -0.08265626 -0.08686294 -0.034039196 0.0039096847
-0.10164196 0.024478557 0.027711028 0.004097377 0.115853816 -0.11780808 -0.03419547 0.002523659
-0.072753266 0.100057825 0.023070244 -0.06041525 0.062018935 -0.11734495 0.011841921 -0.1266478
0.12124051 0.05735115 -0.08260008 0.023929441 -0.037686236 0.09364713 0.006910875 0.036362235
0.0003523313 0.036233533 0.04978424 -0.044846173 -0.037686784 0.023342755 0.022597518 0.038910132
-0.014590233 0.07981986 0.10055122 -0.029686779 -0.07486383 -0.016208084 0.062514745 -0.030214608
0.020278918 -0.020018151 0.14111821 -0.0652835 -0.036995336 -0.044489965 0.022381555 -0.10412068
-0.024481354 -0.03019471 0.014636543 -0.09530104 -0.018214144 0.000495387 0.040930178 0.07262362
0.020211287 0.07677972 0.07884 0.084626436 -0.068272255 -0.009144982 -0.042920686 -0.0576282
-0.0016703937 0.016894275 0.024346162 0.054482814 -0.047518563 -0.029424697 0.060885444 0.107477486
0.10704519 0.057773817 -0.01729843 -0.096741535 -0.060784295 0.0124640055 -0.021194596 0.0038414842
-0.051333655 0.082277626 -0.0060884557 -0.087914154 0.0523811 0.017626772 -0.025352562 0.041123103
-0.028854758 0.065479316 -0.016479744 -0.07752332 0.097127564 -0.0047623185 0.06745961 -0.09324257
-0.059935294 0.0072295475 0.017948193 -0.0052904543 -0.096595444 0.047179163 -0.11617063 0.06432422
-0.039883614 -0.0766619 -0.0018730132 -0.12533526 0.014861872 -0.020903425 -0.06371571 -0.04361903

network_body._body_endoder.seq_layers.4.bias f4 [256]
00000000: 5c60 a939 6447 cd3b d094 843b 754c d8bb
00000010: bc0b 333b f1e7 473c c638 4f3c 7b8a 4e3b
00000020: 505c b63b fe95 ad3a 43f4 0f3b a9da bdb8
00000030: a290 5f3c 02ae 19ba 5fdb 873b ea2c 1e3c
00000040: 29c1 663b b210 083c ab7f 52bc 5f21 d4b9
00000050: 4c08 68bb a86b 3cbb 7acd 113b 2dfa e8bb
00000060: 1d9b 81ba c319 953b 985f 63b9 4bef ba3b
00000070: 15e7 ebbb 2ea8 a6bb 0007 afbb 08ff 5eb9
00000080: fe00 09bc 5fd7 773b 3ffb 373c 9bb6 d73a
00000090: a877 f23b 13bf 4cba a27c 993b 74c9 9bbb
000000a0: 7a8e a23b ec2b 973b eaa5 17bb 830d 27bb
000000b0: 4541 b43b 2b39 82bb 9e82 b43b 99ca 693b
000000c0: 68d4 183b e251 7a3b 1288 a13b e4b3 35bb
000000d0: 40b1 2a3c 248b 9b3b 1335 13bb c44b f13a
000000e0: f4ec b93b 5c38 b5b9 9f7e 0f3b 4145 b83b
000000f0: aba1 0f3c 0f83 293b a87c a1ba 897b 8239
00000100: 3570 5cbb 019b 71bb 97c3 44bc 4670 67bb
00000110: 8b5a 13bc 8fda 243c 7e07 0dbc bbbd 353c
00000120: a912 3cb8 2c3f 843c 9c0c 22bc 7c02 a53c
00000130: e95b e2bb 1fc7 34bc b735 3fba c8ad f43b
00000140: 8e67 82bb 264e 313b 0bdd 5d3b 7269 db39
00000150: ef8e 94bb 9daf 7d3b 66a6 34ba 1947 e93b
00000160: 36b5 35bc a3c7 f73a cd40 15bb ee53 0abc
00000170: f2f7 ddbb 85fe 1f37 d745 03ba acf5 03bc
00000180: 0e65 593b 7a34 963b fc00 da3a 24c3 9bbb
00000190: 1fe9 933a 2ad5 06ba 828f 8a3b fa8c 82ba
000001a0: d6e3 ae3b c1c4 193c 084f 213c e453 d93a
000001b0: 5f84 b53b cce7 813a f9a6 8cbb 2ac7 543c
000001c0: c0a4 253a 72d9 0abc ff02 1d3b 50ef 533a
000001d0: 4d41 ad3a f20b 263a d91b 913b 9666 3b3c
000001e0: 46f8 e0bb d074 893a 6fda ec3b 06ba a8bb
000001f0: aea2 35bb ceca 47bb 2a54 08bb 04dc b1bb
00000200: b67c 8c3b 58a7 1e3c c1f7 e9bb 9eef 4a3c
00000210: 2f8b dc3b 4dd1 3e3c 0113 703b 94b7 d3bb
00000220: 7606 8a3b e532 0b3c e9b6 f9ba f793 3d3b
00000230: 5561 81bb 1dd4 4e3c 3be8 723b 93bc c2ba
00000240: 21ba 083c 1c49 02bc e960 443a 8c90 35bc
00000250: d4a1 a7ba 540d 98ba 4f3c bd3b d1be aa3b
00000260: 37c5 0ebb 64c1 403a 2467 98bb df93 cc3b
00000270: 7e0a 5e3c e215 03ba b82c 7d3c ae58 5f3c
00000280: a816 243c 6b59 05bb ab69 f5ba d9a4 96bb
00000290: 0a5b b9bb 11f5 c1ba 6379 803b 22af 5bba
000002a0: 0910 ef3a 6d4e 28bb 0d3d 37bc 434b 613b
000002b0: 9b30 913b 41a0 f33a 226c 2ebc f619 af3a
000002c0: 3a96 473c 7e76 d4ba 5594 1cbb a930 fabb
000002d0: 12ff 773b 9e7c 053a 02c6 883b 6af3 9cbb
000002e0: 4243 733b 5545 21bb cd6a abbb 8869 d2ba
000002f0: 6068 f4bb 4710 ec3b c1b5 0fbb 4c0c b6bb
00000300: cf46 9dbb 3352 a33b 6736 ab3b d4d0 f03b
00000310: b11b 2d3a 19f8 bfba 0df3 6839 71ba 033b
00000320: 75de 1cbb 131f c73b fa85 ae3b a469 af3b
00000330: 520c ecbb 0a8f 3ebc 760f 38bb 4156 58b9
00000340: da1c 273c 59da d838 4b5f 3b3a c154 58bb
00000350: 55c6 1d3a 5788 d83b 2c69 803b 66fa dd3b
00000360: a4f7 3e3c 0b8f 843b d1b7 bc3a 985f 543b
00000370: 82c6 62bb e874 68bc a372 583b 4d38 3c3c
00000380: c733 34bb 12bc db3a c737 923b ac6e 313b
00000390: 401d 553a 4270 91bb 52e7 c73b 4001 393c
000003a0: bb13 66bb 2b42 363c 272d 79ba 05e3 523c
000003b0: 9864 5b3a 1743 af3b 409c 5bbb f8f4 433a
000003c0: 7fe4 223c 5f1f b53b 61ad 01bc a967 b6bb
000003d0: 79d6 ab3b 9c01 fdbb 395d 003c 4ae4 d639
000003e0: 2298 353c af46 4bbc 276f 70bc 983d 653a
000003f0: b763 acba 4839 32ba 36c6 29bb 3631 91bb
0.00032305985 0.006264614 0.00404606 -0.0066009113 0.0027320227 0.012201295 0.012647813 0.0031515646
0.0055652037 0.0013243554 0.002196566 -9.052951e-05 0.013645323 -0.0005862416 0.004146024 0.009654263
0.0035210347 0.008304762 -0.012847821 -0.00040460654 -0.0035405336 -0.0028750692 0.0022247718 -0.0071099014
-0.0009888146 0.00455019 -0.00021684018 0.0057047955 -0.007199178 -0.0050859665 -0.0053414106 -0.00021266576
-0.008362053 0.003781758 0.011229335 0.0016457619 0.007399518 -0.00078104547 0.004684047 -0.0047542397
0.004960832 0.00461339 -0.0023139664 -0.0025490231 0.005500945 -0.0039741 0.005508735 0.0035673736
0.0023319963 0.0038195779 0.004929551 -0.0027725631 0.010418236 0.0047468115 -0.0022462055 0.0018409421
0.005673999 -0.00034565 0.002189554 0.00562349 0.008766572 0.002586547 -0.0012320476 0.00024887573
-0.0033636217 -0.0036866071 -0.012009523 -0.0035314723 -0.008993755 0.010061874 -0.008607743 0.011092599
-4.484007e-05 0.016143404 -0.009890702 0.020142786 -0.006907929 -0.011033802 -0.0007294076 0.0074670054
-0.00397963 0.0027054637 0.0033853676 0.00041849498 -0.0045336406 0.003870941 -0.00068912504 0.007119071
-0.011090567 0.0018904101 -0.002277422 -0.008442862 -0.006773942 9.5363985e-06 -0.00050076604 -0.008054178
0.0033171806 0.0045838924 0.0016632373 -0.004753487 0.0011284685 -0.0005143458 0.0042285332 -0.0009960227
0.0053372188 0.009385289 0.009845503 0.0016580787 0.0055394615 0.0009911 -0.0042923656 0.012986938
0.00063188 -0.008474695 0.0023958085 0.00080846716 0.0013218314 0.00063341775 0.0044283685 0.011438033
-0.006865534 0.0010487083 0.0072281878 -0.005149129 -0.0027715373 -0.0030485871 -0.0020802119 -0.0054278392
0.0042873276 0.009683453 -0.0071401303 0.012386231 0.006730459 0.011646581 0.003663242 -0.006461093
0.004212196 0.008496021 -0.0019051704 0.0028927305 -0.0039483705 0.012623814 0.003706469 -0.0014857225
0.008345158 -0.007952001 0.00074912474 -0.011081826 -0.0012789317 -0.0011600652 0.0057750116 0.0052107354
-0.002178503 0.0007353036 -0.004650967 0.0062432135 0.013552306 -0.0005000514 0.015452556 0.013631983
0.010015167 -0.0020347487 -0.0018723508 -0.004597288 -0.0056566047 -0.0014797767 0.0039207204 -0.0008380284
0.0018239032 -0.002568151 -0.011183989 0.0034377135 0.004430843 0.0018587188 -0.010645898 0.0013359177
0.012181813 -0.001620963 -0.0023892124 -0.0076351953 0.0037841243 0.0005092117 0.004173995 -0.0047897594
0.0037118946 -0.0024607976 -0.0052312375 -0.0016053179 -0.0074587315 0.007204089 -0.0021928402 -0.005555665
-0.004799701 0.004984164 0.005224991 0.007349113 0.00066035526 -0.0014646082 0.00022215788 0.0020100141
-0.0023936306 0.0060767024 0.00532603 0.0053531695 -0.007203617 -0.011630783 -0.0028085387 -0.00020631497
0.01019975 0.00010340353 0.00071476836 -0.0033009502 0.00060186285 0.00660805 0.0039187875 0.0067742346
0.011655722 0.0040453724 0.0014398043 0.003240561 -0.0034603183 -0.014188029 0.0033027313 0.0114880325
-0.0027496682 0.0016764423 0.0044622156 0.0027074022 0.0008129664 -0.004438431 0.0061005736 0.011291802
-0.0035106975 0.011124174 -0.00095053244 0.0128715085 0.00083691766 0.005348574 -0.003350988 0.0007475163
0.009942173 0.0055274214 -0.007914872 -0.0055665565 0.005244073 -0.007721139 0.007834726 0.0004098735
0.011083635 -0.012406989 -0.014674938 0.0008744835 -0.0013152276 -0.00067986967 -0.0025905496 -0.004430915

action_model._continuous_distribution.log_sigma f4 [1, 20]
00000000: 33b3 d53c e3fe d939 cc6a 43bc 793a 423b
00000010: e711 e13a da5a 1f3b 6a1e a63b 3f0e 9b3c
00000020: 7a85 cbbc 35a4 b9bd a7c0 4c3d 2e3d f93d
00000030: 4b00 e03a ef8d 003c 722f bcbc e98f b7bc
00000040: f8a3 7abc 9986 483c 534a cdbc a15a 6f3b
0.026086425 0.0004157937 -0.011927318 0.0029636903 0.0017171473 0.0024315626 0.0050695436 0.018927692
-0.02484392 -0.09064523 0.049988415 0.12169872 0.0017089931 0.00784634 -0.022971842 -0.022407489
-0.015297882 0.012239122 -0.025059855 0.0036522525

action_model._continuous_distribution.mu.weight f4 [20, 256]
00000000: 999e 55bc 6878 b9ba e2ed 5dbb b1a4 d53c
00000010: c744 52b9 14ca 993c 3942 77bc 0e63 93bc
00000020: 25ce 193c cabd 2339 a989 3ebc eac7 c33c
00000030: 8826 5e3b add4 9a3c daa2 3bbc de8f 883b
00000040: c279 9d3b 50fa a2bc 2529 6139 5c51 513c
00000050: afd0 043c a26d f5bb 917b 20bd c10d 303c
00000060: 8dbc eb3c 620f c73a 7fa4 523c 8d56 febb
00000070: 632c c23b 2322 063d e308 96bb 530b cf3c
00000080: 166a a8bc 4726 253d 286a abbc 6b8d 213b
00000090: bd12 ee3c aff8 523c b337 513c e9ed 6c3b
000000a0: 69ca a63c 4701 3bbc b59d 80bb af7d 813a
000000b0: 682f e03b e468 693b 1a41 333b b123 d3b9
000000c0: 7a92 4e3c 4f63 8dbc ad2c 24bb ae19 98bb
000000d0: 0f21 afbb 6aee a93a e1a0 81bc ad9d 2c3c
000000e0: 574f a2bc f373 f33b 46d9 12bc 0b54 78bb
000000f0: 356f 223c 0bec c83b 8de4 0bbc 1c00 3aba
00000100: fe80 1e3c 54a7 163c f2f3 86bc 4cba cb3b
00000110: 36bf df3c a5ef 7fba f5df 403c 7077 9e3b
00000120: 4c2d 283d ebac 25bd a4a3 b9bb 87ba 2bbc
00000130: 0299 aeba 998c c93c 50e0 36bc af84 1cbc
00000140: 5982 313c 381c ac3c bd14 13bb a7f2 1a3d
00000150: b99e 473d 0c3d 48bd 4109 d5bc 9720 36bc
00000160: 54c5 f5bb feed e13a cfdf 353c 63cc cf3b
00000170: a5a2 c63c 47f6 c8bb be9b 16bd fd28 ba3b
00000180: cc23 37bd 23c7 cf3c 2012 94bb bca7 ee3b
00000190: 3c81 2abc 0198 9d3c 3a90 06bd ec74 bd3c
000001a0: 6c26 51bc 6e71 b93c bbe0 2d3c 5511 60bc
000001b0: d448 8e3c c5e7 72bb 125d 39b9 9375 15bc
000001c0: 3ba7 0c3d 02cd 893a 8d2b 56bc 1019 dbba
000001d0: 2d24 213c fafd 2e3b e497 fe39 330e 71bc
000001e0: 5673 19bc d07e 0bbc 846e b4bc d5d8 09bc
000001f0: 0b91 2dbc 9e7e 5f3b 411e 853c c695 0c3c
00000200: 415a fa3c 25d6 dfbc deaa 58bc aeb9 c4bc
00000210: 0d34 b63c fbb0 17bd b283 01bd 9b9f b03c
00000220: c142 533c a073 213c 22ab 4ebc 4c6a 293c
00000230: d56c 023d 8d54 f6bb 3112 1b3c c311 9737
00000240: f186 543c d610 fd3a 2ece 183d 377b 803b
00000250: 5530 72bc 8155 333a 1c10 8439 d8c9 46bb
00000260: 997d 05bc ed7e 263d 38cd 923c 4958 9fbc
00000270: 12aa 01bd 3ab6 91bb 63e6 e2bb 3eee 85bc
00000280: afb2 3f3a f60e 013d 2780 dbbb 33f6 923c
00000290: a796 1dba 222c 5bbc 763c bbbc f379 703b
000002a0: 9a01 083a 9dde 0d3c 8299 7ebb d739 8c3c
000002b0: 6000 04bc 986f 143c 4154 573b e4e5 13bd
000002c0: bb5a edbb 0fa9 32bc 560d b2bc 2f84 60ba
000002d0: 8b17 96bc 3152 8cbc 79d6 023d 4725 0abc
000002e0: b50d d43a bcc5 e53c 3a14 b83c f35a 16bc
000002f0: 0681 663c 511f 83bc 953f d23c 6a22 3fbc
00000300: 69f2 44bc fd6b 373c 505e 9ebc 47e3 953c
00000310: 0b6c 343d 0845 0b3b d032 e83a f64d 89bc
00000320: edf7 1d3d 7487 89bc ad57 5a3b 8dbe ffbc
00000330: dc75 2c3c 3ee1 773c 2c80 51bb 5d80 a13b
00000340: f497 78bc d1dd d43b b8ed 943c b514 8c3a
00000350: 0878 383d 85bc 1f3b f15d 3bba ea4d 1b3c
00000360: 183b 613b f9d5 ba3a e98e a5bc 0c1f 22bc
00000370: 1310 c93b ddf1 a23c c813 09bc a660 e53c
00000380: 0207 b5b9 cde4 86bb ab10 10bc 89a3 f63c
00000390: 81bc 853a 843f 473c 4912 67bc 4e2c 0e3c
000003a0: 65e8 15ba 7622 cabc 8a7b 91ba 894f ac3c
000003b0: 024d e03c 9d95 9dbc 792c 0abc 52be 70bb
000003c0: d625 e4bc 4acc 803b fa93 913c cec6 823a
000003d0: d2b9 373d f08a efbb ac2a 89bc ce5d 80bb
000003e0: 0b50 a5bb b409 063c dcd5 8b3c 80a2 453c
000003f0: 5393 23bc ca57 00bc d6fb 073d b5a4 173d
-0.013038301 -0.0014150264 -0.0033863713 0.026079508 -0.00020052782 0.018773116 -0.015091472 -0.017991569
0.009387528 0.00015615593 -0.0116295 0.023899037 0.0033897478 0.01890024 -0.011452401 0.004167541
0.0048057744 -0.019894749 0.00021473 0.012775745 0.008106395 -0.007489876 -0.039180342 0.010745467
0.028776431 0.001518708 0.012856602 -0.0077617825 0.0059257015 0.0327474 -0.004578696 0.025273954
-0.020558398 0.040319707 -0.020924643 0.0024650942 0.02906167 0.012876674 0.012769627 0.0036152548
0.020360189 -0.011413879 -0.00392505 0.0009879376 0.0068415888 0.0035615498 0.0027352036 -0.00040271648
0.012608165 -0.017259268 -0.0025051043 -0.004641733 -0.005344517 0.001296473 -0.015823783 0.01053564
-0.019813223 0.0074295937 -0.008962935 -0.003789189 0.009914209 0.006131654 -0.0085383775 -0.0007095353
0.009674309 0.009195168 -0.016473744 0.0062172767 0.027312856 -0.0009763188 0.0117721455 0.0048360154
0.041058823 -0.04044811 -0.0056652594 -0.010481483 -0.0013320746 0.024603175 -0.011161879 -0.009553119
0.0108343 0.02100955 -0.002244278 0.037829068 0.048735354 -0.048886344 -0.02600539 -0.011116168
-0.00750033 0.0017237065 0.011100723 0.0063415035 0.024247477 -0.006132874 -0.03676962 0.0056811557
-0.044711873 0.02536351 -0.004518762 0.007283179 -0.010406788 0.01923752 -0.03285239 0.023127042
-0.012765508 0.022637095 0.010612662 -0.013676007 0.017368712 -0.0037064415 -0.00017677646 -0.00912227
0.03433917 0.0010513368 -0.013071907 -0.0016715843 0.009835285 0.0026701675 0.00048559823 -0.014712858
-0.009365877 -0.008514121 -0.022025354 -0.008413513 -0.010593663 0.003410257 0.016249778 0.008580631
0.030560615 -0.027323792 -0.013224332 -0.02401432 0.022241617 -0.037034016 -0.031619735 0.02156048
0.012894333 0.009854227 -0.012614043 0.010340285 0.03184207 -0.0075174035 0.009464786 1.8008874e-05
0.012971626 0.0019307386 0.037306003 0.0039209384 -0.014782031 0.0006841049 0.00025189004 -0.003033271
-0.008147621 0.04064839 0.017920122 -0.019451277 -0.031656332 -0.004446772 -0.006924437 -0.016348954
0.00073126977 0.03150841 -0.0066986266 0.017939663 -0.00060115237 -0.013377221 -0.022855978 0.003669378
0.0005188227 0.008659032 -0.0038848822 0.017117424 -0.00805673 0.009059809 0.0032856616 -0.036107913
-0.007243482 -0.0109045645 -0.021734875 -0.0008564619 -0.018321773 -0.017129036 0.03194282 -0.008431739
0.0016178401 0.028048389 0.022470582 -0.009176957 0.0140688475 -0.016006144 0.025665084 -0.01166592
-0.012020686 0.01119518 -0.019332081 0.01829685 0.04404835 0.0021250863 0.0017715339 -0.016760807
0.03856652 -0.016788222 0.003331642 -0.031218791 0.010526147 0.0151293855 -0.0031967266 0.004928632
-0.015172947 0.006496169 0.01817976 0.0010687324 0.045036346 0.002437384 -0.0007147482 0.009479025
0.0034367498 0.0014254443 -0.020209746 -0.009895097 0.0061359494 0.01989072 -0.008366533 0.028000187
-0.00034528231 -0.0041166306 -0.008793036 0.030107277 0.0010203273 0.012161139 -0.014103481 0.008677555
-0.00057185284 -0.024674635 -0.001109944 0.021034019 0.02738047 -0.01923638 -0.008433455 -0.0036734533
-0.027850073 0.003930603 0.017770756 0.0009977461 0.044854946 -0.007310264 -0.01674398 -0.0039174324
-0.0050449423 0.008181024 0.01706975 0.012062669 -0.009983855 -0.007833431 0.033199154 0.03702231

action_model._continuous_distribution.mu.bias f4 [20]
00000000: f452 ecbb dec3 0dba 6971 0a3c 4764 0f3c
00000010: 6988 a9bb 9e3e 10ba 4395 2cbc 3cc8 a2bb
00000020: b8f6 2f3c cb38 3dba 1e46 1dbc e319 003b
00000030: 4399 b239 f85a 58bc be1a a73a 2ce0 6cbb
00000040: 9ed6 573b c6d2 0cbb 6be9 ae38 a198 1abc
-0.007212037 -0.00054079096 0.008449891 0.008751935 -0.005173732 -0.0005502495 -0.010533634 -0.0049677175
0.010739975 -0.00072182406 -0.009599237 0.001954668 0.00034064995 -0.013205282 0.0012749059 -0.003614436
0.0032934318 -0.0021487935 8.340444e-05 -0.009435804
