results/soloWorm/Worm.onnx (onnx, 581953 bytes, 9 tensors)

network_body._body_endoder.seq_layers.0.weight f4 [256, 39]
0	0x3e46ae5e	0.19402453
1	0xbe815857	-0.2526271
2	0x3e35d9ce	0.17758867
3	0xbd6155a9	-0.055013333
4	0xbd80f375	-0.06296436
5	0x3e689204	0.2271195
6	0x3daae37b	0.0834417
7	0xbe180678	-0.14846218
8	0xbd0ae00c	-0.033905074
9	0x3deb5139	0.11490101
10	0x3da46ca9	0.08028538
11	0x3dfdce77	0.12392896
12	0xbd2a0a0c	-0.041513488
13	0x3d1ffabb	0.039057475
14	0x3e249bcb	0.16075055
15	0x3ccfa0aa	0.025345165
16	0xbe355fad	-0.17712279
17	0x3dea23c7	0.11432605
18	0xbea9e5f8	-0.33183265
19	0x3dbce405	0.09223179
20	0x3e490408	0.19630444
21	0x3ddc6090	0.10760605
22	0xbe374d4d	-0.17900582
23	0xbe98513d	-0.2974948
24	0x3b2bd711	0.002622072
25	0x3c72d935	0.014822294
26	0xbe6381ca	-0.2221748
27	0xbe1d7a73	-0.15378742
28	0x3e3ed68b	0.18636529
29	0x3d9576d4	0.07298055
30	0x3d80e770	0.06294143
31	0xbe541593	-0.20711355
32	0x3da0d715	0.07853524
33	0xbd8521dc	-0.06500599
34	0x3ec9467a	0.39311582
35	0xbd8d8b40	-0.069113255
36	0x3d9681a3	0.07348945
37	0xbe1626eb	-0.14663284
38	0xbe0aa655	-0.13540013
39	0xbce0fec1	-0.027465226
40	0xbdb2cfa8	-0.087310135
41	0x3e9228f6	0.28546876
42	0xbdd0d999	-0.101977535
43	0x3b1e8197	0.0024186128
44	0xbde15138	-0.11001819
45	0xbcf37ac7	-0.02972163
46	0x3ea97539	0.33097246
47	0xbe0a0f89	-0.13482489
48	0x3e3977ed	0.18112154
49	0xbe870b91	-0.26376012
50	0x3da8efbf	0.08248853
51	0x3de0700b	0.109588705
52	0xbd97d5fb	-0.074138604
53	0x3df5c85c	0.12001106
54	0xbe5aac6a	-0.21354833
55	0x3d4f44be	0.050602667
56	0xbdc02549	-0.093821116
57	0xbe25a7d7	-0.16177307
58	0x3dba6891	0.09101976
59	0xbcc671ce	-0.024224188
60	0xbe1d39bf	-0.1535406
61	0xbee464c2	-0.44608122
62	0x399a7ea2	0.00029467518
63	0xbdef162a	-0.11674149
64	0xbd4303ec	-0.047611162
65	0x3d63983c	0.055565104
66	0xbda403ac	-0.08008513
67	0xbd1ce112	-0.03830058
68	0x3d63cea4	0.05561699
69	0xbd983482	-0.0743189
70	0xbd70313f	-0.058640715
71	0xbd2a1c0c	-0.041530654
72	0xbe5fecc2	-0.2186766
73	0xbd61f3b6	-0.05516406
74	0x3c134511	0.008988635
75	0xbe2a0c5c	-0.16606277
76	0xbd89317d	-0.06698892
77	0xbe3f550a	-0.18684784
78	0xbd6ba598	-0.05753097
79	0x3e9e6966	0.30939788
80	0x3e08019b	0.13281862
81	0xbe1882b4	-0.1489361
82	0x3e5b9520	0.21443605
83	0x3d9b5435	0.075844206
84	0x3cfa4738	0.030551538
85	0xbe28c764	-0.16482311
86	0x3e05e282	0.13074687
87	0xbe163f5a	-0.14672604
88	0x3eaf6c1d	0.3426217
89	0x3d6377ac	0.05553405
90	0x3e6d3467	0.23164521
91	0x3ecf0d03	0.40439615
92	0xbe321a0e	-0.17392752
93	0x3e9e8e12	0.30967766
94	0x3db0fc3f	0.08641862
95	0xbe60cecf	-0.21953891
96	0x3d8d59a9	0.06901867
97	0x3e236a13	0.15958433
98	0x3e1709bb	0.14749806
99	0x3e15b158	0.14618433
100	0x3d06265c	0.032751426
101	0x3e0205bc	0.126975
102	0xbdc8032b	-0.09766229
103	0x3e4ab419	0.19795264
104	0x3d46b2e7	0.04851046
105	0x3dd8c6bf	0.10584783
106	0x3e5d0e91	0.21587588
107	0x3dbd9bc6	0.09258227
108	0x3e928d18	0.2862327
109	0x3d533eb6	0.051573478
110	0xbc89e652	-0.016833458
111	0xbe9ed8e9	-0.31024864
112	0x3e375170	0.1790216
113	0xbcac6ef3	-0.021048998
114	0x3dbf88fa	0.09352298
115	0x3ebbe6ab	0.36699423
116	0x3dfdcf58	0.12393063
117	0x3deacc37	0.11464732
118	0x3e3fef49	0.18743624
119	0x3dc8acd7	0.097985916
120	0xbc8610c8	-0.016365424
121	0x3dfa0160	0.122072935
122	0xbbb6e3f3	-0.005581373
123	0xbde0841d	-0.109626986
124	0x3eb62425	0.3557445
125	0x3d7a7aed	0.061152387
126	0xbe4fbae7	-0.20286141
127	0x3e2122d1	0.15735938
128	0xbd243585	-0.040090103
129	0x3d05dcb7	0.032681193
130	0xbe572839	-0.21011437
131	0xbde6c0fd	-0.11267278
132	0x3e882a28	0.26594663
133	0x3eaacc8a	0.33359176
134	0xbe2bd6fc	-0.16781229
135	0x3e8815b1	0.2657905
136	0x3e18dfd2	0.1492913
137	0x3d71bcf7	0.0590181
138	0x3e1fd596	0.1560882
139	0x3e5a9cfe	0.2134895
140	0x3ec41037	0.3829362
141	0xbd9f75f6	-0.07786171
142	0x3da0db87	0.078543715
143	0x3e6f38ba	0.23361483
144	0x3d6d1180	0.057878017
145	0x3c6c7170	0.0144313425
146	0x3e94b5aa	0.2904485
147	0xbe1164f9	-0.14198674
148	0xbdebbb55	-0.1151034
149	0x3d66c093	0.056335997
150	0xbd971d33	-0.07378616
151	0x3d03d8b7	0.032189097
152	0xbd943558	-0.07236737
153	0x3e722194	0.23645622
154	0xbdda0902	-0.10646249
155	0xbd585707	-0.05281737
156	0x3be3c910	0.0069514588
157	0x3d15f936	0.03661462
158	0xbc474e0f	-0.012164607
159	0xbe7e8a7b	-0.24857514
160	0xbd36ea02	-0.04465676
161	0x3bf526a9	0.0074814153
162	0x3e1f5cb5	0.15562709
163	0x3e9d6e3d	0.30748168
164	0xbdf41d25	-0.119196214
165	0x3e0293d6	0.12751707
166	0x3cc8d83d	0.024517173
167	0x3e0a5695	0.13509591
168	0xbe45cb84	-0.19315916
169	0xbda807ac	-0.08204588
170	0xbbfadf23	-0.0076559945
171	0x38885e6a	6.502571e-05
172	0x3e58adc9	0.21160044
173	0x3e75d401	0.24006654
174	0x3e0ecf4c	0.13946265
175	0x3e20aaba	0.15690127
176	0xbbd61846	-0.0065336553
177	0x3e825785	0.25457397
178	0xbb8c619c	-0.004284097
179	0xbeb51e59	-0.35374716
180	0x3dd90e8d	0.105984785
181	0xbda9d0c7	-0.08291774
182	0xbd7ccc00	-0.061717987
183	0xbcbba33d	-0.022904987
184	0x3d28e808	0.041236907
185	0xbc9c0004	-0.019042976
186	0xbd5a0a06	-0.053232215
187	0xbe2f43d6	-0.17115721
188	0x3cc06cb1	0.023489328
189	0xbda861a4	-0.082217485
190	0xbe213681	-0.15743448
191	0xbe8338ce	-0.25629276
192	0x3d78f78e	0.06078296
193	0x3db5069f	0.088391535
194	0xbe3c4d8e	-0.1838896
195	0x3e177cf8	0.14793766
196	0xbdf8041c	-0.12110159
197	0xbdfb67cb	-0.12275656
198	0xbe4226eb	-0.18960159
199	0x3e7044f6	0.23463807
200	0xbc8041a8	-0.015656307
201	0x3e0ba517	0.13637196
202	0xbedd292d	-0.43195477
203	0x3e8695b8	0.262861
204	0xbcfd5013	-0.030921971
205	0xbdd2b0c0	-0.10287619
206	0x3e877043	0.26452836
207	0x3e8999fc	0.26875293
208	0xbedb03c2	-0.42776304
209	0x3d8f63cf	0.07001459
210	0xbd31e375	-0.04342981
211	0xbe1a1671	-0.15047623
212	0x3dc56e91	0.096402295
213	0xbec4f42a	-0.38467532
214	0xbd44d025	-0.048050065
215	0xbe911643	-0.28337297
216	0x3e74c5ef	0.2390363
217	0xbcffd012	-0.031227145
218	0x3d9784c2	0.073983684
219	0x3dacc093	0.08435168
220	0x3d766d31	0.060162727
221	0x3d4ecf2f	0.050490554
222	0x3e51bd86	0.20482454
223	0xbd92559e	-0.071452364
224	0x3e1dd84e	0.15414545
225	0x3e45ac86	0.19304094
226	0xbdbf7757	-0.09348934
227	0xbd435d1d	-0.04769622
228	0xbe5db3f5	-0.2165068
229	0xbdd72330	-0.10504758
230	0xbd25b023	-0.04045118
231	0xbcc91cfd	-0.024549956
232	0x3cc1ea4c	0.023671292
233	0x3db4e710	0.08833134
234	0x3d996595	0.07490078
235	0x3e5cca89	0.21561636
236	0xbc2e738d	-0.010647667
237	0x3e466737	0.19375311
238	0xbe0e4870	-0.1389482
239	0xbde95a06	-0.11394124
240	0xbeaa78d6	-0.33295316
241	0xbdd06a0a	-0.10176475
242	0xbe1c8277	-0.15284143
243	0xbe576872	-0.21035936
244	0x3e241308	0.16022885
245	0xbe4fe3fe	-0.20301816
246	0xbe4de3dd	-0.20106454
247	0x3ea4dad2	0.32198197
248	0x3d47b714	0.04875858
249	0x3cfa442d	0.030550087
250	0x3e5f6ece	0.21819612
251	0xbc8fcdc3	-0.01755417
252	0xbd562ba6	-0.05228772
253	0xbde42e9b	-0.11141702
254	0x3cc822c6	0.024430644
255	0xbdc44c85	-0.095849074

network_body._body_endoder.seq_layers.0.bias f4 [256]
0	0x3c3ccec3	0.011523905
1	0xbd584f97	-0.052810278
2	0x3acc4d0d	0.0015586928
3	0x3c0a6a8b	0.008448253
4	0xbc112d7b	-0.008860941
5	0x3ce3711e	0.0277639
6	0xbcf7e893	-0.030262267
7	0x3d285ec4	0.041106
8	0xbd6de0c0	-0.058075666
9	0x3c0f2b3b	0.008738334
10	0xbd1b60c4	-0.03793408
11	0x3d03064e	0.031988434
12	0x3d53b91a	0.0516902
13	0x3d8d1d83	0.068903945
14	0x3d98324a	0.07431467
15	0x3c9f765a	0.019465614
16	0xbc924c3d	-0.017858619
17	0x3cec9168	0.028877929
18	0xbb673e68	-0.0035285
19	0x3cb97e21	0.02264315
20	0x3d5808b1	0.052742664
21	0x3d1b7a9c	0.037958726
22	0xbca4e4da	-0.020128656
23	0xbd4986bf	-0.04920077
24	0x3c57144b	0.013127397
25	0x3d22189f	0.03957426
26	0xb98592c2	-0.0002547708
27	0xbc0df75b	-0.008664931
28	0x3c34b536	0.011029532
29	0x3d313814	0.04326637
30	0x3d436daa	0.047712006
31	0x3d8f1f7d	0.06988428
32	0xbce302cc	-0.027711295
33	0x3d251660	0.04030454
34	0x3bfc1c99	0.007693839
35	0xbd9b830d	-0.07593355
36	0xbc5fd058	-0.013660513
37	0x3d1d1643	0.03835131
38	0x3c876a7f	0.016530273
39	0x3ce04d6b	0.027380666
40	0x3d5ddfea	0.05416862
41	0x3b1bc9a0	0.00237713
42	0x3cb52f55	0.022117296
43	0xba9821bc	-0.0011606733
44	0x3d05cc0c	0.032665297
45	0x3a42a7c9	0.00074255146
46	0x3cc07f72	0.02349827
47	0xbc819a46	-0.015820634
48	0x3ce3028c	0.027711175
49	0xbd1f346f	-0.038868364
50	0xbb9fd97c	-0.004878221
51	0x3d277323	0.040881287
52	0xbcfb0f0d	-0.030646825
53	0x3cee64ad	0.02910074
54	0xbd038cb2	-0.0321166
55	0x3d80538d	0.06265936
56	0x3d979547	0.07401519
57	0xbbfc991e	-0.0077086827
58	0xbcfa8813	-0.030582463
59	0x3be6687a	0.0070314975
60	0x3c1f67a0	0.009729296
61	0xbcdc7bd1	-0.026914509
62	0x3d276fd0	0.040878117
63	0xbd28dcda	-0.041226245
64	0x3d0bdb46	0.034144662
65	0xbcc28ec8	-0.023749724
66	0x3d295b4a	0.041346826
67	0x3c924cb0	0.017858833
68	0x3d8c322f	0.06845509
69	0xbbca8fdc	-0.0061817
70	0xbce891f6	-0.028389912
71	0x3cd3a2c9	0.025834458
72	0x3c956980	0.018238783
73	0x3cde0a97	0.027104659
74	0x3d95ace4	0.07308367
75	0x3c0f2890	0.008737698
76	0xbd19fdd8	-0.0375956
77	0xbd2ee8c9	-0.04270247
78	0xbc3a750e	-0.011380447
79	0xbd88e3d6	-0.06684081
80	0xbb83b239	-0.0040190485
81	0x3c9ffebb	0.019530645
82	0x3c21862e	0.009858651
83	0xbceb9950	-0.028759629
84	0xbcddb7c8	-0.027065173
85	0xbc9cbcbd	-0.019132966
86	0x3c279036	0.010227254
87	0x3d0e8659	0.034796093
88	0x3bc56532	0.0060240263
89	0x3cbf6f8a	0.023368616
90	0x3d2a18dc	0.041527614
91	0x3d4d2937	0.050088134
92	0x3d639b76	0.05556818
93	0xbc8126e5	-0.015765617
94	0x3d6a9fcd	0.057281304
95	0x3d3fbf89	0.04681352
96	0xbd154783	-0.036445152
97	0xbd0ed97b	-0.034875374
98	0x3baaa39a	0.005207491
99	0x3c597f2c	0.013274949
100	0xbc2b368b	-0.010450016
101	0x3c9d8141	0.019226672
102	0x3ab38fb7	0.0013699447
103	0x3cb98d50	0.02265039
104	0x3c63e2ce	0.013909055
105	0xbc31fc5d	-0.010863391
106	0x3d097ec4	0.03356816
107	0x3c2d2c0b	0.010569583
108	0x3c987027	0.018608166
109	0x3bfa0ef8	0.007631179
110	0x3c82579d	0.015910918
111	0x3cfdfed2	0.031005297
112	0x3c80fc59	0.015745329
113	0x3c4af3e1	0.012387247
114	0xbbc2d310	-0.0059455708
115	0x3c78c413	0.0151834665
116	0xbb5957c7	-0.0033163892
117	0x3c864f59	0.016395258
118	0x3bfc162d	0.0076930732
119	0x3c8375d6	0.0160474
120	0xbd05845f	-0.032596942
121	0x3b9fc6d4	0.004875997
122	0x3a1ad358	0.00059061265
123	0xbbedde68	-0.007259179
124	0xbc08a895	-0.008340974
125	0xbcaaa65f	-0.020831285
126	0x3d260b3e	0.040538065
127	0xbd8a4209	-0.067508765
128	0x3ca219fb	0.01978778
129	0xbd9769a0	-0.07393193
130	0x3d3a8e70	0.045545995
131	0xbaba9c99	-0.0014237344
132	0x3ceba041	0.028762938
133	0x3c014b4e	0.007891489
134	0x3cc04ee0	0.02347511
135	0x3d5e2b7e	0.054240696
136	0xbcb53adb	-0.022122791
137	0x3c229556	0.0099233
138	0xbcd6d083	-0.026222473
139	0xbb31bfce	-0.002712238
140	0x3d747959	0.05968604
141	0x3c89d470	0.01682493
142	0x385aaa8e	5.213409e-05
143	0xbc471118	-0.012150072
144	0xbd5ab317	-0.05339345
145	0xbd4ce71b	-0.050025087
146	0xbc282e33	-0.010264921
147	0xbd32cd14	-0.04365261
148	0xbd09287b	-0.03348587
149	0xbc3901d1	-0.011291937
150	0xbd5f6512	-0.054539748
151	0xbcb43d7f	-0.02200198
152	0xbd04469d	-0.032293905
153	0xbca1d248	-0.01975359
154	0x3cca0082	0.024658445
155	0x3d6d9086	0.057999156
156	0xbcf33373	-0.029687619
157	0xbc7f39ff	-0.015577792
158	0xbc056cc1	-0.008143605
159	0x3c98b860	0.018642604
160	0x390a154d	0.0001316864
161	0x3d903c9a	0.07042809
162	0xbcfb772a	-0.03069647
163	0x3d0df13a	0.03465388
164	0xb99d6382	-0.00030019513
165	0x3cf9fbde	0.030515607
166	0xbc00141e	-0.007817296
167	0xbcc927cd	-0.024555111
168	0xbc7698d0	-0.015051082
169	0xbcf6be73	-0.03012011
170	0xbd3a946b	-0.0455517
171	0x3b715293	0.00368229
172	0x3d7d2374	0.06180139
173	0x3c95599d	0.018231208
174	0x3ca55167	0.020180417
175	0x3d2dc342	0.04242254
176	0x3d59bb77	0.053157296
177	0x3cd5862f	0.02606496
178	0xbcbbd80c	-0.022930168
179	0x3cdca234	0.026932813
180	0x3b9959f5	0.004679913
181	0xbccad225	-0.024758408
182	0xbcd45012	-0.025917087
183	0xbccd1a39	-0.025036918
184	0xbc5b2a35	-0.013376762
185	0x3d056a95	0.032572348
186	0xba4dee92	-0.0007855679
187	0xbc96db98	-0.018415257
188	0x3cd2ce0a	0.025733013
189	0xbcf34c9b	-0.029699614
190	0xbd117ef3	-0.03552146
191	0x3cb8fb4e	0.022580769
192	0x3da65393	0.08121409
193	0x3c981ceb	0.018568477
194	0x3d512546	0.051060937
195	0x3e0925de	0.13393351
196	0x3d5abf71	0.05340523
197	0xbd0b9053	-0.034073185
198	0xbba5dae3	-0.0050614937
199	0x3c3aa6cb	0.011392306
200	0xb9f9e368	-0.00047662412
201	0xbd276d49	-0.040875707
202	0xbda32ad9	-0.07967157
203	0x3d11cdf1	0.03559679
204	0x3c7fdacf	0.015616133
205	0xbcf47513	-0.029840982
206	0x3be8ee06	0.0071084527
207	0x3c230861	0.009950728
208	0x3c199363	0.009373519
209	0x3db9e210	0.09076321
210	0xbcd08d88	-0.025458112
211	0x3d6f5634	0.05843182
212	0xbcf67572	-0.0300853
213	0xbc0054ab	-0.007832686
214	0xbb1c73cf	-0.0023872738
215	0x3d42f547	0.047597196
216	0xbc45f95f	-0.0120833805
217	0x3ca0a7d2	0.019611273
218	0x3d19e43b	0.037571173
219	0x3ce76a87	0.028249038
220	0xbcb8df9e	-0.022567566
221	0xbd988990	-0.07448113
222	0x3c79b5c8	0.015241094
223	0x3c2a83d6	0.010407409
224	0x3d9d0498	0.07666892
225	0x3d28e7db	0.04123674
226	0xbc1d4432	-0.009598779
227	0x39d48175	0.00040532244
228	0x3cf69e21	0.030104699
229	0x3cd5d0dc	0.026100568
230	0x3d985cf9	0.07439608
231	0x3aca6ae4	0.0015443233
232	0x3cc1e540	0.023668885
233	0x3d37ae5d	0.04484402
234	0x3dead9e9	0.11467344
235	0x3d30916e	0.043107443
236	0xbd368b57	-0.04456648
237	0x3d446809	0.04795078
238	0x3d3cd065	0.046097178
239	0xbcfb1f7d	-0.030654663
240	0x3d0d4fc7	0.03449991
241	0x3d340d02	0.043957718
242	0xbd5c1eaa	-0.05374018
243	0x3da63dc6	0.08117251
244	0x3adf2912	0.001702579
245	0x3cd3eb51	0.025869044
246	0x3c9e08c3	0.019291287
247	0x3d48bdb0	0.049009025
248	0x3d9486a2	0.07252242
249	0x3cda7706	0.026668083
250	0x3cdbff97	0.026855273
251	0x3ccfe7e6	0.025379132
252	0xbc8aa0bf	-0.016922353
253	0x3d758af7	0.05994698
254	0xbcee06ad	-0.029055918
255	0x3d437d14	0.047726706

network_body._body_endoder.seq_layers.2.weight f4 [256, 256]
0	0xbcadc064	-0.021209903
1	0x3dab3ce4	0.08361223
2	0x3d023e02	0.031797417
3	0x3d6b6ca7	0.057476666
4	0xbc9b7a57	-0.018979235
5	0xbe017e32	-0.12645796
6	0xbdd05ae3	-0.10173585
7	0x3c9d8e17	0.019232793
8	0xbdcb3fed	-0.09924302
9	0x3d24a511	0.040196482
10	0xbd90f396	-0.0707771
11	0xbe17c5b8	-0.14821517
12	0x3d8d433b	0.06897589
13	0x3d0b1209	0.033952747
14	0x3d4070db	0.046982627
15	0xbdc0a505	-0.09406475
16	0x3dd205a5	0.10254983
17	0x3d368c73	0.044567537
18	0x3da4d70d	0.0804883
19	0xbcd81093	-0.02637509
20	0xbd352a74	-0.04422994
21	0x3c6d7a9e	0.014494566
22	0xbd322fd3	-0.04350264
23	0x3d5a1195	0.053239424
24	0x3e0b8f95	0.13628991
25	0xbd2bfb9f	-0.04198801
26	0xbd2fb2d1	-0.042895142
27	0xbdbc6f01	-0.0920086
28	0x3dc32698	0.095288455
29	0x3e190aaa	0.14945474
30	0xbd226b4d	-0.03965311
31	0xbd5ee9c8	-0.05442217
32	0x3cf4a139	0.029862033
33	0xbb2ead02	-0.0026653414
34	0xbdce5051	-0.10073913
35	0x3bbc58d6	0.0057478948
36	0x3c975fa6	0.018478226
37	0xbd88a4c6	-0.06672053
38	0xbda2e938	-0.07954639
39	0xbc69755b	-0.014249171
40	0xbd857e47	-0.06518226
41	0x3d1db139	0.03849909
42	0x3e16d0ac	0.1472804
43	0x3d28447a	0.04108093
44	0x3d7cc8ec	0.06171505
45	0xbd4e097e	-0.05030202
46	0x3de0e4fc	0.10981175
47	0x3d31afb0	0.04338044
48	0x3ccc66ec	0.02495142
49	0x3cbc398c	0.02297666
50	0xbdf11d93	-0.11773219
51	0xbc6ceecd	-0.014461231
52	0x3b0fff05	0.0021972072
53	0xbd2d38d5	-0.042290527
54	0xbe2b5078	-0.16729915
55	0xbcbea1f2	-0.02327058
56	0xbd3cecc4	-0.046124235
57	0x3ccf5555	0.025309244
58	0x3e0c463b	0.13698666
59	0xbc79a43e	-0.015236912
60	0x3db9bc54	0.09069124
61	0x3dd5e263	0.104435705
62	0x3cd89e28	0.026442602
63	0x3d4a9aa1	0.049463872
64	0xbba192a9	-0.0049308133
65	0x3c09e3aa	0.008416096
66	0x3d1977ae	0.03746765
67	0xbdf238a0	-0.118272066
68	0xbc213d17	-0.009841225
69	0x3d9aa604	0.07551196
70	0xbd53eb75	-0.05173822
71	0xbd7b5f4f	-0.06137019
72	0xbc4110c7	-0.011783785
73	0xbdf39ad0	-0.118947625
74	0xbd4f0152	-0.05053837
75	0xbe05f04f	-0.13079952
76	0x3a921574	0.001114531
77	0x3da9ba76	0.08287518
78	0x3d3c161e	0.04591953
79	0xbd1bd172	-0.03804154
80	0x3d02c7f7	0.031928983
81	0xbcd198ed	-0.025585616
82	0x3e0eace2	0.13933137
83	0x3bdbfa8f	0.0067132185
84	0x3dda82ca	0.10669477
85	0xbdc7c692	-0.09754671
86	0x3d8e3cc1	0.06945182
87	0xbd787160	-0.060654998
88	0xbc9f346f	-0.019434182
89	0xbddf5e0c	-0.1090661
90	0xbd6bfb3d	-0.057612646
91	0x3d51d596	0.051229082
92	0x3b4d7e7c	0.0031355908
93	0x3d819047	0.06326347
94	0x3d691cbe	0.056912176
95	0x3e39b8c0	0.18136883
96	0xbd65563c	-0.055990443
97	0x3e165131	0.1467941
98	0xbbb30877	-0.0054636556
99	0xbceaf063	-0.028679078
100	0xbd65fbe4	-0.056148425
101	0x3c53de93	0.012931484
102	0x3e287ced	0.16453905
103	0x3dc92259	0.098210044
104	0x3c44d433	0.012013483
105	0xbd8e59ce	-0.06950723
106	0xbdba2090	-0.09088242
107	0x3db39636	0.08768885
108	0x3ddb2df0	0.10702121
109	0x3e0fc772	0.14040926
110	0xbdabdcf6	-0.08391754
111	0xbca6e83f	-0.020374415
112	0xbb88602a	-0.0041618543
113	0xbd077870	-0.033073843
114	0xbdda6d03	-0.106653236
115	0x3dc9699f	0.09834599
116	0x3c4df0e5	0.012569641
117	0xbcc227a4	-0.023700543
118	0xbe00b626	-0.12569484
119	0xbac0b65c	-0.0014702785
120	0xbd6b7e40	-0.05749345
121	0xbcec49c2	-0.028843764
122	0xbd88820e	-0.06665431
123	0xbdc269c8	-0.094928324
124	0x3c9ce1ad	0.01915058
125	0xbcbd68a5	-0.023121187
126	0x3b5dd2cc	0.0033847569
127	0xbd20bd68	-0.039243132
128	0xbda8387e	-0.082139
129	0x3d965068	0.07339555
130	0x3c8e8ba1	0.017400565
131	0xbd1f837f	-0.038943764
132	0xbd32a8f1	-0.043618146
133	0xbd21407c	-0.039368138
134	0x3c588a6f	0.013216599
135	0x3df0b184	0.117526084
136	0x3a852eec	0.0010161079
137	0x3d9eeae1	0.07759643
138	0x3d7df8e7	0.06200495
139	0xbca3a36d	-0.019975388
140	0x3dedd0e4	0.11612108
141	0x3d3a3c1c	0.04546748
142	0x3d8e84fd	0.06958959
143	0x3d9d56ca	0.07682569
144	0xbd84945c	-0.0647361
145	0x3e174f97	0.14776455
146	0xbde8173a	-0.11332555
147	0x3dc2e677	0.09516614
148	0xbce572ed	-0.028008902
149	0xbb61b4e1	-0.0034440088
150	0xbd1f5951	-0.03890354
151	0xbdeb3246	-0.11484198
152	0x3ad5afae	0.0016302967
153	0x3cd601c0	0.026123881
154	0x3a0d133e	0.00053815905
155	0xbd423100	-0.04741001
156	0xbd5ee00a	-0.05441288
157	0x3d53ce55	0.051710445
158	0xbd8f5593	-0.06998744
159	0xbc830811	-0.015995057
160	0xbcfbe1e3	-0.03074736
161	0xbd386807	-0.045021083
162	0x3d2c914b	0.04213075
163	0xbc02deda	-0.007987702
164	0x3d78a56d	0.060704637
165	0x3e017335	0.12641604
166	0xbda199a8	-0.07890636
167	0x3d0ce9f3	0.0344028
168	0x3ce4b15c	0.027916603
169	0x3df34927	0.11879187
170	0x3d7c6405	0.061618824
171	0x3bb1f9cc	0.0054313894
172	0xbdb53b43	-0.08849194
173	0x3a44c259	0.00075057667
174	0x3d256261	0.040377025
175	0x3d8b920a	0.06814964
176	0x3e0da947	0.13834105
177	0x3c718d40	0.014743149
178	0xbd0336dd	-0.032034744
179	0xbdb99fe1	-0.090636976
180	0x3c795cde	0.015219895
181	0xbe218d99	-0.15776671
182	0x3db54f94	0.08853069
183	0xbd426531	-0.047459785
184	0x3e3cb2b2	0.18427542
185	0xbde82933	-0.11335983
186	0xbc694741	-0.01423818
187	0x3dc2ef85	0.09518341
188	0x3d76bfd1	0.060241524
189	0x3e282895	0.16421731
190	0xbda8afdb	-0.08236667
191	0xbb8c1e12	-0.0042760456
192	0xbdeadbff	-0.11467742
193	0x3c433a8a	0.011915812
194	0x3c55cdac	0.013049524
195	0x3dd911d4	0.105991036
196	0x3bed6480	0.0072446465
197	0xbcef307b	-0.029197922
198	0xbe2b423b	-0.16724484
199	0xbccf5bd7	-0.025312347
200	0xbdfe2687	-0.12409692
201	0xbd931cd0	-0.0718323
202	0xbdd0f64c	-0.102032274
203	0xbcc82395	-0.02443103
204	0xbd9a711d	-0.07541106
205	0xbd7deb9e	-0.06199228
206	0x3e146ba3	0.14494185
207	0xbe13de80	-0.14440346
208	0xbcbef0c3	-0.023308164
209	0x3c5ec9ed	0.013597948
210	0xbdd10f9e	-0.10208057
211	0x3d77ba8b	0.060480636
212	0x3d290c7e	0.04127168
213	0xbd82c6ed	-0.06385598
214	0x3c9d8e2c	0.019232832
215	0xbcab06e1	-0.020877304
216	0x3dbf938d	0.09354315
217	0xbdd53014	-0.10409561
218	0x3d86bf5d	0.065794684
219	0xbe01e397	-0.12684475
220	0xbd04a646	-0.032385133
221	0xbdaeeb64	-0.08540991
222	0xbda50e1b	-0.08059331
223	0xbc507357	-0.012722812
224	0x3d4655c3	0.048421632
225	0xbde7f02e	-0.113251075
226	0xbe31ebc6	-0.17375097
227	0x3d122b43	0.03568579
228	0x3db0e27d	0.08636949
229	0xbbed98d2	-0.0072508836
230	0xbd4e3f4f	-0.050353345
231	0xbd23664f	-0.03989249
232	0xbd7eeee1	-0.06223953
233	0x3dc7f482	0.09763433
234	0xbd70fd7a	-0.058835484
235	0x3d6e774d	0.058219243
236	0xbd89efaa	-0.067351654
237	0xbd87c045	-0.066284694
238	0x3e074a60	0.13211966
239	0x3ca7f4de	0.020502504
240	0xbdf78eaa	-0.12087758
241	0x3c855cab	0.01627954
242	0xbd992c74	-0.07479182
243	0xbbeccce1	-0.007226572
244	0xbe452b31	-0.19254757
245	0xbc3e35b9	-0.011609488
246	0xbdac206e	-0.08404623
247	0x3d977437	0.07395213
248	0xbd8a0b46	-0.067404315
249	0xbd1bf768	-0.03807774
250	0x3ca4f864	0.020137973
251	0x3d38b91b	0.045098405
252	0xbbc57def	-0.0060269753
253	0x3d2174cf	0.039418038
254	0xbd036c65	-0.032085795
255	0xbca86e86	-0.020560514

network_body._body_endoder.seq_layers.2.bias f4 [256]
0	0x3c0d1635	0.008611252
1	0xbc326440	-0.010888159
2	0x3c8a8af0	0.016911954
3	0x3d007bff	0.031368252
4	0x3d838e44	0.064236194
5	0x3cac3431	0.02102098
6	0x3c451264	0.01202831
7	0x3c93eda7	0.018057657
8	0x3d33dfb8	0.043914527
9	0x3cfa566d	0.03055879
10	0x3bfcee48	0.007718835
11	0xbd13a1bc	-0.036042914
12	0xbd3da1d9	-0.046296928
13	0x3cc5743e	0.02410328
14	0xbcf98541	-0.030459048
15	0xbc45f3f2	-0.012082087
16	0x3c14a7ca	0.009073207
17	0x3ab3c9d4	0.0013716766
18	0x3d9a5ebf	0.07537603
19	0x3d025021	0.031814698
20	0xbac0fd32	-0.0014723896
21	0x3d2f9d68	0.042874724
22	0x3c802533	0.015642738
23	0x3ba1eb46	0.004941377
24	0xbd02345c	-0.031788215
25	0xbc0c3789	-0.0085581625
26	0x3cb27560	0.021784484
27	0x3d2ff9dd	0.042962898
28	0xbd9cf2b6	-0.07663481
29	0x3b9c35ba	0.004767147
30	0x3c20a6d7	0.009805403
31	0x3ce25d8c	0.027632497
32	0xbc5dd8c4	-0.0135404505
33	0xbd85d21a	-0.06534214
34	0xbd136783	-0.03598739
35	0x3d1c3234	0.038133815
36	0xbd55ac39	-0.052166197
37	0x3cce74ef	0.025202243
38	0xbd579570	-0.05263275
39	0x3d6cea2b	0.057840507
40	0xbd8aec11	-0.06783307
41	0xbda1a53d	-0.07892845
42	0x3cc49018	0.02399449
43	0x3cd274d2	0.02569047
44	0x3c73d5bf	0.014882504
45	0xbd7619a2	-0.06008304
46	0x3d1907da	0.037361003
47	0x3ccae27c	0.0247662
48	0xbcee59b7	-0.029095514
49	0x3aad8883	0.0013239536
50	0x3d7eb9e6	0.062189005
51	0xbcd001ef	-0.025391547
52	0x3c2cfb64	0.010557983
53	0xbcb904c1	-0.022585275
54	0x3ca85e0f	0.020552663
55	0x3cca05ae	0.024660911
56	0x3d78f5b9	0.060781214
57	0x3b1e79cb	0.002418148
58	0xbd64a7f4	-0.055824235
59	0xbd0d80ce	-0.034546666
60	0x3c1ebb7a	0.009688253
61	0x3b9bc927	0.004754204
62	0x3be539f4	0.006995434
63	0xbb992df1	-0.004674666
64	0xbd0be31c	-0.034152135
65	0x3c21f575	0.009885182
66	0xbd17155c	-0.036885604
67	0xbbac4c42	-0.005258114
68	0xbceaf3a7	-0.028680636
69	0x3d893982	0.06700422
70	0x3c715d29	0.014731684
71	0xbc0b70be	-0.008510767
72	0x3d0a6b93	0.033793997
73	0x3cccdb92	0.025007043
74	0x3b800eed	0.0039080293
75	0x3bcceeec	0.0062540676
76	0x3cfd98ec	0.030956708
77	0xbc30c725	-0.010789667
78	0x3c809a52	0.015698586
79	0x3c97e4fd	0.018541807
80	0xbcd5f1f7	-0.026116354
81	0xbc85158c	-0.016245626
82	0x3bf4b4ff	0.0074678655
83	0x3c12f7b1	0.008970187
84	0x3c8b28bc	0.016987197
85	0x3cfb16f4	0.030650593
86	0xbd1fbd7d	-0.03899907
87	0x3c8dd727	0.017314507
88	0xbca8008b	-0.020508071
89	0x3b4db4ba	0.003138824
90	0xbd2ef2a3	-0.042711865
91	0xbae4ebde	-0.0017465313
92	0x3d9603ef	0.07324969
93	0xbcb83db3	-0.022490358
94	0xba45268a	-0.00075206964
95	0xbb6088a9	-0.0034261143
96	0x3ce65a15	0.028119126
97	0x3c95ec82	0.018301252
98	0xba457637	-0.0007532569
99	0x3d2ec55f	0.042668696
100	0x3cb6c201	0.022309305
101	0xbc3e022f	-0.0115972
102	0xbcaccc0d	-0.021093393
103	0x3d1a51ad	0.03767555
104	0x3b22e941	0.0024858268
105	0x3c204eae	0.009784384
106	0x3d0ae944	0.033913866
107	0x3b10cb2e	0.002209376
108	0x3c89b018	0.0168076
109	0x3b64d704	0.0034918198
110	0x3d064d7d	0.032788742
111	0x3d44244e	0.047886185
112	0xbbc8d6fb	-0.0061291433
113	0x3c985c3c	0.018598668
114	0x3d6dc9bc	0.058053717
115	0xbc583d83	-0.013198259
116	0xbcc16559	-0.023607897
117	0xbd8f414c	-0.06994876
118	0xbc89e62e	-0.016833391
119	0xba73731e	-0.0009286868
120	0xbcb15a53	-0.021649515
121	0xbd70a79d	-0.0587536
122	0xbc98325e	-0.018578704
123	0x3d5db8a0	0.05413115
124	0x3cd8e0d7	0.0264744
125	0xbc4a93c3	-0.012364331
126	0x3ce1a538	0.027544603
127	0x3cd4d9a3	0.025982684
128	0x3d476339	0.04867861
129	0x3da13a6e	0.07872473
130	0xbc1b0559	-0.009461724
131	0xbc71656e	-0.014733655
132	0x3caafdb9	0.020872938
133	0xbd008129	-0.031373177
134	0x3d44bcc0	0.04803157
135	0xba09899d	-0.0005246641
136	0xbb846aaa	-0.0040410357
137	0x3c9964c0	0.0187248
138	0x3becc6f5	0.007225866
139	0x3d8156a3	0.06315353
140	0x3c7c2cbe	0.015391527
141	0x3d5feedc	0.054671153
142	0x3c16a038	0.009193473
143	0x3b1a393b	0.0023532647
144	0x3c958a1d	0.018254334
145	0x3c0f02ad	0.008728665
146	0xbc29f622	-0.010373624
147	0x3c08c988	0.00834883
148	0x3d6d4b01	0.057932857
149	0x3d4f29e6	0.050577067
150	0xbbc87db8	-0.0061185025
151	0x3d2f702f	0.042831596
152	0x3d0dac86	0.03458836
153	0xbc16a792	-0.009195225
154	0xbc96c344	-0.018403657
155	0x3da08b90	0.078391194
156	0x3dade705	0.08491329
157	0xbcddeec0	-0.027091384
158	0x3b9f7e1d	0.004867329
159	0x3cc401c1	0.023926618
160	0xbd7d7d12	-0.061886854
161	0xbd06938d	-0.03285556
162	0x3bb128fc	0.005406497
163	0xbc840fd0	-0.016120821
164	0x3d10b191	0.03532559
165	0x3cccc465	0.024995992
166	0x3cb91630	0.022593588
167	0x3c2c13cd	0.010502768
168	0x3c7374ab	0.014859359
169	0x3ab68f93	0.0013928286
170	0xbcfc2f84	-0.030784376
171	0x3c01013d	0.00787383
172	0x3db12b74	0.08650866
173	0x3a806606	0.000979603
174	0x3d2d6e9e	0.04234182
175	0x3bc92c9f	0.0061393525
176	0xba06c389	-0.00051408313
177	0xbccd7843	-0.02508176
178	0xbc849075	-0.016182164
179	0xbc22962f	-0.009923502
180	0x3c6d85c6	0.014497226
181	0xbbce63fc	-0.00629854
182	0x3d6bfc13	0.057613444
183	0x3c18ad16	0.009318611
184	0x3ba49c74	0.0050235335
185	0xba81997b	-0.000988766
186	0x3da66e5d	0.08126519
187	0x3d8bf583	0.06833937
188	0x3cac02af	0.020997373
189	0xbbc6170b	-0.0060452274
190	0xbc882aee	-0.016622033
191	0x3d6bcacb	0.057566445
192	0x3d5e08d2	0.05420763
193	0xbcc3b02f	-0.023887722
194	0x3dd9c0e6	0.106324956
195	0xbd08723a	-0.03331206
196	0x3d3e00c6	0.046387456
197	0x3c821c64	0.015882678
198	0x3b654251	0.0034982155
199	0xbc5dd7da	-0.013540233
200	0x3cb13728	0.021632746
201	0x3cf5640f	0.029954938
202	0x3c842ebf	0.016135572
203	0x3d72e8a0	0.05930388
204	0x3d96ea19	0.07368869
205	0x3d644ee3	0.055739295
206	0xbbcf1950	-0.006320156
207	0xbbd3465a	-0.0064475955
208	0x3ca9cb5b	0.02072685
209	0x3c72cd40	0.014819443
210	0x3cd2e56c	0.025744162
211	0xbbda8bc8	-0.0066694953
212	0x3d62f2e5	0.055407424
213	0x3d22ef0b	0.03977875
214	0x3d15d051	0.03657562
215	0xbc59ce88	-0.01329387
216	0xbc193e38	-0.009353213
217	0xbc149633	-0.009069013
218	0x3d5236ae	0.051321678
219	0x3d475e68	0.048674017
220	0x3d43f7d1	0.047843758
221	0x3d2d6ffa	0.042343117
222	0x3d618dc9	0.055066857
223	0xbd0814ca	-0.03322295
224	0x3c82887e	0.015934225
225	0xbc5db177	-0.01353108
226	0x3b51e79c	0.003202892
227	0xbd502c93	-0.05082376
228	0xbbb97066	-0.005659151
229	0xbca79df4	-0.02046106
230	0x3d66e34f	0.056369122
231	0x3d03e8ec	0.032204553
232	0x3b354738	0.0027660858
233	0x3cd9859c	0.026552968
234	0x3db407a0	0.08790517
235	0xbc670b4c	-0.0141018145
236	0x3cd9e2fe	0.026597496
237	0x3cd56b5e	0.026052173
238	0xbb41dd9e	-0.0029581557
239	0xbd054b26	-0.03254237
240	0x3d16c674	0.036810353
241	0xbbe7c382	-0.007072867
242	0x3d234f74	0.039870694
243	0x3c4a386e	0.012342555
244	0x3a76dac8	0.0009416756
245	0xbaafac83	-0.0013402853
246	0xbcde2de7	-0.027121497
247	0x3bfd1318	0.0077232234
248	0xbd4894fb	-0.048970204
249	0xbd09ca35	-0.033640105
250	0x3d07fe3b	0.033201437
251	0xbd8e0388	-0.06934267
252	0x3cc05a1d	0.02348047
253	0xbc56efcb	-0.013118695
254	0xbbb32544	-0.005467089
255	0x3d744391	0.05963475

network_body._body_endoder.seq_layers.4.weight f4 [256, 256]
0	0xbcc84183	-0.0244453
1	0x3da21776	0.07914631
2	0xbda22f53	-0.07919183
3	0xbdd00813	-0.1015779
4	0xbc894fa1	-0.016761603
5	0xbe220a8f	-0.1582434
6	0xbd0ed2b7	-0.034868922
7	0x3d032ef8	0.032027215
8	0xbd3e44a3	-0.046452176
9	0xbd445c0e	-0.047939353
10	0xbd85b3fd	-0.06528471
11	0xbd74dc7b	-0.05978058
12	0xbd8a6096	-0.067567036
13	0xbdaa4d44	-0.083155185
14	0xbc7a143c	-0.015263613
15	0x3d70168b	0.05861525
16	0xbdab4f8f	-0.08364784
17	0x3c953e19	0.018218087
18	0xbc5a9bfc	-0.013342854
19	0x3d808d15	0.06276909
20	0xbd3b7d80	-0.045773983
21	0xbd4c7084	-0.04991199
22	0xbc22371e	-0.009900836
23	0x3de55928	0.11198646
24	0x3db7c2f7	0.089727335
25	0x3c7197bd	0.01474565
26	0x3d3a95ad	0.0455529
27	0x3d421929	0.047387276
28	0x3da4e09a	0.08050652
29	0xbbdc712e	-0.0067273593
30	0xbb71a6df	-0.0036873145
31	0x3d20081b	0.03907023
32	0xbce25df9	-0.0276327
33	0xbd510851	-0.05103332
34	0xbdfe219f	-0.124087565
35	0xbcbd051a	-0.023073722
36	0xbcf53a51	-0.029935034
37	0xbe1b4a30	-0.15165019
38	0x3df88b06	0.121358916
39	0x3d1c0f0c	0.038100287
40	0x3d82aa0f	0.06380092
41	0x3e145e96	0.14489207
42	0x3ca32f24	0.01991994
43	0xbd0e7718	-0.034781545
44	0xbd4e0f1b	-0.050307374
45	0xbd30ad83	-0.043134224
46	0xbcd270b2	-0.025688503
47	0xbd56d555	-0.052449543
48	0xbd7db4bb	-0.061939936
49	0xbd1f852a	-0.038945355
50	0x3d2b312f	0.041794952
51	0x3d96777c	0.073470086
52	0x3c96b287	0.018395675
53	0x3d3638fd	0.044487942
54	0x3dc9805b	0.09838935
55	0xbd829e80	-0.06377888
56	0xbddb31df	-0.107028715
57	0xbd938bc7	-0.07204395
58	0x3da1e809	0.07905585
59	0xbd83fea9	-0.06445057
60	0x3d25daa6	0.040491723
61	0xbcd1a4b5	-0.025591234
62	0x3caa1a12	0.020764384
63	0x3d87d614	0.06632629
64	0xbdfab29d	-0.12241099
65	0xbbdb5c28	-0.0066943355
66	0xbe10427e	-0.14087865
67	0xbdd845f2	-0.10560216
68	0x3c9c59ba	0.019085754
69	0xbdd2ed76	-0.10299198
70	0xbd077ad9	-0.03307614
71	0x3e07db2d	0.13267203
72	0x3bc5d41d	0.0060372488
73	0xbd2c155c	-0.042012557
74	0x3c101534	0.008794118
75	0x3d869529	0.06571419
76	0xbd247d74	-0.040158704
77	0xbded9f6f	-0.11602675
78	0x3a4dc9d1	0.00078502024
79	0x3d910674	0.07081309
80	0x3dcb7c82	0.09935857
81	0x3e41f41b	0.18940775
82	0x3ca5a418	0.020219848
83	0x3bb8f7a2	0.0056447545
84	0x3cf86bc8	0.030324832
85	0xbd3f1143	-0.04664732
86	0xbd9c752c	-0.07639536
87	0x3c27b80f	0.010236754
88	0x3ac49327	0.0014997468
89	0x3d5efbf0	0.054439485
90	0x3c27d387	0.010243303
91	0xbdb7124e	-0.08939038
92	0x3e3bedc0	0.18352413
93	0xbd9918e5	-0.074754514
94	0xbd3f6bb9	-0.04673359
95	0x3ce4f069	0.027946668
96	0x3dd3a753	0.10334649
97	0x3ac9c85e	0.0015394797
98	0xbd21d219	-0.039507005
99	0x3d392717	0.045203295
100	0x3cc4461a	0.023959208
101	0x3daca005	0.08428959
102	0x3d63d86e	0.055626325
103	0x3c98d56c	0.018656455
104	0x3dc34961	0.0953548
105	0xbb4538d9	-0.0030093698
106	0xbcb17d33	-0.021666145
107	0x3a4f8d49	0.00079174765
108	0x3bfba267	0.007679272
109	0x3e04ea9d	0.12980123
110	0x3cd56aeb	0.026051959
111	0x3e12df97	0.14343105
112	0x3bfd3663	0.0077274307
113	0x3e00b597	0.12569271
114	0x3cc6e998	0.024281308
115	0xbdb3c384	-0.08777526
116	0x3c410859	0.011781775
117	0x3c5b2fe5	0.013378118
118	0xbd8cbe46	-0.06872229
119	0xbdeb61e2	-0.11493279
120	0x3c831e48	0.01600565
121	0x3d5c193e	0.05373501
122	0xbdab55e9	-0.083659954
123	0x3d83bab6	0.06432097
124	0x3d0f247a	0.034946896
125	0x3d2a819e	0.04162752
126	0x3dc20929	0.094744034
127	0x3db371dd	0.08761952
128	0x3dbcc5b9	0.092174
129	0x3b647465	0.0034859416
130	0xbbba6a31	-0.0056889285
131	0x3d6c4186	0.057679676
132	0xbc577090	-0.013149396
133	0x3c282fb9	0.010265284
134	0xbc6432a1	-0.0139280865
135	0xbdc4eae9	-0.09615118
136	0x3dbbb81c	0.091659755
137	0x3d74151c	0.059590444
138	0xbd37f8e1	-0.044915084
139	0xbc6a063d	-0.014283714
140	0x3df50e25	0.119655885
141	0x3cd9e38a	0.026597757
142	0xbe1e1332	-0.1543701
143	0x3ca92011	0.020645173
144	0xbdc254ea	-0.09488852
145	0xbd53f157	-0.05174383
146	0x3d776976	0.06040331
147	0x3dcc1b44	0.09966138
148	0xbcca9ea0	-0.024733841
149	0x3da8a97c	0.082354516
150	0xbdaca156	-0.0842921
151	0x3d83873f	0.064222805
152	0xbcb85d4b	-0.022505423
153	0x3d4291b5	0.04750224
154	0xbcf43ba0	-0.029813588
155	0xbd7ef99d	-0.06224977
156	0x3daf4439	0.08557934
157	0xbd849f28	-0.06475669
158	0x3cab8342	0.020936612
159	0xbde924e5	-0.1138399
160	0x3e2fd4ef	0.17171071
161	0xbe025f67	-0.12731706
162	0x3d6ef283	0.058336746
163	0xbd5fcaf3	-0.054636907
164	0xbe07d24d	-0.13263817
165	0x3de59ebf	0.11211919
166	0x3c372548	0.011178322
167	0xbe00f313	-0.12592725
168	0xbbb1bc1e	-0.0054240366
169	0xbb5e06fd	-0.0033878677
170	0xbcd1d851	-0.025615843
171	0xbd6e9834	-0.05825062
172	0xbd8eb999	-0.06968994
173	0x3d908ed5	0.07058493
174	0x3bb30791	0.0054635485
175	0xbe6485ec	-0.22316712
176	0xbd98cdbf	-0.07461118
177	0x3d7d6413	0.061863016
178	0xbd229443	-0.039692175
179	0x3c60b4cf	0.013714983
180	0xbd744d4c	-0.05964403
181	0x3c35f545	0.01110584
182	0x3d110c65	0.03541221
183	0xbd659221	-0.056047563
184	0x3dca9602	0.09891893
185	0x3d421178	0.04737994
186	0x3d41f3bb	0.04735158
187	0x3e29dcfc	0.16588205
188	0x3a367097	0.0006959526
189	0x3d7ccfc0	0.061721563
190	0xbd46a0d7	-0.048493233
191	0x3d917b10	0.071035504
192	0xbd176569	-0.036961947
193	0xbdff01ce	-0.12451516
194	0xbd26e60a	-0.040746726
195	0xbbc408ed	-0.0059825093
196	0x3de09754	0.109663635
197	0xbdb762be	-0.089543805
198	0x3d9763ad	0.073920585
199	0x3bbaf6cb	0.0057056895
200	0xbda0db5d	-0.0785434
201	0x3bd8ad00	0.00661242
202	0xbacd3324	-0.00156555
203	0x3c55814f	0.013031318
204	0xbcf5df1a	-0.03001361
205	0xbe112728	-0.14175093
206	0xbc28dd2d	-0.010306639
207	0x3da5a66f	0.08088385
208	0xbc49ae7f	-0.0123096695
209	0xbe1e5466	-0.15461883
210	0xbdafbdda	-0.08581133
211	0x3d15201f	0.036407586
212	0xbd62e1db	-0.055391174
213	0x3dc79b1b	0.09746381
214	0xbdf68e59	-0.120388694
215	0x3d645f9a	0.055755235
216	0xbdc67533	-0.09690323
217	0x3ca91499	0.020639705
218	0xbd3be3e1	-0.04587162
219	0xbd8521e1	-0.065006025
220	0x3d19b9de	0.037530772
221	0xbc02f8ca	-0.007993886
222	0x3be74472	0.00705772
223	0x3cc61bcd	0.024183178
224	0xbd9b7af5	-0.075918116
225	0x3c9ece80	0.019385576
226	0xbb5e90f1	-0.0033960904
227	0xbd2af17a	-0.041734196
228	0xbdb31486	-0.08744149
229	0xbce3d9f9	-0.027813898
230	0xbd28267f	-0.041052338
231	0x3d1c97ee	0.03823083
232	0x3dcbeb06	0.099569365
233	0xbd8f8388	-0.070075095
234	0x3d74b6b5	0.059744556
235	0x3c2239c2	0.009901466
236	0x3d0ee33d	0.03488468
237	0x3deeed87	0.116663985
238	0xbca572a1	-0.02019626
239	0xbda78aed	-0.08180795
240	0x3d8679bd	0.065661885
241	0xbe1468c4	-0.1449309
242	0x3db4af39	0.088224836
243	0x3d67c3a0	0.056583047
244	0x3d416f39	0.04722521
245	0x3e17c81e	0.14822432
246	0xbdb2aba6	-0.087241456
247	0xbd6186ba	-0.055060126
248	0xbc4541c6	-0.012039607
249	0xbd069521	-0.032857064
250	0xbd510cdd	-0.051037658
251	0xbc995bf5	-0.018720606
252	0xba02f212	-0.0004995178
253	0xbd0bddf4	-0.034147218
254	0x3d8c9b30	0.06865537
255	0x3a2aa2ed	0.0006509263

network_body._body_endoder.seq_layers.4.bias f4 [256]
0	0xbba8785c	-0.005141301
1	0x3bdc1699	0.006716561
2	0x3d6ef53f	0.058339354
3	0x3d754257	0.05987772
4	0x3c47388e	0.01215948
5	0x3d5ffcc3	0.05468441
6	0x3bc138f6	0.005896683
7	0x3c51f41d	0.012814549
8	0xbc38f22f	-0.01128821
9	0x3ca5b201	0.02022648
10	0x3c8df235	0.017327407
11	0x3b70ba45	0.003673212
12	0x3d325331	0.04353637
13	0xbd00a672	-0.031408735
14	0x3d9b574c	0.0758501
15	0x3d4ab1ef	0.049486097
16	0xbcbeae16	-0.02327637
17	0x3d18c175	0.03729387
18	0x3a0f01ee	0.00054553046
19	0x3c2187ce	0.0098590385
20	0x3c95d992	0.018292222
21	0x3c38c828	0.01127819
22	0x3d288996	0.041146837
23	0x3b72b48d	0.0037033886
24	0x3cefb340	0.029260278
25	0x3ca5c9aa	0.020237762
26	0xbd9469a9	-0.072467156
27	0x3d00a56e	0.031407766
28	0x3b9c4e64	0.004770087
29	0x3d87c5c9	0.066295214
30	0x3cadcc06	0.02121545
31	0x3c9b26ed	0.01893946
32	0x3d346c2b	0.04404847
33	0x3d83d8aa	0.0643781
34	0x3d3e0ea2	0.046400674
35	0x3c857d41	0.016295077
36	0x3caa69b3	0.020802354
37	0xba5fd6ee	-0.0008538802
38	0x3d1ddd09	0.038540874
39	0x3b41f1ae	0.0029593515
40	0x3c5f2270	0.01361905
41	0x3cfc81ea	0.030823667
42	0x3c423151	0.011852578
43	0x3c94d382	0.018167261
44	0x3c1f8f41	0.009738744
45	0x3cf13550	0.029444367
46	0xbbc5af58	-0.0060328655
47	0xbc1bf760	-0.009519428
48	0x3d02ceb4	0.03193541
49	0xbb9a6c97	-0.004712652
50	0x3d1b9533	0.037984084
51	0x3cfff5fa	0.03124522
52	0xbbee56ed	-0.007273546
53	0x3caea47c	0.021318667
54	0xb8ce6d77	-9.843235e-05
55	0x3d42a975	0.047524888
56	0x3cfc852f	0.030825226
57	0x3d04b8ea	0.03240291
58	0x3ca947a7	0.02066405
59	0x3ce21efd	0.027602667
60	0x3c13ca30	0.009020373
61	0xb9863fb7	-0.00025605943
62	0xbcdd785b	-0.027034929
63	0xbc9d65fd	-0.01921367
64	0xbc50fff1	-0.012756334
65	0x3b6aca97	0.003582632
66	0x38393fe3	4.4166936e-05
67	0xbcdaa655	-0.026690641
68	0x3d17ffcb	0.037109178
69	0xbc161429	-0.00916008
70	0xbc8d92e1	-0.017281951
71	0x3c9f546b	0.019449433
72	0x3d858e3a	0.06521268
73	0x3ccaa8a9	0.024738627
74	0xbc417101	-0.011806727
75	0x3ce9c613	0.028536832
76	0x3d0c24d8	0.034214824
77	0x3c05e7a6	0.008172905
78	0x3cce67d1	0.025195988
79	0xbc3193b3	-0.010838437
80	0x3c34cc5b	0.01103505
81	0x3c733cab	0.014846007
82	0x3c7a8c12	0.015292184
83	0x3cf9ba1b	0.03048425
84	0x3d86ebdb	0.065879546
85	0xbb0f9d55	-0.0021913846
86	0x3c47bae3	0.012190553
87	0x3cc2f19a	0.023796845
88	0x3b3fdf3c	0.0029277345
89	0x3d02188c	0.03176169
90	0xbc926288	-0.017869249
91	0x3c32d99f	0.010916143
92	0x3c230462	0.009949775
93	0x3cfe8c63	0.031072801
94	0xbbac0f47	-0.0052508446
95	0x3cbb6883	0.022876984
96	0x3da730fd	0.08163641
97	0xbcc673de	-0.024225172
98	0x3d2348de	0.039864413
99	0x3d0dcbba	0.034618117
100	0x3caaeafe	0.020864006
101	0x3c8b824c	0.017029904
102	0x3b362d68	0.002779806
103	0x3d57a750	0.052649796
104	0x3c930786	0.017947923
105	0x3adc0f6d	0.0016789265
106	0x3d92d5c1	0.071696766
107	0x3cb76708	0.022387996
108	0x3d3ff61a	0.04686556
109	0x3d45bf07	0.04827788
110	0x3c8f223e	0.017472383
111	0xbb47df8a	-0.003049823
112	0x3d677ef5	0.05651756
113	0x3c43f00c	0.011959087
114	0xbaeac185	-0.0017910457
115	0xbb44938a	-0.0029995167
116	0x3cd853f6	0.026407223
117	0x3865d46c	5.4795688e-05
118	0xbc4fffa1	-0.012695224
119	0x3c6fb47c	0.014630433
120	0x3d7c46fb	0.06159113
121	0x3d56bac9	0.052424226
122	0x3d727484	0.05919315
123	0x3cabb5aa	0.020960648
124	0x3c0fe76f	0.008783205
125	0x3da014d2	0.07816471
126	0x3c538f58	0.012912594
127	0x3c75124f	0.014957978
128	0x3b93d5ea	0.0045115845
129	0xbcd21de7	-0.025649024
130	0x3cad784c	0.021175526
131	0x3d0d994d	0.034570027
132	0x3c97d65e	0.018534835
133	0xbc403200	-0.011730671
134	0x3d64a45d	0.05582081
135	0xbcb34879	-0.021885144
136	0x3c5c90f6	0.013462296
137	0x3d23625f	0.039888736
138	0x3d1c4e73	0.038160753
139	0x3cf22c3b	0.029562106
140	0x3b8291bf	0.0039846594
141	0x3d0194fd	0.031636227
142	0xbd130e93	-0.03590257
143	0x3c1ae8e7	0.009454942
144	0x3c0ed1c7	0.008717007
145	0x3b85ea3d	0.0040867613
146	0x3d2cbb77	0.042170968
147	0x3d1624c4	0.036656156
148	0x3d8a3977	0.06749242
149	0x3d7e455f	0.062077876
150	0x3cdbe02e	0.026840296
151	0xbc506c7a	-0.012721175
152	0x3cc02d70	0.023459166
153	0x3c041f94	0.008064169
154	0x3d8e267b	0.06940933
155	0xbbd864a7	-0.0066037956
156	0x3dbdb966	0.092638776
157	0x3d21d7ba	0.039512374
158	0x3cdf3167	0.027245237
159	0x3c886116	0.016647857
160	0x3d9f22d5	0.077703156
161	0x3d2097b2	0.039207168
162	0x3d3240d5	0.04351886
163	0x3cd62a72	0.026143286
164	0x3ca2ca02	0.019871715
165	0x3d63e293	0.055636
166	0xbd0e285a	-0.03470645
167	0xbd494969	-0.049142275
168	0x3c5b89b7	0.013399533
169	0x3cff9181	0.031197311
170	0x3c954630	0.018221945
171	0x3c4e851f	0.012604981
172	0x3d1a5d0f	0.037686404
173	0x3c884656	0.016635101
174	0xb844bf8b	-4.690843e-05
175	0x3c2d25cf	0.010568096
176	0x3c7fda18	0.015615962
177	0xbd2ea232	-0.04263515
178	0xbcb5805b	-0.022155931
179	0x3d49ea61	0.049295787
180	0x3d427901	0.04747868
181	0x3d0a09a8	0.033700615
182	0x3d579614	0.05263336
183	0xbc08fbce	-0.008360816
184	0x3d31e0e9	0.04342738
185	0x3d5db674	0.05412908
186	0x3cc67523	0.024225777
187	0x3d3e5d29	0.046475563
188	0x3d5f4be2	0.054515727
189	0x3d805f25	0.062681474
190	0x3be68039	0.0070343283
191	0x3ce94678	0.028475985
192	0x3c4aa772	0.012369024
193	0x3d0f75cc	0.03502445
194	0x3a4e9332	0.000788021
195	0xbbb109e0	-0.0054027885
196	0x3c9b2975	0.018940667
197	0x3d457e87	0.04821637
198	0xbac89f59	-0.0015306278
199	0x3cd56a3f	0.026051639
200	0x3c8e6eca	0.017386813
201	0x3ce028f6	0.027363282
202	0x3b8a6e1a	0.004224551
203	0x3c80ff1b	0.015746644
204	0x3c879cec	0.016554318
205	0x3dc6b803	0.09703066
206	0x3c84d55e	0.016215023
207	0xbad6e0fe	-0.0016393957
208	0x3ce17c44	0.027525075
209	0x3d598dfc	0.053113922
210	0x3cc137ae	0.02358612
211	0x3cde486c	0.027134143
212	0x3cc9d8d5	0.024639526
213	0x3d72bd01	0.05926228
214	0x3d0b59ef	0.034021314
215	0x3d8dfd46	0.06933074
216	0x3cf0a0a4	0.029373474
217	0xbcc01e7e	-0.02345204
218	0x3ce8936a	0.028390605
219	0x3d36f0fb	0.04466341
220	0x3d2bd20d	0.041948367
221	0x3d48b66b	0.049002092
222	0x3d53c4fd	0.051701535
223	0x3d2b6fde	0.04185473
224	0xbba35753	-0.004984775
225	0x3aaf3ac5	0.0013368955
226	0xb936dcd4	-0.00017439137
227	0xbc78fcb9	-0.0151969725
228	0x3d38802a	0.0450441
229	0x3c7a9324	0.01529387
230	0x3d14875b	0.036261898
231	0x3d5c8872	0.053841062
232	0x3d3be21c	0.04586993
233	0x3c16f4ad	0.009213609
234	0x3c9d29de	0.019185003
235	0x3ccc0a54	0.024907269
236	0x3d1b1923	0.03786577
237	0x3cb7cb17	0.022435708
238	0x3cfb8944	0.030705102
239	0x3ca5995d	0.02021473
240	0x3d053573	0.032521676
241	0x3d50b3e8	0.050952822
242	0x3c5885e0	0.013215512
243	0x3c9b6dcf	0.01897326
244	0x3bda8e86	0.006669822
245	0x3c007519	0.007840418
246	0xbc05be36	-0.008163026
247	0x3d9c9a75	0.07646648
248	0x3c8df8a5	0.017330477
249	0xbcde9566	-0.027170848
250	0x3d0b68c2	0.03403545
251	0x3be6583e	0.0070295623
252	0x3c75e914	0.015009183
253	0x3cc26723	0.02373082
254	0x3cea2abe	0.028584834
255	0x3d18edda	0.037336208

action_model._continuous_distribution.log_sigma f4 [1, 9]
0	0xbd719e78	-0.05898902
1	0x3d3df87c	0.04637955
2	0xbca9739c	-0.02068501
3	0xbd3c02f1	-0.045901243
4	0xbde10a73	-0.10988321
5	0x3c9ee285	0.019395122
6	0x3e04962e	0.12947914
7	0x3e1c60ea	0.15271345
8	0x3dcc1fe0	0.09967017

action_model._continuous_distribution.mu.weight f4 [9, 256]
0	0x3c4207c7	0.011842675
1	0xbce90d1e	-0.028448638
2	0xbc2f541d	-0.0107012065
3	0x3bc06326	0.0058711944
4	0x3cfeb245	0.031090865
5	0x3d312f80	0.04325819
6	0xbd775f63	-0.060393702
7	0xbcf4030a	-0.029786605
8	0x3d182e1e	0.037153356
9	0xbca6049d	-0.020265872
10	0x3c813219	0.015770959
11	0xbd595986	-0.05306389
12	0xbd911a2e	-0.070850715
13	0x3d7a3bd3	0.06109221
14	0x3d11b9e0	0.035577655
15	0x3cec37bf	0.028835176
16	0x3c9db917	0.019253297
17	0xbb6d915f	-0.0036249978
18	0xbd3eba00	-0.046564102
19	0x3d65ea22	0.05613149
20	0xbc3f3e57	-0.011672578
21	0xbc962c1a	-0.018331576
22	0xbc17d7a1	-0.0092677185
23	0xbcb90f4c	-0.022590302
24	0x3999468b	0.00029234993
25	0xbd94e552	-0.07270302
26	0xbc661dd6	-0.014045199
27	0xbd9221aa	-0.07135327
28	0x3c40d19f	0.011768728
29	0x3c1a641b	0.009423281
30	0xbd0d6f89	-0.034530196
31	0xbcad6684	-0.021167047
32	0xbc569950	-0.013098076
33	0xbc819269	-0.015816884
34	0x3c402c3f	0.011729299
35	0xbd315cbd	-0.043301333
36	0xbc849f4a	-0.016189236
37	0x3d14e72c	0.036353275
38	0xbbe1c390	-0.006889768
39	0xb9e041e1	-0.00042773693
40	0xbd233a9b	-0.039850812
41	0x3d16a85d	0.036781657
42	0xbcd0e3f2	-0.025499318
43	0x3be7502a	0.007059117
44	0x3d1b22a6	0.03787484
45	0x3cb91cbd	0.022596711
46	0x3d6f2d2d	0.058392692
47	0x3caacae3	0.020848697
48	0xbc579cb5	-0.01315992
49	0x3b977caa	0.0046230154
50	0xbd4796be	-0.048727743
51	0x3d21eb31	0.039530937
52	0x3c5e43fe	0.013566015
53	0xbdcc5ae7	-0.09978276
54	0xbcb8a7ab	-0.022540888
55	0xbd5a6aae	-0.053324394
56	0xbd08f9be	-0.033441298
57	0xbd9ef2b3	-0.07761135
58	0xbd364e7f	-0.044508453
59	0x3ca7d01d	0.020484978
60	0x3b72fa87	0.0037075595
61	0x3c6e23a8	0.014534868
62	0xbd35c216	-0.044374548
63	0xbcb985b0	-0.022646755
64	0x3d5fa5d9	0.054601524
65	0xbdc03c8f	-0.09386551
66	0x3cae3a65	0.021268079
67	0xbd8e3440	-0.0694356
68	0x3dbe59e6	0.092944905
69	0xbccd325b	-0.025048425
70	0xbc8a399e	-0.016873177
71	0xbce491d4	-0.027901568
72	0x3c5d820b	0.013519774
73	0xbd108b3e	-0.03528904
74	0xbdd30ca5	-0.10305146
75	0x3d121260	0.035662055
76	0x3d7fd1ac	0.062455818
77	0x3d02b77f	0.031913277
78	0xbb8002da	-0.00390659
79	0x3bb7fe46	0.0056150286
80	0x3d013ad8	0.03155026
81	0x3d68253e	0.056676142
82	0x3cc2da34	0.023785688
83	0x3cb70f6f	0.022346226
84	0x3cedecdd	0.02904361
85	0xbd95b90b	-0.07310685
86	0xbccaf83e	-0.024776574
87	0xbdea50c1	-0.11441184
88	0xbd90b23d	-0.07065246
89	0x3bcf4341	0.006325156
90	0xbd39f59b	-0.045400243
91	0xbd70ad5d	-0.058759082
92	0x3ca3c037	0.019989116
93	0x3cb1c503	0.021700388
94	0x3ba58a11	0.005051859
95	0xbd753942	-0.05986906
96	0x3c9b47c4	0.018955119
97	0x3c9d876e	0.019229617
98	0x3d2f2c62	0.042766936
99	0xbd030044	-0.031982675
100	0xbba490fa	-0.0050221654
101	0xbd107973	-0.035272073
102	0x3c304a4f	0.010759904
103	0x3db64fc1	0.089019306
104	0x3c3c5c31	0.0114965895
105	0x3ce35131	0.027748676
106	0x3b9527df	0.004551872
107	0xbd669847	-0.056297567
108	0xbceba0b1	-0.028763147
109	0x3d0de56b	0.03464262
110	0xbd1c53cb	-0.03816585
111	0x3d099322	0.033587582
112	0x3cc870a5	0.024467776
113	0xbb84b78a	-0.0040502
114	0x3dc51341	0.09622813
115	0x3b9b8f86	0.004747334
116	0xbd030d10	-0.03199488
117	0x3d32f9b2	0.04369516
118	0x3cbe2894	0.023212709
119	0x3c8e436d	0.017366135
120	0xbd5f1318	-0.05446157
121	0xbda43762	-0.08018376
122	0x3dafe62d	0.085888244
123	0x3d29af83	0.041427147
124	0x3b98ec37	0.004666831
125	0xbcf0b4fb	-0.029383173
126	0x3c3316b2	0.010930704
127	0x3d72ea98	0.059305757
128	0xbd3c1fa5	-0.045928616
129	0x3daee371	0.08539475
130	0xbd7cd995	-0.06173094
131	0x3d552236	0.05203458
132	0xbb4f7c98	-0.0031659957
133	0x3c985a8e	0.018597867
134	0xbc300f3f	-0.010745822
135	0xbd84fcb6	-0.06493513
136	0xbc0d9236	-0.008640816
137	0xbd2b693b	-0.041848402
138	0x3dc85947	0.09782653
139	0x3cf0c953	0.029392874
140	0xbd4f150d	-0.050557185
141	0xbd7ef5f9	-0.062246297
142	0xbcc7864b	-0.024356028
143	0x3b469c4f	0.003030557
144	0x3bcff380	0.006346166
145	0xbc20e3f8	-0.009819977
146	0x3ced57de	0.028972562
147	0xbdaaeb15	-0.083456196
148	0x3d635735	0.05550309
149	0x3c94b888	0.018154398
150	0xbcfed0c3	-0.031105405
151	0x3d43abef	0.04777139
152	0x3dc6eb08	0.097127974
153	0x3cc0e8ee	0.02354857
154	0x3d5dcdea	0.054151453
155	0xbd76ae6a	-0.060224928
156	0x3cbe2aa8	0.0232137
157	0xbc1cd17b	-0.009571428
158	0x3d0786e0	0.03308761
159	0x3dba02bd	0.090825535
160	0xbd41b5ef	-0.047292646
161	0x3d56c45f	0.052433368
162	0x3ced1be1	0.028943958
163	0xbca875d9	-0.020564007
164	0x3d063ef7	0.03277489
165	0xbd4a4c50	-0.049389184
166	0xbd93d75b	-0.0721881
167	0x3c90ab0c	0.017659687
168	0xbcf41bc9	-0.029798405
169	0xbcc41e14	-0.023940124
170	0xbca6491f	-0.020298539
171	0x3c919419	0.017770814
172	0xbd95e2e8	-0.073186696
173	0x3d40a7b1	0.047034923
174	0xbb167927	-0.0022960396
175	0x3ba659d3	0.005076626
176	0x3d3103d2	0.043216534
177	0xbcc405c4	-0.02392853
178	0x3ce9a75d	0.028522188
179	0x3c1144cf	0.008866503
180	0x3c9f261e	0.019427355
181	0x3dd3e47a	0.10346313
182	0xbc6fb02b	-0.014629404
183	0x3d3e5a99	0.04647312
184	0xbc918a62	-0.017766181
185	0xbc931eab	-0.01795896
186	0x3d0ecba5	0.03486218
187	0x3d09931f	0.03358757
188	0xba32a8f8	-0.00068153394
189	0xbce24922	-0.027622763
190	0x3d43243f	0.04764199
191	0xbd9ef5cf	-0.07761728
192	0xbb91f3de	-0.00445412
193	0x3d1a8ea1	0.037733678
194	0xbd7592ba	-0.059954382
195	0xbd0123f2	-0.03152842
196	0x3b6aa313	0.0035802766
197	0xbc660b41	-0.014040769
198	0xbda901a5	-0.08252267
199	0xbd48daae	-0.049036674
200	0xbcb84bcb	-0.022497078
201	0x3d47ce24	0.048780575
202	0x3b240e62	0.0025032987
203	0x3c635bb8	0.013876848
204	0xbd95ed22	-0.0732062
205	0xbd5f3835	-0.054496963
206	0x3c806a7f	0.015675781
207	0x3c17a60f	0.0092559
208	0x3dab16ed	0.08353982
209	0xbd629007	-0.055313136
210	0x3cff956b	0.031199178
211	0x3c80ce44	0.015723355
212	0x3d3aea89	0.045633826
213	0x3d1a35b7	0.037648883
214	0xbd22002c	-0.039550945
215	0xbd9e7d3c	-0.0773873
216	0x3d4b2c55	0.049602825
217	0xbd9a2396	-0.07526319
218	0xbd382a62	-0.044962294
219	0x3d74156a	0.059590735
220	0x3d3668b4	0.044533446
221	0x3de4f3bf	0.111793034
222	0xbd7160f9	-0.05893037
223	0x3d6d992f	0.058007415
224	0x3d9a65b4	0.075389296
225	0xbc9f8af5	-0.01947544
226	0x3c3ac054	0.011398394
227	0xbc6ac776	-0.014329782
228	0x3c893ba7	0.016752077
229	0xbd417017	-0.047226038
230	0x3c553dd0	0.0130152255
231	0x3bb2aabd	0.0054524825
232	0xbdfac670	-0.1224488
233	0xbd3a9c52	-0.045559235
234	0x3d67dd5d	0.056607593
235	0xbc6bc97f	-0.014391302
236	0xbcdeedd7	-0.02721302
237	0x3c916988	0.017750517
238	0x3d0eb16e	0.03483718
239	0xbccf276b	-0.02528735
240	0xbca2bf53	-0.019866621
241	0xbc16ef8e	-0.009212388
242	0x39fb5d50	0.00047943974
243	0xbd10cc3a	-0.035351016
244	0x3d1c0568	0.038091093
245	0x3cb648f9	0.022251593
246	0x3c890801	0.01672745
247	0x3d699813	0.057029795
248	0x3d8e1fcd	0.06939659
249	0x3d8ee8c0	0.06977987
250	0x3dbf9600	0.09354782
251	0xbd163eed	-0.036681104
252	0x3d4aeeac	0.04954402
253	0x3c92663f	0.01787102
254	0xbc99594f	-0.018719343
255	0xbd1181ae	-0.035524063

action_model._continuous_distribution.mu.bias f4 [9]
0	0x3c89cc1d	0.016820962
1	0xbcf1e892	-0.029529843
2	0xbbd6f269	-0.0065596593
3	0xbc63b6a2	-0.0138985235
4	0x3b8187d2	0.0039529586
5	0xbce7f7cb	-0.0283164
6	0xbc9cf97e	-0.019161936
7	0xbd164253	-0.036684345
8	0x39d97a6d	0.0004148068
