Proyecto-RL-main/Assets/Models/Worm-6251589.onnx (onnx, 581953 bytes, 9 tensors)

network_body._body_endoder.seq_layers.0.weight f4 [256, 39]
000000 81 ee 44 3e 5f 81 7d be 53 c8 32 3e 24 dd 5f bd
       0.19231607 -0.24756382 0.1745923 -0.054654256
000010 c5 0e 85 bd f8 bc 63 3e 37 75 9f 3d 19 62 17 be
       -0.06496958 0.22240055 0.07786029 -0.14783515
000020 be 8f 08 bd 56 a7 e1 3d 65 fe 98 3d 21 17 ff 3d
       -0.03334021 0.11018245 0.07470397 0.12455583
000030 b2 cb 34 bd 68 46 3d 3d 2f 44 26 3e fa d6 9b 3c
       -0.04413957 0.046209723 0.16236947 0.019023407
000040 ec 6b 34 be 94 b5 e3 3d 1a 90 ab be 0f 9b b3 3d
       -0.17619294 0.11118618 -0.33508378 0.087698095
000050 64 fd 47 3e 86 9f d0 3d b4 d6 31 be 2a 2e 99 be
       0.19530255 0.10186677 -0.17367059 -0.29918033
000060 16 22 ef 3a 4c 90 49 3c aa d2 58 be 24 7b 26 be
       0.0018244411 0.012302469 -0.21174112 -0.16257912
000070 5d 75 42 3e 42 5a 9b 3d 57 e7 84 3d 6a 62 51 be
       0.18990083 0.07585575 0.06489437 -0.20447698
000080 89 c8 9b 3d cd 7a 7d bd 01 4b cd 3e 4c 4c 9f bd
       0.076066084 -0.06188469 0.40096286 -0.07778224
000090 6c 0c 91 3d 1c 38 1a be e0 ed 0b be 36 ba c3 bc
       0.070824474 -0.15060467 -0.13664961 -0.023892503
0000a0 85 25 a8 bd 6d f1 8f 3e ff b9 ca bd fe 12 7a 3b
       -0.08210281 0.2811388 -0.09898757 0.0038158293
0000b0 28 f7 ea bd a3 51 d3 bc 84 08 ab 3e 2e 3a 06 be
       -0.114729226 -0.025795763 0.33404934 -0.13108131
0000c0 e2 a4 34 3e ed 08 85 be b9 3c af 3d 63 61 da 3d
       0.17641023 -0.25983372 0.08556504 0.10663106
0000d0 a0 f1 8f bd c4 60 ff 3d 9a 31 57 be ac 4b 59 3d
       -0.07028508 0.124696285 -0.21015015 0.053050682
0000e0 b4 87 cf bd e2 e4 25 be a6 97 bc 3d f1 fa ee bc
       -0.10133305 -0.16200593 0.09208612 -0.029172393
0000f0 14 da 1e be 21 9f e4 be fd 5f ea 3a 94 2b eb bd
       -0.15512878 -0.44652656 0.001788139 -0.11482921
000100 2a be 55 bd 34 4a 67 3d 59 dc a9 bd 6c cd 24 bd
       -0.052183308 0.05646725 -0.08293981 -0.040234968
000110 97 ca 42 3d 41 6e 92 bd 76 89 56 bd 1f 82 28 bd
       0.047556486 -0.071499355 -0.052377187 -0.04113972
000120 67 20 5a be 60 e1 48 bd a6 5c 21 b9 f1 cc 1f be
       -0.21301423 -0.04904306 -0.0001538867 -0.15605523
000130 a7 7c 81 bd 48 ed 3d be b3 79 3e bd 9a b8 9c 3e
       -0.06322604 -0.18547547 -0.04650278 0.3060959
000140 b7 6d ef 3d ec b8 0d be e4 99 60 3e 26 fc a1 3d
       0.11690848 -0.13840073 0.21933705 0.079094216
000150 22 b0 e5 3c 81 9e 20 be 3a 3c 10 3e 56 eb 12 be
       0.028038088 -0.15685464 0.14085475 -0.14347586
000160 ac 22 ae 3e a4 0d 82 3d 4f 75 6c 3e 97 c0 cd 3e
       0.34010828 0.06350258 0.23091625 0.40185997
000170 91 70 2b be 36 14 a3 3e e1 cc c3 3d 54 b0 5c be
       -0.1674216 0.31851357 0.09560562 -0.21551639
000180 38 fd 80 3d d2 c7 27 3e 2e 6e 14 3e 7e 44 18 3e
       0.06298298 0.16384819 0.14495155 0.14869878
000190 d3 ef d0 3c ab 00 0e 3e 38 fd b2 bd 89 36 4c 3e
       0.025504982 0.13867442 -0.08739704 0.19942679
0001a0 be 79 35 3d 06 25 cf 3d ad 68 5f 3e 70 cb b2 3d
       0.044305556 0.101144835 0.21817274 0.08730209
0001b0 df 3b 96 3e a9 d7 71 3d 64 56 a9 bb c1 14 9e be
       0.29342553 0.05904356 -0.0051677693 -0.3087521
0001c0 1e 19 3c 3e 8a 2a be bc 9a 0e c8 3d a0 94 bd 3e
       0.18368956 -0.023213644 0.0976841 0.37027454
0001d0 33 24 01 3e 52 18 f2 3d 0f d1 3d 3e 51 39 d0 3d
       0.12611465 0.11821045 0.18536781 0.10167182
0001e0 da 6a 2f bc 8f 99 08 3e 20 39 57 bb ba 34 f5 bd
       -0.010706628 0.13339828 -0.0032840446 -0.119729474
0001f0 18 06 b6 3e 5c 84 88 3d a1 60 4d be ab ca 16 3e
       0.35551524 0.066658705 -0.20056392 0.14725749
000200 8d 25 25 bd c6 0b 0c 3d e3 d8 56 be 29 a0 f4 bd
       -0.040319014 0.034190916 -0.20981173 -0.119446106
000210 f7 20 8b 3e f3 e5 ac 3e ae 90 2b be 37 71 85 3e
       0.27173588 0.33769187 -0.1675441 0.2606294
000220 f3 f6 14 3e a4 9c 80 3d c7 0b 21 3e 85 3c 58 3e
       0.14547329 0.06279877 0.15727149 0.21116836
000230 13 0a c8 3e 2b 17 a3 bd b8 78 9a 3d 23 88 70 3e
       0.39070186 -0.07963403 0.075425565 0.23489432
000240 c7 05 60 3d 81 78 83 3c 24 b1 97 3e 57 aa 19 be
       0.05469301 0.016048672 0.29627335 -0.15006386
000250 f9 44 dd bd 92 43 81 3d 14 f7 8e bd 91 4f ae 3c
       -0.10804171 0.06311716 -0.0698072 0.021278175
000260 9c b1 98 bd d0 a9 6d 3e 39 c3 e5 bd c8 0e 6b bd
       -0.07455751 0.2320931 -0.112188764 -0.057387143
000270 e8 ae 06 3c af 48 0a 3d cd 67 15 bc 10 7e 7e be
       0.008220412 0.033760723 -0.009118986 -0.24852777
000280 cb e7 35 bd 18 63 28 3c fd 87 17 3e b3 e5 a0 3e
       -0.044410508 0.010277532 0.14797969 0.31425247
000290 72 bf f5 bd c9 70 05 3e bb 32 8a 3c 95 45 11 3e
       -0.11999406 0.13031305 0.016869893 0.141867
0002a0 04 cc 40 be 01 b7 ad bd 10 61 e4 bb 1c 47 3d 3b
       -0.18827826 -0.08482171 -0.0069695786 0.0028881496
0002b0 68 ca 5b 3e 00 00 77 3e 15 dc 13 3e 15 56 28 3e
       0.2146393 0.24121094 0.14439423 0.16439088
0002c0 b1 e4 ba bb f5 d1 82 3e f0 62 bd 3b cc 41 b0 be
       -0.0057035317 0.2555081 0.0057796165 -0.344252
0002d0 5c 4e df 3d a1 71 ba bd ea 62 44 bd 61 c7 01 bc
       0.10903618 -0.09103704 -0.047945894 -0.007921071
0002e0 64 fd 1c 3d 68 f4 a7 bc 44 64 58 bd ac 8f 2d be
       0.03832759 -0.020502284 -0.052829996 -0.16949338
0002f0 ff 9b a0 3c 0d 7f 9c bd d0 a0 23 be 09 6d 7d be
       0.019605635 -0.076414205 -0.15979314 -0.24748625
000300 35 42 76 3d 49 69 b3 3d 7d 33 42 be d8 3e 1d 3e
       0.060121734 0.08760316 -0.18964954 0.15356004
000310 56 05 06 be c9 e0 02 be cc ff 3b be a2 c2 75 3e
       -0.13087973 -0.12781061 -0.18359298 0.24000028
000320 85 cb b7 bb 9e b8 0f 3e 73 28 dc be 34 fd 89 3e
       -0.005608978 0.1403527 -0.4299961 0.2695099
000330 46 01 ab bc dc 89 ca bd fd 70 88 3e ed 1a 89 3e
       -0.02087463 -0.09889576 0.26648703 0.26778355
000340 0f d6 dd be 7c e1 96 3d ef d4 20 bd 0a fb 13 be
       -0.43327376 0.073672265 -0.03926557 -0.14451233
000350 a7 fa d0 3d 76 8f c4 be 68 0a 43 bd 1b 24 90 be
       0.10204058 -0.38390702 -0.047617346 -0.28152546
000360 6e 3e 7e 3e 0f e6 21 bd a3 23 a8 3d d9 3b c1 3d
       0.24828503 -0.03952604 0.08209922 0.09435243
000370 db 7c 6e 3d 4f 93 49 3d ae dc 4f 3e f2 4e 9a bd
       0.05822454 0.04921275 0.20299026 -0.07534589
000380 c3 ee 1b 3e f9 aa 40 3e f4 18 b8 bd 92 49 1f bd
       0.15227799 0.18815221 -0.089891344 -0.03888852
000390 d4 1a 68 be 00 a9 c6 bd 84 1d 3b bd a4 6f b0 bc
       -0.22666484 -0.09700203 -0.045682445 -0.02153761
0003a0 1d df d8 3c 79 69 ae 3d 76 a0 8e 3d 1c a7 5a 3e
       0.026473576 0.08516211 0.06964199 0.2135281
0003b0 46 33 18 bc a9 b6 40 3e 55 1e 16 be d5 5c e4 bd
       -0.009289568 0.1881968 -0.14660008 -0.11150519
0003c0 c1 c8 a8 be 09 c3 c6 bd 53 c0 20 be d7 e9 54 be
       -0.32965663 -0.09705169 -0.15698366 -0.20792328
0003d0 53 73 27 3e 8d 10 4b be 16 c5 41 be f6 52 a6 3e
       0.16352586 -0.19830532 -0.18922839 0.3248517
0003e0 aa 94 43 3d ea a5 f9 3c 95 08 5e 3e 75 0e 26 bc
       0.0477492 0.030474622 0.21682961 -0.010135283
0003f0 58 37 2f bd 2b aa d9 bd c4 69 08 3d 94 d4 d2 bd
       -0.04277739 -0.1062816 0.03330399 -0.10294452

network_body._body_endoder.seq_layers.0.bias f4 [256]
000000 ea e4 42 3c 80 0a 4c bd 11 b0 46 3c 89 77 66 3c
       0.011895398 -0.0498147 0.012126938 0.014066585
000010 c4 b7 10 bc 95 57 0a 3d f9 a3 12 bd d9 05 1f 3d
       -0.008832876 0.03377493 -0.035800908 0.038823936
000020 3f db 6b bd 45 e1 34 3c 9d d7 0d bd 6f 5e eb 3c
       -0.057582136 0.011040037 -0.034629453 0.028731553
000030 63 dc 63 3d 1c 4d 8f 3d 72 b5 a3 3d 52 33 ba 3c
       0.0556301 0.06997129 0.07993592 0.02272955
000040 76 02 54 bc d4 cf 0d 3d a0 31 5a ba e0 cd 5f 3c
       -0.01294004 0.03462203 -0.0008323435 0.013659924
000050 63 c0 4d 3d ea 2c 2a 3d 93 e4 af bc 38 9c 46 bd
       0.050232302 0.04154674 -0.021471297 -0.048488826
000060 b4 0c 7e 3c cf fa 24 3d fd b0 e6 bb 60 d2 0c bc
       0.015505958 0.040278252 -0.0070401416 -0.008595079
000070 bb 2c 86 3c c6 50 3a 3d 1f 5c 3a 3d 4e a6 95 3d
       0.016378751 0.045487188 0.04549801 0.07307111
000080 c9 03 ce bc 34 9d 03 3d 10 6e 52 3c 4c d6 8c bd
       -0.02514829 0.032132342 0.012843624 -0.068768114
000090 24 38 87 bc d6 e1 f0 3c e7 5d 85 3c e2 89 d4 3c
       -0.016506262 0.029404562 0.016280128 0.025944654
0000a0 39 5d 5d 3d 56 ac 4e 3c 50 68 7f 3c fa de e8 bb
       0.054043982 0.01261433 0.015588835 -0.007106659
0000b0 44 d2 15 3d 22 33 72 ba ab cf fa 3c a2 cf 37 bc
       0.036577478 -0.0009239187 0.030616602 -0.011218937
0000c0 f8 7a ea 3c df 14 30 bd da 4f ff bb 4e 7c 17 3d
       0.02862309 -0.042988654 -0.0077915015 0.03698378
0000d0 58 66 e5 bc 06 2a df 3c 60 b8 f7 bc b8 0b 80 3d
       -0.028002903 0.027241718 -0.030239284 0.06252235
0000e0 86 9f a3 3d f6 42 26 bb 25 ee bf bc 2f 88 5b 3c
       0.07989411 -0.0025369502 -0.023428986 0.013399168
0000f0 92 36 8d 3c 5f 55 01 bd 67 6c 4a 3d 8c e2 25 bd
       0.017237935 -0.031575557 0.049419787 -0.040499255
000100 7c 97 0e 3d b2 84 f1 bc b8 68 37 3d 7d 54 73 3c
       0.034812436 -0.02948222 0.044777602 0.014851687
000110 e1 65 6d 3d a0 6f 33 ba 8a 58 13 bd 18 84 9c 3c
       0.057958487 -0.00068449415 -0.03597311 0.019105956
000120 07 b4 c3 3c ef b8 cd 3c 97 dc 83 3d 7e e3 1b 3c
       0.023889555 0.025112597 0.064385585 0.009514688
000130 f4 91 07 bd 52 76 34 bd 1a d3 11 bc df 33 75 bd
       -0.033098176 -0.04405815 -0.008900428 -0.05986392
000140 f2 3f d7 bb a6 aa 95 3c 1b 82 03 3c 27 1d ae bc
       -0.006568902 0.018269848 0.008026625 -0.021254135
000150 f2 2b c3 bc d2 02 85 bc 0b 53 36 3c c3 c1 0b 3d
       -0.023824666 -0.016236696 0.011128197 0.034120332
000160 e6 01 70 ba 26 0d ca 3c 25 4b 06 3d c9 7c 64 3d
       -0.00091555563 0.024664473 0.032786507 0.055783067
000170 f8 e6 6a 3d f3 2c b9 bc 28 5d 63 3d 29 57 48 3d
       0.057349175 -0.022604441 0.055508763 0.048911247
000180 2f c9 1e bd 83 86 d5 bc a7 5f 1c 3c a2 23 8a 3c
       -0.038766082 -0.026065117 0.00954429 0.016862694
000190 63 7e 68 bc ea 1b 8d 3c ea d7 32 3b bc 23 f5 3c
       -0.014190289 0.017225225 0.002728934 0.029924266
0001a0 d2 87 09 3c 3a ca 33 bc d7 b3 0c 3d 76 ac 30 3c
       0.0083941985 -0.010973508 0.034351196 0.010783305
0001b0 5c e1 82 3c eb 3a 71 3a 7b fe 2c 3c 43 1e e7 3c
       0.0159766 0.00092022 0.01055872 0.028212672
0001c0 e4 2e 85 3b 4a ad ab 3c 21 e7 c2 bb 07 58 88 3c
       0.0040644277 0.020956654 -0.005947963 0.016643537
0001d0 d2 db 16 bc 8b 0c 3d 3c 7d 6c 73 3b 23 ff 5a 3c
       -0.009207683 0.011538635 0.0037143521 0.013366493
0001e0 0f ff 0f bd b5 18 ca 3b 4b 6b 91 3b 7a 87 72 bb
       -0.035155352 0.006167496 0.004437839 -0.003700702
0001f0 c9 09 0a bc 5b aa d2 bc 08 d7 17 3d 9f e3 72 bd
       -0.0084251845 -0.025715997 0.037070304 -0.059299108
000200 b5 11 db 3c 35 27 91 bd 82 67 42 3d 58 94 80 bb
       0.026741842 -0.07087556 0.047461994 -0.003923934
000210 79 fc e2 3c b5 a9 56 3c 7e a7 a3 3c 9d 26 55 3d
       0.027708279 0.013101985 0.019977327 0.052038778
000220 dd d4 ac bc bb 2f 89 3b dd a7 a5 bc e2 ff c9 ba
       -0.021097595 0.004186598 -0.020221645 -0.0015411342
000230 3c 20 83 3d 6f 70 80 3c 0f 7f db bb 1f 75 2d bc
       0.064026326 0.015678613 -0.006698496 -0.010587006
000240 b0 34 3f bd a3 96 62 bd 61 b0 80 bc d3 3e 1f bd
       -0.046681106 -0.05531944 -0.015709104 -0.038878273
000250 ac 4f f6 bc 5f 99 4b bc d8 02 51 bd d4 d8 94 bc
       -0.030067287 -0.012426703 -0.051028103 -0.018169798
000260 47 61 23 bd 24 d9 ca bc 26 d7 c8 3c 6d 84 69 3d
       -0.039887693 -0.024761744 0.024516653 0.057011057
000270 bb f9 d2 bc 9c a1 8a bc 63 92 28 bc e3 db 69 3c
       -0.025753846 -0.016922764 -0.010288808 0.0142736165
000280 ec d0 12 bc 5e 67 94 3d 7d c9 e3 bc e0 99 18 3d
       -0.008960944 0.07246278 -0.027806038 0.03725612
000290 a4 de 9f b9 46 6c eb 3c 83 27 b3 bb 74 d4 c8 bc
       -0.00030492723 0.028738152 -0.0054673566 -0.024515368
0002a0 1e eb cb bc 99 e0 00 bd 80 df 35 bd 29 09 07 bc
       -0.024892386 -0.031464193 -0.0444026 -0.00824193
0002b0 38 57 79 3d cd cf a0 3c ce 4f 9f 3c 88 83 48 3d
       0.060874194 0.019630337 0.019447234 0.048953563
0002c0 4d 09 33 3d 0e 53 a5 3c ef df d5 bc 98 ca dc 3c
       0.04371004 0.020181205 -0.026107756 0.026952073
0002d0 3f 38 9a ba 44 8d aa bc 86 cb 20 bd fb b1 ad bc
       -0.001176603 -0.020819314 -0.039256595 -0.021203032
0002e0 a3 bc 71 bc 44 a4 bc 3c 8a 0d b2 ba bb ca aa bc
       -0.014754447 0.023027547 -0.0013584357 -0.020848623
0002f0 f9 25 a1 3c 0b c8 a3 bc 50 f4 1d bd c5 7a 9d 3c
       0.019671427 -0.019992849 -0.038563073 0.01922358
000300 02 d6 99 3d 45 98 b0 3c c7 5f 6b 3d 6b 7f 0d 3e
       0.07511522 0.021556983 0.057464387 0.13818137
000310 fb 12 76 3d ca 59 24 bd 70 28 33 bb a8 71 bc 3b
       0.060076695 -0.040124692 -0.0027337335 0.0057508536
000320 aa 46 31 ba f3 8c 16 bd 32 c9 a5 bd 2d 50 18 3d
       -0.0006762544 -0.036755513 -0.080950156 0.037185837
000330 b0 ea 76 3c 7e 13 95 bc d1 3c 47 3b ce a8 89 3c
       0.015070602 -0.018197771 0.003040124 0.016804125
000340 2d 27 46 3c fa d4 b3 3d 99 6b d5 bc 99 fc 84 3d
       0.012094301 0.087808564 -0.026052283 0.06493492
000350 88 ab da bc 3b 39 8c bb ce fb 79 ba 06 c1 67 3d
       -0.02669312 -0.0042792833 -0.0009536118 0.056580566
000360 4a 1e a4 bc f1 e7 6b 3c cf 7a b5 3c fe b9 da 3c
       -0.020033974 0.014398561 0.022153286 0.026700016
000370 fa a0 ac bc cf a6 8f bd c6 92 29 3c f9 7e 68 3c
       -0.021072853 -0.07014238 0.010349935 0.014190429
000380 b5 ba a3 3d 76 98 fa 3c 27 61 38 bc a1 36 9d bb
       0.07994596 0.030590277 -0.011253632 -0.004797772
000390 22 c0 f5 3c 37 fb 1c 3d 5b 98 87 3d 1c 26 38 bb
       0.029998843 0.038325515 0.066208564 -0.0028098887
0003a0 28 c2 a9 3c 1e 0f 1e 3d 22 86 db 3d 09 09 20 3d
       0.020722464 0.038588636 0.10718943 0.039071117
0003b0 0d 38 1f bd 6d d4 2b 3d 95 09 54 3d 1a aa f0 bc
       -0.038871814 0.041950632 0.05176695 -0.029377986
0003c0 33 61 e3 3c 39 e4 19 3d 12 36 38 bd 0b f6 a9 3d
       0.02775631 0.037571166 -0.04497344 0.08298882
0003d0 46 b6 13 bc aa 6b c6 3c 31 eb a0 3c 26 ac 59 3d
       -0.009015625 0.02422126 0.019643398 0.05314269
0003e0 5c 8d 8b 3d 14 33 f3 3c 2e dc d3 3c 55 d3 86 3c
       0.068140715 0.029687442 0.025861826 0.016458193
0003f0 64 43 93 bc f2 71 51 3d 7e f7 b1 bc c5 97 3e 3d
       -0.01797647 0.051134057 -0.021724459 0.046531457

network_body._body_endoder.seq_layers.2.weight f4 [256, 256]
000000 9e 1c cd bc c1 fd 9e 3d be 68 07 3d 01 7b 67 3d
       -0.02503806 0.077632435 0.033058874 0.05651379
000010 55 de a2 bc 2d ec 05 be 15 9e d9 bd d8 9b de 3b
       -0.019881407 -0.13078375 -0.10625855 0.0067934804
000020 69 db db bd 12 2c 1f 3d 0b 95 91 bd e4 6b 17 be
       -0.107352085 0.038860388 -0.07108506 -0.14787251
000030 85 13 86 3d 8d 76 1b 3d f8 80 30 3d d8 5b d6 bd
       0.06546692 0.037954856 0.043091744 -0.104667366
000040 4d a4 c3 3d c7 94 0d 3d 40 87 9e 3d e6 3a d8 bc
       0.09552822 0.034565713 0.07740641 -0.026395272
000050 8f 92 2b bd 79 78 67 3c 52 10 34 bd f9 e6 4b 3d
       -0.041887816 0.014127844 -0.043960877 0.04978082
000060 0e aa ff 3d ad 63 2c bd b8 64 5b bd f0 6c c1 bd
       0.12483607 -0.042087246 -0.05356285 -0.09444606
000070 04 9b bf 3d 0e 06 18 3e 8d b0 43 bd f1 ea 6c bd
       0.09355739 0.1484606 -0.047775794 -0.057841245
000080 a2 cf cd 3c da 09 37 3b 4c 4f d0 bd 67 18 0e 3b
       0.025123421 0.0027929456 -0.10171375 0.0021682025
000090 fb 57 86 3c 83 65 8f bd 92 45 ac bd 4c d6 a3 bc
       0.016399374 -0.07001784 -0.08411707 -0.019999646
0000a0 99 a9 81 bd 0d a4 22 3d e7 8c 13 3e 28 ad 26 3d
       -0.06331176 0.039707232 0.14409219 0.04069248
0000b0 3b e3 69 3d 5c 92 49 bd c1 1b dd 3d 3a 15 14 3d
       0.05710147 -0.049211845 0.10796309 0.036153056
0000c0 35 17 df 3c e6 60 05 3c 04 09 f8 bd f5 e5 4b bc
       0.027232746 0.008140778 -0.121110946 -0.012444963
0000d0 94 bb af 3a 35 c0 11 bd 99 fb 22 be 32 c6 9d bc
       0.0013407343 -0.035583694 -0.1591629 -0.019259546
0000e0 8f 40 47 bd f3 15 a8 3c af 95 0b 3e 66 b0 6a bc
       -0.048645552 0.020518279 0.13631319 -0.014324283
0000f0 74 9d b4 3d e3 d5 c3 3d c3 30 09 3d 9c c1 3b 3d
       0.08819094 0.0956228 0.03349377 0.045838937
000100 e4 35 07 bc e0 75 7c 3b a1 ee 08 3d 8f 78 fb bd
       -0.008252595 0.0038522407 0.0334307 -0.12278854
000110 f0 ba 4b bc 13 7f 8a 3d 3d b6 75 bd 42 be 46 bd
       -0.012434706 0.06762519 -0.05998825 -0.048521288
000120 34 28 3b bc 68 70 fa bd 2c 97 37 bd bc 48 0b be
       -0.011423159 -0.12228471 -0.044821903 -0.13601965
000130 36 24 00 bb b1 71 a0 3d c3 43 31 3d 00 ec 15 bd
       -0.0019552833 0.07834185 0.043277513 -0.03660202
000140 f2 c7 f7 3c ad 87 f8 bc 26 ce 0c 3e 10 88 54 ba
       0.030246709 -0.030338133 0.13750514 -0.0008107433
000150 bd 34 d2 3d 23 69 b8 bd b6 29 8d 3d 4d a8 7f bd
       0.10263965 -0.09004428 0.06892721 -0.062416364
000160 b9 16 67 bc ff 38 df bd 81 3c 80 bd 35 9a 43 3d
       -0.014104539 -0.10899543 -0.0626154 0.047754485
000170 95 6d 49 bb 4f d6 73 3d 79 04 84 3d 70 d7 36 3e
       -0.0030735482 0.059530552 0.064461656 0.1785562
000180 18 14 5c bd e2 ca 15 3e c2 d1 51 bc 6f df ef bc
       -0.0537301 0.14628175 -0.012806358 -0.029281346
000190 0c a3 6f bd 5f 4c 2f 3c 5b 35 25 3e cd c8 d0 3d
       -0.058505103 0.010699361 0.16133635 0.1019455
0001a0 75 5c 2d 3c 71 89 8c bd 85 cd bb bd 66 5e b1 3d
       0.0105811255 -0.06862152 -0.09170059 0.08660583
0001b0 49 a5 d9 3d 37 a5 0a 3e fb 7b ba bd 27 ba d1 bc
       0.10627229 0.13539587 -0.09105679 -0.02560146
0001c0 4f f3 2d 3a 41 4a 0b bd e2 b7 e3 bd 6c d6 c2 3d
       0.0006635682 -0.03400636 -0.11119057 0.09513554
0001d0 61 f3 b7 3c 5a 71 d3 bc e7 54 f5 bd 79 30 a1 3b
       0.02245492 -0.025810886 -0.119790845 0.0049191085
0001e0 cc 79 7a bd b0 74 f3 bc 6b 4a 95 bd 24 af c4 bd
       -0.06115131 -0.029718727 -0.07289585 -0.09603718
0001f0 fc 68 59 3c a9 6c cb bc 65 c8 bc ba 8b a1 0a bd
       0.013269659 -0.024832087 -0.0014402984 -0.033845466
000200 1b f4 b2 bd 5b c5 88 3d 02 ef 40 3c 30 d6 2b bd
       -0.08737966 0.066782676 0.011775734 -0.041952312
000210 a9 19 40 bd 87 ea 21 bd c9 8d 2e 3c c6 ce e3 3d
       -0.04689947 -0.039530303 0.010653921 0.11123423
000220 e6 88 d6 ba 7c 8b 8c 3d 7d 9f 77 3d 18 6d b9 bc
       -0.0016367703 0.06862542 0.060454834 -0.022635028
000230 aa de e6 3d e8 7b 25 3d 5b 11 7e 3d 03 a8 98 3d
       0.112729385 0.04040137 0.06202827 0.07453921
000240 e1 59 87 bd 81 62 0f 3e 36 ea ef bd e8 7c bc 3d
       -0.0660894 0.1400242 -0.11714594 0.092035115
000250 82 cc 0b bd cd 38 c8 bb d8 c8 2c bd 60 54 ca bd
       -0.03413058 -0.006110287 -0.042183727 -0.098793745
000260 72 58 fb 3b db dd 84 3c 48 91 7a bb 1a 91 49 bd
       0.0076704556 0.01621907 -0.0038233567 -0.049210645
000270 55 fe 6c bd e4 26 39 3d 36 73 8a bd eb 62 ab bc
       -0.057859737 0.045203105 -0.06760256 -0.020921191
000280 0b db 1c bd d9 d4 57 bd dc 9a 41 3d 90 96 83 bc
       -0.038294833 -0.05269322 0.047266826 -0.016063005
000290 1c 86 6e 3d e9 ac fb 3d 02 a3 a5 bd e2 3c d3 3c
       0.058233365 0.12288839 -0.08087732 0.025785867
0002a0 44 c2 b5 3c fd bc f0 3d 01 65 6c 3d 9a 31 e4 39
       0.02218736 0.11754797 0.057713512 0.00043524505
0002b0 6f da b9 bd 6b 50 50 bb 5c fb 12 3d 9b ee 88 3d
       -0.09074866 -0.0031786214 0.035884246 0.066861354
0002c0 83 74 09 3e 40 e3 e6 3b 35 cd 10 bd be 30 aa bd
       0.13423352 0.0070461333 -0.03535195 -0.08310078
0002d0 ee 2e c1 3c 5c 2e 23 be 6a fe b4 3d 2f 42 49 bd
       0.023581948 -0.15935653 0.08837588 -0.049135383
0002e0 e4 b4 38 3e 3a 20 e3 bd 6f ab 1f bc e3 f9 cc 3d
       0.18037754 -0.11090131 -0.009745463 0.100085996
0002f0 f8 e8 69 3d bf 4a 21 3e 22 2e ab bd 15 80 a8 bb
       0.057106942 0.1575117 -0.083584085 -0.0051422217
000300 48 f2 ed bd 9b 85 1e 3c eb 03 86 3c 7a 58 d8 3d
       -0.11618477 0.009675409 0.01635929 0.105637506
000310 4b 8a b2 3b 31 bf 0f bd 9b 08 32 be 4b 30 dd bc
       0.0054486147 -0.035094444 -0.17386095 -0.027000567
000320 8e 1d fc bd b6 9a 93 bd dc be d3 bd a8 60 a1 bc
       -0.123103246 -0.07207243 -0.10339138 -0.01969941
000330 35 ce 86 bd f4 8b 64 bd 78 d0 0c 3e d4 04 16 be
       -0.065822996 -0.055797532 0.137514 -0.1465028
000340 b2 cd b8 bc 35 17 5a 3c f3 48 d9 bd 98 37 76 3d
       -0.02255902 0.013311197 -0.10609617 0.060111612
000350 b7 b5 11 3d 14 02 8a bd 90 c4 54 3c 09 0c 86 bc
       0.035573687 -0.067386776 0.012986317 -0.01636316
000360 19 ea b9 3d 29 2d c4 bd 97 7b 83 3d 92 16 04 be
       0.09077854 -0.09578926 0.06420057 -0.12899235
000370 da fa 07 bd fb 67 af bd ee 9c a6 bd a2 b1 1c bc
       -0.033198215 -0.085647546 -0.08135401 -0.009563835
000380 86 1c 5f 3d 9b 72 d6 bd 73 b2 34 be 93 78 0c 3d
       0.05447056 -0.10471078 -0.17646198 0.034294676
000390 84 e5 c3 3d 67 5b 43 bc df 17 51 bd 11 f8 1a bd
       0.09565261 -0.0119236475 -0.051048156 -0.03783423
0003a0 b8 87 77 bd 61 15 c4 3d ac dd 55 bd 83 0e 5a 3d
       -0.060432166 0.0957439 -0.052213356 0.053236496
0003b0 bb 4f 93 bd 44 03 91 bd 4d 81 07 3e 54 46 69 3c
       -0.07192942 -0.07080701 0.13232918 0.014237959
0003c0 40 5c f9 bd bc 01 98 3c 87 56 9d bd 7e f9 40 bc
       -0.121757984 0.018555515 -0.076825194 -0.011778234
0003d0 51 a1 3c be fb 03 6c bc 68 44 b2 bd ac 1d 89 3d
       -0.18420912 -0.014405246 -0.08704454 0.066951126
0003e0 22 13 93 bd 4b fc 2b bd a1 ca 81 3c 40 e1 4b 3d
       -0.07181384 -0.041988652 0.015843691 0.049775362
0003f0 3f 3e 45 bc 28 05 2d 3d 7c 91 08 bd 8a f6 db bc
       -0.012038766 0.042241246 -0.03334187 -0.026850957

network_body._body_endoder.seq_layers.2.bias f4 [256]
000000 8e ff 23 3c e7 44 f9 bb c2 a1 c6 3c c8 81 03 3d
       0.010009659 -0.0076070908 0.024247054 0.03210619
000010 66 be 8a 3d 04 b7 94 3c 6d 1a 80 3c f2 74 7e 3c
       0.06774597 0.018153675 0.0156376 0.015530812
000020 6c 15 44 3d 65 28 c1 3c 02 b5 8f 3b b2 30 1e bd
       0.047871992 0.023578832 0.0043855915 -0.03862066
000030 32 98 35 bd 18 f2 12 3d b5 0f d5 bc bd b4 23 bc
       -0.044334598 0.03587541 -0.026008466 -0.009991822
000040 6b 4b fd 3b c6 34 37 3b 0b 5a 93 3d d1 bf 13 3d
       0.007729938 0.002795504 0.07194909 0.036071602
000050 94 2f 36 38 ff 3a 41 3d 14 1b f6 3b b6 2b 15 3b
       4.3436492e-05 0.047175404 0.007510552 0.002276165
000060 56 54 f9 bc 06 5e 03 bc 33 c4 cb 3c 24 4b 23 3d
       -0.030435722 -0.008018022 0.024873829 0.03986658
000070 8e eb 96 bd 9e 95 88 3b a4 90 0d 3c df 5c 06 3d
       -0.07369147 0.0041682264 0.008640442 0.032803413
000080 2a 5f 5b bc cd 65 60 bd c8 07 1a bd cf 79 fc 3c
       -0.013389388 -0.054784585 -0.037605077 0.030819802
000090 7b a9 31 bd de e1 d8 3c 2b 32 44 bd 89 6a 5f 3d
       -0.04337452 0.02647489 -0.047899406 0.05454496
0000a0 b8 e1 9a bd 8b c0 a2 bd 68 75 d2 3c 55 39 f4 3c
       -0.07562584 -0.07946881 0.02569075 0.029812494
0000b0 b8 2e e8 3b 30 28 52 bd 27 0b 0d 3d 67 4d ca 3c
       0.0070856474 -0.051307857 0.034434464 0.024695111
0000c0 c1 22 10 bd 91 c2 c8 3b 8b 56 62 3d 4d ee fa bc
       -0.035189394 0.0061267097 0.055258315 -0.030631209
0000d0 35 5d 10 3c 85 15 ff bc da 86 a6 3c 61 ac 54 3c
       0.008811285 -0.031138191 0.020327974 0.012980551
0000e0 52 27 75 3d 07 f6 67 3b 64 e3 58 bd 5e d6 1a bd
       0.059851952 0.0035394446 -0.05295123 -0.037802093
0000f0 dd ff 17 3c 0d e6 b2 3b a8 cd 33 3c 02 c0 41 bb
       0.009277311 0.005459553 0.010974325 -0.0029563908
000100 14 a8 02 bd 7d 59 07 3c e7 08 fa bc 83 5f f3 bb
       -0.031898573 0.008261082 -0.030521823 -0.0074271574
000110 21 d8 df bc 25 e4 7f 3d 61 12 b0 3c b5 80 cc bb
       -0.027324738 0.062473435 0.021493139 -0.006240929
000120 de 32 ff 3c 17 bd d7 3c 35 09 44 bb db f2 ab 3b
       0.031152185 0.026335282 -0.0029912714 0.0052474565
000130 37 fb 0f 3d 6c 32 2c bc 2e e1 33 3c 1a c0 b9 3c
       0.035151687 -0.010510068 0.01097898 0.022674609
000140 1e 6a ef bc 4b 1b 53 bc 6b d3 f5 3b 1b e6 35 3c
       -0.029225405 -0.012884925 0.0075020096 0.011102225
000150 1e 72 a4 3c 0d cc 05 3d 8f a2 be bc 0c c0 83 3c
       0.020073947 0.0326653 -0.023270873 0.016082786
000160 cf d7 22 bc aa c5 94 ba 93 fb 1a bd 28 85 76 3a
       -0.009939148 -0.0011350412 -0.037837576 0.0009403997
000170 79 76 82 3d 2c a4 b4 bc 71 0d 6f bb 34 f3 94 3b
       0.06370253 -0.02205094 -0.0036476518 0.0045455936
000180 43 cb a1 3c 7a d4 ad 3c 34 f7 63 3b bb 68 15 3d
       0.019750243 0.02121948 0.0034784796 0.036476832
000190 0a 56 ab 3c 25 c6 38 bc b9 f4 d5 bc 00 ad 06 3d
       0.02091505 -0.01127771 -0.02611767 0.03287983
0001a0 7e 26 78 3a f1 6a 53 3c b6 f0 10 3d 8f 4d 52 3b
       0.0009466185 0.012903915 0.03538581 0.0032089686
0001b0 cd c5 a3 3c 02 36 16 bc da 60 06 3d 9c 07 34 3d
       0.01999178 -0.00916815 0.03280721 0.04395257
0001c0 a9 dc 7d bb be 16 d6 3c 95 65 6f 3d 19 01 4c bc
       -0.003873626 0.026133891 0.058446486 -0.012451434
0001d0 c3 95 c3 bc c4 0b 8c bd 46 d1 a0 bc 99 49 bf bb
       -0.023875123 -0.068381816 -0.01963104 -0.005837631
0001e0 da f2 e3 bc 54 fa 4b bd a8 6a 99 bc e7 1d 5c 3d
       -0.027825762 -0.04979928 -0.018727615 0.053739455
0001f0 1b d7 d8 3c f9 d0 87 bc 0e 62 ab 3c 7a 9d bc 3c
       0.026469758 -0.016579138 0.02092078 0.02302431
000200 94 ef 3a 3d e0 31 a2 3d d1 44 91 bc 0b bb 64 bc
       0.045638636 0.07919669 -0.01773301 -0.01396061
000210 47 7d 9a 3c a0 5e f9 bc bd 17 40 3d 57 a6 04 3c
       0.018858565 -0.030440629 0.04689764 0.008096299
000220 d0 57 d9 bb 45 55 72 3c 5c 7f f6 3b 22 64 84 3d
       -0.0066327825 0.014790838 0.0075225066 0.06464411
000230 e6 5c 2e 3c d6 54 6d 3d c1 61 8a 3c ad 08 34 3b
       0.010642266 0.057942234 0.016892316 0.0027470991
000240 fd 42 aa 3c 12 d8 1e 3c 4b 73 83 bc 8d f4 5b 3b
       0.020783896 0.00969507 -0.016046187 0.0033562512
000250 e1 b7 6b 3d 3c b5 3a 3d 79 ce 90 bb 0d 20 34 3d
       0.057548407 0.045582995 -0.0044191447 0.04397588
000260 e4 9a 01 3d 13 88 25 bc 7f dd b2 bc 69 29 9c 3d
       0.031641856 -0.010103243 -0.021834133 0.07625086
000270 d9 e3 ac 3d 75 0c e6 bc 61 1f 7d 3b 7a d8 ef 3c
       0.08441896 -0.028082112 0.003862344 0.029278029
000280 06 36 81 bd 7d 5c 1c bd ba 21 43 3c 93 20 4d bc
       -0.06309132 -0.03817414 0.0119098965 -0.012519973
000290 95 8f fd 3c f7 7e c0 3c 5e 9d a1 3c 38 84 32 3c
       0.030952254 0.023498042 0.019728359 0.010895781
0002a0 c3 51 32 3c 13 29 06 3c 51 c2 99 bc a7 27 28 3c
       0.010883751 0.008188504 -0.018769415 0.01026336
0002b0 fb c5 a9 3d 37 bd 2b bb de f0 21 3d 0e 29 ab 39
       0.08289715 -0.002620531 0.03953635 0.0003264625
0002c0 a9 61 0a bb be 82 d7 bc be a8 2a bc 23 a2 27 bc
       -0.002111534 -0.02630746 -0.010416208 -0.0102315275
0002d0 d9 75 49 3c ac 77 73 bb 1c b8 6d 3d 24 41 53 3c
       0.0122961635 -0.0037150187 0.05803691 0.012893949
0002e0 03 9d 16 3c 50 6a 6d 3a 48 69 ab 3d 41 9b 89 3d
       0.009192708 0.00090566743 0.0836969 0.067190655
0002f0 68 c7 81 3c 3e 26 34 bb 38 54 37 bc f3 3c 6e 3d
       0.015842155 -0.0027488614 -0.011189513 0.058163594
000300 4b de 17 3d b9 cb b0 bc 1b 5a d8 3d be 0e f1 bc
       0.03707723 -0.021581518 0.10564061 -0.029425975
000310 35 7a 56 3d 9a c2 83 3c 95 7e a7 3b 76 ca 21 bc
       0.05236264 0.016084004 0.0051115253 -0.009874931
000320 65 b0 eb 3c 23 52 1a 3d 36 64 6c 3c 80 49 6f 3d
       0.028770635 0.037675988 0.014428189 0.058419704
000330 fe c3 8e 3d 15 c9 4e 3d 63 fc 64 bb 08 f1 a6 bb
       0.06970976 0.050484736 -0.0034940473 -0.005094651
000340 e7 3e 95 3c d4 5d 49 3c 69 0c ee 3c ae 5f 7c bc
       0.01821847 0.012290437 0.029058652 -0.015403671
000350 51 c0 6a 3d d5 5f 26 3d 28 dd 19 3d 23 56 1c bc
       0.057312313 0.040618736 0.037564427 -0.009542021
000360 c7 ce eb bb 36 37 f7 bb 1f ba 34 3d 96 22 57 3d
       -0.0071962806 -0.0075444235 0.04412281 0.052523218
000370 b8 9c 35 3d 91 c2 4b 3d 9f 3d 4d 3d 9f d1 0e bd
       0.04433891 0.0497461 0.050107595 -0.03486788
000380 a2 f3 5d 3c 1b b7 19 bc b5 5d fd 3b f7 61 54 bd
       0.013546856 -0.009382035 0.007732118 -0.05185124
000390 ba e9 df bb df 8b bb bc 8b ab 2e 3d 22 37 cc 3c
       -0.0068332823 -0.022893844 0.042644065 0.024928633
0003a0 ff 9e b6 3b 28 ec c9 3c e8 98 b4 3d ec 7f 71 bc
       0.005573153 0.02464874 0.08818227 -0.014739972
0003b0 46 1f d4 3c ce 90 ca 3c 46 61 b6 bb 8c e2 ff bc
       0.025893819 0.024727251 -0.005565795 -0.031235956
0003c0 ba 82 ef 3c 91 3b 13 bc 0a 25 0c 3d 05 00 2f 3c
       0.02923714 -0.00898637 0.03421501 0.010681157
0003d0 b4 89 a0 b9 37 e9 af bb 29 77 fd bc a1 d0 2f 3c
       -0.00030620175 -0.0053683775 -0.030940609 0.010730893
0003e0 61 f1 46 bd 59 a6 0e bd bb c0 f4 3c 07 95 96 bd
       -0.04857004 -0.03482661 0.029877057 -0.073526435
0003f0 04 7a db 3c cc fd a3 bc 4d 75 23 bb 86 83 86 3d
       0.02679158 -0.02001848 -0.0024941743 0.06568055

network_body._body_endoder.seq_layers.4.weight f4 [256, 256]
000000 cb 50 79 bc 06 7e a4 3d 2f 35 9e bd f2 63 cb bd
       -0.015217016 0.080318496 -0.07724988 -0.099311724
000010 a7 b4 8e bc 84 9d 21 be 70 73 0c bd 42 0b 9f 3c
       -0.017420126 -0.15782744 -0.034289777 0.019414548
000020 e7 cf 4e bd b1 53 43 bd be 0b 8b bd 0e b9 7b bd
       -0.05049124 -0.047687236 -0.06789349 -0.06145578
000030 a5 bc 8d bd d5 af a5 bd 3d 5d 33 bc 97 32 84 3d
       -0.06920747 -0.08090178 -0.010947523 0.06454962
000040 9d 00 a8 bd 49 ea 70 3c ee 5e 20 bc 94 28 74 3d
       -0.08203242 0.014704295 -0.009788258 0.05960901
000050 3f 3f 47 bd b3 45 6c bd 9f d1 44 bc d1 42 f9 3d
       -0.0486443 -0.057683658 -0.012012868 0.12170947
000060 e5 fa b3 3d b0 a6 a6 3b c2 80 3a 3d fb 25 25 3d
       0.08788089 0.0050857887 0.04553295 0.040319424
000070 fa a5 a2 3d b6 fd b7 bc a0 cb 50 bc 64 f8 cb 3c
       0.07941814 -0.022459846 -0.0127438605 0.024898715
000080 67 18 d8 bc 27 06 45 bd 91 af 01 be 0b da fd bc
       -0.026378823 -0.04810157 -0.1266463 -0.03098776
000090 ed 63 16 bd 5b 51 10 be 16 b3 f8 3d 9d 7f 05 3d
       -0.03671639 -0.14093535 0.12143533 0.032592405
0000a0 8a d2 8b 3d 55 90 16 3e 8b 79 a8 3c 94 c1 cf bc
       0.068272665 0.14703496 0.020565769 -0.02536086
0000b0 c5 db 32 bd 2c 18 16 bd bd 83 01 bd d8 ca 7a bd
       -0.04366662 -0.036644146 -0.031619776 -0.061228603
0000c0 db 35 71 bd 48 23 33 bd 99 87 24 3d 68 35 9c 3d
       -0.05888925 -0.04373482 0.04016838 0.07627374
0000d0 8d aa d2 3c 48 9c 58 3d 30 c2 c5 3d 6b b7 71 bd
       0.02571609 0.052883416 0.09656179 -0.05901281
0000e0 5c 67 dd bd cd 6d 92 bd 38 49 ae 3d d8 23 84 bd
       -0.1081073 -0.07149849 0.08510059 -0.06452149
0000f0 ac a1 1f 3d ac 55 a2 bc 64 da 8a 3c 48 da 95 3d
       0.03897254 -0.019816242 0.01694984 0.073170245
000100 23 09 f3 bd 7c 4b 9a bb ad 34 0c be ab 5a c4 bd
       -0.11866977 -0.0047087055 -0.13691969 -0.09587606
000110 5b e8 3a 3c f6 57 c9 bd 6d 78 3e bd 6b be 0f 3e
       0.011407937 -0.0983123 -0.046501566 0.14037482
000120 46 42 67 3c 28 b5 36 bd cc a5 91 3b f7 5b 52 3d
       0.014114922 -0.044606358 0.0044448134 0.051357236
000130 97 61 10 bd 38 b5 01 be 35 92 87 3a 51 a1 79 3d
       -0.03524932 -0.12666786 0.0010343256 0.06094486
000140 46 7c d9 3d c3 9b 3f 3e 5e ba 92 3c 56 8c a3 3a
       0.106194064 0.18711762 0.017911132 0.0012477736
000150 3d 9f f9 3c 50 54 47 bd b4 43 91 bd 0a 00 04 3c
       0.030471439 -0.04866439 -0.070929915 0.00805665
000160 7c 88 d2 3b 2a bd 4b 3d b3 02 80 3c 7c a6 b2 bd
       0.0064249616 0.049740948 0.015626287 -0.087231606
000170 ee 4c 3a 3e 2b de a0 bd 75 ef 61 bd 43 62 6a 3b
       0.18193409 -0.07854875 -0.055160005 0.0035764135
000180 c5 25 cd 3d e1 a1 d9 bb d7 31 1a bd 62 0d 28 3d
       0.100169696 -0.006641612 -0.037645187 0.041028388
000190 68 1e bb 3c e5 73 a4 3d e3 28 29 3d 1e d5 17 3c
       0.022841647 0.08029918 0.04129876 0.00926712
0001a0 30 46 b1 3d 0f 6f 59 bc 0a 82 e0 bc fb a1 bc 39
       0.08655965 -0.013271107 -0.027405757 0.0003597884
0001b0 2a 48 87 3b 36 95 fc 3d 59 f6 0e 3d fd 98 0b 3e
       0.0041284757 0.12333147 0.034902904 0.13632579
0001c0 b7 3b ac 3c 42 f0 0a 3e 58 8c b8 3c f9 ad bb bd
       0.021024568 0.13568214 0.022527859 -0.09164042
0001d0 1d bf f6 3a 4c b8 f6 3b e8 82 a1 bd 60 ac 01 be
       0.0018825267 0.007529294 -0.078862965 -0.12663412
0001e0 51 71 9c 3c 3a 19 60 3d 00 aa a2 bd 5c 7a 81 3d
       0.019097002 0.054711558 -0.07942581 0.06322166
0001f0 48 32 c6 3c 9a c1 34 3d 29 af b1 3d cf 01 b5 3d
       0.024193898 0.044129945 0.08675987 0.088382356
000200 98 45 be 3d 6d 2b 95 bb e3 8f 5d bc fd be 7a 3d
       0.09290618 -0.004552296 -0.013523075 0.061217297
000210 8b 33 a8 bc 65 4f 90 bb 8a 11 59 bc 60 88 c3 bd
       -0.02053239 -0.004403996 -0.013248811 -0.09547496
000220 4d 8b b0 3d e2 db 4e 3d c0 24 4f bd 70 3f cd bc
       0.086203195 0.050502665 -0.050572157 -0.025054663
000230 bc 8e ef 3d 81 9c d0 3c 26 8f 23 be 39 61 bf 3c
       0.11697146 0.025465252 -0.15972576 0.023361789
000240 e1 b8 db bd 0f e1 7e bd a4 d3 83 3d 82 3e da 3d
       -0.10728622 -0.06222635 0.064368516 0.10656454
000250 10 2d 01 bd e9 a7 9f 3d e2 30 b0 bd 91 b3 7c 3d
       -0.031537116 0.07795698 -0.08603074 0.061694685
000260 17 22 c5 bc a7 30 3c 3d b3 a2 d3 bc 48 20 89 bd
       -0.024064107 0.045944836 -0.025834417 -0.0669561
000270 b5 03 ad 3d 88 48 73 bd b3 96 8d 3c e9 9f ea bd
       0.08447973 -0.059395343 0.017283773 -0.11456282
000280 c8 32 33 3e 5f 16 fd bd 4a 4f 69 3d 4f 2d 69 bd
       0.1749984 -0.123577826 0.05696038 -0.056927975
000290 8d 2b 0f be 0d f9 e6 3d 9d d3 a3 3a c9 5a f1 bd
       -0.13981457 0.112779714 0.0012498979 -0.11784894
0002a0 df b9 7c bc 96 48 54 bb 69 fe ee bc 4d 31 79 bd
       -0.0154251745 -0.0032391897 -0.029174047 -0.060838033
0002b0 a4 ce 85 bd ae 7e 91 3d fe be fd 3b 3f bc 66 be
       -0.06533554 0.0710424 0.0077437153 -0.22532748
0002c0 52 66 a6 bd e9 25 8d 3d 17 07 df bc 3e 55 9e 3a
       -0.08124985 0.068919964 -0.02722506 0.0012079848
0002d0 65 94 65 bd bf a8 4d bb cc c8 ff 3c c9 ea 82 bd
       -0.056049723 -0.0031381098 0.031223677 -0.06392438
0002e0 95 b3 ba 3d 65 20 0c 3d d1 ee 3d 3d 4a b4 28 3e
       0.09116284 0.03421058 0.04637033 0.16475025
0002f0 6a 43 f6 ba 2e 68 87 3d c0 d4 41 bd ab 20 65 3d
       -0.0018788402 0.066116676 -0.047322035 0.055939358
000300 b5 d3 16 bd 0e c2 01 be 89 69 18 bd 8f 13 e3 ba
       -0.036822993 -0.12671682 -0.03721002 -0.0017324555
000310 27 71 e5 3d 4b ee d6 bd 32 4f 8f 3d 8e 9f 19 3c
       0.11203223 -0.104946695 0.06997527 0.00937642
000320 60 8a aa bd 02 90 16 3c 9a c1 27 bc 42 4a a2 3c
       -0.08327174 0.009189608 -0.010239029 0.0198108
000330 c7 09 d4 bc 00 96 19 be e4 7f b2 bc 24 93 95 3d
       -0.025883568 -0.14998627 -0.021789499 0.073034555
000340 62 49 31 bc 84 cd 20 be 0f e4 9d bd e8 f2 05 3d
       -0.0108207185 -0.15703398 -0.07709514 0.032702357
000350 5e cf 4f bd 53 dc bc 3d 06 9d f8 bd a5 94 74 3d
       -0.05073487 0.09221711 -0.12139325 0.05971207
000360 c8 47 d3 bd b7 59 14 3c d3 d1 67 bd d5 15 90 bd
       -0.103164256 0.009054593 -0.05659659 -0.07035414
000370 f8 30 01 3d ad 5a 02 b9 44 ab 05 3c 05 1e fb 3c
       0.03154084 -0.00012431545 0.008158509 0.030653963
000380 ae b1 87 bd 49 3b cf 3c ea e5 d0 38 4d b9 26 bd
       -0.066256866 0.025296824 9.961038e-05 -0.04070406
000390 dd c6 ad bd 98 d7 2b bd ea 48 55 bd ad 32 17 3d
       -0.08485196 -0.041953653 -0.05207149 0.036913563
0003a0 5b 99 a4 3d 82 26 95 bd 2a 5c 61 3d 0a ea 5b 3a
       0.08037063 -0.072827354 0.055019535 0.00083890615
0003b0 e9 dc fb 3c b1 71 f0 3d d8 42 aa bc d2 01 ab bd
       0.030744987 0.11740435 -0.020783827 -0.083499566
0003c0 f7 b3 83 3d 0b d9 13 be f5 0f b4 3d 1b 9f 26 3d
       0.0643081 -0.14438264 0.08792106 0.04067908
0003d0 5a f1 6d 3d 4c 8e 15 3e ff ec be bd b3 36 6a bd
       0.0580915 0.14605063 -0.09322547 -0.05718107
0003e0 19 fd 1e bc 94 9b 36 bd 8a fc 73 bd f1 b7 cc bc
       -0.009703898 -0.044581965 -0.059567012 -0.024990054
0003f0 7f 0d 36 bb 2c df 0b bd b7 f1 8e 3d bb 32 b8 bb
       -0.002777904 -0.03414838 0.06979697 -0.005621282

network_body._body_endoder.seq_layers.4.bias f4 [256]
000000 e2 11 f9 bb a0 9e 76 3c 2a 52 5f 3d 07 33 7e 3d
       -0.0076010088 0.015052468 0.054521717 0.062060382
000010 e5 d2 29 3c 9a dc 68 3d 48 0f 89 ba fd 9c 1e 3c
       0.010365223 0.056851007 -0.0010456825 0.009680984
000020 0b 5d 68 bc ce 83 a3 3c 68 7c 87 3c 85 3a 7b 3b
       -0.014182339 0.01996031 0.016538814 0.003833444
000030 cd 3b 28 3d 4b 0a d5 bc 63 ae 9a 3d 3b 90 61 3d
       0.041072655 -0.026005885 0.07552793 0.05506919
000040 75 53 cc bc 5d 3b 0b 3d 13 7d 97 3b 6c 4a 94 3c
       -0.02494214 0.03399216 0.0046230643 0.018101893
000050 ce 65 9c 3c 04 fc d3 3b f3 21 1f 3d 7c 6e 93 3b
       0.019091513 0.0064692516 0.038850736 0.0044992547
000060 e7 05 04 3d 11 82 88 3c fe 6a a0 bd 66 da f1 3c
       0.03223219 0.016663583 -0.07832907 0.029523086
000070 62 57 50 3b da 99 9b 3d 38 da 68 3c d4 81 a5 3c
       0.0031790365 0.07597704 0.014212184 0.020203508
000080 62 94 3e 3d 93 e4 86 3d dd c8 42 3d 83 68 98 3c
       0.046528228 0.06586566 0.04755484 0.018604523
000090 07 72 b9 3c b4 76 b6 3b df af 26 3d 2f 96 ab 3b
       0.02263738 0.0055683497 0.040695067 0.005236409
0000a0 96 7c 88 3c 85 09 cb 3c 12 c1 2e 3c 88 2a 93 3c
       0.01666097 0.024784813 0.010666149 0.017964616
0000b0 f4 3d b7 3b 29 34 0c 3d ae d1 11 bc a7 d0 05 bc
       0.005592102 0.03422943 -0.008900089 -0.008167422
0000c0 8f bc 04 3d eb 56 53 bb 76 d5 01 3d 09 60 e7 3c
       0.032406386 -0.0032247852 0.031697713 0.028244035
0000d0 fa bc 2c bc 11 a5 b5 3c 4e 07 32 ba a9 f7 38 3d
       -0.010543102 0.022173436 -0.00067912496 0.045158062
0000e0 b3 0f 0c 3d 82 d1 d7 3c 13 06 9c 3c 54 c8 0e 3d
       0.03419466 0.026345018 0.019045865 0.034859017
0000f0 70 b0 3f 3c 70 33 9e bb 64 35 f2 bc f8 25 a3 bc
       0.011699781 -0.004827909 -0.029566474 -0.019915566
000100 e5 78 1b bc c5 d6 b0 3b 87 17 a5 3b 7b 62 84 bc
       -0.009489273 0.0053966963 0.005038205 -0.01616024
000110 27 64 2a 3d 1c 0a 91 bb da c3 9c bc e7 44 a2 3c
       0.04159942 -0.004426254 -0.019136358 0.019808246
000120 30 78 86 3d 5e 47 cb 3c aa cd 03 bc 32 92 e7 3c
       0.06565893 0.024814304 -0.00804464 0.028267954
000130 f4 0a 12 3d 21 95 cb 3b e6 24 c8 3c a4 49 32 bc
       0.035654977 0.006212846 0.024431657 -0.010881815
000140 41 63 34 3c 09 6e ec 3b 54 62 15 3c 5a 97 d8 3c
       0.011009992 0.0072152657 0.0091176815 0.026439358
000150 07 f1 8e 3d fd 52 d7 bb bd 90 e3 3b 29 e3 de 3c
       0.06979566 -0.0065711723 0.0069447444 0.027207928
000160 47 5e 14 3c 85 7b 04 3d 77 b9 e1 bc cf 36 84 3c
       0.009055681 0.03234436 -0.027554257 0.016139416
000170 f7 57 4c 3c 35 43 0b 3d 2a bc 40 bb 87 35 a2 3c
       0.012472144 0.03399964 -0.002940903 0.019800914
000180 29 46 9b 3d 43 a2 bd bc bc 2c 2b 3d ca 16 03 3d
       0.07581741 -0.023148661 0.04179071 0.032004155
000190 45 8b 89 3c be 7e 9f 3c d5 b9 eb 3a 3a f8 36 3d
       0.016790042 0.019469615 0.0017984459 0.04467032
0001a0 a7 a8 8a 3c 6c 95 c6 3b 85 cb 8a 3d a1 9f c4 3c
       0.016926123 0.006060293 0.067770995 0.024001898
0001b0 0f 70 55 3d 9a cb 53 3d 4f c0 63 3c bc 89 1e 3b
       0.05210882 0.05170784 0.01390083 0.0024190983
0001c0 39 94 75 3d b3 c9 54 3c 27 99 b1 ba 20 a3 9b bb
       0.05995581 0.012987542 -0.0013549671 -0.0047496706
0001d0 51 b2 fe 3c c6 9b a2 3b a3 a4 0c bc f5 b3 97 3c
       0.031090887 0.0049624173 -0.008584174 0.018518427
0001e0 2f e8 64 3d ab b7 78 3d 81 fa 7e 3d 43 56 1e 3c
       0.05588549 0.060722034 0.062250618 0.009664121
0001f0 5e a1 0e 3c 99 9b 98 3d 27 2e 93 3c 38 06 49 3c
       0.008705465 0.07451553 0.017966343 0.012269549
000200 bb 6c 7d 3b 2d 40 d2 bc 0b b7 c1 3c f4 5f 08 3d
       0.0038669545 -0.025665367 0.023646852 0.033294633
000210 38 8b 87 3c 9b 5a 78 bc 52 fb 61 3d 8b e0 a4 bc
       0.016545877 -0.015158321 0.05517132 -0.020126602
000220 0a 43 57 3c c2 6e 37 3d 2a 79 26 3d d8 ac e5 3c
       0.013138542 0.04478336 0.040642895 0.02803652
000230 43 78 91 3b 27 25 bb 3c dc 6c 1c bd 13 75 56 3c
       0.004439385 0.022844864 -0.038189754 0.013089436
000240 01 2c 0c 3c fa 52 03 b9 70 46 33 3d 68 ed 29 3d
       0.008555413 -0.00012524045 0.043768346 0.041486174
000250 da 52 8a 3d 3a 1c 83 3d e2 16 00 3d 63 43 36 bc
       0.06754084 0.06401868 0.031271823 -0.011124465
000260 1e 0d ea 3c 7a 1e eb 3b 88 1d 97 3d 9a 6a b8 bb
       0.028570708 0.007175264 0.073786795 -0.0056279423
000270 d3 1c b3 3d 06 8a 28 3d f5 23 f6 3c 85 9e 99 3c
       0.08745732 0.041147254 0.030046443 0.018752346
000280 8a 79 9d 3d 0d 86 03 3d 9e 16 49 3d 7c 8d 9c 3c
       0.07689197 0.032110263 0.049093835 0.019110434
000290 a3 39 92 3c 26 ff 6f 3d fa 4b ef bc 38 e0 2c bd
       0.017849749 0.058592938 -0.029211033 -0.04220602
0002a0 79 5a 28 3c 7a 14 db 3c bb 94 69 3c ff 7b 60 3c
       0.010275477 0.026743162 0.0142566515 0.013701438
0002b0 21 4f 13 3d ec 4e 83 3c 7c 16 13 3c 0f b2 6d 3c
       0.035964135 0.016028844 0.008977529 0.0145077845
0002c0 74 53 72 3c cb c1 25 bd ed 47 ac bc 4b 48 27 3d
       0.014790405 -0.04046802 -0.02103039 0.04084043
0002d0 09 54 31 3d 3d 13 17 3d 7f 78 76 3d 22 31 65 bc
       0.043293033 0.03688358 0.060173508 -0.013988765
0002e0 43 be 40 3d 1f 30 6a 3d 86 e5 b2 3c 41 ec 23 3d
       0.047056448 0.057174798 0.02183796 0.04002023
0002f0 45 64 4c 3d 8d 9d 6b 3d 4b 47 08 3c 35 40 d3 3c
       0.049900312 0.0575233 0.008317779 0.025787452
000300 49 13 54 3c a9 ae 03 3d e5 00 ef bb 5f 02 4f bc
       0.012944051 0.03214899 -0.007293808 -0.012634843
000310 55 e1 86 3c 5f 75 23 3d d4 a0 0e bc ff 5d dc 3c
       0.016464869 0.039906856 -0.008705337 0.02690029
000320 1a a3 6e 3c 93 ac fe 3c 5d 50 09 3c 20 69 15 3c
       0.014565254 0.03108815 0.0083809765 0.009119302
000330 c0 4c 50 3c 91 06 b9 3d 13 47 80 3c 82 e9 85 b9
       0.012713611 0.090344556 0.01565889 -0.00025541714
000340 a1 a8 ed 3c 6b 0f 40 3d b8 7a 97 3c 47 33 fa 3c
       0.029011073 0.046889704 0.018491134 0.030542029
000350 f3 58 b7 3c f7 49 5e 3d 4b b0 13 3d 18 a3 8c 3d
       0.022381281 0.054269757 0.036056798 0.06867045
000360 d0 dc e5 3c a2 1e ad bc ec 30 df 3c 7f 62 33 3d
       0.028059393 -0.02113277 0.027245007 0.043795105
000370 ae d8 39 3d 36 5e 3f 3d 02 a8 45 3d f1 d7 35 3d
       0.045372657 0.046720706 0.048255928 0.04439539
000380 22 2a 61 bb ca 33 72 3b ed 51 a7 ba e8 9e 4b bc
       -0.0034357389 0.0036957138 -0.0012765505 -0.012428023
000390 19 77 2d 3d cf 3a 27 3c 2e ee 0d 3d 9c 0e 5d 3d
       0.04234991 0.010206892 0.034650974 0.05396901
0003a0 a5 c7 38 3d 55 2d a1 3a 32 d5 94 3c fe 15 ae 3c
       0.04511227 0.0012296835 0.018168066 0.021250721
0003b0 90 f4 0c 3d dc ce a2 3c 26 1d f3 3c c9 74 e7 3c
       0.03441292 0.019874029 0.029676985 0.02825393
0003c0 bb d1 e9 3c eb 76 45 3d 37 94 78 3c 55 35 ab 3c
       0.02854239 0.048209112 0.015172056 0.020899454
0003d0 9e 53 0b 3c 0e 2f 45 3c 19 c3 37 bc 03 8a 91 3d
       0.008503823 0.0120351445 -0.0112159485 0.07106402
0003e0 07 b2 c1 3c f5 7e aa bc 50 66 1f 3d d1 19 1d 3c
       0.02364446 -0.020812491 0.038915932 0.009588675
0003f0 9c 23 2d 3c a1 10 5f 3c 38 04 c6 3c 3d 76 0b 3d
       0.010567572 0.0136148045 0.024171934 0.034048308

action_model._continuous_distribution.log_sigma f4 [1, 9]
000000 22 6c 98 bd 40 fb e9 3c 6d 19 18 bd a3 ec 87 bd
       -0.074425 0.028562188 -0.037133623 -0.06636932
000010 05 56 05 be 59 63 54 bb 3d d1 e1 3d 8a c2 e1 3d
       -0.13021095 -0.0032407849 0.11026237 0.110234335
000020 40 ef a1 3d
       0.079069614

action_model._continuous_distribution.mu.weight f4 [9, 256]
000000 05 a1 81 3c 86 56 df bc 06 4c e5 bb 91 3a 3e 3c
       0.01582385 -0.027262937 -0.006997588 0.011610643
000010 5d 7b e1 3c 6c 53 40 3d 1d 96 4b bd 84 56 cc bc
       0.027524645 0.046954557 -0.049703706 -0.024943598
000020 b2 b4 03 3d 85 32 68 bc d4 2d e6 3c 81 24 4e bd
       0.032154746 -0.014172201 0.028098024 -0.05032778
000030 e8 f2 91 bd bd 9c 7d 3d 00 15 22 3d 7b 30 d4 3c
       -0.07126409 0.061917055 0.03957081 0.025902024
000040 3a 24 88 3c af 35 8e bb c8 20 31 bd 19 c1 7d 3d
       0.016618837 -0.0043398957 -0.043244153 0.06195173
000050 48 f2 f2 b9 5e 7e 2b bc 6d 50 22 bc 1c 8a d6 bc
       -0.0004633835 -0.01046714 -0.00990687 -0.026188903
000060 50 1e 86 3b 4f d4 7e bd 37 a8 35 bc b7 ef 89 bd
       0.004092969 -0.062214192 -0.011087469 -0.06735175
000070 4f a5 28 3c 27 cb 98 ba 49 df 04 bd b6 06 93 bc
       0.010293319 -0.0011657224 -0.032439504 -0.017947536
000080 d2 d2 f7 bb c4 22 52 bc 68 dd 4c 3c 02 14 4d bd
       -0.0075629735 -0.012825672 0.012503959 -0.05006791
000090 a0 90 65 bc 56 f7 0c 3d 33 82 b5 bb e9 53 72 39
       -0.014011532 0.034415565 -0.0055392026 0.00023110177
0000a0 80 f5 2a bd 3c 7c 00 3d 6b cb e0 bc 41 b7 2a 3c
       -0.041738033 0.03136848 -0.027440747 0.010419668
0000b0 fb 51 1f 3d d3 26 d9 3c f2 e8 63 3d 33 41 65 3c
       0.038896542 0.02650777 0.055642076 0.0139925955
0000c0 63 1b 7b bc 75 9e 01 3b de e0 42 bd e2 02 2e 3d
       -0.015326354 0.0019778286 -0.04757773 0.042483218
0000d0 ba 21 01 3c fd 11 cf bd c9 06 ba bc b6 77 4a bd
       0.007881576 -0.10110853 -0.022708314 -0.04943057
0000e0 fa c7 30 bd 10 51 9c bd cd d5 30 bd 09 2c 96 3c
       -0.043159463 -0.07632649 -0.043172646 0.018331544
0000f0 11 cc 49 bb 9a 96 af 3b 45 86 27 bd 5e 57 ec bc
       -0.00307918 0.0053585293 -0.040899534 -0.028850254
000100 ef 36 5b 3d 29 6b c0 bd 46 a4 75 3c 93 7f 8b bd
       0.053519186 -0.09395439 0.014992779 -0.06811442
000110 53 c6 bb 3d 5a a3 ba bc c5 fe bd bc 37 03 ce bc
       0.09168687 -0.02278297 -0.023192773 -0.025148017
000120 73 2b a3 3c c0 e3 0e bd 5b 37 ea bd e7 78 16 3d
       0.01991818 -0.034885168 -0.114363395 0.036736395
000130 b9 12 86 3d 2c 76 fd 3c de 06 8e bb 34 d5 c6 3b
       0.0654654 0.030940138 -0.0043343147 0.0060678963
000140 3e b4 d5 3c f9 b9 62 3d 11 c5 b9 3c 6c 3b a6 3c
       0.026086923 0.05535314 0.022676976 0.020292006
000150 d5 81 b1 3c 38 34 95 bd 6d 37 c9 bc 0d 4e f0 bd
       0.021668354 -0.072853506 -0.024562562 -0.11733637
000160 2d 22 9f bd 6a a7 12 3c 55 28 54 bd 20 53 86 bd
       -0.077701904 0.008951047 -0.051796276 -0.065588236
000170 f0 bf 60 3c 84 b9 8e 3c 1d 98 8f 3b db 18 60 bd
       0.0137176365 0.017422445 0.004382147 -0.054711204
000180 6f 94 d1 3c 74 49 80 3c d5 33 30 3d 25 35 eb bc
       0.025583474 0.015660025 0.04301818 -0.028711865
000190 49 8b 86 3b 68 94 1a bd 0a b4 18 3c ed 67 b8 3d
       0.0041059596 -0.037739187 0.009320268 0.09004197
0001a0 27 ac 6d 3b 63 b9 f3 3c d2 4c 1c 3c 60 32 63 bd
       0.003626594 0.029751485 0.0095398 -0.055467963
0001b0 80 83 f5 bc 46 86 ed 3c 03 c6 01 bd 33 46 01 3d
       -0.02996993 0.02899469 -0.03168298 0.031561088
0001c0 a6 11 b1 3c d3 b6 96 3a e8 83 b6 3d cd 7c 29 3c
       0.02161486 0.0011498578 0.08911878 0.010344696
0001d0 95 ed f4 bc 06 f6 30 3d cc 79 d0 3c f7 60 c4 3c
       -0.029898444 0.043203376 0.025448702 0.023972018
0001e0 ae 3e 4e bd 2f 09 b3 bd 39 b0 a0 3d 5f f2 12 3d
       -0.050352745 -0.08741986 0.07846112 0.035875674
0001f0 a6 c2 a1 3b f9 53 8c bc 98 11 78 3c 5e 89 6b 3d
       0.004936534 -0.017129885 0.015140913 0.05750405
000200 71 fd 4a bd 40 31 a8 3d 1f 9a 7c bd 44 19 55 3d
       -0.049558107 0.08212519 -0.06167042 0.05202605
000210 7e b0 3a 3b a5 2a 90 3c f6 f1 2f bc 45 b4 87 bd
       0.0028486545 0.01759846 -0.01073884 -0.066261806
000220 d8 5e 67 bc 01 08 19 bd 81 04 d2 3d 4a 1e fe 3c
       -0.014121734 -0.03736115 0.10254765 0.031020302
000230 13 d6 2b bd 66 4c 3a bd bf 66 ae bc b1 8b 73 3b
       -0.041952204 -0.045483015 -0.021289228 0.003716212
000240 ed ee 9f 3c 65 41 d6 bb ab ab 00 3d 30 88 9d bd
       0.019523108 -0.0065385574 0.031413715 -0.07691991
000250 0e 72 4c 3d 53 c4 6d 3c 5e bb 0c bd f4 d8 51 3d
       0.04991346 0.014512139 -0.034358375 0.051232293
000260 2e 68 cf 3d 00 21 cc 3c ab 96 78 3d de c1 85 bd
       0.101272926 0.02491808 0.060690563 -0.06531118
000270 4c a8 e9 3c 3f fe a9 bc 25 89 0d 3d 38 3c bb 3d
       0.028522633 -0.020751117 0.03455462 0.09142345
000280 75 c6 54 bd bb d7 69 3d 7d 0b fd 3c c3 54 a8 bc
       -0.051947076 0.057090502 0.030889267 -0.02054823
000290 15 14 0d 3d c9 5a 48 bd c5 52 97 bd 5c ed 5f 3c
       0.03444298 -0.048914704 -0.07388834 0.013667431
0002a0 03 68 ab bc da 71 e7 bc b5 8a 93 bc b6 6c e4 3c
       -0.02092362 -0.02825253 -0.018010477 0.027883869
0002b0 8b d3 8a bd d2 1e 49 3d f8 7a b5 bb f1 f0 a9 b9
       -0.0677863 0.04910166 -0.0055383407 -0.00032413707
0002c0 8f ff 31 3d c8 1f dd bc dd af b2 3c 07 8d 2c 3c
       0.04345661 -0.026992694 0.021812374 0.01053167
0002d0 d3 4e 8e 3c 6c 2b c6 3d 3e 3b 43 bc 4d e3 43 3d
       0.01737157 0.09676251 -0.01191598 0.047824193
0002e0 96 6f 82 bc 36 5b bd bb 19 19 09 3d 78 7e 00 3d
       -0.015922349 -0.0057786955 0.0334712 0.03137061
0002f0 c4 3a ec ba 8e 87 bc bc 16 31 4f 3d c7 94 9d bd
       -0.0018022885 -0.023013856 0.05058392 -0.07694393
000300 94 28 cc 3b 90 59 10 3d bd a2 60 bd b3 81 04 bd
       0.006230423 0.035241663 -0.0548427 -0.032350253
000310 32 04 77 3a 0b ab 1b bc 1e ad 96 bd 77 de 3d bd
       0.00094229274 -0.009501229 -0.07357238 -0.046354737
000320 2f 98 76 bc 32 a3 4b 3d 6d 99 38 3c 02 68 89 3c
       -0.015050932 0.049716182 0.011267048 0.016773228
000330 0c 1a 9f bd f0 de 3e bd 12 fe 23 3c 87 de f7 3b
       -0.0776864 -0.04659933 0.010009306 0.007564369
000340 50 7c a6 3d 3b fc 6d bd bc 57 15 3d 8c 5b 32 3c
       0.081291795 -0.058101874 0.036460623 0.010886084
000350 16 29 45 3d bb 1e 23 3d 6f 8f 31 bd 36 ff 94 bd
       0.048134886 0.03982423 -0.04334968 -0.0727524
000360 ef 52 3e 3d 2f 82 a1 bd 8b f8 60 bd 38 7e 4e 3d
       0.04646581 -0.07886159 -0.05492453 0.05041334
000370 89 0c 45 3d dd a1 df 3d e2 17 71 bd 3b 0e 67 3d
       0.048107658 0.10919545 -0.058860667 0.056410056
000380 3b 9e 96 3d 79 8c ab bc a1 90 5a 3c 0c 38 aa bc
       0.07354399 -0.020941006 0.013340146 -0.020778678
000390 94 73 42 3c 15 db 39 bd 86 f5 b3 3c d1 7a 04 3c
       0.011868376 -0.04537495 0.02196766 0.008085922
0003a0 9c 8c ff bd fd d6 18 bd 12 56 47 3d 3a 83 79 bc
       -0.12477991 -0.037314404 0.048666067 -0.015229041
0003b0 f5 18 bd bc a1 1a 88 3c c4 cb 10 3d 83 e6 de bc
       -0.02308319 0.01661426 0.035350576 -0.027209526
0003c0 d6 9c 69 bc fc 47 fb bb 85 71 dc bb f0 fb 19 bd
       -0.014258584 -0.0076684933 -0.0067274 -0.037593782
0003d0 a1 6c 1e 3d 01 c7 9e 3c 96 7d 93 3c 7b 36 75 3d
       0.038677815 0.019382002 0.01800422 0.05986641
0003e0 0c 20 8c 3d f0 2e 89 3d 24 b0 b4 3d 87 8f 0e bd
       0.0684205 0.06698406 0.08822659 -0.034804847
0003f0 10 01 25 3d bc 1c ab 3c 9e 1f a6 bc 33 d7 02 bd
       0.040284216 0.020887725 -0.020278748 -0.03194351

action_model._continuous_distribution.mu.bias f4 [9]
000000 98 06 a0 3c 06 eb db bc b5 1d 08 bc cb e0 54 bc
       0.019534394 -0.026845466 -0.008307864 -0.012993048
000010 4d 90 98 3b af c7 f3 bc 38 69 8b bc 99 24 0e bd
       0.004655874 -0.029758302 -0.017017946 -0.03470287
000020 7e 6c cb ba
       -0.0015520004
