Proyecto-RL-main/Assets/Models/Worm-3000008.onnx (onnx, 581953 bytes, 9 tensors)

network_body._body_endoder.seq_layers.0.weight f4 [256, 39]
0	0xbdd9b82a	-0.1063083
1	0xbdc77e52	-0.097408906
2	0xbce49870	-0.02790472
3	0x3e2fdc45	0.1717387
4	0x3e08306c	0.13299721
5	0x3e8ae1d5	0.2712542
6	0x3e3b3d08	0.18285
7	0x3c9709cb	0.018437287
8	0x3d301a12	0.042993613
9	0xbed4e3a4	-0.41579926
10	0x3d5467ba	0.051856734
11	0x3e98bf10	0.2983327
12	0xbdf35f0e	-0.118833646
13	0x3de3aa6f	0.11116492
14	0xbd8a929c	-0.06766245
15	0x3ddaa80f	0.10676586
16	0xbdd5bf21	-0.104368456
17	0x3d9928e5	0.07478503
18	0x3d9b9187	0.075961165
19	0x3e119553	0.14217119
20	0xbe5eb554	-0.21748859
21	0xbdeda673	-0.11604013
22	0xbdbf0558	-0.09327191
23	0xbe243a38	-0.16037834
24	0xbde48abc	-0.11159274
25	0x3e75eb12	0.24015453
26	0xbe809c6a	-0.25119334
27	0xbddf9ccb	-0.10918578
28	0xbcb4034e	-0.021974232
29	0xbec8ba81	-0.3920479
30	0x3c8294b2	0.015940044
31	0xbd82efbe	-0.063933834
32	0xbb7d87e4	-0.0038685733
33	0x3e1ee6b0	0.15517688
34	0x3d2c740c	0.04210286
35	0x3e105393	0.14094381
36	0xbe2a458d	-0.16628094
37	0x3d733916	0.059380613
38	0xbcf93f02	-0.030425552
39	0x3c642274	0.01392423
40	0xbd61ba50	-0.055109322
41	0xbd119272	-0.03554005
42	0xbd400cf2	-0.046887346
43	0x3dc291ed	0.095004894
44	0x3e47d202	0.19513705
45	0xbdfcf7c5	-0.12351946
46	0x3c823391	0.01589373
47	0x3e145dba	0.14488879
48	0xbdc038da	-0.093858436
49	0x3d54b10e	0.051926665
50	0x3e6b25de	0.22963664
51	0x3c4de97f	0.012567877
52	0xbe1765d4	-0.14784938
53	0x3cc45cb2	0.023969982
54	0x3db853cd	0.09000359
55	0xbe48619a	-0.19568482
56	0x3d0a28ba	0.033730246
57	0x3db00712	0.085950986
58	0x3e679b30	0.22617793
59	0x3e100f1c	0.14068264
60	0xbe610c09	-0.21977247
61	0x3e3336a4	0.17501312
62	0xbd917b78	-0.07103628
63	0xbc7d99bf	-0.01547855
64	0x3cd024fc	0.02540826
65	0x3e41421a	0.18872872
66	0x3e09faec	0.13474625
67	0xbc9c62cd	-0.01909008
68	0xbceb7d87	-0.02874638
69	0xbdc635f7	-0.09678262
70	0xbcff6b38	-0.031179056
71	0xbe3cd90f	-0.18442176
72	0xbd82524f	-0.06363355
73	0x3eaa9faf	0.33324954
74	0x3e0b4e12	0.13604
75	0x3e13e5eb	0.14443175
76	0xbbda306a	-0.0066586034
77	0x3e8422df	0.25807855
78	0x3e7b2cc7	0.245288
79	0xbe86b700	-0.26311493
80	0x3e1ee47f	0.15516852
81	0x3d07c938	0.03315088
82	0x3dfc6a55	0.12324969
83	0xbe9c2573	-0.3049732
84	0x3ce2e589	0.027697342
85	0xbdfe992f	-0.12431561
86	0x3e1ecdbe	0.15508172
87	0xbeb581e4	-0.3545066
88	0xbc330230	-0.0109258145
89	0xbe1c1854	-0.15243655
90	0x3d66eacb	0.05637626
91	0x3c200888	0.009767659
92	0x3dffd477	0.12491696
93	0xbd3126db	-0.043249946
94	0xbde5c070	-0.11218345
95	0x3b860ffe	0.004091262
96	0xbd33eb44	-0.04392554
97	0xbd96d920	-0.07365632
98	0x3cc8c0d4	0.02450601
99	0xbd4badb8	-0.049726218
100	0x3db4505d	0.088043906
101	0xbe18a8b4	-0.14908105
102	0xbe711473	-0.23542957
103	0x3de14322	0.10999133
104	0xbda4f66c	-0.08054814
105	0x3d39ec94	0.045391634
106	0xbdb3a6e8	-0.08772069
107	0x3e1cd95e	0.15317294
108	0xbe3f0cec	-0.18657273
109	0xbe156e57	-0.14592873
110	0x3e47c047	0.19506942
111	0xbe423d1c	-0.18968624
112	0xbe0a3491	-0.13496615
113	0x3c0d3cd8	0.008620463
114	0xbcb47c48	-0.022031918
115	0x38a9c92e	8.0960206e-05
116	0xbd188456	-0.03723558
117	0xbe2b86f4	-0.167507
118	0xbb1c721f	-0.0023871732
119	0xbe8fd5e4	-0.28092873
120	0xbd918207	-0.07104879
121	0x3e4054e2	0.1878238
122	0x3e1edbe3	0.15513568
123	0xbe663d0d	-0.22484227
124	0x3e945009	0.28967312
125	0x3d1317e8	0.03591147
126	0xbc076833	-0.008264589
127	0x3dcce6b9	0.10004944
128	0xbb3ac14c	-0.0028496562
129	0xbea8f59b	-0.32999882
130	0x3df90a8a	0.12160213
131	0x3e73612c	0.23767537
132	0x3c719b37	0.014746479
133	0x3e4a7ceb	0.19774215
134	0x3be4c1bc	0.0069811027
135	0xbea748c5	-0.32672706
136	0xbe0372cb	-0.12836759
137	0xbdcb491a	-0.099260524
138	0x3d54ea19	0.051981065
139	0x3e8d404d	0.2758812
140	0xbdfb099e	-0.12257694
141	0x3da998bb	0.08281084
142	0xbd2aa46e	-0.04166072
143	0xbeb44577	-0.35209247
144	0xbd7d2046	-0.061798356
145	0xbd1f5f8f	-0.03890949
146	0xbd82a9d1	-0.06380046
147	0xbe501a84	-0.20322615
148	0x3e91afd8	0.2845447
149	0xbe4785d5	-0.19484647
150	0x3c83fcf9	0.016111838
151	0xbdbd9388	-0.09256655
152	0xbe595972	-0.21225527
153	0x3de60c46	0.1123281
154	0x3e23ced6	0.1599687
155	0xbdae6182	-0.08514692
156	0x3dbc624d	0.09198437
157	0x3b2922cc	0.0025808094
158	0x3e9791e3	0.2960349
159	0x3f1b3f30	0.6064329
160	0x3e7fe23b	0.24988644
161	0xbeae7184	-0.3407098
162	0xbdd17f12	-0.10229315
163	0x3d0b44b8	0.034001082
164	0x3e326886	0.17422685
165	0x3d24ba6a	0.04021684
166	0xbddd1c06	-0.10796361
167	0x3c9e6225	0.019333908
168	0xbe54993e	-0.20761582
169	0xbe336b51	-0.17521407
170	0xbd827f61	-0.06371952
171	0x3cd3f711	0.025874646
172	0xbe0c7241	-0.1371546
173	0xbe24488f	-0.16043304
174	0x3d53a79b	0.051673513
175	0xbdbebbcf	-0.093131654
176	0x3e60dfff	0.21960448
177	0x3e6da12f	0.23206018
178	0xbdb4d724	-0.08830097
179	0x3e53ba31	0.20676495
180	0xbe62e9d7	-0.22159515
181	0xbccb5022	-0.024818484
182	0x3daa7fd1	0.0832516
183	0x3e64abcf	0.22331165
184	0xbe938ad0	-0.28816843
185	0x3ddeed2e	0.10885082
186	0xbe347282	-0.17621806
187	0xbdc3ed1d	-0.0956671
188	0x3c52191e	0.012823371
189	0x3d54df14	0.051970556
190	0xbe52f91b	-0.20602839
191	0x3ded6d32	0.11593093
192	0x3c16b06f	0.0091973385
193	0xbc93c018	-0.018035933
194	0x3db0ebbe	0.08638714
195	0xbdff20ae	-0.12457405
196	0xbdca8197	-0.098879986
197	0xbd2fd7e9	-0.042930517
198	0xbe1bebed	-0.15226717
199	0x3e9a1116	0.3009116
200	0x3e17e5e7	0.14833795
201	0xbdf8617a	-0.12127967
202	0xbef62e89	-0.48082379
203	0xbddfc3b8	-0.10926002
204	0x3e1bd554	0.15218097
205	0x3e2cd33e	0.16877457
206	0xbe32ff54	-0.17480212
207	0xbe42ad83	-0.19011502
208	0xbe0ff6ec	-0.14059037
209	0x3cccaeef	0.024985759
210	0xbea0edd5	-0.3143145
211	0xbc4e4069	-0.012588599
212	0xbe0eecdd	-0.13957544
213	0xbde380ef	-0.111085765
214	0xbe0ce8ef	-0.13760732
215	0xbe832ac6	-0.2561857
216	0x3e70e218	0.23523748
217	0x3e26bbd9	0.16282596
218	0x3e9a1501	0.3009415
219	0xbd10e2b4	-0.03537245
220	0xbe0a0c79	-0.1348132
221	0xbda62ca8	-0.08113986
222	0x3e2ad4db	0.1668276
223	0x3da4e633	0.080517195
224	0xbe1c71f7	-0.15277849
225	0xbde4ad87	-0.1116591
226	0xbeb149ec	-0.3462671
227	0xbe5bfebe	-0.21483895
228	0xbb5bddcd	-0.0033548952
229	0xbe402065	-0.18762358
230	0x3e2481ad	0.16065092
231	0x3c6faed3	0.014629084
232	0xbd6f9a74	-0.058496907
233	0x3ca944df	0.020662723
234	0x3db87e15	0.09008423
235	0xbd6cf7d8	-0.05785355
236	0x3cf66911	0.030079396
237	0x3daf7e4d	0.08569012
238	0x3e8d2319	0.2756584
239	0xbea03d1d	-0.31296626
240	0xbdb49986	-0.08818345
241	0x3e027171	0.12738587
242	0x3e54ded0	0.20788121
243	0xbdcabaf2	-0.09898938
244	0xbd67b8b4	-0.05657263
245	0x3d48bca4	0.049008027
246	0xbe67d8c5	-0.22641285
247	0xbe98ff8a	-0.2988246
248	0xbe0d3af2	-0.13792017
249	0xbdf21492	-0.1182033
250	0x3dd34761	0.10316349
251	0x3e6dc86a	0.23220983
252	0xbe35a822	-0.17739919
253	0xbe6a7eac	-0.22899884
254	0xbc61ca8e	-0.013781203
255	0xbe92a87c	-0.28644168

network_body._body_endoder.seq_layers.0.bias f4 [256]
0	0x3c97112a	0.018440802
1	0xbcaf4ad3	-0.021397984
2	0xbc376adb	-0.01119491
3	0x3a541de3	0.00080916117
4	0x3d2b836e	0.041873388
5	0xbb9db725	-0.0048130923
6	0x3c3786ad	0.011201543
7	0x3d6af99b	0.05736695
8	0xbc55cae6	-0.013048863
9	0x3bd041fc	0.006355522
10	0x3cb88212	0.02252296
11	0x3c2f6896	0.010706088
12	0x3d78ff18	0.06079015
13	0x3a12c21c	0.00055983826
14	0x3d1527d6	0.036414944
15	0x3ba69e47	0.005084786
16	0x3d55c1f9	0.05218694
17	0xbc6d37b9	-0.014478617
18	0xbcad8207	-0.021180166
19	0x3ca41e23	0.020033902
20	0x3cf5c9d6	0.03000347
21	0x3bb4dc09	0.0055193943
22	0xbb41d148	-0.0029574204
23	0x3b007612	0.0019601625
24	0xbd162b2a	-0.03666226
25	0x3c30e93d	0.010797796
26	0xbcb59572	-0.022165988
27	0xbc348525	-0.011018072
28	0xbc2e9337	-0.010655216
29	0xbcd9c890	-0.026584893
30	0xbb5bfaf3	-0.0033566325
31	0xbc6386da	-0.013887132
32	0x3bba1dcb	0.005679821
33	0x3c892c34	0.01674471
34	0xbcdd21a8	-0.026993588
35	0x3cd4da72	0.02598307
36	0x3d1336f8	0.035941094
37	0x3a167f64	0.00057410286
38	0x3c961ef2	0.018325303
39	0xbc3a94c2	-0.011388006
40	0x3ba83b28	0.005134005
41	0x3c7773a6	0.015103256
42	0x3cb3e12c	0.021957956
43	0xbd0c4016	-0.034240805
44	0x3c91fd8e	0.0178211
45	0x3cc4ddd3	0.024031555
46	0xbc4b544b	-0.012410234
47	0x3d493c15	0.049129564
48	0xbc04aa21	-0.0080972025
49	0x3d84c050	0.06481993
50	0xbd27cea0	-0.040968537
51	0xbc70a825	-0.014688526
52	0xbbe0266f	-0.006840519
53	0x3d1b9069	0.037979517
54	0x3d4fdda4	0.050748482
55	0x3ba3db95	0.0050005415
56	0xbca7cc19	-0.020483064
57	0x3ca1114c	0.019661568
58	0x3bd61b8a	0.0065340446
59	0x3d809b2f	0.06279599
60	0x3d1d2184	0.03836204
61	0xbcbb46fe	-0.022861
62	0x3d8f5aa4	0.0699971
63	0x3c06bde3	0.008223983
64	0xbca8c7dc	-0.020603113
65	0x3d0d49f6	0.034494363
66	0x3d5a3d48	0.0532811
67	0x3cc7d640	0.024394155
68	0xbcbbb902	-0.022915367
69	0x3c04cb10	0.0081050545
70	0x381d3eb6	3.749012e-05
71	0x3cd91c07	0.026502622
72	0x3c94f3ee	0.018182721
73	0xbc0a1273	-0.00842725
74	0xbc9fbc08	-0.01949884
75	0x3d207aab	0.039179485
76	0x3cab7e1c	0.020934157
77	0x3ba03dd1	0.0048901816
78	0xbbb75eb0	-0.0055960044
79	0x3b10e4a8	0.0022108946
80	0x3ca998d1	0.020702751
81	0x3aee7690	0.0018193293
82	0x3dabe172	0.0839261
83	0xbc98f15e	-0.01866978
84	0x3acc8f9c	0.0015606764
85	0x3c30d2b1	0.01079242
86	0xbc09393a	-0.00837546
87	0x3d03994a	0.03212861
88	0x3cf566a3	0.029956168
89	0xbc16fcd1	-0.00921555
90	0xbace84ab	-0.0015756091
91	0xbd4ccd69	-0.050000582
92	0xbc9cf40c	-0.01915934
93	0x3c8ab27d	0.016930813
94	0xbb8beec3	-0.004270406
95	0x3cd95d52	0.026533756
96	0xbb994792	-0.0046777213
97	0xbc500508	-0.012696512
98	0x3ca61c13	0.020277059
99	0x3b15992c	0.0022826893
100	0x3c8b7b57	0.017026586
101	0xbc2b295e	-0.010446874
102	0xbca6173b	-0.020274749
103	0x3c1ba121	0.009498865
104	0x3d2c1884	0.042015567
105	0x3d6139ab	0.054986637
106	0x3d85b81e	0.06529258
107	0xbc8d4f61	-0.017249765
108	0x3c6e97a3	0.01456252
109	0x3c7d0ab2	0.0154444445
110	0xbce52dcb	-0.027975937
111	0x3c2ef967	0.010679579
112	0x3d101a27	0.03518119
113	0x3d86c792	0.06581034
114	0x3cdba8cc	0.026813887
115	0x3d21b757	0.039481487
116	0x3da3ca83	0.079976104
117	0xbcb9a1a4	-0.022660084
118	0x3c3ddecd	0.011588764
119	0x3acd39ac	0.0015657446
120	0x3be901bc	0.0071108025
121	0xbc123ebf	-0.008926093
122	0xbd133174	-0.035935834
123	0xbab0a117	-0.0013475743
124	0xbc8b800a	-0.017028827
125	0xbbc20810	-0.0059213713
126	0x3c2844c7	0.010270304
127	0xbc5e9a6c	-0.013586622
128	0xbcc35ff9	-0.023849474
129	0x3bad7bef	0.005294315
130	0x3d0066ff	0.031348225
131	0x3c70ec72	0.01470481
132	0x3ccc4ae1	0.024938049
133	0x3b8281c8	0.0039827563
134	0xbcc9b99c	-0.024624638
135	0xbcd8b761	-0.02645463
136	0xbbf0d68e	-0.0073497957
137	0x3b23ad22	0.0024975021
138	0x3c7f1ef0	0.015571341
139	0x3bbe44df	0.00580655
140	0xbb026b6e	-0.001990046
141	0xbb2cd769	-0.0026373512
142	0x3cb42f9c	0.021995358
143	0x3d67cd6c	0.05659239
144	0x3caa46c6	0.0207857
145	0xbc46781e	-0.012113599
146	0xbd4c7848	-0.049919397
147	0xbcd7a0e6	-0.02632184
148	0x3ce66739	0.028125392
149	0x3cab5aed	0.02091738
150	0x3ce1e6df	0.027575908
151	0xba7fe3ab	-0.0009761403
152	0xbd077696	-0.033072077
153	0x3d822546	0.063547656
154	0x3c85292a	0.01625498
155	0xbbdaa826	-0.006672877
156	0xbc11a230	-0.008888766
157	0x3d84d9e3	0.06486871
158	0x3d2a5550	0.041585267
159	0xbc3df142	-0.011593165
160	0x3d4708c9	0.048592363
161	0xbc14989b	-0.009069587
162	0x3c9bc274	0.01901362
163	0x3d33879c	0.0438305
164	0x3b83247c	0.004002152
165	0xbc3cc87e	-0.01152241
166	0x3cbf241c	0.023332648
167	0x3b8eec69	0.0043616784
168	0x3d03bc55	0.03216203
169	0x38a0baa1	7.664157e-05
170	0x3d4648e1	0.048409346
171	0x3bb5d42d	0.005548975
172	0x3d1461d2	0.0362261
173	0x3d144e5f	0.036207553
174	0x3bb79913	0.0056029647
175	0x3cd9df95	0.02659587
176	0xbcdc2496	-0.026872914
177	0xbca9ae72	-0.020713065
178	0xbcafb803	-0.021450048
179	0xbcd1b62f	-0.025599567
180	0xbc6c0976	-0.014406553
181	0x3b07afd7	0.0020704174
182	0xbc047ddc	-0.008086648
183	0x3d2b2a9c	0.041788682
184	0xbcc33add	-0.02383178
185	0xbb735b7a	-0.0037133382
186	0xbc2a1fbc	-0.010383543
187	0x3d188002	0.037231453
188	0x3d054f5a	0.03254638
189	0x3d690dbb	0.05689786
190	0xbb6eb088	-0.0036421139
191	0x3cee9036	0.0291215
192	0x3b708840	0.0036702305
193	0xbcf1ca60	-0.029515445
194	0x3d61abff	0.05509567
195	0xbad6370e	-0.0016343312
196	0x3c50ad2c	0.0127366
197	0x3c0e106e	0.008670909
198	0x3cd06216	0.025437396
199	0xbbfcbc09	-0.007712845
200	0x3ca7fc38	0.02050601
201	0x3b997ce4	0.0046840776
202	0x3d3b6761	0.045752887
203	0xbcb8e944	-0.022572167
204	0x3b91be09	0.004447703
205	0x3b7d9f65	0.0038699743
206	0xb8ff61a3	-0.00012177534
207	0x3ae1fec3	0.0017242063
208	0xbc18f6c4	-0.009336177
209	0x3d6e7021	0.058212403
210	0xbca0ee23	-0.019644802
211	0xbbfea137	-0.007770683
212	0x3b1beb32	0.002379131
213	0xbafca136	-0.0019274119
214	0xbc9a31a3	-0.018822497
215	0x3d18716f	0.037217554
216	0x3ba9cacf	0.0051816474
217	0x3d37e434	0.044895366
218	0xbc677b3b	-0.0141285015
219	0x3d3b1dd1	0.045682732
220	0xbc3467ea	-0.011011103
221	0xbc0b441a	-0.008500123
222	0x3c97c124	0.018524714
223	0x3cdac28a	0.026704092
224	0x3d4784f0	0.048710763
225	0xbc3befad	-0.011470717
226	0x3d50e2ce	0.050997548
227	0xbce6e0ab	-0.028183302
228	0xbc627819	-0.013822579
229	0xbc3ba864	-0.011453722
230	0x3cb03a45	0.02151216
231	0x3cdf45d3	0.027254974
232	0x3c9b96e0	0.018992841
233	0x3ccb7ee2	0.024840776
234	0x3d1e94bb	0.03871606
235	0x3d8225e1	0.06354881
236	0x3d4af95d	0.049554218
237	0xbc29df41	-0.010368169
238	0x3c901143	0.017586356
239	0x3b8a31a5	0.004217344
240	0x3c838ffa	0.016059864
241	0xbc6b73fd	-0.0143709155
242	0x3c12704d	0.008937907
243	0x3cd96a2f	0.02653989
244	0xbd1d95fc	-0.038473114
245	0xbc51a00b	-0.012794505
246	0x3d00421e	0.031313054
247	0xbbb1c41a	-0.0054249885
248	0xbc6c40fb	-0.014419789
249	0xbb9e6c95	-0.0048347213
250	0xbc99bb17	-0.01876597
251	0x3c798215	0.015228768
252	0xbb6a152d	-0.0035718188
253	0xbc86be10	-0.01644805
254	0xbcdb3a43	-0.02676118
255	0xb97e0a1d	-0.00024227095

network_body._body_endoder.seq_layers.2.weight f4 [256, 256]
0	0x3cef86f3	0.029239153
1	0xbd1a2c17	-0.037639704
2	0x3c1e41c3	0.0096592335
3	0xb98ad700	-0.000264816
4	0x3cd398d1	0.025829704
5	0xbd97562e	-0.07389484
6	0x3dfdff47	0.12402206
7	0xbd95236f	-0.07282149
8	0xbd15096e	-0.036385946
9	0xbd77ff32	-0.060546108
10	0xbc8a67f4	-0.016895272
11	0x3c18f84b	0.009336541
12	0xbdedd644	-0.116131335
13	0xbd037a48	-0.03209904
14	0x3d55a2e2	0.05215729
15	0x3da64020	0.081176996
16	0xbdb1dacc	-0.0868431
17	0xbca2cb19	-0.019872235
18	0xbdaa1120	-0.083040476
19	0x3d1aedc5	0.03782441
20	0x3d63251b	0.05545531
21	0x3b15ede4	0.002287739
22	0x3d2e2200	0.042512894
23	0xbcece56d	-0.028917992
24	0x3d30d59a	0.043172456
25	0xbe2b3123	-0.16717963
26	0xbdc0adc5	-0.09408144
27	0x3bc9f8fd	0.006163715
28	0xbc87f5fe	-0.01659679
29	0xbbf33507	-0.007422093
30	0x3d94fa78	0.072743356
31	0x3bdef6fb	0.0068043447
32	0xbdb74033	-0.08947792
33	0x3d5c3ed5	0.05377086
34	0xbc582cef	-0.013194307
35	0x3d486d9f	0.048932668
36	0x3d2b2bed	0.041789938
37	0x3ce7371d	0.028224522
38	0xbc099f81	-0.008399845
39	0x3d7c3eaf	0.061583217
40	0x3c617238	0.013760142
41	0x3d1e4e31	0.038648788
42	0x3dbbc615	0.091686405
43	0xbbb5949d	-0.0055413977
44	0xbca09b3c	-0.019605272
45	0x3cca2657	0.024676485
46	0xbd49fef6	-0.049315415
47	0x3ca8a8ed	0.020588363
48	0xbd5aea61	-0.053446177
49	0xbd3d76f0	-0.046256006
50	0xbd873813	-0.06602492
51	0x3cc50e71	0.024054738
52	0xbc71de2d	-0.0147624435
53	0x3d6f7122	0.0584575
54	0xbcf9be61	-0.030486288
55	0xbcb7958c	-0.022410177
56	0x3d9b6dc5	0.07589296
57	0x3dcebb3f	0.10094308
58	0x3cf51743	0.029918319
59	0xbd141ff2	-0.036163278
60	0x397bcebe	0.00024014243
61	0x3cf6d988	0.030133024
62	0xbd2b753f	-0.04185986
63	0x3ca5fb38	0.020261392
64	0xbd592676	-0.053015195
65	0x3db6fdb1	0.089351065
66	0x3c9f10af	0.019417135
67	0x3c8d8892	0.017277036
68	0xbd4acae7	-0.04950991
69	0x3dd5138e	0.104041204
70	0xbcfcbd59	-0.030852007
71	0x3d2bfc16	0.041988455
72	0xbc3bd8c8	-0.011465259
73	0xbd0122a9	-0.031527195
74	0xbc8a5e54	-0.016890682
75	0xbd92f9a7	-0.07176524
76	0x3c7eccf4	0.015551794
77	0x3cda58db	0.026653698
78	0xbe2bd408	-0.16780102
79	0xbd7d6506	-0.06186392
80	0xbd817a0e	-0.06322108
81	0x3d68cae6	0.056834124
82	0x3df7727b	0.12082382
83	0xbdfd6aa9	-0.123738594
84	0xbdaaa4c9	-0.083322115
85	0x3bb81601	0.0056178574
86	0xbcb566de	-0.022143777
87	0x3b8fb1fa	0.00438523
88	0x3d1c6567	0.038182642
89	0xbd02ba99	-0.031916235
90	0x3ccbb34e	0.024865773
91	0x3bc8c901	0.006127477
92	0xbd6dc8ca	-0.058052815
93	0x3cbebc3f	0.023283122
94	0x3cea8d8e	0.028631952
95	0x3ba2c59f	0.004967406
96	0x3d136f37	0.035994735
97	0xbd092adb	-0.033488136
98	0xbd802f80	-0.0625906
99	0xbd7e08ff	-0.062020298
100	0x3d81d84a	0.06340082
101	0xbcfb3831	-0.030666443
102	0x3df98317	0.121832065
103	0x3d2244a1	0.03961623
104	0xbd2196e9	-0.03945056
105	0x3de0bbb9	0.10973305
106	0xbcbb10a9	-0.022835093
107	0x3ca8424d	0.020539427
108	0xbe1164a5	-0.14198549
109	0xbd073df7	-0.03301808
110	0x3d2c7b91	0.04211003
111	0xbcf91ed8	-0.030410215
112	0xbde3ed16	-0.11129205
113	0xbda318df	-0.07963728
114	0x3d457a04	0.048212066
115	0xbccd84c7	-0.025087727
116	0xbd75d230	-0.060014904
117	0x3dac2b37	0.0840668
118	0xbd13076c	-0.03589575
119	0x3b9eabef	0.0048422734
120	0xbd44812e	-0.047974758
121	0x3cc3583d	0.023845786
122	0xbd1ff281	-0.03904963
123	0xbbc1046f	-0.005890421
124	0xbd549f62	-0.05190981
125	0xbc990ccf	-0.018682865
126	0x3de0c96c	0.10975918
127	0xbbaf008d	-0.005340642
128	0x3d8eb06e	0.06967245
129	0x3ca5fbc3	0.02026165
130	0xbd841df9	-0.06451029
131	0x3d282891	0.041054312
132	0x3dc4ba54	0.09605852
133	0x3d8e11d4	0.06936994
134	0x3da8d3b1	0.08243502
135	0xbda7e687	-0.081982665
136	0x3d9b6241	0.075871
137	0x3c82a7d9	0.015949177
138	0xbbd3b6f7	-0.00646102
139	0x3cbd49cc	0.023106478
140	0xbd8eb9d3	-0.06969037
141	0xbd13e705	-0.03610899
142	0x3dafecc2	0.0859008
143	0xbc9efaa2	-0.01940662
144	0x3da9df5d	0.08294556
145	0x3d6b1750	0.05739528
146	0xbd144cd3	-0.036206078
147	0xbc4d4c61	-0.012530417
148	0xbcf6b06b	-0.03011342
149	0xbc28d82b	-0.010305445
150	0x3ce7d224	0.028298445
151	0x3d6532c7	0.05595663
152	0xbe1a0310	-0.15040231
153	0x3d939a78	0.07207197
154	0x3d5102c4	0.051028028
155	0x3d4c1899	0.049828146
156	0xbbd43fce	-0.0064773327
157	0xbaae86d1	-0.0013315325
158	0xbda3bf9a	-0.079955295
159	0x3dc69084	0.09695533
160	0xbd47ef6d	-0.04881232
161	0xbdf32a36	-0.118732855
162	0x3cbfe6a7	0.023425413
163	0x3d7a755e	0.061147086
164	0x3d544cc8	0.051831037
165	0xbdae9732	-0.08524932
166	0x3dad5017	0.084625416
167	0xbcb6bfe8	-0.022308305
168	0xbd884b39	-0.066549726
169	0xbbdc43e4	-0.0067219604
170	0xbdc89f19	-0.097959705
171	0x3d73f097	0.059555616
172	0x3cd271d7	0.025689049
173	0xbc94cf68	-0.018165305
174	0x3ccf37bb	0.025295129
175	0xbd368849	-0.044563565
176	0xbdab287c	-0.08357331
177	0x3a85f66f	0.0010220538
178	0x3d48b161	0.048997287
179	0xbd467b53	-0.048457455
180	0xbbb01f3b	-0.0053748167
181	0xbdabac6c	-0.08382496
182	0xbd8704ec	-0.06592736
183	0x3c5466ef	0.012963994
184	0x3d2975f7	0.041372266
185	0xbbd1dc0d	-0.006404406
186	0x3dcfa000	0.101379395
187	0x3de66c45	0.112511195
188	0xbd866cf6	-0.065637514
189	0x3ce6f92b	0.028194984
190	0xbd2bce8b	-0.04194502
191	0x3c57387b	0.013136025
192	0x3d1401eb	0.03613464
193	0x3d21fac5	0.039545793
194	0xbc1a53d4	-0.0094194
195	0x3cfb4eeb	0.03067728
196	0x3db57050	0.088593125
197	0xbd76ba05	-0.060235996
198	0xbceb9d81	-0.028761627
199	0xbdbb7469	-0.09153063
200	0xbc36f733	-0.011167335
201	0xbd9d6a4f	-0.076862924
202	0xbd03c43f	-0.032169577
203	0x3db83375	0.0899419
204	0xbca1ec9d	-0.019766146
205	0x3e20b072	0.15692309
206	0xbd9984cc	-0.07496032
207	0x3d38b554	0.045094803
208	0x3d255b60	0.040370345
209	0xbc87b913	-0.016567742
210	0x3b9099b2	0.004412853
211	0xbc1526de	-0.009103505
212	0x3be761f5	0.007061238
213	0xbb868dc8	-0.004106257
214	0x3d47d97d	0.048791397
215	0x3b9edd6f	0.0048481743
216	0x3b0bf8ec	0.0021358086
217	0x3de5aada	0.11214228
218	0x3c96cc9d	0.018408114
219	0xbe0973e4	-0.13423115
220	0x3cd6c514	0.026217021
221	0xbc180aac	-0.009279888
222	0x3dc63968	0.09678918
223	0xbd4fef2c	-0.0507652
224	0x3d7f28a2	0.06229461
225	0xbddad23b	-0.106846295
226	0xbd2a3170	-0.041551054
227	0x3d6a0954	0.057137802
228	0x3d1eca54	0.038767174
229	0xbe461f2e	-0.19347832
230	0x3d264fad	0.04060333
231	0xbddac772	-0.106825724
232	0x3da32a2c	0.07967028
233	0x3d4a2a0c	0.049356505
234	0x3d6b51ed	0.057451177
235	0x3e200de4	0.15630299
236	0xbcf27014	-0.029594459
237	0xbd2e6dbb	-0.042585116
238	0xbdce3dcd	-0.10070381
239	0xbda072c0	-0.07834387
240	0xbd80110b	-0.06253251
241	0x3d4b9df3	0.04971118
242	0x3c5fb97c	0.013655063
243	0xbd4cf29f	-0.05003607
244	0x3d6bac87	0.05753758
245	0xbd81a41c	-0.063301295
246	0x3c793eb9	0.015212708
247	0xbd9b2d78	-0.07577032
248	0x3d0967c4	0.033546224
249	0xbe181b10	-0.14854074
250	0xbd2fb48d	-0.042896796
251	0x3d0b5c48	0.034023553
252	0x3dab6c20	0.083702326
253	0xbda64061	-0.08117748
254	0x3a51badc	0.00080005615
255	0xbce32667	-0.027728273

network_body._body_endoder.seq_layers.2.bias f4 [256]
0	0x3c94cf61	0.018165292
1	0x3d30e7cc	0.04318981
2	0xbc933efa	-0.017974366
3	0x3c4aeab4	0.012385059
4	0x3ab88afa	0.0014079504
5	0xbccbf623	-0.02489764
6	0x3d8a17ba	0.06742807
7	0xbcce9f9f	-0.025222598
8	0xbd1ad234	-0.03779812
9	0xb884af97	-6.326957e-05
10	0x3d1a5abb	0.037684184
11	0xbcb37c54	-0.02190987
12	0x3cf95e6b	0.03044053
13	0x3d669c15	0.056301195
14	0xbc117d57	-0.008879981
15	0x3d9f8b73	0.0779027
16	0x3d6d3935	0.057915885
17	0xbcb8c796	-0.022556107
18	0x3ce6ec87	0.028188957
19	0xbbe48659	-0.0069740233
20	0x3c70afb0	0.014690325
21	0x3bfca929	0.007710595
22	0x3cdf77c8	0.027278796
23	0x3d36b280	0.044603825
24	0x3c45b07c	0.012066003
25	0x3b194b50	0.0023390837
26	0xbc3c262a	-0.011483708
27	0xbd09d7d7	-0.033653107
28	0xbb778c89	-0.0037772974
29	0x3b111f68	0.0022143964
30	0xbc440ee8	-0.011966445
31	0xbd00973e	-0.031394236
32	0xbd22f53c	-0.039784655
33	0xbbdacbc1	-0.0066771214
34	0xbd806823	-0.062698625
35	0x3cc776ba	0.024348605
36	0x3d3f6c84	0.046734348
37	0x3c945e02	0.018111233
38	0xbd0aa2e8	-0.033846766
39	0xbb88b574	-0.0041720215
40	0xbd028fca	-0.03187541
41	0x3d40b4e3	0.047047507
42	0x3c91d3f5	0.017801264
43	0x3b2e0a62	0.0026556482
44	0x3d08f776	0.033439122
45	0xbbc0b6fb	-0.005881188
46	0xbd01ccdd	-0.031689513
47	0xbc8a35b8	-0.016871318
48	0xbb34c39a	-0.0027582408
49	0x3cd8e107	0.026474489
50	0x3bb31773	0.005465442
51	0x3c0e9c8a	0.008704314
52	0x3b851273	0.004061037
53	0x3cef1d32	0.029188726
54	0x3d280532	0.04102058
55	0x3cd4fb3e	0.025998708
56	0x3d961db2	0.07329883
57	0xbc0a56fc	-0.00844359
58	0x39f4fa4a	0.00046725787
59	0xbd4905ba	-0.049077727
60	0x3ca36fe3	0.019950813
61	0xbca9b35a	-0.020715404
62	0xbce00df8	-0.02735041
63	0x3d82971d	0.06376479
64	0x3c3475ff	0.011014461
65	0xbb9d5d2c	-0.0048023667
66	0x3ca5c26e	0.020234313
67	0x3d546892	0.05185754
68	0xbc63bd20	-0.013900071
69	0x3b8e9afe	0.0043519726
70	0x3d06ec0e	0.032939963
71	0xbb5d4d51	-0.0033768008
72	0x3d10aceb	0.035321157
73	0xbd1fa281	-0.038973335
74	0x3c2f3d3c	0.010695752
75	0x3c867670	0.016413897
76	0x3ce548f7	0.027988894
77	0x3c316574	0.010827411
78	0x3c737d23	0.014861378
79	0xbd5a02f5	-0.053225476
80	0xbbfb18ab	-0.0076628528
81	0xbcace430	-0.021104902
82	0xbc51d31a	-0.012806678
83	0x3d53be15	0.05169495
84	0xbc4f3e96	-0.012649199
85	0x39e3b49f	0.00043431387
86	0xbbf4148b	-0.007448738
87	0x3d777d65	0.06042232
88	0xbd233ced	-0.039853025
89	0xbd492df6	-0.049116097
90	0x3c85b6ea	0.016322572
91	0x3ca5563f	0.020182727
92	0xbc5b09f4	-0.013369072
93	0x3ce18a25	0.027531693
94	0x3c1a4e72	0.009418117
95	0xbc251b80	-0.010077357
96	0xbb08fb58	-0.0020901766
97	0x3d19f0af	0.03758305
98	0xbc194be2	-0.009356471
99	0xbcc3f313	-0.023919618
100	0x3bbd426c	0.0057757404
101	0xbca5263e	-0.020159837
102	0x3d47504d	0.048660565
103	0x3bc7965e	0.006090923
104	0xbbf6ded1	-0.007533886
105	0xbc5d6330	-0.013512418
106	0x3d6e4807	0.05817416
107	0xbd48223d	-0.048860777
108	0x3ca54ce0	0.020178258
109	0x3d2a0afd	0.041514385
110	0x3be107a3	0.0068673654
111	0xbd02faa7	-0.031977322
112	0xbc8b655b	-0.017016103
113	0xbb89de0f	-0.0042073797
114	0x3c8d27d5	0.017230907
115	0x3c91a015	0.017776528
116	0xbc81caf8	-0.015843853
117	0x3d333fe4	0.043762103
118	0x3c2e4efd	0.010638949
119	0x3d063e73	0.0327744
120	0x3d197ad4	0.037470654
121	0xbd0fcb7f	-0.03510618
122	0x3bd5f357	0.0065292525
123	0xbcd434dc	-0.025904112
124	0x3c3de8ab	0.011591117
125	0x3c9b1fcc	0.01893606
126	0x3b202ae0	0.0024439618
127	0x3b99d060	0.0046940297
128	0xbb2914a8	-0.0025799666
129	0x3c10eb0a	0.0088451
130	0xbd29ca7c	-0.04145287
131	0x3d7d496f	0.06183761
132	0x39d29d41	0.00040171485
133	0xbcaa0cd2	-0.020758066
134	0xbad308c8	-0.001610064
135	0x3b30b811	0.002696518
136	0xbd022e68	-0.031782538
137	0x3bfdd362	0.007746146
138	0x3cb1393e	0.02163374
139	0x3d2b8858	0.041878074
140	0x3d11dd91	0.035611693
141	0x3b803931	0.0039130677
142	0x3baf5e05	0.005351784
143	0x3d485e51	0.048918072
144	0xbbabc644	-0.005242141
145	0x3b9b0c8e	0.0047317212
146	0xbcb0519d	-0.021523291
147	0x3bef04fa	0.0072942944
148	0x3c872633	0.016497707
149	0x3c93f655	0.018061796
150	0x3d9cbaef	0.07652842
151	0x3cec61d1	0.028855236
152	0xbc4a779b	-0.012357618
153	0xbd446c7b	-0.047955018
154	0x3c2d144e	0.010563923
155	0xbc98fb08	-0.018674389
156	0x3d049715	0.032370646
157	0xbbb202fa	-0.0054324837
158	0x3b7693e7	0.0037624778
159	0x3cffe5c2	0.031237487
160	0x3bff99c0	0.007800311
161	0x3cd1f5da	0.025629926
162	0xbc194a15	-0.009356041
163	0x3ccaf5a6	0.024775337
164	0xbba9e72e	-0.0051850295
165	0xbc187136	-0.009304335
166	0x3cfed830	0.031108946
167	0xbca3d28e	-0.019997861
168	0xbbf8a4c9	-0.0075880033
169	0x3cf28953	0.029606497
170	0x3bc5df2d	0.0060385675
171	0xbca108ab	-0.019657454
172	0xbd0e6d29	-0.034772072
173	0x3c920325	0.017823765
174	0x3cb60435	0.022218803
175	0xbcaf06f5	-0.021365622
176	0xbd15341b	-0.036426645
177	0xbba3ac48	-0.0049949028
178	0x3d40ca87	0.047068145
179	0xbb427c73	-0.0029676228
180	0xbc6c042a	-0.01440529
181	0x3d2d1734	0.042258456
182	0x3ca66ec3	0.020316487
183	0x3cacf6b1	0.021113725
184	0x3c8f39b9	0.017483579
185	0x3be2b711	0.006918796
186	0x3c95e1e6	0.018296193
187	0x3d83f79e	0.064437136
188	0x3bd1131a	0.006380451
189	0x3c497b78	0.012297504
190	0x3b836bb0	0.00401064
191	0x3c9da3e5	0.01924319
192	0x3c0cef23	0.0086019365
193	0xbcd125dd	-0.02553075
194	0xbd088828	-0.033332974
195	0x3ce4d81c	0.02793508
196	0x3a9dd7c6	0.0012042455
197	0xbc11965b	-0.008885945
198	0x3c0c7127	0.0085718995
199	0xbb2d65d0	-0.002645839
200	0x3c4d87f7	0.012544624
201	0xbc39a089	-0.0113297785
202	0x3c4f5b63	0.012656066
203	0xbc921b0a	-0.017835159
204	0xbc25abbc	-0.010111745
205	0xbd14b325	-0.036303658
206	0x3c19a975	0.009378781
207	0x3c691e7f	0.014228462
208	0x3d343112	0.04399211
209	0xbcdbae70	-0.026816577
210	0xbcac8cf3	-0.021063304
211	0xbc0aaa9c	-0.008463528
212	0xbca4bfac	-0.020110928
213	0x3cf35017	0.029701276
214	0xbc5e828b	-0.013580929
215	0x3cdd1c26	0.026990961
216	0xbadd246e	-0.0016871819
217	0x3cae05a5	0.021242926
218	0xbac09b8b	-0.0014694793
219	0x3d1fe1ce	0.039033704
220	0xbb94bdec	-0.004539242
221	0x3cc2d143	0.023781424
222	0x3cb7709e	0.022392567
223	0xbd02a034	-0.031891063
224	0x3cc65a8d	0.0242131
225	0xbb475c8d	-0.0030420155
226	0xbca5bf0c	-0.0202327
227	0xba02d8c1	-0.00049914053
228	0x3dabaee2	0.083829656
229	0x3d72a7b0	0.05924195
230	0xbc607bbc	-0.013701376
231	0xbd00b42a	-0.031421818
232	0xbc01c140	-0.00791961
233	0x3ca68d9f	0.020331202
234	0x3d86205e	0.06549142
235	0xbcebcf1f	-0.028785286
236	0x3c681c2b	0.014166872
237	0x3d61b0ee	0.055100374
238	0x3b82c211	0.0039904197
239	0x3d0be4de	0.03415381
240	0x395d57ce	0.00021108912
241	0xbc4d4529	-0.012528696
242	0xbd5d5824	-0.054039136
243	0x3c9dda85	0.019269237
244	0x3b1fc4cb	0.0024378772
245	0x3d78c9bf	0.060739275
246	0xbaba1059	-0.0014195546
247	0xbc059cf1	-0.0081550935
248	0x3d215fe4	0.03939809
249	0xbc826399	-0.015916632
250	0x3b2fb49c	0.0026810532
251	0xbd13c95d	-0.036080707
252	0xbc1b7f57	-0.009490809
253	0x3cf3af0b	0.029746553
254	0xbc139b3d	-0.00900918
255	0x3b709b5b	0.0036713693

network_body._body_endoder.seq_layers.4.weight f4 [256, 256]
0	0xbde80e13	-0.113308094
1	0x3d589a4c	0.052881524
2	0x3c377746	0.011197871
3	0xbd2156a1	-0.039389256
4	0x3cc752e2	0.024331514
5	0x3c52aaab	0.012858073
6	0x3d09756a	0.03355924
7	0xbdbcefc4	-0.09225419
8	0x3d3eb37a	0.04655788
9	0xbdc2822e	-0.09497486
10	0x3c1fe668	0.009759523
11	0xbb52cccf	-0.0032165532
12	0x3d1aae6f	0.03776401
13	0xbd421445	-0.04738261
14	0xbda2c5ac	-0.07947859
15	0xbd86e2e6	-0.06586246
16	0xbe51e030	-0.20495677
17	0xbc8f8d2c	-0.01752337
18	0xbdc4f0b3	-0.09616222
19	0x3d5248c9	0.051338945
20	0x3dc41d6c	0.09575924
21	0xbd888efe	-0.066678986
22	0x3d050836	0.032478534
23	0xbdb4802a	-0.08813508
24	0x3d56d968	0.05245343
25	0xbc8f323d	-0.01748001
26	0xbd80e602	-0.062938705
27	0xbd83cc10	-0.06435406
28	0x3d58d52b	0.052937668
29	0xbd943ae7	-0.07237797
30	0xbd5e679f	-0.05429804
31	0x3d45b9c9	0.04827288
32	0xbd244089	-0.040100608
33	0xbd244bb7	-0.04011127
34	0x3d0b6fc3	0.03404213
35	0xbcbe98a6	-0.023266148
36	0x3b3d7830	0.0028910749
37	0x3d8db7f6	0.069198534
38	0x3c27773c	0.010221299
39	0xbe12f21a	-0.14350167
40	0x3d0802b7	0.033205714
41	0xbbf5bc9f	-0.007499292
42	0x3d5ae65e	0.05344235
43	0xbcf16c74	-0.02947066
44	0x3d9e9e80	0.07745075
45	0x3d19d4aa	0.037556328
46	0xbd8c7682	-0.06858541
47	0x3ccbed8b	0.024893543
48	0x3d708a91	0.058725897
49	0x3d61051d	0.054936517
50	0x3d8b8cb5	0.06813947
51	0xbd8ce284	-0.06879142
52	0xbcedd085	-0.029030094
53	0x3d3fba45	0.0468085
54	0x3b657081	0.0035009685
55	0x3d654950	0.05597812
56	0x3e13efda	0.14446965
57	0x3db4ac74	0.08821955
58	0xbdd41658	-0.10355824
59	0x3ca8914f	0.020577101
60	0xbd17c7a2	-0.03705562
61	0x3ca61581	0.020273926
62	0xbd0c2299	-0.034212682
63	0x3debe095	0.11517445
64	0xbcd2156f	-0.025644986
65	0xba9d6daa	-0.0012010832
66	0x3dc9b31a	0.09848614
67	0x3d844dbd	0.0646014
68	0x3d64db85	0.055873413
69	0xbbb7b2fa	-0.0056060525
70	0xbd3f9df5	-0.0467815
71	0x3deafa49	0.11473519
72	0x3dc95bcc	0.09831962
73	0x3e0d8f18	0.13824117
74	0xbca9b0fd	-0.020714277
75	0x3c937b43	0.018003112
76	0x3d16a1f7	0.036775555
77	0x3c386aa5	0.011255895
78	0x3deedf93	0.11663737
79	0xbddaedb1	-0.10689867
80	0xbdf65025	-0.12027005
81	0xbd691b2f	-0.05691069
82	0xbcb7e3d0	-0.022447497
83	0xbd6a4e40	-0.05720353
84	0x3ca71e11	0.020400079
85	0x3d635030	0.055496395
86	0x3d82acc8	0.06380612
87	0x3d9e3a3f	0.07725953
88	0x3d92fb24	0.071768075
89	0xbcef4ddf	-0.029211937
90	0xbba7441a	-0.005104554
91	0xbbb89e59	-0.005634111
92	0xbdd6ffdb	-0.10498019
93	0xbdb4ef81	-0.08834744
94	0xbe017ab1	-0.1264446
95	0xbd5b04dc	-0.05347143
96	0xbd7165eb	-0.058935087
97	0x3c3a71cc	0.01137967
98	0x3d8a78ad	0.06761298
99	0x3d312acb	0.0432537
100	0x3d9ecb76	0.07753651
101	0x3b7fe955	0.003904899
102	0x3bc4272f	0.0059861164
103	0x3c912152	0.017716084
104	0x3d836096	0.06414907
105	0x3b9d4899	0.004799914
106	0xbb768547	-0.003761606
107	0x3b73ccd6	0.003720095
108	0xbcd6499e	-0.02615815
109	0x3ac7ddfb	0.001524865
110	0xbe07ddbe	-0.13268182
111	0xbd90302d	-0.07040439
112	0xbc92e79c	-0.017932706
113	0xbe04b14b	-0.12958257
114	0x3ba11994	0.004916379
115	0x3d29fedc	0.04150282
116	0xbe0a8765	-0.13528211
117	0x3a173983	0.0005768763
118	0x3d29c59c	0.04144822
119	0x3dd34981	0.10316754
120	0xbcadbc00	-0.02120781
121	0xbbaa4f02	-0.0051974067
122	0xbc17b174	-0.009258617
123	0x3bb9e0d6	0.0056725545
124	0xbd865670	-0.065594554
125	0x3cb8f35c	0.02257698
126	0x3d6a1b3b	0.057154875
127	0x3ba448b6	0.0050135506
128	0xbca77b5e	-0.020444568
129	0xbda87af6	-0.08226578
130	0x3dc5ecf6	0.09664337
131	0xbd725d02	-0.05917073
132	0x3aeaef14	0.0017924034
133	0xbd1a86ff	-0.0377264
134	0xbc0798d5	-0.008276184
135	0xbb639414	-0.0034725713
136	0x3d8e569f	0.069501154
137	0x3ccf51b5	0.025307516
138	0xbd53b133	-0.051682662
139	0x3d96a0ab	0.07354864
140	0xbd086ebc	-0.03330873
141	0x3c851032	0.016243074
142	0xbd297c42	-0.041378267
143	0x3cda7add	0.026669914
144	0x3dba92bd	0.09110019
145	0x3d2cbe0e	0.042173438
146	0xbd1dd93c	-0.03853725
147	0x3d038259	0.03210673
148	0xbd36018b	-0.044435065
149	0x3da20011	0.07910169
150	0xbd101544	-0.03517653
151	0xbd26ea5d	-0.04075085
152	0x3cdd1b9e	0.026990708
153	0x3e010c92	0.12602451
154	0x3cf43f0c	0.02981522
155	0xbc90e363	-0.017686551
156	0x3dc826f7	0.09773057
157	0xbd40fd79	-0.04711673
158	0xbe10d918	-0.14145315
159	0x3a649dcc	0.00087210233
160	0xbd85fc8f	-0.06542312
161	0x3d03bd7a	0.03216312
162	0xbe2691cf	-0.16266559
163	0xbd86debf	-0.06585454
164	0xbcb5a8c1	-0.022175195
165	0xbd0ba2a4	-0.034090653
166	0x3da76cf0	0.08175075
167	0xbda8b3ec	-0.082374424
168	0x3dda99bb	0.10673853
169	0xbd4b9935	-0.049706656
170	0xbbc2dc0f	-0.005946643
171	0xbd0e6ef0	-0.034773767
172	0x3b96d082	0.004602493
173	0x3c45b4c9	0.012067028
174	0x3d7415f5	0.059591252
175	0xbd94c01c	-0.072632045
176	0xbe2d8f37	-0.16949163
177	0x3d1d1f6d	0.038360048
178	0x3c92f001	0.017936708
179	0x3c958e5d	0.01825636
180	0xbe55d803	-0.20883183
181	0x3e764517	0.24049793
182	0x3d7c1057	0.06153902
183	0x3db3eb94	0.08785167
184	0xbdacac92	-0.08431353
185	0xbd0fad9c	-0.035077676
186	0x3e197653	0.14986543
187	0x3d3f6a93	0.046732496
188	0xbb3a166e	-0.0028394717
189	0xbdd62788	-0.10456759
190	0x3ca16a0f	0.019703893
191	0x3d910018	0.07080096
192	0x3d12b671	0.03581852
193	0xbd39b8d8	-0.045342296
194	0x3da6ba93	0.08141055
195	0x3d272d0e	0.040814452
196	0x3c0b079a	0.008485699
197	0xbd9af799	-0.07566757
198	0xba7f5319	-0.00097398605
199	0xbd0de6c4	-0.034643903
200	0x3e2e93b9	0.17048539
201	0xbce107f2	-0.027469609
202	0xbc8aa50a	-0.0169244
203	0x3cb76b68	0.022390082
204	0xbd943114	-0.072359234
205	0x3e41a45a	0.18910351
206	0xbd07fb97	-0.03319892
207	0x3d55e331	0.05221862
208	0xbc6d8c1a	-0.014498735
209	0x3dd65f2c	0.10467371
210	0x3cdb32f8	0.026757702
211	0xbd94c1cf	-0.072635286
212	0x3b8b464c	0.0042503234
213	0xbd287bf2	-0.04113383
214	0xbdbad59d	-0.09122775
215	0x3d61925a	0.055071212
216	0xbe0b43b2	-0.13600042
217	0xbd16874f	-0.036750134
218	0x3ddea63e	0.10871552
219	0xbaf2e7c8	-0.0018532211
220	0x3ce4c4c5	0.027925858
221	0xbd9e3341	-0.0772462
222	0xbd103cc5	-0.035214204
223	0x3d8c0a93	0.06837954
224	0xbdb575c0	-0.0886035
225	0xbd833660	-0.064068556
226	0x3d93a0da	0.072084144
227	0x3d1e3f43	0.03863455
228	0xbdc557b9	-0.096358724
229	0x3d555da3	0.052091252
230	0xbdeb41d8	-0.11487168
231	0xbdd68950	-0.10475409
232	0xbcac6a93	-0.021046912
233	0xbd474380	-0.048648357
234	0x3c88d773	0.016704297
235	0xbd2af90f	-0.041741427
236	0x3ddab4d8	0.106790245
237	0x3c3e5c1f	0.011618643
238	0xbd9cdecb	-0.07659682
239	0x3bf5ec3f	0.0075049694
240	0x3d3df43b	0.046375494
241	0xbda35310	-0.07974827
242	0xbce75058	-0.028236553
243	0x3d93d162	0.07217671
244	0x3cc99e6c	0.024611674
245	0x3dccbb95	0.09996716
246	0x3cb3097b	0.021855107
247	0x3d97043c	0.073738545
248	0xbe204a84	-0.15653425
249	0xbc2cb613	-0.010541457
250	0xbd1ebe25	-0.038755555
251	0x3d95aa9d	0.073079325
252	0x3d0087c0	0.03137946
253	0x3b0dd348	0.0021640826
254	0x3d98d12f	0.074617736
255	0xbc7ed7f1	-0.015554414

network_body._body_endoder.seq_layers.4.bias f4 [256]
0	0x3cb7a480	0.022417307
1	0xbc9fe624	-0.01951892
2	0xbcab74ab	-0.020929655
3	0xbc2da59a	-0.0105985645
4	0x3b77dd5e	0.0037821154
5	0x3beb7bda	0.007186395
6	0x3bff402a	0.0077896314
7	0xbc819285	-0.015816936
8	0x3d75c489	0.060001884
9	0xbc7380c5	-0.014862244
10	0x3cce903b	0.025215259
11	0x3d384cc5	0.044995088
12	0x3c313d6d	0.010817868
13	0x3cafb498	0.021448418
14	0xbd76b13d	-0.06022762
15	0xbc74fa8d	-0.014952314
16	0x3a56b915	0.00081910315
17	0x3c1934cc	0.009350967
18	0xbc9db4b6	-0.019251209
19	0xbcc34c63	-0.023840135
20	0xbcaca451	-0.021074446
21	0xbc18f31c	-0.009335306
22	0x3bd15c6b	0.006389191
23	0x3d23c339	0.0399811
24	0x3cd76020	0.026290953
25	0xb7796a5e	-1.4866322e-05
26	0x3bac4030	0.005256675
27	0x3d0e3ccb	0.034725945
28	0x3c9d38fa	0.019192208
29	0x3c5d77de	0.013517348
30	0xbce20179	-0.027588593
31	0x3be9b9de	0.007132753
32	0x3d1031aa	0.035203613
33	0xbc5a9238	-0.013340525
34	0xbcb6ce7e	-0.02231526
35	0xbcdfae42	-0.027304772
36	0xbd819cc4	-0.06328729
37	0x3cd18fd4	0.025581278
38	0x3d64e98f	0.0558868
39	0x3d0928ea	0.033486284
40	0xbb9e6349	-0.004833613
41	0xba965611	-0.0011469742
42	0x3c099bc2	0.008398952
43	0x3d33a539	0.04385874
44	0x3cfb4912	0.030674491
45	0x3cecc67e	0.028903242
46	0xbb7e21d8	-0.0038777497
47	0x3d199c71	0.03750271
48	0x3d461c6b	0.048366945
49	0xbc6ffa06	-0.014647013
50	0x3d45afdf	0.048263427
51	0x3d08b368	0.03337422
52	0x3cc79169	0.02436133
53	0xbd159073	-0.03651471
54	0x3a81ec7e	0.0009912399
55	0xbcda4ce8	-0.026648
56	0x3b714012	0.003681187
57	0x3bf34699	0.0074241874
58	0xbcf358ab	-0.029705366
59	0x3c7e7abd	0.015532193
60	0x3d3847c1	0.044990305
61	0x3d3c4174	0.04596086
62	0xbb94a249	-0.0045359475
63	0x3a0b2b1b	0.00053088524
64	0x3cc9a5ae	0.024615135
65	0x3d3c4821	0.045967225
66	0x3d258613	0.040411066
67	0x3d210da5	0.039319653
68	0x3c83722a	0.016045649
69	0x3cb9b4f6	0.022669297
70	0xbd27ac23	-0.040935647
71	0x3ca01890	0.019542962
72	0xbbc24a6f	-0.0059292833
73	0x3b94858c	0.0045325216
74	0xbb698e3c	-0.0035637757
75	0xbc5a54a1	-0.013325841
76	0x3cb255d7	0.021769447
77	0x3dacab01	0.08431054
78	0x3c754166	0.0149692055
79	0x3d0e663a	0.03476546
80	0xbc3f6268	-0.011681177
81	0x3d45bf0c	0.0482779
82	0xbb94099a	-0.004517746
83	0x3c21ba50	0.0098710805
84	0xbd04c02b	-0.03240983
85	0x3ccf9042	0.025337342
86	0x3d12efbf	0.03587317
87	0x3d80a45d	0.0628135
88	0x3d35f91c	0.044427022
89	0xbd27df60	-0.04098451
90	0x3cd0dc51	0.02549568
91	0x3d002a81	0.031290535
92	0x3c7ba265	0.015358542
93	0x3d73282c	0.059364483
94	0xbccfe6ad	-0.02537855
95	0x3c5c8a68	0.013460733
96	0x3cfc9859	0.030834364
97	0xbd08a049	-0.033355985
98	0x3ae62032	0.0017557202
99	0x3d4eb104	0.050461784
100	0x3d31e98f	0.04343563
101	0xbc10209f	-0.00879684
102	0x3d52e5a9	0.051488552
103	0x3d374a87	0.04474881
104	0x3bf4cfd3	0.0074710636
105	0x3cab4cad	0.020910585
106	0x3cc59510	0.02411893
107	0x3cd95b10	0.02653268
108	0xbbd069c2	-0.0063602636
109	0xb9d69f7a	-0.0004093608
110	0x3d0d3f1d	0.034484018
111	0xbd1162f2	-0.035494752
112	0x3d2ecc62	0.042675383
113	0x3c11a32c	0.008889001
114	0x3d217a1c	0.039423093
115	0x3c8c7eb9	0.01715027
116	0x3d497fcc	0.049194142
117	0xbccc351c	-0.024927668
118	0x3c7543b9	0.01496976
119	0xbbca044d	-0.0061650635
120	0xbd21bb77	-0.03948542
121	0x3c8ebd13	0.017424142
122	0xbd092dd6	-0.03349098
123	0x3d004032	0.03131122
124	0xbc00b212	-0.007854955
125	0x3d0ce3f8	0.034397095
126	0x3cb582ba	0.022157062
127	0x3c728533	0.014802265
128	0x3d12b30f	0.035815295
129	0xbce99289	-0.028512256
130	0xbcf0877a	-0.029361475
131	0xbbf7613d	-0.0075494335
132	0xbc899bb9	-0.016797887
133	0x3c4ba629	0.012429752
134	0xbc80dfcd	-0.015731717
135	0x3bb48708	0.005509261
136	0x3af3078f	0.0018541681
137	0x3cc3caca	0.023900408
138	0x3cdfe558	0.02733104
139	0x3c9e34c2	0.019312266
140	0xbc2b5d08	-0.010459192
141	0x3d427a44	0.047479883
142	0x3d0f50f2	0.034989305
143	0xbd4b3cd7	-0.04961857
144	0xbcf83b9a	-0.030301858
145	0x3cbaa0dc	0.022781782
146	0x3cb3336c	0.021875106
147	0xbcecaa5a	-0.028889824
148	0x3b64ebf3	0.0034930676
149	0x3cc2b470	0.02376768
150	0x3d0d4ab7	0.03449508
151	0xbc94220d	-0.018082643
152	0xbc8a407c	-0.016876452
153	0xbcb701b9	-0.022339689
154	0xbd1feb09	-0.039042506
155	0x3c05a456	0.0081568565
156	0xb8a43a81	-7.8310266e-05
157	0x3c27c3b6	0.010239532
158	0xbc192672	-0.009347545
159	0xbaba5034	-0.0014214576
160	0xbcb2115d	-0.021736795
161	0x3bcead3d	0.0063072727
162	0x3d33d83a	0.04390738
163	0xbbb76126	-0.005596298
164	0xbc33f08d	-0.010982645
165	0xbc3e2f18	-0.011607908
166	0x3c169bef	0.009192451
167	0x3abf9e1f	0.0014619267
168	0x3c621038	0.013797812
169	0xbc364b2e	-0.011126323
170	0xbc9d147f	-0.019174812
171	0xbb460d0f	-0.0030220186
172	0x3d16bea8	0.036802918
173	0x3bbc1983	0.005740346
174	0xbd08f155	-0.033433277
175	0x3c8b1485	0.016977558
176	0xbcc359ad	-0.023846472
177	0xbb8e5371	-0.004343443
178	0x3d5698d3	0.05239184
179	0xbd081d25	-0.03323092
180	0x3d6ba4a7	0.05753007
181	0x3ba5db4c	0.0050615426
182	0xbc7f6fe7	-0.015590644
183	0x3d169922	0.036767133
184	0xbcafcddf	-0.021460472
185	0xbca7d1e0	-0.020485818
186	0x3c2a4d3e	0.010394393
187	0x3cbc0e2a	0.022955973
188	0x3cb8399e	0.022488412
189	0xbc85a2c1	-0.016312959
190	0x3d267c27	0.040645745
191	0xbc9005b7	-0.01758085
192	0x3d2094c0	0.03920436
193	0xbcf403e8	-0.029787019
194	0x3c65f16f	0.014034613
195	0x3bbccba0	0.0057615787
196	0x3b604264	0.003421926
197	0xbd189f0b	-0.03726105
198	0x3cf57d1e	0.029966887
199	0x3c974f7c	0.018470518
200	0x3c5fa29d	0.01364961
201	0x3d1f833c	0.038943514
202	0xbc1f8d0c	-0.009738218
203	0x3d5309cc	0.051523015
204	0xbcc0c012	-0.023529086
205	0x3c90e139	0.01768552
206	0xbc12b317	-0.008953831
207	0xbc6b10f0	-0.0143473
208	0x3d1ec77e	0.03876447
209	0x3cc65886	0.024212133
210	0xbc9822cc	-0.01857128
211	0xba139b67	-0.0005630762
212	0x3d0cc562	0.034367926
213	0x3d991499	0.07474632
214	0x3ca16fc3	0.019706612
215	0x3d7917bb	0.060813647
216	0x3ca09af7	0.019605143
217	0xbd226435	-0.039646346
218	0x3b9547ed	0.0045556934
219	0x3c31153d	0.010808286
220	0xbcda90fd	-0.026680464
221	0x3d31149a	0.043232538
222	0x3c726f61	0.014797063
223	0xbba49304	-0.0050224084
224	0x3d7939d5	0.06084617
225	0xbc29b44a	-0.010357926
226	0x3b60b2b3	0.00342862
227	0x3be2ca02	0.006921054
228	0xbc0b89ab	-0.008516709
229	0xbc50f04a	-0.012752602
230	0x3ce01176	0.027352076
231	0x3b9889dd	0.0046551065
232	0x3c19c025	0.00938419
233	0x3c94c371	0.0181596
234	0x3c5a9da2	0.013343247
235	0x3d146c4c	0.036236092
236	0xbcc64caf	-0.024206487
237	0x3ca39129	0.019966679
238	0x3d249951	0.040185276
239	0xbd1212f0	-0.03566259
240	0xbd47c2a8	-0.048769623
241	0x3b162138	0.0022907984
242	0xbb6a631f	-0.0035764647
243	0xbd18b8a6	-0.03728547
244	0x3a9a809f	0.00117876
245	0x3d845a5e	0.06462549
246	0xbc3f1852	-0.011663513
247	0x39d396ea	0.00040357496
248	0x3cd4a72d	0.025958622
249	0x3d16195f	0.03664529
250	0x3d3ec0f6	0.04657074
251	0x3c33d301	0.0109756
252	0x3bf39867	0.0074339393
253	0x3d4c2355	0.049838383
254	0xbd3f4ca9	-0.04670397
255	0x3d4a74d2	0.049427815

action_model._continuous_distribution.log_sigma f4 [1, 9]
0	0xbdc57a95	-0.09642521
1	0xbdeaf3f0	-0.11472309
2	0xbdc77f75	-0.097411074
3	0xbdd1e608	-0.10248953
4	0xbd1be957	-0.038064327
5	0xbde17bbf	-0.11009931
6	0xbd6714ea	-0.05641643
7	0xbc7b5382	-0.015339734
8	0xbd295cca	-0.041348256

action_model._continuous_distribution.mu.weight f4 [9, 256]
0	0x3c23befa	0.009994263
1	0xbc41b0d7	-0.011821947
2	0x3c808d5d	0.015692407
3	0x3c91dfc6	0.017806899
4	0x381988c5	3.660542e-05
5	0xbcb1a562	-0.021685306
6	0xbd2b00a7	-0.04174867
7	0x3d377f46	0.04479911
8	0x3cb1f319	0.021722363
9	0xbc43a60f	-0.011941447
10	0x3c6de481	0.014519812
11	0x3a885238	0.001040048
12	0xbcdfc3d5	-0.02731506
13	0x3b8dcf5c	0.0043276977
14	0xbcbe408b	-0.023224136
15	0xbc63496c	-0.013872486
16	0xbc229f65	-0.009925698
17	0xbd20f4dd	-0.03929602
18	0x3cfa8168	0.030579284
19	0xbd0b78f7	-0.034050908
20	0xbcb0d406	-0.021585476
21	0xbd3bb1c4	-0.045823827
22	0xbd3ef7c3	-0.046623003
23	0x3d86cc92	0.065819874
24	0xbccf2139	-0.025284396
25	0x3ccd3e26	0.025054049
26	0xbca3e190	-0.020005018
27	0x3cd5ce10	0.026099235
28	0xbcfca2ad	-0.030839289
29	0xbc60ea66	-0.01372776
30	0x3b8dfc21	0.0043330346
31	0xbc55bb02	-0.013045074
32	0xbd560cfa	-0.05225847
33	0xbd11c0f2	-0.035584398
34	0xbd1a9627	-0.037740853
35	0xbc28a3ae	-0.0102929305
36	0xbc85f1d6	-0.016350668
37	0xbc52ca2c	-0.012865584
38	0x3d3f12d3	0.04664881
39	0x3b97cb0a	0.0046323584
40	0xbd562c84	-0.052288547
41	0x3cd32570	0.025774688
42	0xbca47b7f	-0.020078419
43	0x3d3735f7	0.0447292
44	0x3b79f716	0.003814166
45	0x3c9210f9	0.017830359
46	0xbd493d65	-0.049130816
47	0x3d88a483	0.06672003
48	0x3cce7371	0.025201531
49	0xbce2c80b	-0.027683279
50	0x3d4678e0	0.04845512
51	0x3ce360db	0.027756145
52	0xbc41e101	-0.01183343
53	0xbc2d85bb	-0.010590966
54	0xbc3be66a	-0.011468509
55	0xbca49b45	-0.02009357
56	0xbd1c7298	-0.038195223
57	0xbcb320a7	-0.021866156
58	0x3d3c04cb	0.04590301
59	0x3cf7a237	0.030228717
60	0x3ae57d4a	0.0017508653
61	0x3caff1df	0.021477638
62	0xbba7fec9	-0.0051268083
63	0xba0f781e	-0.0005472916
64	0xbd0cf14e	-0.034409814
65	0x3d1dbfc6	0.038512968
66	0x3cb5ec24	0.022207327
67	0x3d2453e7	0.040119078
68	0xbcb7928c	-0.022408746
69	0xbc06583b	-0.008199747
70	0x3bc2130e	0.0059226817
71	0x3cb960d9	0.022629188
72	0xbcb83332	-0.02248535
73	0x3b2eab20	0.0026652291
74	0x3d7cfbb4	0.06176348
75	0xbc4bb9ad	-0.012434405
76	0x3c9de917	0.019276185
77	0xbca04ae2	-0.019566957
78	0x3ab5ae6a	0.0013861184
79	0x3d0aa7ba	0.033851363
80	0x3baf4e61	0.0053499197
81	0x3c4f171f	0.01263979
82	0x3ccad773	0.024760937
83	0xba2984eb	-0.00064666447
84	0xbbd59fa2	-0.006519274
85	0x3d2380cf	0.039917763
86	0x3b947dba	0.0045315893
87	0x3ca192c9	0.019723313
88	0x3c90c95e	0.017674144
89	0xbcd4f8c0	-0.02599752
90	0x3c9ea198	0.019364163
91	0xbbdaeabd	-0.006680815
92	0x3c49bd4c	0.012313198
93	0x3d65e966	0.05613079
94	0x3d0e8cfc	0.034802422
95	0x3d1b10f0	0.03785795
96	0x3cd51fb2	0.02601609
97	0xbb183dcd	-0.0023230196
98	0x3d41db75	0.04732843
99	0x3d603f14	0.054747656
100	0xbb3bf5be	-0.002868041
101	0x3c0991e9	0.008396604
102	0xbc8a21c5	-0.016861806
103	0x3d393265	0.045214076
104	0x3be934a7	0.0071168724
105	0x3b975870	0.004618697
106	0xbc6eead8	-0.014582358
107	0x3d29f1fe	0.041490547
108	0xbcbfc781	-0.02341056
109	0x3ca07dd5	0.019591251
110	0x3cebe4a0	0.02879554
111	0x3c8bda97	0.017072005
112	0xbbe1ee41	-0.006894857
113	0xbc264774	-0.010148872
114	0xbc6ec250	-0.014572695
115	0x3c8797ad	0.016551817
116	0xbcddc95c	-0.027073555
117	0xbc9bb5cf	-0.019007592
118	0xbce52573	-0.027971959
119	0xbc5d206e	-0.013496501
120	0xbc82e5cf	-0.015978722
121	0x3d5490d2	0.051895924
122	0xbc6d4f2e	-0.01448421
123	0x3b9a3f7d	0.0047072754
124	0x3c97108b	0.018440505
125	0x3c9356c7	0.017985715
126	0xbcf38761	-0.02972764
127	0xbca8acc6	-0.020590197
128	0x3d92a074	0.0715951
129	0xbcb15159	-0.021645235
130	0x3c9bc426	0.01901443
131	0x3b8d97c5	0.004321071
132	0xbcc8c29d	-0.024506861
133	0x3cacba7d	0.021085018
134	0xbd8056bb	-0.062665425
135	0x3b6fc1d2	0.0036584032
136	0x3c4ce513	0.012505787
137	0x3d3db602	0.046316154
138	0x3c00f0fa	0.007869953
139	0x3b343d2a	0.0027502277
140	0xbc8ae23e	-0.016953584
141	0x3cc202d6	0.023682993
142	0xbd5f393a	-0.054497935
143	0xbbdbff73	-0.0067138015
144	0xbd09583e	-0.03353142
145	0x3c29552e	0.01033525
146	0x3be657e7	0.0070295217
147	0xbd5d6265	-0.054048914
148	0xbcacbf9d	-0.021087462
149	0x3cdf7e7d	0.027281994
150	0x3cc448e4	0.023960538
151	0x3cd0bf66	0.02548189
152	0xbb3740fc	-0.0027962318
153	0xbba75456	-0.005106489
154	0xbd05b134	-0.032639697
155	0x3c087fc8	0.008331247
156	0xbc89b4fb	-0.016809931
157	0xbb3fe7b2	-0.0029282388
158	0x3c288462	0.010285469
159	0x3c8627ac	0.016376339
160	0x3b915496	0.0044351323
161	0xbd33d6ab	-0.043905895
162	0x3cf4a229	0.02986248
163	0xbcf5e8c5	-0.03001822
164	0xbd423af7	-0.047419515
165	0xba735af1	-0.00092832657
166	0x3caae2a7	0.02086003
167	0xbc60bacc	-0.013716411
168	0x3cfbe9be	0.030751105
169	0xbcb96cf4	-0.02263496
170	0xbcb24a2b	-0.021763882
171	0xbd134d00	-0.035962105
172	0xbcfa3662	-0.03054351
173	0xbd1041c3	-0.035218965
174	0xbcdc9d82	-0.026930574
175	0xbb99ce5b	-0.004693789
176	0x3c49fd65	0.01232848
177	0xbcc1730e	-0.023614433
178	0x3d19e317	0.037570085
179	0x3c89076a	0.016727168
180	0xbd5a01dd	-0.053224433
181	0x3ccb895b	0.02484577
182	0x3d0407a8	0.032233864
183	0x3d486d9c	0.048932657
184	0xbd01a926	-0.031655453
185	0x3ab4ad26	0.0013784512
186	0xbc6ea044	-0.0145645775
187	0x3d02a3a1	0.03189433
188	0xbce65d9a	-0.028120805
189	0xbd07c07d	-0.033142556
190	0xbb235cb2	-0.0024927077
191	0x3ca4fed0	0.020141035
192	0xbc5ab4c6	-0.013348764
193	0xbd05b120	-0.032639623
194	0x39ee3b52	0.00045439095
195	0x3d5688fc	0.052376732
196	0x3ca2772b	0.019832214
197	0x3bfbe32f	0.0076869945
198	0x3ba61f38	0.0050696395
199	0x3d1a491e	0.037667386
200	0xbd5c7bd7	-0.05382904
201	0xbd4d7eb1	-0.05016965
202	0xbc003330	-0.007824704
203	0x3d3aad75	0.045575578
204	0xbc9445e1	-0.018099727
205	0xbbe22c6b	-0.0069022677
206	0xbd0ea4e2	-0.034825213
207	0xbc4a9e92	-0.012366908
208	0x3d3ce0e6	0.046112917
209	0x3d3e1428	0.04640594
210	0x3a29796f	0.00064649334
211	0xbd64eda7	-0.055890705
212	0xbc925b36	-0.017865758
213	0x3bcf1654	0.0063198004
214	0xbc9a1ce8	-0.018812612
215	0xbc56f8e5	-0.0131208645
216	0xbcd02f62	-0.025413219
217	0xbd775923	-0.06038774
218	0xbc543be9	-0.012953737
219	0xbd2fc7b2	-0.042915054
220	0xbba8c8fa	-0.0051509114
221	0x3d01d46f	0.031696733
222	0xbcd86a75	-0.02641795
223	0xbcdf56a9	-0.027263002
224	0x3b50ba72	0.0031849411
225	0xbc61078c	-0.0137347095
226	0xbd4f2b09	-0.05057815
227	0x3d4cf3b4	0.0500371
228	0xbc9531e7	-0.018212272
229	0xbc269d80	-0.010169387
230	0x3ce58908	0.028019443
231	0xbb0225d0	-0.0019858964
232	0xbc40e457	-0.01177319
233	0xbcae43e3	-0.021272605
234	0xbd39334a	-0.04521493
235	0x3d130f6c	0.03590338
236	0xbce6fb18	-0.028195903
237	0x3d36ca07	0.044626262
238	0xbd1c246b	-0.03812067
239	0x3c738c2d	0.0148649635
240	0x3b171a07	0.0023056285
241	0xbcdf6cbd	-0.02727353
242	0xbc99c61c	-0.018771224
243	0xbc3575b6	-0.011075428
244	0xbcb0e1b5	-0.021592
245	0x3bf9cd7b	0.007623372
246	0xbb09f265	-0.002104902
247	0x3d397484	0.045277134
248	0x3d5c8315	0.053835947
249	0xba0a0134	-0.00052644615
250	0x3cad83a7	0.02118094
251	0xbcf4ba62	-0.02987403
252	0xbcd02a60	-0.025410831
253	0xbc6adaa3	-0.014334354
254	0xbce3eed6	-0.027823847
255	0x3d4e0e82	0.050306804

action_model._continuous_distribution.mu.bias f4 [9]
0	0x3c149bee	0.00907038
1	0xbd35a447	-0.04434612
2	0xbc51b825	-0.012800251
3	0xbcfcfe34	-0.030882932
4	0x3cf5aa5e	0.029988464
5	0xbd0b7eaa	-0.034056343
6	0xbc3c9572	-0.01151024
7	0x3c2c3051	0.010509566
8	0xbcb215f1	-0.021738978
