results/RLEnv2/Crawler.onnx (onnx, 177722 bytes, 7 tensors)

network_body._body_endoder.seq_layers.0.weight f4 [128, 188]
000000 f8 33 47 3b cc 10 f1 3c 2e d9 c3 bd 99 c5 27 3d
       0.0030395966 0.029426955 -0.09562908 0.04095993
000010 7a 94 77 bd 42 45 43 be 4d aa 54 bc c1 c8 b1 bd
       -0.060444333 -0.19069389 -0.012980056 -0.08680869
000020 c6 37 f0 bd 4d f9 b4 3d 83 3d 21 bc b7 b2 84 bc
       -0.11729388 0.08836613 -0.009841326 -0.0161985
000030 c4 db 83 3d 5e 21 bf bc fd 57 b7 bd d3 2a 8d 3c
       0.06438401 -0.02333134 -0.08952329 0.017232334
000040 3b 2e d1 3d 66 4c bb bd 96 23 36 bd 27 ba 15 be
       0.10213896 -0.09145431 -0.04446753 -0.14621793
000050 52 4c b5 bd 5d 25 09 3d 37 f1 14 3e 52 de 69 3d
       -0.088524476 0.033482898 0.14545141 0.057096787
000060 13 2b 8c bd 04 85 1d be 4a 53 95 3d 52 3f e9 bd
       -0.06844153 -0.15382773 0.07291277 -0.113890305
000070 72 30 3b bc 8c 58 b2 bd 46 59 01 3e 56 db b7 39
       -0.0114251245 -0.08708295 0.12631711 0.00035067898
000080 bf 0d 05 3e 00 2a 25 bb 3f 28 d8 3d 74 30 94 3d
       0.12993525 -0.0025202036 0.10554551 0.07235804
000090 67 9a 45 3d 72 73 dc 3c 27 4c 4f 3c 63 58 e5 3c
       0.048242953 0.026910517 0.0126524335 0.027996248
0000a0 32 f1 81 bd 91 b0 ff 3c 7c f9 21 3d 23 ce 9d bc
       -0.063448325 0.031212123 0.039544567 -0.019263333
0000b0 57 31 c9 bd dd 60 18 3d 7b 67 01 bd 5a c4 c1 3d
       -0.09823864 0.03720175 -0.031592827 0.09461279
0000c0 6a bb b9 bc 5a 68 0b bc 18 0a 7c bd f4 08 81 3d
       -0.022672374 -0.008508766 -0.061533064 0.06300536
0000d0 00 e7 44 bd ef 79 3a 3e 7f e8 d4 3d e2 1e ce bd
       -0.04807186 0.18210576 0.103959076 -0.10064484
0000e0 c7 c2 13 3e 0d d2 a6 bd c1 25 83 bc 25 b8 04 3e
       0.1442977 -0.08145533 -0.016009213 0.1296087
0000f0 b0 a0 8c bc 66 f2 84 bd ab 2b 5e bb 17 2e 7a 3e
       -0.017166466 -0.06491546 -0.003390054 0.24431644
000100 de 85 8c be 3f 7b be 3d fd df 0b 3e 30 f6 13 bd
       -0.27445883 0.09300851 0.13659663 -0.036123455
000110 12 d9 4d 3d dc 93 c9 bc 19 0a 97 be a9 93 dc bc
       0.050255843 -0.024606638 -0.2949989 -0.026925879
000120 6d 46 22 3e c7 9e de bd ed be ca bc 98 04 62 3d
       0.15847178 -0.10870128 -0.024749244 0.055180162
000130 48 20 09 be 0f 6d 91 bc 57 d0 d2 3c f7 c6 31 3d
       -0.1339122 -0.017752199 0.02573411 0.04340264
000140 0a 03 ae bd 36 d1 2c 3d 4a 88 1c bc b6 ab de 3d
       -0.084966734 0.042191707 -0.009553978 0.10872595
000150 e9 33 38 3e 85 bd e2 bd 96 62 91 3d 71 52 7e bd
       0.17988552 -0.11071304 0.07098882 -0.06209034
000160 3f 1b 26 bd 53 09 66 bd 53 b3 c6 bd 52 a4 4e be
       -0.040553328 -0.056161236 -0.09702172 -0.2017987
000170 5f c6 0d bd 70 51 53 3c 79 fd 1c bd 96 e8 93 bd
       -0.03461301 0.012897834 -0.038327668 -0.072220966
000180 e9 d2 06 be 4f c3 0b be 18 12 26 bc ad 5b e6 bd
       -0.13166393 -0.13648723 -0.01013615 -0.112479545
000190 90 c2 bc bd b5 6f a8 bd 4a 45 94 3c 34 65 16 3d
       -0.09216797 -0.082244314 0.018099446 0.03671761
0001a0 cb 82 24 bd 35 5a 50 3d db fe 14 3d 9d e6 75 3b
       -0.040163796 0.050867278 0.03637586 0.003752149
0001b0 ad 96 09 3e 18 11 20 3e 5c f0 67 bd 34 1e 70 3d
       0.13436384 0.15631521 -0.05662571 0.058622554
0001c0 3d 23 97 3d 5f 7e 2e 3d 3c 8a c1 bc b2 44 07 be
       0.07379768 0.042600986 -0.023625486 -0.13209799
0001d0 fc e8 fe bd fa 27 04 bb 46 b4 c9 bd 49 27 9d bd
       -0.12446782 -0.002016543 -0.098488376 -0.07673509
0001e0 25 3b 08 3d 7d 16 90 3d ac 57 45 3b eb 81 11 3d
       0.03325953 0.07035539 0.003011207 0.03552429
0001f0 a8 6a 54 bd c1 bf c4 bd a3 9a 04 3e 99 cc 34 3e
       -0.051859528 -0.09606887 0.12949614 0.17656173
000200 21 7c db 3d 21 c6 9b bd 1d 7d ab bc 76 e4 c9 bc
       0.10717035 -0.076061495 -0.020933682 -0.024645071
000210 c1 99 81 3d ae d8 40 3e e6 4e 97 3d 19 95 bb 3c
       0.06328154 0.18832657 0.073880956 0.022898244
000220 e0 d9 9d bd 7a aa 31 be 61 55 2a bc 7a 73 bc 3d
       -0.07707572 -0.17350188 -0.0103963325 0.09201713
000230 38 78 e4 3d 41 72 a6 bd 56 d6 e4 bd e8 12 27 3b
       0.111557424 -0.08127261 -0.11173694 0.0025493447
000240 17 b6 a8 3c 98 36 14 3d 03 c5 fd bb 2f 15 31 bd
       0.02059464 0.036184877 -0.007744433 -0.043233093
000250 03 d6 c5 bc d9 7e fc 3c 46 83 35 bd 3e 94 df 3b
       -0.0241499 0.030822204 -0.044314645 0.006823092
000260 1d 7e 9f bd b8 c0 82 bd 24 3c 17 be d6 df a5 3c
       -0.07787726 -0.063844144 -0.14769036 0.020248335
000270 17 68 80 bd 99 87 40 bd 85 32 57 bd f7 56 c3 3d
       -0.062698536 -0.047004316 -0.052538414 0.095380716
000280 fd 91 22 3d f2 44 0a be 6e cc 23 bd db 5e 09 bd
       0.039690007 -0.13502863 -0.03998988 -0.033537727
000290 1c ad 7a bd 9a 5b aa 3d c6 8c 54 bd 9e 89 17 3e
       -0.061200246 0.08318253 -0.051892065 0.1479859
0002a0 a2 92 d9 3d 49 27 11 3e 26 7d 09 bd 65 48 b4 3d
       0.10623671 0.14175142 -0.033566616 0.08802871
0002b0 ad cd 52 3a 77 35 75 3d f9 39 d4 3d c1 8b 88 bc
       0.00080415123 0.05986544 0.1036262 -0.016668202
0002c0 d0 76 5a bd 00 73 d9 bb 3b 18 c3 3d a3 d3 0c 3b
       -0.053335965 -0.0066360235 0.09526106 0.002148845
0002d0 37 7c f7 bc e4 00 9c 3d 1d 87 f0 3d ec 79 27 3d
       -0.030210597 0.076173574 0.11744521 0.040887758
0002e0 9c c2 11 bd 7f 06 12 ba 37 9a db 3d 3b 0c 00 3e
       -0.035585985 -0.0005570426 0.107227735 0.12504666
0002f0 1b 52 55 bd f8 45 b1 3c 11 38 9f 3d bc 2c 8f 3d
       -0.052080255 0.021639809 0.07774366 0.06990954
000300 1d 6f 6a bc e0 8f 90 bb fc a7 2d bd 3d 8c 2d 3d
       -0.014308718 -0.0044116825 -0.04239653 0.04237007
000310 21 71 2f be a7 2d 16 be f6 90 75 bd 7b eb 3b 3e
       -0.17132999 -0.14665852 -0.0599527 0.18351547
000320 ee a6 da 3b f9 b7 2c 3d 17 6c d0 bd ff b4 d0 3b
       0.0066727316 0.042167637 -0.101768665 0.0063692327
000330 6c 81 5c bd 7b 0f 3f bc f1 c0 94 3d c0 8a 9f bd
       -0.053834364 -0.011661406 0.07263363 -0.07790136
000340 e2 dc 0d be a3 65 25 bb 18 82 93 3e 0e d9 c3 3d
       -0.13853791 -0.0025237582 0.2881019 0.09562884
000350 93 54 ab 3d 4c f1 16 3c a1 d0 b4 bd d2 18 9e 3d
       0.083657406 0.009212803 -0.08828855 0.07719578
000360 45 f5 d3 bd 42 ef 83 bd b6 95 9e 3d 16 90 47 bd
       -0.10349516 -0.06442119 0.07743399 -0.048721395
000370 fc ba cd 3d 07 81 51 bd 8f 99 84 3a e4 80 0e 3d
       0.1004543 -0.05114844 0.0010116565 0.03479089
000380 2a b9 86 3e d6 01 e8 bc 85 ce 59 bd 12 61 56 3c
       0.26313144 -0.028321188 -0.053175468 0.013084667
000390 05 be 96 bc 8d c6 79 3d b8 18 ad 3d 82 eb 14 bc
       -0.018401155 0.06098037 0.0845198 -0.009089353
0003a0 2e 35 d9 bc 1a 9c cb bd ed ac 78 3d d8 19 0e bd
       -0.026514616 -0.099418834 0.06071179 -0.034692615
0003b0 42 21 61 bc d3 5f 48 3d db b4 14 be 99 b6 5e 3d
       -0.013740839 0.04891951 -0.14522116 0.054373357
0003c0 7c ee bd bd 31 54 06 3e 7e b9 ba 3d 2b 8c 8d bd
       -0.09274003 0.13118054 0.09117411 -0.069115005
0003d0 56 b2 a0 3d 44 ad 27 bc 44 4c 94 bc b7 a0 8b bc
       0.07846515 -0.010234181 -0.018102773 -0.017044408
0003e0 da 69 e1 bc d0 ce bc bc 9e b2 31 3d c3 1e 1e 3e
       -0.027516294 -0.023047835 0.043383233 0.15441422
0003f0 dc d9 ec bd d4 b6 1f 3e c5 51 34 3e d3 ee 08 be
       -0.11564991 0.15597087 0.17609318 -0.13372354

network_body._body_endoder.seq_layers.0.bias f4 [128]
000000 10 50 03 3d b7 8e c0 3c 3a f8 88 3c a5 99 7d bc
       0.032058775 0.023505552 0.016719926 -0.015478526
000010 c2 81 0d 3d 8f 39 57 bd 3a 10 d8 3c 26 a8 5e 3c
       0.034547575 -0.052545127 0.026374925 0.013589894
000020 c3 0f 82 3c 12 46 64 3c bf ce 81 3c af 1a 72 bb
       0.015876656 0.013932722 0.015845655 -0.0036942174
000030 de 59 ab 3c 0d 9b ff 3c 86 cb 06 3d cd 60 1d 3d
       0.020916875 0.031201864 0.03290894 0.038422395
000040 7e 52 f6 3c bb 22 93 3c 92 08 0c 3b 9c 08 10 3d
       0.030068632 0.017960897 0.0021367413 0.03516446
000050 a0 c7 22 3d ab 23 a8 bc ef 21 01 3d df 4a 3a 3c
       0.03974116 -0.02052482 0.031526502 0.01137039
000060 10 4b 6b 3c 60 9f 09 3d 51 b1 55 3d 5b a5 28 bc
       0.014361158 0.033599257 0.052171055 -0.01029333
000070 76 e4 13 3b ab a0 18 3c f0 11 56 3c f8 f0 f2 bb
       0.0022566593 0.00931565 0.0130658 -0.0074139796
000080 d7 d9 8a 3c 8c 98 07 3d c1 60 f1 3c 68 d6 bc bc
       0.016949577 0.033104464 0.029465081 -0.023051456
000090 ef 01 09 3c 7a e0 73 bc 3a 9b 02 3d 24 25 c1 3a
       0.008362277 -0.014885062 0.031886317 0.00147358
0000a0 99 e8 71 ba 88 66 c2 3b ce e0 e5 bb 9b e9 8a bb
       -0.000922808 0.005932633 -0.007015324 -0.0042392737
0000b0 60 b0 c0 3c 57 f1 0b 3d f3 e7 20 3c 67 4b 1a 3d
       0.023521602 0.034165706 0.009820926 0.037669566
0000c0 e7 3d be bc 54 5a df 3c 3d 32 2c 3d 12 a6 c0 3b
       -0.023222877 0.027264751 0.0420401 0.005879172
0000d0 9a 18 48 3d 84 0f 00 bd c3 ef 66 bc 4b 47 54 3d
       0.048851587 -0.031264797 -0.01409525 0.051825803
0000e0 f3 a6 d7 3c f9 a9 31 bc c6 72 f6 3b f9 e2 16 3c
       0.026324725 -0.010843747 0.0075210063 0.009209388
0000f0 ee 7e 1c 3d dc b0 04 3c f0 c1 7c 3b bc 12 0d 3b
       0.038206987 0.008098807 0.0038567744 0.002152606
000100 b9 9f 2d bd b9 17 65 3a fb 2a fe 3b de 64 89 3c
       -0.04238865 0.00087391917 0.0077565885 0.01677173
000110 31 b3 e9 3c 44 1f 8c 3c c8 0f 8f 3c cf bb 8c 3b
       0.028527828 0.017104752 0.01746358 0.0042948495
000120 22 98 78 bc da 48 c0 3c 5c 03 33 3c 6a 0b b8 3c
       -0.01517299 0.023472238 0.010926094 0.02246638
000130 d4 f9 23 3d ee 17 4f 3c 2a 86 6d 3c 64 1f 09 3c
       0.040033177 0.012639983 0.014497319 0.0083693005
000140 fe 7d b4 3c c2 28 eb 3b cc f7 05 3d ae 24 d1 3c
       0.022032734 0.0071764896 0.03270702 0.025530186
000150 8c d1 1c 3d f2 60 1b bd 41 63 da 3c ee 9b 94 3c
       0.038285777 -0.03793425 0.026658656 0.01814076
000160 41 d4 ee bc 56 01 29 3c a4 13 b1 3b b4 af 3f 3d
       -0.029153945 0.01031526 0.0054039527 0.046798423
000170 20 4c ba 3c 8f 01 4b 3c f1 e8 21 3c bc 04 12 bd
       0.022741377 0.012390508 0.009882198 -0.035649046
000180 cc 06 01 3d 8b f8 5e bc 68 7c 67 bc b9 2b 84 3c
       0.031500623 -0.013609062 -0.014128782 0.01613413
000190 a3 43 9c 3c d4 d9 0c 3c 55 ac 63 3d ce bb 7b bc
       0.01907522 0.008596856 0.05558427 -0.0153646
0001a0 26 cc 7a 3d f3 1b 87 3b 1c a0 5c 3c 17 15 f5 3b
       0.061229847 0.004123205 0.013465907 0.0074793207
0001b0 01 4d f7 3c 94 cd 28 3d 06 b8 ce bc 4a 25 42 3d
       0.030188086 0.04121168 -0.025234234 0.047398843
0001c0 4c 41 58 bd 01 b1 11 bc ff 0f 93 3d ba 71 07 3d
       -0.052796647 -0.008892299 0.071807854 0.033067442
0001d0 c0 18 86 3b 41 0e 57 3d 88 51 7f 3d b0 6f 0c 3d
       0.004092306 0.052503828 0.062333614 0.0342862
0001e0 4a 20 35 bc 00 bc ce 3c 0c 55 69 3c 39 19 95 3c
       -0.011055062 0.02523613 0.014241468 0.018200504
0001f0 9d 28 b1 3c 10 02 2c 3c aa 39 42 3d 45 f8 b8 b9
       0.021625811 0.010498539 0.047418274 -0.0003528019

network_body._body_endoder.seq_layers.2.weight f4 [128, 128]
000000 f2 f1 60 be 1d b9 af 39 f6 ad ee 3b 59 77 50 bd
       -0.21967295 0.0003351652 0.0072839214 -0.05089507
000010 ba 05 27 3d 62 f0 cf 3c fb d0 99 bd 44 7f 8a bd
       0.040776946 0.025383178 -0.07510563 -0.06762555
000020 bf da 90 3d d7 64 04 3e f3 70 a5 3d 4a e9 03 be
       0.070729725 0.12929092 0.08078184 -0.12881961
000030 7e f2 5a bd 4b 22 7c bd a9 ee ee bc 09 e4 b3 bd
       -0.053453915 -0.06155614 -0.029166536 -0.08783729
000040 29 af 51 3b f8 8d ed bc 26 ee 4d 3c b9 ac c9 3c
       0.0031995273 -0.02899836 0.012568986 0.024618493
000050 ff 10 87 3e e3 69 cf bd 85 61 70 ba 60 42 41 be
       0.26380154 -0.10127618 -0.0009169805 -0.18872976
000060 f1 b0 ee b8 f4 eb 50 bd 72 98 2b 3d 08 7d ff bc
       -0.00011381682 -0.051006272 0.04189343 -0.03118755
000070 c4 98 e5 3d f2 23 72 be 23 6b 3c 3d be d0 c5 3d
       0.11210778 -0.23646525 0.04600061 0.09658955
000080 35 d8 6d bd 61 b3 af bc 8c 04 40 bd 85 02 66 bd
       -0.05806752 -0.02144784 -0.046879336 -0.056154747
000090 64 1f 6e 3c 0d 34 c8 bd 88 ae ab bd ba d7 10 3e
       0.014533851 -0.09775553 -0.083828986 0.14144793
0000a0 2d 3a f1 bc bc 2d 0e 3e 09 a7 c2 bd 0b 16 54 bd
       -0.029446686 0.13884634 -0.09504516 -0.051778834
0000b0 b3 57 5c bd b3 9f 80 3d 61 d2 c0 3c 6c fe 17 be
       -0.053794574 0.0628046 0.023537816 -0.14843148
0000c0 45 f2 05 bd e5 bb d9 bc fe 7b 99 bc fc 34 2c 3e
       -0.03270175 -0.026578853 -0.018735882 0.16817087
0000d0 18 1c f7 b9 c1 63 bd bd 97 fb 7f be 98 bd ba 3d
       -0.00047132443 -0.09247542 -0.24998318 0.091181934
0000e0 24 d7 3d 3d 50 52 7c bd 1e bd 90 3c 17 1c 9d 3c
       0.046347752 -0.061601937 0.017668303 0.019178433
0000f0 1b 35 55 bd 22 db b2 3d b7 8c 88 3c d0 e1 12 3e
       -0.0520526 0.087332025 0.01666866 0.14343953
000100 d6 b4 84 bd e3 a4 06 be 36 94 16 3e 94 26 d2 3c
       -0.06479804 -0.13148837 0.14704975 0.025653161
000110 f7 d5 fe 3c 9b b4 5c bd d2 96 09 bd b9 c4 fa 3d
       0.031107886 -0.053883176 -0.0335911 0.12244553
000120 82 3b bf bd cc ac 38 3c bb d3 e0 3d 3c 06 1e 3e
       -0.09337522 0.011271667 0.109778844 0.15432066
000130 d7 98 cd 3b 9f db 59 bd 41 ea 02 bd ec aa 01 3e
       0.0062743234 -0.053187963 -0.031961683 0.12662858
000140 56 8e eb ba ba d8 ce bd 56 d5 7e bb a1 9e b9 3c
       -0.0017971497 -0.10099931 -0.0038884482 0.022658648
000150 fc 52 04 bb 66 26 0f be 74 29 9b 3d 39 72 4f 3d
       -0.0020191064 -0.13979492 0.07576266 0.05064604
000160 af 35 88 bd ca 53 1d 3d eb 50 e1 bb 48 df 87 3c
       -0.06650864 0.038409986 -0.0068761013 0.016585961
000170 9d 83 4a 3d 0f ce 4b 3e 83 e1 2f 3e 90 89 70 be
       0.049441922 0.19902824 0.1717587 -0.23489976
000180 f3 f0 6c bc 0f 61 99 3d 3c ab 62 3d 1c 59 ab 3d
       -0.014461744 0.074892156 0.055339083 0.08366606
000190 c2 8b 5c be e5 ac a7 3d 22 46 c9 bb 93 71 b1 3d
       -0.21537688 0.08187274 -0.0061423937 0.08664241
0001a0 99 07 e5 bd 2e 4d 30 be 4c 9f 85 3d 8c 6a 78 bc
       -0.1118309 -0.17216942 0.06524524 -0.0151621215
0001b0 2d bf 05 3e 21 95 47 3a 00 fd ad 3d f1 15 aa bb
       0.13061209 0.00076134695 0.084955215 -0.005190604
0001c0 c3 9a ad bc 73 d7 fc bc e8 48 80 bd 31 cc e4 bd
       -0.02119196 -0.030864453 -0.06263906 -0.11171759
0001d0 96 1e 32 be 96 21 41 be d4 b2 ad 3d 9b 38 79 3d
       -0.1739448 -0.18860468 0.084813744 0.060845
0001e0 3e 47 83 3d 55 1b 11 3e 41 b4 d9 3d 22 a3 73 3d
       0.06410073 0.14170583 0.10630084 0.059481747
0001f0 1c f0 c3 bd fe 7f f9 bd 59 9f 86 bc 42 e3 06 be
       -0.095672816 -0.12182616 -0.016433405 -0.1317263
000200 62 9f c6 bd fd c7 59 3d 53 83 5a bd 67 c0 ae bd
       -0.096983686 0.05316924 -0.053347897 -0.085327916
000210 61 4a 2b bc c3 0e 7a bd d6 d2 89 3d eb a4 72 3c
       -0.010454745 -0.061049234 0.06729667 0.014809827
000220 0a d3 ca 3d e3 f4 66 be 62 83 fe bd 44 86 d3 3d
       0.09903534 -0.22554354 -0.12427403 0.103283435
000230 59 26 69 3b 46 ed f1 bd 9e 7c 80 3d 82 54 6c be
       0.0035575835 -0.118128344 0.06273769 -0.23079112
000240 3a b0 8f 3d db 34 07 3e 84 a2 f7 b9 af 31 b9 3d
       0.070160344 0.13203757 -0.00047232595 0.090426795
000250 c3 d8 05 be 28 01 b7 3c 6b da e1 bd 21 06 ce 3c
       -0.1307097 0.022339419 -0.11027988 0.025149407
000260 1e 8b 68 3d 52 6d 19 be f8 14 12 3d 56 c1 0e be
       0.056773297 -0.14983109 0.03566453 -0.1394094
000270 c8 76 62 bc d8 5c d5 3b 55 4d a8 bd 40 b4 0c be
       -0.013822265 0.006511312 -0.08217875 -0.13740635
000280 6e 62 0b be 60 9d fb 3b f3 dd 51 3d 06 47 3b 3c
       -0.13611767 0.0076786727 0.051237058 0.0114305075
000290 58 3f dd bb 45 40 a5 3c 7d 1d 21 bd c3 31 97 3d
       -0.006751936 0.020172248 -0.039334763 0.07382538
0002a0 9b b2 ff 3d e8 06 f7 bd 95 aa 92 3d 27 ac 4b be
       0.12485238 -0.12061864 0.07161442 -0.1988989
0002b0 48 d7 2a bc 83 8c 60 be 3f 2d a5 bd f1 36 9d 3d
       -0.010427304 -0.21928601 -0.08065271 0.07676495
0002c0 c5 0a 27 3d 61 fd 00 bd 82 17 a3 3d 60 c7 d1 bd
       0.040781755 -0.03149164 0.07963468 -0.10243106
0002d0 d1 b3 d9 bb 60 44 4a be f6 47 13 bc d6 95 c0 bc
       -0.0066437502 -0.19752645 -0.008989325 -0.023508947
0002e0 2e 16 01 be cd c1 9d 3d 91 a7 61 3d 3b c0 62 3d
       -0.12606117 0.0770298 0.055091444 0.055359107
0002f0 ae 38 bc bd e0 db d3 3d 63 67 2e 3d ab fd 51 3d
       -0.09190498 0.10344672 0.042579066 0.051267307
000300 07 a7 ff bc 27 cd 18 bd a5 8d 1e 3d 07 7d d8 3d
       -0.031207575 -0.037305024 0.0387093 0.10570722
000310 ff ed 0b 3d af 0b 32 3d 95 ca cb bd fb 6d 4e bd
       0.034162518 0.043468174 -0.09950749 -0.050397854
000320 46 4c d3 bd df 60 68 bd 41 34 58 bc 66 9f 1e 3d
       -0.103172824 -0.05673301 -0.013196052 0.038726233
000330 fc 9b a7 3c 32 cf 9d 3c 71 d5 50 3e 2e b8 f7 bd
       0.020460121 0.019263837 0.20393921 -0.12095676
000340 1f a2 67 be d6 6d a0 bb 9e 8c 1e 3d 27 db 05 be
       -0.22620438 -0.004895906 0.03870832 -0.13071881
000350 68 72 22 bd d9 2e 86 3d 75 63 cb bd a8 e4 03 be
       -0.039659888 0.06551904 -0.09931079 -0.12880194
000360 5d 75 6f 3d 67 c8 b3 bd a8 90 05 3e b2 53 ee bd
       0.058461536 -0.08778458 0.13043463 -0.11637057
000370 05 ba 55 3d b1 58 3f be 15 c3 20 3e ca 51 f4 bd
       0.052179355 -0.18686177 0.15699418 -0.119296625
000380 5a ef 4d 3d 80 75 3e bd 60 13 0b be f0 11 93 bd
       0.05027709 -0.046498775 -0.1358161 -0.07181156
000390 50 08 f5 bd 72 66 95 bd 92 ca 57 be 5a 8f c2 3d
       -0.11964476 -0.072949305 -0.21073368 0.094999984
0003a0 7a f2 5d bd 43 6e 6a 3d 17 ea 6c bc b9 67 57 3d
       -0.05418632 0.05723406 -0.014460108 0.052589152
0003b0 bb d9 03 be 8e 2d 1d 3e 80 6a 17 be 0f d9 01 bc
       -0.12876026 0.15349409 -0.1478672 -0.007925286
0003c0 29 c5 b0 3c ae 75 12 bd e9 bc 10 bd 16 25 09 3e
       0.021578388 -0.03575676 -0.03533641 0.13393053
0003d0 f6 fd bf bd 7b 1f fc bc 08 85 2c be 8f bb 93 3d
       -0.09374611 -0.03077673 -0.16847622 0.07213508
0003e0 05 44 9a 3c 3a ce b4 3c 30 a4 8c 3c a3 b7 a9 3d
       0.018831262 0.022070993 0.017168134 0.08286979
0003f0 de c3 81 3c e9 df 0a be fa 2a f0 bd 97 b1 3b be
       0.015840467 -0.13561977 -0.11726947 -0.18329464

network_body._body_endoder.seq_layers.2.bias f4 [128]
000000 7a b3 22 3b 42 57 dc 3b 48 d8 9f 3c 7d 48 2c 3d
       0.0024826215 0.006724269 0.01951231 0.042061318
000010 a0 a2 06 bd b6 7d 1a 3d 5d 1a 11 3b 2f 1b 97 3b
       -0.032869935 0.037717544 0.0022140958 0.004611395
000020 39 5e ae bb e4 5e 33 3d 3f b5 f3 bc 28 56 0e 3d
       -0.005321291 0.043791667 -0.02974951 0.034750134
000030 86 9f ae ba 7d 03 04 3d f2 50 05 ba 31 f0 16 bc
       -0.0013322688 0.03222989 -0.0005085609 -0.0092125395
000040 7b cf 81 3b 6d 25 1e 3b c7 f1 54 bb b4 a3 84 3c
       0.003961501 0.0024131194 -0.0032492743 0.016191341
000050 b3 23 20 3d 27 c2 1a 3d a3 d4 23 3c 1a ed cc 3c
       0.039096545 0.037782814 0.009999427 0.025015403
000060 ad 68 df 3c ad b9 9f bb 0c d8 07 3c bd a2 a7 3c
       0.027271593 -0.004874429 0.008291256 0.020463342
000070 4a 5e 14 3d b3 28 99 3c c2 3f 96 3b dc 33 09 3c
       0.036222734 0.018696165 0.0045852372 0.008374181
000080 ac 71 b6 3c f3 50 4f 3c 18 78 79 3c e5 b7 1a 3c
       0.022271 0.012653577 0.0152263865 0.009443258
000090 46 ff 52 bc d9 f2 c1 3c fe 7b d7 3b 61 5e 37 3c
       -0.012878245 0.02367537 0.0065760603 0.011191935
0000a0 af 85 fe 3b a2 5c 88 3b a4 19 e9 3b 24 5d 93 3b
       0.007767401 0.0041614333 0.0071136523 0.004497187
0000b0 66 9f f2 3c b5 93 2e 3c fe 79 da 3c a4 29 24 3d
       0.029617023 0.010655333 0.026669499 0.040078774
0000c0 52 c8 ab 3c ae f6 27 bc 10 0e 4a 3c 9e 7f 13 bb
       0.020969544 -0.010251684 0.012332454 -0.0022506486
0000d0 0d 9c e8 3c 5b fa f4 3c 59 05 34 3c f7 8c 90 3b
       0.028394723 0.029904535 0.010987603 0.0044113356
0000e0 ce 60 84 bb 97 cf 41 3c 5c 3c 2f 3c 3b 25 81 3c
       -0.0040398603 0.011829278 0.010695543 0.015764823
0000f0 18 71 9b 3c 29 a2 46 3d 0d 0e 94 ba a1 79 81 bc
       0.018974826 0.04849449 -0.0011295691 -0.015805067
000100 d5 61 94 3c ef 41 a7 bc 63 90 7b 3c db 32 14 3c
       0.018113056 -0.020417182 0.015354249 0.009045328
000110 e4 df e4 bb 77 fb b8 3c cf 5c 1f bc 7a b4 d7 b9
       -0.0069846977 0.022580845 -0.009726717 -0.0004114246
000120 5a 2f 8c ba 03 d0 7b 3b eb 6b 21 3d c5 91 15 3c
       -0.0010695264 0.0038423545 0.03940956 0.009128992
000130 92 19 45 bd 78 d6 90 3c 3c cc 7c 3c bf 8e ab 3b
       -0.04812009 0.017680392 0.015429553 0.0052355225
000140 6a 3c 36 3b 62 61 72 bc 94 ca a4 3c 63 50 0d 3d
       0.0027807006 -0.014793726 0.020116128 0.03450049
000150 9f a5 50 3d ff d4 e7 3c f3 6d 0d 3b dc cd 54 bd
       0.0509392 0.028299807 0.0021580427 -0.051954135
000160 0e bb 06 3a 97 cd 07 bb 5d 3c 57 3c 37 c4 d2 3c
       0.00051395677 -0.0020721906 0.01313695 0.025728328
000170 8a fc 26 3c 8b 7b 1f bb 0c a0 eb 3c db 78 0d 3d
       0.010192046 -0.0024335112 0.02876284 0.034539085
000180 e7 2c 04 bc 6c 8c aa 3c 4e 62 eb 3c 38 fe 73 3d
       -0.008067346 0.020818911 0.028733399 0.059568614
000190 13 2e ae 3b f8 7d 81 b9 8e f5 89 3a c2 eb 22 3d
       0.005315551 -0.0002469865 0.0010525452 0.039775617
0001a0 1e 39 9d 3c f8 82 cd 3b a9 b6 ed bc e4 09 fa bc
       0.019192275 0.006271716 -0.029017763 -0.030522294
0001b0 fd 56 a3 bc 2b 3b 94 3b d7 20 c3 3c ca 88 bf 3a
       -0.01993894 0.004523655 0.02381937 0.001461291
0001c0 3e 48 48 3c 7d f2 ad 3c 6c 26 df b9 2c 59 9c bb
       0.012224255 0.021233791 -0.000425625 -0.0047713723
0001d0 f4 11 31 3c 00 93 fb bb e7 82 f4 3b 4f e5 6c 3b
       0.010807503 -0.007677436 0.007461894 0.003614742
0001e0 42 f6 b6 3c 7f f0 1c 3b 07 7a ff bc 40 2b 45 bc
       0.022334222 0.0023947058 -0.031186117 -0.012034237
0001f0 76 e3 f1 3c dd f2 85 3c 85 92 d9 3c 8f 32 bb 3c
       0.029527407 0.016351158 0.026559124 0.022851257

action_model._continuous_distribution.log_sigma f4 [1, 20]
000000 29 64 c9 bd 92 cd 05 3d 4c 2a 09 be cd ba e4 bc
       -0.09833557 0.03266675 -0.13395041 -0.027921105
000010 fe 95 26 bd aa 11 65 bd 16 41 c6 bd 76 af 90 bd
       -0.040670387 -0.05592505 -0.09680383 -0.070647165
000020 38 5f 66 bd 10 2e 55 be eb 94 90 3d 38 1c a2 bb
       -0.05624315 -0.20818353 0.07059654 -0.0049472116
000030 e0 35 c0 bb bd 14 38 3c d3 8f 39 3c 73 bb 5a 3c
       -0.0058657974 0.011235413 0.011325794 0.013350355
000040 84 2f 42 3c 73 91 c8 bc 0c 23 85 3c 2f fd 4b bd
       0.011852149 -0.024483418 0.016252063 -0.049802

action_model._continuous_distribution.mu.weight f4 [20, 128]
000000 72 94 06 3d f1 9a 1a 3d 71 9d 8c 3d 29 13 fe 3b
       0.032856412 0.03774542 0.06865967 0.007753749
000010 0a 05 ba bc dd cb 0d bd 9c 51 7a 3c b3 70 55 3d
       -0.022707481 -0.034618247 0.015278246 0.05210943
000020 24 65 52 3d fa b4 0a bd 95 18 0b bd 72 3f cf 3b
       0.051365986 -0.033864 -0.03395899 0.006324702
000030 1c a3 b5 bc e3 4f 04 3b 5f a4 b8 3c 15 8f 94 bb
       -0.022172503 0.0020189218 0.022539316 -0.0045336583
000040 71 d1 af bc ee d8 9c 3c 62 4e c2 3c e1 d4 ba 3c
       -0.021462174 0.019146409 0.023719016 0.022806587
000050 99 bc e1 3c fb fc f8 bc 2b e4 93 3d eb 30 d5 3b
       0.02755575 -0.030394068 0.07221254 0.0065060756
000060 08 c0 20 3d d9 ed 94 3c bc ad b4 3b d8 15 a2 bb
       0.039245635 0.01817982 0.005513875 -0.0049464516
000070 ac 45 0b bc 54 43 64 3d 64 2d 1d bc e6 56 aa bc
       -0.008500498 0.05572827 -0.0095933415 -0.02079339
000080 59 78 25 3c b3 59 9f 3c 8d f9 27 bc b2 7f d6 3c
       0.010099494 0.019451952 -0.010252369 0.026183937
000090 64 85 91 bc 43 5c ab 3c ae f4 26 bd 6b 77 04 bd
       -0.0177638 0.020918017 -0.04076069 -0.03234045
0000a0 85 a5 26 3d 02 77 87 3c 99 9c f9 bc 9a d6 52 bc
       0.040685195 0.01653624 -0.03047018 -0.012868548
0000b0 59 66 70 b7 a1 64 87 3c 72 55 14 bc 7b 63 11 bd
       -1.4328944e-05 0.016527476 -0.009053575 -0.035495263
0000c0 b4 a9 d8 3b c2 b8 f7 bc 79 d4 89 bc 69 72 54 3b
       0.006612027 -0.030239467 -0.016824948 0.0032416827
0000d0 b2 97 00 bd 1d 49 b5 3c da da 3e bb 41 b6 27 3c
       -0.031394668 0.02212959 -0.0029122145 0.010236324
0000e0 10 2e 3e bb 33 db e7 bb 3d 0a 4b 3c cf 30 df 3c
       -0.0029019155 -0.007075691 0.012392578 0.027244953
0000f0 78 34 17 3d 63 2e 0b 3c c6 76 f7 3b 49 b4 02 bd
       0.036915272 0.008494946 0.0075520007 -0.031910215
000100 71 40 f4 bc 57 32 c0 bd aa 95 2d 3d 34 63 f3 3b
       -0.029815884 -0.093846016 0.04237906 0.0074275974
000110 c5 71 c8 3c 2e 37 43 3d 7b b0 3c bd 46 fe d9 3b
       0.024468312 0.047660045 -0.046066742 0.006652626
000120 21 70 a5 3c ce 96 84 3c 25 50 23 3d c4 11 1d bd
       0.020195069 0.01618519 0.039871354 -0.03834702
000130 59 88 13 bc 84 93 13 bd 31 79 63 bd 65 2f 32 3d
       -0.009004676 -0.036029354 -0.0555355 0.04350223
000140 56 b6 57 bc bd 63 6b 3b 1a 37 1d bd 09 1a b6 3c
       -0.013166031 0.0035917603 -0.038382627 0.022229211
000150 6f 9e ae 3c de b4 98 3b e5 99 aa bc 24 0f 33 3a
       0.021315781 0.004660233 -0.020825336 0.0006830564
000160 10 53 00 3d 22 26 20 3c 3c b7 67 3d a5 ff 3b bc
       0.031329215 0.009774717 0.05657123 -0.011474525
000170 86 90 81 3d ab 5e 79 3d b0 b2 5f 3c ef e8 54 bd
       0.06326394 0.060881298 0.013653442 -0.051979955
000180 76 ad 19 bd b0 41 c9 bc 4f 1e 1b bd 72 d3 54 bc
       -0.03751894 -0.024567455 -0.0378707 -0.012989866
000190 e3 e3 5f bd 95 df fb bc 85 e8 bb 3c 40 be eb bc
       -0.05466069 -0.03074626 0.022938022 -0.028777242
0001a0 2d db 54 3d e2 b1 22 3a ec 07 a7 bc 4e ed d7 3b
       0.051966835 0.0006206316 -0.02038952 0.006589568
0001b0 1f 52 2b 3c c0 ec 1f bc d9 8c 24 3c 96 20 97 bc
       0.010456591 -0.009761035 0.010043346 -0.018448155
0001c0 c4 85 73 3d 45 ab 11 3d 64 a3 34 3d 6b c7 1c bd
       0.05945374 0.035563726 0.044101134 -0.038276117
0001d0 f5 9e 77 3d cd 92 c2 3d ff 3d 0c 3c f7 68 cc 3d
       0.060454328 0.09500656 0.008559703 0.09980958
0001e0 58 29 51 3d 54 64 b2 3c b7 12 ce bc a3 11 17 3d
       0.05106482 0.021776356 -0.025155408 0.036882054
0001f0 8f a1 07 bd 10 19 8f 3c 20 ee bd b8 79 0c 63 3b
       -0.03311306 0.017468005 -9.0565765e-05 0.0034644885
000200 fd 78 b9 bc 1f b4 d2 3c 7b fa 8d bc 94 f1 14 3c
       -0.0226407 0.025720654 -0.017331352 0.0090908
000210 5b 7a 14 3c f5 d9 f6 bc e4 16 63 3c 34 12 51 bd
       0.009062375 -0.030133227 0.013860438 -0.05104275
000220 29 99 da bc df 28 2b bd 2e 77 8c bc 63 c9 e5 bb
       -0.02668436 -0.041787025 -0.017146673 -0.0070125326
000230 1f 07 56 3d 91 9b b2 3c 7b bd cf 3c d2 69 9b 39
       0.052252885 0.021802695 0.025358906 0.00029642746
000240 9f e2 2e 3c 1d 6e b2 3b 99 1b 95 3c ed f2 db bc
       0.010674148 0.0054452554 0.018201636 -0.026849234
000250 8f ee e6 bc 28 8b b4 3b 92 e0 a3 bc 79 12 fc b8
       -0.028189925 0.005509753 -0.020004544 -0.00012019737
000260 1a 21 d5 3b 2d d8 0d bc 94 97 1f bd 24 4c b9 3c
       0.00650419 -0.008657497 -0.038962916 0.022619314
000270 e4 59 dc bc 32 e6 54 3b f5 58 2f 3d b3 90 a3 bc
       -0.026898332 0.003248584 0.042809445 -0.019966459
000280 8f 72 4e bd dc ae 8a 3c 1b da 12 3d 57 a3 bd 3c
       -0.05040222 0.016929083 0.035852533 0.023149176
000290 5e 44 21 3d 94 33 8e bc dc be 17 3d fc 3f 60 3d
       0.03937184 -0.017358579 0.037047252 0.05474852
0002a0 b7 d2 c7 bc f6 6c 9f bc 65 15 d5 bc c1 ee 96 3c
       -0.024392469 -0.019461136 -0.026011178 0.018424394
0002b0 a1 62 25 bb b8 b6 d6 3b 1b 6f 34 3c 5f 15 94 bc
       -0.002523579 0.0065525435 0.011012818 -0.018076597
0002c0 9f 91 3d bc b1 f4 30 3d 87 6e 4f bc 79 ac 07 bc
       -0.011570363 0.043202106 -0.012660629 -0.008280867
0002d0 b6 af b7 3c 3d b9 7b bc 64 29 de 3c 70 43 34 bc
       0.022422653 -0.0153639885 0.027119346 -0.0110024065
0002e0 e2 0e ea 3c f3 3a 9d bc 64 5b 00 bc 28 b7 04 bc
       0.02857155 -0.019193148 -0.007834289 -0.0081003085
0002f0 2a dc 19 3b 60 fb 87 bb a0 3b fb ba 4b 68 17 3c
       0.0023477175 -0.0041498393 -0.001916755 0.009241174
000300 10 07 81 3c 27 b1 ea 37 0c f8 03 3d cd b1 ed 3c
       0.015750438 2.7977467e-05 0.032218978 0.029015446
000310 cd 47 a0 bb 84 5c 3c 3c 74 59 fc 3c 77 85 cc 3c
       -0.004891372 0.011496667 0.030804373 0.024965985
000320 22 88 1a ba de 11 ab bb 49 9b 95 3a 37 81 ad 3c
       -0.0005894919 -0.005220636 0.0011414076 0.021179779
000330 33 8e 26 3d d5 bd f5 bb 55 db b1 3c 15 2a 0c 3d
       0.040662955 -0.0074994364 0.021711031 0.03421982
000340 2a f8 05 3d 6f 14 5c 3d 72 f8 5d 3c 49 7c 10 bc
       0.03270737 0.053730424 0.0135480035 -0.008818694
000350 ec e8 a7 39 f8 ae a2 bc cf e5 06 bd 96 74 ee 3b
       0.00032026262 -0.019858822 -0.032934006 0.0072770817
000360 10 fb 31 3d 32 62 30 bc 04 6e 8b bb 1f 96 9a 3c
       0.043452322 -0.010765599 -0.0042550582 0.018870411
000370 d2 29 36 bd 4f 79 83 bd 65 6b 4b 3c 3a e8 e5 3b
       -0.044473477 -0.06419622 0.012415742 0.007016209
000380 40 b2 1b 3d d6 69 56 bd 76 94 f2 3c f1 bd 36 bd
       0.03801179 -0.052347027 0.029611807 -0.044614736
000390 90 de 61 b9 25 08 66 3a 36 25 95 3b 07 b9 11 bd
       -0.00021540583 0.00087750173 0.004551555 -0.035576846
0003a0 b2 91 8d ba df d2 26 3b 34 f3 c1 3c 50 8b 59 3b
       -0.0010800867 0.0025455279 0.023675539 0.003319461
0003b0 fa ee cd 3b 39 75 dd 3b 61 73 18 3d 80 9d 8a bc
       0.0062845917 0.006758359 0.03721941 -0.016920805
0003c0 f3 cf 8b bc 70 e4 81 bd 50 d4 6f bc 42 3c 3b 3d
       -0.017066931 -0.06342399 -0.014638022 0.045711763
0003d0 c8 44 e1 bb d5 ba 84 3c 06 7b 03 3a 8b 57 c6 bb
       -0.0068746544 0.01620237 0.00050155853 -0.0060529164
0003e0 33 0e 93 bb 27 88 6c 3c f6 5b 4f 3c ae 64 00 bd
       -0.0044877767 0.014436758 0.012656203 -0.031346016
0003f0 57 c1 5c bc 55 ab 4b bd 51 69 fd 3b e7 cf 02 bd
       -0.01347383 -0.04972394 0.007733502 -0.031936552

action_model._continuous_distribution.mu.bias f4 [20]
000000 41 d0 5b 3c b3 5e 1d bc 3f 76 b4 3c 4e 68 17 bc
       0.013416351 -0.009605098 0.02202904 -0.009241177
000010 24 53 a2 3c 9d b5 be 3b 04 42 4b 3c 6f f8 d7 bb
       0.019815035 0.00581999 0.012405876 -0.006590895
000020 85 7b 31 3d 1d ef 4a 3d b3 50 8c bc 70 1b 9b ba
       0.043330688 0.049544442 -0.017128324 -0.0011833739
000030 ea 83 1c 3c cd b7 97 3c 5e db d7 3b da fd 9a 3b
       0.009552935 0.01852026 0.00658743 0.0047299685
000040 32 fc b2 3b df ab 27 3c 14 d6 72 bb ca f7 14 bc
       0.005462193 0.010233848 -0.003705387 -0.009092281
