results/RLEnv2/Worm.onnx (onnx, 135098 bytes, 7 tensors)

network_body._body_endoder.seq_layers.0.weight f4 [128, 116]
0	0x3c1aa438	0.009438567
1	0xbbbde88d	-0.0057955445
2	0x3d126fe2	0.03575123
3	0x3c97f3a6	0.018548798
4	0x3df1c5a4	0.11805275
5	0x3d5a016c	0.053224012
6	0xbd8dfc0f	-0.06932842
7	0xbd9d1b4d	-0.07671223
8	0x3df7ea3b	0.12105223
9	0xbda7de2f	-0.08196675
10	0x3db99b4e	0.09062825
11	0xbc0e7b2f	-0.008696361
12	0x3c4e1eda	0.012580598
13	0xbcd38002	-0.025817875
14	0xbe4dacc1	-0.20085432
15	0x3d6119fb	0.054956418
16	0xbcaba85d	-0.020954305
17	0x3ddb096c	0.106951565
18	0x3d6bb26a	0.057543196
19	0xbd25dfbc	-0.040496573
20	0xbdcbf4ba	-0.09958787
21	0xbddd62d2	-0.10809864
22	0xbc80917b	-0.01569437
23	0x3ca8d110	0.020607501
24	0x3e0403ab	0.12892024
25	0xbde0c402	-0.109748855
26	0x3d795317	0.060870256
27	0x3c100cd9	0.008792126
28	0xbd170a95	-0.036875326
29	0x3dc6cacc	0.09706649
30	0x3d4e55b2	0.050374694
31	0xbe17c3fb	-0.14820854
32	0x3d37fe55	0.044920284
33	0x3e37e847	0.179597
34	0x3dbc270c	0.09187135
35	0x3e30c273	0.17261676
36	0xbdb1fc87	-0.08690744
37	0x3e1c8671	0.1528566
38	0x3d3b5dc1	0.045743708
39	0x3d846e60	0.06466365
40	0x3dffe9e0	0.1249578
41	0x3d36ac9d	0.04459821
42	0xbc144220	-0.009048969
43	0x3d2ab364	0.041674986
44	0x3d827ea5	0.06371812
45	0x3d96fdd2	0.07372631
46	0x3e3e4b5d	0.18583436
47	0xbd3ac8fa	-0.045601822
48	0x3db22417	0.0869829
49	0x3e387de7	0.18016778
50	0xbdb99cef	-0.09063136
51	0x3d581336	0.052752696
52	0xbd0dc6a7	-0.034613278
53	0x3d0a91c3	0.033830415
54	0x3d1d2777	0.038367715
55	0xbd3f312f	-0.046677765
56	0x3d9530d5	0.072847046
57	0xbdf89db0	-0.121394515
58	0x3dbf5e0e	0.093441114
59	0x3d322af5	0.043498
60	0xbd3492a8	-0.044085175
61	0xbe254184	-0.16138273
62	0xbcf8e150	-0.030380875
63	0x3d90957e	0.07059763
64	0x3ceb255a	0.028704334
65	0x3d8fb997	0.0701782
66	0x3e0b764e	0.13619348
67	0xbd56e7cc	-0.052467152
68	0xbc49c817	-0.012315772
69	0x3d76fde6	0.06030073
70	0x3db4d1e5	0.08829097
71	0x3e0b6e35	0.1361626
72	0x3d687465	0.056751627
73	0x3daebf04	0.08532527
74	0x3e4fbbec	0.2028653
75	0x3c4f47e9	0.012651422
76	0xbdf02e07	-0.11727529
77	0x3d83f9df	0.064441435
78	0x3e17841f	0.14796494
79	0xbbaf5b4c	-0.0053514596
80	0xbdc34d7c	-0.09536263
81	0xbc15e1dd	-0.009148088
82	0x3d3cd1f9	0.046098683
83	0xbdf8b331	-0.12143553
84	0x3d906c67	0.07051926
85	0x3e1d347a	0.1535205
86	0xbd2a2939	-0.04154322
87	0x3cc13041	0.02358258
88	0x3e5e6714	0.21719009
89	0x3e1d3e65	0.15355833
90	0x3df99abe	0.12187718
91	0x3d6242a9	0.055239353
92	0xbdae07bb	-0.08497568
93	0x3b0d48a4	0.002155819
94	0x3c65a488	0.014016278
95	0xbe04fa12	-0.12986019
96	0x3e119996	0.14218745
97	0xbd4405ab	-0.047856968
98	0x3e1b8673	0.15188007
99	0xbd77d861	-0.06050909
100	0xbdd0d07d	-0.10196016
101	0xbe03bdde	-0.12865397
102	0x3dbc4adc	0.09193966
103	0x3d815c93	0.06316485
104	0xbcf7f83a	-0.03026973
105	0xbe34619b	-0.17615359
106	0xbe6e41f6	-0.2326735
107	0x3d30efdd	0.0431975
108	0xbd2c6780	-0.042090893
109	0x3e129245	0.1431361
110	0x3ce33b35	0.027738193
111	0xbc922ae1	-0.017842712
112	0xbda1a045	-0.07891897
113	0xbd87722c	-0.066135734
114	0x3ce5782c	0.028011404
115	0x3bfc1adf	0.007693633
116	0x3be66e80	0.0070322156
117	0x3d6a9a02	0.05727578
118	0xbd9d339e	-0.07675861
119	0x3b3ec1e3	0.0029107265
120	0x3d089a9b	0.03335057
121	0x3d3c0f20	0.04591286
122	0xbd5706a2	-0.05249656
123	0xbdc76aa3	-0.09737136
124	0xbd72dc8c	-0.05929236
125	0x3d87fc50	0.06639922
126	0xbd0ba47a	-0.034092404
127	0x3c3ee41b	0.011651064
128	0xbd705c9c	-0.05868207
129	0x3d96bb0e	0.073598966
130	0xbc837cea	-0.016050775
131	0x3d2a7868	0.041618735
132	0xbd8bd362	-0.068274274
133	0xbe0515cd	-0.12996598
134	0xbd73b790	-0.05950123
135	0x3d67dd7a	0.0566077
136	0x3c9676c4	0.018367179
137	0x3cc11df4	0.023573853
138	0xbd9a65e4	-0.07538965
139	0xbd399b39	-0.045314047
140	0xbd17799d	-0.036981214
141	0x3d870b56	0.06593959
142	0xbe08938d	-0.13337536
143	0xbd0f00e9	-0.034912977
144	0xbe094f63	-0.1340919
145	0x3db5fc1d	0.088859774
146	0xbd92b81c	-0.07164022
147	0x3dc4bf4f	0.09606802
148	0xbd833a2d	-0.064075805
149	0xbd068299	-0.03283939
150	0xbe5bd713	-0.21468763
151	0xbd0101b3	-0.03149576
152	0xbe3db09a	-0.185244
153	0x3d7e0d1e	0.06202423
154	0xbdbd0eb9	-0.09231324
155	0xbdc2a7fe	-0.09504698
156	0xbda37e66	-0.07983093
157	0x3d016698	0.03159198
158	0xbdd3482f	-0.10316502
159	0x3dd28722	0.10279681
160	0xbc2a3d2a	-0.010390559
161	0x3e0a2fe1	0.13494827
162	0xbe02bfeb	-0.12768523
163	0xbde19db2	-0.11016406
164	0x3cb5afa3	0.022178477
165	0x3e9463d6	0.2898242
166	0x3e2cdc1a	0.16880837
167	0xbdb84775	-0.08998004
168	0x3d9973c3	0.07492783
169	0x3e41b204	0.18915564
170	0xba54206d	-0.000809199
171	0xbd8f76fb	-0.070051156
172	0x3d1d913e	0.038468592
173	0x3c2d4194	0.010574717
174	0x3e2046d5	0.1565202
175	0xbd55a047	-0.052154806
176	0xbdc9e6ea	-0.098584965
177	0xbe5f7e4e	-0.21825525
178	0x3cafcd69	0.021460252
179	0x3d983fe2	0.0743406
180	0xbe1799da	-0.14804783
181	0x3dae444b	0.085091196
182	0x3d9321fb	0.07184216
183	0x3df97c1a	0.121818736
184	0xbe36e238	-0.17859733
185	0xbde2101b	-0.11038228
186	0x3e0406a3	0.12893157
187	0x3d23272f	0.03983229
188	0xbe50cd31	-0.20390774
189	0x3e6a001f	0.22851609
190	0x3d9f5244	0.07779363
191	0xbd463fc9	-0.048400674
192	0xbe090b0a	-0.13383117
193	0x3cb2b0c3	0.021812802
194	0xbd3f5ae7	-0.04671755
195	0x3da3b464	0.07993391
196	0xbded2a54	-0.11580339
197	0xbdb21a83	-0.08696463
198	0x38d5cfd6	0.00010195344
199	0x3e38e9c7	0.18057929
200	0xbdfb2fea	-0.12264998
201	0x3c9b99dc	0.018994264
202	0xbde55647	-0.11198097
203	0xbddde035	-0.1083378
204	0x3db2b724	0.087263376
205	0x3cab3b77	0.020902378
206	0x3d017015	0.03160103
207	0x3db4bcbf	0.08825063
208	0x3b793d0f	0.0038030779
209	0xbc65d6a1	-0.014028222
210	0x3e161f51	0.14660384
211	0x3e0aa38d	0.13538952
212	0x3d1f52d2	0.038897343
213	0x3cf2d51e	0.029642638
214	0x3cb0d6cd	0.0215868
215	0x3d72716b	0.059190195
216	0xbde62d42	-0.11239101
217	0xbd230843	-0.0398028
218	0x3d3d9581	0.046285156
219	0xbccd0ee0	-0.025031507
220	0xbdf49edc	-0.119443625
221	0xbda3a651	-0.07990707
222	0x3d9b3b29	0.07579643
223	0xbe055ba2	-0.13023236
224	0x3e0420cc	0.12903136
225	0xbd2a5f21	-0.04159463
226	0xbdc4b0af	-0.09604012
227	0x3cc8d85a	0.024517227
228	0x3d2e7ab7	0.0425975
229	0xbd4b8cb0	-0.049694717
230	0xbe2723aa	-0.16322199
231	0xbe2ecaa0	-0.17069483
232	0xbdccde66	-0.10003357
233	0xbdb82af7	-0.0899257
234	0xbd3d0c3f	-0.046154257
235	0xbdd2fe72	-0.10302438
236	0xbe91da2b	-0.2848676
237	0xbd833275	-0.06406108
238	0x3d983e8d	0.074338056
239	0xbde14677	-0.10999768
240	0xbe4013a7	-0.18757497
241	0xbd90d0fc	-0.070711106
242	0xbea7dc1d	-0.3278512
243	0xbe14588a	-0.144869
244	0x3d9a5437	0.07535594
245	0xbe1c2363	-0.15247874
246	0xbe7ebe02	-0.2487717
247	0xbd6dfa5d	-0.058100093
248	0x3c135858	0.008993231
249	0xbe40bb16	-0.18821368
250	0xbc1c4aed	-0.009539348
251	0xbd88dada	-0.066823676
252	0xbe2d2d8c	-0.16911906
253	0xbda58d83	-0.08083632
254	0x3d95836d	0.07300458
255	0xbe495087	-0.19659625

network_body._body_endoder.seq_layers.0.bias f4 [128]
0	0x3d0662a2	0.032808907
1	0xbc6df84b	-0.01452453
2	0xbd0764d2	-0.033055134
3	0x3d0862ea	0.033297457
4	0x3d2b7af9	0.041865323
5	0x3d46ff52	0.048583336
6	0x3c44385a	0.011976326
7	0x3d26ff41	0.040770773
8	0x3d23c341	0.03998113
9	0x3d19b3fd	0.037525166
10	0x3cb72018	0.02235417
11	0xbc5f15b8	-0.013616018
12	0x3b9f893c	0.0048686545
13	0x3d02d9b9	0.031945918
14	0x3d17d4a7	0.037068035
15	0xbca46b8f	-0.02007082
16	0x3d2bdc80	0.041958332
17	0xbcaa88c8	-0.020817176
18	0xb9486876	-0.00019112401
19	0xbc94b55c	-0.018152885
20	0xbd1c5019	-0.038162325
21	0x3c1997c8	0.009374566
22	0xbcef6a21	-0.02922541
23	0x3c652a61	0.013987155
24	0x3d4ecf80	0.050490856
25	0x3cbdd768	0.023174003
26	0x3c7b3ca9	0.015334287
27	0x3c16acae	0.0091964435
28	0x3d840e86	0.064480826
29	0x3d2b4e3f	0.04182267
30	0xb9918f61	-0.0002776338
31	0x3d38c8b9	0.0451133
32	0x3d144c43	0.03620554
33	0x3d34cb5a	0.044139244
34	0xbc84dfa4	-0.016219921
35	0x3d269101	0.04066563
36	0x3d7e5362	0.06209124
37	0x3b09e3b1	0.0021040256
38	0x3c8c70e8	0.017143682
39	0x3b1858b2	0.0023246226
40	0x3cf3ec16	0.02977566
41	0x3ad89116	0.0016522731
42	0x3bb313db	0.0054650134
43	0x3ac41477	0.0014959712
44	0xbbde62c4	-0.006786676
45	0x3d2e3f0d	0.0425406
46	0xbc09f400	-0.008419991
47	0x3cee522c	0.029091917
48	0x3d7c97bb	0.06166814
49	0xbca0d7ab	-0.019634089
50	0xbb958fbb	-0.004564253
51	0x3d3a3dae	0.04546898
52	0xbc3bf2d2	-0.011471467
53	0x3d55e1d5	0.052217323
54	0x3b16454d	0.002292949
55	0x3cc819bf	0.02442634
56	0xbc5eff91	-0.0136107365
57	0x3d4686cc	0.048468396
58	0xbc1dfad2	-0.00964232
59	0x3cafbe9f	0.0214532
60	0x3d57e2b0	0.05270642
61	0xbc08ed3f	-0.008357345
62	0x3d3d40c1	0.046204332
63	0x3c38d0d3	0.011280256
64	0x3cd2e52e	0.025744047
65	0x3d1e46c5	0.03864171
66	0x3ba0d839	0.0049085882
67	0x3d5c9c8c	0.053860232
68	0x3b6bab30	0.003596019
69	0x3d662c65	0.05619468
70	0xbcd62a00	-0.026143074
71	0x3d51ee21	0.051252488
72	0x3d111dec	0.035428926
73	0xbb8c1015	-0.004274378
74	0x3c956576	0.018236857
75	0x3c6d8478	0.014496915
76	0x3c8ae798	0.016956136
77	0x3d0753a1	0.03303874
78	0xbb84bf1d	-0.004051103
79	0x3da4f5a6	0.08054666
80	0x3d1052f4	0.03523536
81	0xbca33299	-0.019921588
82	0x3d52c834	0.05146046
83	0xbb947a21	-0.0045311605
84	0xbc92b6fb	-0.017909518
85	0x3d866340	0.06561899
86	0x3d080326	0.033206128
87	0x3cf5bf4a	0.02999844
88	0x3c2bda28	0.010489024
89	0x3d761d60	0.060086608
90	0x3d371b3c	0.044703707
91	0xbd341286	-0.043962978
92	0x3c881133	0.016609764
93	0x3d6c7cf9	0.05773637
94	0x3c613ee4	0.013747904
95	0x3c67ab82	0.014140012
96	0x3d136883	0.035988342
97	0x3bb46a03	0.0055058016
98	0xbc46fa7c	-0.012144681
99	0xbc121662	-0.008916469
100	0x3c798968	0.015230514
101	0x3d76c00e	0.06024175
102	0x3dbfce22	0.093654886
103	0x3cf41cad	0.02979883
104	0x3c5900e8	0.013244845
105	0x3cfacbdc	0.030614786
106	0x3d211633	0.03932781
107	0xbd0371bf	-0.0320909
108	0x3d1d75b1	0.038442317
109	0x3d14a4d3	0.03629
110	0x3c70c7d4	0.01469608
111	0x3d59c56b	0.053166788
112	0xbbc1b8d5	-0.0059119263
113	0xbbd4350d	-0.0064760507
114	0x3d9438ba	0.07237382
115	0x3cc6a038	0.02424632
116	0x3d7a9fa5	0.061187405
117	0xbcfbfb28	-0.03075941
118	0xbc60a0bd	-0.013710198
119	0x3d0dcb56	0.034617744
120	0x3cdd1c5d	0.026991064
121	0x3d8deba4	0.069297105
122	0xbc795dd8	-0.015220128
123	0xbcda26b5	-0.026629785
124	0x3d3a0e15	0.045423586
125	0xbc1be93e	-0.0095160585
126	0xbcaaa90a	-0.020832557
127	0xbae9cb6a	-0.0017837111

network_body._body_endoder.seq_layers.2.weight f4 [128, 128]
0	0x3d6988cf	0.057015236
1	0xbda1bd48	-0.07897431
2	0xbe64e5dd	-0.22353311
3	0x3b95d3a3	0.004572348
4	0xbdce5281	-0.1007433
5	0x3df063f2	0.11737813
6	0xbdd39d31	-0.10332716
7	0x3df07c9b	0.117425166
8	0x3d2f4512	0.04279048
9	0x3d299285	0.041399498
10	0x3e892e18	0.2679298
11	0x3e13a5c3	0.14418702
12	0xbdf35f56	-0.11883418
13	0xbcd47904	-0.025936611
14	0xbdf9ec87	-0.12203317
15	0x3e54fc2c	0.20799321
16	0x3da782cb	0.08179244
17	0xbdbef1b2	-0.093234435
18	0xbe3c23cf	-0.18373035
19	0xbd21e5b1	-0.03952569
20	0xbd047971	-0.032342378
21	0x3de27e1b	0.11059209
22	0x3d84320a	0.06454857
23	0x3e095d52	0.13414505
24	0x3c859247	0.016305102
25	0x3dc1b07f	0.09457492
26	0xbe0ba046	-0.13635358
27	0x3d24744c	0.04014997
28	0xbdee6a04	-0.116413146
29	0x3d06c047	0.032898214
30	0xbd6d57d6	-0.057945095
31	0x3daeff64	0.08544806
32	0xbd7bfeba	-0.061522223
33	0xbd0c17bf	-0.034202334
34	0xbe8b419d	-0.27198496
35	0xbd0a47ba	-0.03375981
36	0x3c3c512c	0.011493962
37	0x3db5d30c	0.088781446
38	0xbd719e0a	-0.05898861
39	0x3dbb61b6	0.09149496
40	0xbb426ca0	-0.0029666796
41	0xbe26ba7a	-0.16282073
42	0xbe07bab1	-0.13254811
43	0xbd329a96	-0.043604456
44	0xbe4a7d47	-0.19774352
45	0x3e19aa21	0.15006305
46	0xbd0eabc1	-0.034831766
47	0xbd7df142	-0.06199766
48	0x3c0641fd	0.008194444
49	0x3dd2d19b	0.10293885
50	0xbd18ab6a	-0.03727285
51	0x3dff770c	0.12473878
52	0x3c4d1c1e	0.012518911
53	0x3e06af02	0.13152698
54	0xbcdbcf46	-0.026832234
55	0x3c0cc0f9	0.00859093
56	0x3c10b60b	0.008832465
57	0xbdbab94a	-0.09117372
58	0xbdd12851	-0.10212768
59	0xbda87dec	-0.08227143
60	0xbcd8de8f	-0.026473312
61	0xbe675692	-0.22591618
62	0x3e2275d5	0.15865262
63	0xbdce1bef	-0.10063922
64	0x3d8c6cba	0.068566754
65	0xbc939ed0	-0.018020064
66	0xbd1c22db	-0.03811918
67	0xbd531f45	-0.051543493
68	0xbdb2a18a	-0.087222174
69	0xbe16d74c	-0.14730567
70	0xbba6314f	-0.005071796
71	0x3dfa5226	0.122227
72	0xbd4f4bc2	-0.050609358
73	0xbcb1e2ad	-0.021714533
74	0x3dcbf1a5	0.099581994
75	0x3dbaec78	0.09127134
76	0xbc73c61d	-0.014878777
77	0x3c08d532	0.008351611
78	0xbda644c1	-0.081185825
79	0xbdfb7a27	-0.12279158
80	0x3c98aa10	0.01863578
81	0xbda7c7e6	-0.081924245
82	0xbde533fd	-0.111915566
83	0x3e78ed53	0.24309282
84	0x3bb8214f	0.005619205
85	0xbd830975	-0.06398288
86	0x3cdac496	0.026705068
87	0x3c8c7d89	0.017149704
88	0xbe4c4c88	-0.1995107
89	0x3db400bb	0.08789202
90	0x3cb644b9	0.022249566
91	0x3d3db9e9	0.046319876
92	0x3d80d598	0.0629074
93	0x3dec673b	0.11543127
94	0x3da09060	0.07840037
95	0xbe38d029	-0.18048157
96	0x3df9ddb0	0.12200487
97	0xbd3b1f92	-0.045684405
98	0xbd375489	-0.044758353
99	0x3e3f3188	0.18671238
100	0x3b6832c3	0.0035430647
101	0x3d11a7a3	0.03556026
102	0x3e59220c	0.21204394
103	0xbd5ae31c	-0.053439245
104	0xbc93a594	-0.01802329
105	0x3c920b9e	0.017827805
106	0xbc7f3f72	-0.015579091
107	0xbe2fa9b7	-0.17154585
108	0xbc9749d5	-0.018467823
109	0xbd3b437a	-0.045718648
110	0x3d5f695d	0.05454384
111	0xbd48a910	-0.048989356
112	0xbd2555a8	-0.04036489
113	0xbc29320c	-0.0103268735
114	0x3e8494c4	0.2589475
115	0x3ddd5e9a	0.108090594
116	0xbd64b5a0	-0.055837274
117	0xbdae0ce3	-0.08498552
118	0x3ca379f1	0.019955607
119	0x38755066	5.848743e-05
120	0x3d163fe2	0.036682017
121	0xbd0b9e93	-0.034086775
122	0xbe3626ec	-0.17788285
123	0xbd070c25	-0.032970566
124	0xbe02112a	-0.1270186
125	0xbcb9ab3b	-0.022664657
126	0x3c8ab667	0.01693268
127	0x3d245b82	0.04012633
128	0xbe8fb8f7	-0.28070804
129	0xbe2aceef	-0.16680501
130	0xbc689373	-0.014195311
131	0x3dfd1342	0.12357189
132	0xbc85a87e	-0.016315695
133	0x3d62dfbc	0.05538915
134	0xbd4b5d34	-0.049649432
135	0x3c516364	0.012780044
136	0x3df27a83	0.118397735
137	0x3cd50ff5	0.026008585
138	0xbdbba95f	-0.09163164
139	0xbe02ef12	-0.1278651
140	0xbd9c9021	-0.07644678
141	0xbe30df15	-0.17272599
142	0xbd79debd	-0.061003435
143	0x3d7f1fd7	0.062286224
144	0x3d8c9a25	0.06865338
145	0xbe0aab85	-0.13541992
146	0xbd56f325	-0.052477974
147	0xbd388330	-0.045046985
148	0xbdc993dc	-0.09842655
149	0xbe4b6bd5	-0.19865353
150	0xbe49e8a7	-0.19717656
151	0x3b643415	0.0034821082
152	0x3d16c0a9	0.03680483
153	0x3e074abe	0.13212106
154	0x3e1e4453	0.15455751
155	0x3d98f1fa	0.07468028
156	0x3d313997	0.043267813
157	0x3dc7e585	0.09760574
158	0xbc895885	-0.016765842
159	0x3d65b020	0.05607617
160	0xbd19efdb	-0.03758226
161	0xbd8e9bed	-0.06963334
162	0xbc3bd813	-0.01146509
163	0x3e160c2e	0.14653084
164	0x3d8d13f0	0.068885684
165	0xbdc83934	-0.09776536
166	0xbc669a3e	-0.01407486
167	0xbe2b9f70	-0.1676004
168	0xbd77f4f3	-0.060536336
169	0x3d5fc4d8	0.054631084
170	0xbe05c2a4	-0.13062531
171	0xbcc08139	-0.023499118
172	0x3d60a864	0.05484809
173	0xbd4a14cc	-0.04933624
174	0xbd41f7a4	-0.04735531
175	0x3d255b7c	0.04037045
176	0xbdba504b	-0.09097346
177	0xbd79939f	-0.060931798
178	0xbdb2acb8	-0.0872435
179	0xbccd52fa	-0.02506398
180	0x3ca63dac	0.02029308
181	0xbc676e59	-0.01412543
182	0xbdb8d4c7	-0.09024959
183	0xbd43c5ab	-0.047795933
184	0x3d98e66f	0.07465827
185	0x3d4ac144	0.04950072
186	0xbdbc1831	-0.09184302
187	0xbe1b2798	-0.15151823
188	0x3cf565c3	0.02995575
189	0xbde013f8	-0.10941309
190	0x3e3f1449	0.18660082
191	0xbe632e8e	-0.22185728
192	0x3e5aa0ad	0.21350355
193	0x3e8aaf35	0.27086797
194	0x3daeb1a4	0.08529976
195	0x3a75c290	0.00093750004
196	0xbd1eb5e0	-0.03874767
197	0xbd906578	-0.07050604
198	0xbc241331	-0.010014341
199	0x3d90c30c	0.07068452
200	0x3d0f3043	0.034958135
201	0x3deee882	0.11665441
202	0xbe30f57e	-0.17281148
203	0x3d24fd6b	0.04028074
204	0x3c8a64cb	0.016893765
205	0xbd8d253a	-0.06891866
206	0xbdf63015	-0.1202089
207	0xbdea4880	-0.114396095
208	0xbdd52047	-0.10406547
209	0x3ded5353	0.115881585
210	0xbbdeb3c6	-0.006796333
211	0xbe56bb76	-0.20969948
212	0x3d23f35d	0.04002701
213	0xbe00e903	-0.12588887
214	0xbdcedbc7	-0.10100513
215	0x3dbb6afa	0.091512635
216	0xbcdc9089	-0.026924388
217	0xbdacb0cb	-0.08432158
218	0x3d639c4e	0.055568986
219	0x3cbddec3	0.02317751
220	0x3c21166a	0.009832004
221	0x3cd73717	0.026271386
222	0x3d977828	0.07395965
223	0xbcab8294	-0.020936288
224	0x3d8a577a	0.06754966
225	0x3d0c9605	0.034322757
226	0xbd31bd14	-0.04339321
227	0xbbaee642	-0.0053375075
228	0x3d2874a2	0.041126855
229	0xbc84574a	-0.016154904
230	0x3d83cca5	0.06435517
231	0xbdfd9ff2	-0.12384023
232	0xbcc9bfa4	-0.024627514
233	0x3d57baa2	0.05266822
234	0xbabcda74	-0.0014408366
235	0x3d106078	0.03524825
236	0x3dd07157	0.10177868
237	0x3de6a118	0.11261195
238	0xbdc1490b	-0.0943776
239	0x3b6cbc53	0.0036122992
240	0x3c9eeb2a	0.019399244
241	0x3d864489	0.06556041
242	0xbd90fa5f	-0.070790045
243	0xbe87a47b	-0.26492676
244	0x3d8bc802	0.06825258
245	0x3cc87c78	0.024473414
246	0xbc248bee	-0.010043127
247	0x3e6908f0	0.22757316
248	0xbde2d66f	-0.11076056
249	0x3dccd81b	0.10002156
250	0x3dfa6f4b	0.12228259
251	0xbd14c10f	-0.036316928
252	0x3d1deb9e	0.03855478
253	0x3d9fee1e	0.07809089
254	0xbcfccac3	-0.030858403
255	0x3df413d7	0.11917847

network_body._body_endoder.seq_layers.2.bias f4 [128]
0	0x3d1e6c64	0.038677588
1	0x3d343b10	0.04400164
2	0x3cfbcd13	0.030737435
3	0xbc2d346d	-0.010571581
4	0x3d27cf2f	0.04096907
5	0x3da57d2a	0.08080514
6	0x3d8638ad	0.06553779
7	0x3b322648	0.0027183462
8	0xbb9b5457	-0.0047402787
9	0x3da2025b	0.079106055
10	0x3c7dd07f	0.015491604
11	0x3bac1745	0.0052517974
12	0x3d3b487f	0.045723435
13	0xbb26c2d5	-0.0025445719
14	0x3d3c377f	0.045951363
15	0x3c2774fe	0.010220764
16	0x3c395a97	0.011313102
17	0xbb553673	-0.0032533675
18	0xbbf18c43	-0.007371457
19	0x3d4f24a3	0.05057205
20	0x3cbca518	0.023027942
21	0x3ba0649a	0.004894805
22	0x3d479bc6	0.04873254
23	0x3d11490b	0.03547005
24	0x3c67c743	0.014146629
25	0x3c86aabf	0.01643884
26	0x3d1804a0	0.037113786
27	0x3bef69df	0.007306322
28	0xbc0fb09d	-0.008770135
29	0xbb536f6a	-0.0032262453
30	0x3cb8ce51	0.022559317
31	0xba885e35	-0.0010404052
32	0xbc3fca29	-0.011705914
33	0x3cabbb8f	0.020963458
34	0x3c9951a5	0.018715689
35	0x3d1bfcb9	0.038082812
36	0xbbe6cd2f	-0.0070435028
37	0xba88cacf	-0.0010436418
38	0xbb646120	-0.003484793
39	0xbd034449	-0.032047544
40	0x3cb8edd7	0.022574348
41	0xbbc31f8a	-0.0059546875
42	0x3cfef501	0.031122686
43	0x3bdcbb77	0.0067362147
44	0x3d026bd5	0.031841118
45	0x3d79ec7e	0.061016552
46	0x3ca8230a	0.02052452
47	0x3d1d48f6	0.03839966
48	0x3bf9d6e2	0.007624493
49	0x3b9c2779	0.0047654477
50	0xbc0290f4	-0.00796913
51	0xbc971327	-0.01844175
52	0x3c937105	0.017998228
53	0x3c31187b	0.010809059
54	0xbcd01241	-0.02539933
55	0x3d046593	0.03232343
56	0x3d2323cf	0.03982907
57	0x3d11c8fd	0.035592068
58	0x3d091fc6	0.033477567
59	0x3cfb2860	0.0306589
60	0x3ccc2e45	0.024924407
61	0x3d157bae	0.036494903
62	0xba79f21f	-0.0009534675
63	0x3cccd763	0.025005048
64	0x3cf5fee6	0.030028772
65	0xbca9031b	-0.020631364
66	0x3d267c95	0.040646154
67	0xbca273b1	-0.019830557
68	0xbcdee441	-0.02720845
69	0x3c81869b	0.015811255
70	0x3c996bd8	0.018728182
71	0x3c89ea88	0.016835466
72	0x3d27947e	0.040913098
73	0x3dd11221	0.10208536
74	0x3cd88a4c	0.026433133
75	0x3cad38b9	0.021145212
76	0x3be45070	0.0069675967
77	0x3d0cd358	0.03438124
78	0xbb4feb34	-0.0031725885
79	0x3cf038bc	0.029323928
80	0x3cda07f1	0.026615115
81	0x3c05753b	0.008145626
82	0xbc1ad7e4	-0.009450886
83	0x3c46fb63	0.012144896
84	0x3cc44dfd	0.023962969
85	0x3c63683b	0.013879831
86	0x3c383d7d	0.011245129
87	0x3ceeb609	0.029139536
88	0xbce93dd9	-0.028471874
89	0xbb357b9b	-0.0027692083
90	0xbb476a5c	-0.0030428385
91	0x3ca897bc	0.020580165
92	0x3d869876	0.06572048
93	0x3bcdc72a	0.0062798457
94	0x3cb42b14	0.021993198
95	0x3c87adac	0.016562305
96	0x3bea338a	0.007147257
97	0x3b36df80	0.0027904212
98	0x3c501695	0.0127006965
99	0x3d12c0f0	0.03582853
100	0xbbb361ef	-0.005474321
101	0x3c4b3636	0.012403062
102	0x3b8cc203	0.004295589
103	0xbba99ddb	-0.0051762885
104	0x3cc42ef3	0.023948168
105	0xbbee788b	-0.0072775534
106	0x3cdb124c	0.026742123
107	0x3ca377dd	0.019954616
108	0xbc86e9d2	-0.016468916
109	0xbc2ea675	-0.010659804
110	0x3ce2304b	0.027610919
111	0x3d2b10f9	0.041764233
112	0x3c566139	0.013084703
113	0x3d11030f	0.035403308
114	0x3b236f15	0.0024938036
115	0x3cc0afc2	0.023521308
116	0x3cdcf992	0.026974473
117	0x3cfdff15	0.031005422
118	0x3ce144b3	0.027498579
119	0xbb60703d	-0.0034246587
120	0xbb141243	-0.0022593893
121	0x3d2d4e32	0.0423109
122	0x3b89f7e1	0.0042104577
123	0x3cd29364	0.025705047
124	0x3dbcff0d	0.092283346
125	0x3c5fb32c	0.013653558
126	0x3bcbbccc	0.0062175747
127	0x3ccf85fa	0.02533244

action_model._continuous_distribution.log_sigma f4 [1, 9]
0	0xbf56435d	-0.8369654
1	0xbf34d74f	-0.70641035
2	0xbf69e766	-0.9136871
3	0xbf15dc6c	-0.5853946
4	0xbf8343f3	-1.0255111
5	0xbf0c0362	-0.5469266
6	0xbd9e5266	-0.0773056
7	0xbd2cf65a	-0.042227127
8	0xbd3d8917	-0.046273317

action_model._continuous_distribution.mu.weight f4 [9, 128]
0	0xbd142095	-0.036163885
1	0xbd46f266	-0.048571013
2	0x3db3ecc4	0.08785394
3	0xbcc9f13c	-0.024651162
4	0x3df52adf	0.11971068
5	0x3bed348b	0.0072389296
6	0x3dbb000f	0.091308706
7	0x3ccb45c3	0.024813538
8	0xbc769672	-0.015050517
9	0x3cd9b16d	0.026573861
10	0xbcf9f7ce	-0.03051367
11	0xbcdd2bd1	-0.026998432
12	0xbc226f2b	-0.0099142
13	0x3cab4dba	0.020911086
14	0x3d781bc9	0.060573373
15	0xbcad8b5f	-0.021184621
16	0x3cb7afd8	0.022422716
17	0x3c3d19dd	0.011541811
18	0xbc7fb052	-0.015606003
19	0x3d5a9745	0.053366918
20	0xbd2ae931	-0.041726295
21	0x3d4cf33e	0.05003666
22	0x3cee30d1	0.029076012
23	0x3c55ef18	0.013057493
24	0xbd85fd82	-0.065424934
25	0xbd6bfe18	-0.05761537
26	0xbc7b9959	-0.015356385
27	0x3d9c03c4	0.07617906
28	0xbcc62850	-0.024189144
29	0x3c8bcc6a	0.017065246
30	0xbba5c822	-0.005059258
31	0xbda82669	-0.08210451
32	0xbc907493	-0.017633712
33	0xbd0cff8c	-0.034423396
34	0xbbc70094	-0.006073067
35	0xbb41e988	-0.0029588658
36	0x3d967188	0.07345873
37	0x3d14ce69	0.03632966
38	0x3c8f4d01	0.017492773
39	0x3c41f9c8	0.011839338
40	0xbc9e9222	-0.01935679
41	0x3d1567e1	0.03647602
42	0x3d04536f	0.03230613
43	0x3d241a74	0.04006429
44	0xbbac6b47	-0.005261812
45	0xbcf752d6	-0.030190866
46	0x3c882f38	0.016624078
47	0xbb7c2c8d	-0.0038478703
48	0xbc89b8e6	-0.0168118
49	0x3c09f91c	0.008421209
50	0x3dcb8bc2	0.09938766
51	0xbc088a5a	-0.008333767
52	0x3be1c23d	0.00688961
53	0xbcb0f6f2	-0.021602128
54	0xbcd5ca9a	-0.026097585
55	0xbb5b9ec6	-0.0033511384
56	0x3d5f433a	0.05450747
57	0xbbdb9e5d	-0.006702228
58	0x3db5772f	0.08860623
59	0x3bc7bab3	0.0060952543
60	0x3d689118	0.056778997
61	0x3d257b81	0.040400986
62	0xbd5a9e3c	-0.05337356
63	0x3c8b4237	0.016999347
64	0x3d466b2c	0.04844205
65	0x3d48640c	0.048923537
66	0xbc99ce4b	-0.018775126
67	0xbc802b32	-0.015645597
68	0x3dbc0bbd	0.091819264
69	0x3da63d7d	0.08117197
70	0xbcb635ff	-0.022242544
71	0x3d5cbd63	0.05389155
72	0xbcb30cab	-0.021856626
73	0x3dd99428	0.10623962
74	0x3c3a313a	0.011364276
75	0xbc37abbf	-0.011210381
76	0x3d5c914b	0.0538495
77	0x3cc3a76f	0.02388355
78	0xbcca8c70	-0.024725169
79	0xbbd6fffd	-0.006561278
80	0x3d70ed2f	0.058819946
81	0xbcc7aef1	-0.02437541
82	0x3c01f0ba	0.007930929
83	0x3c8cc2a0	0.017182648
84	0x3c41aa53	0.011820394
85	0x3d774d96	0.060376726
86	0xbbfd8021	-0.0077362214
87	0xbd8a11df	-0.0674169
88	0x3cd3c679	0.025851475
89	0xbd88ad70	-0.066737056
90	0x3d814d9f	0.06313633
91	0xbe0d6274	-0.13807088
92	0xbd984b31	-0.074362166
93	0x3cd8f702	0.02648497
94	0xbd808a35	-0.06276361
95	0xbd1e48cc	-0.038643643
96	0xb954c6ed	-0.00020292001
97	0xbc81a2f4	-0.015824772
98	0xbc4b144f	-0.012394979
99	0xbd4a5989	-0.049401794
100	0xbaf8c433	-0.001897937
101	0xbd48d3fb	-0.049030285
102	0x3bda4f03	0.006662251
103	0x3c0dcf9b	0.008655454
104	0x3d11dabd	0.035608996
105	0x3d349293	0.044085097
106	0x3dc7396e	0.09727751
107	0xbc9d9062	-0.019233886
108	0xbc80ba38	-0.015713796
109	0xbce00c04	-0.02734948
110	0x3d81e7a4	0.0634301
111	0x3c6056a7	0.0136925345
112	0x3dcbd0f3	0.09951963
113	0x3d0a8200	0.033815384
114	0x3cfb2293	0.030656135
115	0x3d2d69b0	0.04233712
116	0x3dc834ce	0.09775697
117	0xbd45fb7c	-0.048335537
118	0xbc8a56ff	-0.016887186
119	0xbcf3a1e3	-0.02974028
120	0x3cd38c61	0.025823774
121	0x3c844997	0.016148372
122	0xbca2336e	-0.019799914
123	0xbd682590	-0.056676447
124	0x3d0ee5b9	0.03488705
125	0xbce90285	-0.028443584
126	0x3c1c550b	0.00954176
127	0xbcf9ac50	-0.030477673
128	0x3d352d17	0.044232454
129	0x3d37a561	0.044835452
130	0x3db12a54	0.086506516
131	0xbc8bb17c	-0.017052405
132	0xbd4a6683	-0.04941417
133	0x3d2b689d	0.041847814
134	0xbd042302	-0.03225995
135	0x3d0e26b6	0.034704886
136	0x3d4746ef	0.048651632
137	0x3d3a6211	0.04550368
138	0x3d6f0637	0.058355536
139	0x3d46949b	0.048481565
140	0x3d0d8955	0.0345548
141	0x3cb18769	0.021671014
142	0xbd4efc25	-0.050533433
143	0x3bd9797c	0.0066367965
144	0x3d94fe60	0.07275081
145	0xbc5b4aea	-0.01338456
146	0xbc515fa5	-0.012779151
147	0x3cd1f776	0.025630694
148	0xbd02607f	-0.031830307
149	0x3b99954e	0.004686988
150	0x3d035f85	0.032073516
151	0x3d9576ca	0.07298048
152	0xbc591b8a	-0.013251195
153	0xbcc14bf6	-0.023595791
154	0x3c1f473f	0.009721576
155	0x3d199b76	0.037501775
156	0xbd18d905	-0.03731634
157	0x3d01f7e5	0.03173055
158	0x3dc10463	0.09424665
159	0xbcab3c7b	-0.020902863
160	0x3bcac7cb	0.006188368
161	0xba4fff0e	-0.00079344294
162	0xb9fe32aa	-0.00048484403
163	0xbd81d3b1	-0.06339205
164	0xbd8c63d3	-0.068549775
165	0x3d3098e4	0.043114558
166	0xbc858865	-0.01630039
167	0x3c9b724d	0.018975401
168	0xbb8a8e74	-0.0042284075
169	0xbda2ee49	-0.079556055
170	0x3c4fc8ad	0.012682122
171	0xbc7b28c5	-0.015329544
172	0x3c9e99c5	0.019360432
173	0xbb797bad	-0.0038068101
174	0xbce3cb38	-0.027806863
175	0x3a812b3f	0.0009854807
176	0xbcd8c92f	-0.02646312
177	0xbcd10add	-0.025517875
178	0x3b80202c	0.003910085
179	0x3c714dac	0.014727991
180	0x3d1cb2d7	0.038256492
181	0xbd81a1f4	-0.06329718
182	0x3c5f4ffc	0.01362991
183	0xbd603366	-0.054736517
184	0xbbd2ff18	-0.006439101
185	0x3c388668	0.011262514
186	0x3b93dae7	0.004512179
187	0xbda29b99	-0.07939834
188	0xbd2ee874	-0.042702153
189	0x3ca338c9	0.019924538
190	0xbce97a8d	-0.02850082
191	0xbd8391d5	-0.064243
192	0xbbe3ec9e	-0.006955697
193	0x3c9eba0e	0.019375827
194	0xbd6a3b41	-0.057185415
195	0x3c646252	0.013939457
196	0xbce3378e	-0.027736451
197	0x3d08dc4e	0.033413224
198	0xbd575042	-0.052566774
199	0x3d285e0b	0.04110531
200	0x3d628616	0.055303656
201	0xbd4ca467	-0.049961474
202	0xbccacd28	-0.02475603
203	0x3dc24064	0.09484938
204	0x3c291681	0.010320307
205	0xbcbb26ed	-0.02284571
206	0xbd0739db	-0.03301416
207	0x3d41f262	0.047350295
208	0x3d0d06b5	0.034430224
209	0x3c9ca74b	0.01912274
210	0xbd1b4d63	-0.0379156
211	0x3d00e4bb	0.031468134
212	0xbd0aebd0	-0.033916295
213	0x3dcb57cf	0.099288575
214	0x3de5a73b	0.11213537
215	0xbd42124e	-0.047380738
216	0x3d3b447b	0.045719605
217	0x3d848121	0.06469942
218	0x3c94f993	0.018185413
219	0x3ce43a16	0.027859729
220	0xbc016499	-0.0078975195
221	0x3d82f342	0.06394054
222	0xbc52acff	-0.012858628
223	0xbd4938a6	-0.04912629
224	0x3d56b42a	0.05241791
225	0x3cc4d1e4	0.024025865
226	0xbd63be81	-0.0556016
227	0xbd88e4bb	-0.06684252
228	0x3c6b624e	0.014366699
229	0xbd213654	-0.039358452
230	0xbcb33aa6	-0.021878552
231	0x3d229e49	0.039701734
232	0x3d0c2c8c	0.03422217
233	0xbbd1a560	-0.006397888
234	0xbc9b17b7	-0.018932207
235	0x3cab620e	0.02092078
236	0xbd0ee8c6	-0.03488996
237	0x3cd55c76	0.026045065
238	0xba795e9e	-0.0009512695
239	0x3d855c07	0.065116934
240	0x3d753347	0.059863355
241	0xbbc8f5e1	-0.0061328267
242	0xbd22bb8e	-0.039729647
243	0xbcc94fcf	-0.024574189
244	0x3ca39403	0.019968038
245	0xbd08c536	-0.0333912
246	0x3c0d5f35	0.008628656
247	0x3d893b38	0.06700748
248	0xbcf27956	-0.029598873
249	0xbb400589	-0.0029300174
250	0xba8e10e7	-0.0010838778
251	0xbd6ded9a	-0.058087923
252	0x3c993361	0.018701257
253	0xbd5b72b7	-0.053576197
254	0xbd6e15da	-0.058126308
255	0x3c70c305	0.014694934

action_model._continuous_distribution.mu.bias f4 [9]
0	0xbc69ea9b	-0.014277126
1	0x3adcc351	0.0016842877
2	0x3c2ce598	0.010552786
3	0xbc662bd5	-0.014048536
4	0xbbe4d525	-0.0069834166
5	0xbaf3d1f3	-0.0018601998
6	0x3d54f577	0.051991906
7	0x3d45cb23	0.04828943
8	0x3d2b4a37	0.041818824
