results/duoCW-V1/Worm/checkpoint.pt (torch, 190754 bytes, 20 tensors)

network_body.observation_encoder.processors.0.normalizer.running_mean f4 [39]
0.0 0.0 0.0 0.0 0.0 0.0 0.0 0.0
0.0 0.0 0.0 0.0 0.0 0.0 0.0 0.0
0.0 0.0 0.0 0.0 0.0 0.0 0.0 0.0
0.0 0.0 0.0 0.0 0.0 0.0 0.0 0.0
0.0 0.0 0.0 0.0 0.0 0.0 0.0
00000000: 0000 0000 0000 0000 0000 0000 0000 0000
00000010: 0000 0000 0000 0000 0000 0000 0000 0000
00000020: 0000 0000 0000 0000 0000 0000 0000 0000
00000030: 0000 0000 0000 0000 0000 0000 0000 0000
00000040: 0000 0000 0000 0000 0000 0000 0000 0000
00000050: 0000 0000 0000 0000 0000 0000 0000 0000
00000060: 0000 0000 0000 0000 0000 0000 0000 0000
00000070: 0000 0000 0000 0000 0000 0000 0000 0000
00000080: 0000 0000 0000 0000 0000 0000 0000 0000
00000090: 0000 0000 0000 0000 0000 0000

network_body.observation_encoder.processors.0.normalizer.running_variance f4 [39]
1.0 1.0 1.0 1.0 1.0 1.0 1.0 1.0
1.0 1.0 1.0 1.0 1.0 1.0 1.0 1.0
1.0 1.0 1.0 1.0 1.0 1.0 1.0 1.0
1.0 1.0 1.0 1.0 1.0 1.0 1.0 1.0
1.0 1.0 1.0 1.0 1.0 1.0 1.0
00000000: 0000 803f 0000 803f 0000 803f 0000 803f
00000010: 0000 803f 0000 803f 0000 803f 0000 803f
00000020: 0000 803f 0000 803f 0000 803f 0000 803f
00000030: 0000 803f 0000 803f 0000 803f 0000 803f
00000040: 0000 803f 0000 803f 0000 803f 0000 803f
00000050: 0000 803f 0000 803f 0000 803f 0000 803f
00000060: 0000 803f 0000 803f 0000 803f 0000 803f
00000070: 0000 803f 0000 803f 0000 803f 0000 803f
00000080: 0000 803f 0000 803f 0000 803f 0000 803f
00000090: 0000 803f 0000 803f 0000 803f

network_body.processors.0.normalizer.running_mean f4 [39]
0.0 0.0 0.0 0.0 0.0 0.0 0.0 0.0
0.0 0.0 0.0 0.0 0.0 0.0 0.0 0.0
0.0 0.0 0.0 0.0 0.0 0.0 0.0 0.0
0.0 0.0 0.0 0.0 0.0 0.0 0.0 0.0
0.0 0.0 0.0 0.0 0.0 0.0 0.0
00000000: 0000 0000 0000 0000 0000 0000 0000 0000
00000010: 0000 0000 0000 0000 0000 0000 0000 0000
00000020: 0000 0000 0000 0000 0000 0000 0000 0000
00000030: 0000 0000 0000 0000 0000 0000 0000 0000
00000040: 0000 0000 0000 0000 0000 0000 0000 0000
00000050: 0000 0000 0000 0000 0000 0000 0000 0000
00000060: 0000 0000 0000 0000 0000 0000 0000 0000
00000070: 0000 0000 0000 0000 0000 0000 0000 0000
00000080: 0000 0000 0000 0000 0000 0000 0000 0000
00000090: 0000 0000 0000 0000 0000 0000

network_body.processors.0.normalizer.running_variance f4 [39]
1.0 1.0 1.0 1.0 1.0 1.0 1.0 1.0
1.0 1.0 1.0 1.0 1.0 1.0 1.0 1.0
1.0 1.0 1.0 1.0 1.0 1.0 1.0 1.0
1.0 1.0 1.0 1.0 1.0 1.0 1.0 1.0
1.0 1.0 1.0 1.0 1.0 1.0 1.0
00000000: 0000 803f 0000 803f 0000 803f 0000 803f
00000010: 0000 803f 0000 803f 0000 803f 0000 803f
00000020: 0000 803f 0000 803f 0000 803f 0000 803f
00000030: 0000 803f 0000 803f 0000 803f 0000 803f
00000040: 0000 803f 0000 803f 0000 803f 0000 803f
00000050: 0000 803f 0000 803f 0000 803f 0000 803f
00000060: 0000 803f 0000 803f 0000 803f 0000 803f
00000070: 0000 803f 0000 803f 0000 803f 0000 803f
00000080: 0000 803f 0000 803f 0000 803f 0000 803f
00000090: 0000 803f 0000 803f 0000 803f

network_body._body_endoder.seq_layers.0.weight f4 [128, 39]
-0.105141595 -0.23710495 0.11599209 -0.15196782 -0.13431883 -0.09030406 0.03484121 0.18852079
0.08631132 0.037467036 -0.038387235 -0.072130196 -0.21148856 -0.10002139 0.11191862 -0.2548932
-0.06311212 -0.036294278 0.092969395 -0.061050713 0.32983652 0.26144582 0.13590835 -0.2438115
0.11993996 0.35044116 -0.05527356 -0.071767814 -0.045172665 0.09024164 -0.4274568 -0.31545517
-0.24976353 0.09870914 -0.08626825 -0.06644129 -0.19104643 -0.052541394 -0.012774701 0.007686657
-0.12080458 -0.06255969 -0.13412736 0.31815383 -0.1138072 0.06797904 0.11839562 -0.13620608
-0.4154314 0.13911285 -0.06761079 0.1447399 -0.11937447 -0.17967331 -0.099471696 0.0906854
-0.016325604 0.029841255 0.18148506 -0.04575453 -0.338793 0.023114836 -0.12931758 -0.31892964
0.047140945 0.10307664 -0.1186914 -0.18441159 -0.39954525 0.12078066 0.092875175 0.18481356
-0.018951837 0.0011871365 0.18149185 0.025337148 -0.009707676 -0.24119087 -0.097546786 -0.05921709
-0.30901623 -0.10160687 -0.04813208 0.25674742 0.24156432 -0.10776461 0.09326062 -0.065539666
-0.1651678 -0.028222702 -0.102515444 0.05032459 0.12198762 -0.09818619 0.16249259 -0.12846947
-0.013582524 0.3621747 0.26189497 -0.0661408 -0.42542306 0.044916805 0.13115406 -0.14210397
0.059698574 0.066848904 -0.11103461 -0.053564925 -0.064580046 0.115821436 0.11558594 -0.22761089
0.16525884 0.10123993 -0.13575797 0.121518806 -0.11062872 -0.20943029 -0.06768215 0.03802292
0.02956352 -0.13694674 0.02107811 0.026881166 -0.077143654 0.002215563 0.15010162 0.029954853
0.0866166 -0.14699852 0.09146627 -0.085392825 0.31438127 0.3072166 -0.060654465 -0.05162126
0.03441531 0.050656017 0.33768478 0.07333908 0.29402968 0.0029682706 0.038309682 -0.16977112
0.04269931 0.1330196 0.056413736 -0.062987186 0.09919014 -0.0405037 -0.019072467 0.033320192
-0.010097942 0.13864149 0.25172994 -0.3123111 -0.21675423 0.02276431 0.035583366 -0.04123642
0.16831142 -0.089834265 -0.014918248 -0.10972582 -0.24227051 0.28999498 0.059932124 -0.062223576
0.046167705 -0.2072021 0.12033046 0.047657575 0.46060988 0.058296297 -0.04715448 -0.14973821
0.04543026 -0.046305194 -0.29061005 -0.29712197 -0.030330034 -0.037378263 0.083447546 0.04139741
-0.001416928 0.2006824 -0.03451369 0.08355256 -0.17049974 -0.046088997 -0.115807354 -0.07129053
0.057525985 -0.05216099 0.19374335 -0.15162316 0.02001365 0.21965916 0.17154789 0.071319744
0.16644406 -0.08828985 -0.018990284 0.15335575 -0.3144553 0.055612113 -0.24388677 0.019734444
-0.44406536 0.0018717878 -0.09099931 -0.22228482 -0.21675192 0.014026387 0.1276584 -0.16651224
-0.15670225 9.801686e-05 -0.0035964372 -0.022712931 -0.24833944 0.1859197 0.06234636 -0.00025757583
0.017837895 0.16565493 0.13031411 0.16296402 -0.012651575 0.13558409 0.0729885 -0.23376088
-0.21399651 0.106668465 -0.28010443 0.0805079 0.11171716 0.043610945 0.09674052 0.12848617
0.1803026 0.005196486 0.26503912 -0.020845193 -0.116355345 -0.15404749 0.17542869 -0.06728843
-0.15666237 -0.1351051 0.17717226 0.1686663 -0.09899151 -0.039200686 -0.009412842 0.00044958867
00000000: 7a54 d7bd a4cb 72be 438d ed3d 749d 1bbe
00000010: e08a 09be 56f1 b8bd a8b5 0e3d 980b 413e
00000020: fdc3 b03d 0977 193d ef3b 1dbd ffb8 93bd
00000030: 7590 58be 04d8 ccbd 9735 e53d 5d81 82be
00000040: ed40 81bd 4fa9 14bd bd66 be3d 5010 7abd
00000050: 55e0 a83e 3adc 853e 8f2b 0b3e b9a9 79be
00000060: 15a3 f53d 066d b33e 8766 62bd 01fb 92bd
00000070: f906 39bd 9cd0 b83d 9edb dabe 5783 a1be
00000080: 03c2 7fbe 0528 ca3d 69ad b0bd 5f12 88bd
00000090: ada1 43be a535 57bd fb4c 51bc 5ae0 fb3b
000000a0: 6468 f7bd 4b1f 80bd af58 09be 0fe5 a23e
000000b0: c013 e9bd 9838 8b3d 6779 f23d 9b79 0bbe
000000c0: 6db3 d4be 9973 0e3e 8777 8abd b236 143e
000000d0: 9a7a f4bd 48fc 37be d1b7 cbbd 44b9 b93d
000000e0: 46bd 85bc a675 f43c 38d7 393e 1a69 3bbd
000000f0: 4776 adbe 535b bd3c d46b 04be bf4a a3be
00000100: dd16 413d d819 d33d 7a14 f3bd 64d6 3cbe
00000110: 3291 ccbe da5b f73d 5735 be3d c43f 3d3e
00000120: e240 9bbc b199 9b3a 00d9 393e da8f cf3c
00000130: f20c 1fbc bdfa 76be 9cc6 c7bd 9f8d 72bd
00000140: 6037 9ebe 4317 d0bd 2526 45bd 6674 833e
00000150: a35c 773e b1b3 dcbd 6dff be3d a939 86bd
00000160: bf21 29be 4c33 e7bc 9ef3 d1bd 2821 4e3d
00000170: a5d4 f93d d715 c9bd 7564 263e 808d 03be
00000180: 3c89 5ebc f66e b93e 1917 863e d474 87bd
00000190: 0dd1 d9be affa 373d 404d 063e b483 11be
000001a0: 7e86 743d 14e8 883d 1d66 e3bd e566 5bbd
000001b0: 8b42 84bd ca33 ed3d 52b8 ec3d d412 69be
000001c0: 9d39 293e e156 cf3d 2304 0bbe dade f83d
000001d0: 4f91 e2bd e574 56be f09c 8abd ecbd 1b3d
000001e0: 322f f23c c43b 0cbe 00ac ac3c e435 dc3c
000001f0: 7efd 9dbd fb32 113b 3db4 193e e163 f53c
00000200: 0b64 b13d c886 16be ab52 bb3d 6fe2 aebd
00000210: 95f6 a03e 7f4b 9d3e d170 78bd d070 53bd
00000220: 11f7 0c3d af7c 4f3d 05e5 ac3e cd32 963d
00000230: 0f8b 963e 5187 423b 9dea 1c3d 7bd8 2dbe
00000240: 79e5 2e3d 4a36 083e 1712 673d 6dff 80bd
00000250: 3324 cb3d 35e7 25bd dd3d 9cbc c17a 083d
00000260: d771 25bc 09f8 0d3e bfe2 803e 3ee7 9fbe
00000270: d2f4 5dbe 387c ba3c ddbf 113d 85e7 28bd
00000280: d459 2c3e 07fb b7bd ab6b 74bc eeb7 e0bd
00000290: c315 78be 397a 943e 637b 753d 26de 7ebd
000002a0: 591a 3d3d ca2c 54be d16f f63d 9734 433d
000002b0: 0fd5 eb3e 19c8 6e3d 0e25 41bd f954 19be
000002c0: 1515 3a3d 84aa 3dbd d7ca 94be 5f20 98be
000002d0: b176 f8bc f319 19bd 8ce6 aa3d 5590 293d
000002e0: 37b8 b9ba b07f 4d3e 3a5e 0dbd 9b1d ab3d
000002f0: 7c97 2ebe d1c7 3cbd 682c edbd c500 92bd
00000300: 5ea0 6b3d c3a6 55bd a864 463e 1a43 1bbe
00000310: abf3 a33c 55ee 603e 40aa 2f3e 1610 923d
00000320: 5070 2a3e 4fd1 b4bd 8391 9bbc 4a09 1d3e
00000330: 4900 a1be 87c9 633d 74bd 79be 21aa a13c
00000340: 895c e3be c756 f53a d95d babd a29e 63be
00000350: 37f4 5dbe eece 653c e2b8 023e 2f82 2abe
00000360: 8e76 20be 678e cd38 34b2 6bbb 7810 babc
00000370: b24c 7ebe bc61 3e3e e65e 7f3d 3e0b 87b9
00000380: c720 923c 72a1 293e 1071 053e 0ae0 263e
00000390: 8d48 4fbc 8ed6 0a3e ff7a 953d 035f 6fbe
000003a0: e721 5bbe ff74 da3d d969 8fbe 53e1 a43d
000003b0: f7cb e43d 64a1 323d e51f c63d e191 033e
000003c0: 3fa1 383e 4947 aa3b 35b3 873e 8ac3 aabc
000003d0: b64b eebd a0be 1dbe 94a3 333e 84ce 89bd
000003e0: 1a6c 20be fe58 0abe a56c 353e dcb6 2c3e
000003f0: 10bc cabd e690 20bd 5238 1abc c5b6 eb39

network_body._body_endoder.seq_layers.0.bias f4 [128]
0.0 0.0 0.0 0.0 0.0 0.0 0.0 0.0
0.0 0.0 0.0 0.0 0.0 0.0 0.0 0.0
0.0 0.0 0.0 0.0 0.0 0.0 0.0 0.0
0.0 0.0 0.0 0.0 0.0 0.0 0.0 0.0
0.0 0.0 0.0 0.0 0.0 0.0 0.0 0.0
0.0 0.0 0.0 0.0 0.0 0.0 0.0 0.0
0.0 0.0 0.0 0.0 0.0 0.0 0.0 0.0
0.0 0.0 0.0 0.0 0.0 0.0 0.0 0.0
0.0 0.0 0.0 0.0 0.0 0.0 0.0 0.0
0.0 0.0 0.0 0.0 0.0 0.0 0.0 0.0
0.0 0.0 0.0 0.0 0.0 0.0 0.0 0.0
0.0 0.0 0.0 0.0 0.0 0.0 0.0 0.0
0.0 0.0 0.0 0.0 0.0 0.0 0.0 0.0
0.0 0.0 0.0 0.0 0.0 0.0 0.0 0.0
0.0 0.0 0.0 0.0 0.0 0.0 0.0 0.0
0.0 0.0 0.0 0.0 0.0 0.0 0.0 0.0
00000000: 0000 0000 0000 0000 0000 0000 0000 0000
00000010: 0000 0000 0000 0000 0000 0000 0000 0000
00000020: 0000 0000 0000 0000 0000 0000 0000 0000
00000030: 0000 0000 0000 0000 0000 0000 0000 0000
00000040: 0000 0000 0000 0000 0000 0000 0000 0000
00000050: 0000 0000 0000 0000 0000 0000 0000 0000
00000060: 0000 0000 0000 0000 0000 0000 0000 0000
00000070: 0000 0000 0000 0000 0000 0000 0000 0000
00000080: 0000 0000 0000 0000 0000 0000 0000 0000
00000090: 0000 0000 0000 0000 0000 0000 0000 0000
000000a0: 0000 0000 0000 0000 0000 0000 0000 0000
000000b0: 0000 0000 0000 0000 0000 0000 0000 0000
000000c0: 0000 0000 0000 0000 0000 0000 0000 0000
000000d0: 0000 0000 0000 0000 0000 0000 0000 0000
000000e0: 0000 0000 0000 0000 0000 0000 0000 0000
000000f0: 0000 0000 0000 0000 0000 0000 0000 0000
00000100: 0000 0000 0000 0000 0000 0000 0000 0000
00000110: 0000 0000 0000 0000 0000 0000 0000 0000
00000120: 0000 0000 0000 0000 0000 0000 0000 0000
00000130: 0000 0000 0000 0000 0000 0000 0000 0000
00000140: 0000 0000 0000 0000 0000 0000 0000 0000
00000150: 0000 0000 0000 0000 0000 0000 0000 0000
00000160: 0000 0000 0000 0000 0000 0000 0000 0000
00000170: 0000 0000 0000 0000 0000 0000 0000 0000
00000180: 0000 0000 0000 0000 0000 0000 0000 0000
00000190: 0000 0000 0000 0000 0000 0000 0000 0000
000001a0: 0000 0000 0000 0000 0000 0000 0000 0000
000001b0: 0000 0000 0000 0000 0000 0000 0000 0000
000001c0: 0000 0000 0000 0000 0000 0000 0000 0000
000001d0: 0000 0000 0000 0000 0000 0000 0000 0000
000001e0: 0000 0000 0000 0000 0000 0000 0000 0000
000001f0: 0000 0000 0000 0000 0000 0000 0000 0000

network_body._body_endoder.seq_layers.2.weight f4 [128, 128]
0.03176899 0.027244816 -0.13480185 0.08246299 0.086811885 -0.07784376 0.05747118 0.0051167235
0.098519996 -0.022409955 -0.0072762338 0.05233068 -0.14443074 0.01674369 0.04465577 -0.04636697
-0.14346263 0.09221995 -0.05843455 0.029292258 -0.00028979545 -0.040727492 0.014103604 0.019730523
-0.0006490965 -0.1565493 0.023979776 -0.042170353 -0.117525905 -0.094793685 -0.11561155 0.028750177
0.061579056 -0.035087723 0.11379104 -0.1510651 0.031500448 -0.069753885 0.0037690687 -0.07765237
0.14612493 0.15814903 -0.04176619 -0.011100777 -0.05888886 0.07703958 0.10422001 0.0011116092
-0.04273012 0.044436444 -0.15565747 -0.027420687 0.04171052 -0.04926567 0.022850033 0.049975302
0.06225387 -0.0951862 0.023496415 0.028548617 -0.0760885 -0.03233102 -0.024169426 -0.08261064
-0.18107548 0.085068494 -0.13820732 -0.068756066 -0.042057015 0.122956716 -0.049262475 -0.0222998
0.024225876 0.009847029 0.15731995 -0.024606995 0.12875316 -0.22658457 0.080314666 0.006467462
-0.08533434 -0.016609672 0.04667961 0.081388846 -0.016044738 0.13852496 0.078831255 0.007956819
-0.030509748 -0.07915559 0.096250385 0.093336314 0.051908236 -0.00963542 0.07882151 -0.015833734
-0.012632099 0.014189813 -0.16605504 0.067161046 -0.0476874 -0.08084897 -0.07306249 0.14760134
0.17592372 -0.18343441 -0.013688025 0.06535925 -0.14533214 -0.085670814 -0.0032706864 -0.036403682
0.20265949 -0.12990616 0.09748701 0.073237404 -0.029836597 0.040904302 -0.04338038 0.09728661
-0.12063736 -0.15415022 0.040280547 -0.0072107227 -0.051735528 0.026151182 -0.15801777 0.024779694
-0.004726436 -0.007548257 0.006520228 0.07313244 0.08482622 -0.0818889 -0.002700973 -0.15234952
0.0875005 -0.030833209 -0.08567065 0.044870958 -0.010172196 0.044912312 -0.07362444 -0.12271737
-0.09211968 0.027118841 -0.044383656 0.18326747 0.037242 -0.04837836 0.002289238 0.02614524
-0.1439748 -0.087932944 0.068264104 0.096783526 -0.16983604 -0.09909332 -0.011758932 -0.03540119
0.010587595 0.06398154 0.11102568 -0.00084499497 -0.098056994 0.055340238 0.017163279 -0.052595783
0.106882855 -0.0758349 0.060432553 -0.054963637 -0.17032146 -0.09384957 0.027668413 0.057368472
0.02634406 -0.0866663 -0.035546713 -0.08908196 -0.04672033 0.039898098 0.0142137995 0.05617633
0.07847273 -0.022473054 0.01684109 0.12941034 0.00023904754 -0.06613616 -0.029731443 -0.05167476
-0.020675588 -0.10326681 -0.0576846 -0.13650751 0.02962671 0.096835725 -0.13282049 -0.044672087
-0.15056361 0.06848211 0.044809606 0.02823416 -0.016867898 0.05285899 0.15142658 -0.017518416
0.032230616 -0.025548117 0.021344006 0.12796593 0.061000828 0.09317934 -0.050343256 0.13674296
-0.024167133 -0.028151466 0.06245012 -0.04806638 0.03963181 -0.1680738 0.2072452 0.064705424
0.0059845652 0.041246403 -0.043378916 0.04409542 -0.0028369587 0.091603346 -0.04157958 0.20797236
0.09677491 -0.07717328 -0.11262032 0.16083784 -0.051289678 0.028518524 -0.051783793 -0.08565826
0.035633955 -0.059566777 -0.08829114 0.106180266 -0.056651764 0.11973422 -0.062137134 0.1280124
0.020234859 0.031900134 0.05627757 0.100746796 -0.10956477 0.082979694 0.01635212 -0.010063336
00000000: 3320 023d 8530 df3c 7f09 0abe 5be2 a83d
00000010: 6eca b13d 8d6c 9fbd e666 6b3d 30aa a73b
00000020: dac4 c93d 1595 b7bc 796d eebb b258 563d
00000030: a7e5 13be 102a 893c f8e8 363d 4beb 3dbd
00000040: dee7 12be d0dd bc3d 1159 6fbd 51f6 ef3c
00000050: b0ef 97b9 dfd1 26bd cd12 673c e8a1 a13c
00000060: 2128 2aba 764e 20be 3c71 c43c d2ba 2cbd
00000070: 6cb1 f0bd 3123 c2bd c0c5 ecbd 7e85 eb3c
00000080: 523a 7c3d 25b8 0fbd 470b e93d cfb0 1abe
00000090: 9d06 013d 20db 8ebd 7b02 773b 3508 9fbd
000000a0: c6a1 153e d2f1 213e 0613 2bbd 09e0 35bc
000000b0: 7235 71bd edc6 9d3d 4d71 d53d 6ab3 913a
000000c0: c705 2fbd fd02 363d ac64 1fbe 59a1 e0bc
000000d0: a6d8 2a3d cdca 49bd fe2f bb3c e7b2 4c3d
000000e0: eafd 7e3d fcf0 c2bd 8e7b c03c cade e93c
000000f0: 4ad4 9bbd 886d 04bd f6fe c5bc c42f a9bd
00000100: da6b 39be 6438 ae3d 3886 0dbe fbcf 8cbd
00000110: fa43 2cbd bbd0 fb3d 73c7 49bd 12ae b6bc
00000120: 5875 c63c 6f55 213c 7b18 213e 9c94 c9bc
00000130: ded7 033e c905 68be 047c a43d 01ed d33b
00000140: c5c3 aebd 0211 88bc 1e33 3f3d 32af a63d
00000150: 4170 83bc 7dd9 0d3e 4872 a13d 515d 023c
00000160: 94ef f9bc 531c a2bd ec1e c53d 1c27 bf3d
00000170: bb9d 543d e1dd 1dbc 2c6d a13d bfb5 81bc
00000180: ddf6 4ebc 647c 683c 550a 2abe bb8b 893d
00000190: dd53 43bd 2594 a5bd c9a1 95bd ce24 173e
000001a0: 5925 343e 3bd6 3bbe bd43 60bc 12db 853d
000001b0: f3d1 14be 2e74 afbd 0359 56bb 071c 15bd
000001c0: f885 4f3e 1f06 05be 45a7 c73d 7efd 953d
000001d0: e16b f4bc 458b 273d a0af 31bd 343e c73d
000001e0: b810 f7bd 8ed9 1dbe 37fd 243d ed47 ecbb
000001f0: a2e8 53bd 013b d63c 69cf 21be c9fe ca3c
00000200: 38e0 9abb 5e57 f7bb a3a7 d53b 76c6 953d
00000210: 5fb9 ad3d 5eb5 a7bd cf02 31bb 8301 1cbe
00000220: 7633 b33d ed95 fcbc 1874 afbd 9cca 373d
00000230: 48a9 26bc f9f5 373d 69c8 96bd 3f53 fbbd
00000240: 3ea9 bcbd 5528 de3c a3cb 35bd 78aa 3b3e
00000250: 118b 183d 6328 46bd 0a07 163b 8b2e d63c
00000260: 216e 13be 3016 b4bd 0dce 8b3d 7136 c63d
00000270: 80e9 2dbe 70f1 cabd 89a8 40bc d700 11bd
00000280: 9877 2d3c c108 833d 6f61 e33d a782 5dba
00000290: 1bd2 c8bd 72ac 623d 019a 8c3c ad6e 57bd
000002a0: 66e5 da3d 544f 9bbd 2088 773d 8d21 61bd
000002b0: c068 2ebe 3434 c0bd dea8 e23c 34fb 6a3d
000002c0: 80cf d73c 1a7e b1bd 6e99 11bd 9a70 b6bd
000002d0: d15d 3fbd 306c 233d ffe0 683c 2719 663d
000002e0: 50b6 a03d 6919 b8bc 53f6 893c 2584 043e
000002f0: d6a8 7a39 6572 87bd 5b8f f3bc eaa8 53bd
00000300: da5f a9bc 8d7d d3bd b046 6cbd a0c8 0bbe
00000310: b7b3 f23c cf51 c63d 1802 08be 14fa 36bd
00000320: 592d 1abe 5940 8c3d 478a 373d 534b e73c
00000330: 8c2e 8abc ab82 583d 920f 1b3e c882 8fbc
00000340: 4004 043d 494a d1bc a0d9 ae3c 8009 033e
00000350: 01dc 793d cfd4 be3d bb34 4ebd 5906 0c3e
00000360: 27fa c5bc e79d e6bc b2cb 7f3d 41e1 44bd
00000370: f754 223d 8a1b 2cbe 1638 543e 4784 843d
00000380: 2c1a c43b fdf1 283d 17ae 31bd 669d 343d
00000390: 45ec 39bb 899a bb3d 5a4f 2abd b5f6 543e
000003a0: ed31 c63d 060d 9ebd 7ba5 e6bd adb2 243e
000003b0: 2015 52bd ae9f e93c 3e1b 54bd 996d afbd
000003c0: e9f4 113d 4bfc 73bd fcd1 b4bd 0a75 d93d
000003d0: ae0b 68bd 3737 f53d 8283 7ebd af15 033e
000003e0: 93c3 a53c b7a9 023d 4f83 663d 5654 ce3d
000003f0: 7e63 e0bd 42f1 a93d e2f4 853c b1e0 24bc

network_body._body_endoder.seq_layers.2.bias f4 [128]
0.0 0.0 0.0 0.0 0.0 0.0 0.0 0.0
0.0 0.0 0.0 0.0 0.0 0.0 0.0 0.0
0.0 0.0 0.0 0.0 0.0 0.0 0.0 0.0
0.0 0.0 0.0 0.0 0.0 0.0 0.0 0.0
0.0 0.0 0.0 0.0 0.0 0.0 0.0 0.0
0.0 0.0 0.0 0.0 0.0 0.0 0.0 0.0
0.0 0.0 0.0 0.0 0.0 0.0 0.0 0.0
0.0 0.0 0.0 0.0 0.0 0.0 0.0 0.0
0.0 0.0 0.0 0.0 0.0 0.0 0.0 0.0
0.0 0.0 0.0 0.0 0.0 0.0 0.0 0.0
0.0 0.0 0.0 0.0 0.0 0.0 0.0 0.0
0.0 0.0 0.0 0.0 0.0 0.0 0.0 0.0
0.0 0.0 0.0 0.0 0.0 0.0 0.0 0.0
0.0 0.0 0.0 0.0 0.0 0.0 0.0 0.0
0.0 0.0 0.0 0.0 0.0 0.0 0.0 0.0
0.0 0.0 0.0 0.0 0.0 0.0 0.0 0.0
00000000: 0000 0000 0000 0000 0000 0000 0000 0000
00000010: 0000 0000 0000 0000 0000 0000 0000 0000
00000020: 0000 0000 0000 0000 0000 0000 0000 0000
00000030: 0000 0000 0000 0000 0000 0000 0000 0000
00000040: 0000 0000 0000 0000 0000 0000 0000 0000
00000050: 0000 0000 0000 0000 0000 0000 0000 0000
00000060: 0000 0000 0000 0000 0000 0000 0000 0000
00000070: 0000 0000 0000 0000 0000 0000 0000 0000
00000080: 0000 0000 0000 0000 0000 0000 0000 0000
00000090: 0000 0000 0000 0000 0000 0000 0000 0000
000000a0: 0000 0000 0000 0000 0000 0000 0000 0000
000000b0: 0000 0000 0000 0000 0000 0000 0000 0000
000000c0: 0000 0000 0000 0000 0000 0000 0000 0000
000000d0: 0000 0000 0000 0000 0000 0000 0000 0000
000000e0: 0000 0000 0000 0000 0000 0000 0000 0000
000000f0: 0000 0000 0000 0000 0000 0000 0000 0000
00000100: 0000 0000 0000 0000 0000 0000 0000 0000
00000110: 0000 0000 0000 0000 0000 0000 0000 0000
00000120: 0000 0000 0000 0000 0000 0000 0000 0000
00000130: 0000 0000 0000 0000 0000 0000 0000 0000
00000140: 0000 0000 0000 0000 0000 0000 0000 0000
00000150: 0000 0000 0000 0000 0000 0000 0000 0000
00000160: 0000 0000 0000 0000 0000 0000 0000 0000
00000170: 0000 0000 0000 0000 0000 0000 0000 0000
00000180: 0000 0000 0000 0000 0000 0000 0000 0000
00000190: 0000 0000 0000 0000 0000 0000 0000 0000
000001a0: 0000 0000 0000 0000 0000 0000 0000 0000
000001b0: 0000 0000 0000 0000 0000 0000 0000 0000
000001c0: 0000 0000 0000 0000 0000 0000 0000 0000
000001d0: 0000 0000 0000 0000 0000 0000 0000 0000
000001e0: 0000 0000 0000 0000 0000 0000 0000 0000
000001f0: 0000 0000 0000 0000 0000 0000 0000 0000

action_model._continuous_distribution.log_sigma f4 [1, 9]
0.0 0.0 0.0 0.0 0.0 0.0 0.0 0.0
0.0
00000000: 0000 0000 0000 0000 0000 0000 0000 0000
00000010: 0000 0000 0000 0000 0000 0000 0000 0000
00000020: 0000 0000

action_model._continuous_distribution.mu.weight f4 [9, 128]
0.018911265 0.01482545 0.0097234165 0.010117632 0.017807322 -0.012742317 -0.007419304 0.033112638
0.029664502 0.012783706 -0.031495918 -0.008925119 -0.014615032 0.01481621 -0.016443023 0.022097277
-0.018389992 0.0005988999 0.01083265 0.038105365 -0.017345784 0.03814297 -0.013460544 -0.011236599
-0.010576672 0.0221545 -0.02589645 -0.03501555 -0.022652987 0.007286659 0.0046205968 -0.012326992
-0.019669069 0.012524939 -0.0062280856 -0.018979337 -0.010762302 -0.005468865 0.006044959 0.013172448
-0.002660567 0.0016513225 -0.016097002 0.008820493 -0.0037399882 0.00918015 -0.009346071 0.047235653
-0.011548008 -0.001766764 0.006239065 0.0038803648 -0.00076572393 0.026225302 0.016838161 0.0061773467
0.0064448873 0.03914603 -0.021039328 -0.017990094 0.016634773 -0.0056058937 -0.02635681 -0.0077691637
-0.015844068 0.014602314 0.032351308 0.026062418 0.0021218339 0.010959002 0.009365081 0.00865704
-0.028439743 0.02818214 -0.008281102 -0.012007714 0.012986995 0.02474702 0.00013504864 0.038584962
-0.034916606 -0.00543487 0.016384518 0.010878933 0.014106912 -0.036147706 0.006621528 -0.03427355
0.011142252 -0.04780682 0.006297392 0.012942753 0.029188974 0.0072698668 0.0008446476 -0.013655788
0.02627616 -0.007736826 -0.00938319 0.003676851 0.0029554728 0.010576468 -0.020747183 0.03232729
0.011594961 -0.012307654 0.048897173 -0.03001759 0.023875903 0.019314267 0.0004128307 -0.012245509
-0.026138201 -0.010135759 0.0079758875 -0.0026998722 -0.0018006873 -0.04884265 0.03988233 -0.014310543
-0.0070291855 0.014033617 0.0025126769 -0.019119866 0.00828408 -0.011477966 0.03324197 0.00012825105
0.027456943 -0.004476387 0.003184066 -0.01760289 -0.019672014 0.00035310801 0.018347858 0.007940804
0.004019151 -0.024698392 -0.00066415954 0.0017051118 0.013474817 0.020073136 0.005823144 -0.011574397
-0.016952252 -0.009399733 -0.005729226 -0.009543072 0.0060622473 0.013974297 -0.009376466 0.011592141
0.031770613 0.008104153 -0.018416043 -0.003919616 -0.022790354 -0.025515804 -0.045753833 -0.0036199547
-0.004890149 0.010551727 -0.00027816553 -0.0075099105 0.010916027 -0.0031685443 -0.030158833 -0.020025259
-0.017388416 -0.006642992 -0.015963284 0.036237698 -0.009687431 -0.011103044 0.011994046 0.011357872
0.012548807 -0.022642035 -0.0072852704 0.012669444 -0.014330193 -0.000103416874 -0.011216292 0.009567129
0.0006815276 6.166857e-05 -0.0050160033 0.008251623 -0.024463655 0.005992375 -0.033843376 -0.005014057
-0.018414121 -0.0019294042 0.0051523955 -0.03211062 -0.013996211 -0.0017591527 0.022428906 -0.027276544
-0.0015209739 0.02234705 -0.0019124754 -0.022806799 0.0280259 -0.0076751984 -0.032060202 -0.028084308
-0.003149825 0.027684456 0.0024730212 0.015327466 0.014449378 0.019567017 0.010258073 0.011870126
0.039403047 0.016245535 0.012473833 0.024071494 -0.006421197 -0.00046804638 0.015214085 -0.00052840385
-0.003014376 -0.006855537 -0.0018476982 0.008218062 -0.0037997034 -0.03200675 -0.004500938 0.0074543282
-0.0059578368 -0.023478685 0.012014988 -0.0132878 0.028571725 0.020322332 0.018683963 0.0019303983
-0.037958253 0.00427792 -0.0152804945 0.046137378 0.008585703 -0.01240891 -0.003600283 0.013829294
-0.00717858 0.020995779 0.0052482383 0.013151218 0.005701276 -0.015277206 0.019301241 0.0005287842
00000000: cceb 9a3c 72e6 723c f74e 1f3c 6dc4 253c
00000010: a9e0 913c 27c5 50bc a21d f3bb 1ea1 073d
00000020: f802 f33c c072 513c dd01 01bd aa3a 12bc
00000030: e373 6fbc b0bf 723c 85b3 86bc 5905 b53c
00000040: 9ca6 96bc 7eff 1c3a 6d7b 313c 5f14 1c3d
00000050: bf18 8ebc ce3b 1c3d 9d89 5cbc b619 38bc
00000060: c749 2dbc 5b7d b53c cb24 d4bc 776c 0fbd
00000070: c292 b9bc edc4 ee3b 6068 973b 27f7 49bc
00000080: 0721 a1bc 6735 4d3c f814 ccbb 8e7a 9bbc
00000090: 5e54 30bc 2a34 b3bb cb14 c63b 40d1 573c
000000a0: e85c 2ebb 3071 d83a dcdd 83bc d483 103c
000000b0: 971a 75bb 5768 163c 4320 19bc 2c7a 413d
000000c0: db33 3dbc c392 e7ba 1271 cc3b b84d 7e3b
000000d0: ddba 48ba 72d6 d63c 2ff0 893c 576b ca3b
000000e0: a22f d33b 9657 203d ab5a acbc f65f 93bc
000000f0: a645 883c a5b1 b7bb 3dea d7bc 7894 febb
00000100: 6bcb 81bc 8b3e 6f3c ce82 043d da80 d53c
00000110: 770e 0b3b 638d 333c ff6f 193c 42d6 0d3c
00000120: 77fa e8bc 3bde e63c 76ad 07bc 01bc 44bc
00000130: 68c7 543c 43ba ca3c d89b 0d39 440b 1e3d
00000140: b704 0fbd fe16 b2bb d338 863c 8d3d 323c
00000150: ad20 673c 9e0f 14bd 67f9 d83b 6c62 0cbd
00000160: fe8d 363c 16d1 43bd 5a5a ce3b d70d 543c
00000170: b71d ef3c 1038 ee3b 576b 5d3a 87bc 5fbc
00000180: 1a41 d73c 3385 fdbb f4bb 19bc 53f7 703b
00000190: 9bb0 413b ec48 2d3c fff5 a9bc 9f69 043d
000001a0: cbf8 3d3c 0ba6 49bc 6748 483d 73e7 f5bc
000001b0: 6697 c33c f438 9e3c 3371 d839 63a1 48bc
000001c0: c81f d6bc 7410 26bc 4cad 023c 57f0 30bb
000001d0: 0a05 ecba 3b0f 48bd a75b 233d c576 6abc
000001e0: 1555 e6bb 42ed 653c b9ab 243b 44a1 9cbc
000001f0: f3b9 073c 140e 3cbc bb28 083d 217b 0639
00000200: 62ed e03c a8ae 92bb c3ab 503b f033 90bc
00000210: 3427 a1bc 5b21 b939 3f4e 963c 251a 023c
00000220: 15b3 833b 4854 cabc fe1a 2eba 0f7e df3a
00000230: 7bc5 5c3c 6b70 a43c 13d0 be3b 8aa2 3dbc
00000240: 73df 8abc 5601 1abc 3bbc bbbb 8c5a 1cbc
00000250: d1a5 c63b 73f4 643c c09f 19bc f7ec 3d3c
00000260: e721 023d 48c7 043c 3edd 96bc 1f70 80bb
00000270: d6b2 babc 8506 d1bc 5f68 3bbd c33c 6dbb
00000280: 8b3d a0bb 27e1 2c3c bfd6 91b9 b215 f6bb
00000290: 23d9 323c 5aa7 4fbb a80f f7bc 030c a4bc
000002a0: 2772 8ebc 75ad d9bb 6fc5 82bc fb6d 143d
000002b0: 08b8 1ebc 8be9 35bc ad82 443c 5e16 3a3c
000002c0: 8399 4d3c ca7b b9bc 47b9 eebb 8093 4f3c
000002d0: 30c9 6abc 83e1 d8b8 8ac4 37bc 73bf 1c3c
000002e0: 8ba8 323a 1054 8138 495d a4bb d131 073c
000002f0: 0168 c8bc af5b c43b 5a9f 0abd f54c a4bb
00000300: 36d9 96bc 10e4 fcba 6dd5 a83b 6d86 03bd
00000310: 5d50 65bc 5f93 e6ba d3bc b73c 0f73 dfbc
00000320: 6a5b c7ba 2911 b73c 07ac faba 53d5 babc
00000330: 9296 e53c 3b80 fbbb 8f51 03bd 1011 e6bc
00000340: 4b6d 4ebb 83ca e23c 6912 223b 0d20 7b3c
00000350: 15bd 6c3c 024b a03c 7a11 283c eb7a 423c
00000360: 1765 213d 5b15 853c 0c5f 4c3c 9531 c53c
00000370: e868 d2bb 1f64 f5b9 7f44 793c 9584 0aba
00000380: d68c 45bb 6aa4 e0bb 772e f2ba 0da5 063c
00000390: 7204 79bb 8319 03bd 9b7c 93bb 7043 f43b
000003a0: f539 c3bb 5f56 c0bc 83da 443c 13b5 59bc
000003b0: 400f ea3c 057b a63c 1c0f 993c 6b05 fd3a
000003c0: 1d7a 1bbd cb2d 8c3b 0a5b 7abc 8cfa 3c3d
000003d0: 0cab 0c3c be4e 4bbc baf2 6bbb 4394 623c
000003e0: 4b3a ebbb 57ff ab3c 6af9 ab3b 3578 573c
000003f0: c5d1 ba3b 3f4d 7abc a31d 9e3c 1b9e 0a3a

action_model._continuous_distribution.mu.bias f4 [9]
0.0 0.0 0.0 0.0 0.0 0.0 0.0 0.0
0.0
00000000: 0000 0000 0000 0000 0000 0000 0000 0000
00000010: 0000 0000 0000 0000 0000 0000 0000 0000
00000020: 0000 0000

network_body.observation_encoder.processors.0.normalizer.running_mean f4 [39]
0.0 0.0 0.0 0.0 0.0 0.0 0.0 0.0
0.0 0.0 0.0 0.0 0.0 0.0 0.0 0.0
0.0 0.0 0.0 0.0 0.0 0.0 0.0 0.0
0.0 0.0 0.0 0.0 0.0 0.0 0.0 0.0
0.0 0.0 0.0 0.0 0.0 0.0 0.0
00000000: 0000 0000 0000 0000 0000 0000 0000 0000
00000010: 0000 0000 0000 0000 0000 0000 0000 0000
00000020: 0000 0000 0000 0000 0000 0000 0000 0000
00000030: 0000 0000 0000 0000 0000 0000 0000 0000
00000040: 0000 0000 0000 0000 0000 0000 0000 0000
00000050: 0000 0000 0000 0000 0000 0000 0000 0000
00000060: 0000 0000 0000 0000 0000 0000 0000 0000
00000070: 0000 0000 0000 0000 0000 0000 0000 0000
00000080: 0000 0000 0000 0000 0000 0000 0000 0000
00000090: 0000 0000 0000 0000 0000 0000

network_body.observation_encoder.processors.0.normalizer.running_variance f4 [39]
1.0 1.0 1.0 1.0 1.0 1.0 1.0 1.0
1.0 1.0 1.0 1.0 1.0 1.0 1.0 1.0
1.0 1.0 1.0 1.0 1.0 1.0 1.0 1.0
1.0 1.0 1.0 1.0 1.0 1.0 1.0 1.0
1.0 1.0 1.0 1.0 1.0 1.0 1.0
00000000: 0000 803f 0000 803f 0000 803f 0000 803f
00000010: 0000 803f 0000 803f 0000 803f 0000 803f
00000020: 0000 803f 0000 803f 0000 803f 0000 803f
00000030: 0000 803f 0000 803f 0000 803f 0000 803f
00000040: 0000 803f 0000 803f 0000 803f 0000 803f
00000050: 0000 803f 0000 803f 0000 803f 0000 803f
00000060: 0000 803f 0000 803f 0000 803f 0000 803f
00000070: 0000 803f 0000 803f 0000 803f 0000 803f
00000080: 0000 803f 0000 803f 0000 803f 0000 803f
00000090: 0000 803f 0000 803f 0000 803f

network_body.processors.0.normalizer.running_mean f4 [39]
0.0 0.0 0.0 0.0 0.0 0.0 0.0 0.0
0.0 0.0 0.0 0.0 0.0 0.0 0.0 0.0
0.0 0.0 0.0 0.0 0.0 0.0 0.0 0.0
0.0 0.0 0.0 0.0 0.0 0.0 0.0 0.0
0.0 0.0 0.0 0.0 0.0 0.0 0.0
00000000: 0000 0000 0000 0000 0000 0000 0000 0000
00000010: 0000 0000 0000 0000 0000 0000 0000 0000
00000020: 0000 0000 0000 0000 0000 0000 0000 0000
00000030: 0000 0000 0000 0000 0000 0000 0000 0000
00000040: 0000 0000 0000 0000 0000 0000 0000 0000
00000050: 0000 0000 0000 0000 0000 0000 0000 0000
00000060: 0000 0000 0000 0000 0000 0000 0000 0000
00000070: 0000 0000 0000 0000 0000 0000 0000 0000
00000080: 0000 0000 0000 0000 0000 0000 0000 0000
00000090: 0000 0000 0000 0000 0000 0000

network_body.processors.0.normalizer.running_variance f4 [39]
1.0 1.0 1.0 1.0 1.0 1.0 1.0 1.0
1.0 1.0 1.0 1.0 1.0 1.0 1.0 1.0
1.0 1.0 1.0 1.0 1.0 1.0 1.0 1.0
1.0 1.0 1.0 1.0 1.0 1.0 1.0 1.0
1.0 1.0 1.0 1.0 1.0 1.0 1.0
00000000: 0000 803f 0000 803f 0000 803f 0000 803f
00000010: 0000 803f 0000 803f 0000 803f 0000 803f
00000020: 0000 803f 0000 803f 0000 803f 0000 803f
00000030: 0000 803f 0000 803f 0000 803f 0000 803f
00000040: 0000 803f 0000 803f 0000 803f 0000 803f
00000050: 0000 803f 0000 803f 0000 803f 0000 803f
00000060: 0000 803f 0000 803f 0000 803f 0000 803f
00000070: 0000 803f 0000 803f 0000 803f 0000 803f
00000080: 0000 803f 0000 803f 0000 803f 0000 803f
00000090: 0000 803f 0000 803f 0000 803f

network_body._body_endoder.seq_layers.0.weight f4 [128, 39]
-0.05470117 0.16302909 -0.23272277 -0.04443432 0.06252107 -0.23682047 0.18725196 -0.24262851
0.11172966 -0.4894303 0.016519314 0.09518955 -0.051367484 0.048492912 -0.22858398 -0.03456647
0.26918596 0.31319752 -0.11527929 -0.36602715 0.09778656 0.1018508 0.09675569 -0.13369277
-0.053572107 -0.038846925 -0.10295937 -0.007097416 -0.15515149 -0.30941793 -0.0851939 0.054525882
-0.07853745 -0.08602664 -0.075167 0.13517922 0.03569955 -0.0211054 -0.10828004 -0.04040157
-0.11117448 -0.1632697 -0.07641366 0.02393602 -0.14761494 0.062495884 -0.107453 0.14134833
0.13347699 0.38401437 -0.029390153 0.29036552 -0.0556203 -0.0037504688 0.0045576654 0.14438803
0.06840208 0.28038192 0.33388123 0.109930426 0.090284295 -0.17907454 -0.11987239 -0.008805913
-0.08833179 -0.4929265 0.22530223 -0.051567 -0.10137158 0.29705572 0.24666235 0.036815397
0.03884386 -0.27082217 -0.25240043 -0.062163014 0.09455132 0.0042986823 -0.090591885 -0.08643394
0.12464422 -0.09240782 -0.16752958 -0.029806435 0.09612482 -0.11835121 0.31228605 0.008619232
-0.010303711 -0.09748234 0.07532288 -0.20927899 0.12377525 -0.055235922 0.14318311 -0.12188288
-0.30860344 0.109273165 -0.11232504 -0.14660485 0.3035287 0.11184887 0.25093946 -0.11542882
0.060745496 0.29690376 -0.1992514 0.10217534 0.12875617 -0.014091956 0.19347113 0.110118255
0.035776705 0.111345746 -0.19691034 0.09476646 -0.24561886 -0.04638696 0.020304685 0.21865769
-0.10831427 -0.08096026 -0.116671436 -0.11739102 0.23235016 0.12104737 -0.3397408 -0.13861589
0.055185057 0.022478301 -0.14903264 -0.050830454 0.11971607 -0.15594366 0.32486182 0.068975836
0.0059484337 0.09974455 -0.040348295 0.30727917 -0.030883737 -0.047177218 -0.070206776 -0.083163306
0.064845234 0.23746999 -0.053334136 -0.21101363 -0.24007036 0.105110265 -0.034407917 -0.09125751
-0.11197657 -0.0036951937 0.086582266 -0.34703273 -0.019466199 0.10098436 -0.3787631 0.008056414
-0.03290524 -0.07346319 -0.032775715 0.18990946 -0.12328626 -0.0056952615 0.17114021 -0.048650566
-0.22686933 0.19626693 -0.1926747 -0.12781993 0.06709489 0.11071035 0.1032905 -0.15175335
-0.01970611 0.040494137 -0.046214692 0.11515308 -0.11217872 0.1280554 0.13700104 -0.25296158
-0.1440836 0.046193235 -0.13086368 0.18140964 -0.28158882 0.17009401 -0.1581746 0.12141187
0.11103655 0.084745064 -0.07026281 0.05029907 -0.09860259 0.10005922 -0.051353823 0.032748543
0.07780658 0.10702403 0.18891054 -0.023851344 0.11310859 0.06966694 -0.17721342 -0.045385927
-0.015953647 -0.113814 -0.20065911 0.100122996 0.08274913 -0.08363351 0.026723659 0.22615165
0.018282818 0.05492794 0.053043142 -0.25578344 -0.11546519 0.32015228 0.15427436 -0.10468739
-0.06218388 0.35899213 0.20827462 -0.026525173 0.14343172 0.066538714 0.037998557 -0.019192822
0.16965899 -0.104471296 0.07033303 -0.12022911 -0.031066107 0.247717 -0.28504294 -0.008282225
-0.29277486 0.01630078 -0.15656307 -0.1969115 -0.36820123 -0.05524988 0.20153156 0.19735868
0.040282637 -0.20909712 0.17009374 -0.14643319 0.032418583 -0.22665408 -0.13685921 0.059116274
00000000: 560e 60bd 19f1 263e e14e 6ebe c300 36bd
00000010: 0c0b 803d 1181 72be fabe 3f3e 9c73 78be
00000020: 85d2 e43d 9c96 fabe 8353 873c bdf2 c23d
00000030: b666 52bd 81a0 463d eb11 6abe 9295 0dbd
00000040: bed2 893e 6d5b a03e 8c17 ecbd e967 bbbe
00000050: 5244 c83d 2797 d03d d927 c63d c2e6 08be
00000060: 6d6e 5bbd f41d 1fbd 5ddc d2bd 7191 e8bb
00000070: 08e0 1ebe 076c 9ebe 247a aebd 8856 5f3d
00000080: 3ed8 a0bd bc2e b0bd 28f1 99bd 6c6c 0a3e
00000090: b139 123d 3be5 acbc edc1 ddbd 1e7c 25bd
000000a0: 72af e3bd 2c30 27be c47e 9cbd 7915 c43c
000000b0: 5f28 17be affb 7f3d 5210 dcbd 9ebd 103e
000000c0: 31ae 083e 889d c43e 9ec3 f0bc caaa 943e
000000d0: 1dd2 63bd 6dca 75bb 7858 953b 75da 133e
000000e0: 6416 8c3d 388e 8f3e 7bf2 aa3e 3423 e13d
000000f0: f9e6 b83d 515f 37be a87f f5bd ad46 10bc
00000100: 4ce7 b4bd dd60 fcbe a1b5 663e eb37 53bd
00000110: e79b cfbd b017 983e 0e95 7c3e becb 163d
00000120: bd1a 1f3d 34a9 8abe a13a 81be a59e 7ebd
00000130: 1fa4 c13d f6db 8c3b 3d88 b9bd 4704 b1bd
00000140: 7845 ff3d 5040 bdbd e08c 2bbe a02c f4bc
00000150: 17dd c43d 1f62 f2bd f5e3 9f3e ae37 0d3c
00000160: e5d0 28bc d2a4 c7bd e242 9a3d 3b4d 56be
00000170: e17d fd3d 103f 62bd 989e 123e bb9d f9bd
00000180: 4501 9ebe 9cca df3d ac0a e6bd 951f 16be
00000190: 1d68 9b3e 0511 e53d 237b 803e f265 ecbd
000001a0: 45d0 783d c503 983e 8f08 4cbe 4e41 d13d
000001b0: a8d8 033e f3e1 66bc 4c1d 463e ae85 e13d
000001c0: 988a 123d 3d09 e43d dda2 49be eb14 c23d
000001d0: 8383 7bbe 4100 3ebd 0356 a63c cde7 5f3e
000001e0: dfd3 ddbd 7ece a5bd 6ff1 eebd b46a f0bd
000001f0: 33ed 6d3e afe7 f73d 82f2 adbe 53f1 0dbe
00000200: ba09 623d 6a24 b83c 039c 18be 9833 50bd
00000210: b32d f53d b2af 1fbe 4a54 a63e 3443 8d3d
00000220: 14eb c23b df46 cc3d 4144 25bd b253 9d3e
00000230: e4ff fcbc e63c 41bd 92c8 8fbd 8651 aabd
00000240: 94cd 843d 552b 733e e574 5abd f513 58be
00000250: 01d5 75be 0d44 d73d 51ef 0cbd 38e5 babd
00000260: f953 e5bd 102b 72bb 0b52 b13d 46ae b1be
00000270: 9477 9fbc e3d0 ce3d 3ded c1be 0dff 033c
00000280: a5c7 06bd de73 96bd d43f 06bd a077 423e
00000290: 827d fcbd 519f babb 613f 2f3e d145 47bd
000002a0: 6f50 68be 33fa 483e 844c 45be 3ae3 02be
000002b0: 0c69 893d 1cbc e23d f889 d33d 3b65 1bbe
000002c0: b56e a1bc 2edd 253d 9e4b 3dbd 61d5 eb3d
000002d0: f5bd e5bd f420 033e 004a 0c3e 2e84 81be
000002e0: a78a 13be 1e35 3d3d 2101 06be 73c3 393e
000002f0: 692c 90be 202d 2e3e 86f8 21be c9a6 f83d
00000300: 2167 e33d d28e ad3d f3e5 8fbd 6606 4e3d
00000310: 28f0 c9bd d9eb cc3d 6358 52bd 5623 063d
00000320: 0e59 9f3d 6a2f db3d c471 413e e563 c3bc
00000330: 7aa5 e73d 8aad 8e3d 6f77 35be 98e6 39bd
00000340: 39b1 82bc 5017 e9bd 9579 4dbe 490d cd3d
00000350: 6078 a93d 0c48 abbd 93eb da3c 4c94 673e
00000360: d9c5 953c 1ffc 603d c443 593d 0cf6 82be
00000370: 0379 ecbd 00eb a33e 19fa 1d3e 5866 d6bd
00000380: 86b4 7ebd d1cd b73e f145 553e 524b d9bc
00000390: c4df 123e 7345 883d 60a4 1b3d 443a 9dbc
000003a0: 16bb 2d3e 0cf5 d5bd c30a 903d ae3a f6bd
000003b0: 597e febc 86a9 7d3e 26f1 91be 2bb2 07bc
000003c0: 96e6 95be 3789 853c 1252 20be 2ba3 49be
000003d0: df84 bcbe b34d 62bd 4a5e 4e3e 6518 4a3e
000003e0: 68ff 243d 8e1d 56be 0e2d 2e3e 95f2 15be
000003f0: 59c9 043d 0218 68be d224 0cbe e823 723d

network_body._body_endoder.seq_layers.0.bias f4 [128]
0.0 0.0 0.0 0.0 0.0 0.0 0.0 0.0
0.0 0.0 0.0 0.0 0.0 0.0 0.0 0.0
0.0 0.0 0.0 0.0 0.0 0.0 0.0 0.0
0.0 0.0 0.0 0.0 0.0 0.0 0.0 0.0
0.0 0.0 0.0 0.0 0.0 0.0 0.0 0.0
0.0 0.0 0.0 0.0 0.0 0.0 0.0 0.0
0.0 0.0 0.0 0.0 0.0 0.0 0.0 0.0
0.0 0.0 0.0 0.0 0.0 0.0 0.0 0.0
0.0 0.0 0.0 0.0 0.0 0.0 0.0 0.0
0.0 0.0 0.0 0.0 0.0 0.0 0.0 0.0
0.0 0.0 0.0 0.0 0.0 0.0 0.0 0.0
0.0 0.0 0.0 0.0 0.0 0.0 0.0 0.0
0.0 0.0 0.0 0.0 0.0 0.0 0.0 0.0
0.0 0.0 0.0 0.0 0.0 0.0 0.0 0.0
0.0 0.0 0.0 0.0 0.0 0.0 0.0 0.0
0.0 0.0 0.0 0.0 0.0 0.0 0.0 0.0
00000000: 0000 0000 0000 0000 0000 0000 0000 0000
00000010: 0000 0000 0000 0000 0000 0000 0000 0000
00000020: 0000 0000 0000 0000 0000 0000 0000 0000
00000030: 0000 0000 0000 0000 0000 0000 0000 0000
00000040: 0000 0000 0000 0000 0000 0000 0000 0000
00000050: 0000 0000 0000 0000 0000 0000 0000 0000
00000060: 0000 0000 0000 0000 0000 0000 0000 0000
00000070: 0000 0000 0000 0000 0000 0000 0000 0000
00000080: 0000 0000 0000 0000 0000 0000 0000 0000
00000090: 0000 0000 0000 0000 0000 0000 0000 0000
000000a0: 0000 0000 0000 0000 0000 0000 0000 0000
000000b0: 0000 0000 0000 0000 0000 0000 0000 0000
000000c0: 0000 0000 0000 0000 0000 0000 0000 0000
000000d0: 0000 0000 0000 0000 0000 0000 0000 0000
000000e0: 0000 0000 0000 0000 0000 0000 0000 0000
000000f0: 0000 0000 0000 0000 0000 0000 0000 0000
00000100: 0000 0000 0000 0000 0000 0000 0000 0000
00000110: 0000 0000 0000 0000 0000 0000 0000 0000
00000120: 0000 0000 0000 0000 0000 0000 0000 0000
00000130: 0000 0000 0000 0000 0000 0000 0000 0000
00000140: 0000 0000 0000 0000 0000 0000 0000 0000
00000150: 0000 0000 0000 0000 0000 0000 0000 0000
00000160: 0000 0000 0000 0000 0000 0000 0000 0000
00000170: 0000 0000 0000 0000 0000 0000 0000 0000
00000180: 0000 0000 0000 0000 0000 0000 0000 0000
00000190: 0000 0000 0000 0000 0000 0000 0000 0000
000001a0: 0000 0000 0000 0000 0000 0000 0000 0000
000001b0: 0000 0000 0000 0000 0000 0000 0000 0000
000001c0: 0000 0000 0000 0000 0000 0000 0000 0000
000001d0: 0000 0000 0000 0000 0000 0000 0000 0000
000001e0: 0000 0000 0000 0000 0000 0000 0000 0000
000001f0: 0000 0000 0000 0000 0000 0000 0000 0000

network_body._body_endoder.seq_layers.2.weight f4 [128, 128]
-0.019587722 0.037093077 0.10700128 -0.016373951 0.10452123 0.06131428 0.05967391 -0.005041241
-0.10219168 0.029388644 -0.07771764 0.07435856 -0.024300316 -0.048539594 0.053223945 -0.15059
0.076330446 0.1123729 -0.07417384 -0.041819263 0.04060914 0.03253671 0.052707285 0.099051885
0.012179378 -0.07483456 -0.0030831166 0.094888136 0.07421781 -0.0730338 0.06127992 -0.08714965
-0.23442443 0.027852291 0.040114455 0.07375162 -0.0714205 0.024372678 0.0749103 -0.02813883
-0.0087343 -0.020607077 0.070163235 0.09208027 0.014791112 0.06687732 0.11906077 0.093403
0.025453873 -0.015245001 -0.02050981 0.16200244 0.10775351 -0.12762497 -0.10598405 0.060834244
-0.06358667 0.029287783 0.02664429 0.03439829 -0.23218185 0.0224672 0.15036052 -0.06114466
0.038531546 0.104983434 -0.084631674 -0.044974364 -0.15678734 0.10963571 -0.028181858 -0.13595234
0.20285377 -0.117785834 -0.10488348 0.11785589 0.13351823 -0.13667789 -0.06545176 0.025839794
0.030223837 -0.23884286 0.10486296 -0.069827326 -0.012493578 -0.14587861 0.05386226 0.04587231
-0.048423007 -0.03952572 -0.102419294 0.1225002 0.036248628 -0.0848172 -0.045003377 0.117881216
-0.051546212 0.075389504 0.12585649 -0.080893286 0.19813251 -0.0954021 0.02215646 -0.042083926
0.08681672 0.03263585 0.12037474 -0.089602195 -0.067379706 0.056490716 0.0048987516 -0.04661362
-0.12410608 -0.045560453 -0.04087749 -0.046502493 0.10416132 -0.026863793 -0.09911324 0.09540248
-0.07980448 -0.035950236 0.0680929 -0.17604983 0.048632648 -0.009631988 -0.030482695 0.1098777
0.0010611481 -0.018320387 0.10716644 0.033974525 0.22744328 -0.109221354 0.047919005 0.0071027633
0.14369358 -0.083287284 -0.26353538 0.017166633 -0.06509563 0.020077975 -0.06444581 -0.040020246
0.15108003 0.01202481 0.21714659 0.07937931 -0.08639285 -0.016300904 0.021333717 -0.055306457
-0.076738216 -0.0013582123 0.06713051 0.13074486 -0.05120451 0.117178544 -0.04152487 0.10443478
-0.07868822 0.029335989 0.25776222 -0.039485995 0.035941042 0.06613057 -0.122902684 -0.06098841
-0.0063138013 -0.04477211 0.12159394 0.0231595 -0.035322953 0.06532712 -0.045228146 -0.17290275
-0.28591383 0.005335042 0.07195834 -0.0004892461 0.16133797 -0.10146227 0.096519634 0.017338974
-0.054123133 -0.0324174 0.046595562 -0.09127071 0.041519377 -0.14068335 -0.16841036 0.053448766
0.03769627 0.06533115 -0.054563683 0.09075467 -0.003119515 -0.057839572 -0.05909321 -0.024907907
0.040962104 -0.022275463 0.00017123109 -0.09338922 0.09588529 -0.069062844 0.106401764 0.12970807
0.04903541 -0.046703745 -0.056177303 -0.0007735141 0.12534745 0.046911854 -0.08269162 0.0138155455
0.12798195 -0.035671413 -0.0053563574 -0.1319998 -0.037420087 0.07830062 -0.018564308 0.014217352
0.07902011 0.18165019 -0.1869496 0.056948405 0.014239816 0.03949265 0.0033039546 0.12906304
-0.0022015623 -0.17303598 -0.006873142 0.06761195 -0.02276812 -0.087372884 -0.0020368323 0.13365188
-0.05327052 -0.061111216 0.10228412 -0.09617838 -0.019834097 -0.13467354 0.10037526 0.14728715
0.060242716 0.09376481 -0.046709925 -0.05024643 -0.03319271 0.08907732 0.12617308 0.075888425
00000000: 6e76 a0bc e9ee 173d 7d23 db3d aa22 86bc
00000010: 3a0f d63d af24 7b3d a16c 743d ff30 a5bb
00000020: df49 d1bd 74c0 f03c 6d2a 9fbd 4d49 983d
00000030: 7511 c7bc 74d1 46bd 5a01 5a3d 4434 1abe
00000040: 2353 9c3d c323 e63d 74e8 97bd ad4a 2bbd
00000050: c555 263d 3745 053d 98e3 573d b7db ca3d
00000060: 048c 473c dd42 99bd 1d0e 4abb b654 c23d
00000070: 82ff 973d bf92 95bd a700 7b3d 847b b2bd
00000080: f50c 70be 7d2a e43c 0e4f 243d 170b 973d
00000090: e944 92bd 36a9 c73c 926a 993d 6783 e6bc
000000a0: 4f1a 0fbc 2cd0 a8bc beb1 8f3d 9594 bc3d
000000b0: 6c56 723c faf6 883d 22d6 f33d 124a bf3d
000000c0: a484 d03c 2bc6 79bc 3004 a8bc f8e3 253e
000000d0: dfad dc3d 1fb0 02be 2a0e d9bd 542d 793d
000000e0: ba39 82bd efec ef3c 2045 da3c 39e5 0c3d
000000f0: 14c1 6dbe 220d b83c 1cf8 193e d372 7abd
00000100: 41d3 1d3d 8e01 d73d 5f53 adbd 0a37 38bd
00000110: dc8c 20be b088 e03d a4dd e6bc 1737 0bbe
00000120: e6b8 4f3e b339 f1bd 26cd d6bd 6e5e f13d
00000130: 01b9 083e 4af5 0bbe 930b 86bd faad d33c
00000140: fb97 f73c 3993 74be 64c2 d63d a101 8fbd
00000150: ddb1 4cbc 3461 15be ac9e 5c3d 9ae4 3b3d
00000160: 3457 46bd b9e5 21bd 35c1 d1bd 63e1 fa3d
00000170: 7179 143d a4b4 adbd 7655 38bd b56b f13d
00000180: 1f22 53bd d065 9a3d 86e0 003e 61ab a5bd
00000190: 40e3 4a3e 2d62 c3bd 7781 b53c 3260 2cbd
000001a0: f7cc b13d 2bad 053d 0887 f63d 5b81 b7bd
000001b0: 5ffe 89bd cf62 673d b585 a03b eced 3ebd
000001c0: 542b febd 999d 3abd 286f 27bd 6679 3ebd
000001d0: 8852 d53d 7511 dcbc e2fb cabd 6062 c33d
000001e0: 8870 a3bd 8e40 13bd 4a74 8b3d 6846 34be
000001f0: 0733 473d 7ccf 1dbc d8b6 f9bc 8f07 e13d
00000200: 3916 8b3a a314 96bc 147a db3d df28 0b3d
00000210: e4e6 683e 72af dfbd b846 443d 4cbe e83b
00000220: 6924 133e 8692 aabd 1cee 86be 0aa1 8c3c
00000230: dc50 85bd 917a a43c 2afc 83bd 45ec 23bd
00000240: b9b4 1a3e b503 453c ad5b 5e3e 9f91 a23d
00000250: bcee b0bd 7989 85bc 0cc4 ae3c 0689 62bd
00000260: ed28 9dbd 0b06 b2ba b97b 893d fbe1 053e
00000270: d2bb 51bd 4efb ef3d fb15 2abd e7e1 d53d
00000280: 4a27 a1bd 0752 f03c 69f9 833e 11bc 21bd
00000290: ea36 133d 776f 873d 67b4 fbbd fcce 79bd
000002a0: 01e4 cebb f662 37bd 3e06 f93d feb8 bd3c
000002b0: cdae 10bd 3aca 853d 2641 39bd 6b0d 31be
000002c0: 4c63 92be 93d1 ae3b e55e 933d c040 00ba
000002d0: c835 253e 73cb cfbd 16ac c53d 770a 8e3c
000002e0: 38b0 5dbd 1cc8 04bd fdda 3e3d 23ec babd
000002f0: 3910 2a3d 4c0f 10be c473 2cbe 18ed 5a3d
00000300: 6767 1a3d 57cc 853d 2b7e 5fbd 96dd b93d
00000310: c770 4cbb 30e9 6cbd b90b 72bd ab0b ccbc
00000320: e1c7 273d 087b b6bc 7f8c 3339 d942 bfbd
00000330: 825f c43d d270 8dbd 2be9 d93d 31d2 043e
00000340: 5bd9 483d 6d4c 3fbd 2c1a 66bd a7c5 4aba
00000350: 155b 003e a526 403d 395a a9bd 995a 623c
00000360: b30d 033e 301c 12bd 6284 afbb f52a 07be
00000370: ce45 19bd 135c a03d 2d14 98bc e5ef 683c
00000380: 4cd5 a13d 8202 3a3e b76f 3fbe bb42 693d
00000390: 1e4e 693c 0cc3 213d 2987 583b 1a29 043e
000003a0: 1648 10bb 5830 31be 1838 e1bb 2278 8a3d
000003b0: 3584 babc 8ef0 b2bd 607c 05bb 0adc 083e
000003c0: 3032 5abd c14f 7abd 567a d13d 2cf9 c4bd
000003d0: 1e7b a2bc dce7 09be 8b91 cd3d 71d2 163e
000003e0: 11c1 763d c407 c03d e852 3fbd 33cf 4dbd
000003f0: 14f5 07bd 2c6e b63d 8433 013e 646b 9b3d

network_body._body_endoder.seq_layers.2.bias f4 [128]
0.0 0.0 0.0 0.0 0.0 0.0 0.0 0.0
0.0 0.0 0.0 0.0 0.0 0.0 0.0 0.0
0.0 0.0 0.0 0.0 0.0 0.0 0.0 0.0
0.0 0.0 0.0 0.0 0.0 0.0 0.0 0.0
0.0 0.0 0.0 0.0 0.0 0.0 0.0 0.0
0.0 0.0 0.0 0.0 0.0 0.0 0.0 0.0
0.0 0.0 0.0 0.0 0.0 0.0 0.0 0.0
0.0 0.0 0.0 0.0 0.0 0.0 0.0 0.0
0.0 0.0 0.0 0.0 0.0 0.0 0.0 0.0
0.0 0.0 0.0 0.0 0.0 0.0 0.0 0.0
0.0 0.0 0.0 0.0 0.0 0.0 0.0 0.0
0.0 0.0 0.0 0.0 0.0 0.0 0.0 0.0
0.0 0.0 0.0 0.0 0.0 0.0 0.0 0.0
0.0 0.0 0.0 0.0 0.0 0.0 0.0 0.0
0.0 0.0 0.0 0.0 0.0 0.0 0.0 0.0
0.0 0.0 0.0 0.0 0.0 0.0 0.0 0.0
00000000: 0000 0000 0000 0000 0000 0000 0000 0000
00000010: 0000 0000 0000 0000 0000 0000 0000 0000
00000020: 0000 0000 0000 0000 0000 0000 0000 0000
00000030: 0000 0000 0000 0000 0000 0000 0000 0000
00000040: 0000 0000 0000 0000 0000 0000 0000 0000
00000050: 0000 0000 0000 0000 0000 0000 0000 0000
00000060: 0000 0000 0000 0000 0000 0000 0000 0000
00000070: 0000 0000 0000 0000 0000 0000 0000 0000
00000080: 0000 0000 0000 0000 0000 0000 0000 0000
00000090: 0000 0000 0000 0000 0000 0000 0000 0000
000000a0: 0000 0000 0000 0000 0000 0000 0000 0000
000000b0: 0000 0000 0000 0000 0000 0000 0000 0000
000000c0: 0000 0000 0000 0000 0000 0000 0000 0000
000000d0: 0000 0000 0000 0000 0000 0000 0000 0000
000000e0: 0000 0000 0000 0000 0000 0000 0000 0000
000000f0: 0000 0000 0000 0000 0000 0000 0000 0000
00000100: 0000 0000 0000 0000 0000 0000 0000 0000
00000110: 0000 0000 0000 0000 0000 0000 0000 0000
00000120: 0000 0000 0000 0000 0000 0000 0000 0000
00000130: 0000 0000 0000 0000 0000 0000 0000 0000
00000140: 0000 0000 0000 0000 0000 0000 0000 0000
00000150: 0000 0000 0000 0000 0000 0000 0000 0000
00000160: 0000 0000 0000 0000 0000 0000 0000 0000
00000170: 0000 0000 0000 0000 0000 0000 0000 0000
00000180: 0000 0000 0000 0000 0000 0000 0000 0000
00000190: 0000 0000 0000 0000 0000 0000 0000 0000
000001a0: 0000 0000 0000 0000 0000 0000 0000 0000
000001b0: 0000 0000 0000 0000 0000 0000 0000 0000
000001c0: 0000 0000 0000 0000 0000 0000 0000 0000
000001d0: 0000 0000 0000 0000 0000 0000 0000 0000
000001e0: 0000 0000 0000 0000 0000 0000 0000 0000
000001f0: 0000 0000 0000 0000 0000 0000 0000 0000

value_heads.value_heads.extrinsic.weight f4 [1, 128]
-0.13827594 -0.058533374 -0.039514016 -0.041561533 0.17709713 -0.15067856 -0.07458037 0.11720187
-0.1838095 0.08881242 0.02589488 -0.0039065722 0.0731425 -0.066892855 0.08462534 0.05256292
-0.07859989 -0.026716152 -0.16609624 -0.19927754 -0.01511682 0.07459464 -0.10577571 0.043033548
0.04222468 0.033877272 0.14351264 -0.209672 0.02211152 -0.18661855 -0.13609321 0.16811997
0.011511407 0.1726771 0.1633803 0.09141808 -0.081170805 0.14086123 0.16969542 0.18499942
0.21147974 0.09337554 -0.08592521 -0.06255852 0.16341054 0.19589923 -0.019286657 -0.20381553
-0.037899677 0.19937272 -0.055015694 0.16012613 0.038220502 -0.052188773 -0.0029503522 0.118594885
0.12753916 0.12448361 -0.1049121 -0.18428004 -0.1927734 -0.12314047 0.11915725 0.07028704
0.19819616 -0.04702162 -0.0013102121 0.01755647 0.024012264 0.0279243 0.070031054 0.051432636
-0.11347583 -0.2073229 -0.053498637 0.1935206 -0.1085261 -0.13672544 -0.076510794 -0.00494978
-0.20747456 0.16331579 0.12044956 -0.1670846 -0.21194693 0.04939728 0.0728443 -0.15329391
0.2064687 -0.2094025 0.037118625 0.19732314 0.14506178 -0.21346071 -0.066944644 -0.17522675
0.058402125 0.19004388 -0.03233326 -0.10451488 -0.097297885 -0.09871309 0.13584644 0.024310311
-0.10275433 0.19831859 -0.15233527 -0.17683426 -0.20458604 -0.10001631 -0.18632971 0.069993876
0.15676759 -0.11131906 0.09583963 0.17030875 0.06414446 -0.11486767 -0.21209083 -0.16350488
0.18239482 -0.14136174 -0.15163453 0.015557414 -0.1734407 0.093957186 -0.21378496 -0.1518224
00000000: 3598 0dbe b1c0 6fbd 73d9 21bd 6d3c 2abd
00000010: f358 353e 7b4b 1abe 98bd 98bd 8907 f03d
00000020: 8f38 3cbe 49e3 b53d 8021 d43c b402 80bb
00000030: bccb 953d 1fff 88bd 0d50 ad3d 374c 573d
00000040: fbf8 a0bd d5db dabc 2215 2abe 690f 4cbe
00000050: 8aac 77bc 13c5 983d efa0 d8bd f243 303d
00000060: c9f3 2c3d e5c2 0a3d faf4 123e 42b4 56be
00000070: 3823 b53c ef18 3fbe 055c 0bbe a427 2c3e
00000080: 579a 3c3c 44d2 303e 2a4d 273e 6739 bb3d
00000090: e13c a6bd ed3d 103e a3c4 2d3e 7d70 3d3e
000000a0: 258e 583e ad3b bf3d 8ef9 afbd ae1e 80bd
000000b0: 1855 273e cf99 483e 0dff 9dbc 05b5 50be
000000c0: b13c 1bbd 5d28 4c3e 2358 61bd 1bf8 233e
000000d0: 1a8d 1c3d e5c3 55bd b25a 41bb e0e1 f23d
000000e0: a099 023e 43f1 fe3d 28dc d6bd e8b3 3cbe
000000f0: 6466 45be 1231 fcbd b708 f43d a7f2 8f3d
00000100: eff3 4a3e be99 40bd 6cbb abba 96d2 8f3c
00000110: 5eb5 c43c 80c1 e43c 716c 8f3d 07ab 523d
00000120: 0466 e8bd 744c 54be 6321 5bbd 442a 463e
00000130: ef42 debd c101 0cbe b1b1 9cbd c431 a2bb
00000140: 3674 54be 413c 273e 42ae f63d 3a18 2bbe
00000150: 9e08 59be cd54 4a3d 642f 953d 14f9 1cbe
00000160: 886c 533e 9c6d 56be b309 183d 140f 4a3e
00000170: 138b 143e 7295 5abe 461a 89bd a46e 33be
00000180: 1137 6f3d dd9a 423e e16f 04bd e60b d6bd
00000190: 1d44 c7bd 172a cabd 541b 0b3e 6b26 c73c
000001a0: dd70 d2bd 0714 4b3e c7fd 1bbe 0a14 35be
000001b0: 017f 51be 5ad5 ccbd 37cd 3ebe f358 8f3d
000001c0: af87 203e 3ffb e3bd 9147 c43d 6b65 2e3e
000001d0: 2c5e 833d be3f ebbd 572e 59be d36d 27be
000001e0: b5c5 3a3e 22c1 10be 1546 1bbe 86e4 7e3c
000001f0: 709a 31be a06c c03d 72ea 5abe 5577 1bbe
