results/duoCW-V1/Worm/Worm-6999937.onnx (onnx, 581953 bytes, 9 tensors)

network_body._body_endoder.seq_layers.0.weight f4 [256, 39]
00000000: dab5 473e 5aa0 81be b8c2 343e a37a 5cbd
00000010: 90f5 7cbd 1a0d 693e a3fc ac3d dedc 17be
00000020: 0f3b 05bd 7447 ec3d d185 a63d ab21 fe3d
00000030: ab5b 28bd 251e 1d3d a517 253e f92d ce3c
00000040: 2de0 34be dfb8 e93d 3869 a9be 53ca bc3d
00000050: 4530 483e 0e6b dd3d ac8f 37be 472c 98be
00000060: efb8 863b af38 683c 2875 62be 30f0 1ebe
00000070: 65e3 3e3e a7c1 963d 69ad 7e3d ab5b 53be
00000080: 161a a53d 30ea 87bd 89e8 c93e 42e1 8ebd
00000090: 724c 933d 016a 16be a20d 0bbe 8726 debc
000000a0: 5840 b6bd c738 933e 209f d1bd c8ba 423b
000000b0: 58e8 ddbd 53e0 e1bc 46ec a93e ac89 0abe
000000c0: 612c 3b3e e8f1 85be e4cb aa3d d737 e33d
000000d0: d566 98bd dae4 f73d eda3 5bbe 8687 4c3d
000000e0: 4086 bcbd 2e1b 24be 016f ba3d fa97 bdbc
000000f0: 4d5c 1cbe 6d36 e4be fd94 a8b9 d801 f2bd
00000100: aa09 3fbd 73a8 643d 71ae a5bd bafc 18bd
00000110: 3d1f 633d 67d4 97bd 50f9 6dbd 0777 28bd
00000120: 82ba 5fbe fab6 59bd a9b2 1b3c 0e3d 29be
00000130: 7d22 89bd 9d44 3ebe 9795 6bbd cb55 9e3e
00000140: c846 083e d3b9 18be 984d 5b3e d7bc 9b3d
00000150: 36dd ef3c 978f 29be abc3 053e 090b 16be
00000160: 7cc5 ae3e df56 603d 6d23 6c3e 78df cf3e
00000170: f005 32be 311a 9e3e 9d49 b03d 871a 61be
00000180: 98eb 8e3d 3bc4 223e 9504 173e cbf1 133e
00000190: f5c1 0b3d c02f 033e 658a c6bd 67a8 4b3e
000001a0: 6bd1 4d3d 8d19 d93d 9cdb 5b3e 4cc6 c03d
000001b0: d730 933e 2a57 583d 1451 8cbc a66d 9fbe
000001c0: 26d0 363e a98f b7bc 3a69 be3d b7ce bb3e
000001d0: 2b9a fd3d ed37 ed3d ee3e 403e 8dfa c43d
000001e0: 0a15 74bc 8f43 fc3d 9cb5 c6bb fce0 e1bd
000001f0: 0f42 b63e cea1 7f3d 7239 50be 6874 203e
00000200: 2346 23bd c159 053d 2ab9 56be 1add e6bd
00000210: bae2 883e 7990 ab3e 52c2 2bbe bf3b 873e
00000220: c399 173e cbf1 713d 2c85 1f3e 54cc 5a3e
00000230: 1ff6 c33e 476d 9ebd 7be8 a13d abad 6f3e
00000240: f9fa 6c3d c427 773c eb92 943e 6e7e 11be
00000250: 5056 e8bd 21e9 6d3d 078e 95bd 8083 053d
00000260: 976e 96bd 6d72 733e f9ad dabd 0421 62bd
00000270: de03 d73b ba60 213d 30c4 2ebc ce2e 7fbe
00000280: e71a 36bd 0273 993b 0f28 203e 3bcc 9c3e
00000290: 137c f6bd 776c ff3d ed32 cf3c 8e12 093e
000002a0: 3de6 45be 1f88 a2bd 758d c1bb 6970 f7b8
000002b0: 1417 573e 6e91 733e 438d 0e3e 9261 1e3e
000002c0: a097 c6bb 4fc5 813e 127f bdbb 69cb b5be
000002d0: 3517 d43d f9bd aabd 527d 81bd 52a9 cabc
000002e0: 6f72 2a3d 663a 99bc 34fb 5cbd 4fc8 2fbe
000002f0: d085 b73c a9d0 abbd 894a 24be f4a6 84be
00000300: 144f 7d3d c170 b53d 5b86 3cbe 9894 163e
00000310: d2e8 f5bd 0091 fabd 7d0c 43be f952 6f3e
00000320: 1457 89bc cebb 0b3e 9c7e ddbe 0b0e 863e
00000330: bb32 03bd 6383 d2bd d41a 873e c31c 893e
00000340: 8d56 dabe 0b67 903d 361e 34bd a713 1bbe
00000350: 2df1 c43d 6512 c4be cd18 4dbd 3be3 90be
00000360: 8559 733e 400b fcbc 04f3 943d d646 ac3d
00000370: 8c57 763d 4756 563d dbaa 513e 214b 94bd
00000380: 09e6 1c3e a7e8 453e cabc c0bd b0db 47bd
00000390: 70e0 5ebe 11a7 d6bd ce4d 26bd 2f46 d8bc
000003a0: c99b c73c 8a01 b43d ee71 983d 27e2 5c3e
000003b0: 34c9 26bc 8df1 453e bee9 0ebe ea81 e9bd
000003c0: 543b aabe e9c5 cfbd 3af7 1cbe 5e7c 57be
000003d0: 0d8e 243e e791 4fbe e57e 4ebe f683 a43e
000003e0: 51ef 523d c258 ed3c 955c 5f3e e9ed 9abc
000003f0: c76f 52bd afde e1bd 05e0 cf3c 43e4 c3bd
0.19502965 -0.2531765 0.17652404 -0.053827893 -0.061757624 0.22758904 0.08446624 -0.14830348
-0.032527026 0.11537066 0.08130992 0.124087654 -0.041103046 0.038358826 0.16122301 0.025168406
-0.17663641 0.114122145 -0.33088088 0.09218278 0.19549663 0.10811435 -0.179259 -0.2972128
0.0041114013 0.014173671 -0.22115004 -0.15521312 0.18641432 0.07361155 0.062177096 -0.20640437
0.08061616 -0.066364646 0.39435223 -0.06976558 0.07192315 -0.14688875 -0.1357942 -0.02711798
-0.08898991 0.28754255 -0.10235429 0.002971338 -0.10835332 -0.027572786 0.33188075 -0.1352908
0.18278648 -0.26161122 0.0833967 0.11094635 -0.07441489 0.12104197 -0.21449251 0.049933933
-0.09205294 -0.16025993 0.091032036 -0.023143757 -0.15269585 -0.44572774 -0.00032154462 -0.11816758
-0.046640076 0.05582471 -0.08089913 -0.037350394 0.055449713 -0.074135594 -0.05809909 -0.04112914
-0.21848491 -0.053153016 0.009503045 -0.16527197 -0.06696031 -0.18580861 -0.057515707 0.3092483
0.13308251 -0.14914636 0.21416318 0.07604378 0.029280286 -0.16558681 0.13062923 -0.14652647
0.34135044 0.054770347 0.23060389 0.4060018 -0.17385077 0.30879357 0.086077906 -0.21982776
0.0697853 0.15895168 0.14747842 0.14447705 0.03412052 0.12811184 -0.096943654 0.19888459
0.050248545 0.106005765 0.21470493 0.09412822 0.287482 0.0528175 -0.017128505 -0.31138343
0.1785284 -0.02240737 0.09297414 0.36681148 0.12382921 0.115829326 0.18774006 0.09618101
-0.014897594 0.12317573 -0.00606413 -0.110292405 0.35597274 0.06241017 -0.20334414 0.15669405
-0.03986181 0.0325563 -0.20969072 -0.112726405 0.2673548 0.3350866 -0.16773346 0.2641277
0.14804749 0.059068482 0.15578145 0.21367007 0.38273713 -0.07735687 0.0790567 0.23406093
0.057856534 0.015085164 0.2901834 -0.14208385 -0.11344588 0.058083657 -0.0730248 0.03259611
-0.07345312 0.23774119 -0.10677714 -0.055207267 0.0065617403 0.039398886 -0.010666892 -0.24920198
-0.04445925 0.0046828995 0.15640281 0.30624565 -0.12035384 0.1247186 0.025292838 0.13385984
-0.1932611 -0.07936119 -0.0059067556 -0.00011798816 0.21004897 0.23785946 0.13921075 0.15466908
-0.0060605556 0.25345847 -0.00578297 -0.35506752 0.10355989 -0.08337016 -0.06322731 -0.024738941
0.04161304 -0.018704604 -0.053950503 -0.17166255 0.022402674 -0.08389408 -0.16044058 -0.25908625
0.061842993 0.08859397 -0.18410628 0.14705122 -0.120072976 -0.12234688 -0.19047733 0.23371495
-0.016765155 0.1364586 -0.43260658 0.2618259 -0.032030802 -0.10278966 0.26387656 0.26779756
-0.42644158 0.07050904 -0.043974124 -0.15144216 0.09616313 -0.38295284 -0.05007248 -0.28298363
0.23764618 -0.030767083 0.07272914 0.084119484 0.060142085 0.052328374 0.20475332 -0.07240892
0.15322126 0.19327031 -0.09411009 -0.048793495 -0.21765304 -0.10481084 -0.040601544 -0.026400654
0.024366276 0.08789356 0.07443605 0.21570645 -0.0101798065 0.19330426 -0.13956353 -0.11401732
-0.3324839 -0.1014517 -0.15328684 -0.21043536 0.16069813 -0.20270501 -0.20165594 0.32131928
0.05149776 0.028972987 0.21812661 -0.018912273 -0.05137613 -0.11028802 0.025375376 -0.09565022

network_body._body_endoder.seq_layers.0.bias f4 [256]
00000000: e439 503c dce2 59bd f198 b03a 5a80 223c
00000010: 038a 1bbc 6048 dc3c 4b98 fbbc 210c 223d
00000020: 8fc6 6dbd a619 0a3c d45e 14bd 8716 063d
00000030: ba23 543d 1d22 8f3d 8c77 973d 4f21 a83c
00000040: 9077 90bc 68e0 e63c bd34 56bb 1080 c03c
00000050: b6c6 5b3d b45b 1f3d fab5 94bc f550 4dbd
00000060: cef8 553c c10a 233d d30d fc39 d7ea 13bc
00000070: 4950 3d3c 1015 313d 9b12 3f3d cb15 8d3d
00000080: b50b e0bc 0ccb 213d 233d 083c 1657 9cbd
00000090: b1b0 5cbc 8a8a 1b3d 58ed 8f3c f6e3 dc3c
000000a0: 6ecd 5b3d 9bc1 113b 65c5 c33c db81 baba
000000b0: 88dd ff3c 30fd 39ba 0097 c33c b84f 54bc
000000c0: 08a1 e43c 7b52 1dbd 525e 8dbb edb3 263d
000000d0: 7b43 ffbc 8ec6 f33c 268f 00bd 5147 803d
000000e0: b151 983d dae7 f1bb 2102 e8bc c329 123c
000000f0: bd6e 313c 92e1 e5bc 4ebc 2b3d e525 29bd
00000100: 8c9e 103d 47de c2bc 162e 2a3d b4a5 913c
00000110: 2363 8b3d f17a 9abb cd2c ecbc 6898 ce3c
00000120: 2b04 963c 8a2f e13c 2225 943d 5f88 113c
00000130: c175 17bd ef01 32bd 66c2 31bc 305f 89bd
00000140: 4949 88bb d23e a23c 13de 233c fb3d e9bc
00000150: e289 dcbc 9cb4 a1bc 6731 1f3c 5434 083d
00000160: 42d4 cc3b 25ab b93c a616 2c3d 7769 4f3d
00000170: 0d22 653d db4e 71bc b7a0 6b3d 217d 423d
00000180: 44f6 14bd 848f 07bd e590 913b deea 653c
00000190: 6130 18bc f618 ac3c 7281 9f3a 971c ae3c
000001a0: dd83 653c 7ff2 4dbc 487e 0b3d e0ba 283c
000001b0: 5d54 9e3c 2db7 103c 6fe4 913c cd57 f93c
000001c0: a5c2 913c d2a0 683c ec22 aabb ea61 813c
000001d0: 667d 30bb d9c5 7e3c 25bc fe3b 7f93 7e3c
000001e0: 02ca 08bd 24b4 803b 8e1a 653a 7199 f9bb
000001f0: 6bdd 0abc 2b9d b4bc 6fcb 1f3d 0185 8dbd
00000200: 25f3 b23c beeb 94bd cd91 3c3d 37f3 46b9
00000210: c051 e53c 9e55 fe3b 02c2 b53c 6581 5f3d
00000220: 1487 a6bc 1d03 203c 7d4e debc c2d2 4cbb
00000230: 5deb 733d b5e9 8a3c 1929 8db9 fc0f 2dbc
00000240: ee4e 5abd ddde 4cbd 77a8 2cbc 5b4f 36bd
00000250: 68bd 0ebd dab6 43bc 63a3 5fbd 48fa babc
00000260: 183c 05bd e66c 95bc 6048 c43c 3816 713d
00000270: 2c1f f3bc 1b4b 76bc 0f7b 0abc 8e25 973c
00000280: eb32 09b9 eb78 8c3d c5d2 e4bc e5df 0e3d
00000290: 031e ce39 14a8 ef3c b856 10bc 2ba6 cbbc
000002a0: 5cac 85bc 28bc 01bd bf9a 3ebd 4699 3e3b
000002b0: 1b1c 763d cf97 913c 7275 a63c 1c46 333d
000002c0: 0233 563d a4c5 ca3c bc03 bcbc 61f5 e13c
000002d0: 731e 8b3b ba6e d6bc f7a3 d6bc 9d4e c4bc
000002e0: 726f 4dbc f56f 053d c11d 91b9 cc7a a4bc
000002f0: 5e7b dd3c 6e54 febc 4eb9 0fbd 8cd9 c83c
00000300: 6d13 a53d 4dce 943c 2787 4e3d 609a 083e
00000310: 5331 5f3d 1fd5 07bd db74 a9bb 4b77 4e3c
00000320: c09b 223a 6301 28bd 5a3c a1bd 62f3 113d
00000330: 0ca4 753c ad5e f1bc 9373 f93b 085c 283c
00000340: b930 173c 464b ba3d 54c3 cdbc 09d3 6d3d
00000350: 542b 02bd 7714 27bc 4119 37bb 176f 453d
00000360: 8249 46bc 63a7 a83c 4e2a 1c3d 64b3 da3c
00000370: 4e68 b7bc f5b9 99bd 526f 853c d3d7 163c
00000380: 3663 9d3d 2f0a 303d 27aa 25bc 54dc 463a
00000390: 871c ee3c 7e33 e03c b7b4 953d cf7d bd3a
000003a0: 2654 ba3c 6332 343d 7e79 ec3d f541 2a3d
000003b0: 9895 34bd 8e69 493d 1711 383d 17b8 f6bc
000003c0: c6bd 0d3d 1e92 333d 78e5 63bd afdb a43d
000003d0: 84e9 cd3a 8b6c c93c 398d 9e3c 2f1a 4f3d
000003e0: 0009 923d 21dc d33c ea67 d73c 2c98 db3c
000003f0: 49e8 92bc 87a7 753d c1a7 eebc adcb 3c3d
0.012709115 -0.053194866 0.0013473314 0.009918297 -0.009493354 0.02688998 -0.030712267 0.03956235
-0.05805069 0.008428967 -0.036223248 0.032736327 0.051791884 0.069889285 0.07395849 0.020523695
-0.017635137 0.028183177 -0.0032685243 0.023498565 0.053656302 0.038905814 -0.01815318 -0.050126035
0.013059808 0.039805178 0.00048075485 -0.009028158 0.011554786 0.043232977 0.046648603 0.06888922
-0.027349332 0.03950028 0.008315357 -0.07633798 -0.013469861 0.037973918 0.017569229 0.026964169
0.05366271 0.0022240642 0.023897836 -0.0014229374 0.031233564 -0.0007094918 0.023875713 -0.01295846
0.027908817 -0.038408738 -0.0043142224 0.040698934 -0.031160107 0.029757764 -0.031386517 0.062636025
0.074374564 -0.007382375 -0.028321328 0.00892109 0.010829625 -0.028061662 0.04192763 -0.041295905
0.035307452 -0.02378763 0.041547857 0.017779209 0.06806018 -0.004714363 -0.028829956 0.025219157
0.018312534 0.027488489 0.07233645 0.008882611 -0.036977533 -0.043458875 -0.010849571 -0.06707609
-0.004159127 0.019805346 0.010001677 -0.028471937 -0.026921216 -0.019739442 0.009716368 0.03325303
0.006250889 0.022664616 0.042013787 0.05063769 0.055940676 -0.014728273 0.057526316 0.047482613
-0.03636767 -0.03309585 0.0044423216 0.0140330475 -0.009288878 0.021007996 0.0012169315 0.021253867
0.014008489 -0.012570023 0.034055978 0.010298461 0.019327337 0.008832735 0.017809121 0.030437374
0.017793009 0.014198499 -0.0051921513 0.01579376 -0.0026930212 0.0155501 0.0077738934 0.0155380955
-0.033395775 0.0039277244 0.00087396137 -0.0076171686 -0.008475642 -0.0220476 0.03901237 -0.06910134
0.021844456 -0.07271527 0.046037484 -0.00018973356 0.027993083 0.007761671 0.022187237 0.05456676
-0.020328082 0.009766367 -0.027137036 -0.003125355 0.05955063 0.016957143 -0.00026924236 -0.010562893
-0.05329793 -0.050017226 -0.010538212 -0.044509273 -0.0348486 -0.011945451 -0.054599177 -0.022824422
-0.032528013 -0.018240403 0.023960292 0.05885908 -0.02967795 -0.015032555 -0.008452191 0.018450525
-0.00013084307 0.06859001 -0.027932534 0.03488149 0.00039313742 0.02925495 -0.008809738 -0.024859508
-0.016317539 -0.03167358 -0.046534296 0.0029083057 0.060085397 0.017772583 0.020319674 0.043768033
0.05229474 0.024752446 -0.022951 0.027582826 0.004245573 -0.026175845 -0.026201231 -0.023963267
-0.012538778 0.032577474 -0.00027678724 -0.020078085 0.027036365 -0.031046119 -0.03508883 0.024517797
0.08060346 0.018164778 0.05042186 0.1334014 0.0544904 -0.033162232 -0.005171401 0.012601684
0.0006203018 -0.041016947 -0.07872839 0.0356325 0.014992725 -0.02946409 0.0076126545 0.010275848
0.009227925 0.090963885 -0.025117554 0.058062587 -0.031779602 -0.01019775 -0.0027938636 0.048201647
-0.012102487 0.020587629 0.038126282 0.026696868 -0.022388604 -0.075061716 0.016288433 0.00920673
0.076849386 0.04297846 -0.010111368 0.0007585932 0.029066337 0.027368303 0.07309859 0.001445705
0.022745203 0.043993365 0.1154661 0.041566808 -0.044087976 0.04917293 0.044938173 -0.030117078
0.03460481 0.04384052 -0.05563876 0.08049714 0.0015709852 0.02458789 0.01935445 0.05056208
0.07130623 0.025861802 0.026294667 0.02680596 -0.017933028 0.05997422 -0.029132726 0.046092678

network_body._body_endoder.seq_layers.2.weight f4 [256, 256]
00000000: 2ae6 aebc 0198 ab3d f678 ff3c 6796 6c3d
00000010: f1cc a0bc 1f37 00be 3750 d1bd 2bb3 943c
00000020: 322e c9bd b7e1 203d d200 92bd d6ea 17be
00000030: 0fe7 8c3d 16a4 0d3d 75ba 403d 8333 c2bd
00000040: 392b d13d 03ea 2f3d 6a25 a33d a808 debc
00000050: 5054 2fbd c9e5 723c 1651 35bd 5d0c 5c3d
00000060: 8913 0c3e 5c8f 24bd 98ad 32bd 70e2 b8bd
00000070: 95c2 c23d d2a8 193e a730 28bd 1bba 60bd
00000080: 84aa e93c 6410 2ebb df2d d0bd 189f c03b
00000090: 3876 a13c 0886 88bd e3b3 a2bd 11dd 64bc
000000a0: d8f0 85bd a40f 163d cf7a 173e 2c8a 243d
000000b0: b05e 7b3d 80af 4cbd a13d e23d 9244 303d
000000c0: e418 ca3c 882b c13c d80c f4bd 9456 69bc
000000d0: 2aa6 6e3b 5d31 28bd fc10 2bbe 55d2 bfbc
000000e0: ce15 3ebd f6de c93c d9d5 0a3e 1670 73bc
000000f0: 0ad8 bb3d a99f d73d fe1e d43c 3be5 443d
00000100: 3d69 a0bb a8d4 123c 08f7 173d 2954 f6bd
00000110: edce 10bc c338 9b3d 7303 4dbd 1611 81bd
00000120: 48e5 48bc c72c f4bd 93a3 52bd 1dff 03be
00000130: a311 1b3a 35b4 a63d 19de 393d d987 21bd
00000140: e981 fe3c 9d7f cebc 7c71 0e3e a58c 9c3b
00000150: 82bc da3d 0962 c8bd 8a00 8e3d 8cb3 78bd
00000160: 97b8 98bc 3f10 e1bd a40c 6bbd 3f2c 573d
00000170: be6f 863b 5353 813d 99d7 673d 6f93 383e
00000180: da31 67bd 7bdd 153e 620d bbbb 5957 f4bc
00000190: a96e 66bd b1ad 423c 9530 293e 2f39 c73d
000001a0: cae8 3e3c 9d35 8bbd 56b4 bbbd 2d9a b33d
000001b0: f286 dc3d 2ef3 103e 7834 abbd 0a49 a3bc
000001c0: e6eb 87bb 77e7 05bd 5fff d7bd 47d0 c93d
000001d0: 1ba5 473c 2f28 c4bc a9e1 01be e0ec 96ba
000001e0: 6e4c 66bd e97d ecbc 4b5e 8cbd 1733 c4bd
000001f0: 9977 a43c bf89 bdbc a035 713b a373 22bd
00000200: e862 a3bd 7cff 953d a295 893c 19b7 1fbd
00000210: df9f 33bd 8557 1cbd 9eb9 763c 1cd7 f13d
00000220: 88bc 3d39 8fc5 9d3d 8f6b 813d 5eb8 acbc
00000230: 336e ee3d 48be 383d ef24 8d3d c130 9c3d
00000240: d36d 84bd 42f2 173e 088f e9bd e39b c63d
00000250: 7d9e d6bc b534 64bb 5c67 26bd cbe6 ebbd
00000260: 7b87 9c3a 3d8f e03c 55a2 723a 52d4 40bd
00000270: 8c27 62bd 86eb 573d 4432 8cbd 86cf 80bc
00000280: 6c41 02bd df31 36bd 04cf 2c3d 8a97 f0bb
00000290: bd15 783d af8f 013e 0199 a2bd a840 063d
000002a0: e2e3 e33c 69cd f03d 5669 803d d481 d03b
000002b0: 85dc b7bd 5fd2 9436 bd9e 223d 5678 8c3d
000002c0: a62d 0d3e 8ce6 703c 8f3d 0cbd e265 b6bd
000002d0: 6a03 823c da28 22be 2687 b63d 241d 3ebd
000002e0: 96f8 3c3e 1321 e1bd 9fbe 56bc c93a c23d
000002f0: 9176 7a3d 4861 273e 0b18 a9bd 2aa7 97bb
00000300: 52bd eabd a8dd 313c b131 673c df9b db3d
00000310: bf35 083c 3367 e3bc bfb8 2abe 4646 cabc
00000320: 76e5 00be 7621 95bd 874e cdbd 71de d1bc
00000330: 1595 99bd 0cfe 76bd d1e4 143e 5dcc 14be
00000340: 6647 b8bc 833f 5f3c 44b4 d1bd b5c7 773d
00000350: e0ba 2a3d d77f 7fbd 9a51 973c f6b2 a4bc
00000360: d3fd c53d 4075 d4bd b3d6 843d 770b 03be
00000370: 6a27 06bd 3bf8 abbd f98f a5bd c40c 57bc
00000380: 47e1 463d 11ed eabd bfdf 2fbe e149 0f3d
00000390: 2fc6 b23d cbdc eabb 28d0 4cbd 7823 20bd
000003a0: 5e3a 79bd a599 ca3d e1e1 6cbd 12cd 6a3d
000003b0: f012 89bd e1e1 89bd 472f 083e 64f7 a13c
000003c0: e845 f8bd 8c87 813c b672 98bd e80e ecbb
000003d0: 73ca 44be b9ce 1dbc 77c6 acbd b7a5 973d
000003e0: 6397 87bd 8ec5 18bd c620 a53c 9f12 3a3d
000003f0: a526 d5bb b56e 223d 7830 05bd b9c4 a7bc
-0.021349985 0.08378602 0.031185608 0.057760622 -0.019628974 -0.12521027 -0.10220378 0.01815184
-0.09823264 0.03927776 -0.07129063 -0.14835677 0.068800084 0.034580313 0.04705282 -0.09482481
0.10213322 0.04294778 0.079661205 -0.027103737 -0.042805016 0.014825293 -0.044266783 0.053722728
0.13679327 -0.04017578 -0.043622583 -0.090275645 0.0950977 0.15005806 -0.041062023 -0.054864984
0.028523691 -0.0026560063 -0.10164999 0.0058783405 0.019709691 -0.066661894 -0.07944467 -0.013968722
-0.06540078 0.03663601 0.14792942 0.040170833 0.061369598 -0.049972057 0.11046911 0.043034144
0.024670072 0.023580328 -0.11916512 -0.014241833 0.003641496 -0.0410627 -0.16705698 -0.023415724
-0.046407513 0.024642449 0.13558139 -0.014858266 0.091720656 0.105285 0.025893684 0.048070174
-0.004895358 0.008961834 0.03710082 -0.12027771 -0.008838397 0.07579186 -0.050052118 -0.06302087
-0.012261696 -0.11922603 -0.051425528 -0.12890287 0.0005915409 0.081398405 0.045377824 -0.039436195
0.031067805 -0.025207335 0.13910478 0.0047775083 0.10680486 -0.09784324 0.069336966 -0.060718104
-0.018642707 -0.10989427 -0.057385102 0.05253243 0.004102676 0.06314721 0.056602094 0.18024991
-0.056444027 0.1463527 -0.0057083825 -0.029826807 -0.056257877 0.011882232 0.16522439 0.09727704
0.011652181 -0.06797335 -0.09165256 0.08769641 0.10767926 0.14155266 -0.08359617 -0.019932289
-0.0041479943 -0.032691445 -0.10546755 0.09854179 0.01218536 -0.023944942 -0.12683739 -0.0011514686
-0.056225233 -0.028868632 -0.068539225 -0.09580057 0.02007656 -0.023136972 0.0036805645 -0.03966106
-0.07977849 0.073241204 0.016794983 -0.038992975 -0.043853637 -0.038169403 0.015058903 0.11808607
0.00018094678 0.07703697 0.06319343 -0.021084007 0.116421126 0.04510334 0.0689181 0.076264866
-0.0646626 0.14838508 -0.11404234 0.09697702 -0.02619862 -0.0034821455 -0.040625915 -0.1151863
0.0011942232 0.027412051 0.0009255757 -0.047077484 -0.055213496 0.052714847 -0.06845525 -0.015723955
-0.031800672 -0.044481155 0.042189613 -0.0073422836 0.060567606 0.12652467 -0.079393394 0.032776505
0.027818624 0.11757929 0.06270091 0.006363133 -0.08977608 4.435234e-06 0.039702166 0.0685889
0.13786945 0.014703404 -0.034238394 -0.08906151 0.015870769 -0.15835896 0.08912496 -0.04641451
0.18454203 -0.109926365 -0.013106971 0.09483869 0.06114823 0.16345704 -0.08256539 -0.004628082
-0.11461891 0.01085607 0.014110968 0.107230894 0.008313595 -0.02775917 -0.16672038 -0.024691712
-0.12587532 -0.07281773 -0.100247435 -0.025618764 -0.07499138 -0.06030087 0.14540412 -0.14531083
-0.022494983 0.013625982 -0.10239461 0.06049319 0.041682124 -0.062377777 0.018471528 -0.020104866
0.09667554 -0.10373926 0.06486263 -0.12797342 -0.032752432 -0.083969556 -0.08084101 -0.013125602
0.048554685 -0.11470998 -0.17175196 0.034982566 0.08729207 -0.007167434 -0.0500032 -0.039096326
-0.06084668 0.098925866 -0.057832602 0.057324477 -0.06693065 -0.06732536 0.13299285 0.019771285
-0.121227086 0.015811704 -0.074437544 -0.0072039254 -0.19217853 -0.009631806 -0.08436292 0.074046545
-0.066206716 -0.037297778 0.02015723 0.045427915 -0.006504851 0.03965636 -0.032516927 -0.020479547

network_body._body_endoder.seq_layers.2.bias f4 [256]
00000000: 1aa3 083c f17c 38bc dc91 9e3c 41a4 033d
00000010: c453 823d 3fac b23c e790 343c 78a5 913c
00000020: bae9 363d ba9f f93c 75eb e13b 5af4 10bd
00000030: f662 3bbd 8b5a d13c 7382 f2bc ba51 2ebc
00000040: acdb 063c 499f b33a 5a86 9a3d 597e f53c
00000050: ea07 56bb a02e 2e3d c0f8 883c d48b 583b
00000060: 6a0f f9bc 4a6d f3bb e6e7 b03c 5565 303d
00000070: b1bc 9ebd 1758 753b 1ce1 1a3c 3342 e13c
00000080: 798c 68bc 5f21 83bd 8bb2 12bd dcc5 1f3d
00000090: 01e6 52bd 1e56 da3c f7d2 5abd f06e 743d
000000a0: 4390 8bbd e474 a0bd cf5e d53c e2a9 d13c
000000b0: c210 763c 8e40 76bd 7983 1c3d 6ff8 d03c
000000c0: 7400 f4bc b93c 013b ae0c 803d 978c c6bc
000000d0: 71eb 413c 3ae9 b9bc 25ff a23c 498e ce3c
000000e0: 71ac 7d3d 8e6a b53a c9ce 62bd 08f4 0cbd
000000f0: df90 1d3c 0a57 8d3b 8519 a93b 1e62 acbb
00000100: 55de 0cbd d4d2 123c fe81 15bd addc 8fbb
00000110: f662 e7bc 55a9 853d 33ee 6d3c d6dc 0abc
00000120: 2b6e 073d d402 d43c 5c3e 263b d9f8 c93b
00000130: 5442 ff3c 01d2 2ebc db32 743c b94f 7e3c
00000140: 71c9 debc eace 8ebc 68f0 1e3c 83ae 013c
00000150: 6630 913c fcb9 f83c 95c1 1cbd 3aa0 8f3c
00000160: 1ef7 bfbc b30d 1b3b d46f 30bd cfec e7ba
00000170: 263a 933d cdb8 b6bc b24f 25bb 329a 3bbb
00000180: 758b e13c b8a7 9a3c 46ba 303a 215a 2f3d
00000190: 8fa2 b13c 483f 42bc be11 b5bc 384c 1d3d
000001a0: f5cd 1d3b ddab 123c 9584 063d e1f1 533b
000001b0: 160a 823c bb86 283b d389 023d 2bd4 463d
000001c0: e5bf cbbb d0c0 9d3c 8b84 6e3d 8385 46bc
000001d0: e900 c0bc 2866 8cbd 3fa5 87bc 7fb1 b3ba
000001e0: 6ba1 afbc 08cb 68bd 19d5 a4bc 7d06 5f3d
000001f0: 083a da3c 7580 4ebc 6d96 d33c cf03 ca3c
00000200: 2171 403d 4058 a03d e6d2 13bc 8822 6fbc
00000210: e1de a53c df7d 00bd e182 433d d71b 22ba
00000220: 54aa 82bb e70c 943c b7e8 fc3b 7568 823d
00000230: 0b23 723c 6a4f 613d fc67 183c 751b 083b
00000240: 2a81 983c 142e fc3b dd5d 27bc 290f 043c
00000250: 5872 6f3d 7e57 4c3d e81b b1bb 00c9 323d
00000260: 0ba2 0e3d dd38 fbbb cade 87bc eafd 9f3d
00000270: 9d7d ab3d e931 e4bc 02b8 933b bf00 c23c
00000280: 7797 81bd 574a 06bd e657 a93b 4415 7fbc
00000290: 2545 0e3d 85e6 c53c 6187 b93c 7116 2e3c
000002a0: da3b 743c 1c13 e539 e43a f7bc 3565 053c
000002b0: 1326 b33d 61cf 9e3a 08a9 2b3d 05f0 e33b
000002c0: 05e3 69b8 2176 d6bc 99b2 80bc 5007 21bc
000002d0: 613a 5e3c 0450 babb 9620 6f3d 7b5e 0c3c
000002e0: 7f5f bc3b ee45 b9ba b1b7 a53d 2268 8c3d
000002f0: ac1c af3c 90b2 97bb ea91 87bc 13cf 6c3d
00000300: 61bc 5f3d dbc5 bcbc 352b da3d eb60 05bd
00000310: 66d8 3a3d 2640 833c 8814 433b 956a 56bc
00000320: a112 c63c 94a4 fa3c 2d7b 783c 2960 713d
00000330: cbca 953d 7c28 653d 68e0 c8bb 5728 01bc
00000340: 27f9 af3c a52e 7a3c 4268 d93c dc82 0abc
00000350: d532 603d bbb9 263d 1912 153d 4670 64bc
00000360: 9f17 0abc d20a 0cbc 237f 533d 2e67 493d
00000370: d535 463d 8dbd 303d b352 623d c7fb 02bd
00000380: ffae 6d3c 95a8 6abc 0f0c 543b c097 50bd
00000390: 671b b5bb 6891 a1bc 1e35 653d 50be 093d
000003a0: 0b36 0c3b 2cab dc3c 8eda b63d 7f1d 5abc
000003b0: 2c8d da3c edbe d13c b711 17bb 2022 02bd
000003c0: dbfc 123d 7610 d3bb eadb 223d f428 5d3c
000003d0: 54b6 ab3a db28 0dbb 757b e1bc 07b4 033c
000003e0: 5f7c 45bd a364 0abd d0de 0a3d 31fc 8cbd
000003f0: 0b80 d23c 2688 53bc 7b04 d9bb 8ece 723d
0.008339668 -0.011260257 0.01935666 0.032139067 0.06363633 0.021810649 0.011020876 0.017779097
0.044656493 0.030471671 0.0068945237 -0.03538928 -0.045748673 0.02555587 -0.029603219 -0.010639602
0.008231085 0.0013704087 0.07545157 0.029967474 -0.0032658526 0.042524934 0.016720176 0.0033042328
-0.030402858 -0.0074287998 0.021594953 0.043065388 -0.07750834 0.003743654 0.009453084 0.027497387
-0.014193648 -0.064028494 -0.035814803 0.039007053 -0.05148888 0.026652392 -0.053423848 0.05967611
-0.06814625 -0.07834795 0.026046185 0.025593702 0.015018644 -0.060120158 0.03821132 0.025509087
-0.029785372 0.0019720031 0.062524185 -0.02423696 0.011835919 -0.022694219 0.019897053 0.025214331
0.06193203 0.001384096 -0.055372987 -0.034412414 0.0096170595 0.0043133544 0.005160513 -0.00526072
-0.03439172 0.008961398 -0.036500923 -0.0043903203 -0.02824543 0.06526438 0.014522123 -0.008475503
0.03306405 0.025880255 0.002536676 0.006163698 0.031159557 -0.010670186 0.014904703 0.015521937
-0.027195664 -0.017432649 0.009700872 0.007915142 0.017723273 0.030362122 -0.03827055 0.017532457
-0.023433264 0.0023659288 -0.043075398 -0.0017694476 0.07188825 -0.022304917 -0.0025224504 -0.0028625843
0.027532319 0.018878803 0.0006741624 0.042810563 0.02168396 -0.011855908 -0.022103187 0.038402766
0.0024079059 0.008952108 0.032841284 0.0032340216 0.01587395 0.0025715071 0.03186972 0.048542183
-0.006217944 0.01925698 0.05823187 -0.012116793 -0.023437934 -0.06855422 -0.016558288 -0.0013709514
-0.021439275 -0.05683425 -0.020121144 0.054449547 0.026639 -0.012603869 0.025828565 0.02466002
0.046982888 0.07829332 -0.00902245 -0.014595635 0.020247879 -0.03137004 0.047732238 -0.0006183958
-0.00398759 0.018072559 0.0077181715 0.0636758 0.014778863 0.055007376 0.009302136 0.0020768319
0.018616278 0.0076959226 -0.01021525 0.008060255 0.058458656 0.049888127 -0.005404938 0.04364872
0.034822505 -0.0076666907 -0.016585726 0.07812102 0.08373568 -0.02785583 0.0045080194 0.023681996
-0.06327718 -0.03278574 0.005167949 -0.015569035 0.03473391 0.024157772 0.022647562 0.010625468
0.014906848 0.0004369252 -0.030179448 0.008141805 0.087474965 0.0012116247 0.041909248 0.006956103
-5.5762957e-05 -0.026179375 -0.015710162 -0.009828404 0.013563723 -0.005685808 0.058380686 0.008567448
0.0057486887 -0.001413522 0.08091677 0.06855799 0.021375977 -0.0046294406 -0.01654907 0.05781467
0.05462301 -0.023043564 0.10652772 -0.03256313 0.04561653 0.0160218 0.0029766876 -0.013086935
0.024178805 0.030596055 0.015166086 0.058929596 0.0731407 0.055946812 -0.006130267 -0.007883153
0.02148111 0.01526991 0.026538972 -0.008454051 0.054735977 0.04070447 0.036394212 -0.013942784
-0.008428483 -0.008547502 0.05163492 0.049170665 0.048391182 0.04314952 0.05525465 -0.031978395
0.014507054 -0.01432242 0.003235582 -0.05092597 -0.0055269483 -0.019722655 0.05595886 0.03362876
0.0021394517 0.02693709 0.08928405 -0.0133126965 0.026678644 0.025603736 -0.002305133 -0.031770825
0.035885673 -0.0064411713 0.039760508 0.0134985335 0.0013100603 -0.0021539244 -0.02752469 0.008038527
-0.048214313 -0.03378738 0.033903897 -0.06884039 0.025695821 -0.012910878 -0.0066228486 0.059279017

network_body._body_endoder.seq_layers.4.weight f4 [256, 256]
00000000: 7f0f dcbc d004 a43d 8d80 a0bd 21d4 cfbd
00000010: af97 8cbc 4870 21be 0779 15bd b490 003d
00000020: 5828 47bd e146 4abd 2352 86bd db23 79bd
00000030: 8c59 88bd 9a7e b0bd 6edf 91bc 20b3 703d
00000040: 90c1 a9bd 5816 993c 2045 48bc 6b6d 803d
00000050: ced0 43bd 6421 48bd 650b 1ebc 352b e63d
00000060: 5421 b23d d74f 523c 2cb7 383d bd06 463d
00000070: b8d7 a23d 58ef 9abb c4b2 4ebb fd88 223d
00000080: c4c9 e3bc 622f 56bd 2c82 febd 6a9a b9bc
00000090: 9bb4 02bd d199 1dbe d346 fb3d 291d 1e3d
000000a0: 9c57 7b3d 06e0 143e 70b0 a63c 0f4e 13bd
000000b0: d308 52bd 9560 38bd 99ea cdbc 73ea 5fbd
000000c0: 5a1e 80bd e208 25bd 873c 243d 0ddd 943d
000000d0: 0dff 8e3c d649 333d ea3a c83d 1d17 88bd
000000e0: bc40 dabd 9503 9abd ff3b a03d 5b5c 85bd
000000f0: cd85 2c3d cb3e d6bc 71d4 993c b005 873d
00000100: 0d4c fbbd 7d45 00bc 214e 11be ea2d d6bd
00000110: a0d3 b03c 2cb0 d3bd b763 05bd f511 063e
00000120: aa27 d43b 79ff 30bd 9154 c83b 9acb 853d
00000130: d621 28bd 93cd edbd d198 ab38 d11a 923d
00000140: 42ac cd3d 0336 423e b04a a83c 3929 873b
00000150: 6260 f43c 0b72 3ebd 0d67 9fbd 1095 3e3c
00000160: 4193 523a 27e7 5e3d 07eb f13b f11a babd
00000170: 8673 3b3e 9e03 94bd 8eac 38bd bd7f ed3c
00000180: 5fc0 d23d bd27 dbb9 9cb9 20bd 1c56 363d
00000190: da10 c23c e6ba a63d 10e5 673d c834 8a3c
000001a0: 8513 bd3d 8222 9ebb 7289 b9bc 2852 fe38
000001b0: b79b df3b eaa0 023e f3d5 cf3c cbda 113e
000001c0: 042b 033c 4e92 003e c874 d33c 6d84 b3bd
000001d0: 6fea 593c f68a 623c b1bd 8dbd 5aa9 e8bd
000001e0: 1c11 883c a16e 573d 7780 adbd a2fe 823d
000001f0: d90f 0b3d daeb 2a3d f62d c03d 5df5 ae3d
00000200: ae20 bb3d c94f 143b de21 02bc f083 6a3d
00000210: 76ea 52bc 78ca 223c eafd 61bc 12bd c7bd
00000220: 0f47 bb3d 076e 673d 8614 3fbd 924f 62bc
00000230: 2311 f73d a3fd c13c b104 1fbe df74 a13c
00000240: a50b c3bd bbf0 5dbd e913 6e3d f9da ca3d
00000250: 8467 d6bc 217b a43d b816 abbd 497b 823d
00000260: 088d bbbc 16ae 3e3d f7be f7bc 698f 7dbd
00000270: 1c79 b13d 86a7 88bd 68d5 a53c de8f e8bd
00000280: a7dc 2d3e 1412 05be 93d8 6d3d 8627 61bd
00000290: 8298 07be e51e e73d f8a8 3c3c b655 02be
000002a0: 540a cdbb cb36 47bb d563 e8bc cce8 71bd
000002b0: 7f03 90bd 9d8d 933d e62c ce3b a14d 63be
000002c0: af24 99bd d9da 773d b0d3 2fbd 237b 733c
000002d0: a5b9 74bd abff 2f3c aba4 0b3d 0b1b 6abd
000002e0: 9ad5 cb3d 8914 383d c30f 443d b456 2b3e
000002f0: abde 0439 f835 803d 3574 46bd 610f 953d
00000300: 4e49 0fbd ce42 02be 0dfd 25bd 3492 03bc
00000310: 35ec e03d 7d1e babd adaa 983d 876e 433b
00000320: 8c64 9fbd bbe2 e03b 34cb 57b9 afaa 383c
00000330: 2486 f5bc e2b1 0fbe 5b06 1ebc ff68 a23d
00000340: 6d4a 49bc f0b8 1dbe f068 b2bd 2462 123d
00000350: e57d 65bd 6c13 c93d a7b4 f5bd b7ec 603d
00000360: 5c53 c4bd e00d a73c 0faa 3bbd c679 86bd
00000370: af88 183d 87e0 fcbb 6a64 f23b b55b c53c
00000380: a2c3 9dbd 86c6 953c f1c3 a3bb 2160 2dbd
00000390: 2f53 b5bd 6e03 debc 4dd4 24bd 919e 203d
000003a0: 983d ce3d 7827 91bd 49de 6e3d 8d3c 1d3c
000003b0: 836c 0e3d 4640 ef3d b141 a0bc 3089 a7bd
000003c0: 2da5 853d 8901 14be 2678 b43d e5cc 673d
000003d0: ba42 403d 61e4 163e 90ec b5bd 7c9b 6abd
000003e0: 1def 4ebc 05f6 10bd 9102 52bd d703 adbc
000003f0: b4d0 e23a 0b09 11bd 9f99 893d 5cf8 653a
-0.026862858 0.080087304 -0.07837019 -0.10147882 -0.017162172 -0.15765488 -0.036492374 0.031388
-0.04862246 -0.049384 -0.06558635 -0.06082521 -0.06657705 -0.08617897 -0.017806735 0.058764577
-0.08288872 0.018687412 -0.012223512 0.0627087 -0.047806554 -0.04885997 -0.009646271 0.1123871
0.08697763 0.012836418 0.04509656 0.04834627 0.07951301 -0.004728239 -0.0031539658 0.039681423
-0.02780617 -0.05229128 -0.12427172 -0.022656638 -0.03191052 -0.15390708 0.12269368 0.038602028
0.061362848 0.14538583 0.020347804 -0.035963114 -0.051277947 -0.045013983 -0.025136279 -0.054666948
-0.06255789 -0.040291674 0.040096786 0.072687246 0.017455602 0.043771587 0.09776862 -0.066450335
-0.10656878 -0.075202145 0.07823943 -0.06511756 0.04211979 -0.026152989 0.018778058 0.06592882
-0.12270365 -0.007829067 -0.1418996 -0.10457976 0.021585286 -0.103363365 -0.0325658 0.13092788
0.006474455 -0.043212388 0.0061135967 0.065329745 -0.041047893 -0.11611476 8.18238e-05 0.07134021
0.10042621 0.18965916 0.020543426 0.004124787 0.029831115 -0.04649548 -0.07783327 0.011632219
0.0008032807 0.054419663 0.007382754 -0.0908717 0.18305787 -0.072272524 -0.045086436 0.028991574
0.10290598 -0.00041800542 -0.03923951 0.044515714 0.023689676 0.08141117 0.056614935 0.016870871
0.09232239 -0.004825891 -0.022648547 0.000121269666 0.0068239826 0.12756696 0.025370574 0.14243619
0.008005861 0.12555811 0.025812522 -0.087654926 0.013300522 0.013827076 -0.069209464 -0.11360426
0.01660972 0.05259574 -0.08471768 0.063962236 0.03395066 0.04172883 0.09383766 0.08542893
0.091370925 0.0022630563 -0.007942645 0.05725473 -0.012873283 0.009935968 -0.013793448 -0.09752859
0.09144413 0.056501415 -0.046650432 -0.013812916 0.120638154 0.023680514 -0.15529133 0.019709049
-0.095237054 -0.054184657 0.058124457 0.09905047 -0.026172407 0.080312975 -0.08353943 0.06371171
-0.022894397 0.04655274 -0.030242426 -0.061904345 0.08665678 -0.066725776 0.020243362 -0.113555655
0.16978703 -0.12995178 0.05806787 -0.054969333 -0.13241771 0.112851895 0.011514895 -0.12728009
-0.0062573347 -0.003039765 -0.028367916 -0.059059903 -0.07031917 0.07204745 0.0062919734 -0.22197582
-0.074777 0.060511444 -0.04292649 0.014860901 -0.059747357 0.010742108 0.034092586 -0.057154696
0.09952851 0.04494146 0.047866594 0.16732293 0.00012671451 0.06260294 -0.048450667 0.07278324
-0.03498202 -0.12720796 -0.04052453 -0.008030463 0.10982553 -0.090878464 0.07454429 0.0029820518
-0.0778285 0.006862966 -0.00020579697 0.011271163 -0.02997119 -0.140327 -0.00964507 0.07930183
-0.012285811 -0.1540258 -0.087114215 0.035738125 -0.056028266 0.098181576 -0.11997347 0.05491325
-0.09586212 0.020392358 -0.045816477 -0.06566195 0.037239727 -0.0077171954 0.007397224 0.02409158
-0.077033296 0.01828314 -0.0049977233 -0.042328004 -0.08853757 -0.027101245 -0.04024153 0.03921372
0.10070342 -0.07087606 0.058317456 0.009596956 0.034771454 0.11682181 -0.019562574 -0.08180463
0.065256454 -0.1445371 0.08811979 0.056591887 0.046938635 0.14735557 -0.08883011 -0.057277188
-0.012630251 -0.035390873 -0.05127198 -0.021119995 0.001730463 -0.035409015 0.06718754 0.0008772665

network_body._body_endoder.seq_layers.4.bias f4 [256]
00000000: 04ac 9fbb 75a5 db3b d13a 683d bfb0 733d
00000010: df28 463c b16c 623d 726a b23b 880c 533c
00000020: bd53 54bc 7104 a13c 117f 8c3c dbb9 633b
00000030: f9d1 343d 28ed fbbc 0236 9d3d 9244 4a3d
00000040: 103d c1bc 2bc8 183d 26d8 df39 7ca5 1a3c
00000050: 2cfc 923c d651 553c 09f7 253d bf18 763b
00000060: 9f96 f73c cdaa ac3c 5520 92bd 2366 093d
00000070: 4cef 943b 6ebd 853d 0fcb a83c b1f4 9f3c
00000080: 518d 363d 71f1 833d 9368 413d 9c6f 7c3c
00000090: 225c b03c 4394 93ba 76ba 1a3d 6942 223b
000000a0: d9c3 7b3c d380 f93c d25c 3d3c 910c 973c
000000b0: 64ae 113c e5a7 ef3c ee54 bbbb a859 07bc
000000c0: 20fc 023d 56f6 9dbb d477 193d 25b9 ff3c
000000d0: 609e 72bb c3ba b03c 9360 13ba edb9 403d
000000e0: 86de 003d 58ff 053d f26d b63c 35f0 df3c
000000f0: a391 213c 8ca0 9139 1eda d6bc 38f3 a0bc
00000100: ee3e 76bc 8e26 913b d9b9 2dba 9d1e ddbc
00000110: 0455 113d 7733 0abc d511 8cbc 8385 b43c
00000120: 86c9 863d 2764 cc3c 95f7 59bc 66d3 f23c
00000130: 3da7 083d ae45 1c3c 38e5 d23c 30c4 1ebc
00000140: 3f39 393c bf5f 5c3c e70f 6d3c 5b6f f53c
00000150: b306 883d 6c10 89b9 8437 493c 4bbd bf3c
00000160: b04d 383b 8806 013d 5562 80bc b71b 203c
00000170: a86b 313c a5b7 013d c268 babb 7c69 b93c
00000180: 7f97 a43d fad0 babc bf91 263d af65 123d
00000190: e125 aa3c 0a85 883c 38df 063b 3743 4e3d
000001a0: 727e 8e3c 7055 aa3a 6e9a 933d 0577 b73c
000001b0: bae6 3f3d 3b71 473d 5b00 943c 407c 70bb
000001c0: 0bd7 6c3d a41e 3d3c d406 6ebb 72e8 55bb
000001d0: 0eb8 dc3c 499e b13a c2ed 38bc 36c5 603c
000001e0: ada5 7a3d 43d3 583d c5c2 6e3d 32cb a93c
000001f0: 54eb 0a3c 7e3c 9e3d c822 6d3c fa7d 6d3c
00000200: 463c 843b 016b dcbc f51e af3c 4232 0e3d
00000210: 17e9 9d3c 7be9 46bc 491e 633d ac5b b7bc
00000220: 641d 643c 5806 283d 925e 193d 73f4 f63c
00000230: 2b5a 5a3b 0ce4 033d 34fd 14bd e9b0 3d3c
00000240: bc54 253c ca59 9f3b c6c8 2c3d 3eaa 173d
00000250: 05bd 8b3d ec8b 7d3d 3ccf d53c dedf 49bc
00000260: d7fb ba3c 5acd 053c 2b02 8d3d 5a1c eebb
00000270: 752c bd3d 0ff7 1f3d bb24 df3c 6289 853c
00000280: 835d 9e3d bdd4 1f3d c3ba 313d 3bf6 ce3c
00000290: a959 ac3c 551f 653d bbec 0cbd 8a45 3fbd
000002a0: 5690 6e3c bc96 fc3c e0f2 9c3c 5888 5a3c
000002b0: 9f45 243d 93ab 8f3c 3514 033a fa33 3f3c
000002c0: 4008 7a3c 3a6e 29bd 1c47 b7bc 7865 4b3d
000002d0: 7651 4b3d 08b5 063d 7bfa 583d bf10 0ebc
000002e0: be1a 323d d493 583d 74af c83c cc17 3c3d
000002f0: d190 5e3d 3d13 803d 7eaa c93b 22f8 e73c
00000300: b987 613c e2ff 0e3d 5524 dbb9 5262 95bb
00000310: 5bec a23c 759a 483d de72 63ba c4d9 d23c
00000320: 063c 943c 286b cc3c 02fd 943b 1029 823c
00000330: 9e8f 823c 7f10 c73d 95c5 803c 73e9 3fbb
00000340: 4f07 e13c def1 5c3d e439 b83c 10a9 dd3c
00000350: c146 c73c 3df1 733d 7552 103d 3527 8e3d
00000360: 0000 ea3c 48a2 b9bc ee06 ef3c 6814 393d
00000370: b07a 273d 5c21 453d 26cd 563d aa8c 2b3d
00000380: 327d b0bb f263 a738 211b bdb8 b9ba 6abc
00000390: 3d42 333d 33cc 6a3c f866 113d 449f 593d
000003a0: fc83 3c3d f446 243c d4b5 923c cc1e d63c
000003b0: eca9 1a3d f1f4 b83c b6a6 fa3c 349e b13c
000003c0: 48fd 0a3d 1848 513d 13ff 533c 17ef 9e3c
000003d0: 870e b43b 1e0e 013c f44b e5bb c5d8 9b3d
000003e0: a5df 913c 3bcd d0bc 071c 0b3d 8e20 ae3b
000003f0: 00f9 653c 243b b73c 21f4 ef3c 2522 1c3d
-0.004872801 0.0067030736 0.056696717 0.05949473 0.012094705 0.055279437 0.005444818 0.012881406
-0.012959418 0.019655438 0.017150434 0.003474823 0.044145558 -0.030752733 0.07676317 0.0493818
-0.023588687 0.03730027 0.00042694918 0.009438869 0.01794251 0.0130199995 0.040518794 0.003755137
0.030223189 0.021077538 -0.07135073 0.03354467 0.004545128 0.065302715 0.020604638 0.019525858
0.044568364 0.06442536 0.04721887 0.015407469 0.021528307 -0.0011259395 0.03777548 0.0024758822
0.015366518 0.030456936 0.011557775 0.01843861 0.008891676 0.029254863 -0.0057169115 -0.008261122
0.031978726 -0.0048206253 0.037467793 0.031216213 -0.0037020668 0.02157343 -0.00056219957 0.047052313
0.031462215 0.032714218 0.022269223 0.02733622 0.009861383 0.00027776172 -0.026227053 -0.019647226
-0.015029652 0.004429645 -0.000662712 -0.026992137 0.035481468 -0.008435122 -0.017098347 0.02203632
0.06581406 0.0249501 -0.013303657 0.029641818 0.033362616 0.009538097 0.025744066 -0.009690329
0.011305152 0.013450562 0.014469123 0.029960325 0.06641903 -0.00026142912 0.012281302 0.023405692
0.0028122477 0.03150037 -0.015671888 0.009772233 0.01082889 0.031669278 -0.0056887576 0.022633307
0.08036708 -0.022804726 0.040666338 0.035741504 0.020770015 0.016665 0.0020579826 0.05035707
0.017394278 0.0012995433 0.072071895 0.02239562 0.046850897 0.04869197 0.018066576 -0.0036695153
0.05782227 0.01154295 -0.0036319988 -0.003263977 0.026943233 0.0013551201 -0.011287155 0.013718894
0.061193157 0.05293585 0.058291215 0.020726774 0.008478958 0.07726382 0.0144736245 0.014495367
0.0040355055 -0.026906492 0.021377066 0.0347159 0.019276185 -0.012140627 0.055448804 -0.02238258
0.013923023 0.041021675 0.037443705 0.03014586 0.0033317904 0.032199904 -0.036374286 0.011577823
0.010091003 0.0048629986 0.04218366 0.03702759 0.06823162 0.061901018 0.026099794 -0.0123214405
0.022825165 0.008166635 0.06885179 -0.0072665634 0.09236995 0.039053973 0.027239194 0.01630086
0.0773268 0.039021242 0.043391 0.025263896 0.021038847 0.055938084 -0.03440545 -0.046697177
0.01456078 0.030833595 0.01915878 0.013338171 0.04010546 0.017537868 0.00050002645 0.011670107
0.015260756 -0.041364886 -0.022372775 0.049657315 0.049638234 0.03288749 0.05297325 -0.008670985
0.043482535 0.052875355 0.024497725 0.045921132 0.054337326 0.062536694 0.0061543575 0.028316561
0.013765269 0.034911998 -0.00041798005 -0.00455884 0.019888094 0.048975427 -0.00086764793 0.025738604
0.018095028 0.02495344 0.0045467624 0.01588872 0.015937623 0.09719943 0.015719214 -0.0029283434
0.027469305 0.0539416 0.022488542 0.027058154 0.02432573 0.059556235 0.035234887 0.06941072
0.028564453 -0.02266039 0.029178109 0.045185477 0.04088849 0.048127517 0.05244174 0.041882195
-0.005386018 7.981797e-05 -9.0172754e-05 -0.014326745 0.04376434 0.014330911 0.03549859 0.053130403
0.046024308 0.010026682 0.017908968 0.026137732 0.037759706 0.022577735 0.030597072 0.021681882
0.033932954 0.051094145 0.012939232 0.019401116 0.005494896 0.007876901 -0.0069975797 0.07609705
0.017806837 -0.025488487 0.033962276 0.0053139394 0.014036417 0.022367068 0.029291214 0.0381185

action_model._continuous_distribution.log_sigma f4 [1, 9]
00000000: 7d58 78bd 75c0 323d bbdc bbbc e675 48bd
00000010: eeaf e9bd 89f0 893c 993d 033e 3060 1e3e
00000020: ecef c53d
-0.060631264 0.043640573 -0.0229324 -0.04894056 -0.11410509 0.016838329 0.12816466 0.1546638
0.09664902

action_model._continuous_distribution.mu.weight f4 [9, 256]
00000000: 07fc 443c fb8a e3bc 293d 2abc e8be c23b
00000010: f5c3 f83c 0073 2d3d 2d60 75bd 1c1b f0bc
00000020: 122d 1f3d c72c a2bc 85e4 653c 9cd7 59bd
00000030: c70e 90bd bac4 7c3d 12ec 153d 24f5 e83c
00000040: 9a4d 933c 3cbd 5fbb 4ca3 3dbd 4fbb 633d
00000050: 8003 38bc c2dd afbc 3f41 1ebc f055 aebc
00000060: a7bd bd39 709a 92bd 84ea 63bc 4bd4 90bd
00000070: a390 5a3c dff7 193c 447e 0cbd 9e73 a1bc
00000080: 00b8 5ebc 7fa9 88bc 2a4c 393c b321 2cbd
00000090: 2b72 6dbc 03eb 133d 12af ebbb cb17 a1ba
000000a0: 9e9a 28bd 2914 163d 336c dabc 2b5f e83b
000000b0: 5da6 183d 446a b33c d6b0 6c3d b91d a43c
000000c0: 751b 50bc 6fc8 a03b ad12 49bd 4f0d 1c3d
000000d0: ac5c 4b3c 35a5 cabd 5e02 b9bc be77 5abd
000000e0: 434b 0abd bb93 9ebd eedb 34bd ac9f a53c
000000f0: 48dd 843b 839b 693c d531 32bd a268 b4bc
00000100: 40d4 5c3d 46b8 c1bd 31d7 b23c 641b 8bbd
00000110: c29c be3d 91c4 b7bc f91a 90bc 3c15 e9bc
00000120: 9526 5b3c 3538 0cbd b515 cdbd 2cf0 153d
00000130: 9e72 7f3d 41ea 013d f026 06bb 00e1 bb3b
00000140: 4edd 033d 45f9 6a3d 8eaf bb3c 6636 ba3c
00000150: 7c57 ef3c dc8c 96bd b0d1 cebc d091 e9bd
00000160: a377 8fbd 686f a23b f7d5 34bd 4910 77bd
00000170: a5fa a53c 0e8b b03c c7f4 ad3b 3c21 74bd
00000180: e04d 9f3c d568 993c 1ce2 313d 669b 04bd
00000190: 7fe1 47bb d739 0dbd d8e4 273c 2f73 b13d
000001a0: 9e77 3d3c 5709 ec3c d399 a43b 61e4 60bd
000001b0: c0cc ecbc 4927 113d e172 1bbd 2b40 043d
000001c0: ff5a b83c ae3f b4bb 0769 c43d a82c b33b
000001d0: 79f0 03bd 1666 383d 8ad0 bd3c 158b 8d3c
000001e0: f0f0 5dbd b9cb a3bd 39ce b13d 62ec 213d
000001f0: e23e b53b 715e e9bc 4535 283c 7b49 673d
00000200: 6d95 3cbd 243c aa3d d4de 7dbd 4823 543d
00000210: 88e2 37bb 3b5e 933c dd45 35bc 593c 84bd
00000220: e367 15bc c3c6 29bd 60be c63d e4e9 f23c
00000230: 7e1f 53bd 6303 81bd 938d c4bc d80d 0a3b
00000240: ca69 c93b 809d 11bc b9e0 eb3c 130b acbd
00000250: ea09 673d ff55 943c 1af1 f9bc fb90 493d
00000260: add7 c63d b177 cc3c 6ac7 563d dbb7 7bbd
00000270: 7991 c33c e9fb eabb bd60 0a3d 19d0 b83d
00000280: 8d0e 42bd 5bd8 563d 092e f13c d61d adbc
00000290: 19d5 093d 205d 51bd 8ca3 8ebd fda9 853c
000002a0: 0114 fabc 1a38 c1bc 8295 a2bc 623b 923c
000002b0: bff2 92bd 8da9 453d 1ef5 aeba ec8a cd3b
000002c0: 18fc 2d3d 6629 adbc ce96 ea3c 3815 143c
000002d0: 0618 943c 2074 d33d cef6 81bc 40a5 433d
000002e0: e571 92bc a985 71bc bdc0 0e3d 867f 0d3d
000002f0: c489 4939 a3c4 e5bc 564b 433d f3c1 9ebd
00000300: 765c c3bb 9436 183d 8046 76bd 5c30 00bd
00000310: e090 853b ed93 5cbc 3f8a a8bd 9d1b 44bd
00000320: 9768 b2bc 755f 423d 380c 343b 5a10 5d3c
00000330: 4d03 95bd 5546 5fbd 916f 7e3c 454a 113c
00000340: b5c5 ab3d 5df9 5bbd bbcb 013d a46f 853c
00000350: 66bb 363d 392f 1a3d 1853 20bd 5104 9fbd
00000360: d39f 483d 6e6a 99bd 8909 37bd 3cf7 713d
00000370: 82b3 373d 8cba e33d 6724 71bd c981 703d
00000380: eb2e 9a3d 2d6c a4bc e3c4 2e3c 70a1 52bc
00000390: 1cc6 933c 15ba 41bd 55eb 323c 58b7 983b
000003a0: 0e35 f8bd 1728 3abd 4bc5 6a3d 84f6 65bc
000003b0: 3d2a e1bc d9a0 913c 3f38 0c3d 4a0b cfbc
000003c0: d7d2 a7bc f2cc 29bc 9a23 6639 b28b 16bd
000003d0: 0a12 193d b726 bf3c af31 7c3c 45d8 683d
000003e0: 9524 8d3d 7d5b 913d 9d94 c03d bff3 0ebd
000003f0: e48c 483d cb3c 9c3c a696 96bc 4cb5 13bd
0.012022979 -0.027776232 -0.010390558 0.005943168 0.030366877 0.042346 -0.059906173 -0.029309802
0.03886134 -0.019796742 0.014031534 -0.053184137 -0.070340686 0.06171105 0.036602087 0.028437205
0.01798134 -0.0034139892 -0.04629831 0.055598553 -0.011231303 -0.021468047 -0.009659111 -0.021281213
0.0003619019 -0.07158363 -0.013910893 -0.07071742 0.013340148 0.009397476 -0.034300104 -0.01970845
-0.013593674 -0.016682385 0.011309663 -0.042024326 -0.014492552 0.036112797 -0.007192501 -0.0012290416
-0.04116308 0.03664032 -0.026662922 0.007091423 0.03726803 0.021901257 0.05778583 0.020033704
-0.012701859 0.004906706 -0.049090076 0.03809863 0.012412231 -0.09894792 -0.022584137 -0.05333685
-0.03376318 -0.07743021 -0.044155054 0.020217739 0.004054699 0.014258268 -0.043504555 -0.022022549
0.053913355 -0.094589755 0.021831127 -0.06792334 0.09307243 -0.022432597 -0.017590987 -0.028452508
0.013375898 -0.03423329 -0.10013906 0.036606 0.062365167 0.031717543 -0.0020469986 0.005733609
0.032193474 0.05736663 0.02291086 0.022731017 0.02921652 -0.073510855 -0.025246471 -0.11404765
-0.07005241 0.0049571283 -0.044149365 -0.060318265 0.020261118 0.021550681 0.0053087207 -0.059602007
0.019446313 0.018726746 0.043428525 -0.032374762 -0.0030499396 -0.03447899 0.010247432 0.08664548
0.0115641635 0.028813047 0.00502322 -0.0549053 -0.028906226 0.035437856 -0.037951354 0.032287758
0.022504328 -0.0055007553 0.09590345 0.00546797 -0.032211754 0.04501923 0.023170728 0.017278234
-0.054184854 -0.079978414 0.08681912 0.039532073 0.005531178 -0.028487416 0.010266607 0.05646656
-0.04604094 0.08312252 -0.061980084 0.05179146 -0.0028058607 0.017989269 -0.01106402 -0.06456823
-0.009119007 -0.04144932 0.0970428 0.029652543 -0.051543705 -0.06299474 -0.02399329 0.002106538
0.0061466442 -0.008887649 0.02879368 -0.0840055 0.05640594 0.018107412 -0.030510474 0.04921053
0.09709106 0.024959417 0.05243627 -0.061454635 0.023873078 -0.0071711433 0.033783663 0.090240665
-0.047377158 0.052452426 0.029440897 -0.021132391 0.03365049 -0.0511142 -0.06964788 0.016316408
-0.030527117 -0.023586322 -0.019846682 0.017850582 -0.071752064 0.0482574 -0.0013348197 0.0062726643
0.042476743 -0.021137904 0.028636362 0.009038262 0.018077862 0.103248835 -0.015864756 0.047765017
-0.017876575 -0.01474134 0.03485178 0.034545444 0.00019220175 -0.028047865 0.047679268 -0.07751837
-0.00596195 0.037161425 -0.060125828 -0.03129612 0.0040761083 -0.013463003 -0.08229493 -0.047877897
-0.021778388 0.047454316 0.0027473103 0.013492668 -0.0727602 -0.054510433 0.015529529 0.008867805
0.08387319 -0.05370461 0.031688433 0.016288586 0.04461231 0.03764269 -0.039141744 -0.07764495
0.048980545 -0.07491003 -0.044686828 0.05907367 0.044848926 0.11119565 -0.058872607 0.058717523
0.0752848 -0.020071113 0.010667059 -0.0128558725 0.018038802 -0.047296602 0.010920365 0.004660528
-0.121194944 -0.04544839 0.05731706 -0.014035825 -0.027485961 0.017776893 0.034233328 -0.025273938
-0.020486278 -0.010363804 0.00021947772 -0.036754318 0.03737072 0.02333389 0.015392705 0.056846876
0.06891743 0.07097528 0.09403346 -0.034900423 0.04896249 0.019071957 -0.018382382 -0.03606157

action_model._continuous_distribution.mu.bias f4 [9]
00000000: 7bdd 843c b55b edbc 52ea e7bb b377 5dbc
00000010: 2101 693b d368 eabc 7853 98bc ad70 18bd
00000020: c769 b139
0.016218891 -0.028974393 -0.0070774937 -0.013517308 0.0035553651 -0.028614437 -0.018594489 -0.03721683
0.0003383888
