results/soloWorm/Worm/Worm-5999971.onnx (onnx, 581953 bytes, 9 tensors)

network_body._body_endoder.seq_layers.0.weight f4 [256, 39]
00000000: d41d 433e ec01 7bbe 95f5 303e 0223 63bd
00000010: ab42 89bd 7710 613e e040 a03d 81c4 17be
00000020: d38b 0abd 644e dc3d 0eca 993d 4d52 fe3d
00000030: 9fb3 2fbd fe18 433d 37fe 273e cbf7 a63c
00000040: 2be3 32be f6fc d93d f537 aabe df3b ad3d
00000050: 008b 463e f69f d23d f300 33be 0b1c 9abe
00000060: ee05 103b cb08 373c eb04 59be 9766 2bbe
00000070: 74b0 433e 6340 913d 2861 893d a5d3 52be
00000080: 7080 9a3d 4ab5 8abd 9d0b cc3e 7244 93bd
00000090: 588b 863d a714 19be 23b4 06be f50b bbbc
000000a0: a7e0 9fbd 0695 923e 63a2 c9bd 4ee4 d63b
000000b0: f1c9 f3bd 1f27 d8bc c450 a83e c7c0 06be
000000c0: 7b3b 303e 5756 85be 9a5d a43d 7ca5 d93d
000000d0: 8256 93bd 888d 023e 4b44 54be 2f2b 573d
000000e0: 94ad d9bd 7fc8 23be 0e51 c43d 2c03 e7bc
000000f0: 4364 1fbe a73c e2be ea5e 01b9 23e1 e8bd
00000100: cc5c 73bd 532d 683d 53da 9bbd 0514 16bd
00000110: 5b7b 463d ce9e 8bbd 188c 54bd 587b 2bbd
00000120: 3d5b 62be 9e22 44bd c60c 9a3a aabe 20be
00000130: f189 7bbd faa2 3dbe 19e8 47bd b33b 9b3e
00000140: 2f37 f63d 3bde 0ebe dcc1 613e 525e a73d
00000150: d334 fb3c e2f1 20be 36c8 0f3e 343a 10be
00000160: 027b af3e d966 813d c960 6e3e 9725 cd3e
00000170: 2ebd 2ebe a599 a23e 491b c43d ed07 5cbe
00000180: b9d4 823d b1ce 283e ae6f 133e 52d3 1a3e
00000190: 1732 c23c a4cb 083e 437f adbd 983e 4e3e
000001a0: 4c0d 223d 6f82 d53d 35b9 5c3e e86a a93d
000001b0: f38b 943e 4d3b 6d3d 3fed 85bb 1163 9ebe
000001c0: 426d 3b3e c799 c3bc 4f57 ca3d bce3 be3e
000001d0: 8fe5 063e 3f11 ec3d 4247 433e 5e45 d23d
000001e0: db7a 71bc 47f2 033e 107a 0abc 2dc9 fabd
000001f0: aadd b53e 7b87 7e3d 4dab 52be 7200 143e
00000200: c568 26bd 37a2 123d f305 54be 1b4d eebd
00000210: 4b53 883e aa17 ab3e a65a 2bbe a7b1 833e
00000220: a3c1 123e baf9 823d 1bac 193e db5d 563e
00000230: 518e c63e 2f76 a3bd d3f4 a73d bca8 713e
00000240: 68f2 5e3d 5c67 963c 67cd 973e 8501 17be
00000250: f541 e6bd 66e9 703d 6d58 87bd a519 a03c
00000260: fc9e 93bd d649 713e 8714 e1bd bca0 7dbd
00000270: 6e4f 1e3c 15a8 f63c ccd7 80bc bfc0 7cbe
00000280: db82 3bbd 4b11 633c a08f 193e 3379 a03e
00000290: 2254 f1bd ac1b 093e 766f 9a3c 8b6c 103e
000002a0: c30e 45be 9bec b5bd a7ee bbbb cff9 e13b
000002b0: cc50 5c3e 0ac1 783e 0b5e 113e 65c1 253e
000002c0: 1003 04bc 9c87 833e 0df4 8d3b 9071 afbe
000002d0: 7b41 e03d f86b b9bd f1c5 38bd 445f 2ebc
000002e0: 0845 1e3d 646a a7bc d603 56bd cb0d 2abe
000002f0: 8d9c b83c 85a2 97bd 0b88 23be 363e 7bbe
00000300: 4de7 7a3d dc58 b53d 44e5 43be d2fb 203e
00000310: ae4a 0abe d1ac 04be d77d 37be 7469 7a3e
00000320: 2ccf d0ba 1996 0f3e 2643 ddbe 2932 8c3e
00000330: 5c1b 8abc ccce cabd 4a56 873e 0a03 893e
00000340: 7026 e0be df48 983d 2dac 18bd 84b2 11be
00000350: 47df dd3d 4918 c4be 1dc6 33bd d896 8fbe
00000360: 867c 783e 0676 21bd 83e0 b13d f41a be3d
00000370: d8d8 7b3d 124c 523d ebae 543e 3e34 9dbd
00000380: 6ba7 243e 3c35 403e 74f0 afbd 3cc3 13bd
00000390: 903c 6abe 54c6 c4bd 7d05 38bd 1c5e bebc
000003a0: 99c9 d53c c5d7 b53d dce9 8d3d c43f 603e
000003b0: b540 2dbc 1c62 413e dbc7 15be 211d f0bd
000003c0: fa82 a6be c0e1 b8bd 2f77 1ebe e7c9 5abe
000003d0: e7fe 2b3e e51f 44be 4702 3ebe ca77 a73e
000003e0: dc70 423d 143b 033d afec 603e 731a 27bc
000003f0: 91db 21bd 9a55 d2bd 23c8 073d 05b4 d8bd
0.19054347 -0.24512452 0.17281182 -0.055453308 -0.06702169 0.21978937 0.07824874 -0.14821054
-0.033824753 0.10757139 0.07509242 0.124180414 -0.04289591 0.047631256 0.16405569 0.020381829
-0.1746947 0.106439516 -0.33245817 0.08458685 0.19388962 0.102844164 -0.17480831 -0.3009952
0.002197619 0.01117153 -0.21193282 -0.16738354 0.1911028 0.07092359 0.06707984 -0.20588548
0.07544029 -0.067728594 0.3985261 -0.07190789 0.065695465 -0.14949284 -0.13154654 -0.02283285
-0.07806521 0.2862932 -0.09845426 0.0065579778 -0.11903752 -0.026385842 0.3287412 -0.13159476
0.1721019 -0.26042435 0.080256656 0.10627267 -0.071942344 0.12749302 -0.20729177 0.052531417
-0.106288105 -0.15994452 0.095857725 -0.028199755 -0.1556559 -0.441869 -0.00012337757 -0.113710664
-0.05941467 0.05668385 -0.076100014 -0.036640186 0.048457485 -0.06817399 -0.051891416 -0.041865677
-0.22105117 -0.047884576 0.0011753074 -0.15697733 -0.061410848 -0.18519202 -0.04880533 0.30318984
0.12022244 -0.13951962 0.22046608 0.08172287 0.030664837 -0.15717271 0.14041218 -0.14084703
0.34273535 0.06318445 0.23279108 0.4006774 -0.17064354 0.31757846 0.09575517 -0.21487398
0.0638823 0.16485097 0.14398071 0.15119675 0.023705525 0.13358933 -0.08471539 0.20141065
0.039563462 0.10425269 0.21555026 0.08272344 0.29013023 0.05791788 -0.00408712 -0.30934957
0.18303397 -0.023877038 0.09879934 0.37283123 0.13173507 0.11526727 0.19070151 0.10267137
-0.014738764 0.1288539 -0.0084519535 -0.122454025 0.3552068 0.062140923 -0.20573159 0.14453295
-0.04062726 0.03579923 -0.20705394 -0.116358005 0.26626047 0.33416492 -0.16733798 0.25721475
0.14331679 0.06395288 0.1500706 0.2093424 0.38780454 -0.07981526 0.082009934 0.23599523
0.054430395 0.018359832 0.29648897 -0.14746673 -0.11243049 0.058816336 -0.06608663 0.019543478
-0.07208058 0.23563322 -0.109902434 -0.061920866 0.009662492 0.030109445 -0.0157279 -0.24682902
-0.04577909 0.013859103 0.14996195 0.31342468 -0.11783625 0.13389462 0.018851977 0.14103906
-0.19243912 -0.088830195 -0.0057352367 0.0068962346 0.21515197 0.24292389 0.14196031 0.16187055
-0.008057371 0.256894 0.0043320716 -0.3426633 0.109499894 -0.090537965 -0.045110647 -0.01064283
0.038640052 -0.020436473 -0.052249752 -0.16606824 0.022535587 -0.07404045 -0.15969865 -0.2453545
0.061255742 0.08854839 -0.19130427 0.15721062 -0.1350505 -0.12956549 -0.17919098 0.2445429
-0.0015930883 0.14022101 -0.43215293 0.2738202 -0.01685875 -0.099027246 0.2643302 0.2676013
-0.43779325 0.07435774 -0.037273575 -0.14228255 0.108336024 -0.38299778 -0.043890107 -0.28044772
0.24266252 -0.039419197 0.086854 0.09282485 0.061486095 0.051342078 0.20769851 -0.0767598
0.1607949 0.18770307 -0.08590785 -0.036074862 -0.22874665 -0.096081406 -0.04492711 -0.023238234
0.026097106 0.088790454 0.06929371 0.21899325 -0.010574509 0.18885082 -0.1462702 -0.11724306
-0.32521802 -0.090274334 -0.15475152 -0.21366082 0.16796456 -0.19152792 -0.18555556 0.3270858
0.047470912 0.032038763 0.21965288 -0.010199177 -0.039516035 -0.102702335 0.03314985 -0.10581211

network_body._body_endoder.seq_layers.0.bias f4 [256]
00000000: 58fe 353c 84fe 49bd bd2c 343c 95a5 243c
00000010: aece e8bb ce50 1c3d c0f1 0fbd fe39 2a3d
00000020: 5ed8 64bd 4fda 353c 9e00 1bbd 690d ed3c
00000030: 7192 5c3d 89fe 863d 3bb4 a13d 9f30 c03c
00000040: 5087 4ebc dbad 143d 4bba 1bbb ff43 713c
00000050: 4826 3f3d e7ef 253d 0496 c4bc a546 40bd
00000060: 293d 313c 00de 273d b26d 21bc bcfa 20bc
00000070: 7223 5c3c 72fe 2b3d 38b2 2f3d 4311 903d
00000080: d6d9 dabc 1d42 013d f690 5f3c 9f7d 92bd
00000090: 29d6 6abc 0ef7 df3c 457a 7f3c 1dac c33c
000000a0: 1782 533d a755 5c3c ea7f 253c 8e92 7ebb
000000b0: 9320 263d 52b6 2838 a8c2 d53c 313a 84bc
000000c0: b956 f13c 53f9 1fbd 7f21 14bc 0de0 203d
000000d0: 6dfb dabc 35d1 e73c 41ab eabc db96 763d
000000e0: da93 9f3d bcc0 223a 4689 c9bc 8941 5f3c
000000f0: 87e1 a23c 8691 05bd 1aa2 4e3d 3282 22bd
00000100: 9167 0c3d a22b 01bd 670b 313d dbaa 573c
00000110: f7d3 713d 4fd1 44ba 88b1 15bd 2357 933c
00000120: 6238 9c3c 4b0d d23c f353 853d a46a cc3b
00000130: 2177 01bd 02b1 2bbd 803a 11bc f14c 74bd
00000140: de82 c4bb 196a b63c fa08 ca3b 92cb d3bc
00000150: 5883 cfbc adfc a5bc 2314 233c 8a6f 123d
00000160: e709 24ba 1aec d63c 790b 043d 75c7 643d
00000170: 93b4 653d 13b3 a4bc 2d4c 5f3d 7238 533d
00000180: 33c0 29bd 7ae6 e4bc f1c1 173c 8d8d b43c
00000190: e6f1 72bc 1d3e 883c db9f 383b d013 063d
000001a0: 144c fd3b 28ab 45bc 9ecf 0c3d 075b 583c
000001b0: 0c07 693c d35a 1c3b cac5 3a3c 4cb7 de3c
000001c0: 10db 143b 971c c93c 3b3c f6bb f7d1 6d3c
000001d0: 6e8e 52bc 5c8f 3e3c 070f 0a3c f0cb 763c
000001e0: 223d 11bd e69d 193c 5294 cf3b ffb6 bfba
000001f0: 94f5 12bc 935e afbc e3bc 0f3d 0e04 62bd
00000200: 5307 ce3c 58e0 7fbd 1c9f 403d d354 6ebb
00000210: 3c05 d83c edb6 4b3c e534 9c3c ec18 573d
00000220: 4792 7ebc 9b38 5f3b b4c8 9bbc 3411 15bb
00000230: b5b4 813d e414 6b3c f791 07bc d075 3abc
00000240: 435e 3fbd 7edd 5dbd 05a3 89bc baf3 09bd
00000250: d50c edbc d2f9 f2bb 9223 4fbd a7e5 9bbc
00000260: 1ed7 1dbd 8afa adbc f383 c23c cfd8 5c3d
00000270: 5d4c c3bc 9f14 7cbc e4aa 1dbc 6613 6e3c
00000280: edae edbb 5747 873d ad84 0abd 818c 1c3d
00000290: 19a7 7fbb 7e2c f03c 0bc6 01bc e630 dfbc
000002a0: ed99 bfbc 1d9b 03bd ddd5 27bd 0142 16bc
000002b0: a7f3 773d dce4 a03c d022 8c3c 82f9 3e3d
000002c0: 97bd 353d 99e2 a33c 28d8 d5bc 0651 a03c
000002d0: 700f 45ba 2569 99bc 2858 14bd 1500 9ebc
000002e0: 37c1 7bbc 3ee4 ca3c 6153 82ba c05a 86bc
000002f0: 9697 953c 9a08 c0bc 67fa 26bd 215c ac3c
00000300: 5d2c 953d d512 8b3c 46d8 643d c29e 0a3e
00000310: 875f 6c3d e881 06bd 7870 93ba 3d2e a03b
00000320: 5742 2ebb ee68 12bd 3cc1 a4bd 1fc0 093d
00000330: 1281 8a3c ca06 adbc 24b7 fb3b bae9 443c
00000340: 0345 553c 0639 b33d 265c e9bc 75e1 873d
00000350: 8530 d3bc 6851 e4bb 6bad a0bb 0b21 6e3d
00000360: a827 82bc a011 6b3c 6a0e ac3c e6a6 cc3c
00000370: b889 a7bc be94 91bd 77d2 093c 5797 673c
00000380: f556 a13d c5ee 0f3d c4aa 57bc 3f09 59ba
00000390: 7d7e f13c 0095 0f3d b3d3 873d 5d4f 213a
000003a0: 0ea6 ac3c 83d0 1d3d 3b90 dc3d 68a4 2d3d
000003b0: cf0f 1cbd 558a 193d 7590 503d c926 f5bc
000003c0: 1e7b d83c 51d9 1c3d c16a 16bd c8d1 ac3d
000003d0: 3c6b 09bc 338f cd3c d51c a83c e6d6 613d
000003e0: bbc9 8b3d c5a7 fd3c f0f4 ce3c cde0 973c
000003f0: 1eb4 84bc 0c8c 463d b6aa bcbc f5e0 3f3d
0.011108004 -0.04931499 0.010996995 0.010049243 -0.0071047163 0.038163 -0.03514266 0.041559212
-0.055870406 0.011099412 -0.037842385 0.028937059 0.053850595 0.065915175 0.07895704 0.023460684
-0.012605503 0.036298614 -0.0023762162 0.014725684 0.046667367 0.04051199 -0.023997314 -0.046942372
0.010817804 0.0409832 -0.009852814 -0.009825405 0.013436185 0.041990705 0.042894572 0.070345424
-0.0267152 0.03155719 0.013645401 -0.071528666 -0.014333286 0.027339485 0.015593116 0.023885781
0.051637735 0.0134481555 0.010101298 -0.0038844678 0.04055841 4.022412e-05 0.026093796 -0.01614103
0.029460298 -0.039056133 -0.009041189 0.03927617 -0.026731217 0.028298 -0.028646113 0.06020246
0.07791872 0.0006208529 -0.02460159 0.013626465 0.01988293 -0.032609485 0.05044756 -0.039674945
0.034278456 -0.031535752 0.043223765 0.013163294 0.059040036 -0.0007507996 -0.03654626 0.017985886
0.019069854 0.025641104 0.06510153 0.0062382985 -0.03160775 -0.041916855 -0.008864045 -0.05964369
-0.005997046 0.022267388 0.006165621 -0.025853906 -0.025331184 -0.020262087 0.009953531 0.035750903
-0.0006257579 0.026235629 0.032237504 0.05585428 0.056080412 -0.02010492 0.054516006 0.051567502
-0.04144306 -0.027941931 0.009262548 0.022040153 -0.014828181 0.01663118 0.0028171453 0.03273374
0.0077300165 -0.012064733 0.034377687 0.013205296 0.0142228715 0.0023857846 0.011399696 0.027187012
0.002271358 0.024549766 -0.0075145043 0.014515392 -0.012851341 0.011630859 0.008426434 0.015063271
-0.03545869 0.009376025 0.00633482 -0.0014626681 -0.008969683 -0.021407401 0.035092246 -0.055179648
0.025149977 -0.06246981 0.04702674 -0.0036366477 0.026369683 0.01243375 0.01906819 0.052514
-0.015537805 0.003406084 -0.019016601 -0.002274585 0.06333295 0.014348242 -0.008274547 -0.011380628
-0.046720754 -0.05416631 -0.016801367 -0.0336797 -0.028936783 -0.007415035 -0.050571032 -0.019030405
-0.03853523 -0.02123763 0.023744559 0.053917702 -0.023840124 -0.015385776 -0.009623263 0.014530992
-0.007253519 0.06605404 -0.033817936 0.038219932 -0.003900951 0.02931809 -0.007920752 -0.027244996
-0.023388827 -0.03213035 -0.04097544 -0.00917101 0.0605351 0.019640379 0.017106444 0.046624668
0.04437026 0.020005511 -0.026104048 0.019569885 -0.0007517254 -0.018726895 -0.036216885 -0.019287148
-0.01536589 0.024767037 -0.0009943062 -0.016400695 0.018260758 -0.023441602 -0.040766146 0.021040024
0.07283852 0.016976753 0.055870317 0.13537124 0.05770829 -0.032838732 -0.0011248728 0.0048883245
-0.0026589835 -0.0357446 -0.08044669 0.033630487 0.016907249 -0.021121401 0.007681744 0.012018615
0.013016942 0.08751111 -0.028486323 0.066347994 -0.025779972 -0.006967712 -0.0049034855 0.05813698
-0.01588805 0.014347464 0.021002967 0.024981927 -0.020451412 -0.071084484 0.008411995 0.014135203
0.07877914 0.035139818 -0.013163272 -0.0008279271 0.02947926 0.035054207 0.06632175 0.00061534886
0.021075275 0.03852893 0.10769697 0.04239312 -0.038101014 0.03748544 0.050919015 -0.02992572
0.026425894 0.038293187 -0.036722902 0.0843845 -0.008387383 0.025092697 0.02052156 0.055136584
0.068255864 0.030963788 0.02526328 0.01853981 -0.016199168 0.048473403 -0.02303062 0.046845395

network_body._body_endoder.seq_layers.2.weight f4 [256, 256]
00000000: caa8 c5bc 612f 9f3d 2bcc 0b3d 4c1a 6b3d
00000010: 0d83 88bc 3c1c 03be 69db ddbd 0679 333c
00000020: 139d dcbd 4913 263d 1983 8fbd e597 15be
00000030: 2386 813d cc5d 203d cbba 1b3d 5a15 d4bd
00000040: fea2 c63d 3fca 203d 15de a23d 0fff d3bc
00000050: 0474 25bd 8584 663c 2b57 3dbd 1200 503d
00000060: 66a1 fb3d f961 34bd 283c 70bd 2b6f bebd
00000070: efb1 bf3d ceda 183e 1dd6 4cbd b3cb 71bd
00000080: 7183 ce3c e180 7b3b 0217 cbbd ce3f 663a
00000090: 51f4 a83c b874 91bd 9786 a4bd d618 9dbc
000000a0: 044d 73bd 312e 273d 1992 123e 7721 0e3d
000000b0: 7030 743d c3bd 42bd b025 db3d fdc2 113d
000000c0: 623b 093d 69d0 863b d7ce f6bd f985 47bc
000000d0: 076d b037 e545 19bd fb85 21be a818 8cbc
000000e0: a707 49bd 1d79 ba3c 3499 0b3e 22c2 69bc
000000f0: 87e6 b63d c281 c23d b122 f33c 83d6 423d
00000100: cb24 3cbc 4a6f 62bb 6c0e 0a3d b922 fcbd
00000110: c91b 65bc 92b8 883d 0ef0 92bd 4c8a 50bd
00000120: 0a20 3dbc f412 fdbd 95f8 47bd 0f94 09be
00000130: 1604 97bb 8b7f a23d f2ca 2d3d 5e8b 1ebd
00000140: 8133 023d c14f f6bc 55b2 0b3e 77ad 1c3b
00000150: 3ab9 d63d 27c2 b7bd 1735 883d ad37 74bd
00000160: 24e7 8cbc b481 d3bd 72ee 71bd c1ae 4c3d
00000170: 9b0b 33bb 2cf6 5f3d 465d 833d 9353 363e
00000180: df3a 4fbd 2d0e 163e 2a68 35bc d642 cbbc
00000190: 0d0b 80bd dc8a 7b3c 0416 243e 8e46 d23d
000001a0: 39e7 2d3c fa3a 87bd 82eb b6bd 1804 b13d
000001b0: 17f0 c63d 4761 0c3e e205 b4bd 036d ddbc
000001c0: 4717 8939 c289 ffbc efd4 ebbd c373 c23d
000001d0: 85d1 9e3c 2151 cdbc 3287 efbd c85c 1b3a
000001e0: 8d25 71bd e6d6 e5bc 195a 93bd 1d27 b7bd
000001f0: 55f9 2f3c feae babc d29f 08bb b0b2 15bd
00000200: ba81 b8bd 4909 893d fb5e 683c a348 1fbd
00000210: 46d6 36bd 4475 2fbd 6ce8 283c 5a88 e33d
00000220: e428 8eba 3f30 8d3d c203 863d f25d a3bc
00000230: c7ea e93d 1057 1b3d b0fb 763d a3d1 a23d
00000240: 4693 81bd 960e 0f3e bb9b f4bd 23bb b93d
00000250: 56b5 fdbc 5a3c cabb b0cc 19bd ffbd ccbd
00000260: 71de e33b c7ca 313c 0938 6dbb 1b29 57bd
00000270: 377b 65bd a672 453d 525d 8ebd c4f4 c2bc
00000280: 88aa 27bd f657 6fbd dfc0 4b3d 017b 6cbc
00000290: 4977 6f3d 6bfb 023e 4a01 a3bd 18d6 dd3c
000002a0: 0aac b63c bd62 f33d 380f 743d 1612 cb3a
000002b0: 9f03 b9bd 2e25 2bbb 5f6e 093d 5a83 893d
000002c0: d8a3 063e 46a2 893b 4e49 f0bc f083 b0bd
000002d0: 505a 8b3c 6b3d 22be e803 b93d 2083 4cbd
000002e0: 7c58 333e 479f ecbd 2d0f 12bc 219d cf3d
000002f0: 4f46 5b3d 2fcf 213e 5dc7 aabd 69df 86bb
00000300: 0da9 efbd 457b 653c 5354 873c 4387 d83d
00000310: ab60 a23b ee3c f0bc 0520 30be 4657 d3bc
00000320: c5e3 f2bd 2741 8abd 03a0 d8bd e86d a0bc
00000330: ca7a 86bd a179 82bd c5fc 0a3e 4012 16be
00000340: 8f55 f3bc 678b 433c 03da d7bd 695b 823d
00000350: 0158 183d 2392 87bd b7a3 503c 5355 70bc
00000360: 63d1 c13d 3237 c5bd 9411 833d ab6f 03be
00000370: 1f30 18bd 76a8 afbd ee87 a1bd 68f4 45bc
00000380: 4bc8 633d e738 d3bd e46d 34be 4b76 143d
00000390: b048 c43d a278 13bc f8cd 63bd 9fe5 14bd
000003a0: c385 72bd 8ee1 c73d 3f79 2abd cbd4 663d
000003b0: c1fa 93bd 0dfb 8fbd 5ad0 043e eaf9 623c
000003c0: 1804 fbbd 864b 893c 6665 9fbd 951b 3fbc
000003d0: 2088 3dbe 9baa c5bc 52e6 b3bd e5cd 8b3d
000003e0: 0e8f 90bd 3e33 26bd d2fa 3b3c 442e 6c3d
000003f0: f509 e5bb 70b2 1f3d 2cc2 14bd e704 a8bc
-0.024128336 0.07772709 0.034130257 0.057398126 -0.016664052 -0.1280374 -0.10832865 0.010954147
-0.10772147 0.040545736 -0.07007427 -0.14608724 0.06324413 0.03915195 0.038019937 -0.10355635
0.09699057 0.039255377 0.07952515 -0.025878457 -0.040393844 0.014069681 -0.046225708 0.050781317
0.12286644 -0.044038747 -0.05865112 -0.09298547 0.0936011 0.14927217 -0.05000888 -0.059032153
0.02520916 0.0038376378 -0.09916498 0.00087833114 0.020624312 -0.071023405 -0.080334835 -0.019176882
-0.05939962 0.040815536 0.14313544 0.034699883 0.059616506 -0.047544252 0.10700548 0.035586346
0.033503897 0.0041142 -0.1205117 -0.012177938 2.1031605e-05 -0.037420172 -0.15773766 -0.0171016
-0.049079563 0.02276283 0.13632661 -0.014267476 0.08930688 0.094974056 0.029679628 0.047567856
-0.0114833815 -0.0034551197 0.03370516 -0.1231131 -0.013983675 0.06675829 -0.07174693 -0.05091314
-0.011543283 -0.12357131 -0.04882105 -0.13435386 -0.0046086414 0.07934483 0.04242987 -0.03870713
0.0317874 -0.030067327 0.13642247 0.0023907104 0.10484548 -0.089725785 0.06650751 -0.05962341
-0.01720006 -0.10327473 -0.05906529 0.049971346 -0.002732015 0.054678127 0.06414275 0.17805319
-0.050593253 0.14653845 -0.011072198 -0.024812143 -0.06252108 0.015352931 0.16024023 0.102673635
0.01061421 -0.06603046 -0.08931638 0.08643359 0.09713762 0.13708983 -0.087901846 -0.02702952
0.0002614802 -0.031193618 -0.11515223 0.09494736 0.019387016 -0.0250631 -0.11695708 0.0005926606
-0.0588737 -0.028056573 -0.07194919 -0.08943007 0.010740598 -0.02278852 -0.0020847213 -0.036547363
-0.090091184 0.06691224 0.014182801 -0.03888763 -0.04463794 -0.042836443 0.01030932 0.11109991
-0.0010845927 0.06893968 0.065436855 -0.019942258 0.11421733 0.037924826 0.06029862 0.07950141
-0.06326918 0.13970408 -0.11943766 0.090688966 -0.030970257 -0.0061717452 -0.03754872 -0.099971764
0.0069540073 0.010851569 -0.003619673 -0.052529436 -0.05602571 0.04820504 -0.06951393 -0.023798354
-0.040934116 -0.058433495 0.049744483 -0.014433623 0.05846337 0.12791221 -0.0795923 0.027079627
0.022298831 0.11884067 0.059584826 0.0015493061 -0.09033894 -0.002611469 0.033552524 0.067145064
0.13148439 0.0042002527 -0.02933183 -0.08618915 0.017010838 -0.15843742 0.09033948 -0.049929738
0.17514223 -0.11553817 -0.008914751 0.10137392 0.05353385 0.1580169 -0.08338807 -0.004115988
-0.11702166 0.0140064405 0.016519701 0.10572674 0.0049553714 -0.029325929 -0.17199714 -0.025798451
-0.1185985 -0.06750708 -0.10577395 -0.019583657 -0.06566389 -0.06370855 0.13572986 -0.146554
-0.029703883 0.011935092 -0.10539629 0.06365091 0.037193302 -0.0661967 0.012734345 -0.01466878
0.094637655 -0.09629668 0.06399837 -0.12835567 -0.037155267 -0.08577053 -0.07887255 -0.012082197
0.055610936 -0.10313588 -0.17620045 0.036245625 0.095841765 -0.009000929 -0.05561635 -0.036351796
-0.059209596 0.09759818 -0.041619536 0.05635528 -0.07225562 -0.07030306 0.12970105 0.0138535295
-0.1225664 0.016759645 -0.07783012 -0.011664291 -0.18508959 -0.024129203 -0.087841645 0.06826381
-0.070585355 -0.040576212 0.011473374 0.05766131 -0.0069897124 0.03898853 -0.03631799 -0.02051015

network_body._body_endoder.seq_layers.2.bias f4 [256]
00000000: b3f5 1d3c 6e19 1bbc 5570 d73c bb9d fc3c
00000010: f15d 873d d35e 9b3c 5e83 983c d92f 773c
00000020: 476a 3e3d fcca ad3c 18f2 ae3b bf15 1fbd
00000030: aa17 35bd 099b 083d ed22 b3bc 7f2c 10bc
00000040: 798c f43b 7995 11bb 54e4 923d 9482 133d
00000050: 4bb3 1b3b 82d7 4c3d 60d8 033c e535 213a
00000060: b7d1 12bd 26fe a1bb 6816 b13c 7e53 263d
00000070: 3c15 95bd 203c 5e3a aae3 053c 9d6f fd3c
00000080: 21d5 1bbc 141e 55bd eb82 1dbd 274b 083d
00000090: b622 1ebd 0bb9 ca3c 7145 2dbd 3d32 6a3d
000000a0: 8055 95bd bd5e 9abd 8e4e e13c cd45 f13c
000000b0: d018 c73b b2e9 4bbd 9f5d 153d 37c9 ad3c
000000c0: 3b6d 11bd 9737 ce3b e5e8 663d 92c9 e6bc
000000d0: e944 113c 6665 f4bc db3d 823c d7aa 403c
000000e0: 697b 603d 145b fb3b 0026 67bd d47f 0abd
000000f0: 04b6 203c 9ea4 0c3b dd63 3b3c 231a 3fbb
00000100: 6a36 04bd 20a9 e43b aab9 debc 8af5 0cbc
00000110: c39c adbc 9d69 803d 347b b73c 5abf 68ba
00000120: 12de ff3c d267 d53c 09e1 76bb 07ce ef3b
00000130: cd14 033d 5d8c 19bc 5eef 463c 8858 ad3c
00000140: 3392 d7bc 2bde 4bbc fefe 913b 20b8 343c
00000150: eb42 9b3c b0a7 063d 6bf1 bdbc 4909 803c
00000160: a992 2abc f58c 9b3a fd58 2dbd 3ae7 3ebb
00000170: 3fd6 783d 9811 adbc ee10 9fbb 1410 563b
00000180: 1042 bf3c 6920 ae3c 886c 763b 8c88 063d
00000190: 8ef1 c73c 07c5 3ebc 7dff d7bc 2af0 0f3d
000001a0: 1d92 a83b ffde 423c b190 133d 630b 0a3b
000001b0: 1a67 b43c 5f86 55bc b31e da3c 3a86 243d
000001c0: 6176 95bb 6cf5 d43c c5c9 5d3d 74bf ffbb
000001d0: de02 cebc b4ca 85bd 1a87 a6bc 0a09 86bb
000001e0: fd1e c6bc da58 4abd ac1b aabc ba46 5b3d
000001f0: ff75 e43c 144a 89bc 03e9 a83c bef4 c43c
00000200: b3bf 303d 19cf 9d3d 315f 9ebc 7af1 72bc
00000210: 878e 8b3c b777 fcbc 18a7 333d 9cbd 813b
00000220: 42f7 a1bb 00eb 4b3c 61d4 173c 3964 7f3d
00000230: fda5 5c3c 17ec 723d d490 653c 930c bbba
00000240: 1d4d b13c 5f84 283c 8ffa 83bc ee7a cf3b
00000250: f419 5d3d 4000 3d3d 5aff 28bc 5d90 263d
00000260: 68e8 e33c 0150 13bc 4cca abbc 1716 9a3d
00000270: caec a73d 5b24 e0bc c1f7 5cba c9f9 d23c
00000280: bae0 84bd 65de 14bd af30 373c 3a50 15bc
00000290: 70df ec3c 212e c53c b1de aa3c 1d34 403c
000002a0: 1e80 1f3c f4ee 0f3c 44bf a0bc 3202 033c
000002b0: ac5a a43d 5200 0d3a 9f35 353d 2b35 09bb
000002c0: afca 4fbb 65ad ddbc b928 18bc 7a1d 72bc
000002d0: 4bc5 473c b4e9 46bb 34f7 643d f496 533c
000002e0: 87fc 273c c706 a13a 243c af3d 37d2 883d
000002f0: e1d7 853c d23e d4bb 7306 00bc 499e 673d
00000300: 788c 133d 2f71 a3bc b326 da3d 312d ebbc
00000310: b4ca 4b3d bbce a23c b938 8fb8 dc10 cebb
00000320: f106 e83c 4f10 123d 566e 6b3c 6049 803d
00000330: 4711 843d 6744 4e3d 0447 81bb e937 bfbb
00000340: bc3d 653c 95a7 383c 8bcc b23c ba0f bdbc
00000350: 1a04 6b3d 7869 133d c3ae 1c3d 9bcd 02bc
00000360: 04a4 0fbc 404f e1bb 1a64 273d 64a1 593d
00000370: eb3d 2f3d 470c 443d 4723 4c3d ccdf 0cbd
00000380: bdaa 253c fda0 46bc 10ed 0c3c 53e8 4dbd
00000390: 001e 6dba 7ebc acbc fe1f 1c3d 4ed0 ce3c
000003a0: b02b c53b 1ba8 c23c f219 bb3d da88 77bc
000003b0: 853d d43c 377c d13c c58d bdbb fa27 fbbc
000003c0: cdaf d33c 2b2e d5bb 9efb 163d 3300 353c
000003d0: 5ddc 813b 00b7 47bb 6bd1 f5bc 213a 9b3c
000003e0: 5800 33bd e332 11bd 5f1c 043d c4b8 8abd
000003f0: 5082 ce3c 7141 a6bc ddd5 093b b7e4 8e3d
0.009641099 -0.009466512 0.026298681 0.03083693 0.06609715 0.018966114 0.018617328 0.015087091
0.046488073 0.021214955 0.0053389184 -0.038839098 -0.04421202 0.033350978 -0.02186724 -0.008799671
0.0074630347 -0.0022214337 0.071724564 0.0360132 0.002375799 0.05001021 0.008047193 0.00061496935
-0.03584453 -0.004943627 0.02161713 0.040606968 -0.07279441 0.0008477587 0.008171955 0.03093701
-0.009511263 -0.052030638 -0.03845493 0.033274796 -0.03860732 0.024746438 -0.042302553 0.057176817
-0.072916985 -0.07537601 0.027503278 0.029452229 0.006075956 -0.049783416 0.036466237 0.02121411
-0.03550456 0.006293248 0.05637445 -0.028172288 0.008866527 -0.029833507 0.015898636 0.011759481
0.054805193 0.0076707695 -0.056432724 -0.033813313 0.009809021 0.0021460424 0.0114373835 -0.0029159866
-0.032278456 0.006978169 -0.02718814 -0.008603463 -0.021192914 0.06270144 0.022397615 -0.0008878611
0.031233821 0.026050482 -0.0037670752 0.0073182615 0.03200226 -0.009371844 0.0121420305 0.021160379
-0.02631483 -0.012443106 0.0044554463 0.011030227 0.018952807 0.032874763 -0.023186406 0.015629428
-0.010410943 0.001186757 -0.042321194 -0.002912952 0.060751196 -0.021126553 -0.004854313 0.0032663392
0.02334693 0.021255689 0.003760131 0.032845065 0.024407174 -0.011643655 -0.026366943 0.035141148
0.005144371 0.011893987 0.03602666 0.0021063916 0.022021819 -0.013032525 0.026625967 0.04016707
-0.004561231 0.025995933 0.0541475 -0.0078048054 -0.025147852 -0.06532803 -0.020328093 -0.004090433
-0.024184698 -0.04940114 -0.020765148 0.053534247 0.027888296 -0.016758956 0.020618921 0.024042483
0.04315157 0.07705516 -0.0193325 -0.01482808 0.017035736 -0.030818803 0.043860525 0.003959371
-0.0049428055 0.012446165 0.009266944 0.06235144 0.013467309 0.059307184 0.0140115805 -0.0014270715
0.021643216 0.010285466 -0.016110687 0.006331793 0.05397983 0.046142817 -0.010314787 0.04066502
0.02782078 -0.008991242 -0.020970486 0.075237446 0.08199461 -0.027361086 -0.0008429252 0.025753872
-0.06488176 -0.036344904 0.011181041 -0.009113366 0.028915137 0.024069848 0.02085814 0.011731175
0.009735135 0.008784998 -0.019622453 0.007996129 0.08025107 0.0005378771 0.04424059 -0.0020936232
-0.0031706502 -0.02706022 -0.009287053 -0.014777536 0.012193034 -0.00303517 0.055899814 0.012914408
0.010253078 0.0012285345 0.08556393 0.0668072 0.01633829 -0.0064772153 -0.007814038 0.056547437
0.036022633 -0.019951431 0.106519125 -0.028708072 0.04975386 0.019873967 -6.829337e-05 -0.006288631
0.028323622 0.035660084 0.014369568 0.06263995 0.06448608 0.050358202 -0.0039452333 -0.0058355224
0.013991769 0.011270423 0.02182605 -0.023078788 0.05737696 0.035989255 0.038252603 -0.0079835905
-0.008767132 -0.0068759024 0.04086695 0.05313243 0.04278366 0.04786327 0.04983833 -0.034393117
0.010111508 -0.012123344 0.008601442 -0.05027039 -0.0009045303 -0.021085974 0.038116448 0.025245812
0.006017171 0.0237618 0.09135808 -0.015108312 0.025908241 0.025571926 -0.0057847225 -0.03065871
0.025840664 -0.006505748 0.036861055 0.011047411 0.003963037 -0.0030474067 -0.030007085 0.018948616
-0.0437015 -0.03544892 0.03225362 -0.067735225 0.025208622 -0.020294877 0.0021032013 0.06977218

network_body._body_endoder.seq_layers.4.weight f4 [256, 256]
00000000: 7e74 75bc 9069 a93d 4086 97bd 623e cbbd
00000010: bbec 5cbc 6f7d 20be e203 15bd 1bf1 a13c
00000020: 8081 52bd ae21 44bd bb9d 8abd 7207 84bd
00000030: e8e1 8abd 3647 a6bd 5c22 2fbc 5d03 863d
00000040: e188 b1bd 7b9b 6e3c f29d 58bc d338 713d
00000050: 87af 29bd 133e 56bd cde4 5bbc 11e0 f43d
00000060: f694 bb3d aff1 f63a edb0 323d 63eb 253d
00000070: ee24 a83d 4d0d aebc 8d15 6abc f50c e23c
00000080: 7e1f c7bc 96db 51bd 034a 01be 8ad6 ddbc
00000090: 23b0 06bd 4fe9 0fbe 5a32 f83d 1890 003d
000000a0: 87ec 8f3d 13aa 123e bdd3 943c 3a0c e6bc
000000b0: b697 2cbd 04e6 1dbd e940 dcbc 8b65 6fbd
000000c0: df90 63bd 0ce5 fdbc ceb2 243d aa7a 9a3d
000000d0: 33a8 073d 21fd 633d b712 c43d 0c6c 7dbd
000000e0: 0de7 d7bd 07f7 95bd 2441 af3d 33f7 85bd
000000f0: 11bc 1e3d 6d07 e4bc 8292 823c 8e0d 923d
00000100: 6f82 fabd b1fa 62bb 22f4 0fbe b9c9 bebd
00000110: 9d38 883c 180d c9bd 1091 2cbd 0dea 113e
00000120: 54e5 3d3c 3842 17bd 22a0 f33a 1e30 633d
00000130: cf7b 16bd b0f9 04be 91df 5fb8 30dc 813d
00000140: 16ef d53d d1c1 3f3e 0d67 ab3c 33db 31ba
00000150: 6d41 ed3c 5480 2ebd 7e27 78bd 30cb ca3b
00000160: c41d a73b ad89 4c3d d213 b53c e8a9 b5bd
00000170: d365 3b3e 0e09 9bbd e84b 58bd 1704 323c
00000180: 24c6 cd3d 3d41 1cbc bfd4 12bd 9dc0 383d
00000190: d6c2 b53c 2857 a93d cbe8 243d dfc5 443c
000001a0: 306e af3d 3b04 32bc 2d01 d6bc cc9f adba
000001b0: b247 723b 755e 013e 6ba2 0e3d 473c 083e
000001c0: ac09 9c3c 6bbb 0b3e 4849 c23c 6333 bfbd
000001d0: 9b32 513a 4418 c63b 8289 a5bd 3d26 03be
000001e0: 8c39 a83c 9ba8 593d 6656 a0bd d566 7e3d
000001f0: d1da e13c 9ef2 2c3d 8530 ab3d a3e8 ab3d
00000200: 6340 b33d 75c3 f2ba 4bc7 76bc d347 683d
00000210: 02c0 6fbc 5f8a fb35 8a8b 15bc 1c3e cebd
00000220: 0984 ac3d 1c98 613d cb88 40bd 724d c3bc
00000230: 3fe5 f53d 8f07 a73c 3d4f 24be c56d c73c
00000240: 3471 dabd 7e3c 88bd 71c5 7f3d 02c1 d63d
00000250: a156 0dbd 2f8d a03d 6b36 afbd 35b5 863d
00000260: b626 edbc ee5d 313d 0851 d3bc 1d05 85bd
00000270: 6b40 a53d 78e5 52bd 7142 a23c 3e68 f4bd
00000280: 60cc 343e 4df3 fdbd 08ea 763d c8e9 56bd
00000290: 4ee4 08be 48a7 e53d 4cef 62b9 0288 01be
000002a0: 0447 4dbc 56e6 e3ba 989b d3bc 1d5b 71bd
000002b0: ef4b 8ebd ba9b 923d a35f 3f3c f009 6cbe
000002c0: 3f0d a8bd e84b 8c3d 8b3b dfbc c6fa bfba
000002d0: 4b5c 66bd 3b6a 79ba 12e9 cd3c bbf9 82bd
000002e0: c580 bc3d c41f 093d 7d35 4c3d db14 283e
000002f0: c9bc 7fbb aed5 813d eb76 43bd 5dcc 6c3d
00000300: 9d16 15bd d8dd 02be 8022 19bd beea ee3a
00000310: 36ef ea3d bf44 dcbd 4f69 863d 81cf 1e3c
00000320: 968d b7bd 0f17 363c 29ba 10bc 5b3d ba3c
00000330: baab cebc 2d10 1bbe 7ddb c0bc aa13 993d
00000340: 7664 54bc 54de 1abe 16f0 96bd ded4 0a3d
00000350: 905d 3fbd 8094 be3d 5472 f7bd 8245 763d
00000360: d96a c2bd fd61 863c 9fae 73bd 4b04 8cbd
00000370: c5f0 f03c 14eb da3b c728 473c 035c 193d
00000380: 64e7 83bd eacb f33c c006 7ebb 4351 40bd
00000390: eb06 adbd f9a1 17bd 46da 35bd a321 143d
000003a0: 4acc ae3d b093 9ebd 661b 623d 56cc 23bb
000003b0: d8bc 023d 3cba f13d a78a a5bc 3d3d acbd
000003c0: 3cc1 803d cd57 11be da54 b03d 045d 263d
000003d0: 498f 793d 32bb 193e 0454 b9bd fe47 58bd
000003e0: 98d2 42bc 909f 31bd 144b 5ebd 82a9 bbbc
000003f0: db91 14bc 48ba 0cbd 4c92 923d 4c40 92bb
-0.014981387 0.082720876 -0.07398653 -0.09924008 -0.013484175 -0.15672849 -0.036380656 0.019768288
-0.051393032 -0.047883682 -0.06768366 -0.064467326 -0.067813694 -0.08119051 -0.010689344 0.0654361
-0.08668686 0.014563437 -0.013221251 0.058892082 -0.04142716 -0.052305292 -0.01342125 0.119568
0.091592714 0.0018840338 0.04362576 0.040507685 0.08210169 -0.021246577 -0.014287365 0.027594069
-0.024307009 -0.051234804 -0.1262589 -0.02707984 -0.03288282 -0.14053844 0.12118979 0.03138742
0.07027536 0.1432269 0.01816737 -0.028082002 -0.04213687 -0.038549438 -0.02688642 -0.05844645
-0.05555808 -0.030993007 0.040209584 0.075429276 0.03311939 0.055661324 0.09573882 -0.06187062
-0.10542116 -0.07322507 0.085573465 -0.0654129 0.038753573 -0.027835572 0.015939001 0.071314916
-0.122319095 -0.0034634287 -0.14057973 -0.09315819 0.016628558 -0.098169506 -0.04213053 0.1424944
0.011590321 -0.036928385 0.0018587152 0.05546581 -0.036739167 -0.12985873 -5.3375556e-05 0.063408256
0.10445993 0.18726279 0.020923162 -0.00067846774 0.028961862 -0.042602852 -0.060584538 0.0061887726
0.005099984 0.049935985 0.022104178 -0.08870298 0.18300562 -0.075700864 -0.052806765 0.010865233
0.10047558 -0.009537038 -0.03584742 0.045105565 0.022187632 0.08268577 0.04026107 0.012010067
0.085659385 -0.010865266 -0.026123608 -0.0013246476 0.0036969003 0.12633689 0.034822863 0.13304244
0.01904758 0.13645713 0.023716584 -0.09335973 0.0007980258 0.006045373 -0.08082868 -0.12807555
0.020535253 0.05313931 -0.07828979 0.062109787 0.02757016 0.042223565 0.08358864 0.08393981
0.08752515 -0.0018521386 -0.015062164 0.056709122 -0.014633181 1.8741229e-06 -0.009127507 -0.1007044
0.08423621 0.055076703 -0.047005456 -0.02384064 0.12006616 0.020389346 -0.16045852 0.024344334
-0.10666123 -0.06652163 0.062444154 0.10486032 -0.034506444 0.07839429 -0.08555301 0.06577531
-0.028949123 0.04330247 -0.025795475 -0.06495116 0.080689274 -0.05148837 0.019807072 -0.11933945
0.17656088 -0.123999216 0.060281783 -0.052469045 -0.13368341 0.11213547 -0.00021642185 -0.12649539
-0.0125291385 -0.0017387371 -0.025831029 -0.058924783 -0.06948077 0.07158609 0.011680516 -0.23050666
-0.082056515 0.068504155 -0.027250072 -0.001464688 -0.05624036 -0.0009514426 0.02513555 -0.063952886
0.09204248 0.03347756 0.049855698 0.16414206 -0.0039022437 0.06339584 -0.04772083 0.057812084
-0.03639852 -0.12779939 -0.037386417 0.0018227918 0.11471407 -0.107553 0.06563055 0.0096930275
-0.08962552 0.011113896 -0.008833447 0.022734335 -0.02522837 -0.1514289 -0.02354216 0.07474454
-0.012963405 -0.15123874 -0.073700115 0.033894412 -0.046720088 0.09305668 -0.12082353 0.06012488
-0.09493036 0.016404146 -0.059492704 -0.06836756 0.029411683 0.0066808555 0.012155718 0.037441265
-0.06440619 0.02976032 -0.0038761348 -0.046952497 -0.08448585 -0.037019704 -0.044397615 0.03616489
0.08535059 -0.07743013 0.05520191 -0.002499362 0.031918377 0.118030995 -0.020207716 -0.08410118
0.062868565 -0.1419365 0.08609934 0.04061605 0.060927663 0.15012816 -0.09049228 -0.052803032
-0.01189103 -0.04336506 -0.05427082 -0.022907976 -0.009067978 -0.03435734 0.0715681 -0.004463231

network_body._body_endoder.seq_layers.4.bias f4 [256]
00000000: 86b4 f7bb 4ff2 5c3c 2318 673d 0516 7f3d
00000010: 8e33 1c3c 2cb3 5f3d 2e3c 9f3a b16a 1c3c
00000020: bfcf 76bc 81f9 c43c 6da4 113c 7aa9 8d3b
00000030: fad9 283d 48a6 dcbc 635a 9e3d 4598 5f3d
00000040: efde 90bc ef7a 0a3d 417f 883b 60d5 8f3c
00000050: 41c0 823c dcc6 c93b 3841 153d d985 19bb
00000060: 9706 f43c cd29 a73c 1652 96bd a9e4 033d
00000070: d951 96ba 493a 953d aafc 7a3c 4f5a ae3c
00000080: 6271 363d 438d 823d 2ac6 3f3d e83e 793c
00000090: ee9f b13c 6af4 dd3b 9642 193d 2180 e03b
000000a0: 49ef 8b3c 3d72 ba3c 9982 f33b 4ddd 973c
000000b0: d7ef 9a3b cdd2 0d3d b795 17bc 538a 22bc
000000c0: be27 fa3c c34e 89bb cd8b 063d 59cb cb3c
000000d0: c82c 29bc 950d 983c 2811 8ebb 6b14 393d
000000e0: 2acf 0a3d c1cf ce3c d5ac 883c a8dc e73c
000000f0: a7ce 323c 7452 4fbb f5d5 d1bc 0dd8 8cbc
00000100: 268b 7fbc 40e7 ee3b a220 5f3b c247 70bc
00000110: dad6 333d b53f e6bb d1e8 87bc a028 b33c
00000120: ed55 813d 1c6e c93c f06d 37bc 78cc e13c
00000130: 3c4e 0a3d 658e b33b cd37 b23c e937 14bc
00000140: d5bf 173c 73f4 d13b 9096 6a3b ad26 bb3c
00000150: 4805 8b3d f6f3 d2bb 3013 de3b 29dd e53c
00000160: c294 8e3b bb68 053d 3907 dbbc 1428 483c
00000170: edf9 133c 5fe5 0c3d 7f8d 33bb 419c a23c
00000180: 1ba7 9b3d cd44 c7bc 1dfd 2a3d 5658 f03c
00000190: f52a 863c 379e 8e3c 4961 043b fd45 323d
000001a0: 8fc8 7d3c 3a85 0b3b 0aac 8f3d 29c5 dd3c
000001b0: eee2 4e3d 173e 503d 69b1 763c 15ad de39
000001c0: 4bc9 643d f85d 593c b2ee 513b 55d8 dcbb
000001d0: d99e e43c 7919 993b e9a3 0abc 7634 8b3c
000001e0: 81f2 633d 91a9 823d aa46 813d b0af 433c
000001f0: d885 d23b 0fb0 923d 98bd 7d3c 32f2 803c
00000200: e8f0 583b 61cb c3bc f015 f93c a136 f23c
00000210: 4603 6e3c fd29 a4bc 40a5 523d 91d2 8abc
00000220: aaba 763c d5dd 273d f523 283d 16d7 dd3c
00000230: 6bcc f438 920a c13c 4995 10bd 104e 873c
00000240: b024 083b a01d 883b 7ac1 303d a5f4 1f3d
00000250: 8e59 903d 962b 7a3d b13a f93c 7829 10bc
00000260: 1a28 ee3c 7784 a83b 2908 953d 8066 c7bb
00000270: dda3 ae3d c530 273d ca31 013d 79b7 923c
00000280: a074 9a3d 7cd3 003d 538a 4f3d bc63 a33c
00000290: 6899 993c 4e8b 6f3d 1090 c4bc c71b 22bd
000002a0: 9f98 343c 0287 f53c 13a3 473c f72c 573c
000002b0: 0f78 0a3d 5131 b03c 5a73 323c 15bc 8f3c
000002c0: 25b9 803c 9e23 1fbd 952c 9dbc d445 1f3d
000002d0: 06bf 2f3d 324d 173d fe67 6c3d afbd 90bc
000002e0: fc14 403d 832d 6f3d 0665 a83c fcf8 2b3d
000002f0: 6daf 4b3d 85c7 5f3d 2de8 123c c08d e73c
00000300: 6552 413c fb01 0a3d dadb f7bb a0a5 52bc
00000310: 0810 913c ee78 1d3d 33df 01bc 8e39 dd3c
00000320: c818 393c 606b 023d b9cb 2b3c fd2e 373c
00000330: d5ed 2d3c 2fa0 b23d 701a 853c 2fb5 50ba
00000340: 62cc ec3c b347 423d 25b7 913c c0dd f33c
00000350: 48b6 cc3c 1408 543d 4e47 0f3d e7d4 873d
00000360: fd0a 003d 212d 89bc 866c e13c aea9 263d
00000370: c164 2f3d 232b 423d 566b 3a3d 895a 2d3d
00000380: 43dd 2abb 9b03 693b f4c2 98ba d526 29bc
00000390: 2055 3e3d ea40 da3b 3eb6 fb3c f35f 4e3d
000003a0: 1d48 303d a68a 153b fece a73c 5b10 9c3c
000003b0: ed28 f63c 14a7 903c c2a2 e23c 27d7 d83c
000003c0: 2986 f63c ba92 393d 21e0 103c 7a2f 8c3c
000003d0: 52b6 0a3c af41 5f3c 5cf2 16bc eefa 8e3d
000003e0: fb2f c03c 7442 b4bc a4a8 1c3d 66d9 203c
000003f0: 6a15 1e3c 349a fc3b c3cc d13c 360f 043d
-0.007559362 0.013485505 0.056419503 0.06227686 0.009533776 0.05461423 0.0012148672 0.009546922
-0.015064179 0.024044754 0.0088893 0.0043231817 0.041223504 -0.026934758 0.07732084 0.054588575
-0.017684428 0.033808645 0.0041655605 0.0175578 0.015960814 0.006157739 0.03643915 -0.0023425727
0.029788299 0.020405674 -0.073398754 0.03220049 -0.0011468484 0.07286508 0.015319029 0.021283297
0.044541724 0.063746 0.046819843 0.015212752 0.021682706 0.006773521 0.037417017 0.0068512117
0.017081873 0.022759551 0.00743134 0.018538142 0.004728298 0.034624863 -0.009252003 -0.009920674
0.030536529 -0.0041902973 0.03284817 0.024877237 -0.010325618 0.018561164 -0.0043355413 0.045185488
0.033888973 0.02524555 0.016683975 0.02830346 0.010913528 -0.003163484 -0.025614718 -0.017192865
-0.01559714 0.0072907507 0.003404655 -0.014665546 0.04390607 -0.0070266374 -0.016590508 0.021869957
0.06315217 0.024588637 -0.011195645 0.027563319 0.033766016 0.0054796212 0.021755124 -0.009046533
0.009262045 0.0064073144 0.0035795309 0.02284559 0.06788117 -0.006437774 0.0067771897 0.028059559
0.0043512294 0.032570582 -0.026736842 0.012216587 0.009031755 0.034398433 -0.002739757 0.019849898
0.07600232 -0.024324799 0.041745294 0.029338997 0.016377905 0.017409427 0.0020199588 0.043523777
0.015489711 0.0021289126 0.07015236 0.027071552 0.050509386 0.050840463 0.015056946 0.00042472096
0.05585603 0.013267033 0.0032033143 -0.006739656 0.027907776 0.004672226 -0.008461931 0.016992789
0.05565119 0.063799985 0.06312306 0.011943743 0.006424647 0.07162487 0.015487097 0.015740488
0.0033102576 -0.02390069 0.030405968 0.029567065 0.014527148 -0.020039553 0.051427126 -0.016946109
0.015059153 0.04098304 0.041049916 0.0270801 0.000116729025 0.02356461 -0.03529862 0.016516715
0.002077382 0.004153922 0.043153264 0.03905167 0.07048331 0.061076723 0.030423494 -0.008798949
0.029071856 0.005142744 0.07276947 -0.006085217 0.08527348 0.040817995 0.031541623 0.017909752
0.07541776 0.031451687 0.050669026 0.019945018 0.018749908 0.05848246 -0.023994476 -0.03957727
0.011022716 0.029971603 0.012184876 0.013133279 0.033805903 0.02150789 0.01089176 0.01754574
0.015713284 -0.038852327 -0.019186297 0.038884953 0.042906784 0.036938854 0.057716362 -0.017668573
0.046895012 0.058393013 0.020555984 0.041985497 0.049727846 0.054633636 0.008966488 0.028265834
0.01179943 0.033693295 -0.00756405 -0.012856871 0.01770784 0.038445406 -0.00792675 0.027004983
0.011297412 0.031840682 0.010485583 0.0111806365 0.010615786 0.08721959 0.016247958 -0.0007961569
0.028906051 0.04743166 0.017787525 0.029768825 0.024989262 0.051765516 0.03498011 0.06632405
0.03126048 -0.016745152 0.027517568 0.040689163 0.042820696 0.04740442 0.04551252 0.04232267
-0.0026071824 0.0035555128 -0.001165478 -0.0103242 0.0464679 0.0066605704 0.030726548 0.050384473
0.043037523 0.0022818237 0.020484444 0.019050768 0.030048812 0.017657794 0.0276655 0.02646978
0.03009327 0.045305945 0.008842499 0.017112482 0.00846632 0.0136265 -0.009213056 0.06981455
0.023460379 -0.022004344 0.038246766 0.009817457 0.00964866 0.007708812 0.025610333 0.03224107

action_model._continuous_distribution.log_sigma f4 [1, 9]
00000000: 546b b3bd 81a5 c83c 841d 49bd c6b3 8dbd
00000010: e912 0bbe e41b 33bc 9b1b dc3d bc08 d43d
00000020: 7a60 923d
-0.087607056 0.02449298 -0.049100414 -0.06919055 -0.13581432 -0.010931943 0.10747453 0.103532284
0.07147308

action_model._continuous_distribution.mu.weight f4 [9, 256]
00000000: b330 983c 2926 cbbc f8ba 06bc b07e 513c
00000010: cbbf e83c 3e96 3c3d 5a64 53bd 7d54 d0bc
00000020: 7632 173d a78d 78bc dd4e c23c 7197 4ebd
00000030: 5ba4 95bd 5e7c 693d e0bf 173d 35f2 ec3c
00000040: 09db 873c 7901 d0bb b961 2ebd 8720 7d3d
00000050: 8358 b4bb 898a 34bc 73c6 f7bb 7853 d0bc
00000060: fd40 053b 4d79 73bd 8103 6ebc 92da 86bd
00000070: b74a 1b3c 583a 5a3b c6d6 19bd a206 9dbc
00000080: 5fbb b0bb 1be7 60bc cd44 7d3c 9a4e 65bd
00000090: 544a 98bc d9c9 083d 5519 ccbb 4eab 1f3b
000000a0: 823f 36bd dab4 0c3d b129 c4bc 8d2c 183c
000000b0: 56f8 1b3d cd46 f43c 22d8 583d 781f 2e3c
000000c0: 6b12 4abc 485d bcba 5053 4bbd ef5c 153d
000000d0: d454 fe3b 770b d7bd f22e bebc e1c0 46bd
000000e0: 97f0 40bd 5d44 98bd 4332 21bd 7474 883c
000000f0: da4a 8539 8878 053c d7ac 12bd 9065 f4bc
00000100: 51f5 663d 703d bcbd ab7c 573c 6e96 82bd
00000110: 5de9 b43d 83b0 b0bc ea48 aebc 4d5e b1bc
00000120: f93e 9b3c 8edf 28bd 16bd e8bd c098 0f3d
00000130: 818f 863d 33c6 ed3c 5660 8839 ea34 ec3b
00000140: 3fd2 be3c 3a28 703d aab1 ac3c 15cc b13c
00000150: 726a d63c d770 9ebd b195 cebc 0423 f1bd
00000160: eac8 9cbd 09aa ac3b 2b1b 59bd b1fd 88bd
00000170: 3995 723c 275b 7a3c 73fc 2a3b 26d7 5cbd
00000180: 7436 c63c 4f67 903c 8242 443d 3d9d 03bd
00000190: eae0 cf3b 926d 20bd 3366 273c c8cd c03d
000001a0: 357e 80bb 873b f83c ef06 1c3c 4a83 72bd
000001b0: 0f9a fdbc ecc7 d73c 1df6 03bd f3ce d83c
000001c0: daed 9d3c 225a 8d3b cba1 ae3d 6986 1e3c
000001d0: 40e0 febc d955 243d 410e f13c 9350 793c
000001e0: 3709 46bd e497 bbbd b46c 9b3d ccbb 213d
000001f0: ed1e 763a 15b9 8bbc 3837 8a3c aef3 533d
00000200: b4e9 50bd 8b5f a53d 6c09 80bd 6905 523d
00000210: 3903 8fbb 52c3 6c3c bde3 1abc b55e 8fbd
00000220: 806e 91bc 9bdf 20bd c906 d13d 8e7f f53c
00000230: 7355 1bbd 7ce3 3fbd d958 a5bc d904 e03b
00000240: 0a6d 833c bc84 31bc 8c5d 003d e5bc 9abd
00000250: d910 4e3d c602 593c f2be 1ebd 1cf2 563d
00000260: e1a7 cb3d de3d a93c 4f9a 883d b635 7bbd
00000270: d47f e33c 8d2f 96bc dd7f 203d 4081 b63d
00000280: f10e 5dbd ce4a 773d 7a4a fb3c f6b6 8abc
00000290: 8e3e 043d d711 4ebd f903 98bd d2b0 623c
000002a0: 0fc3 cfbc 69e4 f9bc fc6a a2bc 72bf e33c
000002b0: 5582 8bbd 201b 333d f368 90bb 6b09 02bc
000002c0: 34da 2f3d 4ab0 11bd 1764 983c 68d1 1e3c
000002d0: b346 843c 096e c83d 45bd 79bc 5541 483d
000002e0: b8e2 79bc 4bad a0ba b639 053d 5a80 f43c
000002f0: c908 b8bb 067c b9bc 298d 593d 0280 a6bd
00000300: 97f9 bf3b 5576 0e3d dcb4 4bbd f33b 04bd
00000310: 8afb 1fb9 e917 1ebc 6d59 96bd 2666 37bd
00000320: 5c9a 9ebc 0c4d 533d e049 4e3c fe73 393c
00000330: 11df 98bd cf27 42bd fed3 483c ec68 2d3c
00000340: 3923 a43d ee89 65bd 7500 0e3d af4a 533c
00000350: 72f4 4e3d 883f 1d3d afb1 38bd 9b1d 9bbd
00000360: 5361 263d f4ed a4bd f839 5cbd c463 293d
00000370: 90db 3d3d 14e7 e33d fa2f 73bd bf5c 5a3d
00000380: 7d15 913d 5eb9 a7bc 9ee7 443c 1ff4 bcbc
00000390: 5171 bf3b 848e 2abd bb09 9f3c f08b ed3b
000003a0: 4601 f8bd 92bc 0fbd 759a 463d eae5 90bc
000003b0: 797e 65bc a934 a23c 8b65 123d ba12 03bd
000003c0: 0e60 8ebc d194 90bb 8cbf 4fbc 5e92 23bd
000003d0: caef 293d c07b 973c ced8 9d3c 55a5 7e3d
000003e0: a169 8a3d 6dc2 893d c285 b93d 9701 07bd
000003f0: 64b2 223d 55fb 8c3c 942b a3bc 8367 03bd
0.01857791 -0.02479847 -0.008223288 0.012786552 0.028411767 0.04604172 -0.051609375 -0.025430912
0.036913358 -0.015170491 0.023719246 -0.050437395 -0.07306739 0.05700337 0.03704822 0.028924087
0.016583936 -0.006347832 -0.042573664 0.0617986 -0.0055037155 -0.0110193575 -0.007561499 -0.025430426
0.0020332925 -0.059441853 -0.014527203 -0.06584658 0.009478263 0.0033298936 -0.03755834 -0.019168202
-0.00539343 -0.013726975 0.015458298 -0.055983163 -0.01859013 0.033395622 -0.0062286058 0.002436358
-0.04449416 0.03435216 -0.023945661 0.0092879655 0.03807863 0.029818917 0.052940495 0.01062762
-0.012333493 -0.0014371062 -0.04964 0.03646558 0.007761577 -0.105002336 -0.023215745 -0.048523787
-0.047104444 -0.07434914 -0.039354574 0.016657092 0.00025423506 0.008146413 -0.035809364 -0.029833585
0.056386296 -0.09191406 0.013152282 -0.063763484 0.08833573 -0.021568542 -0.021275003 -0.021651411
0.018950926 -0.041228823 -0.1136419 0.035057783 0.0657034 0.029025173 0.00026011717 0.0072084563
0.023293613 0.058632113 0.02108081 0.02170376 0.026173804 -0.07736366 -0.025217863 -0.11774257
-0.07655509 0.005269293 -0.053004425 -0.06689013 0.014806085 0.0152805215 0.0026090413 -0.05391612
0.024195887 0.017627386 0.04791499 -0.032132376 0.0063439505 -0.039166994 0.010217237 0.0941425
-0.003921295 0.030301822 0.0095231375 -0.05920724 -0.03095725 0.026340447 -0.032217134 0.026465869
0.019278456 0.004313723 0.08526953 0.009675601 -0.03111279 0.040120933 0.029425742 0.015216964
-0.04834863 -0.0915983 0.07589093 0.039485738 0.00093887636 -0.017056027 0.016872033 0.051746063
-0.051004127 0.08074864 -0.06251797 0.05127469 -0.004364398 0.014450865 -0.009453711 -0.07000486
-0.017752886 -0.039275747 0.10206372 0.02996805 -0.037923288 -0.046847805 -0.020183967 0.0068365154
0.016043205 -0.010834869 0.031339213 -0.0755556 0.050309036 0.01324529 -0.03875632 0.052476987
0.0994413 0.020659383 0.06670057 -0.06133052 0.027770914 -0.01833322 0.03918444 0.08911371
-0.053969327 0.060374074 0.030675162 -0.016932946 0.03228622 -0.050309982 -0.07422633 0.013836103
-0.025361566 -0.030504422 -0.019826405 0.02780125 -0.06811968 0.04372704 -0.004407042 -0.007936816
0.042932704 -0.035568513 0.018602414 0.009693481 0.016146993 0.097866125 -0.015242879 0.04889043
-0.015251808 -0.0012258677 0.03252574 0.029846359 -0.0056162816 -0.022642147 0.053113136 -0.08129884
0.005858611 0.03478082 -0.049733028 -0.032283735 -0.00015257127 -0.009649255 -0.07341275 -0.04477515
-0.019360714 0.05158715 0.012590855 0.011319159 -0.074644215 -0.047401246 0.012257574 0.010584097
0.08014531 -0.056039743 0.034668405 0.012896224 0.05052609 0.038390666 -0.045091327 -0.07574006
0.04062016 -0.080531985 -0.05376622 0.04135491 0.04635197 0.11128059 -0.059371926 0.053311106
0.07084177 -0.020474132 0.0120181125 -0.023065625 0.005842366 -0.04163982 0.01941382 0.007249348
-0.12109618 -0.035091944 0.048487145 -0.017687757 -0.014007204 0.019800501 0.03574137 -0.03200028
-0.017379787 -0.0044122715 -0.012679946 -0.03993451 0.041488446 0.018491626 0.01926842 0.06216939
0.06758428 0.06726537 0.090587154 -0.0329605 0.039720908 0.017209688 -0.01991824 -0.03208114

action_model._continuous_distribution.mu.bias f4 [9]
00000000: 4517 9a3c 2d7a efbc 0a37 35bc 931a 3abc
00000010: 95bc cc3b 1bd8 eebc 136b 90bc 9d4a 1cbd
00000020: c13b 0dbb
0.018809924 -0.029233063 -0.011060486 -0.011358875 0.0062480667 -0.029155781 -0.017629182 -0.038157094
-0.0021550509
