results/soloWorm/Worm/Worm-6499944.onnx (onnx, 581953 bytes, 9 tensors)

network_body._body_endoder.seq_layers.0.weight f4 [256, 39]
0	0x3e46b7e5	0.19406088
1	0xbe817926	-0.2528774
2	0x3e332165	0.17493208
3	0xbd59dfed	-0.053192068
4	0xbd7f4934	-0.06232567
5	0x3e68c68f	0.22731994
6	0x3d9fd23d	0.07803772
7	0xbe194c78	-0.14970577
8	0xbd0486ab	-0.032354992
9	0x3debba6d	0.11510167
10	0x3d995b6b	0.0748814
11	0x3dfb4254	0.122685105
12	0xbd36e95d	-0.044656146
13	0x3d2c9b28	0.042140156
14	0x3e23b0ce	0.15985414
15	0x3cc143c9	0.023591893
16	0xbe327c3d	-0.17430206
17	0x3decd8bb	0.115647756
18	0xbeab9c08	-0.3351748
19	0x3db59755	0.08866755
20	0x3e4aecdc	0.19816917
21	0x3dd5b274	0.10434428
22	0xbe348147	-0.1762744
23	0xbe98948c	-0.29800832
24	0x3bb036c5	0.005377623
25	0x3c58395f	0.013197272
26	0xbe5b90bd	-0.21441932
27	0xbe259d02	-0.16173175
28	0x3e3fd445	0.18733318
29	0x3da11a75	0.078663744
30	0x3d82862a	0.06373246
31	0xbe4ff76b	-0.20309226
32	0x3d9e228c	0.07721433
33	0xbd836b36	-0.06416933
34	0x3ecdca85	0.40193573
35	0xbd8d6b93	-0.06905284
36	0x3d8d9e7e	0.069149956
37	0xbe1a8248	-0.15088761
38	0xbe09817e	-0.13428304
39	0xbcccb16e	-0.024986949
40	0xbdad9597	-0.084757976
41	0x3e919156	0.28431195
42	0xbdcb6411	-0.099311955
43	0x3bc0083c	0.0058603566
44	0xbde628f3	-0.11238279
45	0xbd03964b	-0.032125752
46	0x3eabb5c9	0.3353713
47	0xbe067745	-0.13131435
48	0x3e370c09	0.17875685
49	0xbe8846a6	-0.266164
50	0x3db1f1e4	0.08688715
51	0x3ddc4f59	0.10757322
52	0xbd996f61	-0.07491947
53	0x3e00461a	0.12526742
54	0xbe55ce5e	-0.20879504
55	0x3d6d31cf	0.05790883
56	0xbdcb87bc	-0.09937999
57	0xbe2c4a1d	-0.16825147
58	0x3dc265ea	0.09492095
59	0xbcdc9cfd	-0.026930327
60	0xbe1c8998	-0.15286863
61	0xbee32e78	-0.4437139
62	0x3a680b04	0.0008851739
63	0xbdea5161	-0.11441303
64	0xbd5b52cd	-0.05354576
65	0x3d5fae15	0.054609377
66	0xbdaf72b2	-0.08566798
67	0xbd1fc595	-0.03900679
68	0x3d674d8c	0.05647044
69	0xbd8f30d4	-0.06991735
70	0xbd5ae6f4	-0.05344291
71	0xbd25ce2b	-0.04047982
72	0xbe601fb2	-0.21887091
73	0xbd44f04c	-0.048080727
74	0x3a72c40f	0.00092607824
75	0xbe222a44	-0.15836436
76	0xbd866491	-0.0656215
77	0xbe3aed3f	-0.18254565
78	0xbd50363e	-0.05083298
79	0x3e9d8b1a	0.3077019
80	0x3dfd4234	0.12366143
81	0xbe121963	-0.14267497
82	0x3e5f58bd	0.21811195
83	0x3d9e8c2d	0.0774158
84	0x3d03c338	0.032168597
85	0xbe26194b	-0.16220586
86	0x3e0c4680	0.13698769
87	0xbe14a353	-0.14515428
88	0x3eb04007	0.3442385
89	0x3d6e3022	0.05815137
90	0x3e6cae71	0.23113419
91	0x3ecf542a	0.404939
92	0xbe2c9dda	-0.1685709
93	0x3ea23b42	0.31685835
94	0x3db984d9	0.09058542
95	0xbe60088e	-0.21878263
96	0x3d823afe	0.06358908
97	0x3e238ed8	0.1597246
98	0x3e14ee11	0.1454394
99	0x3e1645d0	0.14675069
100	0x3cc19c90	0.023634225
101	0x3e0b0a72	0.13578203
102	0xbdbfc53d	-0.09363792
103	0x3e4a3ecf	0.19750522
104	0x3d270e96	0.040785395
105	0x3dcfd5f6	0.10148232
106	0x3e5e88aa	0.2173182
107	0x3db75768	0.08952218
108	0x3e9398a9	0.28827408
109	0x3d616c86	0.055035137
110	0xbc42a6e9	-0.011880615
111	0xbe9e0377	-0.30862018
112	0x3e39faaa	0.18162027
113	0xbcdaaa37	-0.026692493
114	0x3dc9ed91	0.09859765
115	0x3ebc3294	0.36757338
116	0x3dfce04e	0.1234747
117	0x3df46087	0.11932474
118	0x3e4430b9	0.19159211
119	0x3dc253a2	0.09488608
120	0xbc16fcd1	-0.00921555
121	0x3e065f0b	0.13122194
122	0xbc1d6a13	-0.00960781
123	0xbdf579d5	-0.11986128
124	0x3eb840db	0.3598698
125	0x3d8b825c	0.068119735
126	0xbe53da64	-0.20688778
127	0x3e16a812	0.14712551
128	0xbd134f7c	-0.035964474
129	0x3d0d0176	0.03442522
130	0xbe57e917	-0.2108501
131	0xbde57acd	-0.11205063
132	0x3e8b280f	0.27179
133	0x3ead923a	0.33900625
134	0xbe2e7fbf	-0.17040919
135	0x3e85ba50	0.26118708
136	0x3e16e21c	0.14734691
137	0x3d7af64d	0.061270047
138	0x3e23761a	0.15963021
139	0x3e57f019	0.21087684
140	0x3ec84962	0.39118487
141	0xbd970beb	-0.0737532
142	0x3d981e02	0.074275985
143	0x3e6b7bc8	0.22996438
144	0x3d649da0	0.055814385
145	0x3c41c75a	0.011827314
146	0x3e95bc6e	0.29245323
147	0xbe184e65	-0.14873655
148	0xbddc3478	-0.10752195
149	0x3d831f94	0.064025074
150	0xbd8a0ce2	-0.067407385
151	0x3cc76dbd	0.02434432
152	0xbd974c05	-0.073875464
153	0x3e73acd1	0.23796393
154	0xbde5fd6a	-0.112299755
155	0xbd6caf0f	-0.057784136
156	0x38e93d48	0.0001112172
157	0x3d10b070	0.035324514
158	0xbba8c536	-0.0051504625
159	0xbe82d5b3	-0.25553665
160	0xbd523c28	-0.0513269
161	0x3c1147a0	0.008867174
162	0x3e1ac8d7	0.15115677
163	0x3e9acc90	0.30234194
164	0xbe017818	-0.12643468
165	0x3e03ff19	0.12890281
166	0x3ca439a2	0.020047013
167	0x3e051344	0.1299563
168	0xbe45dd1f	-0.19322632
169	0xbda1ccff	-0.07900428
170	0xbba37e8f	-0.004989452
171	0xbbaa9ad6	-0.005206446
172	0x3e56d0ed	0.20978136
173	0x3e738073	0.23779468
174	0x3e163b2e	0.14671013
175	0x3e1c6f3e	0.1527681
176	0xbbd8c6c5	-0.006615492
177	0x3e818998	0.25300288
178	0x3b604a25	0.003422388
179	0xbeb50a3c	-0.3535937
180	0x3dccbd3e	0.099970326
181	0xbdbd85bf	-0.09254026
182	0xbd442c77	-0.047893967
183	0xbc776ee5	-0.015102123
184	0x3d16e790	0.03684193
185	0xbcb37016	-0.021904033
186	0xbd5a1fe8	-0.053253084
187	0xbe335350	-0.1751225
188	0x3c650369	0.013977864
189	0xbda6e151	-0.081484444
190	0xbe20622c	-0.1566245
191	0xbe7dc6a0	-0.247828
192	0x3d74f485	0.059803504
193	0x3db12c8b	0.08651074
194	0xbe417ef6	-0.18896088
195	0x3e18a8d6	0.14908156
196	0xbe085420	-0.13313341
197	0xbe016569	-0.12636341
198	0xbe3fa5fb	-0.1871566
199	0x3e71853d	0.23585983
200	0xbb61684b	-0.003439444
201	0x3e0dda7f	0.13852881
202	0xbed934a4	-0.42422974
203	0x3e887eac	0.26659143
204	0xbc993b76	-0.018705111
205	0xbdce460c	-0.10071954
206	0x3e8b64cc	0.2722534
207	0x3e8bcf18	0.27306437
208	0xbedd4afe	-0.43221277
209	0x3d89b800	0.06724548
210	0xbd25563d	-0.040365446
211	0xbe162526	-0.14662609
212	0x3dd7fef0	0.10546672
213	0xbec3721e	-0.38173002
214	0xbd2c6129	-0.042084847
215	0xbe8df736	-0.2772767
216	0x3e7ae1ab	0.24500148
217	0xbd1e3353	-0.038623165
218	0x3d9eca29	0.07753403
219	0x3db39a6f	0.0876969
220	0x3d74269a	0.059607126
221	0x3d4df242	0.050279863
222	0x3e537666	0.20650634
223	0xbd9e6b6b	-0.07735332
224	0x3e232834	0.15933305
225	0x3e42057d	0.18947406
226	0xbdbf70f1	-0.09347714
227	0xbd2fab99	-0.042888258
228	0xbe60446b	-0.219011
229	0xbdd8b122	-0.105806604
230	0xbd2c0b84	-0.04200317
231	0xbcbe829b	-0.023255637
232	0x3cbfcf37	0.023414237
233	0x3dae1565	0.085001744
234	0x3d926f0b	0.07150086
235	0x3e6029a4	0.21890885
236	0xbc054e1d	-0.008136299
237	0x3e426c0e	0.18986532
238	0xbe1307dc	-0.14358467
239	0xbdefc7bb	-0.117080174
240	0xbeab6544	-0.33475697
241	0xbdc64d6a	-0.09682734
242	0xbe1fb3d0	-0.15595937
243	0xbe5a9f43	-0.21349816
244	0x3e223a42	0.15842536
245	0xbe4ad5c0	-0.19808102
246	0xbe43de13	-0.19127683
247	0x3ea39e70	0.31956816
248	0x3d5201c9	0.051271234
249	0x3cfc836a	0.030824382
250	0x3e5c80e3	0.21533541
251	0xbc582e01	-0.013194562
252	0xbd4c45ee	-0.049871378
253	0xbdd437d0	-0.10362208
254	0x3cf4ae87	0.029868377
255	0xbdcf32fd	-0.10117147

network_body._body_endoder.seq_layers.0.bias f4 [256]
0	0x3c5abf29	0.01335124
1	0xbd4d6bca	-0.050151624
2	0x3c007614	0.007840652
3	0x3c7f51a5	0.01558343
4	0xbc81a4f9	-0.015825735
5	0x3cf78eb1	0.030219408
6	0xbd0bdc34	-0.03414555
7	0x3d1e4e38	0.038648814
8	0xbd6e01ec	-0.0581073
9	0x3c344845	0.0110035585
10	0xbd10c109	-0.035340343
11	0x3cebcf50	0.028785378
12	0x3d5e30a9	0.054245625
13	0x3d8aeed8	0.06783837
14	0x3da13d9c	0.07873079
15	0x3ca5ba05	0.020230303
16	0xbc755d9b	-0.014975931
17	0x3cf8eb2d	0.030385578
18	0xba57d4d2	-0.0008233312
19	0x3c866430	0.016405195
20	0x3d610769	0.054938708
21	0x3d1f7be5	0.038936514
22	0xbc9af7cb	-0.018916985
23	0xbd435223	-0.047685754
24	0x3c9a6fa5	0.018852064
25	0x3d2d030c	0.042239234
26	0xbb6b0523	-0.0035861216
27	0xbc19fecb	-0.009399126
28	0x3c515467	0.012776471
29	0x3d44ea89	0.048075233
30	0x3d3b7488	0.04576543
31	0x3d936eda	0.07198878
32	0xbce0bea2	-0.02743465
33	0x3d09907d	0.03358506
34	0x3c2d0487	0.010560161
35	0xbd8d0cd0	-0.068872094
36	0xbc847946	-0.016171109
37	0x3cfe266b	0.031024178
38	0x3c613b7c	0.013747092
39	0x3ce30e9e	0.027716931
40	0x3d696393	0.056979727
41	0x3c0ef1ff	0.008724689
42	0x3c843e9e	0.01614314
43	0xbba960e6	-0.005169022
44	0x3d0bbef8	0.03411767
45	0x3a91977b	0.0011107767
46	0x3d02ba42	0.03191591
47	0xbc4360a6	-0.011924898
48	0x3cea6561	0.028612794
49	0xbd1f543e	-0.0388987
50	0xbadea7d3	-0.0016987271
51	0x3d1911ad	0.037370373
52	0xbcdfaa5d	-0.027302915
53	0x3cfb2792	0.030658517
54	0xbcfe012c	-0.031006418
55	0x3d71478f	0.058906134
56	0x3da3334b	0.07968768
57	0xbb6af1bb	-0.003584965
58	0xbcdc184b	-0.026867053
59	0x3c3cd956	0.011526426
60	0x3c8042a3	0.015656775
61	0xbcf14ead	-0.02945646
62	0x3d3634a7	0.044483807
63	0xbd2b41c2	-0.04181076
64	0x3d1050f2	0.035233445
65	0xbcc67386	-0.024225008
66	0x3d2ae328	0.04172054
67	0x3c5299e1	0.01285407
68	0x3d7f0221	0.06225789
69	0xba8651ed	-0.0010247804
70	0xbd0c5df0	-0.034269273
71	0x3ca66609	0.020312326
72	0x3cb3b853	0.021938479
73	0x3cdc4cce	0.026892092
74	0x3d85dc91	0.0653621
75	0x3bc18590	0.0059058145
76	0xbd0a9d12	-0.0338412
77	0xbd2e46e6	-0.042548083
78	0xbc3a5f96	-0.0113753285
79	0xbd845707	-0.06461912
80	0xbbd1a571	-0.006397896
81	0x3c9cf392	0.019159112
82	0x3c29b308	0.010357626
83	0xbcc4140a	-0.023935337
84	0xbcbdf665	-0.02318878
85	0xbcb135ad	-0.02163204
86	0x3c47d791	0.012197391
87	0x3d00e7e9	0.031471167
88	0x3b531461	0.0032208192
89	0x3cbebe65	0.023284147
90	0x3d04d7c7	0.032432344
91	0x3d54ebdc	0.051982746
92	0x3d6bc997	0.057565298
93	0xbca333d7	-0.01992218
94	0x3d68e4ba	0.056858756
95	0x3d451fdb	0.048126083
96	0xbd2ac68c	-0.041693255
97	0xbcf16329	-0.029466229
98	0x3b8246a8	0.003975708
99	0x3c96bf93	0.018401897
100	0xbc27d2d1	-0.010243134
101	0x3c94cb71	0.018163415
102	0x3b3fb6f7	0.0029253343
103	0x3ce90828	0.028446272
104	0x3c269ba7	0.010168946
105	0xbc0385e1	-0.008027525
106	0x3cfc39c5	0.030789265
107	0x3c47008f	0.012146129
108	0x3c4df3e4	0.012570355
109	0x3ae92a0c	0.001778902
110	0x3c38d93f	0.011282264
111	0x3ce79034	0.028267004
112	0x3c2fd3fb	0.010731692
113	0x3ca10161	0.019653978
114	0xbc0e402c	-0.008682292
115	0x3ca5dac6	0.02024592
116	0xbbd87065	-0.0066051953
117	0x3c60587d	0.013692972
118	0x3ae901e5	0.0017777054
119	0x3c5786fe	0.013154743
120	0xbd0d1999	-0.03444824
121	0x3b0414e1	0.0020154046
122	0x3adb0281	0.001670912
123	0xbb9bf9ad	-0.0047599883
124	0xbc106de7	-0.008815265
125	0xbcd402e8	-0.025880292
126	0x3d224594	0.039617136
127	0xbd87c4f1	-0.066293605
128	0x3cbd2416	0.023088496
129	0xbd8ef56e	-0.06980406
130	0x3d3fd391	0.046832625
131	0xbb073ab3	-0.0020634353
132	0x3d0197ff	0.031639095
133	0x3c3a3cf8	0.011367075
134	0x3cd89ef9	0.026442992
135	0x3d5eed3a	0.054425456
136	0xbcc0cb2f	-0.023534385
137	0x3b632b20	0.0034663156
138	0xbcb2aa77	-0.0218098
139	0x3b1e597f	0.002416223
140	0x3d7f6338	0.06235048
141	0x3c752c19	0.014964127
142	0xbb36972a	-0.0027861097
143	0xbc61f31d	-0.013790873
144	0xbd3ea24c	-0.046541497
145	0xbd592431	-0.05301303
146	0xbc6eed9c	-0.014583018
147	0xbd179555	-0.03700765
148	0xbd05370d	-0.032523204
149	0xbc4b22f6	-0.012398472
150	0xbd51a11d	-0.05117904
151	0xbcb1a4db	-0.021685055
152	0xbd193cb2	-0.0374114
153	0xbccd149d	-0.025034243
154	0x3cbb59f6	0.022870045
155	0x3d5fa698	0.054602236
156	0xbcdca55b	-0.026934316
157	0xbc86495d	-0.016392404
158	0xbc039ce4	-0.008033011
159	0x3c670fff	0.014102935
160	0xbb83cf4e	-0.0040225154
161	0x3d960825	0.07325772
162	0xbcea2520	-0.028582156
163	0x3d0fa096	0.035065256
164	0x3aeeaedd	0.0018210072
165	0x3d0417d4	0.032249287
166	0xbb99f450	-0.004698314
167	0xbcc03e1f	-0.023467122
168	0xbca32428	-0.019914702
169	0xbcf044c9	-0.029329674
170	0xbd2f5a37	-0.042810645
171	0xbb3fd2f1	-0.0029270018
172	0x3d7309a2	0.05933536
173	0x3c9d3ecf	0.019194989
174	0x3cafabca	0.02144422
175	0x3d465b2a	0.048426785
176	0x3d3657d8	0.044517368
177	0x3ca28c10	0.019842178
178	0xbce3aac7	-0.027791394
179	0x3ce5071b	0.02795749
180	0xb8f24781	-0.00011552778
181	0xbcc42fa2	-0.023948494
182	0xbd01b2d5	-0.03166469
183	0xbca4f537	-0.020136459
184	0xbc812952	-0.015766773
185	0x3cdfa3db	0.027299812
186	0xb9ca03ca	-0.00038531265
187	0xbc94d76c	-0.018169127
188	0x3ca77f8c	0.020446561
189	0xbcae7c55	-0.02129952
190	0xbd1166e2	-0.035498507
191	0x3cb5b4df	0.022180973
192	0x3d9d9c99	0.07695884
193	0x3cc71520	0.024302065
194	0x3d5b71d9	0.05357537
195	0x3e0c7c73	0.13719349
196	0x3d740e5a	0.059584
197	0xbd217768	-0.039420515
198	0xbb585594	-0.0033009993
199	0x3baadaed	0.0052140863
200	0xbb936b15	-0.004498849
201	0xbd205d77	-0.039151635
202	0xbda94f04	-0.08267024
203	0x3d0b077f	0.033942696
204	0x3c7163eb	0.014733295
205	0xbcc31e6e	-0.023818221
206	0x3b384f71	0.0028123523
207	0x3c5a00b7	0.0133058345
208	0x3c81c2ea	0.015840013
209	0x3db4c6ab	0.088269554
210	0xbcda72fb	-0.026666155
211	0x3d80c8c8	0.06288296
212	0xbcd50102	-0.026001457
213	0xbbf083b4	-0.007339919
214	0xbb141187	-0.0022593455
215	0x3d54ddf6	0.05196949
216	0xbc9aac89	-0.0188811
217	0x3c94f454	0.018182911
218	0x3ceb01a6	0.02868731
219	0x3cf65a6c	0.030072413
220	0xbccafe48	-0.024779454
221	0xbd935ec5	-0.0719581
222	0x3c15d4fc	0.009145018
223	0x3c1cd064	0.009571169
224	0x3da654d0	0.081216455
225	0x3d060575	0.032720048
226	0xbbfdb7e8	-0.0077428706
227	0xb833b6d4	-4.2847198e-05
228	0x3d11a575	0.035558183
229	0x3d0757f3	0.03304286
230	0x3d8a1724	0.06742695
231	0xbb7a42f5	-0.0038186882
232	0x3cc8f5e8	0.02453132
233	0x3d2970bd	0.04136728
234	0x3dd7e4af	0.10541665
235	0x3d271f77	0.04080149
236	0xbd1dc090	-0.03851372
237	0x3d2c8f3e	0.042128794
238	0x3d4bc691	0.049749915
239	0xbcfe2961	-0.03102559
240	0x3ce5e1fb	0.028061857
241	0x3d1d173c	0.038352236
242	0xbd3e035e	-0.04638993
243	0x3da56f06	0.08077817
244	0xbbe85f02	-0.007091404
245	0x3cd8c619	0.026461648
246	0x3c9ed0bf	0.019386647
247	0x3d526f99	0.05137596
248	0x3d8cf1d3	0.06882062
249	0x3cf7e38c	0.03025987
250	0x3cd0b2e2	0.025475923
251	0x3cb28663	0.021792596
252	0xbc745ad6	-0.014914235
253	0x3d6233cd	0.055225182
254	0xbcdbba5a	-0.026822258
255	0x3d3eeb3b	0.046611052

network_body._body_endoder.seq_layers.2.weight f4 [256, 256]
0	0xbcbe915e	-0.023262676
1	0x3da34acf	0.07973253
2	0x3d0b53e4	0.03401555
3	0x3d693403	0.056934368
4	0xbca3245b	-0.019914797
5	0xbe020b41	-0.12699606
6	0xbdd09c63	-0.101860784
7	0x3c39577a	0.01131236
8	0xbdd812dc	-0.10550472
9	0x3d210ed1	0.03932077
10	0xbd90a3a7	-0.07062464
11	0xbe1c2e59	-0.15252055
12	0x3d8d1850	0.06889403
13	0x3d191cbb	0.037380915
14	0x3d39e968	0.04538861
15	0xbdd41123	-0.10354831
16	0x3dc8902e	0.09793125
17	0x3d1436b1	0.03618497
18	0x3da14be7	0.07875805
19	0xbccbb730	-0.024867624
20	0xbd294bf6	-0.041332208
21	0x3c8cb946	0.017178189
22	0xbd243568	-0.040089995
23	0x3d58d2a3	0.052935254
24	0x3e06f2e6	0.13178596
25	0xbd291f28	-0.04128948
26	0xbd3dfa8f	-0.04638153
27	0xbdb90711	-0.09034551
28	0x3dc50a1b	0.09621068
29	0x3e1a6a13	0.15079527
30	0xbd201537	-0.039082732
31	0xbd6bfb0d	-0.057612468
32	0x3cc58bc5	0.024114499
33	0x3aa48ecc	0.0012554764
34	0xbdcb2de7	-0.099208646
35	0x3b59253a	0.003313376
36	0x3c8b6cb8	0.017019615
37	0xbd87e3bf	-0.06635236
38	0xbda4a44a	-0.08039148
39	0xbc8de9ad	-0.01732334
40	0xbd823292	-0.06357302
41	0x3d218898	0.039436907
42	0x3e17d1d0	0.14826131
43	0x3d25c064	0.04046668
44	0x3d7f4b0e	0.062327437
45	0xbd43d604	-0.047811523
46	0x3ddd1382	0.107947364
47	0x3d25ab30	0.04044646
48	0x3cdac8b2	0.026707027
49	0x3c5c9f70	0.013465747
50	0xbdf55ac9	-0.119802065
51	0xbc364b7b	-0.011126394
52	0xba2ead9b	-0.00066634425
53	0xbd1b4ba7	-0.037913945
54	0xbe273c8e	-0.16331694
55	0xbca1fd86	-0.01977421
56	0xbd3f98da	-0.04677663
57	0x3cc4f97b	0.024044743
58	0x3e0e0af0	0.1387136
59	0xbc5bf838	-0.013425879
60	0x3dbc5e02	0.09197618
61	0x3dc0fe98	0.0942356
62	0x3cfd6e26	0.030936312
63	0x3d32e56c	0.043675825
64	0xbc182966	-0.009287214
65	0x3b82bda1	0.0039898907
66	0x3d105dbf	0.035245653
67	0xbdfcf040	-0.123505116
68	0xbc3af4ab	-0.011410872
69	0x3d8e0981	0.069354065
70	0xbd49edf9	-0.049299214
71	0xbd58e2ec	-0.052950785
72	0xbc24a195	-0.01004829
73	0xbdf807d1	-0.12110866
74	0xbd35c34c	-0.044375703
75	0xbe07bff0	-0.13256812
76	0xbac12925	-0.0014736993
77	0x3d9fa67a	0.07795425
78	0x3d382508	0.04495719
79	0xbd0a80e9	-0.033814345
80	0x3cfe5161	0.031044664
81	0xbcdcb724	-0.026942797
82	0x3e0e6306	0.13904962
83	0x3bb713c4	0.005587073
84	0x3dda4664	0.10657957
85	0xbdb9a325	-0.090643205
86	0x3d91883a	0.07106061
87	0xbd7b4ac2	-0.06135059
88	0xbc5d6d0c	-0.013514768
89	0xbddb309e	-0.10702632
90	0xbd73c638	-0.059515208
91	0x3d5155f2	0.051107354
92	0x3b1ecde8	0.0024231616
93	0x3d88fce1	0.06688858
94	0x3d736cad	0.059429813
95	0x3e38b729	0.1803862
96	0xbd541a33	-0.051782798
97	0x3e18f940	0.14938831
98	0xbc40dae0	-0.011770934
99	0xbcdc0661	-0.02685851
100	0xbd54f7b9	-0.05199406
101	0x3c60537d	0.01369178
102	0x3e26f73b	0.16305248
103	0x3dcb0c7f	0.09914493
104	0x3c7b2c5a	0.015330398
105	0xbd8e175d	-0.0693805
106	0xbdc2d41e	-0.095131144
107	0x3da7fd9c	0.08202669
108	0x3ddfa434	0.10919991
109	0x3e0ec906	0.13943872
110	0xbdb6dfe0	-0.089294195
111	0xbcace339	-0.021104442
112	0xbaf7a5c6	-0.0018894009
113	0xbd001e4a	-0.031278886
114	0xbde4cad0	-0.11171496
115	0x3dc810da	0.09768839
116	0x3c7cd2a1	0.015431077
117	0xbcdb879a	-0.026798058
118	0xbdf8e2fc	-0.12152669
119	0x3bace87d	0.005276738
120	0xbd6ab5c4	-0.05730225
121	0xbcedbecf	-0.029021649
122	0xbd91f8e6	-0.07127552
123	0xbdc4aa5b	-0.09602805
124	0x3c9b7363	0.01897592
125	0xbcd6463f	-0.026156543
126	0x3b045eab	0.0020198028
127	0xbcfbed45	-0.030752787
128	0xbda89159	-0.08230848
129	0x3d8e2336	0.0694031
130	0x3c5df804	0.013547901
131	0xbd2a4fc4	-0.041579977
132	0xbd4015ba	-0.04689572
133	0xbd217959	-0.039422367
134	0x3c5b3515	0.013379355
135	0x3deed01a	0.11660786
136	0x3a317148	0.00067688944
137	0x3d8bf1e0	0.06833243
138	0x3d781138	0.060563296
139	0xbca8f9c4	-0.02062691
140	0x3dea69a7	0.11445933
141	0x3d36b674	0.044607595
142	0x3d825155	0.06363169
143	0x3da13fb4	0.078734785
144	0xbd852645	-0.0650144
145	0x3e125ba5	0.14292772
146	0xbde46bd7	-0.11153381
147	0x3dbb385b	0.09141608
148	0xbcf4f306	-0.029901039
149	0xbb7e0313	-0.0038759157
150	0xbd22e7d1	-0.03977186
151	0xbddeb73f	-0.10874795
152	0x3c05c4c5	0.008164589
153	0x3cbf10c2	0.02332342
154	0xbb6e43b4	-0.0036356272
155	0xbd40ec94	-0.04710062
156	0xbd632dac	-0.055463478
157	0x3d48c546	0.04901626
158	0xbd8d3bfd	-0.068962075
159	0xbcb1305c	-0.021629505
160	0xbd0632cb	-0.032763284
161	0xbd328d0c	-0.043591544
162	0x3d3fc996	0.046823107
163	0xbc2dd384	-0.010609511
164	0x3d740119	0.05957136
165	0x3e01322a	0.12616792
166	0xbda4fee6	-0.080564305
167	0x3ce8b57c	0.028406851
168	0x3cf4a0a5	0.029861758
169	0x3df6e24b	0.12054881
170	0x3d812d11	0.06307424
171	0x3b1150a9	0.0022173321
172	0xbdb043d8	-0.0860669
173	0xbb246cfa	-0.002508937
174	0x3d1b5765	0.037925143
175	0x3d89f911	0.06736959
176	0x3e10a7f0	0.14126563
177	0x3c10706b	0.008815865
178	0xbd11d17b	-0.035600167
179	0xbdb0b122	-0.086275354
180	0x3c9f787b	0.01946663
181	0xbe248370	-0.16065764
182	0x3db85a20	0.09001565
183	0xbd3f84b1	-0.046757404
184	0x3e39dcbc	0.1815061
185	0xbdeb235e	-0.11481355
186	0xbc54ceb7	-0.012988738
187	0x3dcc9118	0.09988612
188	0x3d7f23f5	0.06229015
189	0x3e248ee7	0.16070138
190	0xbda79fd9	-0.081847854
191	0xbb9134f8	-0.004431363
192	0xbded61db	-0.1159093
193	0x3c43b791	0.011945621
194	0x3c6a7b26	0.014311587
195	0x3dd8b25a	0.10580893
196	0x3c0aec42	0.00847918
197	0xbd0cc667	-0.0343689
198	0xbe2ed319	-0.17072715
199	0xbce7701d	-0.028251702
200	0xbdfda163	-0.12384298
201	0xbd8f93c9	-0.0701061
202	0xbdcfcd71	-0.10146607
203	0xbca98d5c	-0.020697288
204	0xbd8ffa08	-0.070301116
205	0xbd76b1d9	-0.060228202
206	0x3e1183f7	0.14210497
207	0xbe178721	-0.14797641
208	0xbcbf0ba2	-0.023320977
209	0x3c867757	0.016414328
210	0xbdd45438	-0.10367626
211	0x3d81e119	0.06341762
212	0x3d179f88	0.037017375
213	0xbd82744b	-0.063698374
214	0x3c80a509	0.015703695
215	0xbc8109de	-0.015751775
216	0x3dbe5c44	0.09294942
217	0xbdce1e2c	-0.100643486
218	0x3d8acfa7	0.06777888
219	0xbe0270a7	-0.12738286
220	0xbcf45830	-0.029827207
221	0xbdad76f2	-0.08469953
222	0xbda10ed3	-0.078641556
223	0xbc55d9d3	-0.013052422
224	0x3d58dd66	0.052945517
225	0xbdd7a2ec	-0.10529122
226	0xbe3423b1	-0.1759174
227	0x3d1c737e	0.03819608
228	0x3dbefdc9	0.093257494
229	0xbc2dd83c	-0.010610636
230	0xbd4abfb9	-0.049499247
231	0xbd1bf0c7	-0.03807142
232	0xbd832c36	-0.06404917
233	0x3dc8ab0f	0.09798252
234	0xbd565d7b	-0.052335244
235	0x3d58078b	0.05274157
236	0xbd87afcc	-0.066253275
237	0xbd8beddb	-0.06832477
238	0x3e09fd22	0.13475469
239	0x3c97e66f	0.018542496
240	0xbdf73144	-0.120699435
241	0x3ca38718	0.019961879
242	0xbd993690	-0.0748111
243	0xbbd5b753	-0.006522098
244	0xbe411d1a	-0.18858758
245	0xbc61c2fc	-0.013779398
246	0xbdb368d7	-0.08760231
247	0x3d8f99dd	0.07011769
248	0xbd89a855	-0.0672156
249	0xbd23972c	-0.03993909
250	0x3c9cc90b	0.019138834
251	0x3d4a88da	0.049446918
252	0xbc06e243	-0.008232656
253	0x3d29cfc0	0.04145789
254	0xbcf2d3c4	-0.029641993
255	0xbcb35185	-0.021889457

network_body._body_endoder.seq_layers.2.bias f4 [256]
0	0x3c4b439a	0.012406254
1	0xbbe73976	-0.0070564104
2	0x3cbfc0c2	0.023407344
3	0x3d026f48	0.031844407
4	0x3d7f33bb	0.062305193
5	0x3cac86e3	0.021060413
6	0x3c6a3b40	0.014296353
7	0x3c902622	0.017596308
8	0x3d448ac9	0.04798392
9	0x3ce08aa2	0.027409855
10	0x3be8bd14	0.007102618
11	0xbd1c4d63	-0.03815974
12	0xbd3a7c05	-0.04552843
13	0x3d0fd03b	0.035110693
14	0xbcdfec8c	-0.027334474
15	0xbc032a85	-0.008005743
16	0x3bd6f089	0.0065594357
17	0xba673af1	-0.00088207336
18	0x3d97d3d9	0.074134536
19	0x3d097ad7	0.033564415
20	0x3b011a29	0.001969943
21	0x3d370b6d	0.04468863
22	0x3c167d16	0.009185096
23	0x3bbd3cf3	0.005775088
24	0xbd04b0aa	-0.032395042
25	0xbc2ca808	-0.010538109
26	0x3cb3c883	0.021946197
27	0x3d1e107f	0.03858995
28	0xbd9b9be4	-0.07598093
29	0x3b855374	0.0040687863
30	0x3bdb6b5d	0.0066961483
31	0x3cd289f1	0.025700541
32	0xbc39b5a0	-0.011334807
33	0xbd706c13	-0.058696818
34	0xbd1a52df	-0.03767669
35	0x3d07f7e4	0.03319539
36	0xbd4885b1	-0.048955623
37	0x3cdb4e47	0.026770724
38	0xbd4e13fb	-0.050312024
39	0x3d5c6217	0.053804483
40	0xbd8f0d5f	-0.06984972
41	0xbd9fc9f1	-0.07802189
42	0x3cc0775d	0.023494417
43	0x3ceae1bf	0.028672097
44	0x3c376e17	0.011195681
45	0xbd670b07	-0.056407
46	0x3d18324e	0.03715735
47	0x3cd71b99	0.026258277
48	0xbd070f0d	-0.032973338
49	0x3b22c398	0.0024835821
50	0x3d6c770c	0.05773072
51	0xbcdc7fd8	-0.02691643
52	0x3c47ea95	0.012201925
53	0xbcdbe097	-0.026840491
54	0x3c93066a	0.017947394
55	0x3c839160	0.016060531
56	0x3d76a959	0.060220096
57	0x3b17ccd2	0.0023162854
58	0xbd4d2c79	-0.05009124
59	0xbd125efa	-0.035735108
60	0x3c09e3d8	0.008416139
61	0x3bd69ae4	0.006549226
62	0x3bf169c0	0.0073673427
63	0xbc05bf48	-0.008163281
64	0xbcfc6c50	-0.030813366
65	0x3c21bc9a	0.009871626
66	0xbd0a5cad	-0.03377979
67	0xbbf0df5a	-0.0073508443
68	0xbd083ac1	-0.033259157
69	0x3d82f4ea	0.0639437
70	0x3c9b81f8	0.018982872
71	0xbbb00ca3	-0.0053726
72	0x3cfa97b8	0.030589923
73	0x3cd483d0	0.02594176
74	0x3ab5f32e	0.0013881677
75	0x3bc95cda	0.006145102
76	0x3d0a6737	0.03378984
77	0xbc23e203	-0.010002616
78	0x3c5c70e8	0.013454653
79	0x3cc1a6b6	0.023639064
80	0xbcfe33d1	-0.031030567
81	0xbc939c94	-0.018018998
82	0x3c1bde11	0.009513394
83	0x3c389c5c	0.011267748
84	0x3c6c9d95	0.014441867
85	0x3d051cc8	0.03249815
86	0xbcfdd52a	-0.030985434
87	0x3c4423a0	0.011971384
88	0xbc739813	-0.0148678
89	0x3b326d90	0.002722595
90	0xbd1a6379	-0.03769252
91	0xbb0bd64c	-0.0021337448
92	0x3d90e324	0.07074574
93	0xbca9cbb2	-0.020727012
94	0x39234d16	0.00015573608
95	0x3b2700ad	0.002548258
96	0x3cab1419	0.020883607
97	0x3c8cbdc0	0.017180324
98	0x3ba7196a	0.005099465
99	0x3d2c73fb	0.042102795
100	0x3caa4b17	0.020787759
101	0xbc4d0e22	-0.012515577
102	0xbcc216f1	-0.02369258
103	0x3cf424e1	0.029802741
104	0xbabb2306	-0.0014277406
105	0x3c54c061	0.01298532
106	0x3d12e8e7	0.035866644
107	0x3b81904f	0.0039539705
108	0x3cb2297b	0.021748295
109	0xba908dbc	-0.0011028568
110	0x3d07de86	0.0331712
111	0x3d42e628	0.047582775
112	0xbb93de9e	-0.004512622
113	0x3cc28641	0.023745658
114	0x3d7cbe50	0.061704934
115	0xbc8862a9	-0.016648607
116	0xbcd9274d	-0.026507998
117	0xbd87092c	-0.06593546
118	0xbc9ee236	-0.019394975
119	0xbb9332d3	-0.0044921427
120	0xbcd988c3	-0.02655447
121	0xbd56810f	-0.052369174
122	0xbca64990	-0.02029875
123	0x3d590b83	0.052989494
124	0x3cdaf8ed	0.026730025
125	0xbc8c8bfc	-0.017156594
126	0x3c9ae5c5	0.01890839
127	0x3caec49f	0.02133399
128	0x3d458812	0.04822547
129	0x3da1ad1f	0.07894348
130	0xbc8279f9	-0.015927302
131	0xbc7a069e	-0.015260367
132	0x3cabd0f3	0.020973658
133	0xbd04e80e	-0.032447867
134	0x3d3fbf88	0.046813518
135	0x3baf3e4f	0.005348004
136	0xbbd1df34	-0.0064047817
137	0x3c86dfcd	0.016464138
138	0x3c2c7f55	0.010528405
139	0x3d860bc5	0.065452136
140	0x3bec11eb	0.0072042844
141	0x3d6ffe07	0.05859187
142	0x3c7a785e	0.015287487
143	0x3b116dc4	0.002219067
144	0x3cc4c7ff	0.024021147
145	0x3c45336f	0.0120361885
146	0xbc716e2a	-0.014735738
147	0x3b865fbe	0.004100769
148	0x3d68444a	0.05670575
149	0x3d4b157f	0.049581047
150	0xbc00b79a	-0.007856274
151	0x3d2df607	0.042470958
152	0x3d0765cf	0.033056077
153	0xbc153fb2	-0.009109424
154	0xbca197d8	-0.019725725
155	0x3d9f8cf6	0.07790558
156	0x3dad533b	0.084631406
157	0xbce528d8	-0.027973577
158	0x3b152e26	0.0022763102
159	0x3cd318a7	0.025768591
160	0xbd8707b3	-0.065932654
161	0xbd1f07d6	-0.038825832
162	0x3c159374	0.009129394
163	0xbc8489e2	-0.016179029
164	0x3d0a64a8	0.0337874
165	0x3ca1c254	0.019745983
166	0x3c979177	0.01850198
167	0x3c39aa7e	0.011332152
168	0x3c3a5620	0.011373073
169	0x3be45a93	0.006968805
170	0xbcd6b2af	-0.02620825
171	0x3c0b61ea	0.008507231
172	0x3dab7255	0.083714165
173	0x3ac5d0ba	0.0015092113
174	0x3d298a76	0.041391812
175	0x3a9a4021	0.001176838
176	0xbb750a0c	-0.0037390022
177	0xbcd7b13e	-0.026329633
178	0xbc6309f0	-0.01385735
179	0xbc221283	-0.009892109
180	0x3c51bc3b	0.012801225
181	0xbbadbbe6	-0.0053019403
182	0x3d69ec7b	0.05711029
183	0x3c4a1085	0.01233304
184	0x3c2f9a34	0.010717917
185	0xbb1983bd	-0.002342447
186	0x3db0f745	0.08640913
187	0x3d8945a0	0.06702733
188	0x3c88aca5	0.016683886
189	0xbbc2380f	-0.005927093
190	0xbc81cdba	-0.015845168
191	0x3d758e17	0.05994996
192	0x3d34669b	0.044043165
193	0xbcaebfa0	-0.021331608
194	0x3dd823d4	0.10553709
195	0xbcf50449	-0.02990927
196	0x3d4da256	0.050203644
197	0x3c2ed24b	0.010670255
198	0x3b7015cc	0.0036634086
199	0xbc49c882	-0.012315871
200	0x3ce022df	0.027360378
201	0x3d1725f3	0.036901426
202	0x3c4a128b	0.012333523
203	0x3d71261b	0.05887423
204	0x3d925d15	0.0714666
205	0x3d480e53	0.048841786
206	0xbb8b1975	-0.004244978
207	0xbbd78772	-0.0065774256
208	0x3cb26157	0.02177493
209	0x3c8309c1	0.015995862
210	0x3cdacd1f	0.026709137
211	0xbc5b7eec	-0.01339696
212	0x3d647e61	0.055784587
213	0x3d1a83dd	0.03772341
214	0x3d1732ad	0.036913563
215	0xbc20fe61	-0.009826274
216	0xbc09f5f0	-0.0084204525
217	0xbba50c7b	-0.005036888
218	0x3d39a3fb	0.0453224
219	0x3d329401	0.04359818
220	0x3d3d406a	0.04620401
221	0x3d3ccd8e	0.04609447
222	0x3d555583	0.052083503
223	0xbd068612	-0.032842703
224	0x3c8410b7	0.016121252
225	0xbc72c545	-0.0148175405
226	0x3bb533a7	0.005529839
227	0xbd4cf759	-0.050040577
228	0xbc088615	-0.008332749
229	0xbccaf69f	-0.024775801
230	0x3d3f8d5a	0.046765663
231	0x3cc53629	0.024073677
232	0x3bc313c8	0.005953286
233	0x3cd7b0f1	0.02632949
234	0x3db91f9c	0.09039232
235	0xbc2fc9c8	-0.010729261
236	0x3d0199e8	0.031640917
237	0x3cb84740	0.022494912
238	0xbb44a12d	-0.0030003295
239	0xbd05430a	-0.032534637
240	0x3cff2583	0.031145817
241	0xbbefaf2f	-0.0073145847
242	0x3d1fd04e	0.039017014
243	0x3c1406f0	0.009034857
244	0xb96ecc35	-0.00022773522
245	0xbb9eb2bb	-0.0048430837
246	0xbcfb299e	-0.030659493
247	0x3bf2da3b	0.007411269
248	0xbd37273b	-0.044715147
249	0xbd08fbc8	-0.033443242
250	0x3cf54dcd	0.029944325
251	0xbd96d244	-0.07364324
252	0x3cc25bb8	0.023725376
253	0xbc965ced	-0.018354857
254	0xbb92bfa9	-0.004478414
255	0x3d72d2eb	0.05928318

network_body._body_endoder.seq_layers.4.weight f4 [256, 256]
0	0xbc9a327b	-0.0188229
1	0x3da35283	0.07974722
2	0xbda32ce3	-0.07967546
3	0xbdcd1a7e	-0.100148186
4	0xbca7bcd7	-0.020475788
5	0xbe22f634	-0.15914232
6	0xbd012688	-0.031530887
7	0x3cba2874	0.022724368
8	0xbd491652	-0.049093552
9	0xbd49b643	-0.049246084
10	0xbd934900	-0.07191658
11	0xbd799435	-0.060932357
12	0xbd894238	-0.06702083
13	0xbdb1acff	-0.086755745
14	0xbc485767	-0.01222787
15	0x3d83b475	0.06430904
16	0xbdb01d74	-0.08599368
17	0x3c85774d	0.016292239
18	0xbc4d9be7	-0.012549377
19	0x3d7af7e8	0.061271578
20	0xbd3dabad	-0.0463063
21	0xbd50ba8c	-0.050959155
22	0xbc4e82df	-0.012604444
23	0x3df16781	0.1178732
24	0x3db3b46b	0.08774646
25	0x3bc74d3b	0.0060822046
26	0x3d44f613	0.048086237
27	0x3d32106c	0.043472692
28	0x3da68fd1	0.081328996
29	0xbc05ee75	-0.008174528
30	0xbc47e619	-0.012200856
31	0x3cf19ee0	0.029494703
32	0xbcf53877	-0.029934151
33	0xbd45607a	-0.04818771
34	0xbdf78acc	-0.1208702
35	0xbcf5110e	-0.029915359
36	0xbd1634cb	-0.03667144
37	0xbe14744c	-0.14497489
38	0x3e00af1a	0.12566796
39	0x3d18b353	0.037280392
40	0x3d8d4733	0.06898346
41	0x3e16d51f	0.14729737
42	0x3ca9c5ef	0.020724265
43	0xbcd5e4e1	-0.026110115
44	0xbd62020e	-0.05517774
45	0xbd20d86e	-0.039268903
46	0xbcef8f4f	-0.02924314
47	0xbd84e161	-0.064883
48	0xbd7f9e38	-0.06240675
49	0xbd400445	-0.04687907
50	0x3d2cdfee	0.042205743
51	0x3d9c655b	0.076365195
52	0x3cab65fc	0.020922653
53	0x3d40e7d0	0.047096074
54	0x3dc28923	0.09498813
55	0xbd6acbf3	-0.057323407
56	0xbdde2281	-0.10846425
57	0xbd91ef89	-0.07125766
58	0x3da45177	0.08023351
59	0xbd82268d	-0.06355009
60	0x3d0fb183	0.035081398
61	0xbcc0cdf8	-0.023535714
62	0x3cbf2063	0.023330873
63	0x3d92070e	0.07130252
64	0xbdf3af56	-0.11898677
65	0xbb91ed30	-0.004453324
66	0xbe0bcd4d	-0.13652535
67	0xbdd182d7	-0.10230034
68	0x3c8ed6f8	0.01743649
69	0xbdca855f	-0.0988872
70	0xbd2248c4	-0.039620176
71	0x3e0ebfa6	0.13940296
72	0x3bdc88dc	0.006730182
73	0xbd3cd59c	-0.04610215
74	0x3bc3d858	0.005976718
75	0x3d5b8ea2	0.053602822
76	0xbd12af00	-0.035811424
77	0xbdf9200c	-0.121643156
78	0xbb301c15	-0.0026872207
79	0x3d907394	0.07053295
80	0x3dd0ef4b	0.102018915
81	0x3e420f3b	0.18951122
82	0x3c97fdbc	0.018553607
83	0x3b846a49	0.0040409905
84	0x3d08f560	0.033437133
85	0xbd3f1c4e	-0.046657853
86	0xbd8b7d91	-0.06811059
87	0x3c04f8fd	0.008116004
88	0x3bfcf188	0.0077192225
89	0x3d47fc71	0.04882473
90	0x3c1d1e1a	0.009589696
91	0xbdb32741	-0.087477215
92	0x3e390a10	0.18070245
93	0xbd9f0628	-0.07764846
94	0xbd5365d7	-0.051610794
95	0x3c667088	0.0140649155
96	0x3dd12728	0.102125466
97	0xbba21551	-0.004946389
98	0xbd204e2d	-0.039137054
99	0x3d392615	0.045202333
100	0x3cc36378	0.023851141
101	0x3dacf0f1	0.084443934
102	0x3d569197	0.05238494
103	0x3c428217	0.011871836
104	0x3db782c6	0.0896049
105	0xbc4402f0	-0.011963591
106	0xbce50936	-0.027958494
107	0xb9befe53	-0.0003642911
108	0x3bf715b0	0.007540427
109	0x3dfd541e	0.1236956
110	0x3d082903	0.033242237
111	0x3e108913	0.1411479
112	0x3c68866d	0.014192206
113	0x3e07f161	0.13275672
114	0x3cc2dc31	0.023786636
115	0xbdc93d8a	-0.09826191
116	0x3ba00797	0.0048837173
117	0x3c292cec	0.010325652
118	0xbd9d8447	-0.076912455
119	0xbdfdd5b6	-0.12394278
120	0x3c7e8e58	0.015536867
121	0x3d5e8bfb	0.054332715
122	0xbdac6efd	-0.08419607
123	0x3d7a8d1b	0.061169725
124	0x3ce9b9d8	0.028531
125	0x3d43a9b9	0.047769282
126	0x3db38c18	0.08766955
127	0x3daeee1c	0.085415095
128	0x3dbbd9c1	0.09172393
129	0xb94a44a2	-0.00019289789
130	0xbc4d8156	-0.012543043
131	0x3d76d652	0.060262986
132	0xbc8638db	-0.016384533
133	0x3a9298e3	0.001118448
134	0xbc4f23cb	-0.012642811
135	0xbdca9e01	-0.09893418
136	0x3db1b891	0.086777814
137	0x3d6ce65f	0.057836886
138	0xbd34b6b2	-0.044119544
139	0xbcb482f7	-0.022035105
140	0x3e007b5e	0.12547061
141	0x3cc6db6c	0.02427455
142	0xbe216d6d	-0.15764399
143	0x3cac421d	0.021027619
144	0xbdceb2f9	-0.1009273
145	0xbd73e519	-0.059544656
146	0x3d8080c2	0.062745586
147	0x3dd7bb7c	0.10533807
148	0xbcd98b9a	-0.026555825
149	0x3d9f58ca	0.07780607
150	0xbda8a70c	-0.08234987
151	0x3d8379c2	0.06419708
152	0xbcc89f59	-0.024490045
153	0x3d3de7ae	0.046363525
154	0xbcd7c08f	-0.026336936
155	0xbd8d9bb1	-0.069144614
156	0x3daec11b	0.08532926
157	0xbd7a3ae3	-0.061091315
158	0x3c94f1dd	0.018181736
159	0xbdefe5c8	-0.11713749
160	0x3e30b06d	0.17254801
161	0xbdf910a9	-0.12161381
162	0x3d6daf2d	0.05802839
163	0xbd67b274	-0.05656667
164	0xbe0ac76a	-0.13552633
165	0x3de2c7a8	0.11073238
166	0x3b818971	0.003953152
167	0xbdff2ede	-0.12460111
168	0xbc38f796	-0.011289498
169	0xbb4f9bf7	-0.0031678656
170	0xbcd024aa	-0.025408108
171	0xbd85e643	-0.065380596
172	0xbd8c24f0	-0.06842983
173	0x3d93c14d	0.072146036
174	0x3be8e7dc	0.007107718
175	0xbe66fe5e	-0.22557971
176	0xbd9db9f2	-0.07701482
177	0x3d8d709e	0.06906246
178	0xbcdfb889	-0.027309673
179	0x3c087a04	0.008329872
180	0xbd60c4e4	-0.05487527
181	0x3a8494fc	0.0010115202
182	0x3cfffbe9	0.03124805
183	0xbd7312aa	-0.05934397
184	0x3dc4b316	0.096044704
185	0x3d20f96c	0.039300367
186	0x3d33c497	0.043888655
187	0x3e28bd24	0.16478401
188	0x3b1d1fa7	0.0023975165
189	0x3d7eeec5	0.062239427
190	0xbd3dd1b3	-0.046342563
191	0x3d80b9aa	0.062854126
192	0xbd1fef38	-0.039046496
193	0xbe01edca	-0.12688366
194	0xbd31946d	-0.04335444
195	0x39b9498b	0.00035340743
196	0x3de669ea	0.1125067
197	0xbdc70a58	-0.0971877
198	0x3d902da3	0.070399545
199	0x3c16aa8a	0.009195933
200	0xbda718e1	-0.08159042
201	0x3c1a2263	0.0094076125
202	0xbb3e1fc0	-0.0029010624
203	0x3c917ae8	0.017758802
204	0xbcd6aefb	-0.026206484
205	0xbe15fe2b	-0.14647739
206	0xbc85add5	-0.016318241
207	0x3d9f2bac	0.077720016
208	0xbc495dc8	-0.012290426
209	0xbe2245f5	-0.15846999
210	0xbda75a08	-0.08171469
211	0x3d0faba7	0.03507581
212	0xbd59515a	-0.0530561
213	0x3dbea9d7	0.09309738
214	0xbdfd4bac	-0.12367949
215	0x3d6d3e1f	0.05792057
216	0xbdcecc52	-0.10097565
217	0x3cb1cebe	0.021705028
218	0xbd63be5e	-0.05560147
219	0xbd845d8d	-0.06463156
220	0x3d094a5f	0.03351819
221	0xbb0e1332	-0.0021678922
222	0x3c1a85ba	0.009431297
223	0x3ce28e1f	0.02765566
224	0xbd917279	-0.07101912
225	0x3cba9a2a	0.02277859
226	0xbb73be3e	-0.003719225
227	0xbd361764	-0.0444559
228	0xbdac9e72	-0.084286585
229	0xbd14813d	-0.036256064
230	0xbd26e137	-0.040742125
231	0x3d13b18b	0.03605799
232	0x3dba54eb	0.09098228
233	0xbd93a5e5	-0.07209376
234	0x3d682911	0.05667979
235	0x3b35adfa	0.0027722106
236	0x3d0bfab8	0.03417465
237	0x3de89338	0.11356205
238	0xbcbad6ee	-0.022807565
239	0xbda6da81	-0.08147145
240	0x3d849991	0.06474603
241	0xbe11cae1	-0.14237548
242	0x3db87378	0.09006399
243	0x3d30c93b	0.04316066
244	0x3d660fb4	0.05616732
245	0x3e18e188	0.14929783
246	0xbdb5b2a9	-0.08871967
247	0xbd686bd6	-0.056743465
248	0xbc4ec26c	-0.012619596
249	0xbd12787c	-0.035759434
250	0xbd64b252	-0.055834122
251	0xbcaa9d39	-0.020826923
252	0xbb7ce647	-0.0038589404
253	0xbcfdf0b6	-0.030998569
254	0x3d90faee	0.07079111
255	0xbb6d9a78	-0.00362554

network_body._body_endoder.seq_layers.4.bias f4 [256]
0	0xbc084aaa	-0.008318583
1	0x3c42542e	0.01186089
2	0x3d5b587c	0.053551182
3	0x3d74bdc5	0.05975129
4	0x3c371162	0.011173578
5	0x3d5f61e1	0.054536704
6	0x3ad92ac3	0.001656853
7	0x3c546e18	0.0129657015
8	0xbc4d841c	-0.012543704
9	0x3ca42d13	0.020041024
10	0x3c8ff9da	0.017575193
11	0x3ad22b01	0.0016034545
12	0x3d2c9f53	0.04214413
13	0xbce9bd54	-0.028532661
14	0x3d9daf31	0.07699431
15	0x3d58efa1	0.052962903
16	0xbcdf51b6	-0.027260642
17	0x3d0e5e08	0.034757644
18	0x3b0e3f8a	0.0021705353
19	0x3c8fd4cd	0.017557526
20	0x3ca5c9d7	0.020237846
21	0x3be375ad	0.0069415183
22	0x3d2a13a5	0.04152264
23	0x3b47555b	0.0030415866
24	0x3d057da8	0.03259054
25	0x3c842ec8	0.016135588
26	0xbda0c4a1	-0.07850004
27	0x3cf1c501	0.029512884
28	0x3bcada21	0.006190554
29	0x3d8cb66f	0.06870734
30	0x3ca32221	0.019913735
31	0x3c98d618	0.018656775
32	0x3d426a7f	0.047464844
33	0x3d85e65c	0.06538078
34	0x3d505436	0.05086156
35	0x3ca430cf	0.020042805
36	0x3cbcfdc9	0.023070233
37	0x3b73b2d8	0.0037185457
38	0x3d255506	0.040364288
39	0xba0fd4df	-0.00054867374
40	0x3c7c79fe	0.015409945
41	0x3cd477d2	0.025936041
42	0x3c1b73ea	0.009488085
43	0x3cb09c0d	0.021558786
44	0x3c0d6a6b	0.008631329
45	0x3d0c17c3	0.03420235
46	0xbbeaf26b	-0.0071700118
47	0xbbe8a6a2	-0.0070999423
48	0x3ce3d67c	0.027812235
49	0xba7d36b9	-0.00096593384
50	0x3d0ba66f	0.03409427
51	0x3d0940eb	0.033509176
52	0xbc0f76fb	-0.0087563945
53	0x3cb6ae82	0.022300009
54	0x3ad3ef4f	0.0016169342
55	0x3d3199ef	0.043359693
56	0x3d0adcf1	0.033902112
57	0x3cfcc726	0.03085668
58	0x3cafadaa	0.021445114
59	0x3d059d3f	0.032620665
60	0x3c0a510e	0.0084421765
61	0xbb348d05	-0.0027549875
62	0xbd01d7e8	-0.031700045
63	0xbc958599	-0.01825218
64	0xbc2c245e	-0.0105067175
65	0x3b53b2ad	0.0032302544
66	0x3b7a7475	0.0038216386
67	0xbcbe41da	-0.02322476
68	0x3d24558a	0.04012064
69	0xbc54bcdb	-0.01298448
70	0xbc855ffb	-0.016281119
71	0x3cbb7b3a	0.022885907
72	0x3d8b1c62	0.06792523
73	0x3cab5ebf	0.020919202
74	0xbbb4d2ee	-0.005518309
75	0x3cfa20e4	0.030533262
76	0x3d091931	0.03347129
77	0x3c07bd8d	0.0082849385
78	0x3cb925c3	0.022601014
79	0xbc360efa	-0.011111969
80	0x3c29601a	0.010337854
81	0x3c152a72	0.009104358
82	0x3c4eef42	0.012630286
83	0x3cf21247	0.029549731
84	0x3d87c23a	0.06628843
85	0xbb8f1bf9	-0.0043673483
86	0x3b4dddd2	0.0031412733
87	0x3cc8992c	0.0244871
88	0x3bb385a7	0.005478579
89	0x3cf9afc9	0.030479329
90	0xbcc811dc	-0.024422579
91	0x3c4faef6	0.012675991
92	0x3c886676	0.01665042
93	0x3d011e7f	0.031523224
94	0xbb06b3c8	-0.0020553935
95	0x3caef8f3	0.021358943
96	0x3da80891	0.08204759
97	0xbccccc3a	-0.024999727
98	0x3d1e9d7b	0.038724404
99	0x3d066a74	0.032816365
100	0x3ca314f1	0.019907447
101	0x3c8597c3	0.016307717
102	0x3b988f2e	0.00465574
103	0x3d4b1009	0.04957584
104	0x3c915b14	0.017743625
105	0x3c018146	0.007904356
106	0x3d89ccdf	0.06728529
107	0x3cc0c3c5	0.02353085
108	0x3d478e0c	0.04871945
109	0x3d4e4f7e	0.05036878
110	0x3c9e8816	0.019352
111	0xbb0a5b97	-0.002111172
112	0x3d6817a9	0.05666319
113	0x3c48f712	0.012265937
114	0xbb7e260d	-0.0038780004
115	0xbb9172d9	-0.0044387397
116	0x3cf6372e	0.030055609
117	0xb9c73154	-0.0003799299
118	0xbc0fd77a	-0.008779401
119	0x3c8494a8	0.016184166
120	0x3d6d4cbd	0.05793451
121	0x3d5b1f02	0.05349637
122	0x3d71f2cb	0.059069436
123	0x3c4a145d	0.012333957
124	0x3c0393a3	0.008030805
125	0x3d9b7e54	0.075924546
126	0x3c685fcd	0.014182997
127	0x3c768472	0.015046226
128	0x3b139475	0.0022518907
129	0xbccd615e	-0.025070842
130	0x3cce7225	0.025200913
131	0x3d04aeac	0.032393143
132	0x3c87e567	0.01658888
133	0xbc8151f0	-0.015786141
134	0x3d59123d	0.05299591
135	0xbcc62c76	-0.024191123
136	0x3c538cf0	0.01291202
137	0x3d3b855f	0.04578149
138	0x3d28ccdf	0.041211005
139	0x3ce03476	0.027368765
140	0x3b39a0f3	0.0028324693
141	0x3ccf2344	0.02528537
142	0xbd32390f	-0.043511447
143	0x3c3098df	0.010778635
144	0x3c44af1b	0.012004639
145	0x3b124dc1	0.0022324177
146	0x3d2d7611	0.042348925
147	0x3d251d15	0.040310938
148	0x3d8bae12	0.06820311
149	0x3d81f70d	0.06345949
150	0x3cedd776	0.029033404
151	0xbc5f9b56	-0.013647875
152	0x3cdd5cb6	0.027021747
153	0x3b621421	0.003449686
154	0x3d9984a0	0.07495999
155	0xbb8f28eb	-0.0043688915
156	0x3dba4b27	0.090963654
157	0x3d1c527d	0.038164604
158	0x3ce2e0c6	0.027695071
159	0x3c969784	0.018382795
160	0x3d9c8dc5	0.07644228
161	0x3d141ca5	0.03616013
162	0x3d3d10d8	0.04615864
163	0x3cb11d0d	0.021620298
164	0x3c6b6c1f	0.01436904
165	0x3d6e42a7	0.058169033
166	0xbd12c507	-0.03583243
167	0xbd2b683e	-0.04184746
168	0x3c16d85a	0.009206856
169	0x3cd2d34c	0.02573552
170	0x3c7062aa	0.014671961
171	0x3c7255bf	0.014790951
172	0x3d0a116f	0.033708032
173	0x3c505947	0.012716598
174	0x3b9e0a24	0.004822986
175	0x3c6dd465	0.014515971
176	0x3c65a5e7	0.014016605
177	0xbd38720e	-0.045030646
178	0xbcb3a503	-0.02192927
179	0x3d40fa12	0.047113486
180	0x3d24960e	0.040182166
181	0x3d10d6cd	0.0353611
182	0x3d645137	0.055741515
183	0xbc2e214d	-0.010628057
184	0x3d3701de	0.044679515
185	0x3d571e2c	0.05251901
186	0x3ca4a039	0.020095931
187	0x3d37e664	0.044897452
188	0x3d47db78	0.048793286
189	0x3d6e024e	0.058107667
190	0x3bf9c125	0.0076219016
191	0x3cd5be96	0.026091855
192	0x3c46861a	0.012116933
193	0x3d0c5d93	0.034268927
194	0xbb9859f5	-0.0046493956
195	0xbbe3cdaf	-0.0069520096
196	0x3c83333f	0.016015647
197	0x3d2fc243	0.04290987
198	0xbb23e091	-0.0025005678
199	0x3ceaba26	0.028653216
200	0x3c8dde21	0.017317833
201	0x3cf12520	0.029436648
202	0x3c081ab2	0.008307146
203	0x3c2331e7	0.009960628
204	0x3c57c1ff	0.013168811
205	0x3dbdcef9	0.092679925
206	0x3c6a0c7c	0.014285203
207	0xb89fca3a	-7.6193784e-05
208	0x3ced99b6	0.02900396
209	0x3d493a2b	0.04912774
210	0x3cc1f9ea	0.023678739
211	0x3cec9c3b	0.02888309
212	0x3cd794d2	0.02631608
213	0x3d5dd51d	0.05415832
214	0x3d1ddbd5	0.038539726
215	0x3d89cade	0.06728147
216	0x3d0495e8	0.032369524
217	0xbcbd9df9	-0.023146616
218	0x3cf50b61	0.029912652
219	0x3d33e0b5	0.04391547
220	0x3d36b9e8	0.044610888
221	0x3d466cc3	0.048443567
222	0x3d478a1d	0.0487157
223	0x3d352eb4	0.044233993
224	0xbb4a27d2	-0.0030846489
225	0xb8d89625	-0.00010327649
226	0xbb75bd23	-0.0037496767
227	0xbc6b2601	-0.014352323
228	0x3d2d60ca	0.042328633
229	0x3c516900	0.012781382
230	0x3d16d69e	0.03682577
231	0x3d55dda4	0.052213326
232	0x3d2f0f6c	0.042739317
233	0x3a97c7e5	0.0011579959
234	0x3c71b905	0.014753585
235	0x3ca5c00c	0.020233177
236	0x3d0b7db9	0.034055445
237	0x3cb2712b	0.021782478
238	0x3cf0095a	0.029301334
239	0x3cc60da0	0.024176419
240	0x3cf77b9b	0.030210307
241	0x3d495cae	0.04916065
242	0x3c322729	0.010873594
243	0x3ca93a2b	0.02065762
244	0x3c0d37aa	0.008619228
245	0x3c2d57e9	0.010580041
246	0xbc53b7e1	-0.012922258
247	0x3d95fa83	0.07323172
248	0x3ca8fec5	0.020629296
249	0xbcb43f74	-0.022002913
250	0x3d1ee631	0.038793746
251	0x3c0ecd8c	0.008715998
252	0x3c3e4fb5	0.011615683
253	0x3c9f0d64	0.019415565
254	0x3ccac6e8	0.024753049
255	0x3d106584	0.035253063

action_model._continuous_distribution.log_sigma f4 [1, 9]
0	0xbd9541a0	-0.072879076
1	0x3d1fcfa1	0.03901637
2	0xbd096e4f	-0.033552464
3	0xbd57abf9	-0.05265424
4	0xbdf81dc9	-0.12115056
5	0x3bd5fd60	0.006530449
6	0x3debfd15	0.11522881
7	0x3dfc3019	0.123138614
8	0x3dac5f4d	0.08416615

action_model._continuous_distribution.mu.weight f4 [9, 256]
0	0x3c4e2593	0.012582201
1	0xbce95f46	-0.028487813
2	0xbbbd506e	-0.00577741
3	0x3c0f19b7	0.008734158
4	0x3d01ec0c	0.031719252
5	0x3d2714c1	0.040791277
6	0xbd4e6fef	-0.050399717
7	0xbce26e02	-0.027640346
8	0x3d16f2e4	0.036852732
9	0xbc832fa6	-0.016013931
10	0x3cbb3367	0.022851659
11	0xbd4be587	-0.04977944
12	0xbd928262	-0.07153775
13	0x3d6accf6	0.057324372
14	0x3d24ad28	0.040204197
15	0x3cdee36a	0.027208049
16	0x3c13b611	0.009015576
17	0xbb925574	-0.004465753
18	0xbd34664e	-0.044042878
19	0x3d755acb	0.05990104
20	0xbc0f93ce	-0.008763267
21	0xbc69db31	-0.014273451
22	0xbc6291f4	-0.013828743
23	0xbcb9f75c	-0.022700958
24	0x3b8560f5	0.004070396
25	0xbd85b6d4	-0.06529012
26	0xbc1d1625	-0.009587799
27	0xbd92e78e	-0.07173072
28	0x3c84f7e7	0.01623149
29	0x3b0b2879	0.002123384
30	0xbd0e1a35	-0.03469296
31	0xbc8d98c1	-0.017284753
32	0xbbda599d	-0.0066635148
33	0xbc44d193	-0.012012857
34	0x3c815312	0.015786681
35	0xbd42bc01	-0.047542576
36	0xbc5c36b1	-0.013440774
37	0x3d0e4661	0.034735087
38	0x391a6541	0.00014724304
39	0xbb77e452	-0.0037825298
40	0xbd1c31a3	-0.038133275
41	0x3cf2f9a0	0.029660046
42	0xbcebd785	-0.028789291
43	0x3c2da0d4	0.010597426
44	0x3d20f88b	0.03929953
45	0x3cd0bd8a	0.025481004
46	0x3d7b0f51	0.061293904
47	0x3c782961	0.015146584
48	0xbc7136ed	-0.014722568
49	0x3a46843d	0.00075728056
50	0xbd48ddc3	-0.049039613
51	0x3d387076	0.045029126
52	0x3c38bf19	0.01127603
53	0xbdc7997d	-0.097460724
54	0xbcc191f0	-0.023629159
55	0xbd58cad7	-0.05292782
56	0xbd168230	-0.03674525
57	0xbd9d3daf	-0.07677781
58	0xbd2dbae2	-0.042414553
59	0x3c99a67d	0.018756146
60	0x3b8bfbc2	0.004271955
61	0x3bd8ff06	0.006622198
62	0xbd361410	-0.044452727
63	0xbcec37cc	-0.0288352
64	0x3d5f40f1	0.054505292
65	0xbdb7d35d	-0.08975861
66	0x3c61de7d	0.0137859555
67	0xbd908f87	-0.07058626
68	0x3dc1bea3	0.09460189
69	0xbcd2cda4	-0.025732823
70	0xbcc5d6c9	-0.02415027
71	0xbcd79d0c	-0.026320003
72	0x3c912c9a	0.017721463
73	0xbd0f8810	-0.03504187
74	0xbde20035	-0.11035196
75	0x3d19b259	0.0375236
76	0x3d834a1a	0.06410618
77	0x3cf995e8	0.030466989
78	0xbbc83ffc	-0.006111143
79	0x3be3ef67	0.006956029
80	0x3cdf2790	0.027240545
81	0x3d6eb958	0.058282226
82	0x3cbd4190	0.023102552
83	0x3cc58774	0.02411244
84	0x3cb961d5	0.022629658
85	0xbd9d0317	-0.07666605
86	0xbccf9a79	-0.025342213
87	0xbdef02e4	-0.11670473
88	0xbd9e41c5	-0.07727388
89	0x3c136aa7	0.008997596
90	0xbd461048	-0.04835537
91	0xbd83e037	-0.0643925
92	0x3c95e4fd	0.018297667
93	0x3caaca50	0.020848423
94	0x3bf5720c	0.007490402
95	0xbd5e04df	-0.054203864
96	0x3cbf3a22	0.02334315
97	0x3c968489	0.018373745
98	0x3d3a275b	0.04544769
99	0xbcfb3fe0	-0.030670106
100	0x3b1cf554	0.0023949938
101	0xbd135883	-0.035973083
102	0x3c2edc9e	0.010672716
103	0x3db37f4f	0.087645166
104	0x3c0ad4d0	0.00847359
105	0x3cfce7e4	0.030872293
106	0x3c36bb29	0.011153021
107	0xbd606b7c	-0.054790005
108	0xbcf12bcf	-0.029439835
109	0x3d00460e	0.03131681
110	0xbd0d1ff8	-0.034454316
111	0x3d094ecc	0.033522412
112	0x3c9c9e21	0.01911837
113	0xbb3d5b8f	-0.0028893685
114	0x3dbd95b2	0.09257068
115	0x3c2768fb	0.0102179
116	0xbcef9f8c	-0.029250883
117	0x3d3a9684	0.0455537
118	0x3cba7a69	0.022763448
119	0x3c9c982a	0.019115526
120	0xbd660713	-0.05615909
121	0xbda97e9f	-0.08276104
122	0x3d9fbc9a	0.07799645
123	0x3d0f71b2	0.035020538
124	0x3ad37167	0.0016131819
125	0xbcbc02f8	-0.022950634
126	0x3ca4cec5	0.020118127
127	0x3d7a8d37	0.06116983
128	0xbd4a1468	-0.049335867
129	0x3daea282	0.0852709
130	0xbd80e61c	-0.0629389
131	0x3d4f3b10	0.050593436
132	0xb8afd379	-8.38404e-05
133	0x3c8df50f	0.017328767
134	0xbc2fc17b	-0.010727282
135	0xbd867d88	-0.06566912
136	0xbca7f41a	-0.020502139
137	0xbd0b0fb0	-0.033950508
138	0x3dcedfaf	0.10101258
139	0x3ceb10e9	0.028694587
140	0xbd45ad69	-0.04826108
141	0xbd57b341	-0.052661184
142	0xbcb69d0b	-0.02229168
143	0x3ab36bf0	0.0013688784
144	0x3c9b986d	0.01899358
145	0xbbc53136	-0.0060178293
146	0x3d0543f6	0.032535516
147	0xbda4a9cd	-0.080401994
148	0x3d560274	0.052248433
149	0x3c66b546	0.014081305
150	0xbd043498	-0.03227672
151	0x3d4a9caa	0.049465813
152	0x3dd08d9d	0.101832606
153	0x3cabd23e	0.020974275
154	0x3d69d4d4	0.057087734
155	0xbd80f118	-0.06295985
156	0x3cc0022d	0.023438537
157	0xbc8d8444	-0.017274983
158	0x3d02717d	0.031846512
159	0x3db96c68	0.0905388
160	0xbd49e5c7	-0.0492914
161	0x3d62818e	0.055299334
162	0x3cfa30ca	0.030540843
163	0xbca94901	-0.020664694
164	0x3d0e0c89	0.034679923
165	0xbd4ef656	-0.050527893
166	0xbd8c68f0	-0.06855953
167	0x3c2ec3c7	0.010666794
168	0xbc840b9c	-0.016118817
169	0xbced58b5	-0.028972963
170	0xbcaebe3a	-0.021330941
171	0x3cafe136	0.021469694
172	0xbd8f93e8	-0.07010633
173	0x3d3ba4c5	0.045811433
174	0xbb1615a4	-0.0022901082
175	0x3b3a321b	0.0028411213
176	0x3d3d56d5	0.046225388
177	0xbcdae01b	-0.02671819
178	0x3cbdcc2b	0.023168644
179	0x3c68fd12	0.014220493
180	0x3c8983ab	0.016786417
181	0x3dc75f2a	0.09734948
182	0xbc426a72	-0.011866199
183	0x3d4ba1f4	0.049714997
184	0xbc88eb09	-0.016713636
185	0xbc1f782d	-0.009733242
186	0x3d11289b	0.035439115
187	0x3cf290ac	0.02961
188	0xbb128c38	-0.002236141
189	0xbca9a2f9	-0.020707594
190	0x3d541a2e	0.05178278
191	0xbd9ee33d	-0.07758186
192	0x3bb69860	0.0055723637
193	0x3d0c9763	0.03432406
194	0xbd71760f	-0.05895048
195	0xbd0f0f65	-0.03492679
196	0x39a87f2c	0.00032138207
197	0xbc28b227	-0.010296381
198	0xbda32955	-0.07966868
199	0xbd3cf89a	-0.046135522
200	0xbc9de68a	-0.019274969
201	0x3d5cb776	0.0538859
202	0x3b908321	0.004410163
203	0x3c7c016b	0.015381197
204	0xbd980a9d	-0.07423899
205	0xbd58493b	-0.052804213
206	0x3c5be073	0.013420212
207	0x3c13d033	0.0090218065
208	0x3da6de80	0.08147907
209	0xbd6d618b	-0.057954352
210	0x3d10e601	0.0353756
211	0x3c3e1112	0.01160075
212	0x3d48ac4d	0.048992444
213	0x3d1b10fd	0.037858
214	0xbd2c552b	-0.04207341
215	0xbd94e41f	-0.07270073
216	0x3d629137	0.05531427
217	0xbd9faa77	-0.077961855
218	0xbd59166e	-0.052999906
219	0x3d5da603	0.0541134
220	0x3d47643b	0.04867957
221	0x3de105ac	0.1098741
222	0xbd696ebb	-0.056990366
223	0x3d5fb728	0.05461803
224	0x3d9df363	0.07712438
225	0xbc9eb806	-0.019374859
226	0x3c2bb781	0.010480762
227	0xbc9c3e2f	-0.01907262
228	0x3c4869f7	0.012232295
229	0xbd387a7a	-0.045038678
230	0x3c8f3e08	0.017485633
231	0x3bcbab00	0.006215453
232	0xbdfd8e14	-0.12380615
233	0xbd287bb8	-0.041133612
234	0x3d48b486	0.049000286
235	0xbc5c9cb2	-0.013465093
236	0xbcd143c5	-0.02554501
237	0x3c814cef	0.015783755
238	0x3d10d772	0.035361715
239	0xbcbb905c	-0.022895984
240	0xbc59d802	-0.013296129
241	0xbb8d053b	-0.004303602
242	0xbc06b17f	-0.008221029
243	0xbd0f18e9	-0.034935866
244	0x3d26613a	0.040620066
245	0x3ca1bab8	0.019742355
246	0x3ca017da	0.019542623
247	0x3d77eb65	0.060527224
248	0x3d8fd696	0.07023351
249	0x3d8a735d	0.06760285
250	0x3dba0376	0.09082691
251	0xbd042018	-0.03225717
252	0x3d3a6619	0.045507524
253	0x3c8d7aa9	0.017270403
254	0xbc9ad9bf	-0.018902658
255	0xbd0305ad	-0.031987835

action_model._continuous_distribution.mu.bias f4 [9]
0	0x3c9b6fd4	0.018974222
1	0xbcdc3a58	-0.02688329
2	0xbbe1f8da	-0.0068961205
3	0xbc5cbe43	-0.013473096
4	0x3b7aac2b	0.0038249593
5	0xbcef8c4e	-0.029241707
6	0xbc9ef648	-0.019404545
7	0xbd1a2ddc	-0.03764139
8	0xba87cf48	-0.0010361457
