results/duoCW-V1/Crawler/Crawler-11046.onnx (onnx, 160277 bytes, 7 tensors)

network_body._body_endoder.seq_layers.0.weight f4 [128, 154]
-0.0044286083 0.12361566 -0.103665635 0.038246594 0.13424335 0.058256093 0.06704002 0.11667249
-0.087161645 0.022828352 -0.035195593 -0.016792854 -0.0931807 0.036716875 -0.06680825 0.09755493
-0.026448099 0.1928178 0.04160037 0.020999007 0.004497214 -0.05051072 -0.052983247 -0.08506982
0.0878301 0.03943435 -0.10037173 -0.016490549 0.092285186 0.022747526 0.081980065 -0.04519693
-0.05389626 -0.096127145 0.01138103 -0.04183552 0.09973384 0.069689095 -0.07255627 0.07269639
-0.02917771 0.06483646 -0.018671917 0.022388052 -0.019948712 0.012336887 -0.09482836 -0.0055209333
0.012316531 0.045671135 -0.145346 0.09438726 0.014255268 -0.13691555 0.0439192 0.08923567
-0.034554273 0.0076538934 0.0034248517 -0.020699086 0.035577778 0.0080921445 0.12743925 -0.137535
-0.031586982 0.0023285581 -0.02455896 0.032205407 0.069008194 0.040812183 0.036671765 -0.1319308
-0.03521263 0.028129274 -0.011003345 0.07076392 -0.09324017 -0.080347 -0.04926847 -0.012398934
0.089650474 -0.023610676 0.016433308 0.010461025 0.032522425 0.06781265 -0.07473131 -0.035411146
0.047002595 -0.0064102565 0.21484743 -0.05317973 0.0878688 -0.014737458 0.06328113 -0.025723081
0.102159664 -0.059383903 0.056768663 0.06083372 -0.10670231 0.072638266 -0.08944442 0.119468614
-0.06664798 -0.009049486 -0.028858764 -0.097709596 0.008749468 0.027590152 -0.20126598 0.023082599
0.20280401 0.0609174 0.098916814 0.076023445 0.062389847 -0.06024329 -0.17812549 -0.043777745
-0.006565476 -0.04633281 0.01974759 0.054466907 0.012290287 0.053023823 -0.030766113 -0.16365331
0.13120452 0.102526054 -0.035351597 -0.06357096 -0.011343585 -0.0036964077 -0.22605969 0.10565181
0.082949676 -0.031050092 -0.06968184 -0.010644038 0.044504154 0.02502644 0.07030006 0.13423237
0.041824922 0.10363619 -0.0037055733 0.015731918 -0.11213792 -0.04771959 0.034911677 -0.03873549
0.14255583 0.016715562 -0.09935579 -0.052353606 0.021302648 -0.000839181 -0.068725355 -0.030830836
0.006045329 -0.002798039 0.018586257 -0.07790821 -0.032158338 0.0007176844 0.064203136 -0.028521568
-0.117109284 0.054697633 0.04541796 -0.18087853 -0.004814436 -0.012631665 0.018239444 0.12632045
-0.034021568 0.045845922 -0.070088916 -0.07894942 0.023481417 0.008828517 -0.008930219 -0.079839386
-0.10059282 -0.027407844 0.1579734 0.032879867 0.046198323 0.03200019 -0.0072774747 0.16358338
0.059582233 0.039440434 0.047865413 0.045130566 -0.16872416 0.013755913 -0.05429551 -0.06206366
0.025068244 0.07600263 0.032699507 0.07014565 -0.061401498 0.08706694 -0.05460849 0.075220324
0.063275754 0.058741592 -0.10380985 -0.11401128 -0.04363937 -0.17205445 0.05388029 -0.041710548
0.062593654 -0.019788004 -0.06634072 -0.13786045 -0.037166774 -0.071651906 -0.033335235 0.14663814
-0.07501093 0.1459456 0.010179048 0.092165925 -0.0037030436 0.050912056 -0.01687645 -0.11520036
0.030583285 -0.04011238 -0.018269172 -0.062238835 0.12346622 -0.0484077 -0.077191606 0.10601871
0.084755205 -0.15339662 0.06803453 0.018929275 -0.010903688 0.060031418 -0.062284984 0.021012826
0.109804414 0.00466016 0.049904518 -0.052080523 -0.054184254 0.032323573 0.0069920006 0.05296242
00000000: dc1d 91bb 352a fd3d a64e d4bd 76a8 1c3d
00000010: 1777 093e f19d 6e3d 474c 893d fdf1 ee3d
00000020: ce81 b2bd 8602 bb3c 4129 10bd 2b91 89bc
00000030: 86d5 bebd 6f64 163d c4d2 88bd e1ca c73d
00000040: afa9 d8bc 0872 453e 2665 2a3d 1c06 ac3c
00000050: 5e5d 933b 54e4 4ebd f604 59bd 1639 aebd
00000060: 44e0 b33d ea85 213d b28f cdbd 3017 87bc
00000070: 0400 bd3d 0559 ba3c 2ae5 a73d 6b20 39bd
00000080: 53c2 5cbd 4fde c4bd 8077 3a3c b95b 2bbd
00000090: 4141 cc3d 28b9 8e3d 6298 94bd d8e1 943d
000000a0: 1806 efbc fac8 843d d9f5 98bc 2667 b73c
000000b0: 7b6b a3bc a820 4a3c 5f35 c2bd f2e8 b4bb
000000c0: 46cb 493c a811 3b3d 95d5 14be 1c4e c13d
000000d0: ed8e 693c 9733 0cbe 9ee4 333d 31c1 b63d
000000e0: c888 0dbd 83cd fa3b 7a73 603b 2191 a9bc
000000f0: 01ba 113d ea94 043c 6f7f 023e fad5 0cbe
00000100: 5a61 01bd b99a 183b df2f c9bc d1e9 033d
00000110: 2b54 8d3d ad2a 273d 2235 163d de18 07be
00000120: 1e3b 10bd 5d6f e63c 6047 34bc adec 903d
00000130: b4f4 bebd f88c a4bd bccd 49bd e624 4bbc
00000140: ab9a b73d 2d6b c1bc 259f 863c b864 2b3c
00000150: 3c36 053d 5ce1 8a3d bb0c 99bd 470b 11bd
00000160: cb85 403d 210d d2bb f700 5c3e fdd2 59bd
00000170: 8ff4 b33d 6175 71bc 8999 813d 36b9 d2bc
00000180: 1639 d13d 893c 73bd 4286 683d c72c 793d
00000190: be86 dabd 5fc3 943d a32e b7bd f6ab f43d
000001a0: bc7e 88bd 4c44 14bc 3769 ecbc f81b c8bd
000001b0: ee59 0f3c be04 e23c ab18 4ebe b817 bd3c
000001c0: dbab 4f3e 8684 793d e694 ca3d 2eb2 9b3d
000001d0: 7f8c 7f3d abc1 76bd 8766 36be 4b50 33bd
000001e0: 3423 d7bb 79c7 3dbd b3c5 a13c b118 5f3d
000001f0: 335d 493c 822f 593d 3709 fcbc bc94 27be
00000200: 7a5a 063e 2ef9 d13d d6cc 10bd 7e31 82bd
00000210: 72da 39bc 6e3f 72bb 317c 67be fa5f d83d
00000220: 85e1 a93d c35c febc 5ab5 8ebd 5564 2ebc
00000230: fd49 363d 4004 cd3c 7af9 8f3d 3674 093e
00000240: 9c50 2b3d 363f d43d 34d9 72bb 39e0 803c
00000250: 91a8 e5bd 9e75 43bd 8cff 0e3d 1ba9 1ebd
00000260: 28fa 113e 13ef 883c 0c7b cbbd bc70 56bd
00000270: e482 ae3c 7cfc 5bba e1bf 8cbd f390 fcbc
00000280: e517 c63b 4e5f 37bb 3542 983c 578e 9fbd
00000290: 76b8 03bd fc22 3c3a ef7c 833d 10a6 e9bc
000002a0: fed6 efbd a00a 603d 2f08 3a3d 3938 39be
000002b0: 6bc2 9dbb 0bf5 4ebc e36a 953c 265a 013e
000002c0: 335a 0bbd efc8 3b3d c78a 8fbd 3cb0 a1bd
000002d0: 1a5c c03c 7ca5 103c 0e50 12bc d582 a3bd
000002e0: 9c03 cebd 6a86 e0bc c7c3 213e 0aad 063d
000002f0: 743a 3d3d a212 033d e277 eebb 6782 273e
00000300: 800c 743d 4b8c 213d 860e 443d d4da 383d
00000310: 07c6 2cbe 7b60 613c f864 5ebd 7736 7ebd
00000320: eb5b cd3c 44a7 9b3d ebef 053d 86a8 8f3d
00000330: 2380 7bbd 2750 b23d 27ad 5fbd 1d0d 9a3d
00000340: b896 813d 069b 703d 429a d4bd bf7e e9bd
00000350: 32bf 32bd 0b2f 30be 94b1 5c3d aed8 2abd
00000360: 1a31 803d 741a a2bc a5dd 87bd 4a2b 0dbe
00000370: 303c 18bd 3cbe 92bd 878a 08bd 4f28 163e
00000380: 559f 99bd c372 153e 06c6 263c 7dc1 bc3d
00000390: c3ae 72bb 2989 503d 7b40 8abc 2bee ebbd
000003a0: cc89 fa3c e14c 24bd 3ba9 95bc 26ee 7ebd
000003b0: dcdb fc3d 2747 46bd a216 9ebd 5620 d93d
000003c0: 2394 ad3d 0114 1dbe b055 8b3d 9111 9b3c
000003d0: 62a5 32bc 81e3 753d 8a1e 7fbd 1723 ac3c
000003e0: 23e1 e03d 41b4 983b ae68 4c3d 6352 55bd
000003f0: 4ff0 5dbd b965 043d 271d e53b 1fef 583d

network_body._body_endoder.seq_layers.0.bias f4 [128]
0.0031485858 -0.0020837842 6.729293e-05 0.002231708 -0.0015393826 -0.0015410453 -0.0022615404 5.6878025e-06
0.0011659701 0.0014837147 0.00040821955 -0.00078061677 -0.00032418378 0.00015247607 0.00053507835 -0.0011927
-0.0015260809 -0.0011798005 -0.0013542275 0.00016499958 0.0013807187 -0.0021030924 0.0007345596 0.00026630113
-0.001466811 0.0020333503 0.0005465101 -0.0013818163 0.0016433767 -0.002312966 -0.002903907 0.0021428657
-0.00017707863 0.0026496514 -0.0012740921 0.0017343751 0.0027470943 -0.001271543 0.0007389571 -0.0006976429
-0.0015176525 0.0014168088 0.0012280571 0.00017542939 9.866803e-05 -0.0014079246 0.0002899456 0.0016147973
0.0011599323 0.00083281234 -0.0009093652 -0.0005781574 0.00049535383 -0.0006207358 -0.00072478 0.0012195092
0.00027607093 8.34182e-05 -0.0022708562 9.4338866e-05 -0.000788346 -0.0012343655 0.001198248 0.0013866189
-0.00085102714 -0.0004971954 0.000118930926 -0.0018916331 -0.0006712306 -0.0005990768 0.0025207496 0.0027363324
4.357953e-05 0.00033025068 0.00045655982 -0.00052309706 -0.0025594903 -0.00045368742 -0.00045405244 -0.0019338529
0.0004602223 -0.0011922007 -0.00022497076 0.0012437388 0.0016046888 0.0008030368 0.0004952231 0.00032851778
0.0026043048 -0.0010536377 0.00030327155 8.779448e-05 0.0001228272 0.0007206231 -0.002093729 -0.000500116
-0.00051890773 0.0010765833 -0.002592489 -0.00081966224 -0.0011336275 -0.0006282013 -0.001893404 -0.00022871318
-0.0021789102 -0.00014170975 -0.0010068334 -0.0006071474 0.000166227 0.0020834147 -0.0021125209 0.00011811011
0.00027615996 0.0014726378 -0.001193585 0.00056861487 -0.00054239173 -0.0012726665 -0.001780897 -0.00016750644
0.0012703447 -0.0013316835 -0.00033558987 -0.002343807 -0.0022504514 -0.001560812 0.0020118763 -0.00061940134
00000000: 8158 4e3b 1990 08bb 9e1f 8d38 d941 123b
00000010: 1cc5 c9ba e6fc c9ba 5a36 14bb dad9 be36
00000020: 77d3 983a 3479 c23a 4d06 d639 4ea2 4cba
00000030: 36f7 a9b9 fce1 1f39 8044 0c3a 5f54 9cba
00000040: c706 c8ba 89a3 9aba 5680 b1ba bd03 2d39
00000050: 3bf9 b43a 09d4 09bb 768f 403a 559e 8b39
00000060: 0342 c0ba f541 053b ac43 0f3a 101e b5ba
00000070: 9266 d73a 2195 17bb 7a4f 3ebb 526f 0c3b
00000080: 2fae 39b9 c6a5 2d3b 70ff a6ba f953 e33a
00000090: 9808 343b e7a9 a6ba 92b6 413a 06e2 36ba
000000a0: f8eb c6ba 37b4 b93a c2f6 a03a 78f3 3739
000000b0: ffeb ce38 1c8a b8ba d703 9839 9ba7 d33a
000000c0: df08 983a 1751 5a3a 7762 6eba 7c8f 17ba
000000d0: a2da 013a e0b8 22ba 2aff 3dba f0d7 9f3a
000000e0: 9dbd 9039 cef0 ae38 a5d2 14bb cbd7 c538
000000f0: 01a9 4eba 6fca a1ba 880e 9d3a 36bf b53a
00000100: 7717 5fba 3856 02ba 8e6a f938 adf0 f7ba
00000110: 86f5 2fba 5d0b 1dba 2933 253b 0a54 333b
00000120: 2ac9 3638 7f25 ad39 6c5e ef39 7320 09ba
00000130: 1fbd 27bb e5dc edb9 e30d eeb9 5679 fdba
00000140: fe49 f139 9e43 9cba 21e6 6bb9 f304 a33a
00000150: 6c54 d23a e382 523a dcd1 013a e93c ac39
00000160: fcac 2a3b 371a 8aba 6b00 9f39 4d1e b838
00000170: 2dcb 0039 33e8 3c3a f236 09bb 371a 03ba
00000180: 4f07 08ba 241c 8d3a bfe6 29bb 9ade 56ba
00000190: 3a96 94ba e0ad 24ba 192c f8ba bad2 6fb9
000001a0: 0ccc 0ebb ec97 14b9 b9f7 83ba f928 1fba
000001b0: 384d 2e39 e689 083b 3872 0abb e2b1 f738
000001c0: 90c9 9039 8605 c13a 1172 9cba 190f 153a
000001d0: 4b2f 0eba 9acf a6ba fd6c e9ba aba4 2fb9
000001e0: b281 a63a e28b aeba 1cf2 afb9 8e9a 19bb
000001f0: 4f7c 13bb 2994 ccba afd9 033b 525f 22ba

network_body._body_endoder.seq_layers.2.weight f4 [128, 128]
0.119656205 -0.20910628 -0.1487631 -0.07176483 0.026767842 -0.036253538 0.18041787 -0.030653752
0.064661704 -0.152611 -0.03886406 0.025277842 0.041914437 0.00094121776 -0.0016085006 0.03463951
0.020973738 0.030250829 -0.108822994 -0.02383916 -0.012243249 0.073151395 0.12177267 -0.1380137
0.023787443 0.057971183 0.16327891 -0.050512195 -0.03368124 0.021967 0.02131252 -0.05011935
-0.08279141 -0.010113017 -0.0041239075 0.018177845 0.13372387 0.037886567 0.0524116 -0.027916955
0.0377209 0.020254463 -0.114735186 0.027989063 0.07946871 0.0674806 0.07830548 0.03467098
-0.07153531 0.12009715 0.08865887 0.06722881 0.1122833 -0.12354497 0.05632492 0.038483344
-0.035401635 -0.170807 -0.11516866 0.06059744 0.080214664 -0.015574267 0.082725145 -0.009367628
-0.031974267 -0.11430375 -0.013465291 -0.047973733 0.06615844 0.07636048 -0.07085459 0.015382643
-0.02934799 0.10439996 0.017627958 -0.094311975 0.123932086 -0.04704148 -0.022219362 0.029728329
0.13534 -0.09585016 -0.0029314074 -0.04648237 0.05523518 -0.012715199 -0.031672616 -0.054686222
-0.07573924 -0.053125642 -0.09085188 0.123793654 0.12978213 0.062917255 0.01815049 0.018908074
0.11666172 -0.11658338 -0.02326368 0.014723709 0.03461403 0.053236064 0.0024752095 -0.17222106
-0.117346205 -0.064758725 0.21938168 0.07757982 -0.11697965 0.035727788 0.15438981 0.099800825
0.05970613 -0.020613099 0.0014715783 -0.15093327 0.19642453 -0.0799876 -0.005580322 0.057176292
0.13311954 -0.1501099 0.07760465 0.037634045 0.03334053 0.13875207 0.13782603 -0.020495426
0.25815386 0.08535116 -0.12003569 -0.0060602752 0.057430003 0.03181482 0.011108313 0.019498508
-0.11840143 -0.08097564 -0.3153763 0.014047413 0.0015522365 -0.07810328 -0.03251 0.10343814
-0.064051636 -0.020374237 -0.0760867 -0.0676734 -0.12209116 0.03389442 -0.15881798 -0.017261758
-0.06300784 -0.010133313 -0.036600128 0.047538944 0.019238153 -0.04670503 -0.044713024 -0.01575047
-0.059996627 0.030925788 -0.08892795 0.089683734 0.13474089 0.00793521 -0.01157281 -0.081441276
0.09369143 0.12735002 0.046539344 -0.0420428 0.014611361 -0.08082039 -0.12328017 0.07300163
0.092875354 -0.025420686 -0.01565738 -0.01870044 -0.20281835 -0.08762332 -0.046747345 -0.060411334
0.015210956 0.06797257 -0.03766897 0.029270003 -0.19054697 -0.010873935 0.020049144 0.054949187
0.016998945 0.10156907 -0.07148689 -0.1177955 -0.20424661 -0.021653324 -0.005997226 0.039355673
0.03964898 0.0055410084 0.047796927 -0.054876614 0.051776953 -0.13931842 0.14274003 0.06277448
-0.03602102 -0.055976238 0.16379341 -0.05042454 0.04401986 0.020947412 -0.02931981 0.11378495
-0.015186862 -0.061913736 0.1044327 -0.040737357 -0.19945085 -0.10916706 0.13880034 0.13040027
0.049684543 0.0756547 0.022223804 0.10118126 -0.08249514 -0.12380056 -0.028751418 -0.0039507244
-0.13513796 0.15625837 0.19122042 0.06637396 0.110938154 -0.049692936 -0.007035214 0.005898365
0.13685092 0.035065517 0.045247395 0.053533867 0.21810462 0.045604322 -0.15549472 -0.05156986
0.0198539 0.12343481 0.045950178 0.0864704 -0.11374768 -0.088369206 -0.062020443 0.06624327
00000000: 500e f53d f51f 56be 5b55 18be 70f9 92bd
00000010: 3c48 db3c 977e 14bd 76bf 383e 941d fbbc
00000020: 5b6d 843d 0f46 1cbe ec2f 1fbd 7a13 cf3c
00000030: 79ae 2b3d 0ebc 763a 53d4 d2ba 29e2 0d3d
00000040: 1ed1 ab3c 96d0 f73c 97de debd 584a c3bc
00000050: e997 48bc 66d0 953d f363 f93d 7753 0dbe
00000060: e2dd c23c 3173 6d3d 9632 273e e0e5 4ebd
00000070: 57f5 09bd 23f4 b33c 9897 ae3c f349 4dbd
00000080: 8b8e a9bd 11b1 25bc d821 87bb b4e9 943c
00000090: e9ee 083e f22e 1b3d 8cad 563d 19b2 e4bc
000000a0: 3b81 1a3d b0ec a53c 48fa eabd 5249 e53c
000000b0: 7ec0 a23d 4533 8a3d a05e a03d 2803 0e3d
000000c0: 1b81 92bd 7ff5 f53d c892 b53d 42af 893d
000000d0: c9f4 e53d 2505 fdbd f6b4 663d b6a0 1d3d
000000e0: 4e01 11bd 08e8 2ebe 8cdd ebbd 0535 783d
000000f0: 9647 a43d 362b 7fbc cd6b a93d ae7a 19bc
00000100: 73f7 02bd 1618 eabd 869d 5cbc 1b80 44bd
00000110: 147e 873d e262 9c3d 361c 91bd 7b07 7c3c
00000120: 326b f0bc a5cf d53d 8268 903c a326 c1bd
00000130: 1bd0 fd3d 91ae 40bd 6105 b6bc d388 f33c
00000140: 9296 0a3e 174d c4bd db1c 40bb 4c64 3ebd
00000150: 493e 623d 6953 50bc 25bb 01bd a9fe 5fbd
00000160: 2d1d 9bbd 469a 59bd 8d10 babd 8787 fd3d
00000170: 9be5 043e c3da 803d 56b0 943c 1be5 9a3c
00000180: 57ec ee3d 44c3 eebd 7993 bebc b63b 713c
00000190: 71c7 0d3d 0f0e 5a3d 2037 223b b85a 30be
000001a0: 3553 f0bd 39a0 84bd 97a5 603e 2be2 9e3d
000001b0: 0793 efbd 4d57 123d 5d18 1e3e 6064 cc3d
000001c0: 6a8e 743d cddc a8bc f9e1 c03a 408e 1abe
000001d0: 8323 493e 8ad0 a3bd 22db b6bb b031 6a3d
000001e0: 7d50 083e 69b6 19be 30ef 9e3d 2826 1a3d
000001f0: 1490 083d 0615 0e3e 4422 0d3e 06e6 a7bc
00000200: be2c 843e 97cc ae3d 46d5 f5bd 4695 c6bb
00000210: b93b 6b3d 4250 023d a4ff 353c 56bb 9f3c
00000220: 737c f2bd 8ed6 a5bd 0179 a1be 1f27 663c
00000230: 6a74 cb3a 9df4 9fbd 3529 05bd 60d7 d33d
00000240: 812d 83bd dfe7 a6bc 58d3 9bbd 5a98 8abd
00000250: ee0a fabd e0d4 0a3d 2ea1 22be 8868 8dbc
00000260: 410a 81bd 3206 26bc 04ea 15bd 32b8 423d
00000270: 5599 9d3c c64d 3fbd 0125 37bd 2107 81bc
00000280: 06bf 75bd 1458 fd3c db1f b6bd 1bac b73d
00000290: 84f9 093e af02 023c e29b 3dbc afca a6bd
000002a0: 4be1 bf3d 0b68 023e 0aa0 3e3d 1235 2cbd
000002b0: 7d64 6f3c 2985 a5bd 507a fcbd e181 953d
000002c0: 6f35 be3d 0b3f d0bc e843 80bc aa31 99bc
000002d0: 9daf 4fbe db73 b3bd 257a 3fbd e071 77bd
000002e0: 6037 793c 3435 8b3d c74a 1abd a5c7 ef3c
000002f0: bf1e 43be 9728 32bc 1a3e a43c 6612 613d
00000300: 5f41 8b3c 7203 d03d b867 92bd c43e f1bd
00000310: 0626 51be 5062 b1bc 6184 c4bb 6a33 213d
00000320: f866 223d 5991 b53b b6c6 433d 4dc6 60bd
00000330: 1214 543d 7da9 0ebe 712a 123e e88f 803d
00000340: c78a 13bd 5747 65bd 76b9 273e f689 4ebd
00000350: 2b4e 343d e899 ab3c 1930 f0bc 1508 e93d
00000360: 51d2 78bc 4299 7dbd d0e0 d53d 37dc 26bd
00000370: d83c 4cbe fb92 dfbd ad21 0e3e a687 053e
00000380: 0582 4b3d daf0 9a3d b20e b63c 1f38 cf3d
00000390: 36f3 a8bd 268b fdbd 1888 ebbc 1475 81bb
000003a0: 9b61 0abe 3202 203e 49cf 433e 12ef 873d
000003b0: 8b33 e33d d28a 4bbd a787 e6bb 1247 c13b
000003c0: a622 0c3e dca0 0f3d 5555 393d 5446 5b3d
000003d0: d156 5f3e 99cb 3a3d 023a 1fbe eb3a 53bd
000003e0: a5a4 a23c 64cb fc3d 4136 3c3d 6517 b13d
000003f0: 8bf4 e8bd eafa b4bd 2609 7ebd 8daa 873d

network_body._body_endoder.seq_layers.2.bias f4 [128]
-0.00046352338 0.0021312782 -0.0029304333 -0.0010522568 -1.1623422e-05 -0.0020796452 0.0026359786 0.0001031633
0.0029608097 0.000985686 0.0011873563 0.0005212598 0.0021121155 -0.0018532468 0.00010698233 -0.0004458838
0.0021350782 -0.0011191833 -0.001170686 0.00087178143 0.00048812004 0.00044581486 -0.00088562485 0.0014031389
-0.0012809286 -0.0013020422 -0.0009765711 -0.001025717 -8.6575106e-05 -0.0027267348 0.002802849 -0.0025590295
-0.0023011176 0.00058189576 0.0021433474 -0.00088400015 0.00056256953 -0.0015943713 0.0012149884 -0.00016355987
-0.001557134 -0.0006311979 -0.0004290419 0.0010674923 0.00044515228 -0.00018075698 -0.0007277984 -0.0003281355
-0.0002602378 0.00048793378 0.00040164858 -9.6810334e-05 0.0010227264 -0.0017576714 0.00092426257 -0.0014142542
0.00075663766 -0.0014995298 -0.00014572666 0.0016672022 -0.0008732881 -0.00015351595 2.8956158e-05 -0.0021998952
-0.0019436264 -0.0004082653 0.0013713997 0.0014084411 0.0013918428 0.0016547141 0.0024344716 -0.0015522696
-0.0010160287 8.1959886e-05 -0.0001163281 0.0010892185 0.000570536 0.0007242573 0.0004718354 0.0005457364
0.0024849223 -0.0009754923 -0.0016502435 0.0024522338 -0.0018632524 -0.001664366 -0.00025953984 0.0028901845
0.0007205516 -0.0007954551 0.0031138663 -0.0015912909 0.0015718817 -3.4579083e-05 0.0006759495 0.0016062169
-0.00042768902 -0.0007165686 0.0019689181 0.0023952147 -0.0001315307 0.0013989899 -0.0005552886 -0.0012884551
-0.0010287318 0.00065071514 0.0013298274 -0.003216248 -0.0007279233 0.0003251707 0.0011424266 0.000958223
0.00027436242 0.0016286317 0.002230949 0.0019793317 -0.0015246668 0.00067023473 0.0011965652 -0.0019439589
-0.0021847538 0.0027962374 0.00033957677 0.0005560042 -0.0025338982 -0.0014817395 -0.0010456077 -0.0009917126
00000000: 0e05 f3b9 eaac 0b3b 830c 40bb e1eb 89ba
00000010: 3802 43b7 a84a 08bb 62c0 2c3b 6059 d838
00000020: 250a 423b 2232 813a 11a1 9b3a 27a5 083a
00000030: 6b6b 0a3b a5e8 f2ba b35b e038 83c5 e9b9
00000040: abec 0b3b 8fb1 92ba b471 99ba 4388 643a
00000050: 5dea ff39 42bc e939 4729 68ba 87e9 b73a
00000060: d5e4 a7ba 49a9 aaba 4a00 80ba 5a71 86ba
00000070: a88f b5b8 05b3 32bb 01b0 373b 64b5 27bb
00000080: 59ce 16bb 5d8a 183a 6777 0c3b 3fbc 67ba
00000090: 6779 133a 39fa d0ba 3f40 9f3a 4581 2bb9
000000a0: bf18 ccba f976 25ba 07f1 e0b9 19eb 8b3a
000000b0: 5463 e939 9589 3db9 b9c9 3eba 9a09 acb9
000000c0: 8770 88b9 5dd1 ff39 5c94 d239 a706 cbb8
000000d0: 010d 863a aa61 e6ba 364a 723a 7f5e b9ba
000000e0: 1859 463a df8b c4ba 34ce 18b9 0686 da3a
000000f0: 5fed 64ba 20f9 20b9 e0e6 f237 1e2c 10bb
00000100: 48c1 feba 710c d6b9 8ac0 b33a 719b b83a
00000110: 7f6e b63a fee2 d83a a88b 1f3b 8675 cbba
00000120: 442c 85ba e1e1 ab38 2cf5 f3b8 1cc4 8e3a
00000130: 0690 153a 16dc 3d3a ad60 f739 c00f 0f3a
00000140: 14da 223b 2eb8 7fba fc4c d8ba a8b5 203b
00000150: 6038 f4ba db26 daba d912 88b9 4069 3d3b
00000160: 66e3 3c3a 1786 50ba 0212 4c3b dd92 d0ba
00000170: 9907 ce3a 0209 11b8 3432 313a b287 d23a
00000180: 733b e0b9 1bd8 3bba f708 013b 09f9 1c3b
00000190: 81eb 09b9 505e b73a ca90 11ba 61e1 a8ba
000001a0: 83d6 86ba c194 2a3a 9a4d ae3a b0c7 52bb
000001b0: 1bd2 3eba ac7b aa39 7abd 953a 4231 7b3a
000001c0: 4dd8 8f39 d077 d53a 1d35 123b adb7 013b
000001d0: 54d7 c7ba b1b2 2f3a 11d6 9c3a 70cc feba
000001e0: 162e 0fbb 1441 373b 3909 b239 cfc0 113a
000001f0: c20f 26bb ed36 c2ba c60c 89ba 5afc 81ba

action_model._continuous_distribution.log_sigma f4 [1, 20]
-0.04610774 -0.072437994 -0.11244601 -0.0494713 -0.053098857 -0.04884256 -0.060415696 -0.016799051
-0.111125514 -0.32898122 -0.08681876 -0.006973209 -0.030645974 -0.04574383 -0.028363055 -0.050108414
-0.05729043 0.015929958 -0.038421936 -0.074641064
00000000: 78db 3cbd 5f5a 94bd 184a e6bd 6ba2 4abd
00000010: 307e 59bd 230f 48bd 7376 77bd 2a9e 89bc
00000020: c695 e3bd 3a70 a8be 09ce b1bd 847f e4bb
00000030: 440d fbbc e25d 3bbd a359 e8bc 7b3e 4dbd
00000040: 5fa9 6abd 8b7f 823c 5260 1dbd 6add 98bd

action_model._continuous_distribution.mu.weight f4 [20, 128]
-0.0064594196 0.008328512 -0.011243666 -0.03056416 -0.012035234 0.020322878 -0.0031222268 -0.022808684
0.012838478 -0.021571614 -0.003963904 0.013759447 0.023509305 -0.0032761288 0.015460652 -0.0036857233
0.016511945 0.032821763 0.00059527456 -0.022797128 0.007146346 0.006115776 -0.0077862963 -0.0074311495
0.011637705 0.0065219733 0.024690552 0.019251341 -0.01234757 0.0032016465 0.010627685 0.006240763
0.0055271233 0.021883542 -0.0032619387 -0.013129757 -0.017426705 0.03498956 -0.0116940765 -0.024473326
0.008893606 0.01686185 0.0026824183 0.034297146 0.011775707 0.0018737693 -0.024545187 -0.0049267616
-0.0087098265 -0.010043867 0.015934296 -0.006027163 -0.02486364 0.009707362 -0.012527702 -0.047236327
-0.0011876907 0.014111284 0.01290844 0.015581121 -0.011010543 0.0093958685 -0.020002704 0.020918379
0.016043045 -0.003968629 0.019734312 0.010458128 -0.009623565 0.013703974 0.016335476 0.0149508
0.019205073 -0.009425022 0.027221788 0.004244724 -0.007645253 0.00974496 0.0008002725 -0.014042415
-0.01816747 0.028793095 -0.0045338 -0.046302088 0.022184849 0.036800828 -0.042449526 -0.02104818
0.0026437705 0.0026175939 0.029176686 -0.010321958 0.014050434 -0.00579978 -0.016249083 0.008830703
-0.0012651705 0.035612445 -0.0036579375 -0.008764716 0.020568626 -0.020471016 0.0034754197 -0.0007867537
-0.018618325 -0.0057044392 -0.019547485 0.024746435 -0.0055684587 -0.021116901 -0.019470409 0.02523164
-0.028014865 -0.021815177 -0.027102945 -0.025213642 -0.005964775 -0.023054253 0.0004527838 -0.0057599586
0.031962793 -0.0117135625 0.0017034605 -0.012089787 0.01246715 -0.0042943177 -0.010035363 0.010719925
0.035440505 -0.02087858 0.029522695 0.011903405 -0.0049493117 -0.01684825 -0.014792269 0.025197137
-0.01666828 -0.00026643305 -0.018314457 -0.00477819 -0.004065 -0.0130859595 0.00040248228 0.0112775
-0.014734839 0.03816146 -0.0025902856 0.029013647 -0.028409699 -0.0014333719 0.021884404 0.021663107
-0.012923903 0.014510189 0.016415149 0.012686882 -0.0048543187 0.0039060523 -0.0062760636 -0.011164822
0.013875788 0.021907039 0.014199816 -0.0023053996 0.00513908 0.016569989 -0.03524079 -0.03308367
0.03499728 0.009648547 -0.018642964 -0.010296273 -0.007519583 0.0011180893 0.0036835924 -0.0043885214
-0.0045402977 -0.017571433 -0.006911308 0.00047525857 0.0019255566 0.010645597 0.017395997 0.0035162442
0.022127025 -0.036663625 0.017920207 -0.039090294 0.001248831 0.005881094 -0.020215126 0.0036198772
-0.0120660495 0.0009421591 -0.009623908 0.0015678873 -0.00867013 0.0053362916 -0.012067537 -0.0056946143
-0.0047573596 -0.029113673 -0.0056761033 6.333727e-05 -0.013356055 0.025613029 0.036880862 -0.005544566
-0.015049089 -0.02941882 0.0022747235 0.015545351 0.004570011 0.041458678 -0.03912785 0.008359306
0.005968307 -0.0066167926 -0.01006288 0.01583252 -0.028518895 0.0076223523 -0.006659074 0.0026918945
-0.019506477 -0.0060904548 -0.026791759 0.0049489154 0.009577636 -0.01643522 -0.01721902 -0.012153551
-0.005307227 0.0060467464 0.0063410997 -0.0034518682 -0.029025428 0.032503888 -0.018959256 -0.005944974
-0.02588565 -0.03433477 0.002249629 0.013408727 0.005529871 -0.004914691 -0.0033701146 0.0022654913
-0.03137681 0.018007094 0.030014208 -0.017764851 0.022625985 0.011495728 0.012419493 -0.005053841
00000000: 8aa9 d3bb 5074 083c 5a37 38bc b061 fabc
00000010: 6e2f 45bc 2a7c a63c 469e 4cbb 47d9 babc
00000020: 7b58 523c f4b6 b0bc a3e3 81bb 4e6f 613c
00000030: 9696 c03c 52b4 56bb ad4e 7d3c 2d8c 71bb
00000040: 0f44 873c 1d70 063d 330c 1c3a 0bc1 babc
00000050: e52b ea3b d966 c83b 3024 ffbb 0081 f3bb
00000060: 13ac 3e3c 47b6 d53b d743 ca3c fdb4 9d3c
00000070: 764d 4abc b7d2 513b be1f 2e3c 507f cc3b
00000080: df1c b53b 1d45 b33c 40c6 55bb 311e 57bc
00000090: 73c2 8ebc 3651 0f3d 8398 3fbc 497c c8bc
000000a0: 7db6 113c dd21 8a3c 83cb 2f3b 2a7b 0c3d
000000b0: e5ee 403c 4499 f53a fd12 c9bc ac70 a1bb
000000c0: a9b3 0ebc 088f 24bc a488 823c 827f c5bb
000000d0: d5ae cbbc a10b 1f3c fe40 4dbc e17a 41bd
000000e0: 49ac 9bba 0433 673c ec7d 533c f547 7f3c
000000f0: 9165 34bc 21f1 193c b6dc a3bc 055d ab3c
00000100: b46c 833c 460b 82bb daa9 a13c 9158 2b3c
00000110: 28ac 1dbc a286 603c fad1 853c 33f4 743c
00000120: f553 9d3c 686b 1abc 3a00 df3c 5317 8b3b
00000130: 0885 fabb 53a9 1f3c 61c9 513a 2812 66bc
00000140: f2d3 94bc 7fdf eb3c 4590 94bb 42a7 3dbd
00000150: 00bd b53c 77bc 163d 8edf 2dbd 3c6d acbc
00000160: 1c43 2d3b f08b 2b3b f203 ef3c 6e1d 29bc
00000170: cb33 663c 150c bebb cc1c 85bc a7ae 103c
00000180: 14d4 a5ba 5bde 113d 02ba 6fbb e299 0fbc
00000190: 897f a83c d5b2 a7bc dec3 633b 263e 4eba
000001a0: 7585 98bc 4eec babb 0c22 a0bc 09b9 ca3c
000001b0: 9e77 b6bb 5afd acbc 6880 9fbc 96b2 ce3c
000001c0: 6e7f e5bc beb5 b2bc ff06 debc d78c cebc
000001d0: 2974 c3bb 46dc bcbc 9d63 ed39 09be bcbb
000001e0: 6beb 023d 3eea 3fbc a646 df3a 3e14 46bc
000001f0: 0443 4c3c 59b7 8cbb 5d6b 24bc a0a2 2f3c
00000200: 102a 113d 8e09 abbc 94d9 f13c 8006 433c
00000210: d62d a2bb 5705 8abc 465b 72bc 3a6a ce3c
00000220: eb8b 88bc 0ab0 8bb9 3308 96bc 5d92 9cbb
00000230: b133 85bb 7e66 56bc 4204 d339 43c5 383c
00000240: 656a 71bc 314f 1c3d c8c1 29bb 07ae ed3c
00000250: 75bb e8bc fbdf bbba ec46 b33c d476 b13c
00000260: c7be 53bc 25bc 6d3c 1079 863c a4dc 4f3c
00000270: fa10 9fbb affc 7f3b 70a7 cdbb a8ec 36bc
00000280: 4657 633c 6476 b33c 58a6 683c 3016 17bb
00000290: ba65 a83b c9bd 873c a658 10bd be82 07bd
000002a0: 4f59 0f3d f014 1e3c 21b9 98bc b3b1 28bc
000002b0: d666 f6bb da8c 923a 6d68 713b 96cd 8fbb
000002c0: c7c6 94bb f7f1 8fbc 4178 e2bb 202c f939
000002d0: f562 fc3a df6a 2e3c 0d82 8e3c ca70 663b
000002e0: bc43 b53c 992c 16bd 66cd 923c 251d 20bd
000002f0: d1af a33a 31b6 c03b 319a a5bc 763b 6d3b
00000300: aeb0 45bc 3afb 763a 99ad 1dbc 9181 cd3a
00000310: 290d 0ebc 0fdc ae3b ebb6 45bc e399 babb
00000320: a0e3 9bbb cc7f eebc 9bfe b9bb f0d3 8438
00000330: 5bd3 5abc 6ad2 d13c 6310 173d 31af b5bb
00000340: 7490 76bc bdff f0bc 8713 153b eeb1 7e3c
00000350: 08c0 953b 93d0 293d 8644 20bd 78f5 083c
00000360: ca91 c33b aed1 d8bb c7de 24bc 33b3 813c
00000370: 75a0 e9bc edc4 f93b 5d34 dabb 7f6a 303b
00000380: 0ccc 9fbc 7092 c7bb 647a dbbc 832a a23b
00000390: 84eb 1c3c 28a3 86bc e70e 8dbc b01f 47bc
000003a0: 3fe8 adbb c923 c63b 00c9 cf3b bd38 62bb
000003b0: bcc6 edbc cc22 053d 7150 9bbc 0ece c2bb
000003c0: 250e d4bc 9ea2 0cbd 836e 133b 47b0 5b3c
000003d0: ec33 b53b 6b0b a1bb 24dd 5cbb a378 143b
000003e0: f884 00bd 9d83 933c 5be0 f53c 9887 91bc
000003f0: 215a b93c 9458 3c3c 217b 4b3c b19a a5bb

action_model._continuous_distribution.mu.bias f4 [20]
-0.012494392 -0.0021934076 0.016248941 0.005861412 -0.008114969 0.0038872715 -0.017909633 0.00028259124
0.009922304 -0.0004130201 -0.025201084 0.004109477 0.0011310641 -0.01141186 0.009585291 -0.0048784376
0.013030903 -0.007911074 -0.0041230526 -0.0059751724
00000000: 47b5 4cbc 46bf 0fbb 801c 853c 1611 c03b
00000010: a6f4 04bc 98c1 7e3b 39b7 92bc c128 9439
00000020: 2991 223c 9f8a d8b9 8172 cebc cba8 863b
00000030: 3740 943a cff8 3abc a00b 1d3c 4ddb 9fbb
00000040: 927f 553c 739d 01bc ac1a 87bb 61cb c3bb
