results/duoCW-V1/Crawler/Crawler-6832.onnx (onnx, 162792 bytes, 10 tensors)

network_body.observation_encoder.processors.0.normalizer.running_mean f4 [126]
000000 00 00 00 00 c8 7b 98 32 00 00 00 00 73 52 a4 bc
       0.0 1.7751418e-08 0.0 -0.020058846
000010 be d6 cd 3c 0c a5 88 bc 62 e3 76 3f 1b 73 f1 3e
       0.025126811 -0.016680263 0.9644071 0.4715813
000020 07 1c 09 3e 96 87 00 bf 1a 19 c9 be c0 d9 9f be
       0.13389598 -0.5020689 -0.39276963 -0.31220818
000030 72 27 19 be a1 80 4f 3f 9f d1 81 3f 03 4b 18 bd
       -0.14956453 0.8105565 1.0142096 -0.03718091
000040 27 f6 89 bf e5 09 48 bf 9d 51 32 be 00 4a 99 be
       -1.0778245 -0.781401 -0.17413945 -0.2993927
000050 c1 bc e5 3e 03 e1 03 bf 81 ee e0 3d 71 f9 ff be
       0.4487057 -0.51515216 0.10982991 -0.49994996
000060 38 e8 e0 be 46 35 b3 3e c3 b6 28 3e c9 07 44 3f
       -0.4392717 0.35001582 0.16475968 0.7657438
000070 1e 69 8e bf 4c d4 82 bd ca 39 87 bf 12 f2 42 bf
       -1.1125829 -0.06388149 -1.0564511 -0.7615062
000080 7b 9d 65 3e ec e1 a2 3e 5d a4 e1 3e d8 83 fa be
       0.22423355 0.3181299 0.44070712 -0.48928714
000090 1e 42 13 3e 76 16 06 3f 9f 85 25 be 7d 17 4b 3f
       0.1438069 0.5237802 -0.16164254 0.79332715
0000a0 ca 21 da 3e 00 04 9b 3e d0 f7 84 bf b3 0b 20 bd
       0.42603904 0.3027649 -1.0388126 -0.039073657
0000b0 11 5e 8e 3f 24 8f 97 be a5 5b e8 3e ed d6 46 3f
       1.1122457 -0.29601395 0.4538242 0.776717
0000c0 83 a7 32 3e d2 e4 07 3f bb 8c e4 3d 6c 68 f7 3e
       0.17446713 0.5308353 0.11159655 0.48321855
0000d0 6f fa 5d be 86 9b 45 bf 40 3e d5 be 8a f2 aa 3e
       -0.21677564 -0.77190435 -0.41649055 0.33388168
0000e0 8b a9 8f 3f a6 54 76 bd f6 a1 85 3f e7 69 b4 be
       1.1223615 -0.06013932 1.0440052 -0.35237047
0000f0 11 ad ec be e2 b1 3e bf 7b 1c 36 3e 54 ef 1e 3c
       -0.4622579 -0.7449018 0.17784302 0.009700615
000100 70 d1 c5 bc 40 63 0e 3d cf 88 89 3d a0 0d 6e bd
       -0.02414772 0.03476262 0.06715547 -0.058118463
000110 e3 c5 0f bd f4 72 b5 bc a0 cc 1a bd 02 8b 67 3d
       -0.03510083 -0.02214954 -0.0377928 0.056529053
000120 74 52 5b bc 2b dd 02 bd 3b 0f 8f 3b 5c ac d9 3d
       -0.013386358 -0.031949203 0.0043658293 0.10628578
000130 b2 3d 24 3d 14 1e f8 3d 18 bf 4b 3b a6 8c 26 bd
       0.0400979 0.12115112 0.0031089243 -0.040661477
000140 70 ae 11 3d fd 3f d7 3d 41 d9 5a 3d 9e 74 81 bd
       0.035566747 0.10510252 0.053429846 -0.06321071
000150 3b d2 d4 3c 5a b9 22 bd 25 d3 1d 3d 28 ca b9 bd
       0.025979152 -0.039727546 0.03853144 -0.09071761
000160 ab 32 63 3d 7c 44 a9 bd 73 52 a4 bc be d6 cd 3c
       0.055468243 -0.082650155 -0.020058846 0.025126811
000170 0c a5 88 bc 62 e3 76 3f 01 bd c1 be 91 5e b2 be
       -0.016680263 0.9644071 -0.3783951 -0.34837773
000180 c6 2f 21 be bf 2d 57 3f d3 a7 0f bf 6e bb 3e 37
       -0.1574088 0.8405418 -0.56115454 1.1368522e-05
000190 78 67 c2 b7 27 c3 52 3f 5b 71 e5 be 4a 17 a9 3e
       -2.3174784e-05 0.8232903 -0.44813046 0.3302558
0001a0 3b 5d 37 3e 3a d8 4e 3f bf 24 00 bf 39 a8 93 3b
       0.17906658 0.80798686 -0.5005607 0.0045061377
0001b0 35 0c 4e 3b 22 93 5c 3f 01 c2 3e be 1d fb 4c 3f
       0.0031440381 0.86162007 -0.18628694 0.8007067
0001c0 66 d9 ea 3e a8 3a a9 3e a9 59 05 bf 9c 59 5c ba
       0.45868987 0.33052564 -0.52089936 -0.0008405687
0001d0 f8 1e 11 ba fc 68 59 3f 8d df 44 be fa 83 4d bf
       -0.0005535926 0.8492582 -0.19225903 -0.80279505
0001e0 b9 d7 e4 be 2b 62 ac 3e bb 18 ff be bc c0 87 bb
       -0.44695833 0.33668646 -0.49823555 -0.004142849
0001f0 77 bc 42 bb ec af 5c 3f
       -0.0029714385 0.86205935

network_body.observation_encoder.processors.1.normalizer.running_mean f4 [28]
000000 9c 42 b0 b7 d2 3b 31 bc 4e f1 7f 3f e8 ba b9 39
       -2.1011852e-05 -0.010817485 0.99977577 0.00035425206
000010 f3 2a 95 bb 89 d0 a5 bd a2 11 31 41 05 ec 5e b9
       -0.004552239 -0.080964155 11.066805 -0.00021259494
000020 b7 e2 ea bd 5e 0e 31 41 d4 9f 4f 3d 36 3d 7e 3f
       -0.11469024 11.066008 0.050689533 0.9931215
000030 00 00 00 00 3a c5 01 3f b1 32 67 3f c9 c9 fb 3e
       0.0 0.5069157 0.90311724 0.49177387
000040 00 00 00 00 b0 f3 fb 3e ee cf 72 3f dd 24 03 3f
       0.0 0.49209356 0.94848526 0.51228124
000050 00 00 00 00 91 fd fd 3e af e6 63 3f 3c 5d 01 3f
       0.0 0.49607518 0.8902387 0.5053289
000060 00 00 00 00 60 25 fd 3e 58 fe 6b 3f 2b e8 ff 3e
       0.0 0.49442577 0.9218497 0.49981818

network_body._body_endoder.seq_layers.0.weight f4 [128, 154]
000000 31 1c 80 3c ab 1c ea 3d 80 0e 51 3b e9 67 35 3e
       0.015638443 0.11431249 0.0031899512 0.1771542
000010 8f 08 84 3c 01 ab 06 be 37 82 39 bc ab 31 cc bd
       0.016117362 -0.1315117 -0.01132255 -0.09970411
000020 df c7 a5 bb e6 0f ba bd 3b 1a 00 be 0a 45 2d 3d
       -0.005059227 -0.09085064 -0.12510006 0.04230217
000030 7f b3 87 3d 2d 9c ef bc 61 50 94 bd 59 e6 a7 bd
       0.06626033 -0.029249275 -0.072418936 -0.08198232
000040 93 e2 f3 3c 8b 19 e6 bc 14 a9 78 3c 1c af 7c 3d
       0.029771125 -0.028088352 0.01517703 0.061690435
000050 9d 80 04 3d fc 65 96 3d 50 03 12 bb 9a 72 72 3d
       0.032349218 0.07343671 -0.0022279806 0.059191324
000060 97 96 03 bd 7f bc 1e 3e b7 07 b2 3c b7 ea 78 bd
       -0.032126036 0.15501593 0.021732194 -0.060770717
000070 4f 48 2d 3e c4 30 6e 3d 40 6d 55 3a 3f 8d 26 be
       0.16922115 0.058151975 0.00081415847 -0.16264819
000080 a5 f0 50 bd 1a ba f9 3c fa d2 99 bd 4e 7e 60 3d
       -0.051010747 0.030484248 -0.07510944 0.054807954
000090 21 14 ba bc d1 1e fe 3d 37 84 8e bd b4 36 0a 3e
       -0.022714676 0.124082215 -0.06958812 0.1349743
0000a0 1b 68 d2 bd 9f d0 54 3d ed 42 0c 3d 77 b1 42 bd
       -0.10273763 0.05195677 0.034243513 -0.047532525
0000b0 17 d1 91 bc 13 55 cc 3c 79 97 25 be 70 e8 65 3d
       -0.017799897 0.02494291 -0.16171063 0.056129873
0000c0 56 f8 b9 bb 78 97 9f bd a4 72 5a bd 87 6b bf bc
       -0.005675356 -0.07792562 -0.053331986 -0.023366703
0000d0 73 ff 87 3d 6a 05 35 3a 60 d6 f8 3d ec df c0 bd
       0.0664052 0.0006905409 0.12150264 -0.0941771
0000e0 ce 4b 7f 3d ab 4c 86 bc e9 a8 05 3e 44 f6 a5 bd
       0.062328152 -0.01639398 0.13052715 -0.08103612
0000f0 d1 5d 83 3d a8 02 01 bb 6b 0d 22 bd ad 4e d3 bd
       0.064143784 -0.001968542 -0.039563578 -0.103177406
000100 01 c7 fe bc 2b 35 c1 3d 18 59 c3 3b ee 21 b6 3d
       -0.031100752 0.09433969 0.0059615485 0.0889319
000110 1d 10 b6 bd 3a 95 93 bb fa f2 e6 3c 84 52 80 3c
       -0.08889792 -0.004503873 0.028192032 0.015664347
000120 52 fd 90 bd c0 93 d5 3d 66 55 17 be c9 a0 4c 3c
       -0.07079567 0.10428572 -0.1477867 0.012489506
000130 fb a1 1d 3d 4b 49 c5 bd a8 6a c0 3d ea 8b a7 3c
       0.038484555 -0.0963312 0.09395343 0.020452458
000140 92 cc 85 3d 9e 49 20 3e c3 85 a0 3d 55 0d 65 3c
       0.06533159 0.15653083 0.07838013 0.013980229
000150 d4 16 8f 3d f0 44 72 bb 39 0c 04 bd 54 0e a2 3d
       0.06986776 -0.003696736 -0.03223822 0.07912889
000160 ec 72 95 bd 22 ce 51 bd 6d c3 23 3d ad db 79 bd
       -0.0729731 -0.051221974 0.039981294 -0.061000515
000170 0a 72 95 bc 06 cb 1c bd f1 7b 64 3d 41 db 9a bd
       -0.018242855 -0.038279556 0.055782262 -0.075613506
000180 c4 19 2c 3c e4 6e 41 bd b5 7c b6 3d 9b fa 31 3e
       0.01050419 -0.047224894 0.08910505 0.17380755
000190 e0 c8 3c bd 95 1d 9f bd bf 43 26 bc e9 28 c4 3c
       -0.046090007 -0.07769314 -0.010147988 0.023945289
0001a0 ae df 45 bc c8 f4 10 3e 80 3d 94 3d 91 6e 23 be
       -0.012077255 0.14155877 0.07238293 -0.15960146
0001b0 37 19 f3 3c d7 52 aa 3d bb f5 65 bd d3 37 bb bd
       0.02967511 0.08316582 -0.05614255 -0.09141507
0001c0 29 14 9d bd ea 28 d0 3c b9 85 7d 3b ed a2 62 3d
       -0.07669861 0.025410134 0.0038684441 0.05533116
0001d0 eb cc 8e bd 98 c1 1a 3d fb 9b 3e 3d a9 3a cf 3d
       -0.06972679 0.03778228 0.046535473 0.101186104
0001e0 53 3f e4 3c 73 2d 23 bc 3d 34 3e 3d 3f 9d 01 bd
       0.027862227 -0.009959566 0.046436537 -0.031644102
0001f0 4d 59 8d bd 8f 31 93 3d 32 c4 be 3c fb 98 e2 bd
       -0.069017984 0.07187187 0.023286913 -0.11064335
000200 7a d0 c0 bc dd fc 06 3d ee b2 4b bc e1 2b 31 3d
       -0.02353691 0.032955993 -0.012432797 0.043254737
000210 db a1 83 bd 83 ea 26 3d 8e dc 3d 3e f5 78 f7 bd
       -0.06427356 0.04075099 0.18541166 -0.120836176
000220 1c 13 25 bb b2 7d 04 3b 18 9e 85 3c 39 25 ec 3c
       -0.0025188392 0.0020216522 0.016310737 0.028826343
000230 17 b9 cd 3d 82 b9 28 bd c5 ef 95 3a bb 3c b0 bd
       0.10045069 -0.04119254 0.0011439255 -0.086053334
000240 09 ef 0a be ec a7 39 bd 9e 60 a2 3d 14 28 8c bc
       -0.13567747 -0.04532616 0.079285845 -0.017108954
000250 6d 53 26 3d 63 10 1c bd f2 a8 81 bd c2 82 80 bd
       0.040606905 -0.038101565 -0.06331052 -0.0627494
000260 2d d4 25 3c 4d da fa 3d 90 87 ab bd 57 f1 e8 bc
       0.010121387 0.12248669 -0.08375466 -0.028435392
000270 b5 7e 83 bc cc 52 cf bd 87 8d 38 3d 34 b5 ca 3d
       -0.01605163 -0.10123214 0.045056846 0.09897843
000280 fd 24 5f be 21 16 31 3c 97 fc 3a 3d c5 cf 4e 3d
       -0.21791454 0.010808499 0.045651045 0.050491113
000290 b4 a9 74 bd 33 34 02 be 64 2c a3 bb a2 51 3b 3e
       -0.059732154 -0.12715225 -0.004979657 0.18292859
0002a0 d0 90 38 bc ad f9 8a bd 77 3b b6 3d 1f 95 c0 bc
       -0.011264995 -0.06785903 0.08898061 -0.023508606
0002b0 a8 4d de bc ee 50 c4 bc d9 d8 86 bc 83 10 91 bd
       -0.027136639 -0.023964372 -0.016460823 -0.070832275
0002c0 bf 73 3a bc fb 28 67 3d a4 13 23 3d ae da 3d 3c
       -0.011380135 0.056435566 0.039813653 0.011587782
0002d0 2b 70 6c 3e 45 85 cd 3c 96 bf e1 3c 56 ed d5 3b
       0.23089664 0.025087962 0.027557176 0.006528537
0002e0 08 5a eb 3c d7 59 87 bd 00 96 cd bc 2e 00 e0 bc
       0.028729454 -0.066089325 -0.02509594 -0.027343836
0002f0 f3 50 87 b7 ec 8f b4 bd 7a 96 17 bc 4d b0 7e bd
       -1.6130949e-05 -0.088165134 -0.009252185 -0.062179852
000300 41 54 5f 3d 48 7d 7d 3d 26 6b 83 3d d6 c5 1c be
       0.05452371 0.061887056 0.06416921 -0.15309843
000310 31 f4 8d bd f3 85 e1 bc 4b 9c cb 3d 35 44 a1 bd
       -0.069313414 -0.027529692 0.0994192 -0.078743376
000320 b9 1a 2e bd a5 7f a9 bd 21 67 e1 bb ea aa b1 3d
       -0.042505953 -0.082762994 -0.006878749 0.086751774
000330 a3 26 95 3d 14 82 a9 3d a8 4e 0f bd 64 d6 2e be
       0.0728276 0.082767636 -0.03498712 -0.17073971
000340 a7 c9 aa 3d 52 6a a3 3b 64 99 19 3e 15 86 a7 3c
       0.083392434 0.0049870396 0.1499992 0.020449677
000350 ee e9 ab bd 0c 3e 6c bd 55 fa 40 be db a4 2e 3e
       -0.08394228 -0.05767636 -0.18845494 0.17055075
000360 a5 8b 07 bd e8 c3 b3 ba ef 2f 4a bd eb 76 b1 3d
       -0.03309216 -0.0013715001 -0.04936212 0.0866526
000370 dd 95 b1 bc db 66 57 be 3d e7 49 bd 20 14 37 be
       -0.021677906 -0.2103533 -0.04929279 -0.17878771
000380 bd be 45 bc f9 17 33 3d 97 70 fd 3d 38 0c 3a 3e
       -0.012069401 0.043724034 0.123749904 0.18168724
000390 6c 03 2e 3b 9d 26 07 3d c0 1f a5 bc b2 5c 40 bd
       0.0026552333 0.03299581 -0.020156741 -0.0469634
0003a0 33 91 c2 bd 6b 23 94 bc 92 4b 9e 3d 15 c1 4d bd
       -0.09500351 -0.018083295 0.07729258 -0.050232965
0003b0 4c 52 86 3d 03 7c b5 3c c2 e3 ed 3c 0e 18 a3 3d
       0.06558666 0.02215386 0.029039267 0.079635724
0003c0 d6 44 b8 3d fb ef d3 bd d1 46 0f 3e 62 a6 e4 3c
       0.089975044 -0.10348507 0.13991858 0.027911369
0003d0 61 ae 67 3d 64 01 50 bc 2e fe 56 3c c4 a5 ab 3d
       0.056562785 -0.012695644 0.013122125 0.08381227
0003e0 0f d9 a8 3d fa f0 53 bc 7d 28 52 3d 09 67 4d 3b
       0.08244526 -0.012935871 0.051308144 0.0031341931
0003f0 80 e3 b4 bd 40 8d e5 3d 7f 5c 0c 3e 0d f3 a1 bc
       -0.08832455 0.11208582 0.1370716 -0.019769216

network_body._body_endoder.seq_layers.0.bias f4 [128]
000000 00 00 00 00 00 00 00 00 00 00 00 00 00 00 00 00
       0.0 0.0 0.0 0.0
000010 00 00 00 00 00 00 00 00 00 00 00 00 00 00 00 00
       0.0 0.0 0.0 0.0
000020 00 00 00 00 00 00 00 00 00 00 00 00 00 00 00 00
       0.0 0.0 0.0 0.0
000030 00 00 00 00 00 00 00 00 00 00 00 00 00 00 00 00
       0.0 0.0 0.0 0.0
000040 00 00 00 00 00 00 00 00 00 00 00 00 00 00 00 00
       0.0 0.0 0.0 0.0
000050 00 00 00 00 00 00 00 00 00 00 00 00 00 00 00 00
       0.0 0.0 0.0 0.0
000060 00 00 00 00 00 00 00 00 00 00 00 00 00 00 00 00
       0.0 0.0 0.0 0.0
000070 00 00 00 00 00 00 00 00 00 00 00 00 00 00 00 00
       0.0 0.0 0.0 0.0
000080 00 00 00 00 00 00 00 00 00 00 00 00 00 00 00 00
       0.0 0.0 0.0 0.0
000090 00 00 00 00 00 00 00 00 00 00 00 00 00 00 00 00
       0.0 0.0 0.0 0.0
0000a0 00 00 00 00 00 00 00 00 00 00 00 00 00 00 00 00
       0.0 0.0 0.0 0.0
0000b0 00 00 00 00 00 00 00 00 00 00 00 00 00 00 00 00
       0.0 0.0 0.0 0.0
0000c0 00 00 00 00 00 00 00 00 00 00 00 00 00 00 00 00
       0.0 0.0 0.0 0.0
0000d0 00 00 00 00 00 00 00 00 00 00 00 00 00 00 00 00
       0.0 0.0 0.0 0.0
0000e0 00 00 00 00 00 00 00 00 00 00 00 00 00 00 00 00
       0.0 0.0 0.0 0.0
0000f0 00 00 00 00 00 00 00 00 00 00 00 00 00 00 00 00
       0.0 0.0 0.0 0.0
000100 00 00 00 00 00 00 00 00 00 00 00 00 00 00 00 00
       0.0 0.0 0.0 0.0
000110 00 00 00 00 00 00 00 00 00 00 00 00 00 00 00 00
       0.0 0.0 0.0 0.0
000120 00 00 00 00 00 00 00 00 00 00 00 00 00 00 00 00
       0.0 0.0 0.0 0.0
000130 00 00 00 00 00 00 00 00 00 00 00 00 00 00 00 00
       0.0 0.0 0.0 0.0
000140 00 00 00 00 00 00 00 00 00 00 00 00 00 00 00 00
       0.0 0.0 0.0 0.0
000150 00 00 00 00 00 00 00 00 00 00 00 00 00 00 00 00
       0.0 0.0 0.0 0.0
000160 00 00 00 00 00 00 00 00 00 00 00 00 00 00 00 00
       0.0 0.0 0.0 0.0
000170 00 00 00 00 00 00 00 00 00 00 00 00 00 00 00 00
       0.0 0.0 0.0 0.0
000180 00 00 00 00 00 00 00 00 00 00 00 00 00 00 00 00
       0.0 0.0 0.0 0.0
000190 00 00 00 00 00 00 00 00 00 00 00 00 00 00 00 00
       0.0 0.0 0.0 0.0
0001a0 00 00 00 00 00 00 00 00 00 00 00 00 00 00 00 00
       0.0 0.0 0.0 0.0
0001b0 00 00 00 00 00 00 00 00 00 00 00 00 00 00 00 00
       0.0 0.0 0.0 0.0
0001c0 00 00 00 00 00 00 00 00 00 00 00 00 00 00 00 00
       0.0 0.0 0.0 0.0
0001d0 00 00 00 00 00 00 00 00 00 00 00 00 00 00 00 00
       0.0 0.0 0.0 0.0
0001e0 00 00 00 00 00 00 00 00 00 00 00 00 00 00 00 00
       0.0 0.0 0.0 0.0
0001f0 00 00 00 00 00 00 00 00 00 00 00 00 00 00 00 00
       0.0 0.0 0.0 0.0

network_body._body_endoder.seq_layers.2.weight f4 [128, 128]
000000 fc bf 30 bd c2 a3 c0 3d 83 23 1b be 3e 15 c0 bd
       -0.04315184 0.09406234 -0.15150265 -0.093790516
000010 3f 03 9f bd 3f 13 ee ba 7e e5 43 3d 33 b0 d5 3d
       -0.07764291 -0.0018163695 0.047826283 0.10433998
000020 a4 8c 40 bd a5 5e ec 3d dd 56 89 ba 55 60 34 bd
       -0.047009125 0.115414895 -0.0010478158 -0.044037182
000030 33 a7 d4 3c 78 7f 6c 3d 6e 7b 08 bd 75 c9 dd bd
       0.025958633 0.05773875 -0.033320837 -0.108294405
000040 5c f1 99 bd c8 6c 93 3d 19 23 0c bd 77 1f fe bd
       -0.07516739 0.07198483 -0.03421316 -0.12408345
000050 3e 71 45 bd 4c a5 75 bd 14 79 16 3d f1 77 d7 3d
       -0.0482037 -0.059972093 0.036736563 0.10520924
000060 5f 2a 15 3e df a7 2f bc 93 37 01 bd 9f 2d 7d 3d
       0.14566945 -0.010721176 -0.03154714 0.061811086
000070 73 d0 e3 3c ef 9c 4c bb ea 6d 43 3e 83 5c 9a 3d
       0.027809357 -0.003122147 0.19084898 0.075371765
000080 1c 64 b7 3d 29 02 d2 bd 2d d2 04 be aa 74 69 bd
       0.08954641 -0.10254318 -0.129708 -0.056996025
000090 a2 e2 9a 3d 68 7c 80 bd 38 f3 62 3d 85 cf ac bc
       0.07562758 -0.062737286 0.055407733 -0.021095047
0000a0 34 af 91 bc 0b ed 90 3c a5 63 ef 3d 94 3a 36 3c
       -0.017783739 0.017691156 0.116889276 0.011122365
0000b0 be 59 20 bd 85 c4 4c bd cf 99 f7 3a 80 e1 e2 3d
       -0.039148085 -0.049992103 0.0018890443 0.11078167
0000c0 fd 0c fc bc c8 57 8d bc 49 5f 67 3d 64 4e 0d bc
       -0.030767912 -0.017253771 0.056487355 -0.008624647
0000d0 57 44 48 3d 8c 4c b0 bd 0f 4f f6 3b 69 7e 53 3d
       0.0488933 -0.0860835 0.0075167487 0.051634226
0000e0 19 84 fa bd 39 27 1e bb 48 0d 2c 3d 02 a9 27 be
       -0.12232227 -0.0024132265 0.042004853 -0.16373065
0000f0 5f c9 e7 bc ff 1a 05 3d 5a 7d d2 3d 79 2d 32 3c
       -0.028294263 0.03249645 0.10277815 0.010875099
000100 20 f3 0a 3d c6 e1 a6 bd b2 ce 3a 3d c2 9f b8 3b
       0.03392327 -0.081485316 0.045607276 0.005634279
000110 0a dc 88 3d 9f 07 3e bd 26 3c 04 bd 15 73 82 bd
       0.06682594 -0.046393987 -0.032283925 -0.063696064
000120 7e 63 93 bd 37 6e 9e 3d d9 7d a4 3d 79 bb 0f bd
       -0.07196711 0.077358656 0.08031816 -0.035090897
000130 aa 98 3b 3e e4 ef 14 bb de 2e 0c be f0 74 e3 bd
       0.18319955 -0.0022725994 -0.13689753 -0.111062884
000140 d5 53 ad 3d 5e 6d 56 3d 48 32 5b 3d 84 93 17 3d
       0.08463255 0.052350394 0.05351475 0.037005916
000150 9e 24 da bc 07 ec e3 3d 0c 85 dc 3d 24 73 54 3c
       -0.026628789 0.11129003 0.10767564 0.012966905
000160 41 a6 b4 3c 90 99 5a bd cd c2 57 bc 84 fb 0e bd
       0.022051932 -0.053369105 -0.013169003 -0.034907833
000170 21 3a 31 3e 71 1e e3 3c ee 6d b8 3c 4d ac 14 3e
       0.1730733 0.027724477 0.022513356 0.14518853
000180 4f ea a6 3d 08 9d 34 3d ec 5c 3f 3d 66 6c 39 bd
       0.081501596 0.04409507 0.046719477 -0.045269392
000190 56 8d bd bd 9a 2e 10 bc 84 4b 83 bc 73 6c 96 3b
       -0.09255473 -0.008800173 -0.01602722 0.004590565
0001a0 a4 0e 1d bc 13 bd b2 bc 11 87 eb bc 95 73 25 be
       -0.00958601 -0.021818673 -0.028750928 -0.16157372
0001b0 a6 94 2c 3e 27 f9 01 3e d5 9c 91 bd 09 fa 82 3a
       0.1685358 0.126927 -0.071099915 0.0009992729
0001c0 97 cd 12 3c eb 54 b0 3d 6c e1 37 3d f4 6a 24 be
       0.008960149 0.08609947 0.044892713 -0.16056424
0001d0 9e cd ec 3d 2f f7 28 bd 82 a8 66 3d c0 ad 30 3e
       0.11562656 -0.041251358 0.056313045 0.1725378
0001e0 a2 2e 58 3a 02 c4 01 be a9 ba cc bd 92 e7 40 3d
       0.0008246695 -0.12672427 -0.0999654 0.047095843
0001f0 f4 65 43 3b 08 97 15 3e 1f 62 99 bd eb fd bb bd
       0.0029815407 0.14608395 -0.07489418 -0.091792904
000200 e0 cf 13 be 48 29 c4 3d 7b ba ef 3d 72 cc d2 bd
       -0.14434767 0.09578186 0.1170549 -0.10292901
000210 e3 1f bb 3d be cf 37 bd 23 6c ff bd 28 4d b8 3d
       0.09136941 -0.044875853 -0.12471797 0.089990914
000220 b0 f4 d4 3d e3 91 92 bd 31 6b 0a be 9c 2b 00 3c
       0.10398233 -0.07156732 -0.13517453 0.007822897
000230 62 53 e4 bb d8 64 a7 3c e5 ab 2d 3e 7a 9a f9 3d
       -0.006967948 0.020433828 0.16960104 0.12187667
000240 38 20 3b 3d 19 8c 6d bd 3b 33 20 3d 2b 1e e2 3d
       0.045685023 -0.057994936 0.039111357 0.1104091
000250 89 49 53 bc 2e 47 8a 3d 21 9a ab 3c 14 6a bb bc
       -0.01289595 0.06751858 0.020947518 -0.02287773
000260 33 aa 38 bd 3e 12 b6 3d da 12 77 be 6c cf 3f be
       -0.04508419 0.08890198 -0.24128285 -0.18731469
000270 fe 72 e2 3c 5e a7 92 bd 40 0f f9 bd 69 a0 0c bd
       0.027642723 -0.07160829 -0.12161112 -0.034332667
000280 24 48 0e ba e8 07 2d 3e 2a 28 c6 3d 28 19 2f 3e
       -0.000542762 0.16897547 0.096756294 0.1709944
000290 8f 1a 8a bd 93 3c 08 3e bd 5c 53 bd f0 f7 01 be
       -0.06743347 0.13304357 -0.051602114 -0.12692237
0002a0 b2 e3 84 bc 8b cd ac 3d ef 68 95 3d df e4 36 bd
       -0.016221855 0.08437642 0.07295405 -0.044651862
0002b0 08 17 a1 39 d9 1e 19 3d cd 0f fc bd a0 ee 03 bd
       0.00030725473 0.037382934 -0.12307701 -0.032209992
0002c0 09 b2 a2 3d c6 45 a3 3d 5e 43 90 bd 6b 52 d6 3d
       0.07944114 0.079722926 -0.07044099 0.10464939
0002d0 8d ce 22 be 9a c6 22 3e 6c 64 1b bd 4d ac b8 bc
       -0.15899105 0.15896073 -0.037937567 -0.022543097
0002e0 e7 af ea 3d 57 c6 e4 3c ba fc 8d bd da af 83 3c
       0.11459332 0.027926607 -0.069329694 0.016075063
0002f0 36 97 95 bd 18 9a 2e 3d 43 52 b4 bd b1 18 1e 3d
       -0.07304232 0.042627424 -0.08804753 0.038597766
000300 59 c5 2b 3d 59 ab 4b bc b3 2f ce 3d 80 79 a6 bb
       0.041936252 -0.012430989 0.10067692 -0.005080402
000310 14 89 29 3d 7f e5 62 bd 6d f1 c0 3a 4a c0 ac bc
       0.041390494 -0.055394646 0.0014720388 -0.021087784
000320 68 c6 d9 3c 7b e7 11 3e 0c a9 82 3d d4 7f 34 bb
       0.026583865 0.14248459 0.063798994 -0.0027542012
000330 ed d7 f0 3d 62 e5 14 3e 9e 25 53 3c d0 ca 1a be
       0.117599346 0.14540628 0.012887387 -0.1511643
000340 4f 20 95 bd cc 14 dd 3c 5e 13 6a bd 59 d6 bc 3d
       -0.07281553 0.026987456 -0.057147376 0.09220571
000350 83 6e 18 be 0d ba 1e be 1e d9 7e 3d c2 ee 40 3d
       -0.14885907 -0.1550066 0.062218778 0.047102697
000360 bf 18 15 3e ab 75 7e bd b0 18 9b bd e9 7f 35 3d
       0.14560221 -0.062123936 -0.07573068 0.044311438
000370 58 a6 e5 bd a8 f2 e4 bc a8 95 f3 3b 4a 27 d4 3d
       -0.11213368 -0.027947739 0.007433612 0.10359056
000380 7f 89 76 bc 8f d8 b3 bc 14 af 9e bd cd 91 1c bc
       -0.01504743 -0.02195385 -0.07748237 -0.009556246
000390 dd 0b ce bc b1 c8 f7 bc 04 5b 40 bc 8f 8d d6 3d
       -0.025152141 -0.030247064 -0.01174045 0.10476219
0003a0 0f fd eb 3c 01 3f b3 3b 03 cb 3a bc 52 de 2a 3c
       0.028807191 0.005470157 -0.011400941 0.010428982
0003b0 1e 5d b8 bd ec 94 2f bd 06 10 14 3e 91 9b 58 3d
       -0.09002136 -0.042866632 0.14459237 0.052882735
0003c0 cc 7e fb 3d fb 71 c0 bd 4c a0 ef 3c e7 30 10 bd
       0.12280044 -0.0939674 0.02925124 -0.035202887
0003d0 d9 2c e6 3d a8 51 07 bc f1 88 b5 3c f6 17 c0 bc
       0.11239023 -0.008259214 0.022160025 -0.023448925
0003e0 fd 06 f4 bd f9 e6 00 bc bc 83 25 3e fb 93 6d 3d
       -0.119153954 -0.007867568 0.16163534 0.058002453
0003f0 2a 38 cc bd 71 c5 35 3d 6b 96 a3 bc fb 84 95 3d
       -0.0997165 0.044377748 -0.019969186 0.07300755

action_model._continuous_distribution.log_sigma f4 [1, 20]
000000 11 13 3d bd e3 c7 97 bd b9 5a eb bd e5 56 48 bd
       -0.04616076 -0.07411172 -0.11491913 -0.048910994
000010 db d4 62 bd 05 eb 4a bd 07 f9 6d bd 54 98 6e bc
       -0.055378776 -0.04954054 -0.05809882 -0.014562685
000020 10 7b e0 bd 76 c9 a8 be 5a 21 b5 bd eb 19 fb bb
       -0.10960972 -0.32966202 -0.08844252 -0.007663002
000030 5e 5c 01 bd 6b d5 3c bd f6 78 ec bc d1 e5 4e bd
       -0.03158223 -0.04610197 -0.028866272 -0.05051214
000040 0a a9 6f bd 38 74 7e 3c 78 de 1e bd 83 2e 9a bd
       -0.058510818 0.015530638 -0.03878638 -0.07528403

action_model._continuous_distribution.mu.weight f4 [20, 128]
000000 67 95 2f bc ef 9c 9e bc a7 16 ea bc 20 41 b3 bc
       -0.010716773 -0.019361941 -0.028575255 -0.02188164
000010 e0 9c 97 bb 2f 0e 05 bc 73 5b cb ba ab 97 cd 3c
       -0.0046268553 -0.008121057 -0.0015514925 0.025096735
000020 7f 44 fb 3a df 2a e0 3c 60 37 1b bd 6a 0c f3 ba
       0.0019170194 0.027364193 -0.037894607 -0.0018543128
000030 03 b8 0c bc 63 16 03 3d d9 d3 8e bc 2d dd f6 3c
       -0.008588794 0.03200377 -0.017435001 0.030134762
000040 79 1f 38 bc 21 9b b1 3c 13 74 6f bc 57 54 29 bb
       -0.011237972 0.021680417 -0.014615077 -0.0025837624
000050 9b fe 2f 3c db d0 ff 3b a3 97 8e 3c 58 b7 d7 ba
       0.010741855 0.00780688 0.01740629 -0.0016457839
000060 73 42 cd 3c 41 f4 34 3b 9a 13 3e 3c e3 dc 7d 3b
       0.0250561 0.0027611407 0.011601353 0.0038736395
000070 16 4e 05 bd 4e 45 13 3b 31 95 9f 3b 30 b2 3d bc
       -0.03254517 0.0022471729 0.00487008 -0.011578128
000080 57 35 dd 3b 68 0b 70 bc 61 62 b7 bc 04 4e 02 3b
       0.0067507434 -0.014651157 -0.022385778 0.0019882927
000090 cd 07 8f 3a 3d b3 14 bc 2b a4 d1 bc 73 e1 4c 3b
       0.0010912359 -0.009075937 -0.025590977 0.0031262308
0000a0 b7 e7 df 3b ed cc d0 3b 3e 36 8f 3a 70 66 d1 bc
       0.0068330425 0.0063720853 0.00109262 -0.025561541
0000b0 b2 ac e6 bb 25 84 5d 3b ea 37 18 3c 90 21 69 bc
       -0.00703963 0.0033800688 0.009290675 -0.014229193
0000c0 73 47 8c 3c 83 fa 53 3c c5 20 2f bc 47 42 4e 3b
       0.017123913 0.012938145 -0.010688965 0.003147261
0000d0 64 23 a8 3c 5f 11 a9 3c 0b e2 2e 3c 92 a4 7e 3c
       0.020524688 0.020638166 0.01067401 0.015542166
0000e0 db 08 ce bb 30 8f a7 3b 2e 89 11 bd 53 17 10 bd
       -0.0062876767 0.005113505 -0.035531215 -0.035178494
0000f0 17 4d 61 3c 8e a3 a4 3c 73 56 0a 3c 4b ae 37 bd
       0.01375129 0.02009752 0.008443463 -0.044843953
000100 1c 84 10 3d 79 9c 90 3c 53 35 32 3c 3f 23 13 bc
       0.03528224 0.017652737 0.010876971 -0.008980571
000110 46 9f ca 3b 9d a6 45 3c a9 b0 1c 3d 4c 28 12 3d
       0.0061835377 0.0120636495 0.038254414 0.03568296
000120 b5 33 d2 bb 77 89 3b bc 3a af ff 3b ff e0 e6 3b
       -0.0064148554 -0.011446348 0.007802871 0.0070458646
000130 bb d9 a9 bc a8 1a 59 3c 0d 6b 18 3a 30 3b 63 3b
       -0.020733705 0.013250984 0.00058142917 0.003467273
000140 90 60 48 bc 05 ab 48 3c 57 d2 33 3c ba b7 98 b9
       -0.012230054 0.0122478055 0.010975442 -0.00029128586
000150 37 22 98 3c 6f a9 aa bb d2 f1 e5 3b 21 b9 9a bb
       0.018571002 -0.0052081863 0.0070173526 -0.004721776
000160 35 be b4 3c 8a f8 16 bc 8d 2a f7 3c 93 e0 94 3b
       0.022063354 -0.00921453 0.030171657 0.004543373
000170 3e 47 96 3b 94 49 37 bc 3b f5 e0 bb 13 38 31 3c
       0.0045861294 -0.011186976 -0.0068651712 0.010816592
000180 4f b3 a7 3c 1f 6c 19 3d 61 51 24 39 4d 13 7c 3a
       0.020471243 0.037456628 0.00015670575 0.0009615913
000190 97 00 1e 3c b0 4a 1b bc 15 0b d3 3c 57 f5 3a 3d
       0.009643695 -0.009478256 0.02576212 0.04564413
0001a0 83 23 1b bc 93 75 35 3c 10 4a 66 bc 17 16 ab bc
       -0.009468916 0.011075395 -0.014055744 -0.020884557
0001b0 ab 16 bb bb de 53 88 3c 07 2a 41 3b 03 08 20 bb
       -0.0057094893 0.016641553 0.0029474513 -0.0024418838
0001c0 1b fb cc 3c 78 85 1e bd c5 3d 71 bc 89 fb ad 3b
       0.02502208 -0.038701504 -0.0147242 0.0053095263
0001d0 92 7d 88 bb a9 1c cb bb a1 6e 82 bc 25 ce ea bb
       -0.00416536 -0.006198485 -0.015921893 -0.0071656876
0001e0 7b 87 bc bc 62 e4 a1 bb 13 8c 90 3c 89 ea 30 bb
       -0.02301382 -0.0049405554 0.017644918 -0.0026995263
0001f0 d3 1d 01 bc 6e 0d 28 3c 02 ca ab b9 eb 16 9b 3c
       -0.007880646 0.010257108 -0.0003276617 0.018931827
000200 1e cf 8b 3c 75 33 63 3b 8f e1 a6 3c e3 23 60 bc
       0.017066535 0.0034668122 0.020371227 -0.013680431
000210 76 08 48 bc 2a b5 ea bc a8 30 a8 3c 87 23 ff 3c
       -0.0122090485 -0.028650839 0.020531014 0.03114487
000220 ca 66 d7 bb 28 e0 aa bc 01 04 9f bb 36 2b ca 3c
       -0.0065735327 -0.02085884 -0.004852772 0.024678808
000230 6f d4 bb bc c0 74 dd 3b 9c 7a 27 3c e3 01 d0 3c
       -0.022928445 0.0067583025 0.010222103 0.025391525
000240 73 6f ca 39 70 60 78 3b 83 e5 d4 bc 4b 16 af bc
       0.00038611479 0.0037899278 -0.025988346 -0.021372935
000250 b7 30 69 3c bf 3d 48 3c eb 32 83 3b 1f 8b e6 bb
       0.014232806 0.012221753 0.0040038726 -0.0070356275
000260 38 be 01 bd 53 b9 5b bc e3 3b 84 bc 4f 01 51 bc
       -0.031675547 -0.013410884 -0.016141837 -0.01275666
000270 2b 37 89 bc a5 9f 3e 3c b1 0e a3 bc 99 52 30 bb
       -0.016749939 0.011634742 -0.019904466 -0.00269047
000280 1b 01 70 bb 83 d2 c1 bc 58 d4 95 3b 37 e4 ed bc
       -0.0036621753 -0.02365995 0.0045724325 -0.029039485
000290 ef 02 38 bc 46 e3 21 bc a3 5b 5d bc 30 3b 00 bc
       -0.011231168 -0.009880846 -0.013510617 -0.007826611
0002a0 00 8b 0e bb 12 32 ae 3c 2a ce eb bc 37 85 c8 bb
       -0.002175033 0.02126411 -0.02878483 -0.006119396
0002b0 d4 ae 15 3b b1 ef b6 bc 02 be 31 3c 57 46 9c bc
       0.0022839801 -0.02233109 0.010848524 -0.01907651
0002c0 bb d2 58 3d ab 2f be bc ec 0e 0d 3c c0 27 57 3c
       0.052935343 -0.02321609 0.008609515 0.013132036
0002d0 ea 88 10 3c bb 41 41 3c ff 94 a9 3a 90 f7 84 bc
       0.008821705 0.0117954565 0.0012938081 -0.016231328
0002e0 43 66 91 bb 48 8a 30 3c 15 89 e9 3c cb 21 ed bb
       -0.0044372394 0.010775156 0.028507749 -0.0072366945
0002f0 ca 57 3e bc e9 36 a6 37 50 7f df 3c 5d 87 ce ba
       -0.01161761 1.9814312e-05 0.027282387 -0.0015756894
000300 b7 cd 9f 3c d7 99 f4 3c ac 77 37 3d f7 f3 5f 3c
       0.019507272 0.029858513 0.044791862 0.013669006
000310 e0 9c ab 3c fd 02 de 3b af 07 6e bb ef a4 18 bd
       0.020948827 0.0067752586 -0.0036320498 -0.037266668
000320 f9 ba 0f 3d 35 bd d9 3c ae 56 9b bc e2 dd 59 3c
       0.03509042 0.026579479 -0.01896223 0.01329753
000330 fb c2 10 bd 6d 9d f3 bb 3f 71 1f 3c 1d d6 f4 bc
       -0.035342198 -0.007434538 0.00973159 -0.029887253
000340 bd 7b 8f 3b 9a 67 54 3c 02 d0 22 b7 88 98 5d bc
       0.0043787644 0.012964154 -9.704383e-06 -0.013525136
000350 83 9a dc 3c 77 74 2e 3c ba 56 e3 b9 0d cd 93 bc
       0.026929146 0.010647885 -0.0004336143 -0.018042112
000360 72 62 e6 3b 70 9d 8b ba 56 ff 9c bb eb 55 bd 3c
       0.0070307786 -0.0010651778 -0.0047911806 0.023112258
000370 93 98 5d 3b 43 83 f1 ba 8b 98 32 3c 6b 11 50 bc
       0.0033812865 -0.001842596 0.010900627 -0.012699465
000380 35 22 99 bb 68 8e e4 bc 3b 8e d6 3c d7 b2 23 3b
       -0.0046732672 -0.027899936 0.026190868 0.0024978423
000390 02 24 fe bc cf 2a 0f 3c e5 93 b1 bc 33 7a 3b bc
       -0.03102303 0.008738234 -0.021676967 -0.011442709
0003a0 08 98 ca 3b e7 82 fa bc 26 ae 9e 3c 1f 6b 92 bc
       0.0061826743 -0.030579997 0.01937015 -0.017873345
0003b0 77 6d 16 bd 19 31 c7 3b ba 32 94 bc ce 5b 10 3d
       -0.036725488 0.006078851 -0.018090595 0.0352438
0003c0 85 de 9d bc 07 07 86 bd e7 f0 9e bc db 26 a7 3c
       -0.019271145 -0.06544309 -0.01940198 0.02040427
0003d0 08 0b ba bc e8 91 bc 3b a2 87 d2 3c e3 05 02 3c
       -0.022710338 0.005754698 0.02569944 0.007935974
0003e0 9a 1a 9a ba 84 43 aa bc e2 ba c3 bc 8e 8c 22 3d
       -0.0011757195 -0.020784147 -0.023892824 0.039684825
0003f0 0b 80 9e 3b 3e 46 aa bc 4b 8a dd bc 67 8a 3d 3d
       0.0048370413 -0.020785447 -0.027043482 0.04627457

action_model._continuous_distribution.mu.bias f4 [20]
000000 9d bd 3b bc ff c2 1a bb 2a 11 90 3c 6e d7 79 3b
       -0.011458782 -0.0023614762 0.01758631 0.003812279
000010 f5 04 ff bb 65 36 ab 3a 79 23 8b bc b0 99 e4 b9
       -0.0077825733 0.0013062475 -0.016984688 -0.00043602055
000020 90 71 12 3c c0 47 f4 ba 27 82 c1 bc 99 30 00 3b
       0.008938208 -0.0018637106 -0.023621632 0.0019560216
000030 a1 4c e4 3a 72 eb 5a bc 67 99 31 3c ea f4 76 bb
       0.0017417857 -0.013361799 0.010839797 -0.0037682601
000040 bd f2 47 3c 0a 8e 08 bc 59 42 bc bb de 65 de bb
       0.012203869 -0.008334646 -0.005745214 -0.006787046

onnx::Div_61 f4 [126]
000000 6f 34 46 3c 6f 34 46 3c 6f 34 46 3c 68 62 2c 3d
       0.012097462 0.012097462 0.012097462 0.042086035
000010 df a3 7e 3e 91 76 2a 3d 60 55 79 3d e3 26 a9 3e
       0.248672 0.04161698 0.060872436 0.3303748
000020 d2 17 70 3d 68 0a 3d 3e 2b 20 57 3d 73 2c 64 3e
       0.058616467 0.18461001 0.052520912 0.22282581
000030 94 69 e6 3d 51 a4 85 3d 55 c0 35 3f 4e 4b 4a 3d
       0.11250606 0.065254815 0.709966 0.049388222
000040 ec 95 cb 3e b4 98 7c 3d 62 45 07 3e 7e b6 58 3e
       0.3976282 0.061669067 0.13210061 0.21163365
000050 d7 47 4d 3d 63 73 4d 3e 13 4b 60 3d e2 dd b0 3e
       0.05011734 0.20063548 0.054759096 0.34544283
000060 4c 6f 9c 3d e7 9d 3f 3e 5c 0d fa 3d ef 4f 00 3e
       0.07638416 0.18712579 0.12209579 0.12530492
000070 e8 18 d6 3e cd 53 33 3d cc b4 3d 3f 5e ee f4 3d
       0.41815877 0.04378109 0.74104 0.119595274
000080 b6 f0 fa 3d 73 78 46 3e 17 aa b6 3d be dd b2 3e
       0.12252943 0.19381885 0.08919161 0.349348
000090 0a 85 75 3d fd 8f 4a 3e fe d7 07 3e b4 79 7d 3d
       0.05994133 0.1978149 0.13265988 0.061883643
0000a0 77 5f 61 3d 50 bb 5e 3e 35 33 3d 3f e9 26 5b 3d
       0.055022683 0.21751142 0.7390626 0.053503904
0000b0 bd d8 d4 3e 41 dd 61 3e e7 90 56 3d c3 d1 86 3d
       0.41571608 0.22057058 0.052384283 0.065829776
0000c0 a1 14 07 3e b2 1f 46 3e df e5 6d 3d 7c 20 b4 3e
       0.13191463 0.19348028 0.05808055 0.35181034
0000d0 47 f0 f1 3d 52 a8 ff 3d d6 6c ad 3d a0 2e 42 3e
       0.118134074 0.124832764 0.084680244 0.18963099
0000e0 19 c7 d6 3e 28 e9 42 3d d9 37 3f 3f a1 3d 40 3e
       0.41948774 0.047585636 0.7469459 0.1877351
0000f0 98 82 9f 3d 1a 4e 05 3e 6a b9 08 3e 32 ec 8f 3e
       0.07788581 0.13018075 0.1335198 0.2810989
000100 15 4e bb 3e b3 8f 8e 3e 85 45 c6 3e 68 b6 20 3f
       0.3658301 0.2784401 0.38724914 0.6277833
000110 05 a5 c9 3e 81 55 29 3f 06 94 2d 3f 06 c0 25 3f
       0.39383712 0.66146094 0.6780399 0.6474613
000120 e4 6c e3 3e 76 ae 18 3f a7 7e dd 3e 5e cc 3c 3f
       0.44419014 0.59641206 0.4326069 0.7374934
000130 71 8b 19 3f 7a 81 3b 3f 27 ea de 3e ed 4e 1c 3f
       0.59978396 0.7324444 0.4353802 0.6105793
000140 9b 01 e4 3e fb 4b 4f 3f ce a3 41 3f 03 4f 52 3f
       0.44532475 0.8097531 0.7564057 0.8215181
000150 b1 88 e4 3e 48 9b 21 3f 29 98 da 3e 2c d1 52 3f
       0.44635537 0.63127565 0.42694214 0.8235042
000160 d6 28 33 3f 17 92 4b 3f 68 62 2c 3d df a3 7e 3e
       0.69984186 0.7951979 0.042086035 0.248672
000170 91 76 2a 3d 60 55 79 3d f5 46 3c 3d a4 84 c5 3c
       0.04161698 0.060872436 0.045966107 0.0241111
000180 4f a7 0d 3d 0c 73 da 3c 26 74 91 3d 75 2e 50 3c
       0.034583386 0.026666187 0.07102232 0.012706389
000190 77 3e 47 3c 49 04 48 3d 6b d2 22 3d 2c ff fb 3c
       0.012160889 0.04883221 0.03975145 0.030761324
0001a0 e5 c6 4a 3d 22 36 d3 3c ba 15 68 3d 24 ac 41 3d
       0.049506087 0.025782648 0.056661345 0.047283307
0001b0 ef ae e6 3c d1 0f 0f 3d f4 38 37 3d dc 17 d8 3c
       0.028159587 0.034927193 0.04473205 0.026378565
0001c0 8f 2b 1e 3d c8 dd e3 3c 0f 7a 87 3d 1e 76 0d 3d
       0.03861576 0.027815714 0.06615078 0.034536473
0001d0 50 49 b8 3c ce 33 2d 3d 2d d2 50 3d 74 d5 e4 3c
       0.022495896 0.042285733 0.05098169 0.027933814
0001e0 cf 4f 21 3d 49 90 fa 3c b1 bc 87 3d c3 a6 3f 3d
       0.039382752 0.030586379 0.06627787 0.046789896
0001f0 8d 88 e9 3c c2 8b 25 3d
       0.028507495 0.040416487

onnx::Div_64 f4 [28]
000000 30 4d 46 3c 2d c2 5e 3c fb 26 8c 3c 97 21 49 3f
       0.012103364 0.0135961 0.017108431 0.7856688
000010 4e 07 0a 3f 87 d9 29 3f 7a e8 f8 3f 97 a5 4f 3c
       0.53917396 0.66347545 1.9445946 0.012673757
000020 45 13 8a 3d fa e8 f8 3f 2c 02 7c 3c 46 12 ab 3d
       0.067419566 1.9446099 0.015381377 0.08353095
000030 6f 34 46 3c dc 55 23 3e 42 93 97 3e 10 3b 22 3e
       0.012097462 0.15950722 0.29604536 0.15842843
000040 6f 34 46 3c f1 0b 23 3e 5e b0 62 3e eb 1d 2c 3e
       0.012097462 0.15922524 0.22137591 0.16808288
000050 6f 34 46 3c 5c ec 25 3e c2 2a a0 3e 2a 31 26 3e
       0.012097462 0.16203445 0.31282622 0.16229692
000060 6f 34 46 3c 59 95 21 3e 74 90 89 3e 52 ad 1e 3e
       0.012097462 0.15779628 0.2686802 0.15495804
