results/duoCW-V1/Crawler/Crawler-1192.pt (torch, 319274 bytes, 28 tensors)

network_body.observation_encoder.processors.0.normalizer.running_mean f4 [126]
0.0 1.7686542e-08 0.0 -0.031046506 0.08636385 -0.009858366 0.9793853 0.42000917
0.12518899 -0.61577463 -0.4184212 -0.26558942 -0.11398059 0.84161687 0.9081419 -0.04273278
-1.3231456 -0.81445414 -0.15762028 -0.24262226 0.46964887 -0.62470436 0.10009266 -0.4550376
-0.44000047 0.40604854 0.19325103 0.75437856 -1.3479927 -0.07157272 -0.96126264 -0.7543517
0.2569653 0.37009892 0.43540573 -0.44669142 0.14923972 0.63204294 -0.14751008 0.82813627
0.4387042 0.25432652 -0.9395169 -0.035779018 1.3444273 -0.25856563 0.4728179 0.8084681
0.1380971 0.645436 0.117694765 0.43700665 -0.25015584 -0.76483464 -0.41011462 0.38611972
1.3597834 -0.058424544 0.95034784 -0.40736386 -0.45927072 -0.73637545 0.20395438 0.028786836
-0.039475348 0.03663853 0.07722921 -0.07605664 -0.049693067 -0.013074651 -0.06221375 0.057227947
-0.013685191 -0.049137108 0.0072297473 0.14370568 0.023868967 0.11763194 0.028152695 -0.052733425
0.04458923 0.11511133 0.03957998 -0.07643125 0.051402673 -0.055853024 0.040903255 -0.09312622
0.043302283 -0.08218377 -0.031046506 0.08636385 -0.009858366 0.9793853 -0.3823266 -0.34410545
-0.15220617 0.8406536 -0.55117744 0.00049462833 -0.00025520712 0.82891095 -0.4411709 0.3322299
0.17721769 0.8107312 -0.49650943 0.0020500012 0.0018170002 0.8629516 -0.18871953 0.79884905
0.45881313 0.3311289 -0.52541035 -2.4732508e-05 0.00022630994 0.84537375 -0.1956794 -0.796536
-0.45615175 0.33409998 -0.49890745 -0.004532009 -0.003526287 0.86059433
00000000: 0000 0000 1eed 9732 0000 0000 3e55 febc
00000010: 88df b03d fc84 21bc ffb8 7a3f 710b d73e
00000020: 8b31 003e 68a3 1dbf 4e3b d6be 56fb 87be
00000030: a86e e9bd 3474 573f fd7b 683f 9108 2fbd
00000040: d65c a9bf 1180 50bf 3667 21be f871 78be
00000050: d175 f03e a0ec 1fbf 61fd cc3d b0fa e8be
00000060: be47 e1be 98e5 cf3e 99e3 453e f41e 413f
00000070: 068b acbf b894 92bd 4f15 76bf 311d 41bf
00000080: f590 833e 9b7d bd3e 80ed de3e bdb4 e4be
00000090: 4cd2 183e 91cd 213f e20c 17be bd00 543f
000000a0: d69d e03e 1637 823e 2e84 70bf 058d 12bd
000000b0: 3216 ac3f b762 84be 3015 f23e c4f7 4e3f
000000c0: 5469 0d3e 4b3b 253f f409 f13d 56bf df3e
000000d0: 6d14 80be 34cc 43bf 8bfa d1be 7cb1 c53e
000000e0: 620d ae3f 934e 6fbd ff49 733f ff91 d0be
000000f0: 8825 ebbe 1a83 3cbf 6bd9 503e 5fd2 eb3c
00000100: e7b0 21bd 4912 163d 592a 9e3d 95c3 9bbd
00000110: f58a 4bbd 1037 56bc d8d3 7ebd da67 6a3d
00000120: da37 60bc fe43 49bd 84e7 ec3b 9527 133e
00000130: da88 c33c 04e9 f03d 7ba0 e63c 01ff 57bd
00000140: 32a3 363d 7dbf eb3d 9e1e 223d fd87 9cbd
00000150: 9c8b 523d 24c6 64bd 2c8a 273d f6b8 bebd
00000160: bc5d 313d f74f a8bd 3e55 febc 88df b03d
00000170: fc84 21bc ffb8 7a3f 50c0 c3be 972e b0be
00000180: efdb 1bbe 1335 573f f719 0dbf f2a9 013a
00000190: 52cd 85b9 8233 543f 27e1 e1be 0a1a aa3e
000001a0: 8e78 353e 148c 4f3f 7c36 febe 5059 063b
000001b0: 6928 ee3a 65ea 5c3f b13f 41be 5f81 4c3f
000001c0: 8ee9 ea3e ba89 a93e 4b81 06bf a878 cfb7
000001d0: 9d4d 6d39 6a6a 583f 2e60 48be c9e9 4bbf
000001e0: b98c e9be 270f ab3e cc70 ffbe 3f81 94bb
000001f0: 4719 67bb e94f 5c3f

network_body.observation_encoder.processors.0.normalizer.running_variance f4 [126]
1.0 1.0 1.0 3.019295 32.7745 2.6585321 3.0634105 58.78483
4.9704 20.943012 3.846023 25.91542 8.546957 4.1507754 267.559 3.6553028
96.93569 3.7639542 10.541244 23.83312 3.4966915 24.454182 4.439868 65.526276
5.149656 20.853031 10.183214 8.6779 102.46272 3.0418148 297.7216 8.043487
11.456729 22.98975 6.2868147 66.08941 5.104564 24.812462 11.7880535 3.9333928
4.03788 25.339088 290.57803 4.204674 103.76464 27.326214 3.4533136 4.433792
11.803306 23.583124 4.861115 66.97183 10.643105 8.318956 6.0665536 19.926487
105.79752 3.7180126 295.138 21.613304 5.021587 9.711726 13.513192 85.120766
246.24004 95.42009 193.67693 557.44543 165.93565 467.67114 615.7811 564.49115
194.59207 480.31476 261.46753 497.57706 370.5954 594.92053 263.91248 531.64954
232.29991 909.4719 834.0165 821.6596 202.32443 512.5305 273.49557 753.91364
625.3491 825.209 3.019295 32.7745 2.6585321 3.0634105 3.4535177 1.6004806
2.2630901 2.307456 7.6834497 1.0189254 1.0019644 4.163737 2.764335 1.9011167
3.6399586 2.2111108 5.139928 3.5758603 1.7863133 2.9792628 3.3001924 2.2008808
2.857191 1.8827082 6.774647 2.2726536 1.4625051 3.5696979 4.3879457 2.4037552
3.03025 2.1766503 6.611204 3.5893044 1.8456644 3.4038327
00000000: 0000 803f 0000 803f 0000 803f 213c 4140
00000010: 1719 0342 6425 2a40 eb0e 4440 aa23 6b42
00000020: 840d 9f40 4a8b a741 3e25 7640 c852 cf41
00000030: 56c0 0841 27d3 8440 8dc7 8543 7bf0 6940
00000040: 13df c142 a0e4 7040 efa8 2841 3baa be41
00000050: cbc9 5f40 2aa2 c341 6613 8e40 740d 8342
00000060: fbc9 a440 02d3 a641 72ee 2241 aed8 0a41
00000070: eaec cc42 18ad 4240 5ddc 9443 1fb2 0041
00000080: c34e 3741 02eb b741 962d c940 c72d 8442
00000090: 9758 a340 ec7f c641 de9b 3c41 b5bc 7b40
000000a0: 5036 8140 74b6 ca41 fd49 9143 b08c 8640
000000b0: 7f87 cf42 169c da41 1703 5d40 a0e1 8d40
000000c0: 57da 3c41 3daa bc41 418e 9b40 94f1 8542
000000d0: 284a 2a41 721a 0541 3521 c240 7269 9f41
000000e0: 5598 d342 ebf3 6d40 aa91 9343 0ce8 ac41
000000f0: d7b0 a040 3b63 1b41 0936 5841 d53d aa42
00000100: 733d 7643 16d7 be42 4bad 4143 825c 0b44
00000110: 87ef 2543 e8d5 e943 fef1 1944 6f1f 0d44
00000120: 9297 4243 4a28 f043 d8bb 8243 ddc9 f843
00000130: 364c b943 eaba 1444 ccf4 8343 92e9 0444
00000140: c74c 6843 345e 6344 0e81 5044 376a 4d44
00000150: 0e53 4a43 f421 0044 6fbf 8843 797a 3c44
00000160: 5856 1c44 604d 4e44 213c 4140 1719 0342
00000170: 6425 2a40 eb0e 4440 6f06 5d40 8cdc cc3f
00000180: 78d6 1040 5cad 1340 d2de f540 266c 823f
00000190: 5f40 803f 553d 8540 ddea 3040 cb57 f33f
000001a0: 15f5 6840 d782 0d40 4a7a a440 e5da 6440
000001b0: eaa5 e43f 3eac 3e40 5a36 5340 3bdb 0c40
000001c0: 38dc 3640 95fc f03f e9c9 d840 2873 1140
000001d0: 5e33 bb3f ee75 6440 0d6a 8c40 20d7 1940
000001e0: 9eef 4140 3d4e 0b40 fc8e d340 2ab7 6540
000001f0: bb3e ec3f 65d8 5940

network_body.observation_encoder.processors.1.normalizer.running_mean f4 [28]
-5.072434e-05 -0.012793001 0.9990543 -0.022905027 -0.0018473766 -0.115365036 9.685514 -0.0004395995
-0.1181244 9.684507 0.051105563 0.9891031 0.0 0.51328605 0.909472 0.5054001
0.0 0.49009177 0.95892704 0.4919978 0.0 0.49508673 0.88851637 0.51767606
0.0 0.4863715 0.9270745 0.50982326
00000000: d8c0 54b8 bc99 51bc 06c2 7f3f 53a3 bbbc
00000010: ac23 f2ba 8144 ecbd def7 1a41 0c7a e6b9
00000020: 35eb f1bd bef3 1a41 1154 513d dc35 7d3f
00000030: 0000 0000 b766 033f 28d3 683f e761 013f
00000040: 0000 0000 4fed fa3e 3e7c 753f 23e7 fb3e
00000050: 0000 0000 027c fd3e cf75 633f 6b86 043f
00000060: 0000 0000 af05 f93e c154 6d3f c783 023f

network_body.observation_encoder.processors.1.normalizer.running_variance f4 [28]
1.0001905 1.0610385 1.9990175 1002.39087 352.95087 360.9228 6325.312 1.0152342
8.664966 6324.2754 1.181575 13.858337 1.0 31.953678 99.22297 28.583477
1.0 33.322666 47.987427 35.557926 1.0 33.542397 119.17266 32.953304
1.0 32.459637 81.65548 29.191648
00000000: 3e06 803f 1cd0 873f cedf ff3f 0499 7a44
00000010: b679 b043 1e76 b443 7faa c545 32f3 813f
00000020: b3a3 0a41 34a2 c545 d93d 973f c0bb 5d41
00000030: 0000 803f 22a1 ff41 2972 c642 f6aa e441
00000040: 0000 803f 694a 0542 20f3 3f42 513b 0e42
00000050: 0000 803f 6a2b 0642 6758 ee42 2fd0 0342
00000060: 0000 803f abd6 0142 9b4f a342 7f88 e941

network_body.processors.0.normalizer.running_mean f4 [126]
0.0 1.7686542e-08 0.0 -0.031046506 0.08636385 -0.009858366 0.9793853 0.42000917
0.12518899 -0.61577463 -0.4184212 -0.26558942 -0.11398059 0.84161687 0.9081419 -0.04273278
-1.3231456 -0.81445414 -0.15762028 -0.24262226 0.46964887 -0.62470436 0.10009266 -0.4550376
-0.44000047 0.40604854 0.19325103 0.75437856 -1.3479927 -0.07157272 -0.96126264 -0.7543517
0.2569653 0.37009892 0.43540573 -0.44669142 0.14923972 0.63204294 -0.14751008 0.82813627
0.4387042 0.25432652 -0.9395169 -0.035779018 1.3444273 -0.25856563 0.4728179 0.8084681
0.1380971 0.645436 0.117694765 0.43700665 -0.25015584 -0.76483464 -0.41011462 0.38611972
1.3597834 -0.058424544 0.95034784 -0.40736386 -0.45927072 -0.73637545 0.20395438 0.028786836
-0.039475348 0.03663853 0.07722921 -0.07605664 -0.049693067 -0.013074651 -0.06221375 0.057227947
-0.013685191 -0.049137108 0.0072297473 0.14370568 0.023868967 0.11763194 0.028152695 -0.052733425
0.04458923 0.11511133 0.03957998 -0.07643125 0.051402673 -0.055853024 0.040903255 -0.09312622
0.043302283 -0.08218377 -0.031046506 0.08636385 -0.009858366 0.9793853 -0.3823266 -0.34410545
-0.15220617 0.8406536 -0.55117744 0.00049462833 -0.00025520712 0.82891095 -0.4411709 0.3322299
0.17721769 0.8107312 -0.49650943 0.0020500012 0.0018170002 0.8629516 -0.18871953 0.79884905
0.45881313 0.3311289 -0.52541035 -2.4732508e-05 0.00022630994 0.84537375 -0.1956794 -0.796536
-0.45615175 0.33409998 -0.49890745 -0.004532009 -0.003526287 0.86059433
00000000: 0000 0000 1eed 9732 0000 0000 3e55 febc
00000010: 88df b03d fc84 21bc ffb8 7a3f 710b d73e
00000020: 8b31 003e 68a3 1dbf 4e3b d6be 56fb 87be
00000030: a86e e9bd 3474 573f fd7b 683f 9108 2fbd
00000040: d65c a9bf 1180 50bf 3667 21be f871 78be
00000050: d175 f03e a0ec 1fbf 61fd cc3d b0fa e8be
00000060: be47 e1be 98e5 cf3e 99e3 453e f41e 413f
00000070: 068b acbf b894 92bd 4f15 76bf 311d 41bf
00000080: f590 833e 9b7d bd3e 80ed de3e bdb4 e4be
00000090: 4cd2 183e 91cd 213f e20c 17be bd00 543f
000000a0: d69d e03e 1637 823e 2e84 70bf 058d 12bd
000000b0: 3216 ac3f b762 84be 3015 f23e c4f7 4e3f
000000c0: 5469 0d3e 4b3b 253f f409 f13d 56bf df3e
000000d0: 6d14 80be 34cc 43bf 8bfa d1be 7cb1 c53e
000000e0: 620d ae3f 934e 6fbd ff49 733f ff91 d0be
000000f0: 8825 ebbe 1a83 3cbf 6bd9 503e 5fd2 eb3c
00000100: e7b0 21bd 4912 163d 592a 9e3d 95c3 9bbd
00000110: f58a 4bbd 1037 56bc d8d3 7ebd da67 6a3d
00000120: da37 60bc fe43 49bd 84e7 ec3b 9527 133e
00000130: da88 c33c 04e9 f03d 7ba0 e63c 01ff 57bd
00000140: 32a3 363d 7dbf eb3d 9e1e 223d fd87 9cbd
00000150: 9c8b 523d 24c6 64bd 2c8a 273d f6b8 bebd
00000160: bc5d 313d f74f a8bd 3e55 febc 88df b03d
00000170: fc84 21bc ffb8 7a3f 50c0 c3be 972e b0be
00000180: efdb 1bbe 1335 573f f719 0dbf f2a9 013a
00000190: 52cd 85b9 8233 543f 27e1 e1be 0a1a aa3e
000001a0: 8e78 353e 148c 4f3f 7c36 febe 5059 063b
000001b0: 6928 ee3a 65ea 5c3f b13f 41be 5f81 4c3f
000001c0: 8ee9 ea3e ba89 a93e 4b81 06bf a878 cfb7
000001d0: 9d4d 6d39 6a6a 583f 2e60 48be c9e9 4bbf
000001e0: b98c e9be 270f ab3e cc70 ffbe 3f81 94bb
000001f0: 4719 67bb e94f 5c3f

network_body.processors.0.normalizer.running_variance f4 [126]
1.0 1.0 1.0 3.019295 32.7745 2.6585321 3.0634105 58.78483
4.9704 20.943012 3.846023 25.91542 8.546957 4.1507754 267.559 3.6553028
96.93569 3.7639542 10.541244 23.83312 3.4966915 24.454182 4.439868 65.526276
5.149656 20.853031 10.183214 8.6779 102.46272 3.0418148 297.7216 8.043487
11.456729 22.98975 6.2868147 66.08941 5.104564 24.812462 11.7880535 3.9333928
4.03788 25.339088 290.57803 4.204674 103.76464 27.326214 3.4533136 4.433792
11.803306 23.583124 4.861115 66.97183 10.643105 8.318956 6.0665536 19.926487
105.79752 3.7180126 295.138 21.613304 5.021587 9.711726 13.513192 85.120766
246.24004 95.42009 193.67693 557.44543 165.93565 467.67114 615.7811 564.49115
194.59207 480.31476 261.46753 497.57706 370.5954 594.92053 263.91248 531.64954
232.29991 909.4719 834.0165 821.6596 202.32443 512.5305 273.49557 753.91364
625.3491 825.209 3.019295 32.7745 2.6585321 3.0634105 3.4535177 1.6004806
2.2630901 2.307456 7.6834497 1.0189254 1.0019644 4.163737 2.764335 1.9011167
3.6399586 2.2111108 5.139928 3.5758603 1.7863133 2.9792628 3.3001924 2.2008808
2.857191 1.8827082 6.774647 2.2726536 1.4625051 3.5696979 4.3879457 2.4037552
3.03025 2.1766503 6.611204 3.5893044 1.8456644 3.4038327
00000000: 0000 803f 0000 803f 0000 803f 213c 4140
00000010: 1719 0342 6425 2a40 eb0e 4440 aa23 6b42
00000020: 840d 9f40 4a8b a741 3e25 7640 c852 cf41
00000030: 56c0 0841 27d3 8440 8dc7 8543 7bf0 6940
00000040: 13df c142 a0e4 7040 efa8 2841 3baa be41
00000050: cbc9 5f40 2aa2 c341 6613 8e40 740d 8342
00000060: fbc9 a440 02d3 a641 72ee 2241 aed8 0a41
00000070: eaec cc42 18ad 4240 5ddc 9443 1fb2 0041
00000080: c34e 3741 02eb b741 962d c940 c72d 8442
00000090: 9758 a340 ec7f c641 de9b 3c41 b5bc 7b40
000000a0: 5036 8140 74b6 ca41 fd49 9143 b08c 8640
000000b0: 7f87 cf42 169c da41 1703 5d40 a0e1 8d40
000000c0: 57da 3c41 3daa bc41 418e 9b40 94f1 8542
000000d0: 284a 2a41 721a 0541 3521 c240 7269 9f41
000000e0: 5598 d342 ebf3 6d40 aa91 9343 0ce8 ac41
000000f0: d7b0 a040 3b63 1b41 0936 5841 d53d aa42
00000100: 733d 7643 16d7 be42 4bad 4143 825c 0b44
00000110: 87ef 2543 e8d5 e943 fef1 1944 6f1f 0d44
00000120: 9297 4243 4a28 f043 d8bb 8243 ddc9 f843
00000130: 364c b943 eaba 1444 ccf4 8343 92e9 0444
00000140: c74c 6843 345e 6344 0e81 5044 376a 4d44
00000150: 0e53 4a43 f421 0044 6fbf 8843 797a 3c44
00000160: 5856 1c44 604d 4e44 213c 4140 1719 0342
00000170: 6425 2a40 eb0e 4440 6f06 5d40 8cdc cc3f
00000180: 78d6 1040 5cad 1340 d2de f540 266c 823f
00000190: 5f40 803f 553d 8540 ddea 3040 cb57 f33f
000001a0: 15f5 6840 d782 0d40 4a7a a440 e5da 6440
000001b0: eaa5 e43f 3eac 3e40 5a36 5340 3bdb 0c40
000001c0: 38dc 3640 95fc f03f e9c9 d840 2873 1140
000001d0: 5e33 bb3f ee75 6440 0d6a 8c40 20d7 1940
000001e0: 9eef 4140 3d4e 0b40 fc8e d340 2ab7 6540
000001f0: bb3e ec3f 65d8 5940

network_body.processors.1.normalizer.running_mean f4 [28]
-5.072434e-05 -0.012793001 0.9990543 -0.022905027 -0.0018473766 -0.115365036 9.685514 -0.0004395995
-0.1181244 9.684507 0.051105563 0.9891031 0.0 0.51328605 0.909472 0.5054001
0.0 0.49009177 0.95892704 0.4919978 0.0 0.49508673 0.88851637 0.51767606
0.0 0.4863715 0.9270745 0.50982326
00000000: d8c0 54b8 bc99 51bc 06c2 7f3f 53a3 bbbc
00000010: ac23 f2ba 8144 ecbd def7 1a41 0c7a e6b9
00000020: 35eb f1bd bef3 1a41 1154 513d dc35 7d3f
00000030: 0000 0000 b766 033f 28d3 683f e761 013f
00000040: 0000 0000 4fed fa3e 3e7c 753f 23e7 fb3e
00000050: 0000 0000 027c fd3e cf75 633f 6b86 043f
00000060: 0000 0000 af05 f93e c154 6d3f c783 023f

network_body.processors.1.normalizer.running_variance f4 [28]
1.0001905 1.0610385 1.9990175 1002.39087 352.95087 360.9228 6325.312 1.0152342
8.664966 6324.2754 1.181575 13.858337 1.0 31.953678 99.22297 28.583477
1.0 33.322666 47.987427 35.557926 1.0 33.542397 119.17266 32.953304
1.0 32.459637 81.65548 29.191648
00000000: 3e06 803f 1cd0 873f cedf ff3f 0499 7a44
00000010: b679 b043 1e76 b443 7faa c545 32f3 813f
00000020: b3a3 0a41 34a2 c545 d93d 973f c0bb 5d41
00000030: 0000 803f 22a1 ff41 2972 c642 f6aa e441
00000040: 0000 803f 694a 0542 20f3 3f42 513b 0e42
00000050: 0000 803f 6a2b 0642 6758 ee42 2fd0 0342
00000060: 0000 803f abd6 0142 9b4f a342 7f88 e941

network_body._body_endoder.seq_layers.0.weight f4 [128, 154]
-0.0716364 0.015025909 -0.07522886 -0.06492403 0.0009458087 -0.077694885 -0.058581203 0.049423914
0.15638891 0.033089567 -0.049191386 -0.055157002 -0.11211939 0.11684961 0.010046447 -0.074194245
0.20291254 0.027900161 0.0065433574 -0.10831781 0.0033430774 0.06608797 0.007964065 0.009178528
0.12569325 -0.1095529 -0.022866558 -0.020079484 -0.059616942 -0.006324623 -0.04372214 0.081774674
-0.024624636 -0.041566636 -0.07746166 0.08068862 -0.0788279 0.22685549 0.03526838 0.19396992
-0.112904966 0.06878974 -0.05365484 0.013129826 -0.0030554521 0.04354379 0.12085338 -0.085934944
0.04481069 0.0348769 -0.12178127 0.032663733 -0.03216868 0.053862005 0.08820522 -0.14069453
0.014873467 0.009600645 0.1457222 0.12588157 -0.13121389 -0.046148475 -0.0017111079 -0.047869865
-0.14776604 -0.009692433 0.030051632 0.023886926 0.07095336 -0.08055127 0.024984721 -0.17516308
-0.017651219 0.012864489 -0.0021785724 -0.2647777 0.111021 0.018891545 -0.028075103 -0.10401888
0.05434878 0.06422168 0.012303479 -0.025678225 -0.11247726 -0.05062564 0.12362076 0.048592743
0.05631652 -0.1567461 -0.15145312 -0.04901425 0.035366807 -0.066174105 -0.10809651 -0.03377692
0.06920309 0.010859021 -0.023252415 -0.048440136 0.10425786 -0.06934119 -0.04348562 -0.15732746
0.025589505 0.075847775 -0.2181768 0.0053422917 0.003402442 -0.027544193 -0.019260399 0.0057727643
0.0495072 0.0009512516 0.079624616 -0.06010256 -0.02333782 -0.099515855 -0.044338074 -0.27198842
-0.06513557 0.17774947 -0.09258714 0.01905322 0.0029198776 0.002377367 -0.016156629 0.07211849
0.03344551 -0.08724214 -0.06940867 -0.15635763 -0.013472569 0.1320588 -0.21236235 0.048295572
0.11205654 0.030018799 0.21004955 0.020212753 -0.041754074 -0.1496358 0.0685597 -0.013556101
-0.022088656 0.108017705 -0.0007370158 0.041546818 -0.08020169 -0.12371257 -0.07001168 -0.033299245
0.031168204 0.030644776 0.043426048 -0.036247917 -0.01199998 -0.19318329 0.022870718 -0.19109285
-0.008666674 0.062222384 -0.015189952 0.04778593 0.049989946 0.056456488 -0.08648009 0.03599963
-0.11809358 0.00721495 -0.08644743 0.049863923 -0.10347531 -0.14263226 -0.17180276 0.0050534
-0.069510736 -0.11471083 0.048746888 0.12554948 0.0107513685 0.06382609 -0.19656207 0.024005504
-0.014667187 0.11401371 -0.1830464 -0.0435547 0.0038434337 0.11359501 -0.020594638 -0.003135308
0.00718863 0.1099879 0.06116806 0.051743694 -0.043942578 -0.06456763 0.09987757 -0.021933043
0.10208307 -0.13072549 -0.12469335 0.091427274 -0.13831496 0.03061733 0.015058956 -0.034063302
-0.06727959 -0.06766895 0.07812851 -0.116659015 -0.11788696 0.0060246307 -0.016303813 0.06188223
-0.032778837 -0.13670118 -0.05034487 0.11959863 0.03974231 0.06976186 0.07040834 -0.016900482
-0.0020642765 -0.08818584 -0.0016760728 0.14108667 -0.05581823 -0.08849701 0.08597899 0.05337147
-0.04232048 -0.0026838577 0.07612573 -0.070634775 -0.0751274 0.104819305 0.06074519 0.09959597
0.0041620955 0.0018650623 0.003933702 -0.01764955 -0.035099547 -0.09135766 -0.050626423 0.0011977156
-0.0122858 -0.042955156 0.050332915 -0.02841651 0.054913294 0.020932565 0.051014744 -0.10537165
00000000: 1bb6 92bd 3b2f 763c 9711 9abd e4f6 84bd
00000010: 26f0 773a 7f1e 9fbd d8f2 6fbd bb70 4a3d
00000020: 6a24 203e ed88 073d e87c 49bd 4fec 61bd
00000030: da9e e5bd d94e ef3d da99 243c 27f3 97bd
00000040: 4ec8 4f3e e18e e43c a969 d63b bad5 ddbd
00000050: 8817 5b3b 2159 873d b67b 023c 8961 163c
00000060: bbb5 003e 455d e0bd a652 bbbc bb7d a4bc
00000070: e530 74bd c83e cfbb fd15 33bd 7b79 a73d
00000080: 9bb9 c9bc c741 2abd 38a4 9ebd 1340 a53d
00000090: 8670 a1bd ce4c 683e 9475 103d 0da0 463e
000000a0: b83a e7bd a3e1 8c3d 2dc5 5bbd 7b1e 573c
000000b0: fb3d 48bb f95a 323d fa81 f73d a9fe afbd
000000c0: 6a8b 373d 15db 0e3d 7568 f9bd 68ca 053d
000000d0: 4ec3 03bd 689e 5c3d f0a4 b43d 3a12 10be
000000e0: d8af 733c 064c 1d3c 3338 153e 19e7 003e
000000f0: ef5c 06be 2f06 3dbd 4147 e0ba 3113 44bd
00000100: fb4f 17be 03cd 1ebc d72e f63c 84ae c33c
00000110: ff4f 913d 10f8 a4bd c2ac cc3c f35d 33be
00000120: 4a99 90bc 94c5 523c 61c6 0ebb f190 87be
00000130: fa5e e33d 71c2 9a3c c2fd e5bc da07 d5bd
00000140: d49c 5e3d a886 833d 8894 493c 245b d2bc
00000150: 7a5a e6bd d55c 4fbd e22c fd3d 2f09 473d
00000160: 27ac 663d 0d82 20be 8716 1bbe 2bc3 48bd
00000170: c9dc 103d 4a86 87bd b461 ddbd ab59 0abd
00000180: 5aba 8d3d 09ea 313c d97b bebc 2a69 46bd
00000190: 2585 d53d c102 8ebd fa1d 32bd 731a 21be
000001a0: 15a1 d13c 1456 9b3d bd69 5fbe 640e af3b
000001b0: 81fb 5e3b 5ca4 e1bc fcc7 9dbc 7529 bd3b
000001c0: 10c8 4a3d 6a5d 793a 3b12 a33d 1a2e 76bd
000001d0: f52e bfbc f8ce cbbd d79b 35bd 1142 8bbe
000001e0: cc65 85bd f503 363e 549e bdbd 8015 9c3c
000001f0: 6b5b 3f3b 9acd 1b3b e85a 84bc dcb2 933d
00000200: 29fe 083d 02ac b2bd 2226 8ebd 371c 20be
00000210: 0dbc 5cbc 6c3a 073e 8475 59be 94d1 453d
00000220: e67d e53d fce9 f53c 3b17 573e 3795 a53c
00000230: 5206 2bbd 213a 19be 0769 8c3d 691a 5ebc
00000240: 45f3 b4bc 6338 dd3d 4b34 41ba ff2c 2a3d
00000250: c940 a4bd 045d fdbd 4962 8fbd ca64 08bd
00000260: 7654 ff3c c10a fb3c 83df 313d b278 14bd
00000270: 909b 44bc d7d1 45be 5f5b bb3c d8ad 43be
00000280: aafe 0dbc e6dc 7e3d 47df 78bc 2ebb 433d
00000290: 42c2 4c3d eb3e 673d 791c b1bd 5974 133d
000002a0: 0cdb f1bd 636b ec3b 5a0b b1bd 1d3e 4c3d
000002b0: ddea d3bd 310e 12be 10ed 2fbe fe96 a53b
000002c0: a55b 8ebd 83ed eabd d1aa 473d 0b90 003e
000002d0: 8226 303c 41b7 823d 9147 49be 31a7 c43c
000002e0: a44e 70bc 0580 e93d 8470 3bbe 6a66 32bd
000002f0: 1ee2 7b3b 80a4 e83d 16b6 a8bc bd79 4dbb
00000300: 998e eb3b 5641 e13d 5c8b 7a3d 32f1 533d
00000310: 22fd 33bd 093c 84bd 9d8c cc3d edac b3bc
00000320: ee10 d13d e7dc 05be 3a5f ffbd 393e bb3d
00000330: 70a2 0dbe 32d1 fa3c d7b9 763c f685 0bbd
00000340: e2c9 89bd 0596 8abd d701 a03d ecea eebd
00000350: b86e f1bd 446a c53b 938f 85bc 3978 7d3d
00000360: 1a43 06bd 65fb 0bbe 6c36 4ebd 20f0 f43d
00000370: d5c8 223d 4edf 8e3d 3f32 903d e172 8abc
00000380: d048 07bb c79a b4bd acaf dbba 0679 103e
00000390: a8a1 64bd ec3d b5bd c115 b03d 0b9c 5a3d
000003a0: 3d58 2dbd a9e3 2fbb cfe7 9b3d f7a8 90bd
000003b0: 65dc 99bd 81ab d63d f3cf 783d f9f8 cb3d
000003c0: 3062 883b 1b75 f43a 49e6 803b ca95 90bc
000003d0: 8bc4 0fbd ba19 bbbd a75d 4fbd abfc 9c3a
000003e0: 614a 49bc bff1 2fbd e329 4e3d bec9 e8bc
000003f0: c3ec 603d c57a ab3c d6f4 503d 17cd d7bd

network_body._body_endoder.seq_layers.0.bias f4 [128]
0.0 0.0 0.0 0.0 0.0 0.0 0.0 0.0
0.0 0.0 0.0 0.0 0.0 0.0 0.0 0.0
0.0 0.0 0.0 0.0 0.0 0.0 0.0 0.0
0.0 0.0 0.0 0.0 0.0 0.0 0.0 0.0
0.0 0.0 0.0 0.0 0.0 0.0 0.0 0.0
0.0 0.0 0.0 0.0 0.0 0.0 0.0 0.0
0.0 0.0 0.0 0.0 0.0 0.0 0.0 0.0
0.0 0.0 0.0 0.0 0.0 0.0 0.0 0.0
0.0 0.0 0.0 0.0 0.0 0.0 0.0 0.0
0.0 0.0 0.0 0.0 0.0 0.0 0.0 0.0
0.0 0.0 0.0 0.0 0.0 0.0 0.0 0.0
0.0 0.0 0.0 0.0 0.0 0.0 0.0 0.0
0.0 0.0 0.0 0.0 0.0 0.0 0.0 0.0
0.0 0.0 0.0 0.0 0.0 0.0 0.0 0.0
0.0 0.0 0.0 0.0 0.0 0.0 0.0 0.0
0.0 0.0 0.0 0.0 0.0 0.0 0.0 0.0
00000000: 0000 0000 0000 0000 0000 0000 0000 0000
00000010: 0000 0000 0000 0000 0000 0000 0000 0000
00000020: 0000 0000 0000 0000 0000 0000 0000 0000
00000030: 0000 0000 0000 0000 0000 0000 0000 0000
00000040: 0000 0000 0000 0000 0000 0000 0000 0000
00000050: 0000 0000 0000 0000 0000 0000 0000 0000
00000060: 0000 0000 0000 0000 0000 0000 0000 0000
00000070: 0000 0000 0000 0000 0000 0000 0000 0000
00000080: 0000 0000 0000 0000 0000 0000 0000 0000
00000090: 0000 0000 0000 0000 0000 0000 0000 0000
000000a0: 0000 0000 0000 0000 0000 0000 0000 0000
000000b0: 0000 0000 0000 0000 0000 0000 0000 0000
000000c0: 0000 0000 0000 0000 0000 0000 0000 0000
000000d0: 0000 0000 0000 0000 0000 0000 0000 0000
000000e0: 0000 0000 0000 0000 0000 0000 0000 0000
000000f0: 0000 0000 0000 0000 0000 0000 0000 0000
00000100: 0000 0000 0000 0000 0000 0000 0000 0000
00000110: 0000 0000 0000 0000 0000 0000 0000 0000
00000120: 0000 0000 0000 0000 0000 0000 0000 0000
00000130: 0000 0000 0000 0000 0000 0000 0000 0000
00000140: 0000 0000 0000 0000 0000 0000 0000 0000
00000150: 0000 0000 0000 0000 0000 0000 0000 0000
00000160: 0000 0000 0000 0000 0000 0000 0000 0000
00000170: 0000 0000 0000 0000 0000 0000 0000 0000
00000180: 0000 0000 0000 0000 0000 0000 0000 0000
00000190: 0000 0000 0000 0000 0000 0000 0000 0000
000001a0: 0000 0000 0000 0000 0000 0000 0000 0000
000001b0: 0000 0000 0000 0000 0000 0000 0000 0000
000001c0: 0000 0000 0000 0000 0000 0000 0000 0000
000001d0: 0000 0000 0000 0000 0000 0000 0000 0000
000001e0: 0000 0000 0000 0000 0000 0000 0000 0000
000001f0: 0000 0000 0000 0000 0000 0000 0000 0000

network_body._body_endoder.seq_layers.2.weight f4 [128, 128]
0.03090237 0.08482977 -0.013692105 -0.019164816 -0.047013544 -0.03482603 -0.02665269 -0.0063220356
-0.0416092 -0.05477223 0.080804944 -0.11075348 -0.10158739 0.021817993 -0.13573004 0.010641726
-0.020580608 -0.10930362 0.040046092 -0.07475752 0.05464835 -0.13709494 -0.092260934 -0.004564393
-0.12983017 0.06544792 -0.014818691 0.017493688 0.10927637 0.017759481 0.10821173 -0.057385415
0.1002787 0.12750769 -0.013601247 -0.05208074 -0.037410088 -0.0013634592 0.12105683 0.19095102
0.14523079 -0.047777075 -0.16035816 0.059070844 -0.19168542 0.030038726 -0.21784109 -0.14191657
-0.09375231 0.17284139 -0.018137168 0.12451987 -0.10275136 -0.0131653715 0.06216831 -0.070292644
0.015574017 0.099662445 -0.032477427 -0.06191198 -0.08302833 -0.007831688 0.052325733 -0.017452383
-0.09594189 -0.019691845 -0.1779093 0.12897754 -0.10156631 -0.054183718 0.006209285 -0.058223475
-0.23476385 0.13567933 -0.041846454 0.06572926 -0.03922246 0.06868898 0.012444363 -0.09401106
0.13795958 -0.06740554 -0.09098924 -0.089968264 -0.028355205 -0.09307537 0.062492058 0.006234572
-0.094334275 0.13922936 0.16368416 0.05526076 -0.11721136 0.09253184 -0.13554794 -0.12966233
-0.1603983 0.15185179 -0.12448515 0.019092685 -0.024593795 0.04396903 0.043782894 -0.0019251463
-0.018782852 -0.09800864 0.00935865 0.037517976 -0.013272077 -0.043249227 0.028252421 -0.012469793
0.059642084 -0.0067352173 0.052606005 0.005456031 0.010920106 -0.21381135 0.0073689823 -0.022845572
-0.06540994 -0.27214354 0.11883489 -0.010505582 -0.05726666 -0.066667005 0.101611026 0.07631784
0.017992456 0.047497343 -0.0015147906 -0.25595185 0.009193161 0.022017077 -0.07254766 0.072371155
-0.020161992 -0.08515329 0.09835098 0.005407603 -0.048542727 0.02447413 -0.033906728 0.056123737
-0.08047935 -0.09054851 0.15136287 -0.08344773 0.114990056 -0.0005896376 -0.03924412 0.038844623
0.032871798 0.08653239 0.006220915 0.0603814 -0.092789456 -0.004542822 -0.07101859 -0.035675332
-0.026832238 0.07536068 0.20333596 0.014817269 -0.025062423 -0.012275501 -0.02197801 0.07461134
0.030108947 -0.04442993 0.1749585 0.039231 0.055421073 -0.0041665025 -0.082236074 0.044970434
-0.011166519 -0.08619573 0.027133085 0.06447552 0.1345841 0.046178736 0.049114395 -0.0060635954
0.042687804 -0.24401572 0.016201707 -0.078830004 0.04588929 0.2239001 0.0340943 0.045395028
0.03896951 0.029382536 0.030171787 -0.08450586 0.072497636 0.15739846 -0.10299186 0.08873796
-0.014780255 0.02391028 -0.010762429 -0.11564813 -0.10588052 -0.036682524 0.06564142 0.08749638
-0.06349565 0.0493899 -0.092897356 0.0436775 0.08095985 -0.060127184 0.07039394 0.0011942218
0.039357293 -0.095095806 -0.10060853 0.021533594 -0.204422 0.08587764 -0.06270092 -0.0072384393
0.16319187 -0.10445462 0.09898691 -0.22316876 0.05495008 0.054941457 0.09637768 0.05714415
-0.038561333 -0.18242405 0.06911317 -0.037519723 0.26852167 -0.017513925 0.010869568 0.0060242084
0.121644884 0.05278653 -0.16398692 0.05144939 0.06237672 0.08277948 0.2381068 -0.0095683355
0.12686637 -0.0070568654 -0.09139526 -0.006935977 -0.24203582 0.0011654844 0.15500188 0.051824503
00000000: f826 fd3c 3bbb ad3d da54 60bc 88ff 9cbc
00000010: 4691 40bd bda5 0ebd be56 dabc 1429 cfbb
00000020: 696e 2abd d958 60bd 107d a53d b8d2 e2bd
00000030: 0d0d d0bd a6bb b23c d1fc 0abe a25a 2e3c
00000040: aa98 a8bc 94da dfbd 5f07 243d 781a 99bd
00000050: f3d6 5f3d 9e62 0cbe 4df3 bcbd e790 95bb
00000060: 33f2 04be 8f09 863d 18ca 72bc ec4e 8f3c
00000070: 4acc df3d 557c 913c 1d9e dd3d f80c 6bbd
00000080: eb5e cd3d 6091 023e c4d7 5ebc 9d52 55bd
00000090: 523b 19bd 19b6 b2ba a5ec f73d aa88 433e
000000a0: 61b7 143e e5b1 43bd ee34 24be 45f4 713d
000000b0: 2f49 44be c613 f63c bc11 5fbe 9452 11be
000000c0: 3601 c0bd 55fd 303e 6694 94bc 4604 ff3d
000000d0: 4e6f d2bd 92b3 57bc 33a4 7e3d 97f5 8fbd
000000e0: 292a 7f3c d31b cc3d 0d07 05bd 6b97 7dbd
000000f0: c20a aabd 7b50 00bc 8253 563d 4df8 8ebc
00000100: 2e7d c4bd cb50 a1bc db2d 36be b012 043e
00000110: ff01 d0bd bfef 5dbd 4277 cb3b bd7b 6ebd
00000120: ef65 70be 86ef 0a3e 3067 2bbd 109d 863d
00000130: bba7 20bd cfac 8c3d 71e3 4b3c df88 c0bd
00000140: 4745 0d3e ea0b 8abd 9158 babd 4841 b8bd
00000150: 2d49 e8bc 4d9e bebd acf7 7f3d 614b cc3b
00000160: 5432 c1bd 2492 0e3e d29c 273e 1b59 623d
00000170: 820c f0bd 5581 bd3d 14cd 0abe 34c6 04be
00000180: 743f 24be 097f 1b3e 12f2 febd 4368 9c3c
00000190: ed78 c9bc df18 343d b155 333d 3155 fcba
000001a0: 7fde 99bc c1b8 c8bd 0655 193c 73ac 193d
000001b0: 2073 59bc 1a26 31bd 9f71 e73c 1a4e 4cbc
000001c0: 424b 743d 19b3 dcbb 6579 573d 81c8 b23b
000001d0: 3fea 323c 5df1 5abe 8177 f13b a326 bbbc
000001e0: a6f5 85bd 6656 8bbe b55f f33d 9b1f 2cbc
000001f0: 7290 6abd b688 88bd 7119 d03d 874c 9c3d
00000200: ea64 933c 938c 423d f08b c6ba 1f0c 83be
00000210: e99e 163c 285d b43c de93 94bd 5437 943d
00000220: c32a a5bc d964 aebd 3d6c c93d 4332 b13b
00000230: bdd4 46bd f87d c83c c8e1 0abd 01e2 653d
00000240: 5cd2 a4bd 7f71 b9bd defe 1a3e a5e6 aabd
00000250: e87f eb3d e991 1aba 71be 20bd 8a1b 1f3d
00000260: 94a4 063d e537 b13d d1d8 cb3b 7d52 773d
00000270: 6608 bebd f4db 94bb 3272 91bd 4c20 12bd
00000280: 48cf dbbc b356 9a3d 4d37 503e 21c4 723c
00000290: b64f cdbc 2f1f 49bc 3a0b b4bc d5cd 983d
000002a0: 0aa7 f63c 29fc 35bd 5228 333e afb0 203d
000002b0: 3501 633d 2887 88bb 636b a8bd eb32 383d
000002c0: c6f3 36bc 6387 b0bd 3446 de3c be0b 843d
000002d0: 6ad0 093e ea25 3d3d 2d2c 493d 20b1 c6bb
000002e0: 68d9 2e3d 42df 79be 71b9 843c a071 a1bd
000002f0: 68f6 3b3d 1146 653e 77a6 0b3d 23f0 393d
00000300: 7e9e 1f3d a5b3 f03c d32a f73c 6911 adbd
00000310: a479 943d 102d 213e 65ed d2bd 3fbc b53d
00000320: e228 72bc 7edf c33c e654 30bc edd8 ecbd
00000330: e3d7 d8bd 6a40 16bd 026f 863d 4d31 b33d
00000340: 020a 82bd 104d 4a3d f840 bebd 2ee7 323d
00000350: 47ce a53d ec47 76bd b32a 903d 6f87 9c3a
00000360: 1d35 213d 97c1 c2bd d80b cebd 3867 b03c
00000370: 0054 51be 9ee0 af3d 5769 80bd 6e30 edbb
00000380: c51b 273e 4eec d5bd a6b9 ca3d 5a86 64be
00000390: 5613 613d 4b0a 613d a961 c53d fc0f 6a3d
000003a0: 7df2 1dbd 5fcd 3abe 358b 8d3d 48ae 19bd
000003b0: ac7b 893e 5d79 8fbc 4616 323c b966 c53b
000003c0: f420 f93d b036 583d 30ec 27be 98bc 523d
000003d0: bb7e 7f3d 4a88 a93d 45d2 733e 82c4 1cbc
000003e0: 42e9 013e 473d e7bb 702d bbbd 3147 e3bb
000003f0: 3dd8 77be 2bc3 983a d0b8 1e3e ee45 543d

network_body._body_endoder.seq_layers.2.bias f4 [128]
0.0 0.0 0.0 0.0 0.0 0.0 0.0 0.0
0.0 0.0 0.0 0.0 0.0 0.0 0.0 0.0
0.0 0.0 0.0 0.0 0.0 0.0 0.0 0.0
0.0 0.0 0.0 0.0 0.0 0.0 0.0 0.0
0.0 0.0 0.0 0.0 0.0 0.0 0.0 0.0
0.0 0.0 0.0 0.0 0.0 0.0 0.0 0.0
0.0 0.0 0.0 0.0 0.0 0.0 0.0 0.0
0.0 0.0 0.0 0.0 0.0 0.0 0.0 0.0
0.0 0.0 0.0 0.0 0.0 0.0 0.0 0.0
0.0 0.0 0.0 0.0 0.0 0.0 0.0 0.0
0.0 0.0 0.0 0.0 0.0 0.0 0.0 0.0
0.0 0.0 0.0 0.0 0.0 0.0 0.0 0.0
0.0 0.0 0.0 0.0 0.0 0.0 0.0 0.0
0.0 0.0 0.0 0.0 0.0 0.0 0.0 0.0
0.0 0.0 0.0 0.0 0.0 0.0 0.0 0.0
0.0 0.0 0.0 0.0 0.0 0.0 0.0 0.0
00000000: 0000 0000 0000 0000 0000 0000 0000 0000
00000010: 0000 0000 0000 0000 0000 0000 0000 0000
00000020: 0000 0000 0000 0000 0000 0000 0000 0000
00000030: 0000 0000 0000 0000 0000 0000 0000 0000
00000040: 0000 0000 0000 0000 0000 0000 0000 0000
00000050: 0000 0000 0000 0000 0000 0000 0000 0000
00000060: 0000 0000 0000 0000 0000 0000 0000 0000
00000070: 0000 0000 0000 0000 0000 0000 0000 0000
00000080: 0000 0000 0000 0000 0000 0000 0000 0000
00000090: 0000 0000 0000 0000 0000 0000 0000 0000
000000a0: 0000 0000 0000 0000 0000 0000 0000 0000
000000b0: 0000 0000 0000 0000 0000 0000 0000 0000
000000c0: 0000 0000 0000 0000 0000 0000 0000 0000
000000d0: 0000 0000 0000 0000 0000 0000 0000 0000
000000e0: 0000 0000 0000 0000 0000 0000 0000 0000
000000f0: 0000 0000 0000 0000 0000 0000 0000 0000
00000100: 0000 0000 0000 0000 0000 0000 0000 0000
00000110: 0000 0000 0000 0000 0000 0000 0000 0000
00000120: 0000 0000 0000 0000 0000 0000 0000 0000
00000130: 0000 0000 0000 0000 0000 0000 0000 0000
00000140: 0000 0000 0000 0000 0000 0000 0000 0000
00000150: 0000 0000 0000 0000 0000 0000 0000 0000
00000160: 0000 0000 0000 0000 0000 0000 0000 0000
00000170: 0000 0000 0000 0000 0000 0000 0000 0000
00000180: 0000 0000 0000 0000 0000 0000 0000 0000
00000190: 0000 0000 0000 0000 0000 0000 0000 0000
000001a0: 0000 0000 0000 0000 0000 0000 0000 0000
000001b0: 0000 0000 0000 0000 0000 0000 0000 0000
000001c0: 0000 0000 0000 0000 0000 0000 0000 0000
000001d0: 0000 0000 0000 0000 0000 0000 0000 0000
000001e0: 0000 0000 0000 0000 0000 0000 0000 0000
000001f0: 0000 0000 0000 0000 0000 0000 0000 0000

action_model._continuous_distribution.log_sigma f4 [1, 20]
-0.04616076 -0.07411172 -0.11491913 -0.048910994 -0.055378776 -0.04954054 -0.05809882 -0.014562685
-0.10960972 -0.32966202 -0.08844252 -0.007663002 -0.03158223 -0.04610197 -0.028866272 -0.05051214
-0.058510818 0.015530638 -0.03878638 -0.07528403
00000000: 1113 3dbd e3c7 97bd b95a ebbd e556 48bd
00000010: dbd4 62bd 05eb 4abd 07f9 6dbd 5498 6ebc
00000020: 107b e0bd 76c9 a8be 5a21 b5bd eb19 fbbb
00000030: 5e5c 01bd 6bd5 3cbd f678 ecbc d1e5 4ebd
00000040: 0aa9 6fbd 3874 7e3c 78de 1ebd 832e 9abd

action_model._continuous_distribution.mu.weight f4 [20, 128]
0.0071925432 0.031093467 0.00469327 -0.008067685 0.03384104 0.0046628076 0.0054350514 0.012690584
-0.0052135144 0.0014851518 -0.007721147 0.005295893 -0.0027647684 0.017143035 -0.017257635 -0.00132383
-0.0047292737 0.013566256 -0.0074937427 -0.033681177 -0.0120623475 0.017635368 0.018264985 -0.011932382
0.029752498 -0.011167696 0.015544191 0.025977636 -0.011733538 -0.017660027 -0.0031950471 -0.016231908
0.019036343 -0.01976943 -0.019585231 0.013697508 0.0426724 0.01140555 -0.018209638 0.0075635645
0.020936517 -0.018528845 0.0015308469 0.00035855055 0.007963714 0.005184719 -0.019234603 0.032825
-0.02476427 -0.011475073 0.009323719 -0.00018084193 0.0023769583 -0.016721457 0.0019988313 -0.0062196553
0.0135236895 -0.00081007736 0.0024278492 0.013257836 -0.0068393587 -0.034182813 -0.00055459165 0.007817206
0.021712055 0.011427774 0.028795967 0.018261647 0.028812189 -0.023142042 -0.0077043897 0.01652801
-0.02576226 0.013432376 -0.01017762 -0.028353158 -0.013780183 -0.011518699 -0.003460842 -0.010451667
0.024620378 0.0034574368 -0.02556519 -0.0005643339 0.036207896 -0.010325576 0.008647796 0.014339106
-0.012827684 -0.026186064 -0.020370519 0.008264044 0.022555398 0.014518829 0.026312519 0.0025921029
0.0069777826 0.00484233 0.009657303 0.0101578 0.0069919312 -0.013766271 -0.014711218 0.005586439
0.0129096275 0.018878445 -0.01241799 0.009721554 0.010919611 0.005318723 0.0008324332 -0.0037217494
-0.0029727786 -0.014296397 0.0020177003 0.030526856 -0.008520835 -0.0012653337 -0.017555526 0.0016434331
-0.014320584 0.0039050423 0.02074389 0.0149118705 0.019951178 -0.0011487332 -0.0052207797 -0.024723912
-0.010825761 -0.01073658 -0.0031664525 -0.0005222861 0.014283495 -0.015308849 -0.019071808 -0.0066358126
0.006592389 0.0048624114 -0.004274474 0.0077902414 -0.033449575 -0.016636923 0.017572163 -0.0042375997
0.0089962045 -0.006981443 0.010215561 -0.019154811 -0.004510471 -0.00935787 -0.0026164304 -0.036633227
0.016683592 0.0019140656 -0.009255481 0.012448202 -0.022159515 0.02398148 -0.0034787867 0.0011875319
0.023612892 -0.0018895097 -0.01455233 0.01097083 0.018557912 -0.016230715 0.005458001 0.011355999
-0.011628019 -0.0004134202 -0.0023537737 -0.012874573 0.005603967 0.017634956 -0.014759402 0.006480901
-0.0009879841 0.02548614 0.020497477 0.00431154 0.008543833 -0.017267048 0.0038084926 0.0063741216
-0.00032062022 -0.022676243 0.024453638 0.0033700967 -0.010378363 -0.0032658298 -0.0043694708 -0.028202519
0.02467009 0.0097448705 -0.01750279 -0.02483628 -0.0023335454 -0.03239206 0.014839515 -0.014464009
-0.0074593546 0.02723585 -0.0094667515 -0.009676132 0.007076894 -0.03320556 0.0054297387 0.004932254
-0.02748003 -0.0046853516 0.021154929 0.02733632 -0.012747374 0.020808896 -0.011897671 -0.0013782711
-0.056259025 -0.0065315007 -0.00050395424 -0.02838982 -0.012309737 0.047888763 -0.03598517 -0.031330206
0.040879693 0.008159771 -0.004267025 -0.028273955 -0.002452605 0.019446537 -0.0009845861 -0.028272465
0.030487133 -0.00902529 0.021614518 -0.026230175 0.019038165 0.016489444 -0.035417628 -0.015102205
-0.016865045 -0.01685082 -0.008018647 0.022512546 0.018127056 -0.0016341544 -0.009854658 0.000566879
0.0029765721 0.024137523 -0.00049578486 -0.012396673 0.010965096 -0.0058261068 0.0008467165 0.017069744
00000000: 6daf eb3b bab7 fe3c 01ca 993b 532e 04bc
00000010: e79c 0a3d 77ca 983b 8418 b23b 2bec 4f3c
00000020: 21d6 aabb 6da9 c23a ad01 fdbb 2c89 ad3b
00000030: 1e31 35bb 8d6f 8c3c e25f 8dbc 5d84 adba
00000040: 06f8 9abb 0045 5e3c 128e f5bb 46f5 09bd
00000050: 27a1 45bc 0c78 903c 73a0 953c 0a80 43bc
00000060: 83bb f33c b6f8 36bc 10ad 7e3c 0dcf d43c
00000070: 063e 40bc c3ab 90bc ff63 51bb c7f8 84bc
00000080: 1bf2 9b3c 80f3 a1bc 3571 a0bc 836b 603c
00000090: 41c9 2e3d 58de 3a3c 612c 95bc c7d7 f73b
000000a0: 0f83 ab3c cec9 97bc b3a6 c83a d7fb bb39
000000b0: 3d7a 023c 93e4 a93b e391 9dbc 8273 063d
000000c0: 70de cabc f201 3cbc 83c2 183c 63a0 3db9
000000d0: bec6 1b3b 70fb 88bc d3fe 023b 40ce cbbb
000000e0: 7792 5d3c 5f5b 54ba 8d1c 1f3b 6537 593c
000000f0: b31c e0bb 4703 0cbd 0462 11ba bd13 003c
00000100: 7bdd b13c 8f3b 3b3c 85e5 eb3c 7399 953c
00000110: 8a07 ec3c 6194 bdbc 1b75 fcbb c065 873c
00000120: 600b d3bc 7813 5c3c 08c0 26bc e244 e8bc
00000130: 47c6 61bc edb8 3cbc 4bcf 62bb 783d 2bbc
00000140: adb0 c93c 2a96 623b 176e d1bc cfef 13ba
00000150: bb4e 143d 9b2c 29bc 7caf 0d3c 92ee 6a3c
00000160: 352b 52bc 2884 d6bc 13e0 a6bc ea65 073c
00000170: 19c6 b83c 62e0 6d3c 5a8d d73c 45e0 293b
00000180: e2a5 e43b 68ac 9e3b aa39 1e3c e76c 263c
00000190: 921c e53b ed8b 61bc 5207 71bc 720e b73b
000001a0: e782 533c f8a6 9a3c d374 4bbc 2747 1f3c
000001b0: 2be8 323c af48 ae3b a537 5a3a 98e8 73bb
000001c0: f3d2 42bb 6f3b 6abc 653b 043b 7513 fa3c
000001d0: f99a 0bbc 8ed9 a5ba 9bd0 8fbc 7768 d73a
000001e0: e2a0 6abc bdeb 7f3b 17ef a93c eb50 743c
000001f0: a770 a33c 1791 96ba 1313 abbb cd89 cabc
00000200: 885e 31bc 7be8 2fbc 4284 4fbb 07ea 08ba
00000210: 5205 6a3c f7d1 7abc 7b3c 9cbc 3b71 d9bb
00000220: f804 d83b dd54 9f3b e310 8cbb 4845 ff3b
00000230: 6c02 09bd 284a 88bc 7ff3 8f3c 90db 8abb
00000240: d164 133c 97c4 e4bb 2b5f 273c 8dea 9cbc
00000250: 93cc 93bb c051 19bc 6b78 2bbb b90c 16bd
00000260: 07ac 883c 62e1 fa3a 4da4 17bc 8bf3 4b3c
00000270: df87 b5bc cf74 c43c 5bfc 63bb f5a6 9b3a
00000280: d36f c13c 6da9 f7ba e56c 6ebc ffbe 333c
00000290: c306 983c 47f6 84bc 08d9 b23b 830e 3a3c
000002a0: 7283 3ebc 52c0 d8b9 c541 1abb dfef 52bc
000002b0: 7ba1 b73b 2f77 903c 6bd1 71bc bd5d d43b
000002c0: 3f7f 81ba 4fc8 d03c 53ea a73c d247 8d3b
000002d0: 6ffb 0b3c a073 8dbc e797 793b 02de d03b
000002e0: eb18 a8b9 87c3 b9bc ff52 c83c d7dc 5c3b
000002f0: 020a 2abc 8807 56bb c72d 8fbb f808 e7bc
00000300: ee18 ca3c f3a8 1f3c 0362 8fbc 7475 cbbc
00000310: 65ee 18bb 89ad 04bd 7021 733c 73fa 6cbc
00000320: 9a6d f4bb b81d df3c 6f1a 1bbc a488 1ebc
00000330: 4ae5 e73b 8e02 08bd f3eb b13b bf9e a13b
00000340: cd1d e1bc 9487 99bb 1a4d ad3c 6bf0 df3c
00000350: 5dda 50bc 6b77 aa3c 73ee 42bc 1ba7 b4ba
00000360: dd6f 66bd 3306 d6bb cc1b 04ba c591 e8bc
00000370: c7ae 49bc 0227 443d 3065 13bd 1a54 00bd
00000380: 7771 273d 8fb0 053c 66d2 8bbb c89e e7bc
00000390: e2bb 20bb 584e 9f3c 3a0d 81ba a89b e7bc
000003a0: 27c0 f93c cfde 13bc ee10 b13c aae0 d6bc
000003b0: edf5 9b3c df14 873c 1312 11bd 3d6f 77bc
000003c0: 9028 8abc bb0a 8abc a560 03bc 3b6c b83c
000003d0: 317f 943c 1f31 d6ba 6e75 21bc 9b9a 143a
000003e0: 9812 433b 0ebc c53c 8ff7 01ba 6a1b 4bbc
000003f0: f2a6 333c ede8 bebb 2ff6 5d3a d9d5 8b3c

action_model._continuous_distribution.mu.bias f4 [20]
-0.011458782 -0.0023614762 0.01758631 0.003812279 -0.0077825733 0.0013062475 -0.016984688 -0.00043602055
0.008938208 -0.0018637106 -0.023621632 0.0019560216 0.0017417857 -0.013361799 0.010839797 -0.0037682601
0.012203869 -0.008334646 -0.005745214 -0.006787046
00000000: 9dbd 3bbc ffc2 1abb 2a11 903c 6ed7 793b
00000010: f504 ffbb 6536 ab3a 7923 8bbc b099 e4b9
00000020: 9071 123c c047 f4ba 2782 c1bc 9930 003b
00000030: a14c e43a 72eb 5abc 6799 313c eaf4 76bb
00000040: bdf2 473c 0a8e 08bc 5942 bcbb de65 debb

network_body.observation_encoder.processors.0.normalizer.running_mean f4 [126]
0.0 1.7686542e-08 0.0 -0.031046506 0.08636385 -0.009858366 0.9793853 0.42000917
0.12518899 -0.61577463 -0.4184212 -0.26558942 -0.11398059 0.84161687 0.9081419 -0.04273278
-1.3231456 -0.81445414 -0.15762028 -0.24262226 0.46964887 -0.62470436 0.10009266 -0.4550376
-0.44000047 0.40604854 0.19325103 0.75437856 -1.3479927 -0.07157272 -0.96126264 -0.7543517
0.2569653 0.37009892 0.43540573 -0.44669142 0.14923972 0.63204294 -0.14751008 0.82813627
0.4387042 0.25432652 -0.9395169 -0.035779018 1.3444273 -0.25856563 0.4728179 0.8084681
0.1380971 0.645436 0.117694765 0.43700665 -0.25015584 -0.76483464 -0.41011462 0.38611972
1.3597834 -0.058424544 0.95034784 -0.40736386 -0.45927072 -0.73637545 0.20395438 0.028786836
-0.039475348 0.03663853 0.07722921 -0.07605664 -0.049693067 -0.013074651 -0.06221375 0.057227947
-0.013685191 -0.049137108 0.0072297473 0.14370568 0.023868967 0.11763194 0.028152695 -0.052733425
0.04458923 0.11511133 0.03957998 -0.07643125 0.051402673 -0.055853024 0.040903255 -0.09312622
0.043302283 -0.08218377 -0.031046506 0.08636385 -0.009858366 0.9793853 -0.3823266 -0.34410545
-0.15220617 0.8406536 -0.55117744 0.00049462833 -0.00025520712 0.82891095 -0.4411709 0.3322299
0.17721769 0.8107312 -0.49650943 0.0020500012 0.0018170002 0.8629516 -0.18871953 0.79884905
0.45881313 0.3311289 -0.52541035 -2.4732508e-05 0.00022630994 0.84537375 -0.1956794 -0.796536
-0.45615175 0.33409998 -0.49890745 -0.004532009 -0.003526287 0.86059433
00000000: 0000 0000 1eed 9732 0000 0000 3e55 febc
00000010: 88df b03d fc84 21bc ffb8 7a3f 710b d73e
00000020: 8b31 003e 68a3 1dbf 4e3b d6be 56fb 87be
00000030: a86e e9bd 3474 573f fd7b 683f 9108 2fbd
00000040: d65c a9bf 1180 50bf 3667 21be f871 78be
00000050: d175 f03e a0ec 1fbf 61fd cc3d b0fa e8be
00000060: be47 e1be 98e5 cf3e 99e3 453e f41e 413f
00000070: 068b acbf b894 92bd 4f15 76bf 311d 41bf
00000080: f590 833e 9b7d bd3e 80ed de3e bdb4 e4be
00000090: 4cd2 183e 91cd 213f e20c 17be bd00 543f
000000a0: d69d e03e 1637 823e 2e84 70bf 058d 12bd
000000b0: 3216 ac3f b762 84be 3015 f23e c4f7 4e3f
000000c0: 5469 0d3e 4b3b 253f f409 f13d 56bf df3e
000000d0: 6d14 80be 34cc 43bf 8bfa d1be 7cb1 c53e
000000e0: 620d ae3f 934e 6fbd ff49 733f ff91 d0be
000000f0: 8825 ebbe 1a83 3cbf 6bd9 503e 5fd2 eb3c
00000100: e7b0 21bd 4912 163d 592a 9e3d 95c3 9bbd
00000110: f58a 4bbd 1037 56bc d8d3 7ebd da67 6a3d
00000120: da37 60bc fe43 49bd 84e7 ec3b 9527 133e
00000130: da88 c33c 04e9 f03d 7ba0 e63c 01ff 57bd
00000140: 32a3 363d 7dbf eb3d 9e1e 223d fd87 9cbd
00000150: 9c8b 523d 24c6 64bd 2c8a 273d f6b8 bebd
00000160: bc5d 313d f74f a8bd 3e55 febc 88df b03d
00000170: fc84 21bc ffb8 7a3f 50c0 c3be 972e b0be
00000180: efdb 1bbe 1335 573f f719 0dbf f2a9 013a
00000190: 52cd 85b9 8233 543f 27e1 e1be 0a1a aa3e
000001a0: 8e78 353e 148c 4f3f 7c36 febe 5059 063b
000001b0: 6928 ee3a 65ea 5c3f b13f 41be 5f81 4c3f
000001c0: 8ee9 ea3e ba89 a93e 4b81 06bf a878 cfb7
000001d0: 9d4d 6d39 6a6a 583f 2e60 48be c9e9 4bbf
000001e0: b98c e9be 270f ab3e cc70 ffbe 3f81 94bb
000001f0: 4719 67bb e94f 5c3f

network_body.observation_encoder.processors.0.normalizer.running_variance f4 [126]
1.0 1.0 1.0 3.019295 32.7745 2.6585321 3.0634105 58.78483
4.9704 20.943012 3.846023 25.91542 8.546957 4.1507754 267.559 3.6553028
96.93569 3.7639542 10.541244 23.83312 3.4966915 24.454182 4.439868 65.526276
5.149656 20.853031 10.183214 8.6779 102.46272 3.0418148 297.7216 8.043487
11.456729 22.98975 6.2868147 66.08941 5.104564 24.812462 11.7880535 3.9333928
4.03788 25.339088 290.57803 4.204674 103.76464 27.326214 3.4533136 4.433792
11.803306 23.583124 4.861115 66.97183 10.643105 8.318956 6.0665536 19.926487
105.79752 3.7180126 295.138 21.613304 5.021587 9.711726 13.513192 85.120766
246.24004 95.42009 193.67693 557.44543 165.93565 467.67114 615.7811 564.49115
194.59207 480.31476 261.46753 497.57706 370.5954 594.92053 263.91248 531.64954
232.29991 909.4719 834.0165 821.6596 202.32443 512.5305 273.49557 753.91364
625.3491 825.209 3.019295 32.7745 2.6585321 3.0634105 3.4535177 1.6004806
2.2630901 2.307456 7.6834497 1.0189254 1.0019644 4.163737 2.764335 1.9011167
3.6399586 2.2111108 5.139928 3.5758603 1.7863133 2.9792628 3.3001924 2.2008808
2.857191 1.8827082 6.774647 2.2726536 1.4625051 3.5696979 4.3879457 2.4037552
3.03025 2.1766503 6.611204 3.5893044 1.8456644 3.4038327
00000000: 0000 803f 0000 803f 0000 803f 213c 4140
00000010: 1719 0342 6425 2a40 eb0e 4440 aa23 6b42
00000020: 840d 9f40 4a8b a741 3e25 7640 c852 cf41
00000030: 56c0 0841 27d3 8440 8dc7 8543 7bf0 6940
00000040: 13df c142 a0e4 7040 efa8 2841 3baa be41
00000050: cbc9 5f40 2aa2 c341 6613 8e40 740d 8342
00000060: fbc9 a440 02d3 a641 72ee 2241 aed8 0a41
00000070: eaec cc42 18ad 4240 5ddc 9443 1fb2 0041
00000080: c34e 3741 02eb b741 962d c940 c72d 8442
00000090: 9758 a340 ec7f c641 de9b 3c41 b5bc 7b40
000000a0: 5036 8140 74b6 ca41 fd49 9143 b08c 8640
000000b0: 7f87 cf42 169c da41 1703 5d40 a0e1 8d40
000000c0: 57da 3c41 3daa bc41 418e 9b40 94f1 8542
000000d0: 284a 2a41 721a 0541 3521 c240 7269 9f41
000000e0: 5598 d342 ebf3 6d40 aa91 9343 0ce8 ac41
000000f0: d7b0 a040 3b63 1b41 0936 5841 d53d aa42
00000100: 733d 7643 16d7 be42 4bad 4143 825c 0b44
00000110: 87ef 2543 e8d5 e943 fef1 1944 6f1f 0d44
00000120: 9297 4243 4a28 f043 d8bb 8243 ddc9 f843
00000130: 364c b943 eaba 1444 ccf4 8343 92e9 0444
00000140: c74c 6843 345e 6344 0e81 5044 376a 4d44
00000150: 0e53 4a43 f421 0044 6fbf 8843 797a 3c44
00000160: 5856 1c44 604d 4e44 213c 4140 1719 0342
00000170: 6425 2a40 eb0e 4440 6f06 5d40 8cdc cc3f
00000180: 78d6 1040 5cad 1340 d2de f540 266c 823f
00000190: 5f40 803f 553d 8540 ddea 3040 cb57 f33f
000001a0: 15f5 6840 d782 0d40 4a7a a440 e5da 6440
000001b0: eaa5 e43f 3eac 3e40 5a36 5340 3bdb 0c40
000001c0: 38dc 3640 95fc f03f e9c9 d840 2873 1140
000001d0: 5e33 bb3f ee75 6440 0d6a 8c40 20d7 1940
000001e0: 9eef 4140 3d4e 0b40 fc8e d340 2ab7 6540
000001f0: bb3e ec3f 65d8 5940

network_body.observation_encoder.processors.1.normalizer.running_mean f4 [28]
-5.072434e-05 -0.012793001 0.9990543 -0.022905027 -0.0018473766 -0.115365036 9.685514 -0.0004395995
-0.1181244 9.684507 0.051105563 0.9891031 0.0 0.51328605 0.909472 0.5054001
0.0 0.49009177 0.95892704 0.4919978 0.0 0.49508673 0.88851637 0.51767606
0.0 0.4863715 0.9270745 0.50982326
00000000: d8c0 54b8 bc99 51bc 06c2 7f3f 53a3 bbbc
00000010: ac23 f2ba 8144 ecbd def7 1a41 0c7a e6b9
00000020: 35eb f1bd bef3 1a41 1154 513d dc35 7d3f
00000030: 0000 0000 b766 033f 28d3 683f e761 013f
00000040: 0000 0000 4fed fa3e 3e7c 753f 23e7 fb3e
00000050: 0000 0000 027c fd3e cf75 633f 6b86 043f
00000060: 0000 0000 af05 f93e c154 6d3f c783 023f

network_body.observation_encoder.processors.1.normalizer.running_variance f4 [28]
1.0001905 1.0610385 1.9990175 1002.39087 352.95087 360.9228 6325.312 1.0152342
8.664966 6324.2754 1.181575 13.858337 1.0 31.953678 99.22297 28.583477
1.0 33.322666 47.987427 35.557926 1.0 33.542397 119.17266 32.953304
1.0 32.459637 81.65548 29.191648
00000000: 3e06 803f 1cd0 873f cedf ff3f 0499 7a44
00000010: b679 b043 1e76 b443 7faa c545 32f3 813f
00000020: b3a3 0a41 34a2 c545 d93d 973f c0bb 5d41
00000030: 0000 803f 22a1 ff41 2972 c642 f6aa e441
00000040: 0000 803f 694a 0542 20f3 3f42 513b 0e42
00000050: 0000 803f 6a2b 0642 6758 ee42 2fd0 0342
00000060: 0000 803f abd6 0142 9b4f a342 7f88 e941

network_body.processors.0.normalizer.running_mean f4 [126]
0.0 1.7686542e-08 0.0 -0.031046506 0.08636385 -0.009858366 0.9793853 0.42000917
0.12518899 -0.61577463 -0.4184212 -0.26558942 -0.11398059 0.84161687 0.9081419 -0.04273278
-1.3231456 -0.81445414 -0.15762028 -0.24262226 0.46964887 -0.62470436 0.10009266 -0.4550376
-0.44000047 0.40604854 0.19325103 0.75437856 -1.3479927 -0.07157272 -0.96126264 -0.7543517
0.2569653 0.37009892 0.43540573 -0.44669142 0.14923972 0.63204294 -0.14751008 0.82813627
0.4387042 0.25432652 -0.9395169 -0.035779018 1.3444273 -0.25856563 0.4728179 0.8084681
0.1380971 0.645436 0.117694765 0.43700665 -0.25015584 -0.76483464 -0.41011462 0.38611972
1.3597834 -0.058424544 0.95034784 -0.40736386 -0.45927072 -0.73637545 0.20395438 0.028786836
-0.039475348 0.03663853 0.07722921 -0.07605664 -0.049693067 -0.013074651 -0.06221375 0.057227947
-0.013685191 -0.049137108 0.0072297473 0.14370568 0.023868967 0.11763194 0.028152695 -0.052733425
0.04458923 0.11511133 0.03957998 -0.07643125 0.051402673 -0.055853024 0.040903255 -0.09312622
0.043302283 -0.08218377 -0.031046506 0.08636385 -0.009858366 0.9793853 -0.3823266 -0.34410545
-0.15220617 0.8406536 -0.55117744 0.00049462833 -0.00025520712 0.82891095 -0.4411709 0.3322299
0.17721769 0.8107312 -0.49650943 0.0020500012 0.0018170002 0.8629516 -0.18871953 0.79884905
0.45881313 0.3311289 -0.52541035 -2.4732508e-05 0.00022630994 0.84537375 -0.1956794 -0.796536
-0.45615175 0.33409998 -0.49890745 -0.004532009 -0.003526287 0.86059433
00000000: 0000 0000 1eed 9732 0000 0000 3e55 febc
00000010: 88df b03d fc84 21bc ffb8 7a3f 710b d73e
00000020: 8b31 003e 68a3 1dbf 4e3b d6be 56fb 87be
00000030: a86e e9bd 3474 573f fd7b 683f 9108 2fbd
00000040: d65c a9bf 1180 50bf 3667 21be f871 78be
00000050: d175 f03e a0ec 1fbf 61fd cc3d b0fa e8be
00000060: be47 e1be 98e5 cf3e 99e3 453e f41e 413f
00000070: 068b acbf b894 92bd 4f15 76bf 311d 41bf
00000080: f590 833e 9b7d bd3e 80ed de3e bdb4 e4be
00000090: 4cd2 183e 91cd 213f e20c 17be bd00 543f
000000a0: d69d e03e 1637 823e 2e84 70bf 058d 12bd
000000b0: 3216 ac3f b762 84be 3015 f23e c4f7 4e3f
000000c0: 5469 0d3e 4b3b 253f f409 f13d 56bf df3e
000000d0: 6d14 80be 34cc 43bf 8bfa d1be 7cb1 c53e
000000e0: 620d ae3f 934e 6fbd ff49 733f ff91 d0be
000000f0: 8825 ebbe 1a83 3cbf 6bd9 503e 5fd2 eb3c
00000100: e7b0 21bd 4912 163d 592a 9e3d 95c3 9bbd
00000110: f58a 4bbd 1037 56bc d8d3 7ebd da67 6a3d
00000120: da37 60bc fe43 49bd 84e7 ec3b 9527 133e
00000130: da88 c33c 04e9 f03d 7ba0 e63c 01ff 57bd
00000140: 32a3 363d 7dbf eb3d 9e1e 223d fd87 9cbd
00000150: 9c8b 523d 24c6 64bd 2c8a 273d f6b8 bebd
00000160: bc5d 313d f74f a8bd 3e55 febc 88df b03d
00000170: fc84 21bc ffb8 7a3f 50c0 c3be 972e b0be
00000180: efdb 1bbe 1335 573f f719 0dbf f2a9 013a
00000190: 52cd 85b9 8233 543f 27e1 e1be 0a1a aa3e
000001a0: 8e78 353e 148c 4f3f 7c36 febe 5059 063b
000001b0: 6928 ee3a 65ea 5c3f b13f 41be 5f81 4c3f
000001c0: 8ee9 ea3e ba89 a93e 4b81 06bf a878 cfb7
000001d0: 9d4d 6d39 6a6a 583f 2e60 48be c9e9 4bbf
000001e0: b98c e9be 270f ab3e cc70 ffbe 3f81 94bb
000001f0: 4719 67bb e94f 5c3f
