results/duoCW-V1/Crawler/Crawler-943591.onnx (onnx, 711108 bytes, 9 tensors)

network_body._body_endoder.seq_layers.0.weight f4 [256, 154]
00000000: ab10 8a3d 55fa 36bd bdaa d9bc 6868 13be
00000010: 20a3 9c3c 35a6 d9bb 5e92 733d b442 25bd
00000020: 5ab5 103d 88c6 8f3c 7253 96bd bd94 adbd
00000030: 7c4a d4bd 9362 1dbe fb93 d4bd b92c e4bd
00000040: 5978 dbbd fb60 143d ad97 5ebd 0046 133c
00000050: 73cf 403e 739b 1d3c 2137 bb3d 34ac 07bc
00000060: 99f6 d6bc eb57 33bd dcec c33d c189 c63d
00000070: fa3a 80bd a215 ed3d 1d74 5c3e e932 253b
00000080: 0867 abbc 0159 973d d447 74bc f8c3 913d
00000090: 8d22 7ebd 580a 6d3d e84c afbd 493e 0d3e
000000a0: bf51 733d 6237 9f3d 4072 e43d dd8b 843d
000000b0: be21 61bd b4bf 8b3d c7f9 b23c cfe7 88bd
000000c0: 37c0 8e3d 485b 67bc 30dd 58bc ee96 38bc
000000d0: fa97 9abd 5e61 93bd 61eb 483d 2c93 81bd
000000e0: e81d 393d 6b68 73bd 9912 893d 0e06 d5bd
000000f0: 43d8 5ebe 8529 873d 5f70 6a3d 6393 863d
00000100: a077 1cbe 3c5e cebd 4e70 243e f6f5 443b
00000110: 6cf9 c33d 7c6a 093c 7103 47be 5217 9e3d
00000120: 83af 2bbd a6ee 13bd adec 3ebb 3859 8e3c
00000130: b605 253d bbcd b1bc 2edc 6a3c e5fe 103d
00000140: ac22 f9bc 2858 953d 3cfa 0ebb c28c 873e
00000150: 9dcc 5a3c 3887 a43d 9928 733c b0b1 cabd
00000160: 7ef0 e83c bd59 b93d e9ca 32bd a335 3b3c
00000170: 7e87 28be 7148 94bc e8a9 c4bd 4c03 973d
00000180: 4065 b2bd c00e 3cbe a188 b43d 55ff 313e
00000190: 310f 1b3e 2495 37bd d723 32bd 53ca 8ebd
000001a0: 9fcd 1a3e 92ac 6b3c a415 6f3d b26d c93c
000001b0: 86b9 d13d 18a3 43bd 55f6 9bbc a0f1 683c
000001c0: 15b6 d0bc 9418 1b3d bf76 01bd ebf6 46be
000001d0: e54d 71be 2539 4cbd 5330 523d 25dc 93bd
000001e0: bcd3 17bd 7af9 843d 3b51 873d 6e5b afbb
000001f0: f338 4f3d 0972 323d 33bd f5bb cb07 35bd
00000200: 0cb7 043e fce9 abbc be3f 293d 7c66 9d3d
00000210: fcf1 e23d 9313 efbc 48ec 23be 6923 b1bd
00000220: 8ce6 e7bb 9334 bbbd cb46 aebd ef03 093d
00000230: 6e0a 703d 434d 1d3d 044f 413c c60a a93d
00000240: 3886 9fbd 7caf 9f3c 2388 13bc 06d2 d43c
00000250: 5c94 02bd 6fee 0c3d 1bd5 3f3e e921 23bc
00000260: 248f 433e 0524 203e 8aa6 50bc 13d7 993d
00000270: 78c9 f8bb fff1 8cbc 2b16 88bd 228f 1c3e
00000280: 9854 fbbd 7d98 9a3d 0727 13be 196c a83d
00000290: 8360 0a3e a5fe e93c a31c fe3d 88dc 85bd
000002a0: 690c b5bc 8f05 1c3e a75f 0fbe 795f c8bd
000002b0: c25b 8ebd 3dd9 5abc f760 c1bd 1b9e 503d
000002c0: e04c 3dbe fb6b 103d 6cb3 eabd 0d1c 33bd
000002d0: cf12 6bbd e990 0fbe 149d 743d 1691 8a3d
000002e0: 78ff 38bd dbf5 b43c e9ae 0bbd 954e 8bbd
000002f0: 5207 0bbd 7d32 393c 2459 1fbe d085 11be
00000300: 71fc 583b bd7a f9bd dd21 03be a1a4 6bbe
00000310: 54d7 373b c9c0 1abd 96c4 44be 0de4 af3c
00000320: 0c96 d1bd 1fd5 91bd 2fb6 69bd 407b debd
00000330: 6665 76bc f66c 8abe 3ce5 c63d e761 e73b
00000340: 513f 4d3e 5ad1 113d e629 edbc 0b76 583d
00000350: ac3f bdbc d2e3 aa3d 882e bfbc 80fb 293c
00000360: 8b47 d13d 1c91 47bd d856 9bbd 99e6 67bd
00000370: b815 e7bd c57a 013d 4fc8 3d3d e63a 223d
00000380: 8a96 a33c 4a7e 9cbc 48fd 033e 6f5f f8bd
00000390: 0a3d 88bc cc08 a7bc 48bc b1bd 688a fb3b
000003a0: 737b 0ebe 50f0 653c 9c70 43be 68b0 cdbd
000003b0: f81b 053e eafd 9fbd 70bf b33d d2c7 13be
000003c0: 2220 26be e1f0 a3bc 8b4c d4bc 84a2 73bd
000003d0: 4a2c 983c 98bf 8abd fa4e 093e fe4b a9bd
000003e0: efa0 323d 0595 c1ba d6c4 1cbc d107 16be
000003f0: 13fe 973d 4b56 353e b941 c73d fa7e 21bc
0.067414604 -0.04467233 -0.026570672 -0.14395297 0.019120753 -0.006642128 0.05946576 -0.040346816
0.0353292 0.017550722 -0.07340135 -0.08475635 -0.10365769 -0.15369634 -0.103797875 -0.11141343
-0.10716314 0.0362253 -0.054343868 0.008988857 0.18829136 0.0096195815 0.091413744 -0.0082808025
-0.026240634 -0.043785017 0.09566662 0.09694243 -0.06261249 0.11576392 0.21528669 0.0025207347
-0.020923153 0.07390023 -0.014909703 0.07117456 -0.06204467 0.057871193 -0.085595906 0.13793291
0.05940413 0.07774235 0.11154604 0.06471989 -0.05496382 0.06823674 0.021847619 -0.06684839
0.06970256 -0.014120884 -0.013236329 -0.011266453 -0.075485185 -0.07196306 0.0490526 -0.06326899
0.045194536 -0.059425753 0.06693 -0.104015455 -0.21762185 0.06599716 0.05723607 0.065710805
-0.15280008 -0.100765675 0.16058466 0.003005383 0.09569058 0.008387204 -0.19434907 0.07719292
-0.041915428 -0.036116265 -0.002913277 0.017376527 0.04028865 -0.021704545 0.0143347215 0.035399336
-0.03041204 0.07292205 -0.0021816632 0.26474577 0.013354448 0.080336034 0.014841222 -0.098971725
0.028434988 0.09050319 -0.04365054 0.011426362 -0.16457936 -0.018100949 -0.096027195 0.07373676
-0.08710718 -0.18365002 0.088151224 0.17382558 0.15142514 -0.044819966 -0.04349121 -0.06972184
0.151175 0.014384406 0.058370247 0.02458844 0.10240464 -0.04776296 -0.019038359 0.014217764
-0.025477448 0.037865236 -0.031607386 -0.19430129 -0.2356487 -0.049859185 0.051315617 -0.072197236
-0.03706716 0.064928964 0.0660729 -0.0053514754 0.05059142 0.043565784 -0.007499361 -0.044196885
0.12960452 -0.020985596 0.041320555 0.07685563 0.11081311 -0.029184138 -0.16008103 -0.08649332
-0.007077044 -0.09140887 -0.085095964 0.033451017 0.058603697 0.03840376 0.011798624 0.08254008
-0.07789272 0.019492857 -0.0090046255 0.025979053 -0.031879768 0.034407075 0.18733637 -0.009956815
0.19097573 0.1563874 -0.0127350185 0.07511725 -0.0075923763 -0.017205236 -0.06644853 0.15288976
-0.12271994 0.07548616 -0.14370357 0.08223743 0.13513379 0.028563807 0.12407806 -0.065362036
-0.022100644 0.15236495 -0.14001332 -0.09783835 -0.06951095 -0.013357458 -0.09442323 0.05093203
-0.18486357 0.03525923 -0.11460003 -0.043727923 -0.057390984 -0.14020123 0.059720114 0.06765954
-0.04516551 0.02208989 -0.034102354 -0.06802098 -0.033942528 0.011303541 -0.15561348 -0.14211202
0.0033109451 -0.121816136 -0.12805887 -0.2301202 0.002805193 -0.03778151 -0.19215617 0.021471048
-0.10233697 -0.07120728 -0.05705851 -0.10863352 -0.015038824 -0.27036256 0.09711692 0.0070612314
0.20043685 0.035600044 -0.028950643 0.05284695 -0.02310165 0.083442345 -0.023337618 0.010374904
0.10218724 -0.04872237 -0.075849235 -0.0566164 -0.112834394 0.031611223 0.046333607 0.03960695
0.019969244 -0.019103188 0.12889588 -0.121275775 -0.016630668 -0.020389937 -0.0867849 0.0076764114
-0.1391428 0.014034346 -0.19085926 -0.100434124 0.1299895 -0.07812102 0.08776748 -0.14431694
-0.16223195 -0.020012321 -0.025915405 -0.05948116 0.018575806 -0.06774825 0.13409033 -0.082664475
0.04361051 -0.0014769143 -0.009568414 -0.14651419 0.07421508 0.177087 0.097293325 -0.009856934

network_body._body_endoder.seq_layers.0.bias f4 [256]
00000000: 43c7 663b 0d7c 06bd 0954 383b c089 f33a
00000010: 9e96 213c 89ef f2bb cbeb b73a 6266 70b9
00000020: 9a58 813b f423 e5bc 005f eb3b 4b0e 1739
00000030: 965a 8f3c 36d2 6e3c ba64 f43b e8ed 48bc
00000040: 7b43 0cbb f633 393b bf42 1f3a d19c 92bc
00000050: 75b6 d2bc d604 8e3b 4e18 d43b 16c9 b2bb
00000060: 47b6 013d cc4f a039 a339 c5bb e4cf a73a
00000070: 4c5a ad3c 5bec 7b3c c7b7 053c 8ab9 2d3c
00000080: 1f27 5b3c 5cab d63b 3edb 0a3b 0c73 c93c
00000090: 96cc 3b3c 7975 45ba 4c65 673b 3715 d9b8
000000a0: 2fa1 a8bb 55be b83c b8c8 81ba 1f97 d93c
000000b0: 856d 81bc 4165 2f3c aff3 193c aa35 803b
000000c0: da5e 6a3c 1138 cf3b e13e 3aba ca5a ff3b
000000d0: 76db 2c3b 2d2a 003c 86b8 bcba d814 f5bc
000000e0: dccf d9bb e7b1 1bbb a1f0 9e3b e340 bfba
000000f0: c921 c0bc f36c 163c bde0 05bd c40a 093c
00000100: a6ac d1ba 6566 873b 63e5 3ebc 04e8 053c
00000110: 5fe5 b63c e138 1f3c 7fab bd3c a72f 0fb9
00000120: 2f30 9e3c 534f 4d3c c076 893c 7230 d0ba
00000130: 49a4 7438 12b3 423a ce9d 16bd 6ede 6b3b
00000140: 9d86 0ebd fd22 febb 2347 fb3b 8e50 133c
00000150: 0c66 59bc 6de1 eabb 223c db3c d8d3 b43b
00000160: 026b 8bba fbda ac3c 9bd1 753c e090 e13b
00000170: b205 2ebc a4c3 913c 40fa 803c a250 693c
00000180: b43c 0e3d 8930 baba 2496 99bb c011 103c
00000190: 7039 483b 7f8e 813b 83b7 803c 4fa0 fa3b
000001a0: b0b2 c2bb 07b0 823c c2c6 833c cd4c 3e3b
000001b0: 373e 2a3b 67f4 c73b db25 37bb 4c59 5e3b
000001c0: 3093 d9b9 dee5 533c af9c d03c 8515 cb3b
000001d0: f1dd b5bb bf79 193b a37c 93bc 7f19 e73c
000001e0: d511 6fbc 353d 1ab9 c27e 9c3a d3b3 573c
000001f0: 8460 8dbc 29ca 1cbc ed17 30bc 10d1 a6bc
00000200: dd2a 703c 9b7a 463c 0517 fe3c a02b 5bbb
00000210: be82 07bb c6a5 453c 2770 f33b f73e 133c
00000220: a281 c7ba 93ea c63b f588 093c b1ca cdbc
00000230: 5773 a23b e5a0 0e3c 2c1b cd3a 640f a83c
00000240: 4eb3 823c 1a44 7ebb 5088 633c 3420 ac3b
00000250: 4826 41bc eab0 273c ce2d 1b3b cdb7 783b
00000260: 0235 5e3b 29df 843c b4bc 7ebb 5748 7abb
00000270: edd8 893b d134 91bb 03d8 823c 995a a13c
00000280: 1044 df3b 3860 4a3c f860 83bc c062 203c
00000290: 0f62 993a 8a98 ba3c be26 8c3c 78bf 993b
000002a0: a367 09b9 7d3b 0c3b febd 74b9 9885 b03c
000002b0: 003d a33b f8dc 83bb 48c8 bfbb 6595 573c
000002c0: 92f8 56bb d558 2e3c 1af5 7d3c 93f4 053a
000002d0: abef 01bc 029b 1b3d 9f47 b8ba a005 713c
000002e0: 0831 9dba 37fe 1cbb 2299 453c a214 043c
000002f0: e6dd 433c 83ab 303c ae7b 55bc 5c6e 873b
00000300: 5638 213c 42be 12bd 45b0 f1bc 7bfb d33a
00000310: 2a08 853a 8cb1 873c 908b 3e3c 6abe 9c3c
00000320: 5683 1dba c1f6 873c 62e2 a7b9 50f9 c13b
00000330: e8dd 123c ada2 243c 92e5 213c 301e 1a3c
00000340: 6259 8fbc 3e9a 903c 5a2f e83c 1bf0 0a3d
00000350: a9ce b83c 5fe9 4e3c 4c1c dcbb 2223 2e3c
00000360: 916e 9abb 4001 8dbc 9073 a9bb 6656 d93a
00000370: 6c8e e23b 829b aa3b 99c5 8a3c 0899 313c
00000380: 0953 823b a3ac a83b 4026 a83c 1197 e73b
00000390: 5462 51bc 3880 683b 297a a73c d625 b4bb
000003a0: 8264 943b c0f1 d1bb 357b e2bb beb4 583c
000003b0: de37 8e3c 18b5 5e3c 2de0 e238 b37a e33b
000003c0: c08f 9a3c d2fa 183c ad39 9abb 9e67 e0ba
000003d0: f0fb fc3b 16e8 dd3c 7ff6 c93b ecbe 413c
000003e0: b22e b7bb c2f1 7a3b df27 d43b 0d5d cc3b
000003f0: d82d b4bc bb66 833c 9a23 0b3c 80fe b4bb
0.0035213984 -0.032833148 0.002812626 0.0018580481 0.00986257 -0.0074138087 0.0014032064 -0.00022926324
0.0039473297 -0.027971245 0.0071829557 0.00014405807 0.01749925 0.014576485 0.0074582966 -0.0122637525
-0.0021402526 0.002825973 0.00060753146 -0.017897042 -0.025721768 0.0043340726 0.006472624 -0.0054561
0.031667974 0.0003057703 -0.0060188337 0.0012803045 0.021161221 0.015376176 0.008161492 0.010603318
0.013376026 0.0065511893 0.0021187807 0.024590991 0.011462351 -0.00075324584 0.003530818 -0.00010351318
-0.0051461677 0.022551695 -0.0009901738 0.026561318 -0.015799293 0.010705293 0.009396478 0.0039126473
0.014304841 0.0063238223 -0.00071047066 0.0077928053 0.0026375926 0.0078225555 -0.0014398254 -0.029917166
-0.006647093 -0.002375716 0.0048504625 -0.0014591481 -0.02345361 0.009181249 -0.03268503 0.008364383
-0.0015996888 0.0041320794 -0.01165137 0.008172993 0.02232617 0.009718151 0.023153065 -0.00013655295
0.019310085 0.012531119 0.016780257 -0.0015883578 5.8327136e-05 0.0007427196 -0.036771588 0.0035990733
-0.034796346 -0.007755636 0.0076683923 0.008991374 -0.013268959 -0.007167986 0.026762072 0.005518418
-0.0010636749 0.021100512 0.015003587 0.0068837255 -0.010621475 0.017793484 0.015744328 0.014240416
0.03472586 -0.0014205138 -0.0046870876 0.008793294 0.0030551814 0.0039537544 0.015712505 0.007648505
-0.0059417114 0.015953077 0.016085986 0.0029037476 0.0025977024 0.006102133 -0.0027946148 0.0033927737
-0.0004149913 0.012933223 0.025465338 0.0061976337 -0.005550139 0.0023418514 -0.018003767 0.0282104
-0.014591654 -0.00014709386 0.0011939632 0.013165432 -0.017257936 -0.009569683 -0.010747892 -0.02036336
0.014658657 0.012114192 0.031016836 -0.003344275 -0.0020677294 0.012063449 0.007429141 0.00898718
-0.0015221129 0.006070444 0.0083944695 -0.025121065 0.0049575972 0.008705352 0.0015648357 0.020515151
0.01595464 -0.0038797916 0.01388748 0.0052528623 -0.011788912 0.010235051 0.0023678425 0.003795135
0.0033906107 0.016219692 -0.00388698 -0.003819009 0.004206768 -0.004431345 0.015972143 0.01969652
0.0068135336 0.012352042 -0.01603745 0.009789169 0.0011702197 0.022777814 0.017108317 0.0046920143
-0.00013103946 0.0021397762 -0.00023340431 0.021548077 0.004981637 -0.0040241443 -0.005852733 0.013158177
-0.0032801968 0.010641296 0.015500331 0.0005109992 -0.007930676 0.037989624 -0.0014059431 0.014710814
-0.0011992762 -0.0023955235 0.0120604355 0.00806156 0.01195476 0.010783079 -0.013029976 0.004133029
0.009840092 -0.035825975 -0.029502997 0.001617297 0.0010149528 0.016564153 0.011629954 0.019133765
-0.0006008645 0.016597154 -0.0003202139 0.005919613 0.008964039 0.010048551 0.009881394 0.009406611
-0.017498676 0.017651673 0.028342891 0.03392039 0.02255948 0.012628882 -0.0067172404 0.0106284935
-0.0047128876 -0.01721251 -0.005171247 0.0016581535 0.0069139507 0.0052065263 0.016939925 0.010839708
0.0039771837 0.005147533 0.020526052 0.007067569 -0.012779791 0.0035476815 0.020443993 -0.0054976745
0.004528583 -0.0064069927 -0.00691166 0.013226686 0.017360624 0.013592981 0.00010818276 0.006942117
0.018867373 0.009337144 -0.0047065825 -0.0017120724 0.007720463 0.027088206 0.006163418 0.0118253045
-0.0055902833 0.0038291072 0.0064744796 0.0062366785 -0.021994516 0.016040197 0.008492375 -0.005523503

network_body._body_endoder.seq_layers.2.weight f4 [256, 256]
00000000: e444 923d d86a edbb 551e c73c 5b32 0ebd
00000010: a557 cc3d 0f35 9d3c f4f7 10bd 96c1 a1ba
00000020: 43c0 f93c 481a bdbd 224e 26bd c7f1 033d
00000030: 85b4 0b3d 2f48 9cbc 8d2f a5bd 2e4e dfbc
00000040: 4ede 0bbd 115e 66bd 3cf0 4fbd 5e51 9bbc
00000050: a98e 8c3c 2074 6fbd dd24 08bd 34d8 c7bd
00000060: 99c0 e1bd 7f4b c4bc 08b2 3a3c 7672 79bd
00000070: dc5c 73bd 761d f73d 4eed 3ebc ba66 0abb
00000080: 35c7 833c 4109 b9bd 6a1e be3d 4bb8 f9bd
00000090: 5353 e33b d8be b1bd 017b 6c3d ac62 f13b
000000a0: 22c6 c93d b311 333b b363 86bd e104 0e3e
000000b0: 6e00 64bd 8885 c2bd 88d7 4abd 15d5 d1bc
000000c0: bf40 51bb 2b9b 363d 7fa6 e5bd 0b67 603d
000000d0: a0a3 d3bd b5b0 153c 8556 c33c edd7 5bbd
000000e0: e183 74bc 3ac0 ccbd 1b1e 2a3d 2f1d 5c3d
000000f0: 8d69 413d cc42 a4bc ddb2 0f3d 8991 943d
00000100: 9c61 0fbe 6efe 153b 37df c6bd 646a a1ba
00000110: 1459 b3bc 774d 0dbc 40ce 3bbc 712b ec3d
00000120: dd13 6d3d 704b e0bd 255b 103d eacf 64bd
00000130: 8a1c eb3d 0b44 713d f91d 843c ee49 c9bd
00000140: b17b 28bd adbf b53b e50d 47bc 9769 163e
00000150: 35a8 a33d 176c 41bd f269 0f3d ca7b 8abd
00000160: 219b 98bb a799 09bc 91e5 2e3c 9bab f53d
00000170: d792 d23c ed80 823c 9567 6bbd 3b0a 193d
00000180: 338f 633c 9eef 4fbd 7184 413d 0b45 223c
00000190: 685b d6bc 2099 74bd 586d a5bc f61e 8b3d
000001a0: 8c7a f5bd 9741 243d e793 8c3c 5651 d1bd
000001b0: cd66 a5bd a068 7abd 2071 02bc e8ba 26bd
000001c0: 04d4 ba3d 2592 583e 423c 43bd 8a9b d13d
000001d0: 458d a6bd cbbf b3bc fe99 43bd c743 313e
000001e0: 9e36 03be 3f57 e3bb 46a2 903c c985 a5bb
000001f0: 9cdc 8a3d 0160 07be 065a b0bd 54e0 8c3c
00000200: cf24 2b3c a37d 76bd edae b33c 8485 a53d
00000210: 702c 8c3d 7bca 04bd 838b e9bd 515e 98bd
00000220: 70af 823d 06e1 56bc 1c37 013e 6da2 563d
00000230: f85f cbbd 551a 9cbd a83c 533d 16ab 613d
00000240: 660d 16be 7cb6 cd3d 485a 53bd 06da a5bd
00000250: fb5e c6bd 09e1 8f3d a2b4 9a3c 766a b43d
00000260: d963 2ebd 4f21 093c 476c 8cbd aaa7 8abd
00000270: 4c8b 1f3d b669 82bd 2f82 09bd ef5b 933c
00000280: 94e8 693d fbaa 49bd 4923 8aba 9ea2 763d
00000290: 6fbb 9a3d 311f 0d3e 4865 5dbe 0561 433d
000002a0: bbb0 593c adfa 0c3c f1f2 88bd 4e32 343c
000002b0: c04f 8fbc 849e 4bbd 1608 923c 7c7c d8bc
000002c0: c2af 4dbd 30aa 0b3b 3aae fb3d d7dc 2c3c
000002d0: ab54 243d af8f dbbc 29a8 eb38 0788 293b
000002e0: 7f9d 57bd 03ab 673c 82ce de3d 048f c7bc
000002f0: 3671 6e3d 6a97 c23c f674 76bd 9804 70bd
00000300: aea6 c23d 0917 8bbd 2891 47bd aa58 8d3d
00000310: 1eab 4ebd 353f 34bc 3a9a 373d 5d2e 153c
00000320: f3be 903c 9ff2 a03d a2c2 8ebd 0b99 9abd
00000330: 1d10 c63c b380 733d 03fb c2bc 73eb 8e3d
00000340: 37dc 393d 6f73 cdbb cd90 3abd 7294 b13d
00000350: cd03 903d f8e1 b13d 5540 c8bb 9da7 d53a
00000360: 1ce8 21bd 5eed 7cbc 7065 61bd 1eca 0a3d
00000370: 67c8 76bd 5c6b 883d faab 96bc ca51 f2bd
00000380: 03ae f6b7 8f72 1bbc b55f 323d 6ff2 fd3c
00000390: 65a4 fb3d ef03 0dbd 9e36 713d 1955 57bc
000003a0: 3ad9 46bc 39a8 2cbd fe80 8ebc 4180 883d
000003b0: 4b90 9e3d 166a c13d 3d7b c2bd cd5d 6e3c
000003c0: 08af 763c 51af 48bc fcbd 30be 63b6 833b
000003d0: b6cf 023a 067e 3f3d 5f31 a1bd 8ae7 52bb
000003e0: dc2a 83bd e48e 39bd 0321 e3bd 728c 89bd
000003f0: ec7a 393d ab61 05be d946 95bc 92ff 05bd
0.07142046 -0.007245403 0.024306456 -0.03471599 0.09977654 0.01919034 -0.035392717 -0.0012341018
0.030487185 -0.092335284 -0.040601857 0.032213 0.034107704 -0.019077389 -0.0806571 -0.027258959
-0.034147553 -0.056242052 -0.050766215 -0.018959697 0.01715787 -0.058460355 -0.03323828 -0.09758034
-0.11023063 -0.02396178 0.011394985 -0.060900174 -0.05941473 0.12066166 -0.0116532575 -0.0021118359
0.0160862 -0.09034968 0.09283145 -0.12193354 0.0069374233 -0.08678979 0.057734493 0.007366499
0.09852244 0.0027323782 -0.06561985 0.13869049 -0.055664472 -0.09498125 -0.049521953 -0.0256143
-0.003192946 0.044581573 -0.11213397 0.05478577 -0.10333943 0.0091363685 0.023844967 -0.05367272
-0.0149240205 -0.09997602 0.041532617 0.05373877 0.0472198 -0.020051382 0.035082687 0.07254321
-0.14002079 0.0022887248 -0.097105436 -0.0012315032 -0.021893062 -0.008624426 -0.011462748 0.11531723
0.05788027 -0.109518886 0.035243172 -0.055862345 0.11480053 0.05890278 0.016127573 -0.09828554
-0.041133586 0.005546531 -0.012149309 0.14688717 0.07991067 -0.047222223 0.035013147 -0.06761892
-0.0046571647 -0.00839845 0.01067485 0.11995622 0.025704784 0.015930617 -0.05747183 0.037363272
0.013889122 -0.050765626 0.047245447 0.009904156 -0.026166633 -0.059716344 -0.02019374 0.06793015
-0.119862646 0.040101614 0.01716037 -0.10220592 -0.08076248 -0.061134934 -0.007961541 -0.04070559
0.0912247 0.211495 -0.04766489 0.10234745 -0.08132414 -0.02194204 -0.04775428 0.17311011
-0.12813804 -0.006937891 0.017655503 -0.005051349 0.06780359 -0.13220216 -0.086109206 0.017196812
0.010445788 -0.06017841 0.021933997 0.08082107 0.06844413 -0.032419663 -0.11403563 -0.074398644
0.06381118 -0.013115173 0.12618679 0.052400995 -0.09930414 -0.0762221 0.05157152 0.0550948
-0.14653549 0.10044572 -0.05159977 -0.08098225 -0.09686085 0.07025344 0.01888496 0.08809368
-0.04257569 0.008369758 -0.0685659 -0.06770261 0.038951203 -0.06367819 -0.03357142 0.017988173
0.05710657 -0.049235325 -0.001053908 0.060213678 0.07555281 0.1378143 -0.21620667 0.047699947
0.013286765 0.008604688 -0.066869624 0.010998322 -0.017494082 -0.04971172 0.017826121 -0.026426546
-0.050216444 0.0021311156 0.122890905 0.010550699 0.04011981 -0.026801912 0.000112369955 0.0025868432
-0.052640434 0.014139893 0.10879232 -0.024360187 0.058213435 0.02375384 -0.060170136 -0.05859813
0.09504448 -0.06791503 -0.048722416 0.06901677 -0.05045616 -0.011001398 0.044824816 0.009105292
0.017669177 0.07858776 -0.06970717 -0.07548722 0.024177605 0.05944891 -0.023801332 0.06978502
0.04537603 -0.0062698643 -0.04554825 0.08670892 0.07031975 0.08685678 -0.0061111846 0.0016300563
-0.039527997 -0.015437452 -0.05502838 0.03388416 -0.060249712 0.06661102 -0.018392552 -0.11832006
-2.9406516e-05 -0.009487762 0.043548305 0.03099939 0.12287215 -0.03442758 0.058889978 -0.013142847
-0.012136752 -0.042152617 -0.017395493 0.066650875 0.077423654 0.094440624 -0.09496162 0.014548731
0.015056379 -0.01224883 -0.17259973 0.004019545 0.0004990058 0.046751045 -0.07870745 -0.0032181465
-0.06404659 -0.045302287 -0.11090281 -0.06716241 0.045283243 -0.13025539 -0.01822226 -0.032714434

network_body._body_endoder.seq_layers.2.bias f4 [256]
00000000: a7a7 383c 1791 2c3c 380d 8e3b 7428 1bbc
00000010: 30dd e23b 22a6 b33b d000 253b 6397 9abb
00000020: 4c32 b43c 3fb8 d13b 6994 24bc e059 253a
00000030: f95d cd3b 5ce9 c33b 3f6f 463b 0133 4a3c
00000040: 2739 423b c778 9dba 1d55 583b c133 243c
00000050: 2df2 9f3c ed6e 50bc 02d8 ed3b e75f d43b
00000060: ac80 873c 41d5 753c 4e47 c53b 1e1f 5ebc
00000070: abd2 a7bb b601 8f3b acda be3c 1b9a 87bc
00000080: f75d f73b 54ba bf3b 0368 edba 1c67 7b3b
00000090: 910b cd3b 3672 56bb cd74 483c fafd 63bb
000000a0: 1a74 c93b ad32 77bb faf3 643c f653 7e3b
000000b0: 3017 9c3c 3142 6eb9 9343 a43b dbc3 933b
000000c0: c4d1 953b 4f14 abb9 6f35 2f3c c9b9 a53b
000000d0: 0108 1e3c 7093 853c 4e38 093b 5644 8d3b
000000e0: 1fa8 033c 2e6b 263c 7499 9fb9 373b a73b
000000f0: 3044 9c3c 437b 7b3c 4e1d 153c be72 92ba
00000100: 2170 293a ce5a ad3b 75cc 5b3c 2b65 563c
00000110: 9fff 833a cc01 3ebc 1aac 0b3c 1889 643a
00000120: 97b3 003b 5b51 733b 284b 2a3b 5cc2 42bc
00000130: 091a 313c 7696 c33a 7683 09bb 60f6 9f3b
00000140: 7a2d 733c d382 133c 55a9 e03a d4e0 133c
00000150: 81b8 f43b c667 a7bc 621f 763c 6467 46bc
00000160: 45cf b4bb 9250 c23c 16fb e8ba 6e12 173c
00000170: 3f08 df3b 9adc b2ba 45e0 43bb 3207 103c
00000180: 1f36 43bb 3c23 463c b574 893c cfdc 823b
00000190: eb94 113c c62d 9f3b d226 bebb 2654 eb3b
000001a0: a9ab 113c 5755 763c b08e 443c 24ca 92bb
000001b0: 455f 813c 9972 d83b b66a 0c3c 72d6 a6bc
000001c0: 8aee ff3a 0fda eb3b 2c70 02bc 0b75 8a3c
000001d0: cac9 b53b b520 27bc e043 a33b 2387 8cbc
000001e0: b0cf f23a e98c 053c add9 3ab9 aab0 f4bb
000001f0: cb08 eebb 962e f0bb d056 0d3c ab3a bf3b
00000200: 6cca cb3b 47f9 9f3b c407 60bc 2e04 413c
00000210: 9aa4 8d3b 76f9 633b f858 0b3c abf2 033c
00000220: e93b 093c 217a 833c 4970 6d3c 1a6f a9bb
00000230: 12e3 10ba 1ead 09bc aa05 c0bb 52c5 753b
00000240: e876 c43a 3330 ed3b 688b e53b 2fa6 083c
00000250: aaa0 303c 788a 223c e9df 38bc 4337 2b3c
00000260: ea57 103c c9b6 2dbb 2f1f 753a dc73 d2ba
00000270: 94d8 8e3b a27d 663c 2d4f 043a 221f c13b
00000280: 8586 5c3c d269 5cbb 49ed 403b 0453 2b3c
00000290: a465 c53b 7e9a d0bb 25c3 56bc 1a2f a53b
000002a0: 6e3a 083c f83d 093c 45ee 673c 0242 4abb
000002b0: 69e3 033c 4e3d caba fb95 8239 bbb2 513c
000002c0: f2a1 2fbc 909d 803c ab14 97bc cf5d 593b
000002d0: 4dee a4bb 207a 573c dff0 553a 5256 5dbb
000002e0: 3628 3bbb e067 2bba af50 6b3c 7f42 7b3b
000002f0: 0209 48bb 9922 123c 955f 953b 9568 5e3c
00000300: 3a40 583c ed1a 2cbb a24f 873b d4bd 8cbb
00000310: 2140 5e3b 2b47 003c cd5b e93a 15ad dc3c
00000320: 0fb1 8e3c 2e28 37bc 5ded 513b 3b88 7e3b
00000330: f755 fc3b 257d 8abc 667b d13b 767f 85bc
00000340: af72 1f3c 62fe b43a bb87 063c 1d10 1d3c
00000350: 1e18 893c 59e1 89bc 420d b53a a804 693b
00000360: 24c7 8f3c bda9 63bb e0d1 59bb 92f0 aa3b
00000370: 062f 453c d3de 1a3c 8877 9e3c 924f 3c3c
00000380: 32db 093b b931 483c 5fc4 0e3b aafc e0bb
00000390: c8aa 1abb 789c 293c c190 4c3c 9c81 683c
000003a0: d5ad 853b 1744 0b3c 312c 2dbb 7e65 fd3a
000003b0: b459 cbbb 0c3b 0d3c c354 a13c 6278 cb3b
000003c0: 2d93 22bb d722 a73a 2a06 343b 6571 5ebc
000003d0: 1933 03bc 17d8 63bc 49a1 89bb 8306 0abc
000003e0: ec2b 933c 4494 9d3a ae34 103c 14df 85bc
000003f0: 4b71 0f3b cc18 2abc 6d1d 833b c33d 52bb
0.01127044 0.010532639 0.004335072 -0.009470094 0.0069233403 0.005482451 0.0025177486 -0.0047177537
0.02199664 0.0064001377 -0.010045149 0.0006307643 0.006267306 0.0059787463 0.003027871 0.012341262
0.0029636116 -0.0012014144 0.0033009716 0.010022105 0.019524658 -0.012721759 0.007258416 0.006481159
0.016540848 0.015004457 0.006020463 -0.013557224 -0.005121549 0.0043642176 0.02329763 -0.016552975
0.0075490433 0.0058510695 -0.0018112663 0.0038361019 0.0062574823 -0.0032721884 0.012234879 -0.0034788833
0.0061478736 -0.0037719414 0.013974184 0.003880737 0.019054025 -0.00022722107 0.0050129383 0.004509432
0.004572125 -0.00032630793 0.010693892 0.0050575477 0.009645463 0.016305655 0.0020938101 0.004311125
0.008035689 0.01015739 -0.00030441175 0.0051034945 0.019075483 0.015349212 0.009101225 -0.0011173112
0.0006463547 0.005290366 0.013415446 0.013085644 0.0010070688 -0.011597108 0.008524919 0.00087179383
0.0019638294 0.003712735 0.0025984738 -0.011887159 0.01080943 0.001492216 -0.0020982898 0.004881665
0.014842385 0.009003359 0.0017140309 0.009025771 0.0074682836 -0.020435225 0.015022131 -0.012109611
-0.0055178725 0.02372006 -0.0017775025 0.009220703 0.006806403 -0.0013646067 -0.0029888314 0.008790778
-0.0029786897 0.0120933615 0.016779283 0.0039936076 0.0088856025 0.0048577515 -0.0058029676 0.007181662
0.008891025 0.015034995 0.01199691 -0.0044796634 0.015792498 0.006605458 0.008570364 -0.020365927
0.0019526046 0.0071976255 -0.007961314 0.016901514 0.005547737 -0.010200669 0.0049824566 -0.017154282
0.001852503 0.008151271 -0.00017819433 -0.007467349 -0.007264232 -0.007329772 0.008626655 0.005835851
0.006219199 0.004882011 -0.0136737265 0.011780782 0.0043226006 0.0034786141 0.0085050985 0.008053462
0.0083761 0.016049447 0.014492103 -0.005170715 -0.0005527 -0.008403091 -0.00586005 0.0037501645
0.001498905 0.007238412 0.007005144 0.0083404025 0.010780493 0.009920709 -0.011283853 0.010450187
0.008810023 -0.0026506654 0.0009350655 -0.0016056257 0.004359314 0.014068039 0.00050471985 0.005893604
0.013459806 -0.003363241 0.0029438308 0.010456804 0.0060240794 -0.006366073 -0.0131080495 0.0050410153
0.008314712 0.008376591 0.014155929 -0.0030862098 0.008049824 -0.0015429647 0.00024907276 0.01279896
-0.010719763 0.015700132 -0.018442472 0.0033167487 -0.0050332905 0.013151675 0.0008161198 -0.0033773375
-0.0028557903 -0.0006538611 0.014362498 0.0038339195 -0.0030522947 0.008919382 0.0045585134 0.013574739
0.013198907 -0.0026261166 0.004129366 -0.00429509 0.0033912736 0.007829468 0.0017803848 0.026938
0.017418412 -0.011179013 0.0032032349 0.0038838524 0.0077006775 -0.016905377 0.006392884 -0.01629613
0.009731933 0.0013808722 0.008211072 0.009586361 0.016735133 -0.016831087 0.0013813155 0.0035555754
0.017551012 -0.0034738623 -0.0033236668 0.0052166665 0.012035137 0.0094525395 0.019344106 0.01149358
0.0021035192 0.012218886 0.0021784527 -0.0068660574 -0.0023600329 0.010352246 0.012485684 0.0141910575
0.0040795603 0.008500121 -0.0026424045 0.0019332615 -0.006205762 0.008620035 0.019693738 0.006209419
-0.0024806962 0.0012751472 0.0027469494 -0.01357684 -0.008007788 -0.0139065 -0.004200135 -0.008424404
0.01796528 0.0012022336 0.008801622 -0.016341724 0.0021887596 -0.010381889 0.0040013106 -0.003208027

network_body._body_endoder.seq_layers.4.weight f4 [256, 256]
00000000: c4fd 823d 3cc8 6bbd 5adb b93c 574b 6bbd
00000010: 6b60 153e 7d78 7dbd 803b 69bc 9c6d b03d
00000020: 9550 8abd ade5 9b3c b0c9 953b 6a03 c6bc
00000030: ce79 df3c 9c39 fb3a 44d5 a9bd 62a6 bd3d
00000040: 639d b2bd 8a3c 8bbd 79c7 613d ec00 07bc
00000050: 4c60 30bd 430e 2f3d 51d2 973d be4f ad3d
00000060: 9e26 703d dc84 7e3b 8614 9b3d 9731 65bd
00000070: a69a e33b 208d 44bd ac59 7fbd e1e6 223e
00000080: c5e4 403d 7bfb 713d 7dc5 1bbd 9bad 15bd
00000090: 940c bdbd 1639 1dbe 4f35 733c d061 71bc
000000a0: 30a9 9bbd 1ab0 95bd 5711 313c 648e 01bd
000000b0: c9c5 19bd 5de0 9a3c 3ac5 86bc 0065 e1bd
000000c0: 69ed 803c a120 043d 4dc7 743d dcce c43d
000000d0: 20c4 09bd f9f2 1cbd 8c0e 1b3c c4f1 b03d
000000e0: 8456 a03d 8719 533d 0888 4bbd 0f70 8dbd
000000f0: 3cbf 9bbd 9d51 143d 8f11 663d 3b13 0ebd
00000100: e1a7 eb3b 86d2 55bd f58f d23c e0a2 963d
00000110: c3f3 0a3e a51a 1bbd 6a91 8dbd 3a2e debd
00000120: 6077 01bb 7479 533d 19b8 3b3d 34a3 a5bd
00000130: 4089 a3bd ec3d 7a3d 290a c5bd 3716 0d3d
00000140: b09f 80bd a8aa 11be c57c df3b 3c7e 6b3d
00000150: 794c fe3c 3592 de3a 34e0 7c3d 87fc b53d
00000160: 0468 12bd a4b8 cebc b63b 88bd 1143 00bd
00000170: 7439 0a3d 3e41 aabd 2869 6ebd 4ad2 a23d
00000180: 80dc e63d fc93 8c3d f5a8 0cbd 5f38 8bbd
00000190: 8d95 54bd 0205 b93c 54c3 4ebc 9810 933c
000001a0: 11da 083d 3f4d 9b3c 6eb9 643d 77d7 37bd
000001b0: 915e 883d e974 eebd 95c7 9dbd 0808 533c
000001c0: 627d a93c 7db4 5f3d 6c7e 6a39 9e6a 593d
000001d0: a6d8 17be a979 00be d2b5 85bb 0e10 f8bd
000001e0: 4d6a e43c df58 b6bc 0471 b5bc 27e7 86bd
000001f0: b033 3c3d 0a26 25be 881b 46bc 8bc3 263d
00000200: a176 38bd 0b61 073d 5867 6cbb 6bd6 5b3c
00000210: 73a9 693d e713 833c 9872 833d c5a6 b63d
00000220: 8839 f4bc 62d7 8d3d 166e c03d cadf 1f3d
00000230: 7362 bfbd b6fe dfbd 0c55 21bd 9319 39bc
00000240: f24c ebbd d925 753c a9db c53c 8b88 4c3c
00000250: f7f2 ff3d e299 fdbd 20cf 86bd 627e 513b
00000260: 5fb7 91bd 8df7 bc3d 63f5 363a 38ed 8abd
00000270: edad 603d 3608 0abe 75b5 663b 9da4 20be
00000280: 14ff da3d a0b4 063d ee5d c1bd bc61 b73c
00000290: f89c 92bd 7203 a83d bfe1 9abc 09d8 f53c
000002a0: 5345 ac3b 28e6 2b3c 49c9 b53c c5a4 81bd
000002b0: 6ed8 14bd c4c9 a13c e29f 193c cf53 033d
000002c0: ca60 92bc cc61 733d 1069 cd3d 18b2 f5bc
000002d0: f256 94bd 9d4a 1fbd 1b24 323d 313a adbc
000002e0: c957 b33c 3769 1bbd b95e fa3d 1997 84bd
000002f0: a88b 44bd d417 14bd 290f 3b3c 5a7f 00be
00000300: 0901 78bd 48de c5bc 296f c13c b90f c4bd
00000310: 8a18 a1bc 5bdc 283a 5526 e33c 5e67 473d
00000320: 3875 9c3c 780f 5f3d 0763 bc3d 52e2 993d
00000330: 42f4 98bd a59c bbbc 5232 4cbd 604b b8bd
00000340: f5cf 84bc 919b 6c3c 4360 a83c 629f 223d
00000350: 4c91 59bd b927 5fbd c688 683d 1177 c63d
00000360: 81ca c03d 7e7c 593d 4f19 9fbc 0600 cdbd
00000370: 071f 67bd 38dd 8d3a 1c3e 9abc b259 7e3b
00000380: c77d 6dbd 789e a33d 64f6 89bc 4b59 b3bd
00000390: 543d 4a3d 1a95 333c 6f89 43bd b73b 383d
000003a0: 6670 87bc 885b 7c3d 22be d2bc d339 8dbd
000003b0: c762 b93d 20cd 3ebb 8960 933d f48e cdbd
000003c0: 2d05 8ebd 03aa 1cbb f9fe 4739 fb13 a5bb
000003d0: f4d3 b4bd 9d0e 2b3d eaac f7bd 2cea 6b3d
000003e0: f2cb 20bd 38f5 d5bd 68c4 743b f511 00be
000003f0: 0d59 d7bc 7db1 01bd 2e1a 9ebd e4c1 21bd
0.06396058 -0.057564005 0.022687603 -0.057444897 0.14587562 -0.061882485 -0.014235377 0.08614656
-0.06753651 0.019030416 0.004571162 -0.02417155 0.02727976 0.0019166949 -0.0829263 0.09260251
-0.087214254 -0.06798656 0.055121873 -0.008239966 -0.043060586 0.04273821 0.074131615 0.08462475
0.05863058 0.0038836515 0.07572274 -0.055955496 0.0069459258 -0.04798615 -0.062341377 0.15908386
0.04709317 0.05907772 -0.038030136 -0.036542516 -0.09230915 -0.15353808 0.014844253 -0.014732793
-0.07600629 -0.07308979 0.010807357 -0.031629935 -0.03754214 0.018905813 -0.016451467 -0.11005592
0.015738206 0.03225768 0.05976038 0.09609768 -0.033634305 -0.038317654 0.009463917 0.08639863
0.078290015 0.051538017 -0.049690276 -0.06906139 -0.076048344 0.036210645 0.05616909 -0.03468631
0.0071916436 -0.052202724 0.02570341 0.07355285 0.1356955 -0.037867207 -0.06912501 -0.10848661
-0.001975499 0.0516295 0.045829866 -0.08087769 -0.07985163 0.06109421 -0.096210785 0.034445014
-0.06280458 -0.14225256 0.0068202936 0.057493433 0.031042324 0.0016980829 0.061737254 0.088860564
-0.03574373 -0.025234528 -0.06652014 -0.03131396 0.033746198 -0.08313225 -0.058205754 0.07950266
0.11272526 0.06864163 -0.034340817 -0.06797861 -0.051900435 0.022585396 -0.012619812 0.017952248
0.03341109 0.018957732 0.055840902 -0.044883218 0.06658662 -0.116433926 -0.07704083 0.012880333
0.02068967 0.054615486 0.00022363075 0.053080194 -0.14828739 -0.1254641 -0.0040805126 -0.12112437
0.02788272 -0.022259174 -0.022148617 -0.065870576 0.04594773 -0.16127792 -0.012091525 0.040713828
-0.04503501 0.03305153 -0.003607234 0.01341782 0.057046365 0.016000701 0.064183414 0.089185275
-0.02981259 0.06925847 0.09395997 0.03903178 -0.093449496 -0.10937254 -0.039387748 -0.011297601
-0.114892855 0.014962637 0.024152594 0.012483726 0.12497514 -0.123828664 -0.06582475 0.00319662
-0.071150534 0.09226904 0.00069793145 -0.06783527 0.05485337 -0.13479695 0.0035203372 -0.15687795
0.106931835 0.0328871 -0.09441744 0.02238547 -0.07158846 0.08203782 -0.018906472 0.03001024
0.0052572875 0.010491885 0.022190707 -0.063302554 -0.036339216 0.01974953 0.009376498 0.032062348
-0.017868418 0.05941944 0.10029805 -0.029992148 -0.07243146 -0.038889516 0.043491464 -0.021145912
0.021892445 -0.037942138 0.12225098 -0.06474132 -0.04798475 -0.036155537 0.011417189 -0.12548581
-0.060547862 -0.024153844 0.023612576 -0.09573311 -0.019665021 0.0006441527 0.02772824 0.048682563
0.019098863 0.05445811 0.091985755 0.0751387 -0.074684635 -0.022901842 -0.049852677 -0.08998752
-0.016212443 0.014441387 0.020553714 0.03970278 -0.05311708 -0.05448124 0.056771062 0.09690679
0.094136246 0.05309724 -0.019421248 -0.1000977 -0.056426074 0.0010823375 -0.018828444 0.0038810787
-0.05798128 0.0798921 -0.016841121 -0.08757266 0.049374893 0.010960842 -0.04773849 0.044978824
-0.016533088 0.06161073 -0.025725428 -0.06895795 0.090520434 -0.0029113963 0.07196147 -0.10037032
-0.06934581 -0.0023905046 0.00019073104 -0.0050377822 -0.08829489 0.041761983 -0.120935276 0.05759637
-0.039256997 -0.104471624 0.0037348513 -0.1250685 -0.02628758 -0.031663407 -0.07719837 -0.03949155

network_body._body_endoder.seq_layers.4.bias f4 [256]
00000000: 9855 b5bb d516 913a ac46 363c b356 f73a
00000010: 324b 4e3b 0c23 653c a6f1 843c 1411 ac3b
00000020: 9834 853c 59cf 493b be46 2a3c d7fb 21bc
00000030: 8d84 8f3c 6a7e abbb eaa5 353c a3e2 993c
00000040: 5055 c3bb ef86 503c 4610 6cbc 90f7 563b
00000050: aac4 29bc 4aac 7abc 7c9a 5b3b a1ae e4bb
00000060: 6aff 2b3c 6793 943b 1b2f 65bb bceb 8a3c
00000070: e627 d8b8 34e6 47bb 9ec7 12bc 49e2 afbb
00000080: 0bc9 a6bc 2306 c13b 86b0 533c 5ea9 883b
00000090: 0fa6 243c 0e6b 4f3c 949a 243c 5e83 7ebc
000000a0: cbca 3e3c 5dd1 183c 908e 23bc 5bc4 5e3c
000000b0: d056 9f3c 0d3c 893b 64a0 2a3c b459 6dbb
000000c0: 23cd 2f3b dac5 033c a6d4 983c dede 0a3b
000000d0: 12df 1f3c f2d6 a83b 7a84 0bbb 8e93 0a3c
000000e0: 6026 aa3b 70c9 81bb 8dd9 5f3b 8bbb 5e3c
000000f0: ab49 533c ca40 caba dc67 d7bb c288 a33b
00000100: 06fd 833c f77b d03b 7978 67bc 0b41 5bbc
00000110: b323 81bc 2f56 023d 158b 14bc a7bd 9a3c
00000120: 9836 b23b 5f4b ab3c 212b e4bb 63fb 5c3c
00000130: 9b45 b3ba 60c0 a43b 92a9 873b c06f 333a
00000140: 0320 13bc 7401 9e3b 8702 08bc 8572 b83a
00000150: cd07 87ba 18c9 c93b a84c 91bb a48f 8b3c
00000160: 1381 b6bc aede 343b b676 79bb b7d5 93bb
00000170: f7fb 21bc 8ed0 ab3b f6a6 793b 4a53 a4bb
00000180: 71c4 65ba a4bc 3d3c eeab 54ba 5b38 aebb
00000190: f9a3 9bba 8ba2 203b 585f 553c cc2c 5a3b
000001a0: cb12 a73b 2c82 f93c 99ac 3c3c 84fa 013c
000001b0: 08a6 fc3b 704a 803b 0ec8 20bc 0ec0 333c
000001c0: 8a3e 97bb 367e bebb 6980 78ba 7206 1a3c
000001d0: f09d 163c 4e7e e4ba 024d 453c 6839 883c
000001e0: afa2 80bc 8b05 343c d18e 5c3b 240a c4bc
000001f0: cd35 eabb 7569 82ba 72a1 18bc b32d fcbb
00000200: e2f6 453b ef99 ac3c 6e3a d5bb deb1 043c
00000210: f2ed 213c c312 a33c 1501 e03b e4b5 c0ba
00000220: d6c9 14bb f328 c03b 719c ab3b 2d87 d6bb
00000230: 8373 80bc 0feb fc3b 9629 cfbb b383 3dbb
00000240: 908f 903c 4088 40bc dfbe 6ebb 4705 c7bc
00000250: c3b3 a9bb 8605 3ebb 17bd 413b 2d47 e23a
00000260: f20a fc3a 9abe 053b 23a0 06bc d18d 393b
00000270: 6e08 a23c e7e3 913b d913 113d 2d43 e73c
00000280: 0205 2a3c 7399 7fbb d608 403a ea93 9abb
00000290: 979b f3bb 48b1 fd3b bd55 2f3c b55c 0abb
000002a0: f87f 17bb 048c fbba a3da babc 5c07 983b
000002b0: 1052 2a3c 5dd5 893b 4457 68bc 31fa de3b
000002c0: 1231 d93c 59a1 c8bb cd9e 4abb 00d7 23bc
000002d0: 4aaf a4bb 6507 acbb 53cd af3b e8a0 babb
000002e0: be9d 28bb a870 90bb 5fe6 b7bb f2a2 cd38
000002f0: 8955 17bc 05e9 ee3b 86e8 0cbc c1ac 20bc
00000300: 200a ffbb 7d34 883b 7e8a 663c d6e6 283c
00000310: bcd8 273c b101 a13b e95a 2e3b ab3c 043c
00000320: 89dc 683b 8be0 673c edb4 613c ea51 5c3b
00000330: b901 1ebc 92a9 84bc 796c 5dbc 7289 653b
00000340: bcaa 833c 7417 bf3a b9d4 0e3c ef7a 8c3b
00000350: 5dc8 813b 1657 acba 0214 39bb cdc2 993c
00000360: 1a4a 813c 8ba5 89b9 74d9 b43b 785b ddba
00000370: a674 bdbb c9b0 b5bc 5166 843b 3414 8c3c
00000380: 5753 6a3c 2553 84bb f618 9e3c b9af aa3b
00000390: 513f 86bb 44e4 1dbc 0772 383c d0b1 583c
000003a0: 2672 a13b 4d33 ca3c 83ee 3f3c b569 903c
000003b0: f85c 1a3b 7b03 093c 02f3 0bbc 878b 9e3a
000003c0: 30f0 803c ac2c 8e38 7993 90bc 48b8 cabb
000003d0: 8113 5f3c e17a a3bc ed2c bc3c ee23 603c
000003e0: 36a6 363c fd00 8ebb 2eef 23bc 08ff 293b
000003f0: 3b0e 46bb c675 0f3b 5c1c 963b 8f7c 28bb
-0.005533885 0.0011069427 0.011125248 0.0018870443 0.0031477925 0.013985407 0.016228508 0.0052510593
0.01626043 0.0030793755 0.010392843 -0.009886703 0.01751926 -0.0052335756 0.01108692 0.018784827
-0.005961098 0.012727483 -0.014408177 0.0032801367 -0.01036183 -0.015299866 0.0033508828 -0.006978825
0.010497907 0.0045341733 -0.0034970704 0.01695811 -0.00010307114 -0.0030502202 -0.008958725 -0.0053675515
-0.020359537 0.005890624 0.012920504 0.0041705808 0.010049357 0.012659801 0.01004662 -0.01553425
0.011645029 0.00932726 -0.00998272 0.0135966195 0.019450575 0.004188067 0.010414217 -0.0036216797
0.0026825152 0.008042777 0.018656086 0.0021189968 0.009757774 0.0051525766 -0.002128868 0.008458031
0.005192563 -0.003960781 0.003415677 0.013594518 0.012895982 -0.0015430686 -0.0065736603 0.004990668
0.016111862 0.006362434 -0.014127844 -0.013382207 -0.015764093 0.031820472 -0.009066363 0.018889261
0.005438637 0.020909963 -0.006963149 0.01348767 -0.001367736 0.0050278157 0.0041400874 0.000684496
-0.0089798 0.0048219506 -0.008301384 0.0014072215 -0.0010302007 0.0061580054 -0.004434187 0.017036267
-0.022278344 0.0027598548 -0.0038065142 -0.004511561 -0.009886733 0.0052433675 0.0038093901 -0.0050148116
-0.0008764929 0.01158062 -0.0008112778 -0.0053167767 -0.0011874429 0.0024510946 0.01302322 0.0033290861
0.005098676 0.030457579 0.01151576 0.007933263 0.007710222 0.0039151236 -0.009813322 0.010971082
-0.0046156095 -0.0058133854 -0.0009479584 0.009400951 0.009192929 -0.0017432661 0.012042286 0.016628936
-0.015702574 0.01098765 0.003365446 -0.023930617 -0.007147527 -0.0009949642 -0.009315835 -0.0076958775
0.0030206968 0.021069495 -0.0065072095 0.0080990475 0.009883391 0.019906407 0.0068360665 -0.0014702645
-0.0022703311 0.0058642565 0.005237155 -0.006546876 -0.01568008 0.007718451 -0.006322096 -0.002891761
0.017646581 -0.0117512345 -0.0036429686 -0.024294509 -0.0051789 -0.0028994991 0.002956217 0.0017263644
0.0019229336 0.0020407797 -0.0082168905 0.002831329 0.01977941 0.004452217 0.03541932 0.028230274
0.0103771705 -0.0039001375 0.00073255354 -0.0047173398 -0.0074343192 0.007742081 0.010701594 -0.0021112387
-0.0023117047 -0.0019191508 -0.022809332 0.004639549 0.010395542 0.004206343 -0.014180962 0.0068047275
0.026512656 -0.0061227498 -0.0030917407 -0.00999999 -0.005025779 -0.005249905 0.0053650527 -0.005695451
-0.0025728787 -0.004407961 -0.005612179 9.805513e-05 -0.009236702 0.0072909617 -0.00860036 -0.009806813
-0.0077831894 0.0041566477 0.014071105 0.010308942 0.010244545 0.0049135317 0.002660448 0.008071105
0.003553184 0.014152656 0.013776046 0.003361816 -0.009643965 -0.016194139 -0.013514631 0.003502455
0.016072623 0.0014579133 0.008717709 0.0042871158 0.0039606527 -0.0013148512 -0.0028240685 0.018769646
0.015782405 -0.00026254015 0.0055190865 -0.0016888222 -0.005781728 -0.022179024 0.0040405174 0.017099477
0.014302096 -0.004038232 0.019299012 0.005208936 -0.0040969034 -0.009636942 0.011257655 0.013225988
0.0049269376 0.024682665 0.0117145805 0.01762853 0.002355395 0.008362646 -0.008541824 0.0012096026
0.01573953 6.7794084e-05 -0.017648445 -0.006186519 0.01361549 -0.019956054 0.022970641 0.013680441
0.011148026 -0.004333614 -0.010005755 0.0025939364 -0.0030220884 0.0021890267 0.0045810174 -0.0025709008

action_model._continuous_distribution.log_sigma f4 [1, 20]
00000000: 4863 37bd 2c71 9bbd e3cd e8bd 3b88 47bd
00000010: 2879 64bd f7ee 52bd 1339 6cbd a17e 6bbc
00000020: 7b94 e2bd c817 a9be 937a b4bd d0fe eabb
00000030: 11b3 08bd 03da 30bd 81cd f0bc b09b 59bd
00000040: f92b 71bd 3ca1 763c cdbd 22bd fb10 a2bd
-0.044772416 -0.07589945 -0.11367395 -0.048713904 -0.055779606 -0.051497426 -0.057671618 -0.014373452
-0.11063477 -0.33025956 -0.08812442 -0.0071714893 -0.033373896 -0.043176662 -0.029394867 -0.05312699
-0.058879826 0.01505309 -0.03973179 -0.07913395

action_model._continuous_distribution.mu.weight f4 [20, 256]
00000000: b955 05bd 7d20 383b 731e 653b 3bb9 0f3d
00000010: f1f4 0ebc 5ec2 873c ab9d 8dbd 5d38 2abd
00000020: 703b 763c 9c81 e6bb 6767 c1bb aa46 933b
00000030: 51f5 ea3a b539 5cba 7aa9 0fbc eea1 8e39
00000040: 56fe 2f3c 38a1 29bc 1a50 b43a bf3c 263d
00000050: 3d57 293c 4454 76bc 483a 2bbd 3e07 893c
00000060: 37af b03d ac3d 46bc 4f43 e5ba 5006 313c
00000070: 3eaa c2bc d84d 833c 7777 b7b9 ab29 2c3c
00000080: 7793 81bc e308 503d 8695 afbc c8e9 e4ba
00000090: 52f1 963c 06ad 6b3c c4d9 ef3b d977 97bc
000000a0: 13aa d93c dd17 fd3b 2929 2f3c a5df 88bc
000000b0: 1595 86bb 60da abba 864e 323c c88f 4e3c
000000c0: 1e3e 453c 0108 eabc be84 f7bb 774a ef3c
000000d0: dc76 0dbc 275b 663c d779 08bc 6e50 863c
000000e0: 1504 91bc 5cb1 06bc 7571 51bc c4fb ba3a
000000f0: f118 903c 58e5 80bc 07cd 88bc fb28 003d
00000100: 424c 113d 9c4d 953c bfc7 c7bc 7c8f 453c
00000110: 45c0 cc3c dfa9 c6b9 390c 403c 1885 413c
00000120: f756 313d 4bdc 1cbd 16e1 9bbc b4f3 22bd
00000130: 9402 31bc 367f 863d 2070 6b3c e556 e2bc
00000140: 0f41 dfbc 47e8 0f3c 4134 89bb 057e 3e3d
00000150: 7217 573d 21a5 34bd d22c bebc ff91 193c
00000160: 8fd2 e2bb 1112 c6bb 733e 8b3c 6b91 68ba
00000170: 8ea5 013d 6445 e23b f29e 64bd 00d7 5bbc
00000180: 4086 5abd b727 503d 92cb ff3b 4c37 353c
00000190: e2c9 47bc 8da4 953c e0c3 69bd 219b a6bb
000001a0: bd7f 9cbc 2fc3 4d3c a99d ef39 0920 5bbc
000001b0: a174 993a 1ab6 1ebb 18e1 d3bc 321d b3bc
000001c0: 4cee 0b3d 2f02 ad3b ae37 01bd 962c bb3a
000001d0: 09b8 02bd fd8a 0e3d cee2 153c f860 06bd
000001e0: 9d1f b3bc 9ad3 1ebd 7844 1fbd badd 21bc
000001f0: 0194 8ebc 480f 6abc 94e3 133d 0070 0a3c
00000200: 8811 143d 7869 2bbd e68a b5bc 27b1 0abc
00000210: 865b 343c c55e 28bd 0785 12bd dddd 5e3c
00000220: 92be 563b 4c98 173c afb5 cebc e377 a73b
00000230: d288 f83c d92c d6bc a078 0f3c 3720 beba
00000240: 68fa 293d 82cd 253c 9bb6 ea3c 1851 933b
00000250: 2177 51bc 9d37 b4bc 9e47 aa3a 8d5e 313c
00000260: d3ff 753c 6ae8 f33c 44f6 3dba d571 9fbc
00000270: 3412 1dbd a56c 5abc d6fd 6ebc ce5d b3bc
00000280: fb29 86bb 9c08 243d 9339 1b3c 3fa1 35bb
00000290: 2fa6 013c c2ed 2fbc 64a5 21bd 8cd9 153c
000002a0: 193d 3cbc ec31 5fbb 6240 da3b f8e2 ccbb
000002b0: 4610 7cbc 4491 e5b9 9d74 e1bb a349 27bd
000002c0: 71b2 b23c cde4 00bd c50c 44bd 7890 cebb
000002d0: 86b6 0ebd 0d61 5fbc dfda 4f3d e8c3 57bc
000002e0: 207b 973c a89b 943c a03f a03b f3bb eebc
000002f0: 228d ed3c bbdb 8ebc e9ee 183d 5c05 61bb
00000300: 0d21 e7bc a91a a3bc c7c5 93bc a27c 783c
00000310: 0857 8e3d 25ed 19bc ec1d a3ba 9499 00bd
00000320: fce2 8e3d 5ef7 d8bc c064 e93b f6be 05bd
00000330: c67f fa3c cc4f d93c ab44 13bc b43c e53c
00000340: 9393 2fbc dbce 853b 0d30 393c 8a97 1ebc
00000350: 887c 523d b742 90bc e140 33bb 2ff7 d5bb
00000360: d893 35bb 11fb c33c dde5 c1bc 63b4 4fbc
00000370: 3e3a 53bb 5e21 af3c 1d2e 0fbd 786b 053d
00000380: cdb3 36bb a096 37bc 285a eebb 9495 c73c
00000390: 345a aabc e852 bd3c 303b 68bc 3696 da3b
000003a0: 12e3 883b 53a6 88bc 6115 c03c 393b 913c
000003b0: 9ebd ce3c 2d18 1bbc abb5 21bc 53b8 dcbb
000003c0: dca4 dbbc d216 04bb 01f9 a63c 8b98 0d3c
000003d0: 8d34 803d f7ba a4bb 32c8 1abd 1e4e 49bc
000003e0: de0d eebb f7d5 d53c b1b6 403a bf4d 5b3c
000003f0: 80c8 1abc 19ea 95bc 4189 8b3d 868c 473d
-0.032552455 0.0028095536 0.0034960776 0.03508876 -0.008725391 0.016572174 -0.069148384 -0.04155766
0.015028819 -0.0070344936 -0.005902219 0.004494508 0.0017925893 -0.0008400933 -0.008768434 0.00027204998
0.010741791 -0.010353379 0.0013756782 0.040585276 0.010335741 -0.015034739 -0.04180363 0.016727086
0.086271696 -0.012099665 -0.0017491373 0.010804728 -0.023762818 0.01602833 -0.00034993488 0.010507981
-0.015817387 0.050789725 -0.021433603 -0.0017464692 0.018425617 0.014384514 0.007319661 -0.018489765
0.026570356 0.007723792 0.010690966 -0.016708205 -0.0041071274 -0.0013111345 0.010882979 0.012607522
0.012038736 -0.02856827 -0.007553666 0.029210312 -0.008634295 0.014059818 -0.00832983 0.016395774
-0.017702142 -0.008220997 -0.012783398 0.0014265706 0.017590018 -0.01573436 -0.016699327 0.031289082
0.035473116 0.018225484 -0.024387239 0.012058135 0.024994025 -0.00037892067 0.011721664 0.011811517
0.043295827 -0.038296025 -0.019028228 -0.039783195 -0.010803837 0.06567232 0.014369994 -0.027629325
-0.027252702 0.008783407 -0.0041871374 0.0465069 0.052512594 -0.04410279 -0.023214731 0.009373187
-0.006922073 -0.006044634 0.016997552 -0.00088717666 0.031652026 0.0069052447 -0.055815645 -0.013417959
-0.053350687 0.050819125 0.00780625 0.011060547 -0.012194129 0.01826694 -0.057071567 -0.005084411
-0.01910388 0.012558742 0.00045703098 -0.013374337 0.0011707732 -0.0024217428 -0.025864169 -0.021864507
0.034162804 0.0052798013 -0.03154724 0.0014280255 -0.03191379 0.03480052 0.009148313 -0.03280732
-0.02186566 -0.038776018 -0.038883656 -0.009879524 -0.017404558 -0.01428587 0.036105707 0.008449554
0.03614953 -0.04184863 -0.022160958 -0.008465088 0.011008149 -0.041106004 -0.035771396 0.013602701
0.0032767397 0.009252619 -0.025233118 0.005110727 0.030338679 -0.026144432 0.008756787 -0.001450545
0.04149857 0.010119798 0.028651526 0.004495751 -0.01278475 -0.021999175 0.0012991314 0.010825765
0.0150146065 0.02977391 -0.0007246474 -0.019463459 -0.038347438 -0.013331567 -0.014586886 -0.021895315
-0.00409436 0.040047273 0.009474176 -0.0027714518 0.007913156 -0.010737838 -0.03946437 0.0091461055
-0.011489176 -0.0034056855 0.006660507 -0.0062526427 -0.015384739 -0.00043786515 -0.0068803565 -0.04084171
0.021813603 -0.0314682 -0.04786374 -0.006303843 -0.034842037 -0.013633979 0.05074584 -0.013169266
0.018491328 0.018140629 0.004890397 -0.029142356 0.028997961 -0.01743876 0.037337217 -0.003433547
-0.028214002 -0.019910173 -0.018038644 0.0151664335 0.06950194 -0.009394919 -0.001244483 -0.031396464
0.069768876 -0.026485141 0.007122606 -0.032652818 0.030578505 0.026527308 -0.00898854 0.027983047
-0.010716337 0.004083497 0.01130296 -0.009679684 0.051388294 -0.017609937 -0.0027351903 -0.0065297107
-0.002770653 0.023923429 -0.023669178 -0.012677285 -0.003223076 0.021378215 -0.034956086 0.032573193
-0.0027878166 -0.011205345 -0.007273931 0.024363317 -0.020794965 0.023110822 -0.014174268 0.0066707386
0.0041774595 -0.016680872 0.023447694 0.017728435 0.0252369 -0.009466213 -0.009869973 -0.0067358403
-0.02681201 -0.0020155204 0.020382406 0.008642326 0.06260023 -0.0050271708 -0.037788577 -0.012286691
-0.0072648367 0.026103003 0.0007351442 0.013385235 -0.009447217 -0.018300103 0.068132885 0.048717998

action_model._continuous_distribution.mu.bias f4 [20]
00000000: 6fd2 41bc 1689 19bb d659 983c d5c3 6f3b
00000010: 7d8f 00bc 8d2b 9d3a fc6a 8fbc 3e72 90ba
00000020: cf59 123c 902d 12bb 4088 c2bc 015f ee3a
00000030: 8347 f33a 3a34 66bc d35b 3f3c 5fd5 7fbb
00000040: f9ad 4b3c fc8d 0dbc 509b c0bb 1820 ddbb
-0.011829956 -0.0023427657 0.018597525 0.003658523 -0.00784671 0.0011991129 -0.017507069 -0.0011020375
0.008932545 -0.002230499 -0.02374661 0.0018186272 0.0018560741 -0.014050538 0.011679607 -0.0039037091
0.012431615 -0.008639809 -0.0058778897 -0.0067482106
