Proyecto-RL-main/Assets/Models/duoV1/Worm.onnx (onnx, 581953 bytes, 9 tensors)

network_body._body_endoder.seq_layers.0.weight f4 [256, 39]
00000000: 8875 463e a20d 82be 975f 353e 6fa7 60bd
00000010: 9d75 81bd cbe1 693e dfb0 ac3d 908a 16be
00000020: 8dcb 08bd daf0 ed3d 0d3a a63d 2263 003e
00000030: 4504 26bd 8056 1f3d fabd 243e a127 c73c
00000040: fe53 35be e04c ea3d 1d56 a9be 91ed bc3d
00000050: f5b9 483e 94be dd3d a87e 37be 9cc8 98be
00000060: 1986 653b d742 6b3c 98bb 62be 4e5f 1fbe
00000070: 7cf8 3e3e cfbc 933d 22ea 7d3d afdf 54be
00000080: 02c0 a33d dda0 88bd a859 c93e 288c 90bd
00000090: 43ab 903d db4b 15be cf47 0bbe 5636 d9bc
000000a0: d95f b7bd 70f2 923e 5ce6 d0bd a64a 393b
000000b0: 8ddf dcbd 1c90 e6bc 1233 aa3e 3f3b 0abe
000000c0: c8b0 3b3e e53c 86be 24e7 ab3d aa44 e43d
000000d0: 228d 99bd 5c02 f63d 7ca9 5abe 84fe 4c3d
000000e0: 09af bcbd f214 25be 4f3b b93d af77 b8bc
000000f0: 436d 1abe f175 e4be a9a2 25ba 726a f3bd
00000100: 894e 42bd a267 603d 1aa5 a8bd db1b 17bd
00000110: 8245 613d ca34 99bd 0d05 6dbd dfe4 26bd
00000120: 036b 60be 4f67 54bd 9f53 263c 8bd6 28be
00000130: 5e4c 8bbd 8e51 3ebe 00ee 6ebd 75dc 9e3e
00000140: 5188 083e e64e 19be a4aa 5a3e e1a7 993d
00000150: e387 ee3c 6bf9 29be ea66 053e 8415 17be
00000160: 27b0 ae3e 92af 5e3d 5797 6c3e 6496 d03e
00000170: 9c8e 31be 09c2 9d3e 4cc7 af3d d428 62be
00000180: f168 8f3d c59e 223e 1faf 163e f045 133e
00000190: 3dcd 0d3d 28a2 023e adf9 c4bd 9499 4a3e
000001a0: 075b 4f3d a8da db3d b71e 5c3e 4d97 bf3d
000001b0: cb57 933e 7ce8 563d af40 91bc bf91 9fbe
000001c0: b129 363e 2049 afbc 21c1 be3d 11c9 bb3e
000001d0: 023a ff3d 23ec ec3d cb39 403e 1a70 c63d
000001e0: b25f 73bc 0f58 fd3d b540 c5bb f9d4 e2bd
000001f0: 696e b63e 1519 803d cd2d 50be 69fa 1f3e
00000200: 5de3 21bd 565c 033d 36f9 55be 8d01 e8bd
00000210: 0884 883e 2d60 ab3e b4cc 2bbe 5353 873e
00000220: fb64 173e f245 723d aff0 1e3e 4d20 5a3e
00000230: 15a5 c33e 2fce 9dbd 146c a23d 444d 703e
00000240: dc0e 693d 2317 783c b1ab 943e 31d2 11be
00000250: e224 e8bd 3832 6e3d 0d57 93bd 022b 043d
00000260: 5df4 96bd 85ae 733e d05c dabd 4ff6 61bd
00000270: 46af a43b 8615 243d 6225 12bc 2162 80be
00000280: 9ed5 3abd effe 853b cd86 203e 0921 9d3e
00000290: 4db5 f9bd 3535 fe3d c428 d23c 26bc 093e
000002a0: 76b7 43be 5526 a1bd b643 aebb 59a6 a7ba
000002b0: 5e02 553e f8dc 723e 9669 0e3e f8a8 1e3e
000002c0: b84d b2bb 71d2 813e 2d9a d5bb 9eef b6be
000002d0: 6ccb d23d 654e acbd 14b9 83bd 5828 cebc
000002e0: 9bff 2e3d baba 93bc bab9 5dbd 12a4 31be
000002f0: 785c ab3c 46ec acbd c699 23be b490 84be
00000300: 8da1 813d 62ff b23d 4982 3bbe c611 163e
00000310: 8693 f5bd 8bf1 f9bd b7ff 42be 15bf 6f3e
00000320: 35ca 8abc cef8 0a3e be37 debe b727 863e
00000330: 4bec 03bd 6409 d4bd b261 863e 9320 893e
00000340: 7e36 dabe 0181 8f3d d700 34bd fc12 1abe
00000350: b76e c43d 295a c4be edab 51bd d06c 91be
00000360: 7447 733e 09c3 f3bc d94b 963d c581 ae3d
00000370: 7a3f 763d c83d 593d 6bdb 503e 87e8 95bd
00000380: 5cdf 1c3e 37d2 463e 6211 c1bd be06 45bd
00000390: cfb9 5fbe 9d4e d4bd b017 28bd 9055 d8bc
000003a0: 661c c53c 5959 b33d e15b 983d 4902 5d3e
000003b0: c100 1fbc 61b9 453e ae18 0fbe 96b2 e9bd
000003c0: e303 aabe fcca cebd 6615 1dbe b594 57be
000003d0: f1fc 243e 6f14 4fbe 59d8 4dbe 7e2f a43e
000003e0: 6154 533d c890 e93c 5a49 5f3e 0b66 9abc
000003f0: e905 50bd 714e e1bd ef20 cf3c b5b5 c3bd
0.19380772 -0.25401026 0.17712246 -0.054847177 -0.06321261 0.2284004 0.08432173 -0.14701295
-0.033397246 0.116182044 0.08116541 0.12537816 -0.040531415 0.038900852 0.16088095 0.024310889
-0.17707822 0.11440444 -0.33073512 0.09225 0.19602187 0.108273655 -0.1791941 -0.29840553
0.0035022555 0.014359198 -0.22141874 -0.155637 0.18649477 0.07213747 0.061990865 -0.20788454
0.07995607 -0.06671307 0.39326215 -0.07057983 0.070639156 -0.14579718 -0.13601612 -0.026515167
-0.08953828 0.2870059 -0.102001876 0.0028273254 -0.107848264 -0.028144889 0.3324209 -0.13499163
0.18329155 -0.26218334 0.08393696 0.11145909 -0.07497622 0.12012169 -0.21353716 0.050047413
-0.09213073 -0.16121271 0.09044515 -0.022518007 -0.15080743 -0.44621232 -0.0006318489 -0.11885537
-0.04743818 0.054786332 -0.082346156 -0.0368918 0.05499793 -0.07480772 -0.057866145 -0.040745612
-0.21915822 -0.051856335 0.010151773 -0.16488092 -0.06801675 -0.18585798 -0.058332443 0.3102757
0.1333325 -0.14971504 0.21354157 0.075027235 0.02911753 -0.16599052 0.1302754 -0.14754301
0.3411877 0.054366656 0.23104607 0.4073974 -0.17339557 0.308121 0.08582935 -0.22085887
0.07002438 0.15880878 0.14715241 0.14382148 0.03461956 0.1275717 -0.096179344 0.19785148
0.05062392 0.10735065 0.21496092 0.0935503 0.28777918 0.052467808 -0.017731039 -0.31165883
0.17789342 -0.021397173 0.0931418 0.3667684 0.12462236 0.11568477 0.18772046 0.096893504
-0.0148543585 0.123703115 -0.0060196766 -0.110757776 0.3563111 0.06254784 -0.20329972 0.15622868
-0.03952347 0.03207048 -0.20895848 -0.11328421 0.26663232 0.33471814 -0.16777307 0.2643076
0.14784615 0.059148736 0.15521501 0.21301384 0.38211885 -0.07705342 0.079307705 0.23466974
0.056898937 0.015142235 0.2903724 -0.14240338 -0.1133516 0.05815336 -0.07194338 0.032267578
-0.07370827 0.23797043 -0.10662234 -0.05516654 0.005025777 0.04005959 -0.008920046 -0.25074866
-0.045613877 0.0040892283 0.15676422 0.30689266 -0.121927835 0.12412492 0.025654204 0.13450679
-0.19112954 -0.078686394 -0.0053181304 -0.0012790664 0.20801684 0.23717105 0.13907465 0.15494144
-0.0054413937 0.25355867 -0.0065186233 -0.35729688 0.10292706 -0.0841339 -0.06431785 -0.025165722
0.042724233 -0.018033374 -0.0541322 -0.17347744 0.020918116 -0.08443503 -0.15976629 -0.2589165
0.063296415 0.08740117 -0.18311419 0.14655218 -0.119910285 -0.12204274 -0.1904286 0.23412736
-0.016942123 0.13571474 -0.43401903 0.26202175 -0.03220777 -0.103533536 0.2624641 0.26782665
-0.426197 0.070070274 -0.043946113 -0.15046304 0.0959143 -0.38350037 -0.05118935 -0.2840333
0.23757726 -0.029756086 0.073386855 0.08520845 0.06011913 0.053037435 0.20396201 -0.07319742
0.1531958 0.19416128 -0.09427144 -0.048102133 -0.21848224 -0.10366557 -0.041038215 -0.026407987
0.024061393 0.08757276 0.074393995 0.21582903 -0.00970477 0.19308998 -0.13974258 -0.11411016
-0.3320609 -0.1009731 -0.15340194 -0.21052821 0.16112114 -0.20222639 -0.20102061 0.32067484
0.051594142 0.02851142 0.21805325 -0.018847486 -0.050786886 -0.1100129 0.025284259 -0.09556142

network_body._body_endoder.seq_layers.0.bias f4 [256]
00000000: 378d 3f3c 5971 58bd 056b 4c3a 4728 233c
00000010: a6e8 34bc 51aa dc3c ae5d fdbc 9a2f 223d
00000020: 12e7 6cbd 5b28 273c 8698 10bd 5618 0a3d
00000030: e51b 543d 091e 8f3d bacf 973d 06f1 9e3c
00000040: 0af0 90bc b7d4 e73c e843 42bb ba3b bc3c
00000050: 264b 5d3d e56c 243d 95fd 8dbc 8a5e 49bd
00000060: d465 583c 462d 213d e8d4 4c3a 2c12 1fbc
00000070: 5a4d 353c c117 333d 0dfc 3d3d 9b75 8d3d
00000080: 2e05 e0bc 7699 213d 833f fe3b b051 98bd
00000090: a744 56bc 34f9 1a3d b0ee 913c 681b dc3c
000000a0: 5683 5f3d 0c2f b03a d0b8 bf3c 9664 2dba
000000b0: 7037 023d cedc b6ba 3f86 c43c bbfc 51bc
000000c0: 44ea e73c 9b55 1cbd b3c3 7abb ee70 263d
000000d0: 9c74 ffbc 3ef0 f13c 6c86 00bd 805a 803d
000000e0: 95b3 993d a5b5 e6bb e6fb e6bc 5979 183c
000000f0: 5907 313c 9610 ebbc 31c0 263d 544d 27bd
00000100: 3bc2 0d3d 7e19 c9bc 06ad 253d 8a16 903c
00000110: a4c0 8a3d c715 a2bb 4c38 f0bc 5a0e ce3c
00000120: 0248 9c3c 7fcf e23c 440d 963d 3779 143c
00000130: 0040 11bd a13e 2fbd 2de3 26bc 5344 89bd
00000140: 8cee 9cbb ab93 993c 90bf 263c 8f4a f1bc
00000150: 4b03 ddbc 3d1d a0bc 9934 1f3c 6081 083d
00000160: afa6 a13b f659 bb3c cbad 2c3d 8bf8 4e3d
00000170: e17b 653d 7637 80bc 87a2 693d 14b5 433d
00000180: 4569 16bd f4ab 09bd 67f5 613b 5ffe 743c
00000190: f47d 1cbc 7f9e aa3c 982d 983a 9b5b a53c
000001a0: 7e97 653c 5b24 50bc 4608 093d bee3 213c
000001b0: 16e4 a43c ac03 003c 8973 903c 2071 f23c
000001c0: bbd1 913c cef1 4a3c 32c4 e7bb 6dbd 7d3c
000001d0: 9fc0 62bb 350a 6e3c 9ef9 0e3c 5acf 803c
000001e0: a8dd 08bd d620 903b b049 6d3a fa7a f7bb
000001f0: 4cc6 01bc 6375 bdbc 1867 253d 905d 8cbd
00000200: dbf9 b63c 4e04 94bd 082f 3f3d 53a0 10ba
00000210: 25d5 e53c 5d9e fc3b b7a8 b43c 0459 5e3d
00000220: 5da5 adbc 5e91 193c 08d3 ecbc 7265 45bb
00000230: 9c7f 6f3d 5d5b 873c 3cea 083a 1dc1 39bc
00000240: ab55 5abd 15ee 4bbd 0f78 26bc 31d1 36bd
00000250: 723a 0abd 3e71 5bbc 187f 61bd f7b4 c2bc
00000260: cdd7 02bd a7de a1bc cd86 cc3c e9af 723d
00000270: 033a f6bc 1601 7fbc 0b1c 0bbc 69f6 923c
00000280: cf33 74b9 c746 8d3d be2f e2bc e8cc 0f3d
00000290: 6227 a23a 43be f23c aecf 03bc 05b6 c3bc
000002a0: fa30 7cbc 5e71 02bd e9ff 3cbd a78e 263b
000002b0: df6e 773d 7e22 903c 0638 a43c 7aa7 313d
000002c0: 781d 553d d579 c53c 6b20 c4bc de1f e23c
000002d0: fac1 8b3b e170 dabc 35d7 d0bc 5aa9 cabc
000002e0: 55a5 51bc 1018 013d e606 78ba c336 a3bc
000002f0: 8df9 e13c a531 01bd a5fe 0ebd 6997 c73c
00000300: eda3 a43d d623 953c 3ee7 4d3d f4b0 083e
00000310: d10c 5f3d 35fc 05bd 7584 bdbb c4f3 4c3c
00000320: 8094 553a c4a0 2abd 3b31 a1bd 11b0 113d
00000330: 0157 823c 4202 f0bc adfc f73b a91f 143c
00000340: b64d 1d3c aa9e ba3d 42ba cfbc fd4f 6d3d
00000350: 0935 03bd e7de 17bc 178a eaba 672e 423d
00000360: 58c0 41bc dcf5 b53c bc0f 183d 3933 e43c
00000370: a132 b1bc bdfb 99bd fbfd 843c 70a0 043c
00000380: b9f9 9d3d 94fd 2e3d b2b8 21bc ab5c 5a3a
00000390: 2b12 f03c a7ba db3c 90d0 953d d5c5 b93a
000003a0: 3427 b53c 81c6 333d 33f1 ec3d 076d 293d
000003b0: c026 30bd 5858 493d d858 363d 14c6 f7bc
000003c0: 505d 0d3d 16f0 363d 11c7 62bd 581e a73d
000003d0: 1d05 af3a 4361 c23c 6f6b a13c a9b2 4e3d
000003e0: aaaf 913d 527c d43c 628b df3c ea9f d83c
000003f0: 03af 8cbc 0d6f 753d af25 f2bc 01bd 3c3d
0.011691383 -0.05284247 0.00077979296 0.009958333 -0.011041796 0.026936682 -0.030928459 0.039596178
-0.057837553 0.010202493 -0.035301708 0.033714615 0.051784415 0.069881506 0.074126676 0.019402038
-0.017692585 0.028299673 -0.0029642526 0.022977699 0.054026745 0.040142912 -0.017332831 -0.049162425
0.0132078715 0.039349817 0.0007813708 -0.009708922 0.011065805 0.043723825 0.046382952 0.06907197
-0.02734622 0.039452992 0.007759036 -0.07437456 -0.013077891 0.037835315 0.01781401 0.026868537
0.05456861 0.0013441755 0.023403555 -0.0006614415 0.03179115 -0.0013951303 0.023989795 -0.012816603
0.028309949 -0.038167577 -0.0038263618 0.040635042 -0.031183533 0.029533502 -0.031378195 0.062672615
0.07504956 -0.0070406967 -0.028196286 0.009306275 0.0108049745 -0.028694432 0.04071063 -0.04084523
0.03460906 -0.024548288 0.04044821 0.017588872 0.067750245 -0.0049464437 -0.02932372 0.025153328
0.019077305 0.027686832 0.07326749 0.009062103 -0.035461426 -0.042784337 -0.010185999 -0.06702485
-0.004789179 0.018747171 0.010177508 -0.029454498 -0.02697911 -0.019545192 0.00971713 0.033326507
0.0049332003 0.022870045 0.04215793 0.050529998 0.056026343 -0.015651446 0.057039764 0.04778011
-0.036721487 -0.033611253 0.0034478547 0.014953225 -0.009551514 0.02082753 0.0011610268 0.020185282
0.014013169 -0.01270398 0.033455156 0.009880958 0.020128291 0.007813375 0.017633216 0.029594958
0.017800203 0.012386752 -0.007072949 0.015487057 -0.0034599674 0.014528801 0.008726506 0.015723873
-0.033414513 0.0043984456 0.0009051813 -0.0075525017 -0.007920813 -0.023127263 0.04038152 -0.06853783
0.022335937 -0.072273836 0.046675712 -0.0005517054 0.028055737 0.007709308 0.022053106 0.05428411
-0.021197015 0.009373037 -0.028909221 -0.003012028 0.058471307 0.016523058 0.0005222892 -0.011337546
-0.053304356 -0.0497876 -0.01016046 -0.044633094 -0.033747144 -0.013393698 -0.055052847 -0.023767931
-0.031944085 -0.01975949 0.024966622 0.059249792 -0.030056959 -0.015564224 -0.008490573 0.017939763
-0.00023288954 0.06898265 -0.027610656 0.035107523 0.0012371356 0.02963174 -0.00804512 -0.023890505
-0.015392536 -0.031846397 -0.046142492 0.0025414617 0.06040847 0.017594572 0.020046245 0.04337261
0.052030057 0.024105946 -0.02394124 0.027603086 0.004265067 -0.026665153 -0.025493244 -0.024738956
-0.012795766 0.03151709 -0.0009461477 -0.019923573 0.027584815 -0.031541485 -0.034910817 0.02436419
0.08039079 0.018205564 0.050269358 0.13348752 0.054455582 -0.032711226 -0.0057836124 0.01250929
0.00081474334 -0.041657224 -0.07870718 0.0355683 0.015910627 -0.029297952 0.007567963 0.0090407515
0.009601047 0.09112294 -0.02535737 0.05793761 -0.032033 -0.009269453 -0.0017893937 0.047407534
-0.0118256435 0.022211961 0.03712438 0.027856456 -0.021630587 -0.075187184 0.016234389 0.008094892
0.077136464 0.0427223 -0.009870695 0.00083298486 0.029305538 0.026822401 0.07315171 0.0014173338
0.02211342 0.04389048 0.115694426 0.041363742 -0.043005705 0.049156517 0.04451832 -0.030245818
0.034512818 0.044662558 -0.055365626 0.081600845 0.0013352964 0.023728019 0.019704549 0.050463352
0.071135834 0.025938187 0.027288143 0.02644344 -0.017173296 0.05992036 -0.029558985 0.046078686

network_body._body_endoder.seq_layers.2.weight f4 [256, 256]
00000000: 0d73 b0bc 61fd aa3d c265 ff3c 33d6 6e3d
00000010: 5af2 a4bc 759d 00be 1d2d d2bd 79d8 8a3c
00000020: 270f c8bd f34d 213d d58a 92bd eb69 17be
00000030: 2917 8c3d 30b1 0a3d 7522 413d 13c1 c1bd
00000040: a098 d13d 5fba 2e3d 31b0 a23d 95a5 e0bc
00000050: b456 30bd 6e80 6b3c 18bb 37bd c1ff 573d
00000060: 4b7c 0b3e 7b02 2cbd a816 32bd 688c babd
00000070: f575 c13d d85c 193e 2783 2dbd b004 5dbd
00000080: 62f1 e93c c6e7 51bb ecd6 d0bd 58c5 b63b
00000090: 5583 9f3c 9799 89bd ac0c a5bd 1c83 60bc
000000a0: b21a 86bd c66b 0f3d ebb8 163e 66e6 1f3d
000000b0: 4618 7a3d d3c3 4cbd 3e13 e43d afe3 2c3d
000000c0: b095 c83c 0d0d bc3c 8dcb f4bd 3a85 7ebc
000000d0: 5fca 763b 6a75 28bd c91a 2cbe 4be7 c2bc
000000e0: 7327 44bd 27fe c93c 110c 0a3e ff37 80bc
000000f0: eb81 b93d 1f0c d83d 62da c33c 30f6 453d
00000100: f94f a8bb b5f8 1b3c 80c8 163d baba f6bd
00000110: e2c5 18bc 5955 9c3d 05d3 4cbd 4f53 81bd
00000120: a614 52bc 5834 f5bd 8e6d 4fbd f566 05be
00000130: 7fb9 d139 1b8b a43d 25a8 3c3d 9ac0 25bd
00000140: 352a ef3c 1b15 d7bc 8b67 0e3e eaef 9c3b
00000150: 070b d93d 5564 cbbd a755 8c3d 2da6 75bd
00000160: d5a3 a4bc 769c e4bd 1087 6dbd f8b0 543d
00000170: f29f 883b 17ab 7c3d 5e64 653d 0eee 373e
00000180: da02 69bd 6409 153e 7f06 9ebb d665 f5bc
00000190: b514 69bd 048e 493c 25fc 283e 1478 c93d
000001a0: f436 353c ea83 8bbd b223 bcbd c6e5 b33d
000001b0: 6a57 db3d 21e6 0f3e 9caf a9bd 2446 aabc
000001c0: 7a3d 6ebb e747 06bd 11e1 d8bd 8630 ca3d
000001d0: 572a 543c 8b50 c4bc b0bc 01be d6cc beba
000001e0: 6551 67bd 15e0 e6bc e5ba 8bbd 1b4d c2bd
000001f0: 311f aa3c d132 bfbc fa76 603b b576 25bd
00000200: e713 a2bd 7f09 953d 699e 863c ac8d 22bd
00000210: 17e8 35bd 0510 1dbd cc62 673c feb0 ee3d
00000220: 872d 1d3a c1e9 9d3d 0b32 813d 1909 aebc
00000230: b84e ee3d 3847 363d 31e5 8e3d 8964 9a3d
00000240: 445a 84bd b774 163e 8a32 eabd d4f7 c73d
00000250: 6bb7 e0bc 85b2 53bb 8ac2 2abd b218 edbd
00000260: 4e4c 8db7 ece3 d53c bf23 9f3a 80d5 41bd
00000270: 8edc 62bd aa41 543d 67ba 8abd f4c8 85bc
00000280: 1ad5 00bd c5c3 37bd e484 2f3d 59f6 00bc
00000290: f05c 783d bf76 003e 60ec a2bd a766 093d
000002a0: e2ed db3c abe9 f03d 0651 7b3d ffcc b73b
000002b0: e02f b9bd c42f efba ac41 1f3d 1d63 8c3d
000002c0: 67a9 0c3e fbc9 673c 3dc4 0cbd a258 b5bd
000002d0: d8eb 863c e534 23be 0040 b53d 809c 3dbd
000002e0: 44d2 3b3e 58bd debd b85d 4bbc f4cd c03d
000002f0: df38 783d 9917 273e 0354 abbd 2aa4 7ebb
00000300: 6a61 eabd 399c 2e3c ef1e 543c ff65 dc3d
00000310: b823 003c cec5 efbc fe89 2bbe 30fe d7bc
00000320: 8513 02be 1e6f 96bd 17c3 cebd b975 d2bc
00000330: 7b88 99bd 8def 73bd dba1 143e 9f3a 14be
00000340: 0a30 b9bc 4cc7 543c 2702 d2bd 464e 763d
00000350: 20a0 2b3d fae3 81bd 3685 913c 718f adbc
00000360: 65de c43d 9a13 d6bd 56c3 833d ed0e 03be
00000370: 257e 09bd 4dec adbd fc18 a7bd 31c2 59bc
00000380: a651 483d 41eb ebbd 4b99 30be f989 0b3d
00000390: df41 b43d 8858 e5bb 00d7 4cbd 7a91 23bd
000003a0: 8060 72bd 79e8 c83d d7c9 71bd e02d 6c3d
000003b0: 8779 8abd edcb 8bbd baa7 073e 59b9 9e3c
000003c0: 7a2e f7bd f857 7f3c 5dbc 95bd 2156 04bc
000003d0: da27 44be 6a4c 14bc 562a aebd 92b4 963d
000003e0: 2566 87bd 6c96 19bd 6fb2 9c3c 6980 3b3d
000003f0: 2929 d3bb 7d06 1f3d baa4 04bd 8437 a2bc
-0.021539235 0.083491094 0.031176452 0.058309745 -0.020135093 -0.12560065 -0.10262511 0.016948925
-0.09768515 0.03938098 -0.07155386 -0.14786498 0.06840355 0.033860385 0.047152 -0.09460654
0.10234189 0.042658206 0.07943762 -0.027422706 -0.043051437 0.014373882 -0.04485616 0.05273414
0.13621633 -0.041994553 -0.043478638 -0.091088116 0.09446327 0.14976823 -0.042361405 -0.05395955
0.028557483 -0.0032029017 -0.10197243 0.0055777244 0.019471804 -0.06718748 -0.080590576 -0.013703134
-0.065480605 0.03501489 0.14718978 0.039038084 0.061058305 -0.04999144 0.11136483 0.042209323
0.024485439 0.022955442 -0.11952887 -0.015534693 0.0037657244 -0.0411276 -0.16807093 -0.02379193
-0.047889184 0.024657322 0.13481165 -0.015651701 0.09057983 0.10549187 0.023907844 0.048330486
-0.0051364866 0.009519746 0.036812305 -0.12047334 -0.009324523 0.07633466 -0.05000593 -0.06314718
-0.012822306 -0.119728744 -0.05064159 -0.13027556 0.00040001792 0.08034345 0.046058793 -0.040466882
0.02919493 -0.026255181 0.13906686 0.004789342 0.105978064 -0.09931246 0.068522744 -0.05997293
-0.020097652 -0.11162655 -0.057990134 0.051926583 0.0041694576 0.0616866 0.05600392 0.17961904
-0.056887485 0.14554363 -0.0048225517 -0.029955786 -0.056904513 0.012301926 0.16502436 0.09837356
0.011060465 -0.0681227 -0.09186496 0.0878406 0.10710032 0.14052631 -0.08285448 -0.020785399
-0.003635256 -0.032783415 -0.10589803 0.09872536 0.012949548 -0.023964187 -0.12669635 -0.0014556895
-0.05647411 -0.028183023 -0.06822757 -0.09487363 0.020766826 -0.02333966 0.0034250603 -0.04039641
-0.07913952 0.07277202 0.016432958 -0.03968589 -0.04441079 -0.038345356 0.014122676 0.11654852
0.0005995859 0.07710601 0.06308373 -0.021244572 0.11636108 0.044501513 0.069773085 0.07538707
-0.06462529 0.1469296 -0.11435421 0.09764066 -0.02743121 -0.003230245 -0.041689433 -0.11576976
-1.6844042e-05 0.026109658 0.001214139 -0.04732275 -0.05538612 0.051820435 -0.06773835 -0.016331173
-0.03145323 -0.044864435 0.042851344 -0.007871234 0.060635507 0.12545298 -0.07955241 0.033545163
0.02684683 0.11763319 0.061356567 0.0056091542 -0.090423346 -0.0018248488 0.03888099 0.06854842
0.13736497 0.014147277 -0.034366835 -0.08854796 0.016469881 -0.15938146 0.08850098 -0.04629183
0.18341929 -0.10875958 -0.012412481 0.094142824 0.06060111 0.16317596 -0.08365633 -0.0038855174
-0.114443615 0.010657364 0.012946828 0.10761642 0.007821016 -0.029269125 -0.16751859 -0.026366323
-0.12702759 -0.07345413 -0.10095804 -0.0256909 -0.07496735 -0.059554625 0.14514868 -0.14475487
-0.022605915 0.012986969 -0.10254317 0.06013324 0.041900754 -0.06342311 0.017763715 -0.021186562
0.09612731 -0.104529575 0.06433742 -0.12798662 -0.033567566 -0.084923364 -0.08159062 -0.013290928
0.04890599 -0.115194805 -0.17245977 0.034067128 0.088016264 -0.006999079 -0.050009727 -0.03993366
-0.05917406 0.09809966 -0.05903038 0.057660937 -0.06761461 -0.06826005 0.13247576 0.01937549
-0.120694116 0.015584938 -0.07311318 -0.008077175 -0.19155827 -0.009051422 -0.08504169 0.0735866
-0.066112794 -0.03749697 0.019128053 0.04577676 -0.0064441157 0.038824547 -0.032383658 -0.019801863

network_body._body_endoder.seq_layers.2.bias f4 [256]
00000000: 147c 003c c6c4 35bc 3fdf 933c 6bcc 023d
00000010: d13e 813d 99e2 ab3c 5f26 2a3c 550f 9a3c
00000020: bd68 373d ee8f f83c 7ba4 cc3b 5d40 10bd
00000030: cf64 3cbd bdda d13c 4833 eebc f130 3ebc
00000040: 23f7 0f3c 24d3 643a afd2 993d e29c f63c
00000050: 5903 3ebb ec1d 2e3d 0eb7 853c 97f0 933b
00000060: fc02 e8bc 866d 08bc 61d8 ad3c 79ed 2c3d
00000070: 719d 9ebd 3561 833b de53 143c 006a dd3c
00000080: c129 6ebc 950d 84bd 14e7 13bd 5044 213d
00000090: 6e17 51bd 926a da3c afd1 5ebd bd31 723d
000000a0: e58c 8abd 3425 9fbd 35a8 d23c 3a4c cc3c
000000b0: d1e7 6c3c de7c 75bd f592 1a3d 0f71 ca3c
000000c0: 9522 f9bc 546a 253a 1b0a 7f3d 11c0 c1bc
000000d0: 9f3a 3f3c ac05 bfbc 339f 9e3c 6cdc d13c
000000e0: 93eb 7c3d 661b f13a 542c 63bd 42db 0dbd
000000f0: c2af 0d3c 89b4 913b 65bc ae3b 39be ecbb
00000100: 747d 09bd 0e01 0b3c 3528 14bd 402a 66bb
00000110: 2724 debc 6181 873d 3f7e 6e3c d9da 0abc
00000120: 05ee 063d e8a1 d43c e8a0 4e3b 3c53 fd3b
00000130: 08d5 fc3c a122 3abc 6b78 813c 2bc7 773c
00000140: 9006 e0bc a663 82bc eca5 0d3c 8e45 fb3b
00000150: 799f 873c 9f42 f83c 1c77 1cbd bbcf 8f3c
00000160: bb1f bdbc d014 4e3b e9c2 33bd 4d92 f4ba
00000170: 2b38 943d 7055 babc 8632 46bb 1021 26bb
00000180: e232 dc3c 54a8 973c c35d 6937 10e3 2c3d
00000190: b57a ae3c 67f9 40bc cc2e b6bc d118 1f3d
000001a0: 63de e43a f708 183c 96c5 053d 8d8e 583b
000001b0: 1925 823c db10 253b 35bd 033d 5f3e 453d
000001c0: 5e48 cfbb fcd2 a43c d727 6d3d 7bc1 51bc
000001d0: da7a bbbc 6491 8bbd 39c1 82bc dc1b faba
000001e0: 398c b6bc 010e 68bd c31e a6bc 1179 5e3d
000001f0: 8bec da3c d868 4ebc bce6 d23c f95a c83c
00000200: d684 443d 6229 a13d 88c7 08bc 88c2 6abc
00000210: 9193 ab3c e61a 02bd 5437 453d 3ed8 38b9
00000220: 9905 72bb 6f57 913c 9dc5 e73b a74a 803d
00000230: 2c64 733c 4dcc 623d 1d9e 233c af69 243b
00000240: a7f5 a03c 716b 063c 911a 26bc 3c7a 003c
00000250: 464e 6e3d 34b0 4a3d 5e25 bcbb c7ab 333d
00000260: 6180 0e3d 4c7c 0dbc a3a5 84bc 54eb a03d
00000270: 3b70 ad3d e202 e1bc 3f3d af3b 356c be3c
00000280: 48f9 81bd e316 07bd 3aad 803b b8cf 7ebc
00000290: b59d 113d 1221 c53c 3b44 b33c de0a 2e3c
000002a0: 83d9 6b3c d20d 2bb9 ce82 f4bc 842d 023c
000002b0: 2bad b33d 814a f23a c163 293d e392 dc3b
000002c0: 4974 1eba 219b d9bc dacd 81bc b39d 34bc
000002d0: f201 5d3c 7959 a1bb 121e 6e3d 5162 0c3c
000002e0: da9d bd3b 3451 ccba 487b a43d ead4 8b3d
000002f0: a6b9 b03c 49d0 78bb d188 8cbc 7d18 683d
00000300: d5a9 5f3d 5678 bcbc caa3 d93d 67c5 05bd
00000310: cfe5 3a3d 93b2 803c 54ad 3e3b cb1e 4bbc
00000320: d90e cb3c 696a 003d c7c4 803c 48e5 733d
00000330: b260 963d 8b68 623d c7cb c7bb 4acc f4bb
00000340: 8ff9 b43c 2c8d 7a3c e0f1 d93c 8cd1 fcbb
00000350: 2187 633d 3f97 273d 2d61 173d 1887 56bc
00000360: 341d 15bc ff64 08bc 3820 513d 3c3a 4a3d
00000370: 346d 423d 4b96 2f3d e428 603d 1a40 00bd
00000380: d72e 703c 891e 64bc c35d 663b 1b36 4dbd
00000390: aa0b b5bb 9fa5 aabc b1df 643d 7213 043d
000003a0: a48b 1e3b 46ff d53c f180 b63d 32c0 4fbc
000003b0: 1a24 dc3c 6be9 c93c 6f32 b5ba 4cb8 02bd
000003c0: 9e31 153d 48af ebbb 2639 213d 83fa 5e3c
000003d0: d2cd f13a 3c83 fbba 4556 e3bc 79a0 fc3b
000003e0: 7c82 45bd 1ff7 0bbd 7a80 0c3d 5bc5 8bbd
000003f0: f9df ca3c 52c5 41bc 4ee4 c7bb 4832 753d
0.0078420825 -0.011094278 0.018050788 0.03193323 0.063108094 0.020982074 0.010385125 0.018806139
0.04477762 0.030342069 0.0062451935 -0.03521763 -0.045994576 0.025616998 -0.029077187 -0.011608348
0.008786949 0.0008728972 0.07510888 0.030104104 -0.0028993695 0.042509004 0.016322639 0.0045147645
-0.028321736 -0.008326894 0.021221342 0.04221866 -0.07744873 0.0040093907 0.009053199 0.027028084
-0.014536322 -0.06447903 -0.036109045 0.03937179 -0.051047735 0.026662145 -0.05439919 0.059129465
-0.06765155 -0.07770768 0.025714973 0.024938691 0.014459566 -0.059933536 0.037737805 0.024712114
-0.030411998 0.00063100946 0.062265497 -0.023651155 0.011671691 -0.023318134 0.019363021 0.0256178
0.0617481 0.0018395006 -0.055462196 -0.03463293 0.008647861 0.0044465703 0.005332517 -0.0072248247
-0.033566907 0.008484138 -0.036171157 -0.0035120398 -0.027116848 0.06616474 0.014556467 -0.008475029
0.032941837 0.02595611 0.0031529013 0.0077308696 0.0308633 -0.011360795 0.01580449 0.015123169
-0.02734688 -0.015916657 0.008645516 0.0076682037 0.016555535 0.030305205 -0.03819953 0.017555108
-0.02308642 0.003144551 -0.043887053 -0.0018659324 0.07237276 -0.022745818 -0.0030242517 -0.0025349297
0.026879732 0.018512882 1.3909713e-05 0.04220873 0.021298746 -0.011778212 -0.022239111 0.038842026
0.0017461296 0.009279481 0.032659136 0.0033043951 0.01588683 0.0025187049 0.032162864 0.048155185
-0.0063257655 0.020120136 0.057899322 -0.012802477 -0.022885729 -0.068148404 -0.015961276 -0.0019081789
-0.02228366 -0.05665398 -0.02027834 0.054314677 0.02672412 -0.012598239 0.025744788 0.024457442
0.047978245 0.07869221 -0.008348353 -0.014328606 0.020944389 -0.031763934 0.048148468 -0.00017628164
-0.0036929606 0.017741887 0.007073118 0.06264239 0.014855426 0.055370618 0.009986428 0.0025087406
0.019648386 0.008204327 -0.01013817 0.007841643 0.058180116 0.049484447 -0.005741759 0.04386499
0.0347904 -0.008635592 -0.016192263 0.07857385 0.08468672 -0.027467195 0.0053478773 0.023244957
-0.06346375 -0.03298081 0.0039269 -0.015552454 0.03555079 0.02406362 0.02188312 0.010622708
0.014395121 -0.0001631298 -0.029847529 0.007945422 0.087732635 0.0018485339 0.0413549 0.0067313774
-0.00060445495 -0.026563229 -0.015845228 -0.011023927 0.013489233 -0.004923996 0.058134146 0.008568362
0.0057866396 -0.0015588165 0.080313265 0.068277195 0.0215729 -0.0037965945 -0.017155083 0.05666398
0.054605324 -0.0230066 0.106269434 -0.03265896 0.04562932 0.01571015 0.002909501 -0.012397478
0.024787353 0.03135148 0.01571883 0.05954483 0.07342662 0.05527548 -0.00609729 -0.007470642
0.022091655 0.015292447 0.026604593 -0.0077154096 0.05554879 0.040915724 0.03695791 -0.013093732
-0.009101201 -0.008324861 0.051056117 0.049371943 0.047467425 0.04286794 0.054726496 -0.031311132
0.014659605 -0.013923296 0.0035151101 -0.050100427 -0.005525072 -0.020830927 0.05587739 0.032245107
0.002419212 0.0261227 0.08911312 -0.0126801 0.026872683 0.024647435 -0.0013824234 -0.03191404
0.03642427 -0.007192526 0.03936114 0.013609531 0.001844818 -0.0019188891 -0.027751097 0.0077095595
-0.048220143 -0.03417122 0.034302212 -0.06824752 0.024765002 -0.01182683 -0.006100214 0.059862405

network_body._body_endoder.seq_layers.4.weight f4 [256, 256]
00000000: 01e2 debc 4fb4 a43d 0e41 a2bd c27c cfbd
00000010: f97f 86bc a11a 21be f0e2 13bd ee6e 023d
00000020: be93 44bd 8764 49bd 9817 83bd 13b4 75bd
00000030: fdb4 87bd 9707 afbd a8b4 8fbc 6e5f 6f3d
00000040: a211 aabd 1917 9a3c 8440 58bc bacb 7d3d
00000050: 2cf5 46bd 4e9e 46bd 5e0b 16bc 2850 e73d
00000060: 62f6 b03d 5aaa 4e3c 6120 393d a32a 463d
00000070: 53de a33d 1494 78bb a568 c9ba 79b6 263d
00000080: d29f ddbc c3c7 54bd e3dc fcbd 8126 bcbc
00000090: e8df fdbc 9e54 1dbe 581f fa3d 4a14 1c3d
000000a0: 24c3 7b3d b60a 153e 4a70 a53c 6fa1 10bd
000000b0: 751f 53bd 5dab 37bd dd3e cbbc d194 61bd
000000c0: 18ce 7bbd 8826 21bd ba59 253d 5fd9 953d
000000d0: da14 963c b18e 343d 3d2e cd3d 6790 84bd
000000e0: 2780 dabd df96 99bd 0a34 a23d 1644 84bd
000000f0: 6e7d 293d 4dac cebc b7b3 903c a5e5 883d
00000100: ed60 fabd a1ed eabb 2bfe 10be 5de2 d6bd
00000110: 0d56 a93c e6ef d1bd 609c 04bd 1bf5 053e
00000120: 5182 cd3b 55d1 30bd afc8 f43b b44b 8a3d
00000130: d9e2 27bd a003 edbd 8eaf b539 b570 903d
00000140: 72b8 cd3d e6b9 423e ee1b a63c 5a70 983b
00000150: 1111 f53c b28b 41bd 5543 9dbd ad18 3a3c
00000160: e696 dc39 47c6 5d3d 81e0 e33b a0c7 bbbd
00000170: aadf 3b3e a1f8 92bd bc92 31bd 64cf ee3c
00000180: 1c98 d13d 3f40 143a 71f8 24bd ba7f 383d
00000190: e18f c23c e2e3 a73d f52f 6d3d a058 933c
000001a0: 0d6c be3d b9fa 8fbb 0abe bbbc c412 783a
000001b0: 872f e63b be21 023e aadd d13c 18d0 123e
000001c0: a53a 1e3c 9949 003e 93a6 cf3c fcd1 b3bd
000001d0: 82c3 763c 9d73 743c 39d9 8cbd 6b39 e5bd
000001e0: 7009 853c e257 573d 71b7 adbd adc1 843d
000001f0: 288b 103d c918 263d 2cd9 be3d dcce ac3d
00000200: 678c ba3d 8a4c 273b 0c4a c3bb 5d53 6b3d
00000210: 8d10 5dbc 031b 213c d257 5fbc db5d c6bd
00000220: b382 bb3d d63e 663d 6449 3fbd cfe7 63bc
00000230: 915b f93d 3ec9 bf3c b0b2 1ebe b2a3 9e3c
00000240: 4a4c bfbd e371 5dbd d009 723d 45d5 ca3d
00000250: c5e9 d6bc 3e63 a73d b235 aabd 2aeb 823d
00000260: d74f aebc 77ed 3d3d f34b f1bc 766e 7ebd
00000270: df0d b03d 9bd4 87bd 3bd9 aa3c 8f18 e8bd
00000280: 8dfd 2d3e bb1a 05be d596 6f3d f9e9 5ebd
00000290: dd1c 08be edc6 e63d 6ff5 5e3c d3c8 01be
000002a0: 688f c2bb c6ca 62bb 1d51 e8bc b27c 72bd
000002b0: da66 91bd 4c34 943d b2fb a73b aea9 62be
000002c0: 1645 99bd c37f 7b3d 085c 37bd f03a 7c3c
000002d0: 29e3 73bd 811c 363c 2d9b 0b3d 867b 6dbd
000002e0: e815 cd3d 2528 383d 7247 473d 8038 2b3e
000002f0: 7ae8 6839 9899 7d3d 8cf2 44bd 82b6 953d
00000300: e813 0cbd 388a 01be 3cb2 23bd 16df fbbb
00000310: 24bd de3d 7967 b7bd ba3c 993d 1056 4c3b
00000320: 3530 a2bd 90dc e63b 7f53 8b3a 0d2b 3e3c
00000330: 2205 eabc 911c 0fbe 9f57 23bc 719d a33d
00000340: 1414 31bc c3b7 1dbe ed05 b3bd d7d5 0d3d
00000350: 493c 67bd 8e99 c83d b7d0 f4bd 00e1 5f3d
00000360: fe40 c6bd 44c7 b33c 0a47 3dbd ee85 86bd
00000370: 82f5 1a3d c2a0 c7bb 5835 dc3b c585 ba3c
00000380: 93b2 9cbd f71c 943c c614 a0bb 1f48 2bbd
00000390: 0014 b4bd bf76 e5bc fdc4 25bd c182 213d
000003a0: 1f2d cd3d 6883 90bd edf4 6c3d ae9b 1d3c
000003b0: 1b27 093d 8f01 ef3d 664c 91bc 6a1b a9bd
000003c0: ac40 863d 798e 14be 6179 b43d 40ea 683d
000003d0: 3312 413d 9346 173e a9e3 b7bd 8a72 6abd
000003e0: 89f8 5fbc d7d6 0cbd d592 4ebd e248 aabc
000003f0: ea24 ce3a 8bb1 11bd fd9a 8a3d 22ff 7039
-0.027207376 0.08042204 -0.079225644 -0.101312175 -0.016418444 -0.15732814 -0.036105096 0.031844072
-0.04799246 -0.049168136 -0.064009845 -0.059986185 -0.06626318 -0.085463695 -0.017542198 0.05844062
-0.083041444 0.018809842 -0.0131989755 0.061961867 -0.048573658 -0.048490815 -0.009157984 0.112945855
0.08640744 0.012613857 0.045196895 0.048380505 0.08001389 -0.0037930058 -0.001536627 0.040701363
-0.027053747 -0.05194832 -0.12346818 -0.022967579 -0.030990556 -0.1536431 0.122130096 0.038105287
0.061465397 0.14554867 0.020195145 -0.035310205 -0.05154367 -0.04484116 -0.024810249 -0.055073563
-0.061475843 -0.039343387 0.040368773 0.07316851 0.01832049 0.044081394 0.10018585 -0.06472855
-0.10668974 -0.074994795 0.07920082 -0.06458299 0.041379385 -0.025228644 0.01766382 0.06684426
-0.122255184 -0.007169441 -0.14159457 -0.10492394 0.020670915 -0.10250835 -0.032375693 0.13081782
0.0062716384 -0.043168385 0.0074702124 0.067527205 -0.040987823 -0.11572957 0.0003465381 0.07052747
0.10044946 0.19016227 0.02027699 0.004652065 0.029915364 -0.047252364 -0.07678858 0.011358422
0.00042074098 0.05414417 0.006954253 -0.09168935 0.1834704 -0.071763285 -0.043352827 0.029151626
0.10234091 0.00056553254 -0.040275995 0.045043685 0.023750247 0.08197762 0.057907064 0.017986596
0.09297953 -0.004393902 -0.022917766 0.00094632455 0.0070247087 0.12708184 0.025618393 0.14337194
0.009657537 0.12528075 0.025347983 -0.08780286 0.015061261 0.0149201425 -0.068773694 -0.11192592
0.016239852 0.052574046 -0.08482254 0.06482253 0.03528896 0.04055098 0.09318766 0.08437893
0.09108811 0.0025527799 -0.005959755 0.05745255 -0.013492716 0.0098331 -0.013631778 -0.0968587
0.09155788 0.05621227 -0.04670085 -0.013910248 0.12175668 0.02341139 -0.15497851 0.019365165
-0.09340723 -0.05406369 0.05909139 0.09903959 -0.026234517 0.08173226 -0.08311023 0.0639251
-0.021278305 0.046369042 -0.02945516 -0.062117063 0.08596396 -0.06632348 0.020855537 -0.11332809
0.16991253 -0.12998478 0.058493454 -0.054422352 -0.1329226 0.11268411 0.013608321 -0.12674265
-0.0059375055 -0.0034605726 -0.02835899 -0.05920095 -0.070996955 0.07236537 0.00512644 -0.2213504
-0.0748388 0.06140114 -0.044765502 0.015394911 -0.05954281 0.011115194 0.034083534 -0.05797913
0.10013944 0.04496016 0.04865212 0.16720772 0.00022211848 0.061914057 -0.048082873 0.07310201
-0.03419867 -0.12650383 -0.0399649 -0.007686506 0.108759195 -0.08955283 0.07482286 0.0031179227
-0.07919351 0.007045336 0.0010629742 0.011606944 -0.0285669 -0.13975741 -0.009969621 0.07989014
-0.01080801 -0.15402131 -0.08741365 0.03462776 -0.056453977 0.09794913 -0.11953872 0.054657936
-0.09680365 0.021945603 -0.046210326 -0.06568514 0.03783179 -0.006092162 0.0067202263 0.022768864
-0.07651248 0.018080218 -0.004885289 -0.041816827 -0.08792877 -0.028010724 -0.040471066 0.039431337
0.10018372 -0.07056314 0.057850767 0.009619636 0.03348456 0.11670219 -0.017736625 -0.08257182
0.06555304 -0.14507474 0.08812214 0.056864023 0.047136497 0.14773016 -0.089789696 -0.05723814
-0.013670095 -0.034384575 -0.050433 -0.020786706 0.0015727554 -0.03556971 0.06767843 0.00022983228

network_body._body_endoder.seq_layers.4.bias f4 [256]
00000000: 3605 95bb 269d d13b 7d95 663d eb94 743d
00000010: c6a3 473c 7ef9 643d 5b6a b03b 89dc 593c
00000020: da2a 51bc dfcd a23c fe61 893c 5def 813b
00000030: 1d2a 343d 8bb5 fabc e12c 9d3d 7052 4f3d
00000040: 66bd c7bc aa33 193d 1e29 c439 a738 143c
00000050: ff81 973c 1ffa 533c b708 2a3d 30e6 8a3b
00000060: b7eb f63c 1b66 ab3c f7a7 93bd 2405 093d
00000070: 6e96 5e3b c1f0 843d 00f3 a63c 9a51 9e3c
00000080: 9e14 383d 2816 853d 19d9 403d 9264 853c
00000090: dede ab3c 2843 2eb8 7524 173d 9364 2e3b
000000a0: 5695 6e3c 18a7 013d 02f6 313c 396d 963c
000000b0: 37da 113c 2e18 ee3c d4bc d3bb 543e 07bc
000000c0: a075 053d 3d41 98bb 84eb 183d 0a17 013d
000000d0: d43f 93bb 0eb5 b13c 2069 2ab9 413d 3f3d
000000e0: 665c 023d d0ea 023d 2cbd b43c 4572 e43c
000000f0: a6fb 1b3c 98a1 513a 35bd d7bc 07e9 a4bc
00000100: 790e 6dbc 6570 993b bd37 f337 857c ddbc
00000110: 67c4 113d cc93 f3bb 99ae 8abc 0fc2 b33c
00000120: b9dc 873d c875 cc3c 491e 62bc 32ee f43c
00000130: d861 0c3d d238 153c 296e d43c 97ee 1ebc
00000140: bf01 2a3c 8deb 623c 039e 843c 3102 ff3c
00000150: ef8e 883d 2b56 b8ba 673e 583c cd45 bf3c
00000160: b27c 463b 185a 003d afeb 7cbc 63ee 0e3c
00000170: 16d6 2d3c 12ee ff3c 01e4 c1bb de09 b93c
00000180: 1d6d a43d 9698 bcbc 309e 273d 2465 143d
00000190: 6976 a73c 450d 883c 8aab 283b d217 4a3d
000001a0: df99 933c 7305 d73a 3b4c 923d afbf b13c
000001b0: cd6a 423d b0a4 453d b117 8f3c 1904 59bb
000001c0: 72a9 723d a728 3d3c 2141 61bb 6a8e 6bbb
000001d0: 5e65 de3c 0c9f 903a 7af2 3dbc 002b 6d3c
000001e0: 3a59 7c3d 5100 573d 2177 6c3d 5ba9 b13c
000001f0: eb33 033c 2b37 9e3d 4731 703c 7161 633c
00000200: dc24 a73b 5ce3 debc 1fc1 b03c ecc0 0f3d
00000210: b5e1 a13c 47dd 47bc 2cbe 5f3d eed6 b3bc
00000220: 51fd 653c 02ef 283d 3994 1a3d 762f fb3c
00000230: f2b8 8d3b eda6 013d 843f 13bd 4bc2 473c
00000240: b29d 303c c761 6f3b 35f7 2b3d f545 163d
00000250: 7fad 8b3d a3b5 7e3d f9ff d03c 3db5 3fbc
00000260: 7565 b73c fd83 fa3b 7f1b 8e3d 7ed8 e9bb
00000270: 4da6 bd3d 8983 1d3d 86e6 e63c fc1f 7d3c
00000280: 7ca1 9f3d 9426 223d 52f3 323d 70d2 ce3c
00000290: 03ed b23c c886 653d 2744 0dbd a086 3bbd
000002a0: 0e28 643c abe0 f93c f752 9c3c c351 6a3c
000002b0: 04c8 243d d36c 913c 3e44 193a 568a 4a3c
000002c0: 86f6 7b3c 39b8 2abd 618a b1bc 4fb5 4c3d
000002d0: fce0 4d3d 25c1 063d 9e58 593d 6d89 03bc
000002e0: 063b 373d fa1b 583d e313 c43c 9487 3d3d
000002f0: b6b8 603d dfe4 7f3d bc9e d33b 6ec8 e13c
00000300: fa77 6f3c d828 0e3d 2a47 28ba 3028 aabb
00000310: 4ca8 9e3c 2bef 4c3d 83ed a7ba 11e4 d53c
00000320: 70ea 933c cc6a cc3c 5716 a23b 1329 6c3c
00000330: 697b 803c ab20 c73d aa32 723c 14d7 51bb
00000340: a3ba de3c d6e8 5d3d 756d b53c 0aa9 e23c
00000350: b315 cb3c ff42 733d 86de 103d 1f50 8e3d
00000360: 4b8f ed3c 6796 c3bc feae e63c 9230 343d
00000370: 88d4 283d efda 463d cbb6 543d 438e 2c3d
00000380: 9c9f 9ebb ef34 c9ba 93d8 eeb9 3b8a 70bc
00000390: 2f4b 313d 2093 633c 19ce 0f3d cf8b 5e3d
000003a0: b654 383d 6d5a 163c 39c6 8d3c cc44 d53c
000003b0: e5a4 183d 5e5f b93c 546f fe3c 09ec ac3c
000003c0: 84b6 0a3d e6da 503d cae7 4f3c 667d 9a3c
000003d0: 9479 a53b 3242 f33b 3574 fbbb eeee 9b3d
000003e0: 0596 963c e039 cfbc 4c4f 0e3d 5fbb 963b
000003f0: 6a1d 683c e468 b93c b8f5 ea3c 4d1f 1e3d
-0.0045477403 0.0063969074 0.056294907 0.05971233 0.012185043 0.055901997 0.0053837723 0.013297209
-0.012766564 0.019873558 0.01677036 0.003965302 0.043985475 -0.030604145 0.076745756 0.050615728
-0.024382304 0.037402786 0.00037414668 0.00904671 0.018494604 0.0129380515 0.041512217 0.0042388663
0.030141694 0.020922711 -0.07209771 0.033452168 0.0033964175 0.06491233 0.020379543 0.01932602
0.044941537 0.064983666 0.04708204 0.016283307 0.020980295 -4.1547377e-05 0.036900003 0.002661024
0.014561972 0.031653494 0.0108618755 0.018362628 0.008902124 0.029064264 -0.006461719 -0.008254606
0.03258288 -0.004646449 0.03733398 0.031516112 -0.004493693 0.021692779 -0.00016251625 0.046689276
0.0318264 0.031962216 0.02206286 0.02788652 0.009520447 0.00079967966 -0.026335338 -0.020130647
-0.014468783 0.004682588 2.8993813e-05 -0.027036915 0.035587694 -0.0074333902 -0.016928958 0.02194312
0.066338964 0.024958506 -0.013801166 0.029898737 0.034273 0.009107785 0.025931435 -0.009700439
0.010376393 0.013850105 0.016188627 0.031128975 0.066678874 -0.0014063766 0.013198472 0.023348713
0.0030286727 0.03133592 -0.015437051 0.008723828 0.010610124 0.03124145 -0.0059170728 0.022587713
0.08028624 -0.023021977 0.040922344 0.036229268 0.020442205 0.01660789 0.002573701 0.049339123
0.018017707 0.0016404822 0.07143446 0.021697847 0.047465134 0.04825276 0.017467352 -0.0033114015
0.059243627 0.011545337 -0.0034371095 -0.003594304 0.027147945 0.0011033728 -0.011593455 0.014475584
0.06160853 0.052490536 0.057730798 0.0216872 0.008007984 0.07725366 0.014660186 0.013878212
0.0051008295 -0.027208023 0.021576462 0.035096094 0.019760946 -0.012198753 0.05462472 -0.021953072
0.014037446 0.04124356 0.037739012 0.03066228 0.0043250257 0.031653333 -0.035949245 0.012192319
0.010779785 0.0036526786 0.041983802 0.03668781 0.06820201 0.06218494 0.025512682 -0.011700925
0.022387246 0.0076451288 0.06938838 -0.0071364036 0.09260235 0.03845552 0.028186094 0.01544952
0.077944726 0.039587572 0.04368908 0.025246829 0.021841532 0.05603674 -0.034488823 -0.045782685
0.013925565 0.030502638 0.01908253 0.01430172 0.040229812 0.017752087 0.00058466557 0.012362083
0.0153786 -0.041679595 -0.02167243 0.049977597 0.05026339 0.03289904 0.053063028 -0.00802837
0.044734024 0.052761056 0.023935264 0.046271876 0.054863654 0.062474128 0.0064581316 0.027561393
0.014616007 0.03470692 -0.00064192957 -0.005192779 0.01936736 0.050032776 -0.0012811873 0.026109727
0.018056124 0.024953268 0.004946511 0.01441409 0.015683847 0.09723028 0.014782587 -0.0032019066
0.027188605 0.054177128 0.02214692 0.027668495 0.02479062 0.059390064 0.035368465 0.06948876
0.028998991 -0.023875428 0.028159615 0.043991633 0.04121831 0.048548635 0.051932137 0.04212786
-0.0048408043 -0.0015350858 -0.00045556258 -0.014681394 0.04328459 0.013890058 0.03510866 0.05433255
0.04500266 0.009176833 0.017306434 0.026033781 0.03726663 0.022628482 0.031058945 0.021108644
0.033865467 0.050990008 0.01268954 0.018858623 0.0050498936 0.0074236626 -0.007673765 0.076139316
0.018382082 -0.025296152 0.034743592 0.004599973 0.014167169 0.022633024 0.028681621 0.03860407

action_model._continuous_distribution.log_sigma f4 [1, 9]
00000000: 498b 7abd 92a2 303d 10ed b4bc 3058 4dbd
00000010: fef7 ebbd cbef 813c bbb4 003e efb9 1d3e
00000020: 05dd c73d
-0.06116799 0.04312379 -0.022085696 -0.05013293 -0.1152191 0.015861413 0.12568943 0.1540296
0.09758953

action_model._continuous_distribution.mu.weight f4 [9, 256]
00000000: 6bf7 4b3c fdf0 e1bc 905a 36bc 1b26 ed3b
00000010: 59c1 fb3c 1ded 2b3d da69 73bd d02d edbc
00000020: a153 213d e291 a3bc b875 6c3c 6e32 5cbd
00000030: 0925 90bd ce21 7f3d 40ff 133d 206c e43c
00000040: ec40 993c 2f98 6dbb a171 3bbd 7247 633d
00000050: 7e4d 36bc c15a b3bc afcd 2fbc 5442 adbc
00000060: 827d 5d3a 06ef 93bd a590 64bc 6039 90bd
00000070: 24b7 6b3c bf87 153c 400f 0dbd daa7 9cbc
00000080: d101 52bc 81cd 86bc 2866 2c3c fa78 2ebd
00000090: c989 6abc 6527 143d e76d cebb 74c7 31ba
000000a0: 09f2 24bd 1a89 133d 44be dabc 764a dd3b
000000b0: 30fe 183d d3db b53c c52d 6b3d 4a29 a63c
000000c0: d018 52bc d9d5 833b aa01 4bbd a5d5 193d
000000d0: f36d 463c a71e cabd 823b b4bc e642 59bd
000000e0: 87f6 09bd bdf6 9dbd 16dd 31bd 9479 a13c
000000f0: b7ae 8d3b 12c4 6c3c 7232 2fbd 22c3 bebc
00000100: 22e1 5b3d 18c4 c3bd 479f aa3c 7519 8bbd
00000110: 3865 be3d 00ca b7bc 31c4 90bc 1eaf dfbc
00000120: 4743 553c 35b6 0ebd 68ce ccbd e74d 163d
00000130: c7cf 7f3d 3f7b 033d 8cb4 37bb 9155 d03b
00000140: 3855 003d c40e 6d3d d900 ba3c 5bc3 b53c
00000150: c478 ed3c 2de4 94bd 4459 cbbc 4221 e8bd
00000160: 0244 8ebd b7c1 af3b 679a 38bd a794 78bd
00000170: 92fe a03c 8bf5 af3c 7ef4 a93b 7abb 73bd
00000180: 48d5 973c dae3 983c 5134 343d 0e9a 06bd
00000190: c01c 34bb 1432 09bd d90b 1a3c 72b8 af3d
000001a0: d6a8 423c eb74 e83c 6137 9f3b 5cb7 60bd
000001b0: c4ca efbc 9e78 123d f987 1cbd 29f4 053d
000001c0: b965 b23c 7a32 9abb 000b c53d d597 d13b
000001d0: 5d3d 03bd 9f72 3b3d a453 b93c 9005 8d3c
000001e0: 3ef7 5abd 1ca5 a2bd b3f1 b23d 5a02 223d
000001f0: dcf6 b93b d772 edbc 25fa 293c 531f 6c3d
00000200: 0b47 3ebd aa6b ac3d 8d2b 7ebd b24d 523d
00000210: 8a0f e7ba 83de 973c ddce 44bc 1708 84bd
00000220: 2a46 14bc 216e 26bd 23a1 c73d 0205 f43c
00000230: 2d56 50bd fbe3 81bd ba60 c8bc 1996 203b
00000240: e003 033c 97eb 16bc dc9d ef3c 206a abbd
00000250: 45f9 643d a520 8d3c 6aed fabc e09f 493d
00000260: 66e3 c63d 4fcb c03c f5e6 5c3d b5b6 7abd
00000270: 90cc bc3c e5c3 dabb 8532 083d bbd5 b83d
00000280: b0ed 43bd 18f0 573d 7b51 ed3c e734 b0bc
00000290: 2a4a 0a3d 08df 51bd 0804 90bd 52b7 833c
000002a0: 616a febc 99af c2bc 93bf a0bc ae1b 983c
000002b0: d081 90bd aac3 473d cd96 95ba f913 a73b
000002c0: d086 2f3d d0a1 b1bc 2699 eb3c f963 193c
000002d0: d5ae 8d3c b672 d43d 49b1 81bc 6b4d 443d
000002e0: 2d7a 96bc a3fa 64bc c69c 0f3d 2ebb 0e3d
000002f0: 8c67 86b8 e9e1 ebbc df48 433d 8d9f 9cbd
00000300: 1b57 b8bb 52b6 193d 2c77 72bd aafd 01bd
00000310: 7282 983b abfd 59bc f007 a9bd 4a18 47bd
00000320: 8a68 b4bc 7d30 423d 7d61 2e3b 4b54 583c
00000330: fa4e 94bd 457a 5dbd b288 7a3c e8b1 173c
00000340: 3bd2 aa3d 278d 56bd d7a1 023d 6d23 803c
00000350: 0bc3 383d d576 193d 04f8 22bd e7d4 9ebd
00000360: 27ce 4a3d bdc5 97bd f0f2 35bd 2588 6e3d
00000370: 6a45 393d bf9b e33d c823 72bd 9a47 713d
00000380: a46c 993d bcb9 a3bc 5cff 363c c6eb 4bbc
00000390: a60e 903c bd67 42bd 9c23 383c 87b6 b03b
000003a0: 3b94 f6bd 4811 3bbd 9e92 653d 6d56 6dbc
000003b0: 447b e3bc f534 8a3c 3a8e 0c3d dba2 c2bc
000003c0: 311e a8bc b04f 28bc 207a 4f39 c586 19bd
000003d0: 4e3a 173d bdb8 c13c 0d04 7f3c b1f7 673d
000003e0: 188e 8c3d ee95 933d b686 c03d 9fd9 08bd
000003f0: 2d67 473d 0465 a73c e60a 96bc 1b06 13bd
0.012449126 -0.027580732 -0.01112999 0.0072372085 0.030731844 0.041974176 -0.05942712 -0.02895251
0.039386395 -0.019967023 0.014432363 -0.05375903 -0.07038314 0.062288098 0.036132097 0.02788359
0.018707715 -0.0036254039 -0.04576266 0.055488057 -0.011126874 -0.02189386 -0.010730191 -0.021149792
0.0008449183 -0.072233245 -0.013950502 -0.070421934 0.014386926 0.009126603 -0.03443837 -0.019123007
-0.012817816 -0.016455414 0.010522403 -0.04259584 -0.014315077 0.036170382 -0.0062997225 -0.0006781735
-0.040269885 0.036019422 -0.026702054 0.006753261 0.037351787 0.022199547 0.057416696 0.02028336
-0.012823299 0.0040232954 -0.049562134 0.037557263 0.012111175 -0.09869128 -0.022001032 -0.053042315
-0.033682372 -0.07713077 -0.043423735 0.019711293 0.004323806 0.014451044 -0.042772718 -0.023286406
0.0536815 -0.09558886 0.020827902 -0.06791965 0.0929665 -0.022435188 -0.017671676 -0.027305182
0.013016528 -0.034841735 -0.10000306 0.036695387 0.06245401 0.03209996 -0.0028031198 0.0063578566
0.03133127 0.05787541 0.022705482 0.02218788 0.02898825 -0.072700836 -0.024822839 -0.113344684
-0.06946565 0.005363669 -0.045069125 -0.06068864 0.019652639 0.021479389 0.0051866164 -0.059504963
0.018534318 0.018663336 0.043995205 -0.03286176 -0.0027482957 -0.033495024 0.009402239 0.08580102
0.011881074 0.028376063 0.0048588966 -0.054862365 -0.02927149 0.03575956 -0.03821561 0.032703552
0.02177702 -0.0047057243 0.09621239 0.0063962736 -0.032040942 0.045763608 0.02262289 0.017214566
-0.053458445 -0.07941648 0.08737507 0.039553024 0.00567518 -0.028985424 0.0103745805 0.05764706
-0.04645447 0.08418973 -0.062053252 0.051343627 -0.0017628532 0.018538719 -0.012012211 -0.064468555
-0.009049932 -0.04063237 0.09747531 0.029787544 -0.050863434 -0.06342312 -0.024460185 0.0024503528
0.007996529 -0.009211442 0.029250078 -0.08369851 0.055901784 0.01722748 -0.030630786 0.049224734
0.097113416 0.023534445 0.053931195 -0.0612094 0.023046762 -0.0066761845 0.033251304 0.09025141
-0.0478341 0.052719206 0.028969517 -0.0215096 0.033762135 -0.05123809 -0.07032019 0.016078625
-0.031056585 -0.023765372 -0.0196226 0.018567886 -0.0705601 0.048770584 -0.001141274 0.0050988165
0.042853177 -0.021683604 0.02875955 0.009362214 0.01729528 0.10373442 -0.015831606 0.047925394
-0.018368805 -0.013975772 0.03506162 0.034846477 -6.408905e-05 -0.028794246 0.047676917 -0.076476194
-0.005625618 0.03752739 -0.059195682 -0.031736054 0.004654222 -0.013305108 -0.08253467 -0.04860715
-0.022022504 0.047409523 0.00266084 0.013203691 -0.07241626 -0.054071683 0.01529138 0.009258725
0.083408795 -0.052380707 0.031892624 0.015641892 0.045107882 0.037466843 -0.039787307 -0.07755452
0.04951301 -0.074107625 -0.044421136 0.058235306 0.045232214 0.111136906 -0.059116155 0.058906175
0.07491425 -0.019986026 0.011169281 -0.0124463495 0.01758511 -0.047462214 0.011238959 0.0053928527
-0.120399915 -0.045670778 0.05604803 -0.014485938 -0.027768739 0.016870955 0.034315325 -0.023759296
-0.020522209 -0.010272905 0.00019786553 -0.037482042 0.036920838 0.02364766 0.015564931 0.0566327
0.0686304 0.07206331 0.09400694 -0.033410665 0.04868238 0.02043391 -0.018315744 -0.035894495

action_model._continuous_distribution.mu.bias f4 [9]
00000000: 4a85 863c 423d ebbc ebb3 ccbb 7947 5dbc
00000010: 14a5 6e3b 36d1 edbc af57 97bc 7a3f 19bd
00000020: 39eb 6c39
0.016420979 -0.028715733 -0.006247034 -0.01350581 0.0036414312 -0.029030424 -0.018474428 -0.03741405
0.00022594341
