results/RLEnv2/Worm/Worm-999988.pt (torch, 735841 bytes, 36 tensors)

network_body._body_endoder.seq_layers.0.weight f4 [128, 98]
000000 6d 69 31 3d a3 61 13 be 9e 42 37 3e 5b e1 db 3d
       0.043313432 -0.14392714 0.17896506 0.107363425
000010 e5 bf 8f 3d 4c ac b0 3c ae 4e 90 3d 16 92 c5 bd
       0.07019023 0.021566533 0.07046257 -0.09647004
000020 97 04 c7 bd 2f 9e f2 bc 17 72 22 3d 8e 4b c3 3d
       -0.09717672 -0.029616443 0.039659586 0.09535895
000030 8a 35 65 3d 33 c7 ca 3d 7b 4e 34 3d 05 06 cc 3c
       0.055959262 0.099012755 0.044020157 0.024905214
000040 d7 02 40 bd fd af eb 3d 73 9d a5 3d 35 97 9f 3d
       -0.04687771 0.115081765 0.08086672 0.07792512
000050 3e 02 b7 3c c7 9a 88 bd 80 47 60 bd dc 56 d7 bc
       0.022339936 -0.066701464 -0.054755688 -0.026286535
000060 5c b4 96 3c fd 0d 5b 3e d6 7c 3c be d9 32 f6 bc
       0.018396549 0.21392055 -0.18406996 -0.030053543
000070 ea f9 44 bd a6 52 1a 3d 07 4b 3b 3e 12 bd 05 3d
       -0.0480899 0.037676476 0.1829034 0.032651015
000080 77 ab a3 3d 0f b8 8d bd 20 38 b8 bc 69 87 a8 bd
       0.07991689 -0.06919872 -0.0224877 -0.082289524
000090 e1 0c d4 bb 90 86 e0 3d 60 d6 7b bd 65 94 da bd
       -0.006471262 0.10963166 -0.06148374 -0.10672835
0000a0 5e a9 62 3d b4 c3 39 3c 20 ee 50 bd f2 ec 07 3d
       0.055337302 0.011338163 -0.051008344 0.033184953
0000b0 c8 d7 6c 3d a4 a2 29 3e 96 e4 66 bc 9a e4 c8 bd
       0.057822973 0.16565949 -0.014092585 -0.09809227
0000c0 42 cd 9c bd 2f e7 fd bd 97 a5 e3 3d 0e 4b c6 3d
       -0.07656337 -0.123976104 0.11115568 0.09682284
0000d0 3d 59 24 be 05 54 1b bd 0e 7e f5 3d bb f9 eb 3d
       -0.16049667 -0.037921924 0.11986934 0.11522242
0000e0 74 7c 8c bd da de 76 3d 5a 06 9e bc ee bf 24 3d
       -0.06859675 0.06027112 -0.019290138 0.0402221
0000f0 8f 58 66 3d 0b c2 b2 3d 59 7a 9c 3c 3c da 8c 3d
       0.0562368 0.08728417 0.019101309 0.068775624
000100 88 3d b8 bc d7 05 56 bd 64 2e c0 3d f4 80 7c be
       -0.022490278 -0.052251663 0.09383848 -0.24658567
000110 63 91 f9 3d 5a d7 49 3e 37 1d ca 3d bc c8 c9 bd
       0.121859334 0.19711056 0.098688535 -0.0985274
000120 1d 1c ee bd 34 5c c9 bc 77 c8 6a be e8 46 6a 3d
       -0.11626456 -0.024580099 -0.22928034 0.057196528
000130 c0 1a 9e 3b 12 d0 12 3d f0 86 3b bd b4 f3 4e bc
       0.004824966 0.035842963 -0.045782983 -0.012631346
000140 8b b8 1e 3e 29 e8 22 be 69 73 36 3c b6 13 de bb
       0.15500085 -0.15908875 0.011135914 -0.006777252
000150 a3 88 02 bd 7c d8 c8 3d 28 1d 27 bc b6 35 18 be
       -0.03186859 0.09806916 -0.0101998225 -0.14864239
000160 2d 7d ba bd 57 f5 53 bd 63 b0 9c bd ce cd 94 3d
       -0.09105907 -0.051747646 -0.076508306 0.07265817
000170 a5 93 cf ba 67 11 0d 3d 15 ec cc bd d1 1d 33 be
       -0.0015836848 0.034440424 -0.100059666 -0.17491843
000180 8e e7 48 3c 8c b9 26 3d 87 05 04 3d 5f 58 8b bd
       0.012262238 0.040704295 0.032231834 -0.06803965
000190 93 c0 99 bd ee d5 90 be 6d b2 a2 3d a5 0c 15 3d
       -0.07507434 -0.28288215 0.07944188 0.036389012
0001a0 64 86 00 be 39 7d 5c bd 5d ce 4b bd c3 28 e8 bd
       -0.12551266 -0.05383036 -0.04975735 -0.113359
0001b0 e3 7b 24 be 07 0f ef 3d 09 7d 97 3d dd fa aa 3d
       -0.16062884 0.11672788 0.073968954 0.083486296
0001c0 80 9e 8b bb 52 37 a0 3b d8 32 c0 3c 63 51 98 bd
       -0.004260838 0.004889407 0.023461744 -0.07437398
0001d0 5c ea f9 3c fa 39 81 be d7 ca 1e bd 15 68 64 3d
       0.03050726 -0.25239545 -0.038767662 0.055763323
0001e0 fe ed 51 3d 29 15 a5 3d 08 c1 ae 3c 35 a4 1a be
       0.051252358 0.080606766 0.021332279 -0.15101703
0001f0 7f 91 22 be 9f a0 e6 bd 4f 6f 47 be 65 fe af 3b
       -0.15875815 -0.11261105 -0.19476055 0.0053709024
000200 c0 ea 39 3e 8f 24 1d 3e e4 d7 0e be e3 d3 66 3d
       0.18155956 0.15345977 -0.13949543 0.056354415
000210 11 1e a2 3b 16 70 fd bd f4 83 08 be 27 67 79 3d
       0.004947432 -0.12374894 -0.13331586 0.06088939
000220 4b 77 29 be a5 5d f4 bd 33 ba b4 bc e9 e0 00 bd
       -0.16549413 -0.11931924 -0.022061443 -0.03146449
000230 6f ed d7 bc 52 7f fc 3d 72 8a cb bd 14 3a 68 3d
       -0.026358334 0.12328972 -0.09938516 0.056696013
000240 bc 13 4d 3e a5 51 f6 3d 19 1e a9 3d 96 64 b5 3a
       0.2002706 0.12027291 0.08257694 0.0013839181
000250 8c 65 d0 3d 35 24 ad 3d 97 1b ee 3b 15 a3 1e bc
       0.101756185 0.084541716 0.0072664726 -0.0096824365
000260 85 4d 08 be 23 21 53 3e 6b 73 8b 3d c1 17 2f 3d
       -0.13310821 0.2061811 0.068091236 0.042747263
000270 b1 85 c2 bc 53 78 5d 3c 81 f0 90 3c e7 5d 2c bd
       -0.02374539 0.013517457 0.017692806 -0.04208174
000280 ed 4a cf bd 31 a4 56 be eb df 2b bd 8c 07 49 be
       -0.10121713 -0.20961072 -0.04196159 -0.19631785
000290 6b d7 3e bd db 41 40 bd e4 ef bf bc 5d aa 80 3d
       -0.046592157 -0.046937805 -0.023429818 0.06282494
0002a0 93 76 27 bc 1b 0d 0a be 7f 2f 5b be 52 02 be 3d
       -0.010221141 -0.13481562 -0.21404837 0.09277786
0002b0 62 80 56 3e 7e bc 0d 3e 4e 48 29 bd 16 f2 19 bd
       0.20947412 0.13841435 -0.04132872 -0.037584387
0002c0 dd 92 a7 ba f7 5d e2 bd 16 fa 9e 3d da 52 c4 bd
       -0.0012784858 -0.110530786 0.07762544 -0.09586115
0002d0 19 81 cf 3c 97 5c b3 bd dc c3 ca 3a 2d 71 77 bd
       0.025330113 -0.087578945 0.0015469748 -0.060410667
0002e0 78 64 20 3d 16 76 29 be dc 71 30 be cd 7c 75 bd
       0.039158314 -0.16548952 -0.17230934 -0.059933472
0002f0 4f 03 9b be 85 60 d7 bc 16 86 d2 bd 13 2e e5 bc
       -0.30275962 -0.026291141 -0.10279481 -0.027976071
000300 44 20 9d b7 87 38 4c 3d 8c 86 34 3d 9b 3d 19 be
       -1.8730883e-05 0.049858596 0.044073626 -0.14964907
000310 fd db 01 bc cc 42 8a bd 26 cc b5 bc 6c 23 f9 3c
       -0.007925984 -0.06751022 -0.022192072 0.030412398
000320 5a 52 48 3e e2 78 bf 3c 4d d4 1d be 31 50 8d 3d
       0.19562665 0.023373071 -0.15413018 0.06900061
000330 43 4f 0a 3e 6b 2d 8e bc 4e e7 86 3d bf df b8 bd
       0.13506798 -0.017355641 0.065870866 -0.09027051
000340 52 65 8f ba 60 66 2b 3e a6 98 c7 3b 72 b0 86 bd
       -0.001094023 0.16738272 0.006091195 -0.06576623
000350 21 31 10 3d a3 3a 24 bc c6 1b ef bd 17 d2 a4 bc
       0.035203103 -0.010023746 -0.11675219 -0.02011971
000360 ec 08 99 3c 48 72 15 3b 95 0c 35 3b f4 7e e2 bb
       0.018681012 0.0022803713 0.0027625908 -0.0069121066
000370 12 38 7b 3d f4 56 71 bd e6 0a 06 3e ca d2 22 3e
       0.06133277 -0.058920816 0.13090095 0.15900722
000380 88 ca 0e be 60 22 13 3e f0 41 2d 3d 65 ee fb bd
       -0.13944447 0.14368582 0.04229921 -0.123013295
000390 00 ea fb bc cc 92 b6 3c db 7a 2f 3d 5c 8d 01 3d
       -0.030751228 0.022286795 0.042841773 0.03162895
0003a0 56 03 eb 3d c3 f7 8f 3e 57 5a c6 3d 4d 1a a5 bd
       0.11475246 0.28118715 0.096852 -0.08061657
0003b0 92 0b b3 3c d3 44 72 bd ea a9 94 3d ef 01 94 3c
       0.021856103 -0.059147667 0.07258971 0.018067328
0003c0 d0 b6 f5 3d 59 0d ca bb 77 f2 fd bb 44 78 75 be
       0.11997759 -0.006166142 -0.0077498513 -0.23971659
0003d0 f3 3c fd 3d 91 e4 0a 3c 82 14 8f bd 7c 82 54 bd
       0.12365141 0.008477346 -0.069863334 -0.051882252
0003e0 05 a6 1d 3e 4f 83 98 bc e2 21 46 be e3 d6 a8 bb
       0.15395363 -0.0186173 -0.19348863 -0.0051525696
0003f0 a9 28 12 be bf 0c 80 3d a0 0b 6b 3e f0 16 5c bc
       -0.14273323 0.06252431 0.22953653 -0.013433203

network_body._body_endoder.seq_layers.0.bias f4 [128]
000000 d0 af a6 3c 21 00 11 bd 30 b8 21 bc 72 86 66 bc
       0.020347506 -0.035400514 -0.009870574 -0.01407014
000010 7e 9e 2f bd cc 03 95 bc 1b e9 4e bd d8 7b c9 3b
       -0.04287576 -0.018190287 -0.050515275 0.0061487965
000020 69 b0 a4 bc 30 c5 f9 3c 51 94 1a 3c 3a a8 5f bc
       -0.02010365 0.030489534 0.009434775 -0.013650948
000030 cb e4 a9 3c d2 fe c1 ba c5 92 e6 bb 42 f8 3e bc
       0.02073898 -0.0014800674 -0.0070365393 -0.011655869
000040 ec b6 35 bd 05 0f 49 bc 61 2c 0e bc ab 5a 0b bd
       -0.0443639 -0.012271647 -0.008677573 -0.034022015
000050 83 bd d8 bc e2 12 93 bc 95 10 30 bd 95 b6 bd bc
       -0.026457554 -0.01795334 -0.042984564 -0.023158351
000060 59 67 c6 3b 9d a8 aa bb d3 75 8e bc 64 be 08 bc
       0.0060548005 -0.0052080886 -0.017390167 -0.008346174
000070 6c 54 91 3c 33 dc 0e 3c b6 39 c7 bc c9 02 e9 bb
       0.01774045 0.008719492 -0.02431951 -0.0071109277
000080 c8 be eb ba d4 84 13 3c 21 2b aa bc 42 59 dd 3b
       -0.0017985934 0.009003837 -0.020772519 0.006755025
000090 6f 30 4f bc f9 c3 34 bd 7c 55 16 bb 05 a2 b5 bc
       -0.012645825 -0.044132207 -0.0022939136 -0.022171983
0000a0 b4 8c d0 bc b9 5a dd bc 43 ec 44 ba 3e 85 28 bd
       -0.025457717 -0.027020799 -0.00075120124 -0.041142695
0000b0 c7 8f 87 bc 11 00 ff bb fd 6e 15 bc 7b fc 5c 3c
       -0.01654805 -0.0077819903 -0.0091207 0.01348793
0000c0 d7 c7 e6 bb 19 dc 96 bb eb 96 da bc 82 c1 d7 bc
       -0.0070428657 -0.0046038744 -0.026683291 -0.026337389
0000d0 6c d1 8c bc 84 6f 60 bd 79 3d d8 bc 87 03 4a bb
       -0.017189704 -0.05479385 -0.0263965 -0.0030824856
0000e0 2e cc 96 bd 43 09 38 3d fd a8 ac bb 2e 93 9b bc
       -0.07363163 0.044930708 -0.0052691684 -0.01899108
0000f0 8b 8c f2 3a 78 c4 70 bd 7e 8b ae bc a8 07 c2 bc
       0.001850502 -0.058781117 -0.02130675 -0.023685291
000100 5c 7c 1d bc 64 cc 40 bc d8 90 11 3c 7e 4c 0c bc
       -0.009612169 -0.0117674805 0.008884631 -0.008563159
000110 e8 4f 11 bc 93 5d be 3a 75 9f 3f bd 1d 33 0d bd
       -0.008869149 0.0014523737 -0.04678293 -0.034472574
000120 30 f0 81 bd 08 4d 13 bd ee e0 ba bd fa 7f ec bc
       -0.0634464 -0.035962135 -0.09124933 -0.028869618
000130 ef 4e 6b bd aa 58 b1 bb 60 df 9f 3b 42 b5 3c 3c
       -0.057448324 -0.005412181 0.0048789233 0.011517825
000140 c2 b1 9d bc 22 1d 03 3c 9d 80 f1 bc 5d 74 1b bd
       -0.0192498 0.008002551 -0.029480273 -0.03795277
000150 b6 98 db bc f4 60 18 bc 4b f2 16 bd f9 04 0b bd
       -0.026806217 -0.009300459 -0.036852162 -0.03394029
000160 56 59 9d bc 19 e4 dd bb a2 61 7c bd f5 4a e0 bc
       -0.019207638 -0.006771576 -0.061616547 -0.027379492
000170 c9 32 d1 bc 5d 36 f0 bb 5d ef 44 bd f9 df 26 bc
       -0.025536912 -0.0073306994 -0.048079837 -0.010185235
000180 75 c5 36 bd 8e 23 5a bc 23 3b ef bc bd 5e a4 bc
       -0.044621903 -0.013314141 -0.029203003 -0.020064706
000190 97 bc 19 bd c0 a1 bd 3b a0 7a e8 bb b0 db b5 bc
       -0.03753337 0.0057871044 -0.007094696 -0.022199482
0001a0 ae b5 b1 bc 67 bf 91 bd ee c7 8b bc 8a d0 09 bc
       -0.021693077 -0.07116585 -0.017063107 -0.008411536
0001b0 ee 1b 88 bc 56 f7 96 bc b1 2e 03 bd e1 75 dc bc
       -0.01661488 -0.018428486 -0.03202695 -0.026911678
0001c0 06 6b d3 bc f8 b1 cd bc 02 5c a3 bc 58 a3 ce 3b
       -0.025807869 -0.025109276 -0.019941334 0.006306093
0001d0 e7 32 10 bd df a1 f0 bb 6b 13 24 bd b0 e8 05 bd
       -0.035204794 -0.0073435153 -0.04005758 -0.03269261
0001e0 23 dd 6f ba 87 ca b2 bc f1 40 12 bd 79 b2 95 bc
       -0.00091500784 -0.021825088 -0.035706464 -0.018273579
0001f0 b1 d8 36 3c e2 52 f9 3c 1b de 4a bd bd 2c 99 bc
       0.011160062 0.03043503 -0.049528223 -0.01869809

network_body._body_endoder.seq_layers.2.weight f4 [128, 128]
000000 c6 2b bf 3d 44 6d e6 3d 1c 4a e9 bd e3 26 25 be
       0.09334521 0.112513095 -0.11391088 -0.16128115
000010 e5 19 35 bc 77 d8 d8 bc 39 a2 4f bd ee 1f 5e bc
       -0.011053537 -0.026470406 -0.050691817 -0.013557417
000020 85 9e 36 be 6f 02 4f 3d 9c a4 c9 bd b8 71 4a bd
       -0.17833908 0.05053943 -0.0984585 -0.049424857
000030 7a 44 b6 bd 5d f6 f4 bc 83 e9 d0 3d a9 e8 a4 3d
       -0.088997796 -0.029902631 0.10200789 0.08052189
000040 d7 ab a1 bd c8 3a e9 3c ef 2e fd 3c 15 17 64 bd
       -0.07894104 0.028470412 0.030906169 -0.055686075
000050 ec 09 ba 3d 17 d6 e7 3b 7f 76 4e bd 20 d9 21 bd
       0.09083924 0.007075082 -0.050405975 -0.039513707
000060 05 55 fc bd ff 0b f0 3a fd 58 04 3c 62 99 42 3b
       -0.12320904 0.0018314122 0.008077857 0.0029693474
000070 a8 18 2f ba 71 a5 5c bc 14 26 18 3d 59 ed 2a bd
       -0.0006679394 -0.013467179 0.03714569 -0.04173026
000080 02 92 da 3b bc 05 2e bd b6 be 92 bd ee d6 a1 3d
       0.0066702375 -0.042485937 -0.071652815 0.07902323
000090 48 26 e0 3d 3c c3 c8 bc d7 a6 96 3d b8 eb 0a bc
       0.109448016 -0.024507158 0.07356041 -0.008479051
0000a0 88 a8 2c bd 43 7a 00 3e 2c a6 df bd 0c 20 ae 3a
       -0.04215291 0.12546639 -0.10920367 0.0013284697
0000b0 51 7b 23 be 63 18 84 bd 26 81 92 3d e1 47 a0 3d
       -0.1596501 -0.06449964 0.07153539 0.0782621
0000c0 a7 8d 05 3e c2 6d 53 bd 4f e0 3e be 12 1e 03 3d
       0.13042317 -0.051618345 -0.18640254 0.0320111
0000d0 2f ac 51 bd 9b 45 e2 bc 4d 09 90 3c 5d 72 ef 3d
       -0.051189598 -0.027621081 0.01758256 0.11691735
0000e0 ba ab ea 38 11 a0 e3 3c 97 2d 8b bd a3 52 b4 bd
       0.00011189976 0.027786287 -0.06795805 -0.08804824
0000f0 0d 56 fd 3c b3 cb 03 3c 6b 08 fe 3c 92 6e 22 3e
       0.030924821 0.008044171 0.031009873 0.15862492
000100 de fa 04 be 85 5e cb 3c de f4 b2 bd 66 98 c3 bd
       -0.12986323 0.024825344 -0.08738111 -0.09550552
000110 d2 d7 a4 bd e9 cd a0 3d 9a cd 80 bc 1f 5d 41 3d
       -0.08048977 0.07851774 -0.015723038 0.047207948
000120 82 40 80 bb cb 8d 8a bd dc a0 43 3d ad 91 bb bd
       -0.00391394 -0.06765326 0.04776083 -0.09158645
000130 5f 86 71 bd 51 c0 30 3e 06 73 6d bd f2 dc a0 bd
       -0.058966037 0.17260863 -0.057971023 -0.07854642
000140 7f 88 44 bd 88 a9 97 3d 38 1e 91 bd b5 30 b5 39
       -0.047981735 0.074053824 -0.07085842 0.000345593
000150 86 f0 05 be 93 b3 91 bd 1c 19 cc bd 9a 5c 5f bd
       -0.13080034 -0.07114329 -0.09965727 -0.05453167
000160 7e 42 af 3d 17 eb f6 3d 2c c7 d1 3d c6 11 17 3e
       0.08557604 0.120565586 0.10243067 0.14752874
000170 52 08 79 bd 34 d4 e9 3d fd 91 f3 3c 04 99 87 3b
       -0.06079895 0.11417428 0.029732699 0.004138114
000180 53 78 28 bd ed 49 e2 bd 4c fd a8 bd 24 5a f4 bd
       -0.041130375 -0.110492565 -0.082514375 -0.119312555
000190 a9 4a a5 bd 9b 08 a7 bd 92 e5 a9 bd e8 de 31 3d
       -0.08070881 -0.08155938 -0.0829574 0.04342547
0001a0 b6 4f 90 3c 23 b8 cc 3d 07 59 48 3c c4 6f 0d 3d
       0.017616134 0.09996059 0.012228257 0.034530416
0001b0 72 91 e1 bd a0 a9 27 be 70 82 b3 bd 43 9f 32 be
       -0.110140696 -0.163733 -0.08765113 -0.17443566
0001c0 50 d2 ae 3d 10 7c d1 bd 15 31 bd bb 6e 50 8e bd
       0.08536208 -0.10228741 -0.0057736733 -0.069489345
0001d0 d6 97 34 bd e5 73 88 bc 25 ad 78 3d e9 54 62 be
       -0.044090115 -0.016656825 0.060712 -0.22102703
0001e0 41 5a b2 3c 14 85 08 3e 22 95 6c bd d0 a5 a2 bb
       0.021771552 0.13332015 -0.05775941 -0.004963614
0001f0 66 c8 68 bd 65 6b 30 3d 14 c5 10 bb 10 eb bc 3d
       -0.05683174 0.04307117 -0.0022090124 0.09224522
000200 c8 1d db bd 3f 2b a0 3d 8f 86 6f bd 72 f9 0a 3e
       -0.1069904 0.078207485 -0.058477934 0.13571718
000210 55 d2 e3 bc 19 22 1d 3d fd dd 43 be a4 28 23 3c
       -0.027810255 0.038362596 -0.1912765 0.00995842
000220 00 58 36 3d f8 2d 7a 3d 29 07 26 bd 41 28 92 bd
       0.044517517 0.061078995 -0.040534172 -0.07136584
000230 83 2b f7 bc ca 28 90 3d 0a c5 7a bc 05 97 b6 bd
       -0.030172115 0.0703903 -0.015305767 -0.089155234
000240 d7 83 54 bd 2e 0b c5 bc e4 0a f7 bd 49 bd 83 3d
       -0.051883545 -0.024053182 -0.12062624 0.06432588
000250 4b b8 1e 3d e3 40 1d 3b 1e dc e1 3d 40 cf b6 bd
       0.038749974 0.0023994974 0.11028312 -0.089262486
000260 b2 c6 ef bd cc a1 04 3e a1 6b cc 3d 1f 9b 4a bd
       -0.1170782 0.12952346 0.09981466 -0.04946434
000270 12 b5 48 be 15 a1 51 3d 1c 3c 00 3c ed 29 21 bb
       -0.19600323 0.05117901 0.007826831 -0.002459164
000280 e9 58 a2 3d 6e 11 c1 3d 8a d5 35 bd 32 7f 47 bc
       0.079271145 0.094271526 -0.0443931 -0.012176322
000290 a4 c7 ce 3c 01 70 89 3d 69 dc 92 3d 30 6f 17 3e
       0.02524168 0.06710816 0.07170946 0.14788508
0002a0 b7 75 d2 3d d2 19 10 bd 41 32 08 3a f6 86 bd bc
       0.102763586 -0.035180874 0.00051954767 -0.023135643
0002b0 3b 37 02 3c 40 df 85 bc 96 60 77 be 54 d2 5c ba
       0.007947738 -0.016341805 -0.24157938 -0.00084236753
0002c0 e4 5a 4d bc b8 19 23 bd 45 0b 9c 3d 1a 4b bc 3d
       -0.012533877 -0.03981945 0.07619337 0.09194012
0002d0 ac e4 9e 3b d0 b1 bb 3d 05 b3 c7 bc d0 41 a5 3d
       0.004849037 0.091647744 -0.024377355 0.08069193
0002e0 90 86 c7 bc a6 59 23 be ab 7b ec bd 16 df 54 bd
       -0.024356157 -0.15952167 -0.11547025 -0.051970564
0002f0 2d 51 8e 3c 1e 90 1a 3c 94 7a 9f 3d ba 35 a6 3a
       0.017372692 0.009433774 0.07787052 0.0012680807
000300 42 69 35 3d 3a 5c 9c bd cc 68 fb 3d 67 74 20 3e
       0.044289835 -0.07634778 0.12275848 0.15669404
000310 31 67 ef 3d ef 44 40 bd a9 f0 f5 3d ce 54 a3 3d
       0.11689604 -0.04694074 0.12008793 0.079751596
000320 ad 17 2b 3d f5 d3 0a bc 44 7b 31 3d fd 3b 4c 3e
       0.041770626 -0.008473386 0.043330446 0.19944759
000330 66 70 70 3c e5 aa 01 3d 6a 15 d4 bb b9 8f 64 bc
       0.014675235 0.03165712 -0.0064722793 -0.013950282
000340 ad 00 38 bd 5a d9 39 3b 82 e1 5b 3e 64 fc f0 bc
       -0.04492252 0.0028358311 0.21472743 -0.029417224
000350 af 74 8a bd 04 ac 23 3e b7 7a 20 3e 4d c6 0c 3d
       -0.06760537 0.15983588 0.15671812 0.0343688
000360 80 58 39 3e 9a c9 fb 3d 4f 70 05 3e d8 41 8e 3c
       0.18100166 0.12294312 0.13031124 0.017365381
000370 a2 1d 2e 3d a5 74 54 be ec 55 c7 3d 31 41 38 3d
       0.04250873 -0.20747621 0.09733185 0.044984046
000380 05 41 6c 3d 19 f9 99 bc 97 1a 63 bc 38 db 9e bc
       0.057679195 -0.018795537 -0.01386132 -0.019391641
000390 c4 00 15 3e cc 45 36 ba d2 64 82 3d f2 63 85 3d
       0.14551073 -0.00069531496 0.06366886 0.06513204
0003a0 45 aa e3 3d c8 8d e8 3b c0 69 26 3d bb e5 ab bd
       0.11116461 0.0070969798 0.040628195 -0.08393427
0003b0 eb 4a 72 3d 8b cb 94 39 da 6c eb 3d d8 a9 f7 3d
       0.05915348 0.0002838041 0.11495371 0.12092942
0003c0 20 65 97 bc 0a 5f 2b 3e 21 37 cd 3d 4b fc 35 3d
       -0.018480837 0.16735473 0.10020281 0.04443006
0003d0 12 2a 00 be 8d a4 7d bd 84 48 09 be 10 0c 63 3d
       -0.12516049 -0.061924506 -0.13406569 0.055431426
0003e0 92 f9 81 bd e3 cd aa bd 69 bc 51 3d 57 b3 44 be
       -0.0634643 -0.08340051 0.051205073 -0.19209038
0003f0 24 25 12 be 12 97 3f bc 94 51 61 3e 90 a0 d6 3d
       -0.1427198 -0.011693733 0.22003776 0.104798436

network_body._body_endoder.seq_layers.2.bias f4 [128]
000000 ec 82 b8 3c 8e 5e 1a bd be 33 6f bd 4d ba 89 bc
       0.022523366 -0.03768783 -0.058398955 -0.016812468
000010 15 9e f3 3b 53 8e 4c bd 22 58 3f bc 7b 59 6d bc
       0.0074346163 -0.04994042 -0.011678727 -0.014486666
000020 7d bb d3 bc 82 4d dc bc 6a 0d ba bc c1 35 b8 3b
       -0.025846237 -0.026892427 -0.022711474 0.0056216423
000030 81 51 c6 bc 23 43 4e bc 6e 6f 0b bd 0f 70 a5 bc
       -0.024208786 -0.012589249 -0.034041815 -0.020195035
000040 f5 37 cc bc 6f 86 20 bc 9f 9f 6b bd 15 c8 b8 bc
       -0.024929026 -0.0097976765 -0.057525273 -0.022556344
000050 de 22 ae ba 00 79 0a bd 38 97 17 bd 83 41 96 3b
       -0.0013285538 -0.0338068 -0.037009448 0.0045854463
000060 48 09 27 bc 8c 79 05 bd 54 13 15 bd 15 1a b1 bc
       -0.010195084 -0.03258662 -0.036395386 -0.021618882
000070 1d aa 22 3c c7 71 06 bd ab 02 b3 3c f4 94 14 bd
       0.0099282535 -0.03282335 0.021851858 -0.036274865
000080 04 0e d9 bc 95 54 38 bc f2 c2 fd 3c eb 79 68 bc
       -0.026495941 -0.011250635 0.030976746 -0.014189224
000090 79 86 83 3b 4f 8c f3 bc 3e dd 0a bd 6d f1 18 bd
       0.004013833 -0.02972999 -0.0339024 -0.037339617
0000a0 50 43 7a bb 7d 53 5a bc fe ba dc bb 18 a6 9d bc
       -0.0038187094 -0.013325569 -0.0067361584 -0.019244239
0000b0 8f c1 4b 3c 1e 77 0c bd ee 9e 6c bd 61 1d 78 3c
       0.012436285 -0.034293287 -0.057768755 0.015143723
0000c0 de bf 08 bd 81 bc 1f bc 27 11 06 bd 72 bf bf 3c
       -0.033386104 -0.009749533 -0.0327312 0.023406718
0000d0 a8 b6 b7 3c 64 62 fb bb 17 db 85 bb 7a a5 51 bb
       0.022425964 -0.007671641 -0.0040849554 -0.00319895
0000e0 a7 a3 1a bc b7 27 a1 bc b3 bb b8 bc 7d d4 c9 bc
       -0.009438432 -0.019672258 -0.02255044 -0.024637455
0000f0 b3 f0 8f bc 79 58 c4 bc 85 6b 4a bb 94 21 c7 3a
       -0.017570829 -0.023967968 -0.003088684 0.0015192502
000100 a9 0f b7 bc 6f 78 c9 3b a4 8e b5 bc ad a3 27 bc
       -0.022346335 0.00614839 -0.022162743 -0.010231894
000110 1d c5 a4 3c 5e f8 79 bd dc d2 e8 bb 4c c7 e9 bc
       0.020113522 -0.061027877 -0.0071052145 -0.028537415
000120 e0 f2 2a 3c 05 b1 bd b9 ce 29 db 3b 50 a0 35 3d
       0.0104338825 -0.0003618078 0.006688333 0.04434234
000130 03 a4 37 3c b0 91 8c 3c e2 46 a5 bb dd e8 6e bd
       0.011208537 0.017159313 -0.0050438503 -0.058327544
000140 fc 10 64 3c 75 79 d3 bc 2b 71 90 bc 6a 62 d5 bb
       0.013920065 -0.025814751 -0.017632088 -0.006511976
000150 eb de 22 3c a8 0b d9 bb 20 eb 22 bd a1 42 26 3c
       0.009940843 -0.006623704 -0.039775014 0.0101477215
000160 a8 e8 23 bd 14 22 5f bd ea e5 af 3c df 95 53 bc
       -0.0400168 -0.05447586 0.021471936 -0.01291415
000170 86 44 b0 bb b2 6e a2 3c 28 0f 9d bc 40 7b 0d 3d
       -0.0053792624 0.019828174 -0.019172266 0.03454137
000180 38 3c d6 3b 94 c9 c3 bc 4a 40 d1 bc 29 de b2 bc
       0.0065379404 -0.02389983 -0.02554335 -0.02183445
000190 62 41 b3 bc 8a c8 7f bc e4 ac a6 bb 9f 1e 1d bd
       -0.021881763 -0.015611777 -0.005086528 -0.03835928
0001a0 47 ac 85 3b 37 f4 a5 3a 7a 9d b9 b9 09 8f 7b b8
       0.004079375 0.0012661283 -0.0003540328 -5.9976275e-05
0001b0 df 48 06 bd 25 b3 1f bc 85 10 0f bb 5f 86 1f 3c
       -0.03278434 -0.009747301 -0.0021829915 0.009736626
0001c0 ca 09 ca bc e8 17 53 3c ec 39 f8 bc 35 ac f1 bb
       -0.02466287 0.012884118 -0.030301057 -0.007375265
0001d0 16 a6 9a 3b fa a6 34 bb 91 c9 0e bd 87 6b 35 bd
       0.004719506 -0.0027565346 -0.034860197 -0.044292
0001e0 18 37 81 39 ab b1 2b bd 1c 7c 7c bc 77 0d 4f bd
       0.00024645845 -0.041917484 -0.015410449 -0.05054995
0001f0 43 ac 52 bc 8c 6b ed bc 95 8e a3 bc d7 11 43 bb
       -0.012858453 -0.028981946 -0.01996545 -0.0029765272

action_model._continuous_distribution.log_sigma f4 [1, 9]
000000 ee de 49 3e 9c eb 58 3e 4b 30 67 3e e8 15 67 3e
       0.19713947 0.21183628 0.22577016 0.2256695
000010 2a f6 7e 3e 51 e5 aa 3e 37 00 8e 3e b2 b7 8a 3e
       0.24898592 0.3337808 0.2773454 0.27093273
000020 19 dc 73 3e
       0.2381443

action_model._continuous_distribution.mu.weight f4 [9, 128]
000000 50 5b 06 3d 7e e2 c2 b8 5e f5 52 bd 1a 83 1f bb
       0.032801926 -9.292828e-05 -0.05150353 -0.0024339617
000010 e2 21 eb bb 2a 08 03 bd 61 3c 9c bc 56 ee 59 bc
       -0.00717567 -0.031990208 -0.01907176 -0.013301453
000020 9a ec d4 38 bb 25 fc ba 4b 15 08 bd 9d d3 32 bc
       0.00010153018 -0.0019237319 -0.03322343 -0.01091471
000030 c1 db a1 bb 40 03 86 bc a9 db e4 bc 6b e1 b2 3b
       -0.004939527 -0.016358972 -0.027936773 0.005459001
000040 84 e6 23 bc 10 c1 1a bb da a5 69 bc 34 05 db ba
       -0.01000369 -0.002361361 -0.0142607335 -0.0016709925
000050 08 44 01 bd 24 14 e0 bb 41 52 17 ba ab 8c b1 bc
       -0.03155902 -0.0068383384 -0.00057724497 -0.021673521
000060 6d 94 2e bd 60 97 c1 bc 03 94 9d bc 4b 46 32 bd
       -0.04262202 -0.023631752 -0.019235617 -0.043524068
000070 04 06 61 3b f9 d3 df bc 3f c4 80 bd 3c 58 14 bd
       0.003433586 -0.027322756 -0.06287431 -0.03621696
000080 d8 ed be bb 7f 75 4e bc 25 b9 14 bc 93 03 41 bd
       -0.005826693 -0.012601255 -0.009077345 -0.04712255
000090 cc c3 c6 3b d3 9a d9 bc f7 90 2e bd 4b d2 f1 bb
       0.0060658213 -0.026563084 -0.042618718 -0.007379805
0000a0 e2 41 dc bb a2 f4 02 3b 15 88 d7 bc 9a 03 d3 bb
       -0.006721721 0.0019982238 -0.026310006 -0.0064396383
0000b0 21 c4 63 3c 3a 44 0e bd 18 da 2e bc 43 2d 48 3c
       0.013901741 -0.034733035 -0.010672115 0.0122178225
0000c0 03 6f bb bc e3 ce 60 3c b4 a6 7f bc be 1f 5e bc
       -0.022880083 0.013721201 -0.01560371 -0.013557373
0000d0 92 c5 38 3c 51 cd 3a 3c 36 02 29 3c 54 66 07 3b
       0.011277573 0.01140149 0.010315469 0.0020660358
0000e0 36 04 87 bc cc 78 37 3b a3 47 bc b9 78 57 d6 bc
       -0.0164815 0.0027995585 -0.00035911528 -0.026164755
0000f0 43 d4 76 bd 76 3e f2 bc 8d 87 98 3c a2 1c f0 ba
       -0.060261022 -0.0295708 0.018619323 -0.001831908
000100 d8 c0 92 bb 96 32 d3 bb a7 a7 30 bc 62 c1 0d bd
       -0.004478555 -0.0064452393 -0.010782159 -0.034608252
000110 d6 9e 10 bc 34 22 03 bd 5b 20 c4 bc 76 cc c3 bc
       -0.008826932 -0.03201504 -0.02394121 -0.023901206
000120 87 0a 6a bc 80 84 64 bc 77 2d 69 3c df e4 68 3c
       -0.0142847365 -0.013947606 0.014232031 0.014214723
000130 41 fc 58 3c 71 0b de bc 03 95 3f 3b 69 a1 1f 3b
       0.013243736 -0.027105065 0.0029233105 0.0024357683
000140 05 94 d7 bc 29 22 70 bc 7f 7d 9e ba 04 9e d3 bc
       -0.026315698 -0.014656582 -0.0012091844 -0.025832184
000150 78 1b 0b bb 1d 42 8d bb 2d d6 3c bc 15 24 bd ba
       -0.002122609 -0.00431086 -0.011525673 -0.0014430309
000160 a5 7d 92 3c ac 24 99 3a c5 58 49 3c a5 94 ac 3b
       0.017882178 0.0011683903 0.012289231 0.0052667432
000170 45 67 3c 3c 3d 65 c8 bc 6f f7 26 bd 46 9a 08 bb
       0.011499231 -0.024462337 -0.040763315 -0.0020843907
000180 fd ed 98 bb 37 47 41 3a 43 f8 c1 bc 37 af 74 bd
       -0.0046670423 0.00073729776 -0.02367795 -0.05973741
000190 b2 23 2b bc d7 e6 1b bd 4d 3a a5 3c 09 44 0e bd
       -0.010445522 -0.038061943 0.020169402 -0.034732852
0001a0 71 c2 9a bc d6 5e 92 bb 10 ab 44 bc 9f 30 cc 3c
       -0.018891545 -0.0044668717 -0.012003675 0.024925528
0001b0 78 a7 e0 b7 ad 2d ba bc e9 fb 14 3c 43 6a 39 3a
       -2.6780865e-05 -0.022726858 0.009093263 0.0007073024
0001c0 b5 2a 9d 3c 0f f5 01 bc 2c 4b c1 bc 1a 00 08 bd
       0.019185403 -0.007931962 -0.023595415 -0.03320322
0001d0 79 22 99 ba 91 c6 c4 3c 13 2f 86 bb c0 56 67 bb
       -0.0011683247 0.024020465 -0.004094967 -0.003529951
0001e0 ae 42 c2 3c 2b f2 f6 bc f2 85 6c bb 35 f8 8c bc
       0.023713436 -0.030144772 -0.003609058 -0.017208198
0001f0 4f a8 40 bd fb ca 86 3c 97 df fa 3c 39 ce 8b 3c
       -0.04703551 0.01645421 0.030624194 0.017066108
000200 c7 5d 2a bc bb b8 10 3d c8 7b df 3c c5 3a 87 3d
       -0.010398335 0.035332423 0.027280703 0.06603006
000210 66 16 67 3d cc db b1 3c 3d 3e e3 3c 70 ce 31 3c
       0.056417845 0.021711253 0.027739638 0.010852441
000220 92 41 73 3c 21 06 fd 3b 3b d6 a8 3c 8f 8b d2 ba
       0.014847176 0.007721678 0.020609966 -0.001606332
000230 48 04 0e 3c ee 32 83 bc fb 25 54 3d 99 58 43 ba
       0.008668013 -0.016015496 0.051794033 -0.0007451862
000240 91 0f e9 3c c4 3a 90 3c 87 80 23 3d 09 83 75 bb
       0.028449805 0.017606147 0.039917495 -0.0037462136
000250 d6 dc 24 3d e7 b9 37 3c 6a 88 7e bc 49 d9 03 bc
       0.040249668 0.011213756 -0.015535453 -0.00804741
000260 a3 df df 3a 9d b5 2c 3d b1 40 07 3d 36 13 ff ba
       0.0017080199 0.042165387 0.03302068 -0.0019460681
000270 2b 0d 78 3c 41 8d 8a 3d 1e 21 48 3d da a0 60 bb
       0.015139858 0.06765223 0.048859708 -0.0034275563
000280 56 91 c7 bb 7a d2 df 3c 06 3d 0f bd db d6 1e 3d
       -0.0060903234 0.027322043 -0.034970306 0.03877912
000290 ff 51 60 3c 28 7e b6 3c 32 a0 5e 3d 18 ac f6 3c
       0.013691424 0.022276953 0.054351993 0.030111358
0002a0 d3 18 38 3d bb 12 57 ba dd 2d 39 3d db 66 5b 3d
       0.04494555 -0.000820439 0.045209754 0.053564887
0002b0 79 d6 b3 3c 45 7c 60 3d 2d ae 9c 3c 75 5f ae 3c
       0.021952854 0.054806013 0.019126022 0.021285752
0002c0 97 e0 36 3d e3 f9 76 3c 8e e9 40 3d 2b e3 46 bc
       0.04464778 0.015074226 0.047097735 -0.012139122
0002d0 3c 1b 41 3c fe f7 f2 3c e7 2a 3d ba c5 df 84 bb
       0.011786278 0.029659268 -0.0007216171 -0.0040549957
0002e0 93 5f 0b 3c 79 69 c9 ba a8 e5 cc 3b 2f ed 46 3c
       0.008506673 -0.0015366516 0.006252963 0.01214151
0002f0 5c f0 17 3d d4 dc d4 3b c6 fe dd 3c 8e 3a df bb
       0.03709446 0.0064960513 0.027099025 -0.0068124
000300 40 70 11 3d c8 98 ba 3c 81 2e 3c 3c 46 cc 85 bc
       0.03550744 0.02277793 0.011485697 -0.016332757
000310 76 4e 6e 3c 89 2f df 3c 1a 94 12 3d 55 4e 88 bc
       0.014545074 0.027244346 0.035785772 -0.016638914
000320 ae ef ba 3b db af 59 3c 79 fe 05 bd 47 50 a6 bc
       0.0057048416 0.013286556 -0.032713387 -0.020301951
000330 db d4 0c 3a 41 38 7c 3d 76 f5 88 3c 76 12 46 3c
       0.0005372294 0.061577085 0.016718607 0.012089362
000340 e6 49 02 3a 64 9e 6c 3c f6 e1 64 bc eb be 85 bc
       0.0004970118 0.01444206 -0.013969889 -0.016326388
000350 d4 00 89 ba 81 cc fa 3c d6 80 64 3c f5 25 bd 3c
       -0.0010452517 0.030615093 0.0139467325 0.023089388
000360 11 2b 85 3c 11 c7 4a 3d 6f a6 2e 3d 03 0f a7 3c
       0.016255887 0.04950625 0.042639192 0.0203929
000370 43 26 06 3d 89 ac 13 3d 12 c3 50 3b 98 e2 56 bc
       0.032751333 0.036053214 0.0031854552 -0.013115548
000380 3a 17 f0 bb 74 e9 94 3c c0 83 96 3c 17 63 1b 3a
       -0.0073269876 0.018177725 0.01837337 0.00059275463
000390 f8 c1 71 3c cf 21 27 3d a0 20 37 3d 61 5f 21 3d
       0.014755718 0.040803727 0.044708848 0.0393976
0003a0 9c 3d cd 3c c4 5b 31 3d 8c 1a 20 bc 57 df dc bc
       0.025053792 0.043300405 -0.009771954 -0.026961965
0003b0 a9 7e 4d 3d 47 f6 2e 3c ed 5f f0 3b 7b 60 90 bb
       0.05016962 0.010678834 0.007335654 -0.0044060326
0003c0 1b 69 32 3d 25 18 10 bd 7c 30 ee 3c 97 b9 b6 3c
       0.043557268 -0.035179276 0.029075854 0.022305293
0003d0 d0 e8 55 3c 8f 43 20 3c ff ad 29 3d df 70 4f 3c
       0.013055995 0.009781732 0.0414257 0.012661188
0003e0 e3 84 1b 3c f2 da a8 3c e4 d1 23 3d f6 e4 75 3b
       0.009492132 0.020612214 0.03999509 0.0037520505
0003f0 5c 57 14 3d c6 32 1e 3d 16 70 19 39 b6 ee 4a 3d
       0.036216125 0.03862264 0.00014632972 0.04954406

action_model._continuous_distribution.mu.bias f4 [9]
000000 40 ad 90 3c 58 d3 81 bb fd 64 b7 3c 38 82 3b 3c
       0.017660737 -0.0039619617 0.022387022 0.011444621
000010 42 32 8a bc ed 04 fc bb 1d 7a 02 3b db 03 39 3c
       -0.016869668 -0.007691017 0.001990921 0.011292423
000020 e4 f0 41 3d
       0.04734887

exp_avg f4 [128, 98]
000000 00 00 00 00 ba 0d b8 35 d5 ca 0e b7 00 00 00 00
       0.0 1.3713063e-06 -8.511085e-06 0.0
000010 3f 9d 1b b6 e9 d2 9e b6 00 00 00 00 3e be 54 b7
       -2.318833e-06 -4.73332e-06 0.0 -1.2680479e-05
000020 10 26 46 b7 00 00 00 00 37 5b 96 35 a2 e0 94 35
       -1.1810582e-05 0.0 1.1202418e-06 1.1092236e-06
000030 00 00 00 00 34 2c 58 b7 ae 42 48 b7 00 00 00 00
       0.0 -1.2884895e-05 -1.1936454e-05 0.0
000040 d7 56 16 37 e7 eb ef 36 00 00 00 00 62 20 55 b7
       8.960916e-06 7.1502177e-06 0.0 -1.2703329e-05
000050 1d ef 30 b7 00 00 00 00 9b d1 2b 37 11 9d 01 37
       -1.054609e-05 0.0 1.0241197e-05 7.725569e-06
000060 00 00 00 00 db f5 cf b6 8d 79 dc b6 00 00 00 00
       0.0 -6.197702e-06 -6.5706613e-06 0.0
000070 45 0b 28 37 f4 dc 06 37 00 00 00 00 46 29 1c b7
       1.0016204e-05 8.038467e-06 0.0 -9.307934e-06
000080 cc d0 11 b7 00 00 00 00 dc f2 d1 36 c9 63 9f 36
       -8.691288e-06 0.0 6.256958e-06 4.750186e-06
000090 00 00 00 00 f9 29 05 b7 9e 2c f5 b6 7e 15 06 3b
       0.0 -7.93719e-06 -7.306763e-06 0.0020459588
0000a0 c9 50 e3 39 9b dd 55 bb 00 00 00 00 00 00 00 00
       0.00043357004 -0.0032633308 0.0 0.0
0000b0 00 00 00 00 de 0e a2 b5 d8 96 94 36 7e 15 06 3b
       0.0 -1.2074267e-06 4.4283042e-06 0.0020459588
0000c0 c9 50 e3 39 9b dd 55 bb c8 36 b6 b8 68 5e d7 b7
       0.00043357004 -0.0032633308 -8.68864e-05 -2.5673959e-05
0000d0 cb 10 0d 39 53 7e bf b6 7e 6a 8c 36 a5 20 f4 3a
       0.00013453064 -5.7069497e-06 4.1847225e-06 0.0018625451
0000e0 83 e4 ae 39 22 e5 5f bb 39 91 b8 b7 3b 72 b2 39
       0.0003335812 -0.0034163673 -2.2002134e-05 0.00034035914
0000f0 a9 31 31 38 ed 05 82 b8 75 d8 23 b7 34 19 a0 39
       4.2246338e-05 -6.199987e-05 -9.765955e-06 0.00030536356
000100 1d 15 b6 35 86 e7 16 36 e1 96 02 b6 8f 99 72 34
       1.3566201e-06 2.2486506e-06 -1.9459333e-06 2.259387e-07
000110 8b f5 77 35 d2 00 1b 37 e7 db d0 3a 4b bf 4a 39
       9.237198e-07 9.238911e-06 0.0015934677 0.00019335483
000120 96 39 5d bb b5 2a e9 b8 4c de 56 39 33 23 08 37
       -0.0033756248 -0.000111182606 0.00020491442 8.114427e-06
000130 b4 ff 64 b8 7b e6 35 b7 77 ff a3 39 8a 33 e8 b3
       -5.4597578e-05 -1.0842104e-05 0.0003128012 -1.0812717e-07
000140 2a a9 41 b5 79 1d 74 36 f8 5d 34 b7 00 9e 55 36
       -7.214427e-07 3.6375989e-06 -1.0750715e-05 3.1831441e-06
000150 2a d9 60 b5 fb 77 ac 3a c0 cf dc b7 0c c8 58 bb
       -8.376252e-07 0.0013158316 -2.6322785e-05 -0.0033078222
000160 c9 fc 59 b9 d9 a3 a2 39 5d 3f ad b6 75 ef 3c b8
       -0.00020788902 0.00031021124 -5.1631782e-06 -4.5045705e-05
000170 eb ce 87 b7 35 34 a9 39 8c c8 d4 b6 0b 54 02 35
       -1.6189608e-05 0.0003227309 -6.341439e-06 4.855107e-07
000180 af 9e 2f b6 0d 84 d2 b6 00 00 00 00 3f 64 1d 37
       -2.6169398e-06 -6.2738604e-06 0.0 9.38127e-06
000190 37 31 ea 36 00 00 00 00 72 dc 12 37 07 fb de 36
       6.979473e-06 0.0 8.753605e-06 6.645339e-06
0001a0 00 00 00 00 01 eb ab b6 d5 ed 5a 36 00 00 00 00
       0.0 -5.123555e-06 3.2622968e-06 0.0
0001b0 8c fd 28 b7 ff 43 66 b5 00 00 00 00 34 45 cb b6
       -1.0072614e-05 -8.5780624e-07 0.0 -6.0579277e-06
0001c0 09 10 3d 36 00 00 00 00 09 51 4b b7 e4 aa 28 b5
       2.8172528e-06 0.0 -1.211861e-05 -6.2833556e-07
0001d0 00 00 00 00 7a f1 1c b7 f7 de fe 34 00 00 00 00
       0.0 -9.354548e-06 4.7473415e-07 0.0
0001e0 64 7b fa b6 41 57 f3 35 00 00 00 00 6f 96 4a b6
       -7.464945e-06 1.8130305e-06 0.0 -3.018791e-06
0001f0 64 52 2f 37 00 00 00 00 98 76 86 b6 a2 e2 98 b5
       1.0449996e-05 0.0 -4.0073173e-06 -1.1390841e-06
000200 00 00 00 00 e3 31 de 36 4f d3 3a 37 00 00 00 00
       0.0 6.621923e-06 1.1135663e-05 0.0
000210 57 69 11 b6 97 93 9e b5 00 00 00 00 7b 3d f2 36
       -2.1668e-06 -1.1814872e-06 0.0 7.2193193e-06
000220 b3 1e 43 37 ed 39 68 3a 3b 1e 1a bb e6 46 ae 3a
       1.1630053e-05 0.0008858729 -0.0023516554 0.0013296276
000230 00 00 00 00 00 00 00 00 00 00 00 00 83 97 a2 b7
       0.0 0.0 0.0 -1.9382458e-05
000240 71 c3 02 b8 ed 39 68 3a 3b 1e 1a bb e6 46 ae 3a
       -3.1176434e-05 0.0008858729 -0.0023516554 0.0013296276
000250 23 a0 aa b9 b5 6c 75 3a ae 1a cd b9 44 7e 04 b5
       -0.00032544238 0.0009362207 -0.00039120525 -4.935757e-07
000260 78 5d 83 b7 ca 50 ba 39 21 97 45 bb af 29 01 3b
       -1.5659942e-05 0.00035536877 -0.0030149894 0.0019708683
000270 b4 db a4 b9 51 a4 b1 37 88 04 e3 b9 15 88 bb 3a
       -0.0003144421 2.117656e-05 -0.0004330019 0.0014307523
000280 6f ff 4f 36 1f 87 75 b9 92 28 62 b7 10 67 d5 b6
       3.0994086e-06 -0.00023415357 -1.3480096e-05 -6.3598927e-06
000290 94 c7 bf 36 49 70 a7 b7 96 41 f3 34 9e c0 d6 b6
       5.7154775e-06 -1.9960238e-05 4.5309997e-07 -6.4001206e-06
0002a0 55 32 90 38 55 86 5f bb 86 26 fc 3a 69 b1 eb b8
       6.87583e-05 -0.0034107168 0.0019237555 -0.000112387184
0002b0 4a c2 6c 38 97 7f 26 b9 7a 5a ba 3a 21 ce c3 36
       5.644773e-05 -0.00015878525 0.0014217638 5.8354494e-06
0002c0 6b 41 73 b9 99 e8 19 36 d2 46 1c b5 03 82 4c 37
       -0.00023198656 2.2934166e-06 -5.8217586e-07 1.2189618e-05
0002d0 d3 da da b7 ef ba 64 b7 bb 10 14 b7 e1 34 f2 b9
       -2.6089523e-05 -1.3633383e-05 -8.825383e-06 -0.00046197235
0002e0 9f 36 7a bb a6 5d 02 3b 91 14 25 b7 e0 ba 34 3a
       -0.003817953 0.0019892245 -9.839555e-06 0.00068943016
0002f0 28 37 a6 b9 88 a5 b9 3a c6 a8 37 37 f9 b9 80 b9
       -0.00031703082 0.0014163712 1.0946946e-05 -0.00024552623
000300 5f 55 22 b5 3c e3 28 36 1f ca 51 37 91 c5 a2 b7
       -6.0473934e-07 2.5166219e-06 1.2504431e-05 -1.9403904e-05
000310 00 00 00 00 d0 48 50 b7 27 af 48 b7 00 00 00 00
       0.0 -1.2414719e-05 -1.196171e-05 0.0
000320 10 55 2a b7 b0 ea 3d b7 00 00 00 00 17 b3 0c b7
       -1.0152595e-05 -1.131992e-05 0.0 -8.386348e-06
000330 38 4a 19 b7 00 00 00 00 c4 d8 40 35 e4 ca f7 b6
       -9.136791e-06 0.0 7.184101e-07 -7.384793e-06
000340 00 00 00 00 f5 e4 fa b6 7e 8a d2 b6 00 00 00 00
       0.0 -7.4772347e-06 -6.2746103e-06 0.0
000350 45 0a 04 b7 59 89 28 b7 00 00 00 00 0a 1b 10 b6
       -7.870204e-06 -1.0045559e-05 0.0 -2.147341e-06
000360 5f 91 02 b6 00 00 00 00 c6 77 1e b7 47 21 6a b7
       -1.9456127e-06 0.0 -9.445421e-06 -1.3955235e-05
000370 00 00 00 00 fc cb 3b b6 df e8 3a b6 00 00 00 00
       0.0 -2.7983906e-06 -2.7851709e-06 0.0
000380 96 8f 25 b7 bc b3 84 b7 00 00 00 00 32 82 08 b5
       -9.868198e-06 -1.5819322e-05 0.0 -5.085341e-07
000390 2c 71 a3 b5 00 00 00 00 bd 21 53 b7 fa 36 9e b7
       -1.2177384e-06 0.0 -1.2584435e-05 -1.8860668e-05
0003a0 00 00 00 00 ef 9b 82 b5 84 b6 d7 b5 c7 83 8f 3b
       0.0 -9.731137e-07 -1.6071867e-06 0.0043797228
0003b0 93 95 9b bb d1 97 34 bb 00 00 00 00 00 00 00 00
       -0.0047480552 -0.002755631 0.0 0.0
0003c0 00 00 00 00 87 fb 00 b8 e6 02 b5 b7 c7 83 8f 3b
       0.0 -3.075183e-05 -2.1578231e-05 0.0043797228
0003d0 93 95 9b bb d1 97 34 bb 5c c2 06 b7 11 19 51 39
       -0.0047480552 -0.002755631 -8.032275e-06 0.00019941131
0003e0 a0 86 be b8 fa 36 79 b6 d1 68 72 b6 0f ab 83 3b
       -9.084982e-05 -3.7135892e-06 -3.6121821e-06 0.0040181945
0003f0 12 0c 9d bb e4 e0 33 bb 8b f2 0d b9 7d 49 46 39
       -0.0047926987 -0.0027447278 -0.00013537162 0.00018910128

exp_avg_sq f4 [128, 98]
000000 00 00 00 00 2b fb b9 31 69 73 bf 31 00 00 00 00
       0.0 5.412763e-09 5.5719522e-09 0.0
000010 46 64 b9 31 37 26 be 31 00 00 00 00 44 50 bd 31
       5.3956084e-09 5.5340723e-09 0.0 5.509749e-09
000020 0b cf c1 31 00 00 00 00 03 bd b7 31 ae 0c bd 31
       5.6405773e-09 0.0 5.347489e-09 5.5020655e-09
000030 00 00 00 00 e8 40 be 31 74 50 c2 31 00 00 00 00
       0.0 5.5371068e-09 5.6552896e-09 0.0
000040 db 12 b9 31 60 89 bc 31 00 00 00 00 08 37 be 31
       5.3863523e-09 5.487138e-09 0.0 5.535984e-09
000050 3a e1 c2 31 00 00 00 00 c5 4e af 31 ef 58 b9 31
       5.6717484e-09 0.0 5.1021254e-09 5.394319e-09
000060 00 00 00 00 01 b8 b6 31 10 ff be 31 00 00 00 00
       0.0 5.317816e-09 5.558725e-09 0.0
000070 94 b5 ad 31 f5 c7 b4 31 00 00 00 00 02 77 b4 31
       5.0556057e-09 5.261422e-09 0.0 5.252219e-09
000080 7e 6a bc 31 00 00 00 00 38 c3 ae 31 ea b1 b3 31
       5.483627e-09 0.0 5.0862603e-09 5.229812e-09
000090 00 00 00 00 1c 00 b3 31 8f fb b9 31 9b 47 d0 3a
       0.0 5.209598e-09 5.4128075e-09 0.0015890481
0000a0 1d dc 3c 3a 78 6f 30 3a 00 00 00 00 00 00 00 00
       0.00072044303 0.00067304773 0.0 0.0
0000b0 00 00 00 00 f8 fb e4 31 63 3e 6a 30 9b 47 d0 3a
       0.0 6.664319e-09 8.521736e-10 0.0015890481
0000c0 1d dc 3c 3a 78 6f 30 3a af be 26 36 9e 00 0c 36
       0.00072044303 0.00067304773 2.484692e-06 2.0861985e-06
0000d0 e5 04 1d 35 b7 27 83 30 5f bc 05 30 78 8a d2 3a
       5.849418e-07 9.542792e-10 4.865281e-10 0.0016062995
0000e0 43 90 3b 3a ae 67 31 3a 9f 8a 71 35 a7 2f 99 35
       0.00071549806 0.00067674636 8.9981216e-07 1.1413257e-06
0000f0 bc 0a 02 35 e7 20 96 3c 8b 8f 7e 32 34 6f 0f 3c
       4.8444394e-07 0.018326236 1.4817384e-08 0.00875454
000100 2e 74 25 31 04 70 58 2f 75 de 7b 2e a9 7c 6a 31
       2.40767e-09 1.9684882e-10 5.7268374e-11 3.4122343e-09
000110 bb 60 86 31 15 f7 0e 30 a7 6a d4 3a f8 8f 3a 3a
       3.9109103e-09 5.2010424e-10 0.0016206101 0.000711679
000120 24 20 34 3a d9 9c 2b 35 ae 5b 68 35 69 8b f0 34
       0.00068712444 6.393071e-07 8.6560146e-07 4.4804918e-07
000130 97 27 96 3c 6e da a1 32 fc 69 0f 3c 1b 20 dc 2e
       0.018329425 1.8842197e-08 0.008753296 1.0010145e-10
000140 cc 37 8f 2d 63 fa 84 2f c1 e0 c6 31 08 2b b2 2f
       1.6281997e-11 2.418857e-10 5.78811e-09 3.2408587e-10
000150 01 bb 34 30 0e 6c d6 3a 21 f2 39 3a ef 73 35 3a
       6.5749367e-10 0.0016359107 0.000709327 0.00069218775
000160 45 6d 33 35 61 47 77 35 25 cb 00 35 f6 2b 96 3c
       6.6841704e-07 9.211854e-07 4.797933e-07 0.01833151
000170 6b 3d e3 32 91 62 0f 3c 9f 0f c7 2e 98 f7 57 2d
       2.6454208e-08 0.008751527 9.052247e-11 1.2276312e-11
000180 1c 34 eb 2e 9d aa bf 31 00 00 00 00 92 70 d0 32
       1.0695819e-10 5.578228e-09 0.0 2.4265578e-08
000190 6e df dd 32 00 00 00 00 8c ea d7 32 b1 20 df 32
       2.582939e-08 0.0 2.5135954e-08 2.5975483e-08
0001a0 00 00 00 00 a7 9c d4 32 3f 2a dc 32 00 00 00 00
       0.0 2.4751285e-08 2.5630582e-08 0.0
0001b0 3a 77 da 32 4c ca df 32 00 00 00 00 c2 a3 d3 32
       2.5432758e-08 2.605261e-08 0.0 2.4638101e-08
0001c0 ca 8e d9 32 00 00 00 00 ec 89 d8 32 79 9c e0 32
       2.5327058e-08 0.0 2.520843e-08 2.6148188e-08
0001d0 00 00 00 00 ea 16 d2 32 b6 6f d7 32 00 00 00 00
       0.0 2.4457638e-08 2.5080094e-08 0.0
0001e0 b1 cf d2 32 4e d8 dd 32 00 00 00 00 26 54 cc 32
       2.4541665e-08 2.582615e-08 0.0 2.3786992e-08
0001f0 dc 1b d5 32 00 00 00 00 dc ed cf 32 1a 54 db 32
       2.4809133e-08 0.0 2.4206138e-08 2.55332e-08
000200 00 00 00 00 7e 22 c8 32 6d 67 d2 32 00 00 00 00
       0.0 2.329875e-08 2.449425e-08 0.0
000210 03 76 d1 32 6c 27 da 32 00 00 00 00 31 82 c7 32
       2.4384468e-08 2.5396467e-08 0.0 2.3225853e-08
000220 50 0d d0 32 24 9c 36 3c 79 9b 28 3c 82 d5 0f 3b
       2.422044e-08 0.011145625 0.010290974 0.002194733
000230 00 00 00 00 00 00 00 00 00 00 00 00 11 ca 04 33
       0.0 0.0 0.0 3.0917423e-08
000240 66 77 85 31 24 9c 36 3c 79 9b 28 3c 82 d5 0f 3b
       3.8843835e-09 0.011145625 0.010290974 0.002194733
000250 bc 97 d3 36 dc c8 0f 37 25 84 22 36 25 f6 1c 31
       6.3059542e-06 8.57023e-06 2.42168e-06 2.2840905e-09
000260 94 a0 fb 30 b2 ab 3a 3c 84 fa 26 3c 55 e6 10 3b
       1.8308293e-09 0.011393474 0.0101915635 0.0022109945
000270 76 49 9d 36 66 fb ad 36 07 29 86 36 ec ce 01 3e
       4.6875166e-06 5.1850684e-06 3.9982874e-06 0.1267659
000280 b1 2d 58 33 cb 99 44 3d e9 26 2a 32 b4 26 18 30
       5.0332975e-08 0.04799823 9.9041495e-09 5.535228e-10
000290 d9 a1 3b 2f 64 27 60 32 75 ef a3 32 b0 15 0a 31
       1.7065051e-10 1.3047472e-08 1.908459e-08 2.009397e-09
0002a0 db 43 3e 3c 11 70 25 3c c1 85 13 3b 83 6c 40 36
       0.011612858 0.0100975195 0.0022510143 2.8673392e-06
0002b0 39 91 85 36 5e 1b e3 35 d9 d1 01 3e 53 0b 44 33
       3.980615e-06 1.6920783e-06 0.12677707 4.5645105e-08
0002c0 e0 98 44 3d cb 65 a1 2f 3f 0c 74 2e 63 90 2d 30
       0.047997355 2.9358058e-10 5.5490054e-11 6.314222e-10
0002d0 36 20 da 32 ee 2f 6f 30 3b 84 38 31 50 f0 41 3c
       2.5393188e-08 8.7015806e-10 2.6850688e-09 0.01183708
0002e0 99 06 24 3c 3f e4 14 3b 8a 01 60 36 1a f2 9e 36
       0.010011339 0.0022719053 3.3379497e-06 4.7369513e-06
0002f0 b3 f6 01 36 d7 d4 01 3e fc 67 48 33 e9 97 44 3d
       1.9366096e-06 0.12678848 4.6660702e-08 0.047996435
000300 90 9d b7 2f 6f 44 60 2e fb 5e b3 2f 5f f7 c8 32
       3.339946e-10 5.0992485e-11 3.2627398e-10 2.3395556e-08
000310 00 00 00 00 97 e5 b0 32 06 c4 b7 32 00 00 00 00
       0.0 2.0593502e-08 2.1393145e-08 0.0
000320 77 db b1 32 be 85 b6 32 00 00 00 00 97 8b b0 32
       2.0705313e-08 2.1248407e-08 0.0 2.0552575e-08
000330 11 96 b5 32 00 00 00 00 9c 96 b3 32 39 fb b6 32
       2.1139416e-08 0.0 2.0906832e-08 2.1301831e-08
000340 00 00 00 00 88 a7 b1 32 e1 b0 b4 32 00 00 00 00
       0.0 2.0681696e-08 2.1035193e-08 0.0
000350 c9 ba b2 32 d1 4b b6 32 00 00 00 00 ce 8c b1 32
       2.0806867e-08 2.1222066e-08 0.0 2.0669543e-08
000360 7c 1a b4 32 00 00 00 00 f9 18 b2 32 6d df b5 32
       2.0966802e-08 0.0 2.0733284e-08 2.1172776e-08
000370 00 00 00 00 3d f4 b0 32 cf 93 b3 32 00 00 00 00
       0.0 2.0600163e-08 2.0905558e-08 0.0
000380 f5 00 b2 32 15 29 b5 32 00 00 00 00 6f 95 b0 32
       2.0722362e-08 2.1089855e-08 0.0 2.0557051e-08
000390 e8 f7 b2 32 00 00 00 00 d9 35 b2 32 3f d9 b4 32
       2.0834662e-08 0.0 2.0746414e-08 2.105355e-08
0003a0 00 00 00 00 7b 73 b0 32 1d 83 b2 32 d5 26 97 3c
       0.0 2.0541611e-08 2.078155e-08 0.018451134
0003b0 1e 81 9f 3b 2e 12 c7 3a 00 00 00 00 00 00 00 00
       0.004867687 0.0015187913 0.0 0.0
0003c0 00 00 00 00 97 9c cd 32 0a 03 05 31 d5 26 97 3c
       0.0 2.393635e-08 1.9355775e-09 0.018451134
0003d0 1e 81 9f 3b 2e 12 c7 3a 0a 57 6b 36 33 43 5d 36
       0.004867687 0.0015187913 3.5068392e-06 3.2970681e-06
0003e0 66 0e f7 35 31 09 8d 30 b5 54 74 30 3f e3 96 3c
       1.8407125e-06 1.0261713e-09 8.888706e-10 0.018418906
0003f0 d2 87 a0 3b e5 79 c3 3a 4e 19 80 36 0e 3e 65 36
       0.0048990035 0.0014913647 3.817643e-06 3.415978e-06

exp_avg f4 [128]
000000 df 0e a2 b5 85 97 a2 b7 87 fb 00 b8 50 5a c8 37
       -1.2074269e-06 -1.9382462e-05 -3.075183e-05 2.3883913e-05
000010 20 32 33 37 d0 56 b7 b6 b5 ce 2d b7 6a 93 45 b7
       1.0680902e-05 -5.4639313e-06 -1.0359731e-05 -1.17764375e-05
000020 b2 35 ed b7 d9 ca 52 b7 95 3b e1 37 72 e9 6a b7
       -2.8277605e-05 -1.2564205e-05 2.6849835e-05 -1.400184e-05
000030 32 10 af 37 d3 91 62 b5 f6 41 d7 b7 fb f0 c3 b7
       2.0869167e-05 -8.4403763e-07 -2.5660713e-05 -2.3358027e-05
000040 c9 56 cb b8 90 c7 c8 b7 49 5c 00 b6 17 19 d9 b7
       -9.695959e-05 -2.3934786e-05 -1.9127203e-06 -2.58801e-05
000050 5d 72 9f b6 07 5f 0f 37 ae f2 78 b8 3a 4c a8 b8
       -4.751883e-06 8.5455895e-06 -5.935382e-05 -8.0250626e-05
000060 48 5c 1f b6 71 1b 94 b8 68 27 41 35 f2 9f d2 b6
       -2.374656e-06 -7.062301e-05 7.1955446e-07 -6.277108e-06
000070 6d 58 d0 b7 26 16 95 37 c4 7c 70 b8 76 31 c6 b6
       -2.4836709e-05 1.7772498e-05 -5.7336656e-05 -5.906618e-06
000080 cd cc 70 b7 51 70 c7 37 d4 1a e3 b7 6c 7a 02 37
       -1.4352799e-05 2.377495e-05 -2.7073002e-05 7.777107e-06
000090 67 91 9e 37 eb 6b 7b b7 c1 00 dc 37 44 ec 14 b8
       1.8902776e-05 -1.4985892e-05 2.6226395e-05 -3.550599e-05
0000a0 87 1b 66 38 90 14 b9 37 be d3 97 b7 92 61 22 b8
       5.486191e-05 2.2063294e-05 -1.8099203e-05 -3.871468e-05
0000b0 d8 90 b8 b7 dd db b0 37 97 9f 44 b6 3e 8f e0 b7
       -2.2001957e-05 2.1083217e-05 -2.929917e-06 -2.6769583e-05
0000c0 b3 70 15 b7 be 66 f6 b4 21 87 42 b7 bc b6 14 b5
       -8.907332e-06 -4.5895825e-07 -1.1594763e-05 -5.540021e-07
0000d0 51 0c 1c 38 2a b6 91 b8 e4 f3 02 b8 14 fd 83 b8
       3.720477e-05 -6.9480695e-05 -3.1221556e-05 -6.293706e-05
0000e0 df 3f ed 38 f1 90 9a b6 24 7d 46 b6 05 fe 25 b7
       0.000113129376 -4.606431e-06 -2.957714e-06 -9.89391e-06
0000f0 fe 22 3d b7 2e fc ce 37 ae 18 7a b8 6f 24 af b7
       -1.1273425e-05 2.4674544e-05 -5.962763e-05 -2.0878591e-05
000100 83 32 4f b8 aa 1c ad 37 c7 b9 af b5 d8 1e c0 36
       -4.939969e-05 2.0636555e-05 -1.3092584e-06 5.7256366e-06
000110 eb 15 b4 b6 fb 2d 8b b8 91 e8 22 37 d0 27 0a 38
       -5.3669696e-06 -6.636601e-05 9.710101e-06 3.2938842e-05
000120 db 24 0c 37 6c fe 41 b7 85 6b 67 37 9f ea 4d 38
       8.353231e-06 -1.1562934e-05 1.3793707e-05 4.9094317e-05
000130 39 3d 60 b8 6f e7 e1 b7 30 f1 39 37 65 b7 07 b7
       -5.346278e-05 -2.692986e-05 1.1083015e-05 -8.089327e-06
000140 ee 0f 4e b7 31 61 dc b7 c1 46 74 b8 22 69 67 b8
       -1.2282266e-05 -2.6271302e-05 -5.8240028e-05 -5.5172604e-05
000150 01 d6 47 b7 b1 93 dc b7 5d 56 25 38 5f 70 74 38
       -1.1911151e-05 -2.6294818e-05 3.9419498e-05 5.8278787e-05
000160 61 0d d6 38 51 03 3a b8 44 0e 62 36 ee f0 76 b8
       0.00010206807 -4.4348944e-05 3.3684928e-06 -5.8875354e-05
000170 be 48 12 b7 a8 e8 97 35 a1 3f b8 b7 e8 94 c8 b8
       -8.719215e-06 1.1318089e-06 -2.1964139e-05 -9.564479e-05
000180 97 88 a3 b7 6d e3 34 b7 b6 cb b4 b6 6c d3 a2 b6
       -1.9494719e-05 -1.0781788e-05 -5.388133e-06 -4.852589e-06
000190 5c ff 20 b8 cc 81 b2 b6 29 9c 01 38 5f 72 c2 b6
       -3.8384795e-05 -5.3199237e-06 3.0901432e-05 -5.794965e-06
0001a0 64 90 f4 36 99 91 b8 b7 09 40 8f 37 e9 bf 1c 38
       7.288576e-06 -2.2002308e-05 1.7076747e-05 3.737203e-05
0001b0 bc c3 39 37 58 84 8b b8 f1 f7 64 b8 94 53 27 38
       1.1072432e-05 -6.6526874e-05 -5.459035e-05 3.989374e-05
0001c0 98 0d 10 38 14 bd 09 38 ff f2 00 b8 ac 54 8e 38
       3.4344936e-05 3.2839438e-05 -3.0743886e-05 6.786859e-05
0001d0 7a b6 3d 37 a2 af 29 38 05 1c 04 37 74 31 91 b8
       1.1307764e-05 4.045631e-05 7.874337e-06 -6.92335e-05
0001e0 c4 c5 63 b7 02 00 aa b6 73 6d 93 b8 e6 f3 aa b8
       -1.35763e-05 -5.0663957e-06 -7.029893e-05 -8.151661e-05
0001f0 99 c8 c7 b7 d2 4b 54 37 54 5f 92 b8 5a 78 0e 37
       -2.381606e-05 1.2653838e-05 -6.979579e-05 8.491881e-06
