results/RLEnv2/Worm/Worm-14512.pt (torch, 791074 bytes, 36 tensors)

network_body._body_endoder.seq_layers.0.weight f4 [128, 116]
00000000: 38a4 1a3c ce87 ab3b e243 ac3b a6f3 973c
00000010: 502e 043e f227 b93c 0ffc 8dbd 5084 86bd
00000020: 0f6b b93d 2fde a7bd 70ad d73d dfd9 17bd
00000030: da1e 4e3c fdde 803c af53 63be fb19 613d
00000040: e095 96bd 3a9b 5f3d 6ab2 6b3d c65c 73bd
00000050: bcb5 e7bd d262 ddbd b5f8 73bd 750f abbc
00000060: ab03 043e 77e1 febd 0de3 633d d90c 103c
00000070: 9136 96bd a617 713d b255 4e3d 4a63 1ebe
00000080: 0176 3a3d 47e8 373e 2c8e 6b3d 1789 0d3e
00000090: 87fc b1bd 655f 0e3e 5ae1 543d 606e 843d
000000a0: 78bd c93d 2a8e 7e3c 2042 14bc 6397 283d
000000b0: 26c5 983d d2fd 963d aae1 243e 343e 96bd
000000c0: 1724 b23d 5e40 3f3e 804e 99bd 3613 583d
000000d0: af4e 79bd 8d8f 093c 7727 1d3d 08c8 00bd
000000e0: 32e9 c03d 48aa b6bd 954f 893d 23d2 de3c
000000f0: a892 34bd 8441 25be 50e1 f8bc 84ee 1f3d
00000100: 7da9 323d ffac d13d 2dde e03d dad4 8cbd
00000110: 0a21 48bd c962 973d 3507 a33d 27bf d43d
00000120: 1020 883d f555 513d efdd de3d f70b 383d
00000130: be02 f1bd 6374 ca3d e2ae c83d 0d9f 55bd
00000140: 7605 03be b507 4e3c d3ce 953c 5bb5 0fbc
00000150: 3d0e 693d 72cd 0d3e 67a6 80bd afc1 9c3c
00000160: 0221 1c3e b3c3 d23d 151c dd3d 5cd4 5a3d
00000170: 2417 8cbd d466 74bc 5170 b1bd 3fb6 18be
00000180: b9b2 203e cd73 043d d9e6 af3d cad9 a63c
00000190: 40e4 08be b71b 35be e0f9 8c3d f304 e73d
000001a0: 5933 a3b9 68c6 58be 4968 4bbe 4be3 b3bc
000001b0: 928b 20bc 3210 fdbc 7aaf 023d ac92 623a
000001c0: 0cc3 813c 9344 c43d 081c 193c 2546 93bc
000001d0: 806e e63b 4de0 173d 734b 8abd e3c1 3e3b
000001e0: 7383 573c f62a 623d a206 57bd 91c7 f0bd
000001f0: d911 4cbd 50fc 873d d4c6 53bd 9eb5 ad3c
00000200: 9c5c 70bd 020f 3f3d 1e87 02bc 6878 2a3d
00000210: 5a68 c7bb a0ea 9dbd 90b7 73bd b7ca 603d
00000220: 02af 923c f41d c13c 78ae 74bd 4429 f3bc
00000230: 9d79 17bd f841 933d 5869 09be e900 0fbd
00000240: 8d4d dcbd 6797 dc3d 1cb8 92bd 48cd ba3d
00000250: 3c91 9abd 9982 06bd 1756 43be fa54 8dbc
00000260: 9ab0 3dbe ba27 5f3d 2761 debd fea7 c2bd
00000270: 2725 85bd dbc7 153d 2f48 d3bd 7d1d 9c3d
00000280: 444a f3bc e12f 0a3e 66db f0bd 8539 debd
00000290: a3af b53c 9473 7e3e 7323 153e 7547 b8bd
000002a0: 2f4d a83d c95e 3f3e 6d20 54ba e75c c0bd
000002b0: 5cc0 cd3c ad48 70bd f742 de3d eba3 44bd
000002c0: eae6 c9bd 4e7e 5fbe 69cd af3c f05f af3d
000002d0: 722e 05be 2ddf 813c 575d c33c 0dfd 003e
000002e0: 133c 4ebe 8ac4 1cbd 70a7 a73d 9fd3 363d
000002f0: c4f3 1dbe 9d45 043e a7a1 75bc 966c 8fbd
00000300: 75a4 0fbe f1dd 1f3c 1b8d 623c a2e7 9e3d
00000310: 5316 2dbe 249c bdbd 7372 b53c 9c0e 4f3d
00000320: 209d 7cbd 8e09 433c e3f1 cebd 8721 07bd
00000330: 9c8b 013e 6625 d4bb 78fc 86ba b573 0b3e
00000340: 59be 79bd e176 16bd a7db 413e 4346 c83d
00000350: 13d8 0c3d 7ace 4cbd a141 ecbc cced bdbb
00000360: bd99 c8bd 7095 98bc 5ae8 443d caaf 65bd
00000370: 1dc7 01be 9eff 94bd 8f4b 633d bceb 7dbd
00000380: c8b9 c83d d2ca 2c3d 0749 cebd d3d8 763c
00000390: 9b92 c0bd 6a1d 183c 2a69 33be 637d 22be
000003a0: 66de ccbd 90ee 50bd 326a 53bc 72fe d2bd
000003b0: 84da 7bbe 405b febc 8d3e 983d ce92 91bd
000003c0: 5be6 1dbe fcd0 90bd dd59 93be f12e e3bd
000003d0: 3754 9a3d 755d fabd d94c 5bbe 5dfa 6dbd
000003e0: 094d acbc 9aa9 59be ed4a 1cbc e128 89bd
000003f0: 6644 24be 838d a5bd 3cb5 663d 496f 55be
0.009438567 0.005234695 0.0052571157 0.018548798 0.12908292 0.022602055 -0.06932842 -0.06568205
0.09053623 -0.08196675 0.105311275 -0.037073012 0.012580598 0.01573133 -0.22199892 0.054956418
-0.07352805 0.054591395 0.057543196 -0.059414648 -0.1131396 -0.10809864 -0.059563357 -0.020881394
0.12892024 -0.12445348 0.055636454 0.008792126 -0.073346265 0.058860444 0.050374694 -0.15467563
0.045522694 0.179597 0.057508633 0.13821827 -0.08690744 0.13903578 0.051972724 0.06466365
0.098505914 0.015536824 -0.009048969 0.04116 0.07459478 0.07372631 0.16101709 -0.07336083
0.0869829 0.18676898 -0.07485676 0.052752696 -0.060866054 0.008396042 0.038367715 -0.031440765
0.094194785 -0.08919197 0.06704632 0.02719981 -0.044085175 -0.16138273 -0.030380875 0.039045826
0.043618668 0.102380745 0.10979877 -0.06876536 -0.048859634 0.07391889 0.07960359 0.10388022
0.066467404 0.051107366 0.10882174 0.044933286 -0.11768101 0.0988548 0.09798981 -0.052153636
-0.12795052 0.01257508 0.018287098 -0.008771266 0.056898344 0.13847902 -0.06281739 0.019135324
0.15246966 0.10291233 0.10796372 0.053425178 -0.06840351 -0.014917094 -0.08664001 -0.14913271
0.15693177 0.032337 0.085889526 0.020367522 -0.1336832 -0.17686354 0.068835974 0.11280241
-0.0003112804 -0.21169436 -0.19864 -0.021958968 -0.009798901 -0.030891512 0.03190563 0.00086430716
0.015840076 0.09583392 0.009345062 -0.017977783 0.0070322156 0.037079144 -0.06752672 0.0029107265
0.0131538985 0.055216752 -0.05249656 -0.11756814 -0.04982171 0.06639922 -0.05170329 0.021204766
-0.05868207 0.046645172 -0.007966785 0.041618735 -0.0060854377 -0.07710767 -0.05950123 0.054880824
0.017905716 0.023573853 -0.0597367 -0.029682763 -0.036981214 0.07190317 -0.13419092 -0.034912977
-0.10756979 0.10771065 -0.07164022 0.091211855 -0.075472325 -0.03283939 -0.1907581 -0.017252434
-0.185244 0.054481246 -0.10858374 -0.09504698 -0.06501227 0.03656755 -0.10316502 0.07622812
-0.029698499 0.13494827 -0.11760597 -0.10850815 0.022178477 0.24848777 0.14564304 -0.08998004
0.082178466 0.18688501 -0.000809199 -0.0939272 0.025116138 -0.05866306 0.10852616 -0.048007887
-0.098584965 -0.21825525 0.021460252 0.085632205 -0.13005999 0.015853489 0.023848219 0.12596531
-0.20140104 -0.03827337 0.08186233 0.04463541 -0.1542502 0.1291718 -0.014992154 -0.07003133
-0.14027579 0.009757505 0.0138275875 0.07759024 -0.16903047 -0.09258297 0.0221493 0.050551042
-0.061673284 0.0119041335 -0.1010473 -0.03299096 0.12650913 -0.006474185 -0.001029863 0.13618357
-0.060972545 -0.036734466 0.18931447 0.09779026 0.034385752 -0.0500016 -0.028839888 -0.00579617
-0.09794948 -0.018625945 0.04807315 -0.05607585 -0.12673612 -0.072753176 0.05549198 -0.061992392
0.0980106 0.042185612 -0.100725226 0.015066343 -0.09402963 0.009284357 -0.17520586 -0.15868144
-0.10003357 -0.05100876 -0.012903737 -0.10302438 -0.24595076 -0.03104937 0.074338056 -0.07108079
-0.15419905 -0.070711106 -0.28779498 -0.11092938 0.07535594 -0.12224857 -0.21416034 -0.058100093
-0.021032827 -0.21256104 -0.009539348 -0.0669725 -0.16041717 -0.08083632 0.056325182 -0.20843233

network_body._body_endoder.seq_layers.0.bias f4 [128]
00000000: 86c6 a43a 8be2 53bb 802e a039 b515 68b9
00000010: 4d2a cc3a 42c3 35bb 93fe 7db9 9f28 a3ba
00000020: 24c5 593b cbec de3a ba49 69ba 3f2c 923a
00000030: ee90 2ebb 9eec c7ba 6f31 233b e55d 67ba
00000040: 480d 8bba 02da ff3a 1b8b 95bb c24c 41ba
00000050: 300b 41bb aac4 403b 2266 86bb 3717 b8ba
00000060: 1d1c 8cbb a532 003b 3fb0 c4ba 5536 113b
00000070: 54f6 fdba c043 323b 82e9 173b f425 493b
00000080: 871a e7ba 7649 2dbb 1011 50b9 1719 1a39
00000090: ef6d 7c3a 9fad 84ba 1736 e03a 9cda 61bb
000000a0: 5276 0439 547f 1db9 8761 153b 06a5 acba
000000b0: 8d2f 0e3b 1340 df3a 5ce9 8b3b 9ae3 ce3a
000000c0: 7d1e 44bb 3cf2 c73a 0952 7ebb 05f8 92b9
000000d0: 186e 803a 8834 0dba 4c16 0d3b 39a1 b33a
000000e0: 22e2 1cba f836 253b f9b5 09b8 7f12 61ba
000000f0: b5c8 0bba 8d3d e2ba 4032 f4b9 619b 1f3b
00000100: 4483 3c3a 7f47 0d3b e384 0f3b c8ab 48bb
00000110: 3c68 8eba e348 ab39 324b 75bb 2011 4f3b
00000120: b458 84b7 6e5c 433b 572c 80bb 8381 2d39
00000130: 5dbe f0b9 e40d cf39 6aa7 46bb 30a8 aaba
00000140: 37a2 063a 3f15 acbb cd96 0a3b 7ff9 303b
00000150: 4e58 acba ba97 96ba 212c 35bb f6c1 2b3b
00000160: de6f ae3b 4c3e 223a 3a94 96ba 781e 2ebb
00000170: b000 4639 c411 293b 8036 243a d162 da3a
00000180: fee8 b2ba 4060 7f37 7cc9 e93a a135 50ba
00000190: f2c4 4c3a 90dd 14bb 4e6a 4abb f7a4 e5ba
000001a0: 0888 1439 da7d 5a3b a6b0 963a 825b 99ba
000001b0: c3c4 54bb 27f9 943a 7441 043b ee9a 433b
000001c0: 7d21 f339 cb91 cb3a b989 9b3a 3a65 9fb7
000001d0: fed3 763b c1e1 cdba 6870 c43b b1a2 1abb
000001e0: 3950 b13a a5ba 263b ff3d 453b 37cd a6b9
000001f0: 92d7 20bb 1a7a 283b 025d 503b 6131 f03a
0.0012571372 -0.0032331075 0.00030552223 -0.0002213333 0.0015576571 -0.002773479 -0.00024222796 -0.0012448019
0.0033229077 0.0017007826 -0.0008899231 0.0011152102 -0.0026636678 -0.0015253013 0.002490129 -0.0008825942
-0.0010608817 0.0019519927 -0.004563702 -0.00073738035 -0.002945613 0.0029414096 -0.0041015306 -0.0014045005
-0.0042758123 0.0019561436 -0.0015006139 0.0022157629 -0.001937578 0.0027201027 0.0023179953 0.0030692788
-0.0017631807 -0.0026441491 -0.00019842782 0.00014695931 0.00096294185 -0.0010122544 0.0017105964 -0.0034462577
0.00012632579 -0.0001502012 0.0022793727 -0.0013171739 0.0021695823 0.0017032645 0.004269762 0.0015784383
-0.00299254 0.0015254687 -0.003880622 -0.0002803208 0.0009798435 -0.0005386551 0.0021528183 0.0013704664
-0.0005984624 0.0025209766 -3.283282e-05 -0.0008585825 -0.0005332337 -0.0017260775 -0.00046576746 0.0024354088
0.0007191191 0.0021557508 0.0021899275 -0.0030619968 -0.0010864804 0.00032669966 -0.0037428853 0.00315959
-1.5776932e-05 0.002980973 -0.0039115357 0.00016546813 -0.000459182 0.00039492466 -0.003031219 -0.0013020094
0.0005135866 -0.005251556 0.0021147013 0.002700418 -0.0013148875 -0.001148931 -0.002764471 0.002620814
0.005323394 0.00061890925 -0.0011488267 -0.0026568454 0.00018883008 0.0025797943 0.00062642246 0.001666153
-0.0013649759 1.5221594e-05 0.0017836536 -0.00079425616 0.00078113296 -0.002271507 -0.0030886116 -0.0017520477
0.00014165055 0.0033339174 0.0011496737 -0.0011700245 -0.0032465912 0.0011365757 0.0020180615 0.0029846984
0.00046373522 0.0015531121 0.0011866606 -1.9001414e-05 0.0037662978 -0.0015707539 0.005994845 -0.0023595507
0.0013527937 0.0025440839 0.0030096767 -0.00031814884 -0.0024542552 0.0025707544 0.0031793718 0.0018325263

network_body._body_endoder.seq_layers.2.weight f4 [128, 128]
00000000: 7517 903d db10 85bd 6e06 09be d841 35bc
00000010: 921b e3bd 2ce9 c03d fe4d 9fbd 8a47 d73d
00000020: 680f 843c bd7d 7e3d 9fd6 583e eca0 db3d
00000030: 0fb8 bfbd abc9 923b 09b1 69bd 4d94 3e3e
00000040: 3db4 823d b10e bbbc cd30 fdbd 5479 a5bb
00000050: 36a6 623d ebd5 df3d d6a0 033e 5f05 223e
00000060: 42cb a4bb a1b9 943d 2c55 02be c515 1f3d
00000070: 9822 89bd f7bc 963c e7d2 51bd 4a69 3c3d
00000080: 7436 aebd c4ec 3dbd 63d7 2abe 0660 7bbc
00000090: 6f2f 173d 56b0 6d3d 2e0f 26bd 0774 8c3d
000000a0: 0116 723c 0af9 06be dee2 8d3c 8a77 41bd
000000b0: d099 0ebe dc07 c03d 048f 603c 366d 9dbd
000000c0: 0568 2abd 241e f53d b465 713b d3d5 d43d
000000d0: 616c b33c 462c c63d 3682 073d 954b 5d3c
000000e0: 9ead 883d 3110 92bd 978b 5cbd f6a6 b8bc
000000f0: 08a5 d1bb 314f 9ebd 821b e23d 37fd 5ebd
00000100: f64a c9bc 0255 9dbc ea91 72bd 40ba a1bc
00000110: 3ff2 2fbd d281 edbd 4e81 3c39 e3fd 813d
00000120: 4cdb babd 594e 1abc 15c5 1d3e c48c 823d
00000130: e119 b6bc c5c1 a03c 3a5a 80bd 716f 06be
00000140: ad1f d13c 7079 8cbc 77c7 e7bd 054d ab3e
00000150: e5e7 433d 2590 a8bd 21af 4dbc f923 3cbc
00000160: d0d4 30be dccb bc3d 22b7 0b3c 70d9 4b3d
00000170: 8f7a ed3d 76f8 743d 4578 c23d c287 fbbd
00000180: 2f49 f53d afb7 18bd cdef d1bc e634 283e
00000190: 90f4 623a bd1b 6f3d 7783 323e d5fa 6abc
000001a0: 9469 5aba 8d3f e23b bd1e c33d 90ce e9bd
000001b0: 52a8 6b3b f878 a2bc aa62 b53d a42e a1bb
000001c0: dbbd 2abd ff9d 163d 549d 5a3e 9fd3 bb3d
000001d0: ab59 c7bd 3e84 20b9 c0b2 4c3d 0ece debc
000001e0: 9cb6 7ebb 265c 31bd 185c c4bd 8f6b 843b
000001f0: 204f 31be 6389 3f3d 9724 5d3c 339c 1ebb
00000200: 19f1 86be fbb4 debd 608e eb3b 043b 913d
00000210: 1e59 1cbd 34bd 4b3b b43a afbd 6ca5 9e3b
00000220: e951 783d 81d1 0bbd 719f afbd caa5 29be
00000230: 2ac3 26bd 167a 17be ffb9 c6bd 9316 323d
00000240: 24b7 773c 43ff e6bd 7013 6ebc 1ce9 b7bd
00000250: 5721 0abd d54a 0dbe 985a 5bbe 2986 673d
00000260: 3d68 33bc 7e38 b23d 3b30 8b3d d2e1 8b3d
00000270: 6de7 643c 5622 b33c 6f6f 1ebd dcf9 0e3b
00000280: bbac 19bd d10b f8bc 46ff 01bb fa86 1a3e
00000290: 307c 323d 5290 07be 6851 903a cf15 e2bd
000002a0: 75a9 5cbd 08ae 133d 4d43 0abe 4c5e 05be
000002b0: a60a e63d 726e 61bd 0b6e 4bbd c797 943d
000002c0: 09f2 ecbd 0880 01bc 9edc ebbc b646 1cbd
000002d0: 575c 333d 0206 abbc ac70 96bd 4cb3 bbbd
000002e0: 0aee b53d feda c33c e043 94bd c40d 67bd
000002f0: ec47 043b eb6f 88bd 6f92 193e c517 81bd
00000300: edd0 653e 4ccb 483e 34c4 1c3d 52f0 42bc
00000310: 48e0 3dbd aaa3 0fbc c9de a4bd edda 2d3d
00000320: 9b17 cd3a c8cc 4d3d 8c63 f5bd 609f 6a3c
00000330: dd9d 0abd c068 bbbd 56b8 bfbd fa64 a6bd
00000340: ee7c e9bd 52f2 c83d 1c84 82bd 16d7 4fbe
00000350: 18ea 533d 10ea 13be 9fdf 07be 627f 9c3d
00000360: 9889 65bd 276b bcbd 84b5 ad3c 9bf3 de3c
00000370: b63c 3f3c 0d98 a03c 5a52 9a3d 4c12 c5bc
00000380: 61f6 283d 6c84 0d3d ff2b 1abd e645 3abd
00000390: f943 a13d e79c 883d c0d7 253d 988d d9bd
000003a0: 6170 ba3c dd5b 1d3d 83f7 a6bc d0d0 8e3d
000003b0: 1c83 da3d 539d 013e 766a 7dbd aac0 7a3d
000003c0: de27 d7bc 1cef 833d 8289 a1bd 2d62 64be
000003d0: 13b9 d13c e251 523d e80e 1abd 5fdc 0d3e
000003e0: 4a9f 0abe cff6 cb3d ba13 283e 52e8 7cbc
000003f0: 4940 2f3c 1872 8a3d 7a5e 7ebd 07c8 bc3d
0.07035724 -0.064973556 -0.13381359 -0.011063062 -0.11089243 0.09419474 -0.07778548 0.10511692
0.016120628 0.062131632 0.21175621 0.10724053 -0.09361278 0.004479607 -0.0570536 0.1861126
0.06382034 -0.022834154 -0.12362824 -0.005049864 0.055334292 0.109294735 0.12854323 0.15822361
-0.005029113 0.072619684 -0.12727803 0.03883912 -0.06696051 0.018400652 -0.051226523 0.04599885
-0.0850648 -0.046368375 -0.16683726 -0.015342718 0.03691047 0.058029495 -0.04054182 0.06858068
0.014775754 -0.13180938 0.017320093 -0.047233142 -0.13925862 0.09376499 0.013705973 -0.07686846
-0.041603107 0.119686395 0.0036834301 0.10392346 0.021902265 0.09676413 0.033083163 0.01350679
0.0667374 -0.071319945 -0.05384406 -0.02254055 -0.006397847 -0.07729948 0.11040403 -0.054440703
-0.024571877 -0.019205574 -0.059221186 -0.019742131 -0.042955633 -0.11597027 0.00017977247 0.06347253
-0.09123859 -0.009418094 0.15407212 0.06374505 -0.022229137 0.019623647 -0.06267209 -0.13128449
0.0255278 -0.01714775 -0.11317342 0.334572 0.047828574 -0.082306184 -0.012553961 -0.011483186
-0.17268682 0.092185706 0.008527549 0.04976791 0.11595642 0.059807263 0.09495596 -0.12281753
0.11976849 -0.03728455 -0.025627041 0.16426429 0.00086576585 0.058376063 0.17432962 -0.01434203
-0.00083317724 0.0069045485 0.09527347 -0.11416352 0.003595848 -0.019833073 0.08856709 -0.00491889
-0.041684967 0.03677177 0.21349078 0.09171223 -0.097339 -0.00015308053 0.049975157 -0.027197864
-0.0038866168 -0.04330077 -0.09587878 0.0040411423 -0.1731534 0.04676188 0.013497493 -0.0024201989
-0.26355818 -0.10874363 0.0071886033 0.070913345 -0.038170926 0.0031088116 -0.085561186 0.004841497
0.06062499 -0.034135345 -0.08575333 -0.1656715 -0.040713467 -0.14792666 -0.09703445 0.04347856
0.015119348 -0.11279156 -0.014531001 -0.08980009 -0.0337232 -0.13798077 -0.21421278 0.05652443
-0.010950145 0.08702181 0.067963086 0.06830181 0.013971192 0.021866959 -0.03868049 0.0021816408
-0.037518244 -0.030279072 -0.0019835993 0.15090552 0.043575466 -0.13238648 0.0011010589 -0.11039316
-0.053872544 0.03605464 -0.13502236 -0.13024253 0.112325 -0.05503697 -0.049665492 0.07255512
-0.11569602 -0.00790406 -0.028791722 -0.038153373 0.043789234 -0.020876888 -0.07345709 -0.091650575
0.08883293 0.023908135 -0.07239509 -0.056409612 0.002018447 -0.06661972 0.14997266 -0.06303362
0.2244298 0.19608802 0.03827305 -0.011898117 -0.04635647 -0.008767048 -0.080503054 0.042445112
0.0015647294 0.050244123 -0.11981878 0.0143202245 -0.033841956 -0.09150839 -0.09361331 -0.081247285
-0.114007816 0.09811844 -0.06372854 -0.20296893 0.05173692 -0.14444757 -0.13268898 0.07641484
-0.056039423 -0.09200125 0.021204717 0.02721577 0.011672189 0.019603753 0.075352386 -0.024056576
0.04125059 0.034550115 -0.037639614 -0.045476817 0.07874293 0.06670552 0.04048896 -0.1062271
0.022758665 0.038417686 -0.020381695 0.069734216 0.106695384 0.1265767 -0.061869107 0.061218895
-0.026264127 0.06442091 -0.07887556 -0.22303076 0.025600946 0.05134762 -0.037611872 0.13853596
-0.13537326 0.099591844 0.16413775 -0.015436249 0.010696479 0.06760043 -0.06210182 0.0921784

network_body._body_endoder.seq_layers.2.bias f4 [128]
00000000: 82dd feb8 84a4 c639 8c7b 83bb b6b3 453b
00000010: 26f0 41ba 6d3f 9ebb 6a82 e63a 9669 03bb
00000020: 389b 783b 31ab dfba 0d01 6839 e575 3a3b
00000030: e109 023a d55d 873b 01f5 55ba f7c6 5bbb
00000040: 16a9 95b9 1619 80ba 75cf 803a 2911 b4ba
00000050: 0ae1 053b fa37 6b3a d6ab 763b dc45 bbba
00000060: 11c0 2e3a e4de 513a 8f58 103a b11a ba39
00000070: 6926 e139 b695 82ba 77ba 883b 4108 f53a
00000080: 0556 c2ba 2097 c43a cbb2 99ba 1c43 2c3a
00000090: 63cb 92bb c682 4e3b c177 a4ba 9b46 d639
000000a0: 985e f83a 7aba e7ba 2217 803b 14da b0b9
000000b0: 37da 4cbb a9a7 a7ba ed01 21ba 0a7c 85bb
000000c0: 6b45 503b 5bd3 0d3b 6760 cc3a 7f72 0f3a
000000d0: 1340 b9b9 8f52 5bba 30a4 9bbb 951e 0bba
000000e0: edbd 32bb 15f2 223b a4e9 d0ba b373 0fbb
000000f0: 36d2 9c3b f3fd 81ba 30f5 c7b8 7d9f a4ba
00000100: 23d0 53ba 7b04 423a a103 e0b9 47c9 7a3a
00000110: bf5d 33bb 7851 8fba 7deb 4b3b 5366 90ba
00000120: db0c 943b 3915 89bb b88b 3cba edd7 26b9
00000130: 273d 91ba b98b 54ba 1f8a 69bb 3d01 293b
00000140: e6e7 95bb b04c 413b 824b 3cba 8d7d 373a
00000150: 44a0 02bb 4d66 323a 6517 0f3b a1bb a1b9
00000160: a789 4cb9 bbb0 b3ba 069b dd3a 6079 123b
00000170: aa8b c63a 2542 72bb ddce 4d3b 9b0e a9b9
00000180: 3d3d 173a 86e8 d1ba 8376 b2b8 eeed 693b
00000190: 79b6 dfb9 c83e b03a bacc 1b3a 30dd 0cb9
000001a0: e922 0f3b 453b a23b b68a 4abb 46c2 d8b8
000001b0: 03fb 89ba 1eb4 643b 5d8e 35bb 70e0 6cbb
000001c0: da45 9cb9 a706 9139 281c 933b 766b 0dbb
000001d0: 7e47 b1bb 7128 23bb a61a 773b 841d c43a
000001e0: df57 123b a79a f2ba 3892 9cba 6ebe 783a
000001f0: 8bcb 5ebb d04e c23a 8719 b7ba 81ec c73a
-0.00012152923 0.00037888077 -0.0040125307 0.003016693 -0.00073981506 -0.0048293383 0.0017586474 -0.0020051948
0.0037934314 -0.0017064569 0.00022125636 0.0028451618 0.00049605785 0.0041310587 -0.00081618136 -0.003353534
-0.00028545473 -0.0009773101 0.0009827452 -0.0013738024 0.0020428323 0.000897288 0.0037639043 -0.0014287787
0.00066661934 0.00080059306 0.00055063603 0.0003549657 0.00042943962 -0.000996283 0.004172619 0.0018694476
-0.0014826661 0.0014998652 -0.0011726258 0.00065712794 -0.004479812 0.0031511053 -0.0012547896 0.00040869866
0.001894909 -0.0017679476 0.0039090076 -0.00033731817 -0.0031257996 -0.0012791055 -0.00061419496 -0.0040736245
0.0031779658 0.002164087 0.0015592695 0.00054720783 -0.0003533369 -0.0008366489 -0.0047497973 -0.0005306986
-0.002727385 0.002486353 -0.0015938771 -0.002188903 0.0047858013 -0.0009917602 -9.534729e-05 -0.0012559738
-0.0008080026 0.00074011803 -0.00042727313 0.0009566736 -0.002736911 -0.0010934314 0.0031115704 -0.0011016823
0.004518134 -0.004183438 -0.00071924506 -0.00015911432 -0.0011080847 -0.00081079785 -0.0035635305 0.0025788092
-0.0045747636 0.0029495172 -0.00071828824 0.00069996045 -0.0019931952 0.0006805405 0.0021834013 -0.00030848107
-0.00019506236 -0.0013709286 0.0016907162 0.0022350177 0.0015147824 -0.0036965695 0.0031403818 -0.00032245074
0.0005769318 -0.0016014732 -8.509776e-05 0.0035694796 -0.00042669827 0.0013446445 0.00059432874 -0.00013433839
0.0021840876 0.004950913 -0.0030905432 -0.00010335869 -0.0010527078 0.0034897397 -0.0027703263 -0.0036144517
-0.00029806682 0.00027661512 0.0044894405 -0.0021578944 -0.005410134 -0.002489593 0.0037705093 0.001496241
0.0022330207 -0.0018509225 -0.0011945432 0.00094888255 -0.0033995833 0.0014824513 -0.00139694 0.0015252979

action_model._continuous_distribution.log_sigma f4 [1, 9]
00000000: 29dc d73b 6fcc 933b 0878 473b aa98 7539
00000010: e8ed 88bb 2557 91bb 65b6 9ebb 0fdb 7dba
00000020: d3f5 daba
0.0065875244 0.0045104544 0.0030436534 0.00023421893 -0.0041787513 -0.0044354373 -0.0048435205 -0.00096838264
-0.0016705341

action_model._continuous_distribution.mu.weight f4 [9, 128]
00000000: 8210 04bb fb16 f1bb 2f8d 133d 7d40 a23c
00000010: b91e 2d3d 91e9 5938 a972 60bc b0f7 99ba
00000020: 7f75 8cbc b7c0 793c 9696 3c3c 203f e53b
00000030: 24f7 6a3b 64b9 b63c 9059 ce3c 87f3 103c
00000040: 899a 95b8 19eb a23b 5016 cfbb d69d 403c
00000050: ee5c 173b 78ea 283c 757d 86bb c987 1bbc
00000060: 83bc b8bc 5a10 e4bb 5359 67bc fb54 663c
00000070: 8748 8d3b 72d6 163d da79 f63a 1f94 2fbc
00000080: ca3b 233c 8784 a1bc 51b1 a7ba a644 dbba
00000090: b1fa fb37 792a 313b 7e6c ffba 094f 99bb
000000a0: 610c afbb b6bb acbc 8470 c0bc cd22 243c
000000b0: f996 a2bb 5959 1a3c e58b 97bc 9fc7 d83b
000000c0: 2ca4 193a 968b 053c 43b6 bf3c 582c 3fbc
000000d0: 98f8 2a3c 23cc f03a 116e 5cbc 264b 9d3b
000000e0: a4e1 7cbc a14f 70bc 1f1c 223d b576 febb
000000f0: 26af bf3c b1c9 ebbb 9b1b e7bc 5e9e 303c
00000100: 9388 073b edc9 b2ba 1626 3dbc 22da ae3c
00000110: 0c84 fc3c 6061 8e3c 91f1 1fbb 8bf9 263d
00000120: 1127 00bd 2bb4 ba3a 4f69 a23b 46c0 923c
00000130: 3926 d2bb 5c52 8f3c 75ae 63bb 08c5 75bb
00000140: 49ea c03c c77a 663c 4720 883c 8372 79bb
00000150: 0124 c4bc 5ee1 1c3b bf23 993c b2be 86bc
00000160: e794 b63c 6569 c2bb 526b 823c aecf 3ebd
00000170: cd11 b0bc 88b9 393c cc4b 50bc 1f58 f3bb
00000180: eabb 273c 995e b53c b0e4 fabb e9b1 85ba
00000190: a35b 2abb de1f 02bd 61fc a43c 9441 ea3c
000001a0: 4761 b43c 2cf3 04bc da20 733d 16bb 90bc
000001b0: e033 4b3b 1238 4cbc 95e7 273d 528f b13b
000001c0: 980f b73c dd27 46ba f76a adbb 5999 023b
000001d0: c8ee b33c 8743 9fbc 870c b7bc 7bae 27bc
000001e0: 6e4c d83c 0673 95bb f7e2 3e3b 22f7 05bc
000001f0: 840b 133c d571 82bb 0623 893b ecc8 a2bb
00000200: 4148 f13b 7863 403b 23e2 e83b 9000 87bb
00000210: 87a9 3ebc 1b24 a13b 9bef 40bc e978 e03c
00000220: b355 193d a479 f23b 3887 e33c efd4 513c
00000230: 6eed d13b 4bc2 073c c72c 62bc daed 9ebc
00000240: 1f5f d03c 477f 22bb 98de bd3c f1d4 d03b
00000250: d6f3 b1bc 28a5 4ebc 7f7a 9a3a d9a6 b53c
00000260: cb7c 003a 2274 f53a 1d10 30ba 48fd a93c
00000270: 7557 19bc 6b85 483c d20d 313d f7cf 6dbc
00000280: 5012 f43b 1382 783b e7ec 013b 0e6f 05bd
00000290: fde8 f1bc c735 34bb 578a 25bc d49d 623c
000002a0: 67e9 a2bb 9557 1dbd df5d 943c ab49 b23a
000002b0: 2975 32b9 7d5a 8d3b d193 8cbc 35db 18bc
000002c0: 43a4 b3bb 131e 083a 5cf9 1f3d 5bb9 733c
000002d0: fa24 2fbb 0088 ecbc abef 413b 6d07 73bc
000002e0: 4fbb 21bc d6e4 f73c 884f 8a3b 5403 6dbc
000002f0: a8ab a6bc b1bf 7e3c c7b8 3cbc 50d8 f3bc
00000300: c3d7 92bc 8f4b 2d3c 1077 3ebc f8dd 983b
00000310: 6b63 c9bb 29ba 003c 248a 3fbc bda9 c53a
00000320: d96c 9e3b b2d5 16bc fb9d 94bc d2dd 3d3d
00000330: ba61 803c 7b9f e4bb 1d28 38bc 7762 dd3c
00000340: b8b8 523b 6f66 c6bc be78 f7bc b8e2 36bb
00000350: abbe 8cbc c50d c23b ceee 313d b3e8 063c
00000360: e57e b73b 583f 023d 3e01 d13c 6a8d ba3c
00000370: 53bc 45bc 0f9f ab3c 4d3e df3c f71e 96bc
00000380: 6ada 4f3c 8868 acbb 0816 07bc abee c3bc
00000390: b4af 183b 69b2 2dbc 8eee cb3b 8e30 51bb
000003a0: c799 063c 05d0 873a 929b 07bc 0994 8f3c
000003b0: 32ab c9bb 60bc 513c 13f0 993b 3e78 423c
000003c0: b8c3 33bb e211 d73b ba2f aebc 19bc debb
000003d0: 9855 9abb 8ea1 ddbb 54ec af3a 8dbb 863c
000003e0: 8780 1ebb 6821 89ba 64fc 3cbb 67cc 65bc
000003f0: e045 2abc 2e35 9abc 5228 6ebc 667e 0a3d
-0.002015144 -0.007357476 0.036023315 0.019806141 0.042265628 5.1954357e-05 -0.013699212 -0.001174679
-0.01714587 0.015243701 0.011510512 0.0069960505 0.0035852874 0.022305198 0.025189191 0.008847124
-7.133658e-05 0.0049718735 -0.0063197985 0.011756381 0.0023096162 0.010309808 -0.004104311 -0.009492823
-0.022550827 -0.006959957 -0.014120418 0.014058347 0.0043116244 0.036825605 0.0018804625 -0.010716467
0.009962985 -0.019716514 -0.0012793933 -0.0016728833 3.0038269e-05 0.0027033372 -0.0019487289 -0.004678611
-0.005342052 -0.021085601 -0.023491152 0.010018063 -0.004961845 0.009420716 -0.018499324 0.0066155936
0.00058609503 0.008150956 0.023402339 -0.011668287 0.010435246 0.0018371384 -0.013453976 0.004800218
-0.015434656 -0.0146674225 0.0395776 -0.007765616 0.023398947 -0.0071956743 -0.028211406 0.010779945
0.002068077 -0.0013640501 -0.011544725 0.021344248 0.030824684 0.017380416 -0.002440546 0.040765326
-0.031287257 0.0014244368 0.0049564014 0.017913949 -0.006413248 0.017495327 -0.0034741436 -0.0037501473
0.023549216 0.014067358 0.016616954 -0.003806264 -0.02394295 0.002393804 0.018693803 -0.016448352
0.022287799 -0.005932974 0.015920315 -0.046584778 -0.021492863 0.011335738 -0.012713384 -0.0074262763
0.010237673 0.022139834 -0.007656656 -0.0010200116 -0.002599456 -0.031768672 0.020139875 0.028595723
0.022019042 -0.008114617 0.0593575 -0.017667335 0.0031006262 -0.01246454 0.04099234 0.0054186964
0.022346303 -0.00075590407 -0.005292292 0.0019927828 0.021964446 -0.01944138 -0.02234484 -0.0102344705
0.026403632 -0.004560831 0.002912698 -0.008176597 0.0089749135 -0.003980855 0.0041850833 -0.0049677994
0.0073633497 0.0029356163 0.0071070357 -0.00411994 -0.011637098 0.004917634 -0.011775876 0.027401404
0.037435245 0.0073997546 0.027774438 0.012807115 0.0064064777 0.008286069 -0.013804621 -0.019400526
0.025435982 -0.0024795101 0.02317743 0.006373041 -0.021722715 -0.0126126185 0.0011785774 0.022174286
0.0004901408 0.0018726627 -0.0006716268 0.020750657 -0.00935923 0.012238841 0.04322607 -0.014514915
0.007448472 0.0037919327 0.0019825043 -0.032576613 -0.029530043 -0.0027497874 -0.010103784 0.0138315745
-0.0049716714 -0.038413603 0.018111167 0.0013602277 -0.00017019048 0.0043137656 -0.017160328 -0.009329607
-0.005482228 0.00051924697 0.039056167 0.014875735 -0.002672492 -0.028873444 0.0029592316 -0.014833313
-0.009871318 0.030260485 0.0042209066 -0.0144661255 -0.020345524 0.0155486325 -0.011518664 -0.029766232
-0.017925149 0.010577097 -0.011625066 0.0046651326 -0.0061458847 0.007856884 -0.01169065 0.0015080493
0.004834753 -0.009206222 -0.018141737 0.046354122 0.0156716 -0.0069770194 -0.0112400325 0.02702449
0.0032153558 -0.024218766 -0.030208942 -0.002790613 -0.017180761 0.0059220516 0.043440633 0.008234191
0.005599844 0.03179869 0.025513288 0.02277251 -0.012068826 0.020949868 0.027251387 -0.018325312
0.012686351 -0.0052614845 -0.008244999 -0.023917517 0.0023298087 -0.010601618 0.0062235063 -0.003191981
0.008215374 0.0010361677 -0.008276837 0.017526643 -0.0061544413 0.01280126 0.0046978085 0.011869488
-0.002742989 0.006563411 -0.021262992 -0.0067973253 -0.0047099106 -0.0067636436 0.0013421872 0.016446853
-0.0024185495 -0.0010462226 -0.002883696 -0.014025784 -0.010392636 -0.018824186 -0.01453598 0.03381195

action_model._continuous_distribution.mu.bias f4 [9]
00000000: 2a21 2abb 8934 fb3a b04b a339 dbf3 46ba
00000010: 6b85 8c3b 71e7 423b 9823 4039 8444 5bbb
00000020: fc3d cd3a
-0.0025959709 0.0019165437 0.00031146174 -0.0007589438 0.0042883656 0.002974 0.00018323807 -0.0033457587
0.0015658732

exp_avg f4 [128, 116]
00000000: 0000 0000 0000 0000 296b 0cb5 0000 0000
00000010: 0000 0000 7849 17b5 0000 0000 0000 0000
00000020: 633a 15b5 0000 0000 1878 3fb3 e57f 06b5
00000030: 0000 0000 0000 0000 b22a efb4 0000 0000
00000040: 1b1c cdb7 3b95 d6b7 0000 0000 17a0 8036
00000050: 1120 7136 0000 0000 43e2 c4b7 cfdd d1b7
00000060: 0000 0000 33f4 c736 bfc5 9c36 0000 0000
00000070: 6259 d7b7 760a d5b7 0000 0000 f216 c436
00000080: f987 af36 0000 0000 e486 dbb7 b465 dab7
00000090: 0000 0000 334c 1837 1ff2 d736 0000 0000
000000a0: 5fc3 e2b7 9121 deb7 0000 0000 a71d fb36
000000b0: 880b c336 0000 0000 776f deb7 a5d0 e0b7
000000c0: 0000 0000 6d7a fc36 c855 b936 0000 0000
000000d0: d905 e2b7 bddc e2b7 0000 0000 c348 f236
000000e0: 77ea b136 b428 e1b7 2f1f 9ab6 ae7d 1fb6
000000f0: 0000 0000 0000 0000 0000 0000 65ff a2b7
00000100: fe0b 89b7 b428 e1b7 2f1f 9ab6 ae7d 1fb6
00000110: 272b ffb5 132b c538 256b bab7 543c 36b7
00000120: 618e 8bb7 76a2 83b8 5122 db36 c16f 1836
00000130: 0cd7 fb37 b52b 05b9 925a ea37 fdea 9d36
00000140: 5421 4cb4 3467 c137 e772 56b7 3044 aab1
00000150: 4c16 3e35 4afa 5bb7 116b 56b7 91b5 69b7
00000160: 6577 9eb5 1b00 dcb6 e046 4bb6 1d75 e0b7
00000170: 6225 3ab6 a871 0938 8d97 4d37 d423 46b6
00000180: 2100 2038 fa4a b2b5 268b 1235 0200 c835
00000190: c1d5 9eb7 7e1d 86b7 f8a5 c7b7 6977 11b8
000001a0: 414a 05b5 dcdb a6b7 9b91 5d37 6268 0338
000001b0: 88a8 c2b8 ff17 2537 3257 65b6 a64b 6938
000001c0: a9b1 1636 1a3a b0b5 3741 60b3 b797 9bb7
000001d0: 0000 0000 0000 0000 abbf 6934 0000 0000
000001e0: 0000 0000 6311 7f34 0000 0000 0000 0000
000001f0: df65 7534 0000 0000 d49c 5232 4444 5734
00000200: 0000 0000 0000 0000 91f8 4434 0000 0000
00000210: 737a a5b6 ab7f 0ab6 0000 0000 9632 8137
00000220: 9b00 4c37 0000 0000 76c6 0fb6 88cc 0eb6
00000230: 0000 0000 6571 2a37 2719 2a37 0000 0000
00000240: f6fd 67b5 040f 0ab6 0000 0000 5199 3c37
00000250: c3b6 2837 0000 0000 6629 2ab4 7ca4 fcb5
00000260: 0000 0000 5887 2e37 3723 1237 0000 0000
00000270: f92d b3b4 972c ccb5 0000 0000 9ba3 1537
00000280: 48f9 0337 0000 0000 5162 c0b5 3ef4 1cb6
00000290: 0000 0000 6144 2237 5b93 1937 0000 0000
000002a0: e42f 4ab6 571f 72b6 0000 0000 7e85 1737
000002b0: df18 1937 5839 8636 ee94 84b7 f853 90b7
000002c0: 0000 0000 0000 0000 0000 0000 6bf7 0537
000002d0: 1cd7 0837 5839 8636 ee94 84b7 f853 90b7
000002e0: 8530 f3b5 b53f 44b6 6d31 bfb7 9d8d a136
000002f0: 0557 dc36 a62f 06b7 1c3f a2b7 8f56 3d36
00000300: c2b3 6ab7 80ed 6538 13d4 40b7 7d4e 3f35
00000310: 2301 b9b5 20dd 27b7 d63b 9c36 c643 8535
00000320: d36f 72b5 1ed4 d136 1097 2037 69be c636
00000330: c52d d0b7 163b 1337 abeb c437 ee7f fc37
00000340: 239c 51b7 c3b4 8836 cdd3 16b6 9985 acb5
00000350: fe1a 9eb7 08e1 9d34 49fa e334 75db c6b5
00000360: 33b6 0337 44da a536 687b 2e34 fe1f 25b7
00000370: afc3 8a37 bd48 dcb7 6288 5bb8 7d65 4836
00000380: 530d 1638 fb45 01b7 ab68 b934 6292 edb7
00000390: fcd9 f8b5 dcae b634 e4b1 2eb5 b7d1 0037
000003a0: 0000 0000 0000 0000 b02a c233 0000 0000
000003b0: 0000 0000 eee8 d533 0000 0000 0000 0000
000003c0: a526 ca33 0000 0000 4f9d ab31 bc7a b133
000003d0: 0000 0000 0000 0000 207d a533 0000 0000
000003e0: 1c65 d336 260e ce36 0000 0000 85f9 45b6
000003f0: b315 65b6 0000 0000 1b91 a436 a155 ac36
0.0 0.0 -5.231e-07 0.0 0.0 -5.6358795e-07 0.0 0.0
-5.559179e-07 0.0 -4.4579878e-08 -5.0105e-07 0.0 0.0 -4.4548284e-07 0.0
-2.4450992e-05 -2.5580279e-05 0.0 3.833334e-06 3.5930464e-06 0.0 -2.3470382e-05 -2.501803e-05
0.0 5.9590907e-06 4.672183e-06 0.0 -2.567162e-05 -2.539645e-05 0.0 5.8439264e-06
5.2312357e-06 0.0 -2.6169648e-05 -2.6034984e-05 0.0 9.0776475e-06 6.435686e-06 0.0
-2.7032276e-05 -2.6480093e-05 0.0 7.483835e-06 5.8127953e-06 0.0 -2.6516367e-05 -2.6800039e-05
0.0 7.5244375e-06 5.523416e-06 0.0 -2.6944022e-05 -2.7044089e-05 0.0 7.2206326e-06
5.3023064e-06 -2.6841044e-05 -4.593188e-06 -2.3766002e-06 0.0 0.0 0.0 -1.9430832e-05
-1.6337257e-05 -2.6841044e-05 -4.593188e-06 -2.3766002e-06 -1.901154e-06 9.401715e-05 -2.2222821e-05 -1.0862092e-05
-1.6636392e-05 -6.2768275e-05 6.5307036e-06 2.2714814e-06 3.002167e-05 -0.0001270015 2.7937149e-05 4.706321e-06
-1.9011105e-07 2.305545e-05 -1.2782147e-05 -4.955403e-09 7.081296e-07 -1.3111692e-05 -1.2780322e-05 -1.39301565e-05
-1.1806666e-06 -6.556523e-06 -3.0290612e-06 -2.6757416e-05 -2.773792e-06 3.2769196e-05 1.2254238e-05 -2.9525154e-06
3.8147093e-05 -1.3283855e-06 5.4591726e-07 1.4901163e-06 -1.8934605e-05 -1.5987778e-05 -2.3799934e-05 -3.4681903e-05
-4.9654415e-07 -1.9891122e-05 1.3206528e-05 3.1330048e-05 -9.282032e-05 9.840353e-06 -3.4174413e-06 5.5621982e-05
2.2455154e-06 -1.3129932e-06 -5.2213377e-08 -1.8548088e-05 0.0 0.0 2.1769544e-07 0.0
0.0 2.3755051e-07 0.0 0.0 2.2854464e-07 0.0 1.2259267e-08 2.004827e-07
0.0 0.0 1.834435e-07 0.0 -4.931638e-06 -2.0637915e-06 0.0 1.5401554e-05
1.21594885e-05 0.0 -2.142418e-06 -2.1278702e-06 0.0 1.0159191e-05 1.0138646e-05 0.0
-8.642377e-07 -2.0572343e-06 0.0 1.124137e-05 1.0056133e-05 0.0 -1.5847544e-07 -1.8823334e-06
0.0 1.040272e-05 8.710477e-06 0.0 -3.3374798e-07 -1.5212162e-06 0.0 8.919184e-06
7.866249e-06 0.0 -1.4333729e-06 -2.338798e-06 0.0 9.671873e-06 9.1538195e-06 0.0
-3.0128222e-06 -3.6079052e-06 0.0 9.031382e-06 9.125301e-06 4.000187e-06 -1.5804977e-05 -1.7205239e-05
0.0 0.0 0.0 7.985024e-06 8.156316e-06 4.000187e-06 -1.5804977e-05 -1.7205239e-05
-1.8119032e-06 -2.9243358e-06 -2.279199e-05 4.81466e-06 6.5666413e-06 -7.998116e-06 -1.9341293e-05 2.8213578e-06
-1.398934e-05 5.4819044e-05 -1.1493469e-05 7.126726e-07 -1.3783905e-06 -1.000546e-05 4.656128e-06 9.928997e-07
-9.031475e-07 6.253379e-06 9.571915e-06 5.9230265e-06 -2.4816845e-05 8.77564e-06 2.3474762e-05 3.0100313e-05
-1.2493724e-05 4.0741593e-06 -2.2475026e-06 -1.2853881e-06 -1.8847637e-05 2.940726e-07 4.246415e-07 -1.481602e-06
7.85063e-06 4.9427927e-06 1.6249908e-07 -9.842215e-06 1.6542004e-05 -2.6259915e-05 -5.2340685e-05 2.9861396e-06
3.5775196e-05 -7.705293e-06 3.453509e-07 -2.8320766e-05 -1.8540882e-06 3.402737e-07 -6.5078916e-07 7.678223e-06
0.0 0.0 9.041594e-08 0.0 0.0 9.960955e-08 0.0 0.0
9.4133874e-08 0.0 4.994639e-09 8.26453e-08 0.0 0.0 7.706171e-08 0.0
6.3000607e-06 6.1409255e-06 0.0 -2.9500527e-06 -3.413629e-06 0.0 4.9044734e-06 5.135968e-06

exp_avg_sq f4 [128, 116]
00000000: 0000 0000 0000 0000 8902 112a 0000 0000
00000010: 0000 0000 e51f 2c2a 0000 0000 0000 0000
00000020: e3db 212a 0000 0000 f898 4926 eabe dd29
00000030: 0000 0000 0000 0000 e881 d629 0000 0000
00000040: b857 b02e 469d b62e 0000 0000 19e9 a72e
00000050: 6500 b42e 0000 0000 1806 b62e 95b2 bd2e
00000060: 0000 0000 8016 ac2e 6b70 ba2e 0000 0000
00000070: 3e28 bc2e 96b8 b92e 0000 0000 828d b22e
00000080: dee3 bf2e 0000 0000 90c2 b02e fca7 b52e
00000090: 0000 0000 712e b72e b508 c52e 0000 0000
000000a0: 221b b02e fa60 b42e 0000 0000 e0a2 c52e
000000b0: 714b cc2e 0000 0000 2859 a82e c7a2 b22e
000000c0: 0000 0000 1e1f c72e 51d6 cc2e 0000 0000
000000d0: ee57 aa2e fde6 b12e 0000 0000 f165 bd2e
000000e0: d7c8 cd2e a282 0330 4b2e ca2e 281f bc2e
000000f0: 0000 0000 0000 0000 0000 0000 8d03 412f
00000100: 4feb 3d2f a282 0330 4b2e ca2e 281f bc2e
00000110: 6ac2 892f 3f8c 8d30 bb09 4031 a697 4c2e
00000120: 4842 1a2f c34b 3330 a73f 192f 5905 2e2e
00000130: ce0e d730 40f6 5d31 2f37 0d31 507e c02c
00000140: b18b 3a2c 90ee 9a2f 3e8c ba2e 2902 342c
00000150: 7fbb 1a2c de7b be2e 45d9 542e 5d56 1e2f
00000160: 2e5f db2f 521b c72f e25c 742f 1235 c330
00000170: 1aaa b030 c342 0c31 24b5 4b2e f746 822d
00000180: ccf4 7730 59ac 862c 84b4 eb29 c1ca ff2c
00000190: 365f 392f 893b 6a2e 8016 382f 5acf b72f
000001a0: 0a13 d92f 58d4 e02f 75b3 0931 c63a 5831
000001b0: 0f6f f930 bd9c 1c2f bae9 012e 70ab 0031
000001c0: f198 ed2c eb0a 222a 859a ac2c 5e97 382f
000001d0: 0000 0000 0000 0000 2819 c029 0000 0000
000001e0: 0000 0000 6d4d e429 0000 0000 0000 0000
000001f0: a95c d629 0000 0000 e8a5 7424 7700 9329
00000200: 0000 0000 0000 0000 c023 8e29 0000 0000
00000210: afd4 a42d 719c ae2d 0000 0000 3073 e92e
00000220: ca8a df2e 0000 0000 9308 e82d 0413 e82d
00000230: 0000 0000 f47b d82e e3a8 db2e 0000 0000
00000240: 18c2 ec2d 415e e82d 0000 0000 02a5 e42e
00000250: f596 de2e 0000 0000 508e df2d 3de6 e32d
00000260: 0000 0000 ad1c dd2e 4cd4 db2e 0000 0000
00000270: 3eb6 cd2d 519a df2d 0000 0000 e58d d32e
00000280: 59bc da2e 0000 0000 2545 b72d 9a27 d92d
00000290: 0000 0000 8530 e42e 7196 e32e 0000 0000
000002a0: a039 d32d 5ed8 ef2d 0000 0000 998d e12e
000002b0: 75c3 e02e 5656 512f 8bf0 d72e da0e 792e
000002c0: 0000 0000 0000 0000 0000 0000 e920 fe2e
000002d0: 38aa f92e 5656 512f 8bf0 d72e da0e 792e
000002e0: 81ab 2d2f e42a 2330 305d a930 5083 fc2d
000002f0: e91d c52e aba9 a12f 4d69 3b2f a292 d62d
00000300: c77d 5330 9a2f 1931 5077 6a30 b704 5f2c
00000310: b058 c82b 38e3 512f 089a 872e f441 c52b
00000320: 9fdd 9c2b da43 6c2e 52df 182e a38c 802e
00000330: efa0 ad2f 612a 312f 06e9 082f de27 2c30
00000340: 5a1b e92f 6e38 4d30 e73c 112e 792b 172d
00000350: c6b0 2830 7747 392c 3868 8c29 df76 472c
00000360: 3f61 f12e f89d 032e d2d2 ca2e 5f29 7d2f
00000370: 15af 772f 77a7 0d2f 041c b230 f410 3931
00000380: 8cea 8130 8093 ea2e 9428 b02d 9e6a a730
00000390: 454f 472c 1e2c c629 e0d9 d22b 1712 f32e
000003a0: 0000 0000 0000 0000 1b7f 9028 0000 0000
000003b0: 0000 0000 162f ac28 0000 0000 0000 0000
000003c0: 8e08 a128 0000 0000 353e 3223 9abf 5928
000003d0: 0000 0000 0000 0000 08db 5528 0000 0000
000003e0: ef36 0f2d 3d1a 0e2d 0000 0000 65a5 3c2d
000003f0: 1ed5 432d 0000 0000 2928 302d a0d2 332d
0.0 0.0 1.2879467e-13 0.0 0.0 1.5287734e-13 0.0 0.0
1.4375961e-13 0.0 6.9943195e-16 9.84749e-14 0.0 0.0 9.526044e-14 0.0
8.0191354e-11 8.304339e-11 0.0 7.635687e-11 8.1855224e-11 0.0 8.277484e-11 8.6264475e-11
0.0 7.825651e-11 8.47827e-11 0.0 8.5563986e-11 8.445615e-11 0.0 8.11964e-11
8.726152e-11 0.0 8.0381146e-11 8.260767e-11 0.0 8.330126e-11 8.9600695e-11 0.0
8.008373e-11 8.202679e-11 0.0 8.987455e-11 9.290247e-11 0.0 7.655593e-11 8.123418e-11
0.0 9.055e-11 9.314916e-11 0.0 7.7463244e-11 8.09006e-11 0.0 8.6128334e-11
9.357997e-11 4.784316e-10 9.19412e-11 8.554785e-11 0.0 0.0 0.0 1.7554509e-10
1.7273048e-10 4.784316e-10 9.19412e-11 8.554785e-11 2.5058294e-10 1.0298961e-09 2.7945208e-09 4.651892e-11
1.4029766e-10 6.5227485e-10 1.3937883e-10 3.956777e-11 1.5647517e-09 3.229971e-09 2.0549569e-09 5.4709917e-12
2.6509734e-12 2.8181946e-10 8.483213e-11 2.5580738e-12 2.1988798e-12 8.662203e-11 4.8396193e-11 1.4400699e-10
3.9903497e-10 3.62173e-10 2.222467e-10 1.4203201e-09 1.2854031e-09 2.041063e-09 4.631774e-11 1.4810804e-11
9.0205954e-10 3.8276435e-12 1.0467411e-13 7.270046e-12 1.6859478e-10 5.3258318e-11 1.6742696e-10 3.3434838e-10
3.9485598e-10 4.0896242e-10 2.0038133e-09 3.1465546e-09 1.8148699e-09 1.4243802e-10 2.9538795e-11 1.8723902e-09
6.752925e-12 1.4392278e-13 4.905689e-12 1.6788479e-10 0.0 0.0 8.530877e-14 0.0
0.0 1.0138665e-13 0.0 0.0 9.519583e-14 0.0 5.3049594e-17 6.528192e-14
0.0 0.0 6.3122684e-14 0.0 1.8739092e-11 1.9850984e-11 0.0 1.0616075e-10
1.016552e-10 0.0 2.6379154e-11 2.6383791e-11 0.0 9.844561e-11 9.988967e-11 0.0
2.6916289e-11 2.6417203e-11 0.0 1.0397551e-10 1.01222065e-10 0.0 2.5415364e-11 2.5909158e-11
0.0 1.005501e-10 9.9966785e-11 0.0 2.3386734e-11 2.5420695e-11 0.0 9.6203746e-11
9.9469495e-11 0.0 2.0835398e-11 2.468763e-11 0.0 1.03768584e-10 1.03494886e-10 0.0
2.4013513e-11 2.726724e-11 0.0 1.0256968e-10 1.0221061e-10 1.9039112e-10 9.819797e-11 5.6629236e-11
0.0 0.0 0.0 1.1556429e-10 1.1353446e-10 1.9039112e-10 9.819797e-11 5.6629236e-11
1.5795189e-10 5.9360006e-10 1.2322854e-09 2.8707398e-11 8.963836e-11 2.9406286e-10 1.7044961e-10 2.4394101e-11
7.6940093e-10 2.2291489e-09 8.529826e-10 3.1692823e-12 1.423547e-12 1.9089164e-10 6.166451e-11 1.4015998e-12
1.1145979e-12 5.372045e-11 3.4759147e-11 5.845748e-11 3.1582867e-10 1.6113112e-10 1.2451914e-10 6.262989e-10
4.2401888e-10 7.4658757e-10 3.3023275e-11 8.593009e-12 6.1369254e-10 2.6329752e-12 6.235328e-14 2.8345588e-12
1.09766855e-10 2.9926256e-11 9.223346e-11 2.3024914e-10 2.2526721e-10 1.2883371e-10 1.2959167e-09 2.693068e-09
9.452648e-10 1.0667289e-10 2.0026904e-11 1.2181152e-09 2.8323604e-12 8.8006195e-14 1.498187e-12 1.1053574e-10
0.0 0.0 1.6042335e-14 0.0 0.0 1.9116256e-14 0.0 0.0
1.78783e-14 0.0 9.662572e-18 1.2087467e-14 0.0 0.0 1.187137e-14 0.0
8.140807e-12 8.0775915e-12 0.0 1.0723288e-11 1.1131788e-11 0.0 1.0013359e-11 1.022174e-11

exp_avg f4 [128]
00000000: 68ff a2b7 6af7 0537 d43a 5f36 57d9 7036
00000010: 43bc 5ab7 9290 0b36 029e 76b7 4fd4 e036
00000020: ceb4 f3b6 c681 acb7 5baa 3537 e7be 67b7
00000030: cc4a b935 28f2 13b6 31af 41b6 2f2b e636
00000040: 4ab3 39b6 f5c4 ed36 9534 9c36 b7d3 4836
00000050: d4b6 9836 0b5b 2a36 85d7 1d36 ade1 1138
00000060: f5d2 ddb5 8cce 8d36 da82 3db6 bdd2 06b7
00000070: b49d dcb4 604f e9b6 9263 f9b6 a162 3437
00000080: d813 b4b7 ed28 0437 3439 89b7 92c0 bdb6
00000090: 6e05 e237 d614 c9b6 f44d 49b7 8728 bd37
000000a0: 8a7d df35 1067 e035 762a 05b7 ee4e 8637
000000b0: fb57 0237 c0d3 f5b6 3629 53b7 49b5 88b4
000000c0: e5a3 4cb5 e178 9036 dbe2 0c37 41ac 23b7
000000d0: bfae 2b37 d6bf 24b6 eb74 29b7 bb9f 85b6
000000e0: a2cf b9b6 35fa 8434 a58f b736 08b4 edb6
000000f0: 6630 26b6 282b 0437 0507 a337 bc90 5a37
00000100: 1492 4bb7 15ad f1b6 c164 b3b5 999e ceb6
00000110: 7da2 9b36 cb80 82b6 4b1e 92b5 908f a4b7
00000120: b960 c2b6 2448 14b8 c458 0238 aa26 ddb6
00000130: 6c9d 60b6 6a38 8636 4e74 1435 3981 71b6
00000140: 0f36 c5b4 d3cb 5837 90c9 84b6 5c91 ecb6
00000150: b2c7 57b6 21c5 e5b6 33f3 4737 1c7c ceb6
00000160: 28cb 07b8 b01a 07b7 cf9c c936 e99b 9737
00000170: 9b5b 95b7 8463 f937 b571 51b7 046c 3d37
00000180: cda2 a5b7 4b1e b7b5 7b6e d4b7 160e 4837
00000190: 3845 d137 d09a 7135 aace d237 ed4a aab6
000001a0: 2db8 50b6 a653 45b6 1d74 ad36 0f95 2836
000001b0: 5463 28b7 516c a1b7 7b55 3db7 6c5a 6bb6
000001c0: a26e 25b7 2dbf 4f37 6747 2e37 8f81 62b4
000001d0: 43c7 a9b4 a36f f736 3417 8bb7 9e38 8cb6
000001e0: f61e 5037 b8d7 9cb6 b431 c4b7 00f1 62b7
000001f0: f4b1 a2b6 af0f 9236 7bdf c2b6 83c8 1535
-1.9430838e-05 7.985023e-06 3.3263832e-06 3.5889295e-06 -1.3037646e-05 2.0796765e-06 -1.4699532e-05 6.700436e-06
-7.263013e-06 -2.0564428e-05 1.0828105e-05 -1.3813121e-05 1.3805343e-06 -2.204566e-06 -2.8861216e-06 6.8595614e-06
-2.7671508e-06 7.086079e-06 4.6552836e-06 2.9925557e-06 4.551237e-06 2.5384968e-06 2.3520272e-06 3.478087e-05
-1.652718e-06 4.2261727e-06 -2.823936e-06 -8.036089e-06 -4.1092937e-07 -6.9531816e-06 -7.43237e-06 1.07518e-05
-2.1466913e-05 7.877342e-06 -1.635831e-05 -5.655057e-06 2.6943828e-05 -5.9926924e-06 -1.19986835e-05 2.2549428e-05
1.6651331e-06 1.6719296e-06 -7.937304e-06 1.60108e-05 7.769088e-06 -7.32622e-06 -1.2586175e-05 -2.5463876e-07
-7.623442e-07 4.3056066e-06 8.397469e-06 -9.755663e-06 1.02330805e-05 -2.4549568e-06 -1.0100407e-05 -3.982304e-06
-5.5376013e-06 2.4768966e-07 5.4705474e-06 -7.084109e-06 -2.47641e-06 7.877861e-06 1.9434383e-05 1.3027511e-05
-1.2133754e-05 -7.202509e-06 -1.3365863e-06 -6.1577416e-06 4.638276e-06 -3.8892954e-06 -1.0886664e-06 -1.9617175e-05
-5.7929105e-06 -3.5353136e-05 3.1077085e-05 -6.5908143e-06 -3.3470233e-06 4.0000787e-06 5.530354e-07 -3.5987016e-06
-3.6733442e-07 1.292206e-05 -3.9573715e-06 -7.05027e-06 -3.2153735e-06 -6.8476807e-06 1.19179485e-05 -6.1537266e-06
-3.2375712e-05 -8.052841e-06 6.0085217e-06 1.8073204e-05 -1.7804841e-05 2.9729454e-05 -1.2483845e-05 1.1290427e-05
-1.9745343e-05 -1.3643379e-06 -2.5323816e-05 1.1924209e-05 2.4946974e-05 9.000478e-07 2.5130186e-05 -5.0751173e-06
-3.110162e-06 -2.9403977e-06 5.169319e-06 2.5120714e-06 -1.0036707e-05 -1.9243134e-05 -1.128518e-05 -3.5070361e-06
-9.860525e-06 1.2382673e-05 1.0387833e-05 -2.1095023e-07 -3.1623685e-07 7.37417e-06 -1.6580896e-05 -4.1789162e-06
1.2404975e-05 -4.6742753e-06 -2.3388166e-05 -1.3526762e-05 -4.8486927e-06 4.352965e-06 -5.807667e-06 5.579861e-07

exp_avg_sq f4 [128]
00000000: 8e03 412f e620 fe2e ff2a bf2d fb23 8a2e
00000010: 2d57 8f2e 4734 602f 3c63 262f c71d ac2e
00000020: 4769 712e c87a 112f 3d2c fe2e 12d5 822e
00000030: 66ca 002f 69f2 592d b613 1a2f 1c85 8e2e
00000040: 584d fa2e 6c72 fb2d d000 2b2e 2997 c82e
00000050: 59a4 362f 7226 742f b617 042f af03 c72f
00000060: 89f4 1e2f 007a 232f 604b 1e2e 5edc b12e
00000070: f497 a32d 8ffe a62e c5fd 532f 538a 0a2f
00000080: 9aa0 922f a77a 1d2e 0eb3 1b2f 11a0 662e
00000090: 5fac 302f 2738 da2e 1918 812e 222b 832f
000000a0: 37d9 b02e 2049 932e 4a5b 922d a179 b82e
000000b0: 66d1 9a2e 1a54 b32e e750 f42d 14e3 c32b
000000c0: 5a16 5e2e 5416 012f c02b bb2d 1f3f 902e
000000d0: 3d5b d82e 39fb 112f 0b0f 882e 202b 9a2e
000000e0: 1b2c 0e2e a748 8a2e ba93 742e 9e55 8a2e
000000f0: 2c76 212f de83 812d a917 672f 9d29 802f
00000100: 5668 412e 7b86 9d2e e955 162f 1340 d62e
00000110: b416 012e 367b d82d 6709 c52d 0246 bb2e
00000120: 9f23 bd2e 36db 652f dd50 282f 2fd4 942f
00000130: 2275 472e 0f67 8e2f 69f7 172f f555 a02e
00000140: fcb9 0f2f 2da5 162e ef39 092e 4de3 b52e
00000150: 963f 772e 66c0 b92e 65c6 942e e85e db2e
00000160: 17a5 612f aee1 1f2f fa10 842e ca23 5a2f
00000170: a4f6 9f2e 99a5 a22f bd75 812e 6303 ef2e
00000180: afb2 8f2e d553 9c2e a5bb e82e 1730 5f2f
00000190: 942a 302f 01e2 942d 5374 b52e 5098 4a2f
000001a0: 7e69 8b2e 9073 e12e b535 e52e 4bf6 2d2e
000001b0: e39f 032e 262e ad2e 16ce 1d2f 45e6 1f2e
000001c0: c902 872f e9d1 d02e ead6 d52e 40ee 332e
000001d0: a0d4 692f 30c4 722e ca3a 522e bd12 ea2e
000001e0: bf98 722e a952 362f baa5 cb2e 71f8 cd2e
000001f0: e122 3e2e 95a3 ee2e 1990 d12f b29d 112e
1.755451e-10 1.15564266e-10 2.173328e-11 6.281905e-11 6.5183726e-11 2.0391254e-10 1.5132867e-10 7.826944e-11
5.489056e-11 1.3231294e-10 1.1558441e-10 5.9495645e-11 1.1713439e-10 1.2388848e-11 1.4013221e-10 6.4810574e-11
1.1382423e-10 2.858621e-11 3.888162e-11 9.1217985e-11 1.6611192e-10 2.2205329e-10 1.2013754e-10 3.6200506e-10
1.4456893e-10 1.4868107e-10 3.5991987e-11 8.088173e-11 1.8598435e-11 7.594025e-11 1.9280495e-10 1.260017e-10
2.667136e-10 3.5806604e-11 1.4160781e-10 5.2438113e-11 1.6068345e-10 9.923467e-11 5.8705214e-11 2.385941e-10
8.0421385e-11 6.697776e-11 1.6638819e-11 8.388957e-11 7.040306e-11 8.154917e-11 2.7775516e-11 1.391861e-12
5.0496808e-11 1.1740414e-10 2.1278868e-11 6.5595744e-11 9.83875e-11 1.3276925e-10 6.187236e-11 7.01077e-11
3.2326235e-11 6.288419e-11 5.5610384e-11 6.290722e-11 1.4684848e-10 1.4724163e-11 2.1017733e-10 2.3312632e-10
4.397579e-11 7.163422e-11 1.3672942e-10 9.742975e-11 2.935137e-11 2.4611074e-11 2.2400483e-11 8.5162113e-11
8.6010525e-11 2.0905308e-10 1.530824e-10 2.707181e-10 4.5351396e-11 2.5902877e-10 1.3821268e-10 7.2912267e-11
1.3071849e-10 3.4252757e-11 3.120165e-11 8.271304e-11 5.6217773e-11 8.447003e-11 6.765503e-11 9.975826e-11
2.0522282e-10 1.4541143e-10 6.005681e-11 1.98397e-10 7.274295e-11 2.9585293e-10 5.887155e-11 1.0869063e-10
6.534628e-11 7.10895e-11 1.0583471e-10 2.0298817e-10 1.6022234e-10 1.6926018e-11 8.2515904e-11 1.8425905e-10
6.3397274e-11 1.02523434e-10 1.04232546e-10 3.9554398e-11 2.992796e-11 7.875327e-11 1.4352283e-10 3.6356935e-11
2.4558336e-10 9.4960324e-11 9.724295e-11 4.0911496e-11 2.1266766e-10 5.519868e-11 4.7800687e-11 1.06444166e-10
5.5160095e-11 1.658217e-10 9.26081e-11 9.366453e-11 4.3231977e-11 1.0852045e-10 3.8119266e-10 3.3109245e-11
