results/RLEnv2/Worm/Worm-2575532.onnx (onnx, 125882 bytes, 7 tensors)

network_body._body_endoder.seq_layers.0.weight f4 [128, 98]
0	0x3d31696d	0.043313432
1	0xbe201799	-0.15634002
2	0x3e27af39	0.16375436
3	0x3ddbe15b	0.107363425
4	0x3d816341	0.06317759
5	0x3c55628e	0.013023986
6	0x3d904eae	0.07046257
7	0xbdf9258f	-0.12165367
8	0xbdf3aeb9	-0.1189856
9	0xbcf29e2f	-0.029616443
10	0x3d164a0a	0.036691703
11	0x3db8567e	0.09000872
12	0x3d65358a	0.055959262
13	0x3d90620d	0.07049952
14	0x3c8a4b91	0.016881736
15	0x3ccc0605	0.024905214
16	0xbd3174ab	-0.043324154
17	0x3de933ff	0.113868706
18	0x3da59d73	0.08086672
19	0x3d4b8723	0.049689423
20	0xbb15eea0	-0.0022877827
21	0xbd889ac7	-0.066701464
22	0xbd55a3b0	-0.052158058
23	0xbccb5ad0	-0.024823576
24	0x3c96b45c	0.018396549
25	0x3e3b663e	0.18300721
26	0xbe5781f9	-0.21045674
27	0xbcf632d9	-0.030053543
28	0xbd49ebdd	-0.049297202
29	0x3d1bc55b	0.03803001
30	0x3e3b4b07	0.1829034
31	0x3bebc28b	0.007194822
32	0x3d5c1005	0.053726215
33	0xbd8db80f	-0.06919872
34	0xbc9d211d	-0.019180829
35	0xbda6c44c	-0.081429094
36	0xbbd40ce1	-0.006471262
37	0x3dac3ec6	0.084104106
38	0xbdb04657	-0.08607166
39	0xbdd3b274	-0.103367716
40	0x3d3832f4	0.044970468
41	0x3ce74f5a	0.02823608
42	0xbd50ee20	-0.051008344
43	0x3d07ecf2	0.033184953
44	0x3d6cd7c8	0.057822973
45	0x3e11b90e	0.14230749
46	0xbd649e20	-0.055814862
47	0xbdc202a9	-0.09473164
48	0xbdb2083a	-0.08692975
49	0xbddb4be3	-0.107078336
50	0x3dc40405	0.09571079
51	0x3dbfa35f	0.093573324
52	0xbdfd2c9c	-0.12362024
53	0xbd92dd4b	-0.071711145
54	0x3d8478ae	0.0646833
55	0x3df1c4ad	0.11805091
56	0xbda36d8f	-0.07979881
57	0x3da10f28	0.07864219
58	0xbcc6d6df	-0.02427238
59	0x3d378884	0.044807926
60	0x3d5f2240	0.054476023
61	0x3db287c9	0.08717305
62	0x3cb91977	0.02259515
63	0x3da392f9	0.07987017
64	0xbce74198	-0.02822952
65	0xbd718aa3	-0.058970105
66	0x3d9b34bc	0.07578418
67	0xbe7fc531	-0.24977566
68	0x3de4e9c3	0.11177399
69	0x3e47b2e8	0.19501841
70	0x3dcfba58	0.10142964
71	0xbde23b8f	-0.11046516
72	0xbdc92423	-0.09821346
73	0xbd5a9068	-0.053360373
74	0xbe6bd147	-0.23029052
75	0x3cf31674	0.029673792
76	0x3b9b234c	0.0047344323
77	0x3d3bb4a0	0.045826554
78	0xbd0e0b40	-0.034678698
79	0x3cc9312b	0.024559578
80	0x3e1d82ce	0.1538193
81	0xbe19bd04	-0.1501351
82	0xbc87463f	-0.016512988
83	0xbd2e268a	-0.042517222
84	0xbd0ff9fb	-0.03515051
85	0x3dcf589c	0.10124323
86	0xbcb944b2	-0.022615764
87	0xbe059d25	-0.13048227
88	0xbdb26e8b	-0.08712491
89	0xbd7ea071	-0.062164728
90	0xbd949201	-0.072544105
91	0x3d94ac9c	0.07259485
92	0x3c1aaaab	0.0094401045
93	0x3d3a97fa	0.045555092
94	0xbdc0d7c3	-0.09416153
95	0xbe0e5e39	-0.1390313
96	0xbac672e6	-0.0015140444
97	0x3cb16f80	0.021659613
98	0x3d040587	0.032231834
99	0xbdd4449d	-0.103646494
100	0xbded514e	-0.11587773
101	0xbe90d5ee	-0.28288215
102	0x3cda3c4a	0.026640076
103	0xbc7b8294	-0.0153509565
104	0xbe008664	-0.12551266
105	0xbd9e9223	-0.07742717
106	0xbd9e1fe9	-0.0772093
107	0xbde828c3	-0.113359
108	0xbe5981d1	-0.21240927
109	0x3d7349f7	0.05939671
110	0x3d977d09	0.073968954
111	0x3d7c424d	0.061586667
112	0xbccd1a63	-0.025036996
113	0x3ba03752	0.004889407
114	0xbd1eec8a	-0.0387998
115	0xbe08aab2	-0.13346365
116	0x3cf9ea5c	0.03050726
117	0xbe8830c2	-0.265997
118	0xbd53eadf	-0.051737662
119	0x3d646815	0.055763323
120	0xbc2b2aaf	-0.010447188
121	0x3ca7f57b	0.020502796
122	0x3caec108	0.021332279
123	0xbe2595a8	-0.1617037
124	0xbe2dde0a	-0.16979232
125	0xbde6a09f	-0.11261105
126	0xbe85782a	-0.2606824
127	0xbd683e37	-0.056699958
128	0x3e39eac0	0.18155956
129	0x3e11271b	0.14175074
130	0xbe1a36dc	-0.1505999
131	0x3d66d3e3	0.056354415
132	0xbd79fd65	-0.06103267
133	0xbe3d0e3f	-0.18462466
134	0xbe0883f4	-0.13331586
135	0x3d4288e2	0.047493823
136	0xbe377ef1	-0.17919518
137	0xbe02e6fc	-0.12783426
138	0xbce0d697	-0.027446074
139	0xbcd3ff2b	-0.02587851
140	0xbcd7ed6f	-0.026358334
141	0x3dfc7f52	0.12328972
142	0xbdcb8a72	-0.09938516
143	0x3d7382c6	0.059450887
144	0x3e955af1	0.29170945
145	0x3de4e149	0.11175782
146	0x3d9e16e7	0.07719212
147	0x3be463f3	0.0069699227
148	0x3e04ddbf	0.12975214
149	0x3df04ea6	0.11733751
150	0x3bb3e7e9	0.0054902923
151	0x3bb1c4a3	0.0054250523
152	0xbd2beb8f	-0.041972693
153	0x3e49d362	0.19709542
154	0x3d817813	0.063217305
155	0x3d4724a0	0.048618913
156	0xbad2fcc5	-0.001609706
157	0x3caffb8e	0.021482255
158	0x3cb83cff	0.022490023
159	0xbd46c236	-0.048525058
160	0xbdcc4a8f	-0.099751584
161	0xbe67e13e	-0.22644517
162	0xbd0b92f8	-0.034075707
163	0xbe30a4af	-0.17250322
164	0xbd8bab9e	-0.06819843
165	0xbd053653	-0.03252251
166	0xbcd778a4	-0.026302643
167	0x3e01ddb2	0.12682226
168	0xbca3c4c1	-0.01999128
169	0xbe0e4846	-0.13894758
170	0xbe52ddb0	-0.2059238
171	0x3e046372	0.1292856
172	0x3e64982f	0.22323678
173	0x3e09e2a8	0.13465369
174	0xbd43bd53	-0.047787976
175	0xbcc8892c	-0.024479471
176	0xbc942dca	-0.01808824
177	0xbdd4e055	-0.103943504
178	0x3d1d9617	0.038473215
179	0xbde74da6	-0.11294107
180	0x3d38ebf1	0.045146886
181	0x3bff0ce0	0.0077835172
182	0x3dd7ed78	0.105433404
183	0xbd9113da	-0.070838645
184	0x3d12837d	0.03576993
185	0xbe200ec3	-0.15630631
186	0xbe252a6d	-0.16129465
187	0xbd832d31	-0.06405104
188	0xbea9ec01	-0.3318787
189	0xbd0636e6	-0.0327672
190	0xbdace518	-0.08442134
191	0xbd375704	-0.04476072
192	0xbd8d5d35	-0.069025435
193	0x3cd9227a	0.026505698
194	0x3d5b2cdb	0.053509574
195	0xbe082e8e	-0.13299009
196	0xbc01dbfd	-0.007925984
197	0xbd977aea	-0.07396491
198	0xbccb5758	-0.024821922
199	0x3cf9236c	0.030412398
200	0x3e418aea	0.18900648
201	0x3c573dcc	0.013137292
202	0xbe1dd44d	-0.15413018
203	0x3da26013	0.07928481
204	0x3e132616	0.14369997
205	0xbc8e2d6b	-0.017355641
206	0x3d53df4e	0.05172663
207	0xbddc5833	-0.1075901
208	0xba8f6552	-0.001094023
209	0x3e348b8e	0.17631361
210	0x3c47c60b	0.012193213
211	0xbd86b072	-0.06576623
212	0x3c2f14f3	0.010686147
213	0xbd135984	-0.03597404
214	0xbdef1bc6	-0.11675219
215	0xbc317380	-0.01083076
216	0x3ccabe4d	0.024748946
217	0x3b157248	0.0022803713
218	0xbcba4bdf	-0.022741256
219	0xbd082f6d	-0.033248354
220	0x3d7b3812	0.06133277
221	0xbd4897ef	-0.04897302
222	0x3e0ded94	0.1386016
223	0x3e22d2ca	0.15900722
224	0xbe2cd10b	-0.16876619
225	0x3deb46a9	0.11488087
226	0x3d2d41f0	0.04229921
227	0xbddd7f54	-0.108153015
228	0xbcadb61f	-0.021205006
229	0x3cb692cc	0.022286795
230	0x3c54a9a1	0.012979896
231	0x3b01773c	0.0019754907
232	0x3deb0356	0.11475246
233	0x3e96e934	0.29474795
234	0x3ddc21d0	0.10748637
235	0xbd8dffb2	-0.06933536
236	0x3c73d76e	0.014882905
237	0xbd361c79	-0.044460747
238	0x3d94a9ea	0.07258971
239	0x3c9401ef	0.018067328
240	0x3df5b6d0	0.11997759
241	0xbcc8d7b6	-0.024516921
242	0xbd09a792	-0.033607073
243	0xbe69eae6	-0.22843513
244	0x3deef4eb	0.11667808
245	0x3cbdc353	0.023164427
246	0xbdb74390	-0.089484334
247	0xbd011dd7	-0.031522598
248	0x3e21de3f	0.15807436
249	0xbd1d91a6	-0.03846898
250	0xbe37d8a2	-0.17953733
251	0x3bc95e06	0.0061452417
252	0xbe197214	-0.14984924
253	0x3da0014b	0.078127466
254	0x3e5d6780	0.21621513
255	0xbca1e47b	-0.019762268

network_body._body_endoder.seq_layers.0.bias f4 [128]
0	0xbb44e9c1	-0.0030046555
1	0xbd05b77f	-0.0326457
2	0xbce73074	-0.028221346
3	0x3b7dbbdd	0.0038716712
4	0xbd94bebc	-0.07262942
5	0xbcff3e88	-0.031157747
6	0xbd8d0f29	-0.06887657
7	0xbca060c6	-0.019577395
8	0xbd022756	-0.031775795
9	0x3d782f26	0.06059184
10	0x3cc7dc94	0.024397172
11	0x3cf87dbb	0.03033339
12	0x3ce0a220	0.027421057
13	0xbc3be913	-0.011469143
14	0xbd2df318	-0.04246816
15	0xbcd3c868	-0.025852397
16	0xbdbd47b1	-0.0924219
17	0xbccfcfed	-0.025367701
18	0xbd0d0bd7	-0.03443512
19	0xbd054fb5	-0.032546718
20	0x3bb012ed	0.00537335
21	0xbda150b4	-0.07876721
22	0xbd3110f1	-0.043229047
23	0xbd363f35	-0.044493873
24	0x3c57b216	0.013165018
25	0xbd17549c	-0.036945924
26	0x3c88df41	0.016708018
27	0xbcb82d72	-0.022482608
28	0x3cbc629c	0.02299624
29	0xbd4bf661	-0.049795512
30	0xbc865629	-0.016398506
31	0xbccc845f	-0.024965463
32	0x3d59834c	0.05310373
33	0xbc414e38	-0.011798434
34	0xbd02e232	-0.031953998
35	0x3bf4ca61	0.0074704145
36	0xbc7a725b	-0.0152860535
37	0xbd81c870	-0.063370585
38	0xbcc86fff	-0.024467466
39	0xbd03e6c5	-0.0322025
40	0xbd4bd428	-0.049762875
41	0xbd83fbcb	-0.0644451
42	0x3cb12e0e	0.021628406
43	0xbd2bb2b3	-0.041918468
44	0xbbd7a842	-0.006581337
45	0xbd18800d	-0.037231494
46	0xbd909960	-0.07060504
47	0x3a834347	0.0010014557
48	0xbcc52ca6	-0.024069142
49	0xbd152db6	-0.036420546
50	0x38b7518c	8.741309e-05
51	0xbcc682c3	-0.024232274
52	0xbd25bda5	-0.040464062
53	0xbdb979a1	-0.09056402
54	0xbcdbf30d	-0.026849294
55	0xbc1cbef8	-0.009567015
56	0xbd59b2ba	-0.053148963
57	0x3da101fe	0.07861708
58	0x3d09bf19	0.03362951
59	0x3da893e7	0.08231335
60	0x3cf9a51c	0.030474238
61	0xbd710706	-0.05884459
62	0xbd3d1d01	-0.04617024
63	0xbd3204fa	-0.043461777
64	0xbd064b61	-0.03278673
65	0xbd897575	-0.06711856
66	0x3aa2ea4c	0.0012429445
67	0x3c222c3f	0.009898244
68	0xbd138979	-0.036019776
69	0xbbe000c1	-0.0068360274
70	0xbd1b07c2	-0.037849195
71	0xbd6fb76e	-0.05852454
72	0xbdad26cd	-0.08454666
73	0xbceed2d8	-0.029153273
74	0xbde71456	-0.11283176
75	0xbd20f921	-0.039300088
76	0xbdb301b5	-0.0874056
77	0xbd1c7ec1	-0.03820682
78	0xbc192965	-0.009348248
79	0x3cd5cd77	0.02609895
80	0xba5e17a9	-0.00084721536
81	0x3c8226c7	0.015887631
82	0x3bd9e407	0.0066494974
83	0xbda0a67b	-0.07844254
84	0xbd67ef89	-0.056624923
85	0x3c555e12	0.013022916
86	0xbd029727	-0.03188243
87	0xbd0da298	-0.03457889
88	0xbd2e0cb9	-0.042492602
89	0xbcadc0d1	-0.021210106
90	0xbd7aaaa5	-0.061197896
91	0xbcd4f819	-0.025997208
92	0xbd69be9b	-0.05706654
93	0xbd67e971	-0.05661911
94	0xbda772ad	-0.081761695
95	0xbc8e346b	-0.01735898
96	0xbd6c97a3	-0.0577618
97	0xbcd64f22	-0.02616078
98	0xbc6528b4	-0.013986755
99	0xbc2e4629	-0.010636845
100	0xbd13c3fe	-0.036075585
101	0xbbfaaf95	-0.0076503255
102	0xbba5e858	-0.005063098
103	0xbbd55459	-0.006510299
104	0x3c51f8e4	0.012815688
105	0xbe09f792	-0.13473347
106	0x3c1172fb	0.008877511
107	0xbd0a3682	-0.03374339
108	0xbc945bdf	-0.018110214
109	0x3c6cb8a8	0.014448322
110	0xbd3e8a04	-0.04651834
111	0xbd633d9c	-0.055478677
112	0xbd904a80	-0.0704546
113	0x3cd67989	0.026181
114	0x3d55f3e7	0.052234557
115	0x3cc65c39	0.024213897
116	0xbd278b2d	-0.040904213
117	0xbccf6441	-0.02531636
118	0xbd1ce310	-0.03830248
119	0xbd9e584e	-0.077316865
120	0xbb5c2d21	-0.0033596235
121	0xbd5ce158	-0.053925842
122	0xbd1cb662	-0.03825987
123	0x3b9f3921	0.004859105
124	0xbcf57d2b	-0.029966911
125	0x3dc50970	0.09620941
126	0xbd140521	-0.036137704
127	0xbcc20af3	-0.023686862

network_body._body_endoder.seq_layers.2.weight f4 [128, 128]
0	0x3dd7227e	0.10504626
1	0x3df89096	0.121369526
2	0xbe0078b5	-0.12546046
3	0xbe0fadad	-0.14031096
4	0x3bbe303e	0.0058040908
5	0xbd054839	-0.03253958
6	0xbd426be4	-0.047466174
7	0xbb4124e3	-0.002947145
8	0xbe25b40e	-0.16181967
9	0x3d4b81cf	0.049684342
10	0xbdd33cb7	-0.10314315
11	0xbd7dbe69	-0.061949167
12	0xbdeb4a1b	-0.11488744
13	0xbca9dac8	-0.020734206
14	0x3dc89447	0.09793907
15	0x3dc69c29	0.09697754
16	0xbd78fdcb	-0.06078891
17	0x3c5a43eb	0.013321857
18	0x3cc94773	0.024570202
19	0xbd2b6291	-0.041842047
20	0x3dca81c8	0.09888035
21	0x3b2078a4	0.002448597
22	0xbcfa526e	-0.030556884
23	0xbdb625b1	-0.08893908
24	0xbe098701	-0.13430406
25	0xbc0d2bc7	-0.008616394
26	0x3b96dd7c	0.0046040397
27	0x3b3bdf8b	0.0028667178
28	0x3c0b5634	0.008504439
29	0xbc8e0aa9	-0.017339068
30	0x3d34b3a1	0.04411662
31	0xbd4ea510	-0.050450385
32	0x3ba1f716	0.004942785
33	0xbd85785a	-0.06517096
34	0xbd8b6428	-0.06806213
35	0x3d9c79ce	0.0764042
36	0x3e005148	0.12531006
37	0xbcd321bd	-0.025772924
38	0x3dda9aca	0.10674055
39	0x3b4443e4	0.0029947693
40	0xbd561ab9	-0.05227158
41	0x3dfe21b6	0.124087736
42	0xbdeb3db9	-0.11486382
43	0x3ac5890e	0.0015070753
44	0xbe2dedfd	-0.16985317
45	0xbda65d13	-0.08123221
46	0x3d87d9ed	0.06633363
47	0x3df9a7a7	0.1219018
48	0x3dfe4174	0.12414828
49	0xbd165088	-0.036697894
50	0xbe455867	-0.19272004
51	0x3c44857e	0.011994718
52	0xbd8ccd24	-0.06875065
53	0xbc6f12b6	-0.014591863
54	0x3b8e853b	0.0043493784
55	0x3dee9334	0.116491705
56	0x3a67dc7c	0.00088448054
57	0x3ca252aa	0.019814808
58	0xbd9e4041	-0.07727099
59	0xbdb2a0ca	-0.08722074
60	0x3ce5e676	0.028063994
61	0x3b5ddaa0	0.0033852234
62	0x3d1556ce	0.036459737
63	0x3e1fa466	0.15590057
64	0xbe018a38	-0.12650383
65	0x3ac69042	0.0015149193
66	0xbdb483c7	-0.08814197
67	0xbdc9dab9	-0.09856171
68	0xbdb7fb0b	-0.089834295
69	0x3da0591c	0.07829496
70	0xbc99fdb3	-0.018797731
71	0x3d6aa399	0.057284925
72	0xbb96d5b6	-0.004603113
73	0xbd91ac7d	-0.07112978
74	0x3d6af4ae	0.05736225
75	0xbdd12941	-0.10212947
76	0xbd8e79af	-0.06956803
77	0x3e2f36c9	0.17110743
78	0xbd87faf0	-0.066396594
79	0xbd8102d7	-0.0629937
80	0xbd7610b6	-0.06007453
81	0x3d88952e	0.06669079
82	0xbd7b87bb	-0.06140874
83	0xbbdcec44	-0.0067420322
84	0xbe0165c3	-0.12636475
85	0xbd5e6d99	-0.05430374
86	0xbdc83b51	-0.09776939
87	0xbd5bb2d0	-0.053637326
88	0x3dab7a59	0.08372945
89	0x3e0a5c51	0.13511778
90	0x3dc16b6b	0.094443165
91	0x3e28d08d	0.16485806
92	0xbd89d642	-0.067303196
93	0x3de8dd2e	0.11370312
94	0x3d3060d2	0.043061085
95	0xbb7cd86f	-0.0038581153
96	0xbcf99774	-0.030467726
97	0xbe036c3f	-0.12834261
98	0xbda42291	-0.080144055
99	0xbdf4f7e5	-0.11961345
100	0xbd771c17	-0.060329523
101	0xbd9e86d8	-0.07740563
102	0xbde595ec	-0.11210236
103	0x3d467afa	0.048457123
104	0x3c382a9b	0.011240627
105	0x3ddf15af	0.10892808
106	0x3b46cd86	0.0030334904
107	0x3d4a8239	0.049440596
108	0xbdee7873	-0.116440676
109	0xbe34fe7c	-0.17675203
110	0xbdaebe96	-0.08532445
111	0xbe32ce39	-0.1746148
112	0x3dad15c4	0.08451417
113	0xbda4aa94	-0.08040348
114	0xbbebbe1c	-0.0071942937
115	0xbda73c68	-0.081658185
116	0xbd8db58f	-0.06919395
117	0xbd16d40f	-0.03682333
118	0x3d67c368	0.05658284
119	0xbe768828	-0.24075377
120	0x3c3ca68e	0.011514319
121	0x3e000d43	0.12505059
122	0xbd5b0126	-0.053467892
123	0x3c2b1de5	0.010444139
124	0xbd3af654	-0.045645073
125	0x3d1457ce	0.03621655
126	0xbbf5fe6b	-0.0075071356
127	0x3db9a0c6	0.09063868
128	0xbdd90fa4	-0.10598686
129	0x3d9c4701	0.076307304
130	0xbd97b03b	-0.0740666
131	0x3e0bf8cd	0.13669129
132	0xbccda034	-0.025100805
133	0x3d3d76ae	0.04625576
134	0xbe3d2d30	-0.18474269
135	0xbb39f70c	-0.0028376011
136	0x3d206084	0.039154544
137	0x3d490867	0.04908028
138	0xbd5f80a7	-0.05456605
139	0xbd937658	-0.07200307
140	0xbd24eccd	-0.040264893
141	0x3d903c66	0.0704277
142	0xbc7f7c40	-0.015593588
143	0xbdab8023	-0.083740495
144	0xbd2c5d92	-0.042081423
145	0xbcdb7fba	-0.026794303
146	0xbdf8ad3d	-0.121424176
147	0x3d8051c0	0.062655926
148	0x3d0e6166	0.034760855
149	0x3a7f013b	0.00097276614
150	0x3df4342a	0.11924012
151	0xbdc35689	-0.0953799
152	0xbe07fbca	-0.13279644
153	0x3e036550	0.12831616
154	0x3dadf2e9	0.08493597
155	0xbd35ce5f	-0.044386264
156	0xbe6cd7d2	-0.23129204
157	0x3d53aba5	0.051677365
158	0x3c66549a	0.0140582565
159	0xbb5efa9e	-0.0034023891
160	0x3d870f75	0.06594745
161	0x3daaccc3	0.083398364
162	0xbd42b1a4	-0.047532693
163	0xbd06e9ef	-0.03293794
164	0x3c893ad6	0.016751688
165	0x3d983b3b	0.07433172
166	0x3d6f4334	0.0584137
167	0x3e1300ed	0.14355822
168	0x3dae6681	0.08515645
169	0xbd397149	-0.045274053
170	0xbc8fad45	-0.017538676
171	0xbd1da5b5	-0.03848811
172	0xb9cfdf7a	-0.0003964862
173	0xbceba3d1	-0.028764637
174	0xbe864758	-0.26226306
175	0xbc728515	-0.014802237
176	0xbcfbaa15	-0.03072075
177	0xbd536912	-0.051613875
178	0x3d952d36	0.07284014
179	0x3d9cd3bc	0.076575726
180	0xbc2a30dd	-0.0103876265
181	0x3dc851eb	0.097812496
182	0xbd236bd5	-0.03989776
183	0x3dad5179	0.08462805
184	0xbcdf2836	-0.027240854
185	0xbe3114d6	-0.17293105
186	0xbe0e577d	-0.13900562
187	0xbd648238	-0.05578825
188	0xbbdc71df	-0.0067274417
189	0xbb013921	-0.001971789
190	0x3da7eca4	0.081994325
191	0x3bc05cfc	0.0058704596
192	0x3d1717da	0.03688798
193	0xbda28c26	-0.079368874
194	0x3dfc7257	0.12326496
195	0x3e0ea3eb	0.13929717
196	0x3de20bce	0.11037408
197	0xbd2feda0	-0.042951226
198	0x3dcde601	0.100536354
199	0x3d95dcc1	0.07317496
200	0x3d4a8bcd	0.04944973
201	0xba09b40e	-0.00052529655
202	0x3cda1001	0.02661896
203	0x3e3e8b12	0.18607739
204	0x3c0903a0	0.008362681
205	0x3d148333	0.036257934
206	0xbc49a1fd	-0.012306687
207	0xbcf13c0f	-0.029447583
208	0xbd6d006d	-0.057861734
209	0xbc711692	-0.014714854
210	0x3e5878b3	0.21139793
211	0xbd219356	-0.03944715
212	0xbd8ff3e9	-0.07028944
213	0x3e1628c2	0.14663985
214	0x3e1bd003	0.15216069
215	0x3ce1d79d	0.027568633
216	0x3e4146f3	0.18874721
217	0x3e026070	0.127321
218	0x3df5d514	0.12003532
219	0x3ce4f053	0.027946627
220	0x3cca2a3b	0.02467834
221	0xbe57dd9a	-0.21080628
222	0x3dbf8516	0.09351556
223	0x3d4ad1e6	0.04951658
224	0x3d4849d6	0.04889854
225	0xbceebd32	-0.02914295
226	0xbce5f11a	-0.028069068
227	0xbccce9aa	-0.025013763
228	0x3e0e901a	0.13922158
229	0xbc74cad4	-0.014940936
230	0x3d692dc9	0.05692843
231	0x3d784a47	0.06061771
232	0x3dca7367	0.098852925
233	0xbba91da0	-0.0051610023
234	0x3d0475c4	0.032338873
235	0xbde770e4	-0.11300829
236	0x3d83befd	0.064329125
237	0x3bac8191	0.005264469
238	0x3df67e5b	0.12035819
239	0x3de0d7ff	0.10978698
240	0xbd341ba6	-0.04397168
241	0x3e1815e9	0.14852108
242	0x3dc866d6	0.097852394
243	0x3d07ccc8	0.03315428
244	0xbe0be240	-0.13660526
245	0xbd8b1193	-0.067904614
246	0xbe169d82	-0.14708522
247	0x3d2b971c	0.041892156
248	0xbd9a0062	-0.07519604
249	0xbdb795cf	-0.089641206
250	0x3d1e08da	0.03858266
251	0xbe42bf43	-0.19018273
252	0xbe0d8080	-0.1381855
253	0xbcb609ab	-0.022221407
254	0x3e63d68d	0.22249813
255	0x3de15b59	0.11003751

network_body._body_endoder.seq_layers.2.bias f4 [128]
0	0x3d47c1f3	0.04876895
1	0xbb4f99db	-0.0031677398
2	0xbd2ed11d	-0.042679895
3	0xbc83c139	-0.016083347
4	0x3d8f2b44	0.06990674
5	0xbdac17bc	-0.084029645
6	0xbb3c814f	-0.0028763597
7	0x390a4f8f	0.00013190343
8	0xbd29258e	-0.04129558
9	0xbd31d6a4	-0.043417588
10	0xbdbb3079	-0.09140105
11	0x3ca88b21	0.020574154
12	0xba6ab923	-0.0008953979
13	0xbcffdf4d	-0.031234408
14	0xbd4ba91c	-0.049721822
15	0xbc43cdf6	-0.01195096
16	0xbc666bfd	-0.014063832
17	0x3a55ccf0	0.0008155843
18	0xbd7a1314	-0.06105335
19	0xbd665157	-0.056229915
20	0x3cacfe6e	0.021117415
21	0xbd30d4df	-0.04317176
22	0xbda42f40	-0.08016825
23	0xbd056e6e	-0.032576017
24	0xbd812284	-0.063054115
25	0xbd685ccc	-0.056729123
26	0xbd997795	-0.074935116
27	0xbd61b2f9	-0.055102322
28	0x3da5b54e	0.08091222
29	0xbd93df86	-0.07220368
30	0xbb814bfd	-0.003945826
31	0xbdb9a084	-0.09063819
32	0x3b3d4f88	0.0028886516
33	0xbcc57581	-0.024103882
34	0x3d08c9c9	0.033395562
35	0xbcc665d2	-0.024218474
36	0x3c86b268	0.016442493
37	0xbd9dfad9	-0.07713861
38	0xbd910066	-0.07080154
39	0xbd522953	-0.05130894
40	0x3c9823d5	0.018571774
41	0xbb497601	-0.0030740502
42	0xbc3a8613	-0.011384505
43	0xbc61846c	-0.013764482
44	0x3da5551c	0.08072874
45	0xbcf05c39	-0.02934085
46	0xbdc4a8e3	-0.09602525
47	0x3d7249bd	0.059152354
48	0xbd99ecc5	-0.07515863
49	0xbce83196	-0.028343957
50	0xbcd8e500	-0.026476383
51	0x3d9c7e4b	0.07641276
52	0x3a5db24e	0.00084570504
53	0x3d83a14d	0.0642725
54	0x3dafecd6	0.08590095
55	0xbc290e29	-0.010318317
56	0xbcb22252	-0.02174488
57	0xbc25e667	-0.010125733
58	0xbcb6379e	-0.022243317
59	0xbd458e38	-0.048231333
60	0xbc946b49	-0.018117564
61	0xbd3f08b9	-0.046639178
62	0xbcc9a1f1	-0.024613352
63	0x3c2ab6b9	0.010419541
64	0x3c17fdbb	0.009276803
65	0x3d863447	0.0655294
66	0xbd8c8a32	-0.06862296
67	0xbd035249	-0.032060895
68	0x3d86800a	0.0656739
69	0xbdde2b10	-0.10848057
70	0x3b317765	0.0027079221
71	0xbd1d2991	-0.03836972
72	0x3ca4445d	0.02005213
73	0xbcd181dd	-0.025574619
74	0x3d468d2f	0.048474487
75	0x3d2ba819	0.041908357
76	0x3d7c70d3	0.061631035
77	0x3d3c12aa	0.045916237
78	0xbc376e1b	-0.011195685
79	0xbda97acf	-0.08275377
80	0x3c016aec	0.007899027
81	0xbd2265b2	-0.039647765
82	0xbd013579	-0.031545136
83	0x3d08f066	0.033432387
84	0x3ce14682	0.027499441
85	0xbc40aaca	-0.011759469
86	0xbd97d4d2	-0.07413639
87	0xbbb64cc5	-0.005563351
88	0x3c5aa271	0.013344393
89	0xbdca4f6f	-0.09878432
90	0x3d8bd75c	0.06828186
91	0xbc78fbb3	-0.0151967285
92	0x3d01c290	0.03167969
93	0x3d146ef5	0.03623863
94	0xbd90c226	-0.07068281
95	0x3d2ffd4b	0.04296617
96	0x3cf198eb	0.029491862
97	0x3cf07425	0.029352257
98	0xbd6357a5	-0.055503506
99	0xbd3b4224	-0.045717373
100	0xbd7b050b	-0.061284106
101	0xbd638b72	-0.055552907
102	0x3d1e42eb	0.038638037
103	0xbcfa8f12	-0.0305858
104	0xbc214949	-0.009844133
105	0x3c79aaa9	0.015238442
106	0xba90e06f	-0.0011053215
107	0x3d41a1b3	0.04727335
108	0xbcf3e5e1	-0.0297727
109	0xbcba2f60	-0.022727668
110	0xbbabea80	-0.0052464604
111	0x3c508f2e	0.012729449
112	0xbc2a6347	-0.010399646
113	0x3ad1cd26	0.0016006574
114	0xbdcbbce8	-0.099481404
115	0xbd68045f	-0.056644794
116	0x3d46dacc	0.048548505
117	0x3cc8514f	0.024452833
118	0xbd1bcd8e	-0.03803783
119	0xbcaaa6c4	-0.020831473
120	0xbcba66a3	-0.02275402
121	0xbd9fe26d	-0.07806859
122	0x3ad641bf	0.0016346498
123	0xbd879f91	-0.06622232
124	0xbd2d86e2	-0.042364962
125	0xbb779321	-0.0037776905
126	0x3c5943e6	0.013260817
127	0x3c75f061	0.015010924

action_model._continuous_distribution.log_sigma f4 [1, 9]
0	0x3ed153e7	0.40884325
1	0x3efb923f	0.49135014
2	0x3edd2d83	0.43198785
3	0x3ef8af85	0.4857141
4	0x3edaa5c5	0.42704597
5	0x3f115bf5	0.5678094
6	0x3ee4ffe4	0.4472648
7	0x3eeb4572	0.4595142
8	0x3f01de25	0.5072959

action_model._continuous_distribution.mu.weight f4 [9, 128]
0	0x3d0338cd	0.03203659
1	0x3c8260e1	0.015915336
2	0xbd771228	-0.06032005
3	0x3b966b8e	0.0045904582
4	0x39c0a9ee	0.000367477
5	0xbcecd8ab	-0.02891191
6	0xbbf6df3d	-0.0075339363
7	0xba9ee440	-0.0012122467
8	0x3aa5b66d	0.0012642868
9	0xbc254ac2	-0.010088624
10	0xbcf3a007	-0.029739393
11	0xbb82cb8a	-0.003991549
12	0xbb9489f9	-0.004533049
13	0xbc0f1e24	-0.008735213
14	0xbcbb56d6	-0.022868555
15	0x3c350339	0.011048132
16	0xbc086724	-0.008325372
17	0x3af055fb	0.0018336171
18	0xbb930489	-0.0044866246
19	0x3c3a67e8	0.011377312
20	0xbcf85d76	-0.030318003
21	0xbbfd51e4	-0.0077307094
22	0xbb866c85	-0.004102292
23	0xbbe1a8ca	-0.0068865763
24	0xbd111b8b	-0.035426658
25	0xbc43d5f4	-0.011952866
26	0xbc30bc0b	-0.01078702
27	0xbd36c663	-0.04462279
28	0xbc2709c5	-0.0101952
29	0xbcebb27b	-0.02877163
30	0xbd7945f7	-0.06085774
31	0xbd66900b	-0.056289714
32	0x3b7e2a8c	0.0038782684
33	0xbc09cee0	-0.008411139
34	0xbbbf907a	-0.0058460804
35	0xbd2fa16b	-0.04287855
36	0xbb924d65	-0.0044647926
37	0xbd15b4ad	-0.03654926
38	0xbd30d2d1	-0.0431698
39	0xbbb84bf6	-0.0056242896
40	0x3aeba03f	0.0017976834
41	0xbc43a2ef	-0.011940702
42	0xbc88fc71	-0.016721936
43	0xbbb9b39a	-0.005667162
44	0x3bc0dd81	0.0058857803
45	0xbcc318af	-0.023815481
46	0xbaabbdd0	-0.0013102833
47	0x3bafdb83	0.005366744
48	0xbc1ec370	-0.009690151
49	0x3cc060b5	0.023483614
50	0xbc14cae9	-0.009081581
51	0xbc94d1e1	-0.018166484
52	0x3c0d83cd	0.008637381
53	0x3badd37d	0.0053047524
54	0x3c5043b2	0.012711452
55	0x3ab26e90	0.0013613272
56	0xbca4f645	-0.020136962
57	0x3ca77055	0.020439306
58	0xba168ba4	-0.0005742854
59	0xbcaced33	-0.0211092
60	0xbd5cd621	-0.053915147
61	0xbca2eb61	-0.019887628
62	0x3c899781	0.016795876
63	0x3b68b131	0.0035506005
64	0x3c1f88d3	0.009737211
65	0x39891844	0.00026148756
66	0x3b985c24	0.004649656
67	0xbd077dff	-0.033079144
68	0xbc144a44	-0.009050909
69	0xbc9bd272	-0.019021247
70	0xbcae2b0c	-0.02126076
71	0xbc5a7425	-0.013333355
72	0xbcdc914b	-0.02692475
73	0xbca4f863	-0.020137971
74	0x3c47173b	0.012151535
75	0x3cdd4ba1	0.027013602
76	0x3c4b0e88	0.012393601
77	0xbcf97995	-0.030453483
78	0x3c8e5d25	0.0173784
79	0x3bbcd416	0.0057625873
80	0xbc017d4a	-0.007903406
81	0x3b17a80c	0.0023140935
82	0xbb4e795e	-0.0031505446
83	0xbcced6a2	-0.02524883
84	0xbb4eff2d	-0.0031585202
85	0x3bb0351e	0.005377426
86	0xbc20506f	-0.009784802
87	0x3bbeeda2	0.005826668
88	0x3cafd1d8	0.021462366
89	0x3bc5ef91	0.0060405214
90	0xb9f0eeaa	-0.00045954186
91	0x3b9465be	0.00452873
92	0x3bcc27e0	0.0062303394
93	0xbd0da2d1	-0.034579102
94	0xbd0a1300	-0.033709526
95	0x3c465135	0.012104322
96	0xbb8c0a41	-0.0042736833
97	0x3c18019e	0.009277729
98	0xbc697b1b	-0.014250542
99	0xbd53104d	-0.051529218
100	0xbc06f0bd	-0.008236107
101	0xbcef48e7	-0.029209567
102	0x3c8cd12b	0.017189583
103	0xbd022053	-0.031769108
104	0xbc4c1ddc	-0.012458291
105	0x3b90e907	0.0044223103
106	0xbc9082c6	-0.017640483
107	0x3cc85246	0.024453294
108	0x3bbb726f	0.0057204287
109	0xbc7b066d	-0.015321356
110	0x3c61572f	0.013753696
111	0x3c019ec9	0.0079113925
112	0x3cdc530e	0.026895072
113	0xbc471f59	-0.01215347
114	0xbc3a5697	-0.011373184
115	0xbd24ab76	-0.04020258
116	0xbc01b3b0	-0.007916376
117	0x3ce7e039	0.02830516
118	0x3b9a8d0f	0.0047165225
119	0x3b9725f7	0.00461268
120	0x3cf85fcf	0.030319123
121	0xbcd30b75	-0.0257623
122	0xbb0c3cf7	-0.0021398643
123	0x3b4eeb91	0.0031573514
124	0xbd10cfbf	-0.035354372
125	0x3c723c40	0.0147848725
126	0x3d035c9f	0.032070752
127	0x3c87e13f	0.016586898
128	0xbbf93bbe	-0.007605999
129	0x3d0398c8	0.032128125
130	0x3d08bf51	0.03338558
131	0x3d856c41	0.065147884
132	0x3d625781	0.05525923
133	0x3ce209d3	0.027592575
134	0x3cfb1b83	0.030652767
135	0x3b280c94	0.0025642263
136	0x3c848885	0.016178379
137	0x3c494419	0.012284302
138	0x3c4a0fbe	0.012332855
139	0x3a916354	0.0011092224
140	0xbb81b9c2	-0.0039589116
141	0xbc24c6f1	-0.010057197
142	0x3d52705e	0.051376693
143	0x3960f2b2	0.00021452716
144	0x3cc89d1d	0.02448898
145	0x3be4f3ff	0.0069870944
146	0x3d096213	0.033540796
147	0xbc92ae49	-0.017905371
148	0x3d2946ed	0.041327406
149	0x3c7bb1c3	0.015362206
150	0xbc3aa8a5	-0.011392747
151	0xbc527234	-0.012844611
152	0x3bd2d9b9	0.006434646
153	0x3d36ac02	0.044597633
154	0x3d040d60	0.032239318
155	0x3bf86889	0.007580821
156	0x3b9822f7	0.00464284
157	0x3d8cc0e2	0.06872727
158	0x3d4eae96	0.050459467
159	0x3c78eab0	0.015192673
160	0xba64d1e7	-0.00087287877
161	0x3cad4062	0.021148864
162	0xbcf956c3	-0.030436879
163	0x3d026b96	0.031840883
164	0x3c4e0477	0.012574307
165	0x3cd1ad60	0.025595367
166	0x3d6c0110	0.0576182
167	0x3ce6a37f	0.028154133
168	0x3d2d7f09	0.04235748
169	0x3af8b15f	0.0018973759
170	0x3d31473d	0.04328083
171	0x3d418522	0.047246106
172	0x3d0bf926	0.034173153
173	0x3d543afe	0.05181407
174	0x3c2d2628	0.010568179
175	0x3d004be0	0.03132236
176	0x3d3196e7	0.043356802
177	0x3c3b0312	0.011414306
178	0x3d39e2fb	0.04538248
179	0xbc8f5e97	-0.017501159
180	0x3bfc3e10	0.007697828
181	0x3ce34585	0.02774311
182	0xbbea307b	-0.0071468926
183	0xbbae3568	-0.005316425
184	0x3c53850b	0.012910138
185	0xbc303431	-0.010754631
186	0x3bd075cc	0.0063616987
187	0x3c1098f0	0.008825526
188	0x3d20caf9	0.03925607
189	0xbb60a5a7	-0.0034278424
190	0x3d099beb	0.03359596
191	0xbc019373	-0.00790869
192	0x3d1212b0	0.035662353
193	0x3cbc5ec7	0.022994412
194	0x3c1a39c4	0.009413186
195	0xbbfca33f	-0.00770989
196	0x3c2b8e0d	0.010470879
197	0x3ced1630	0.028941244
198	0x3cf5fe30	0.030028433
199	0xbcbc8046	-0.023010384
200	0x3c5fe8c8	0.013666339
201	0x3bada927	0.0052997055
202	0xbd213623	-0.03935827
203	0xbd232503	-0.03983022
204	0x3b7c6473	0.003851202
205	0x3d51cfb5	0.051223475
206	0x3c90d45d	0.017679388
207	0x3b6c2138	0.0036030542
208	0x3be4fe57	0.0069883275
209	0x3b21786e	0.0024638432
210	0xbbe608ff	-0.0070201154
211	0xbc5e5130	-0.013569161
212	0xbc296831	-0.010339783
213	0x3d10627e	0.03525018
214	0x3c45dd3c	0.012076672
215	0x3c41603f	0.011802732
216	0x3c50bbab	0.012740056
217	0x3d498317	0.049197283
218	0x3d51189f	0.05104887
219	0x3c6dc53d	0.014512357
220	0x3ccf0b16	0.02527384
221	0x3d488140	0.048951387
222	0x3bf678b1	0.0075217118
223	0xbc1182c7	-0.008881277
224	0xbace29c4	-0.0015729
225	0x3c9783d2	0.018495474
226	0x3c7e2904	0.015512709
227	0x3c0b85b7	0.008515767
228	0x3c019b88	0.007910617
229	0x3d175dbc	0.036954626
230	0x3d192384	0.037387386
231	0x3d296721	0.041358117
232	0x3cee99b2	0.029126022
233	0x3d20040d	0.039066363
234	0xbc0b94f0	-0.008519396
235	0xbc5ba4f9	-0.013406032
236	0x3d1dfd03	0.03857137
237	0x3c637ba3	0.013884458
238	0xbc962fdb	-0.018333366
239	0xbcb4e464	-0.022081561
240	0x3d0e9778	0.03481242
241	0xbcfd4b08	-0.030919567
242	0x3cd301b2	0.025757644
243	0x3cb683dc	0.022279672
244	0x3a1938ba	0.000584494
245	0xbc35512c	-0.011066716
246	0x3cf081fc	0.029358856
247	0x3c26acf4	0.010173071
248	0xbbe3acde	-0.0069480976
249	0x3c406337	0.011742405
250	0x3ce87c88	0.028379694
251	0xbc325bb1	-0.010886119
252	0x3d187408	0.03722003
253	0x3ceebb39	0.02914201
254	0xbc8620c0	-0.016373038
255	0x3d26551b	0.040608507

action_model._continuous_distribution.mu.bias f4 [9]
0	0x3d6fd753	0.05855496
1	0x3bffe359	0.0078090844
2	0x3c8383c4	0.016054042
3	0x3dbf13bf	0.09329938
4	0xbcfe0396	-0.03100757
5	0xbcc6cdbc	-0.024268024
6	0x3ce90cc0	0.028448462
7	0x3c86c2bb	0.016450277
8	0x3ddadd5e	0.10686754
