results/RLEnv2/Worm/Worm-1999950.onnx (onnx, 125882 bytes, 7 tensors)

network_body._body_endoder.seq_layers.0.weight f4 [128, 98]
00000000: 6d69 313d 7f30 06be 6c54 433e 5be1 db3d
00000010: c532 af3d d1ce 173d ae4e 903d 73c0 c4bd
00000020: bd1f b8bd 2f9e f2bc 545f 643d d3d2 e33d
00000030: 8a35 653d da63 ce3d 4b19 503d 0506 cc3c
00000040: 8f9e f7bc 0446 073e 739d a53d 0747 a83d
00000050: d7fc 093d c79a 88bd c60e 1fbd d2d1 14bc
00000060: 5cb4 963c 313b 603e 4b75 31be d932 f6bc
00000070: 5c31 16bd ff72 5b3d 074b 3b3e eb0d 303d
00000080: fbcd ba3d 0fb8 8dbd 4789 b1bb 335e 86bd
00000090: e10c d4bb 4026 f73d 16b1 44bd 07b8 cdbd
000000a0: 7489 473d 180a c53c 20ee 50bd f2ec 073d
000000b0: c8d7 6c3d f4d0 333e 324a 13bd 3c08 bcbd
000000c0: 035d aabd 26dd e3bd a1ee b63d 96e9 b63d
000000d0: dbc9 19be f9ce 51bd 59b4 bc3d 7cea f83d
000000e0: 3242 9cbd 3475 953d f892 36bd 0ba7 133d
000000f0: 1779 5c3d 91e7 c13d 8638 b13c 9773 923d
00000100: e268 76bc e6da 6dbd 1d64 b13d 37d2 6fbe
00000110: 6fa2 0d3e b1ae 3c3e 9551 d63d ab81 dbbd
00000120: 3c31 d6bd 3148 86bd 9b5e 6cbe f094 113d
00000130: b780 483c 69fd 603d 1257 30bd e488 95bb
00000140: 51d8 2b3e 96bb 30be 8950 673b 22af 19bd
00000150: b9b3 6cbd 145f d53d 20e9 9dbc f26b 0cbe
00000160: 4648 dabd 74dd 7ebd 67ee b4bd 7b08 a43d
00000170: 4688 d53c 5a41 183d 6b88 e6bd 82d9 1ebe
00000180: ca91 22bc ba0e 393d 8705 043d 9525 b7bd
00000190: ecea d7bd eed5 90be 0418 2c3d 4419 5bbb
000001a0: 6486 00be 6f22 83bd 9ad5 8cbd c328 e8bd
000001b0: af94 4ebe 57c9 903d 097d 973d 63fd 943d
000001c0: e9ec 9fbc 5237 a03b c63a c5bc fc62 fbbd
000001d0: 5cea f93c e4cb 84be f75c 51bd 1568 643d
000001e0: 8711 a9ba 5d7f ff3c 08c1 ae3c beae 26be
000001f0: 571d 2ebe 9fa0 e6bd c086 7dbe 57f4 39bd
00000200: c0ea 393e 7be3 0e3e 8689 1bbe e3d3 663d
00000210: 8b4e 45bd 81f3 32be f483 08be c843 303d
00000220: b130 3abe 711e 03be 6fe0 ddbc ea7a d3bc
00000230: 6fed d7bc 527f fc3d 728a cbbd 3cea 5d3d
00000240: 7e74 833e 7c72 e43d 78d4 9e3d 1875 e63b
00000250: 459a 003e 3b55 df3d 50c4 223c 7b8f 13bc
00000260: fc85 5fbd 1392 493e 9784 823d cfd2 483d
00000270: ff39 383c 559a ec3c 57aa 853c a525 4cbd
00000280: 1656 d3bd 0a8f 64be dac2 0dbd 57a1 34be
00000290: a8ca 75bd 867d 10bd 08cf 11bd 83d4 063e
000002a0: 6f9a a5bc 11b7 0dbe 08f0 52be 8435 073e
000002b0: 4d1d 6a3e c21e 063e b21c 49bd 88c1 e9bc
000002c0: 8d36 73bc 4bc0 e6bd caa9 e23c 318b c7bd
000002d0: 5d0d 3a3d 5edb 6bbc 753d a83d 7142 91bd
000002e0: e82e 133d 5c93 20be 4011 20be 2362 7dbd
000002f0: 725b a8be f891 0bbd b1c8 b2bd c20e 2abd
00000300: 2b9d bebc c8fd 493d 5f3a 8f3d 8928 09be
00000310: fddb 01bc 920f 9fbd 47d0 fdbc 6c23 f93c
00000320: d7a4 3b3e 7f54 273c 4dd4 1dbe 9352 8c3d
00000330: 9c9e 083e 6b2d 8ebc 2304 423d 07ec dfbd
00000340: 5265 8fba bd7a 263e 3793 7cb7 72b0 86bd
00000350: 597c 2f3c 33a0 0dbd c61b efbd cca0 c9bc
00000360: 3831 503c 4872 153b 3d1a c1bc 6214 f6bc
00000370: 1238 7b3d e75f 7cbd 0a8e 023e cad2 223e
00000380: 5c10 2bbe f41a f43d f041 2d3d 3392 fabd
00000390: 0890 02bd cc92 b63c 4231 763c ae29 c53b
000003a0: 5603 eb3d a432 903e 4ee8 c43d 1c38 8fbd
000003b0: 2d7f 143c 65cb 40bd eaa9 943d ef01 943c
000003c0: d0b6 f53d 16b7 bbbc 53c6 d1bc 1a87 6abe
000003d0: ee09 e33d 3b65 a83c 704a bbbd fe11 aebc
000003e0: e20c 223e e82b 27bd c111 42be f822 ac3b
000003f0: f08c 1fbe 33f3 9a3d f3a7 593e 2bfd 49bc
0.043313432 -0.13104437 0.19075173 0.107363425 0.085546054 0.03706247 0.07046257 -0.09607019
-0.089904286 -0.029616443 0.055754974 0.11124196 0.055959262 0.10077639 0.05080537 0.024905214
-0.030226974 0.13210303 0.08086672 0.082166724 0.033688392 -0.066701464 -0.03883245 -0.009083228
0.018396549 0.2189758 -0.173299 -0.030053543 -0.036668167 0.053576466 0.1829034 0.042982023
0.09121319 -0.06919872 -0.005417976 -0.06560936 -0.006471262 0.120678425 -0.048020445 -0.10044866
0.04871507 0.024052665 -0.051008344 0.033184953 0.057822973 0.17560178 -0.03595943 -0.09181258
-0.08318522 -0.11126165 0.089322336 0.08931272 -0.15018408 -0.051222775 0.09214086 0.12154099
-0.07629813 0.07297745 -0.044573754 0.036047976 0.053826418 0.09467996 0.021633398 0.07150953
-0.015039654 -0.058070086 0.08661673 -0.23420034 0.13831495 0.18426014 0.10464779 -0.107180916
-0.104586095 -0.06556738 -0.23082964 0.03554243 0.012237719 0.05492917 -0.043051787 -0.004563438
0.16781737 -0.17259058 0.0035295805 -0.037520535 -0.057788584 0.10418525 -0.019276202 -0.13713053
-0.10658316 -0.062222913 -0.08834534 0.0800943 0.026065957 0.0371717 -0.112564884 -0.1551266
-0.009922454 0.04518006 0.032231834 -0.08942715 -0.10542855 -0.28288215 0.04201509 -0.0033431808
-0.12551266 -0.06403052 -0.06876679 -0.113359 -0.20173906 0.070696525 0.073968954 0.07274892
-0.019522147 0.004889407 -0.024075877 -0.12274739 0.03050726 -0.25936806 -0.05111405 0.055763323
-0.00128989 0.031188661 0.021332279 -0.16277596 -0.1700338 -0.11261105 -0.24758434 -0.045399036
0.18155956 0.13953964 -0.1518918 0.056354415 -0.048170608 -0.17475702 -0.13331586 0.04303339
-0.18182637 -0.12804581 -0.027084557 -0.025815446 -0.026358334 0.12328972 -0.09938516 0.05417846
0.25674814 0.11154649 0.07755369 0.0070330016 0.12558849 0.10904928 0.0099345 -0.009006376
-0.054571137 0.19684629 0.06372946 0.049029168 0.011244296 0.028882185 0.016316576 -0.049840588
-0.10319154 -0.2232019 -0.034609653 -0.17639671 -0.06000772 -0.03527596 -0.03559783 0.13167004
-0.020215241 -0.13839366 -0.20599377 0.13204008 0.2286274 0.1309767 -0.04909963 -0.028534666
-0.014844549 -0.11267146 0.027668852 -0.097433455 0.0454229 -0.014395563 0.08214847 -0.07092751
0.035933405 -0.15681213 -0.1563158 -0.06186117 -0.32882267 -0.034074754 -0.08729685 -0.04151798
-0.023268303 0.04931429 0.06993555 -0.13394369 -0.007925984 -0.07766642 -0.030983103 0.030412398
0.183246 0.0102130165 -0.15413018 0.06851687 0.13341755 -0.017355641 0.047367226 -0.109336905
-0.001094023 0.16257758 -1.5054647e-05 -0.06576623 0.010710799 -0.034576606 -0.11675219 -0.024612807
0.012707047 0.0022803713 -0.023572082 -0.030039016 0.06133277 -0.061614897 0.12749496 0.15900722
-0.1670546 0.119192034 0.04229921 -0.122349165 -0.03187564 0.022286795 0.015026392 0.0060169315
0.11475246 0.28163636 0.09614621 -0.06993124 0.009063524 -0.047068972 0.07258971 0.018067328
0.11997759 -0.02291445 -0.025607264 -0.229031 0.11085878 0.020556083 -0.09145057 -0.021248814
0.15825227 -0.040813357 -0.18952085 0.005253192 -0.15581107 0.07565918 0.21255474 -0.012328426

network_body._body_endoder.seq_layers.0.bias f4 [128]
00000000: 3822 f83c fd4f 1bbd d50f dabc 5d29 88bc
00000010: 560e 90bd 75ca 02bd 77d3 a6bd 822b 02bc
00000020: 44e1 c0bc 4068 243d e07f 143d 0261 8c3c
00000030: 4172 c63c cdcd 25bc 3d93 44bd e75b e5bc
00000040: c6ca b8bd b680 92bc ce77 0cbd ad56 11bd
00000050: 010e b4bc 8411 45bd f6a8 64bd bc2d 1dbd
00000060: 791e e13b 6762 c3bc f71e 0a3c 3db1 94bc
00000070: dbae a43c 7759 30bd b637 9fbc b78f f0bc
00000080: 49b6 eb3c 4879 4c39 dfdc 37bd 89af b43b
00000090: d97c a4bc 7c17 81bd 6088 aebc f638 2abd
000000a0: a752 2dbd e7c7 5cbd 8daa 343c 383b 28bd
000000b0: 68bb 8cbc dcfe 28bd 079e 72bd da64 403c
000000c0: aec9 02bb e878 c5bc 8ab3 78bc 6fca 0fbd
000000d0: aa74 12bd b5e2 b3bd 7350 1bbd 2406 62bc
000000e0: 102c 6abd a4bf a43d b27d ba3c a3bf 753d
000000f0: de72 a83c 3e95 85bd c2b4 42bd 5981 35bd
00000100: 507c 02bd 211d 53bd c57e 5fbb 9598 e8bb
00000110: eace 1fbd ae6e bdbb 1641 1abd 4898 80bd
00000120: 76d0 cbbd 4b11 29bd 5a0c e1bd a007 1ebd
00000130: 4920 bdbd 1593 10bd cb38 b0bc 8f00 123d
00000140: 65e7 2dbb e8f7 293c e46a 27bc ae96 98bd
00000150: 578f 37bd 16c5 923c 77ef 03bd c17f 13bd
00000160: 544e 49bd ece7 c3bc ae9b 95bd ad84 07bd
00000170: db8c 4bbd 75b4 3abd fef6 a2bd c813 9bbc
00000180: f70a 88bd 8ac3 cebc 6b58 cdbc 8ea9 a9bc
00000190: 1f30 2cbd 191b 833c 7d49 033a 0ae9 a7bc
000001a0: e533 593b e1f2 f3bd f39f 4abb 68cd d0bc
000001b0: 645d 16bd 7c15 54bb 786c 55bd b787 68bd
000001c0: cbfd 72bd 6c04 113c c0cf 683c e4b4 533c
000001d0: df71 26bd 4f8f a8bc 159c e0bc 0f3d 71bd
000001e0: 343f 34bc 1f47 56bd 98f3 40bd a4a1 93bc
000001f0: f7f5 9ebc 9581 743d 8bcc 42bd bde8 01bd
0.030289754 -0.03791808 -0.026618877 -0.016621286 -0.07033984 -0.03193136 -0.081458025 -0.007944943
-0.023544915 0.040138483 0.036254764 0.0171361 0.024224402 -0.0101198675 -0.04799198 -0.027997924
-0.09023051 -0.01788364 -0.034293942 -0.03548305 -0.021979334 -0.048112407 -0.055825196 -0.038373694
0.0068700877 -0.023850633 0.008430234 -0.01815092 0.020102909 -0.04305407 -0.019435745 -0.029365404
0.028773444 0.00019500137 -0.044888373 0.0055140895 -0.020079063 -0.063033074 -0.021305263 -0.04155823
-0.04231515 -0.05390158 0.011026991 -0.0410721 -0.017179206 -0.041258678 -0.059232738 0.011742795
-0.0019956636 -0.024105504 -0.015179524 -0.035105165 -0.03575579 -0.08783475 -0.03791852 -0.013795409
-0.057170928 0.08044365 0.022765014 0.059997212 0.020562585 -0.06522606 -0.047535665 -0.04431281
-0.031856835 -0.05154145 -0.003410266 -0.0070982673 -0.039015688 -0.0057810163 -0.037659727 -0.06279045
-0.0995187 -0.041276257 -0.10988684 -0.03858149 -0.092346735 -0.03529652 -0.021511456 0.035645064
-0.0026535627 0.010374047 -0.010218356 -0.07450615 -0.044814434 0.017916244 -0.032210793 -0.036010507
-0.049146965 -0.0239143 -0.07305084 -0.033085514 -0.049694877 -0.045582253 -0.07957266 -0.01893033
-0.066427164 -0.025239725 -0.025066575 -0.020710733 -0.04203808 0.016004132 0.0005008204 -0.020496864
0.0033142504 -0.1191156 -0.003091809 -0.02548857 -0.036710158 -0.0032361438 -0.052105397 -0.056770053
-0.059324067 0.008851152 0.014209688 0.012921546 -0.04063594 -0.020576147 -0.027418176 -0.05889612
-0.011001397 -0.05231392 -0.04710731 -0.018021412 -0.019404395 0.05969389 -0.04755835 -0.031716097

network_body._body_endoder.seq_layers.2.weight f4 [128, 128]
00000000: 015b da3d f8dd 023e 7177 01be b711 0dbe
00000010: f191 ad3b 1b38 1ebd 52c8 5bbd 8035 4bbc
00000020: 7b2c 19be 150e 493d 4028 b0bd 14ea 85bd
00000030: 2e56 d4bd b7f5 afbc af97 ca3d c327 c13d
00000040: b46e 89bd 288d 143d bf3f d93c 50f1 1abd
00000050: d570 b73d 4491 063b 456f e8bc f89b a2bd
00000060: b50c 05be 98d5 663c 951c 5d3c 458b afbb
00000070: afb6 69bb 2841 adbc 3c6c 223d 22d1 2cbd
00000080: ca27 b7ba c087 20bd 92c4 98bd b7d6 8d3d
00000090: bb44 053e 0349 05bd d43c bf3d 50d8 263c
000000a0: 5f0f 60bd fbd1 ec3d 9f99 f5bd 9d6d 553b
000000b0: 7b29 26be 2627 95bd 4164 763d b859 e63d
000000c0: f218 033e c2df 27bd 8cdd 41be afdc 883c
000000d0: 3db2 3fbd 5a54 92bc 24b3 e63b dc90 da3d
000000e0: 120d ab3b 0baa bc3c 8756 9ebd 431e abbd
000000f0: e8c1 b53c 8de4 093c 5f70 313d b81d 243e
00000100: a5c9 00be 30f0 393c 027a b3bd c227 d9bd
00000110: 0b4b c0bd a6d0 893d 824e 8abc a346 563d
00000120: 45f8 c0bb 2bca 98bd f41d 533d 7fe7 cebd
00000130: ce84 7dbd bffe 253e 452a 82bd 36b8 82bd
00000140: 6d31 43bd ed6b 813d e066 65bd 25da fa3a
00000150: 3f50 08be ec66 47bd 39b2 bbbd bd3e 3abd
00000160: fa22 983d 7397 033e 62c1 cd3d 731f 273e
00000170: 3220 93bd 3d90 d93d 1768 1e3d 1a59 e73b
00000180: 8bfb adbc ed3c d5bd d98d a2bd 190f 01be
00000190: 5c92 67bd 9490 b1bd 28cb bebd 0f33 533d
000001a0: e06e 933c f370 d73d 1038 173c e1f9 283d
000001b0: e7de f6bd caf4 32be 69fd c1bd c8cc 3bbe
000001c0: 2cca aa3d cef6 b1bd 03e3 bebb 3da4 97bd
000001d0: fb06 66bd 5e0c d8bc 56b5 863d 8057 6bbe
000001e0: d00f 933c fd72 033e 0eed 35bd f8e2 8b3c
000001f0: 1fd1 5ebd be9f 0d3d a370 3bbb ca04 aa3d
00000200: d204 dfbd 9835 a43d daf9 93bd 8432 103e
00000210: 022d cbbc e340 463d aa15 3dbe 79e4 a43a
00000220: 60ac 373d 5f24 653d 8eae 64bd 2fa2 8bbd
00000230: d932 21bd e295 903d f6fb 67bc fe5d a8bd
00000240: 6512 2bbd 7400 e9bc 0922 f4bd 7886 893d
00000250: a708 243d 1b79 903a 3e86 f33d 6918 bcbd
00000260: 83bf 04be 16bc 043e 7e7e b93d 6c81 36bd
00000270: 70a9 65be 5565 5b3d 02cf 633c 48da 30ba
00000280: 7c40 903d 9aa3 aa3d 841f 4abd cdec d9bc
00000290: 0780 853c 1aaa 9b3d 9a8d 6e3d 7b59 163e
000002a0: 3b42 ba3d 5c7c 41bd 54ab 40bc a8fd 10bd
000002b0: 7b9a 453b e87b ebbc 8949 83be cf96 5dbc
000002c0: 9f14 c8bc 2307 43bd a421 983d b4f3 a73d
000002d0: ee39 0bbc b85f c93d 1f12 21bd 141f ae3d
000002e0: 0240 00bd 61d1 2cbe e194 0bbe 3cfe 4fbd
000002f0: 90eb cb39 4cda 8cbb 15c8 a73d b166 c33b
00000300: 0e4f 183d 819d adbd 731c fd3d 8ea6 113e
00000310: cf6b df3d 78f4 17bd 5005 d63d 669d 9e3d
00000320: a045 4f3d 9f3b 873a 8983 f03c 8cea 443e
00000330: c9f8 1f3c 1993 143d 2198 fdbb 67ee debc
00000340: 1875 6bbd 97ee 21bc 3c20 5f3e 23fc 0dbd
00000350: 8fcf 89bd 3955 173e f863 1c3e 15d4 ba3c
00000360: bd1c 423e 647f 033e d052 ee3d 9faf e83c
00000370: a71d f93c c730 57be c1d5 b53d d175 4e3d
00000380: c40d 373d 6ad7 e1bc 8f53 bcbc 5f2c afbc
00000390: 52b0 093e 603c 7abc 25e1 5a3d 616f 843d
000003a0: e22f ca3d f6de e1bb a082 de3c 3e20 ddbd
000003b0: b7f0 823d 3409 cc3b 8d3f f73d 6198 db3d
000003c0: f59f 17bd 1110 1e3e 43f1 ca3d 8630 e83c
000003d0: cb2f 06be db22 85bd 1204 18be 0db2 253d
000003e0: 0b0e a0bd eb75 b5bd c765 2a3d a084 42be
000003f0: da83 0bbe 7166 89bc 8dad 643e a4f3 e23d
0.10661889 0.12779987 -0.1264322 -0.13776289 0.0052969386 -0.038627725 -0.053657837 -0.012402892
-0.14958374 0.049085695 -0.08601427 -0.065387875 -0.10368 -0.02147947 0.098922126 0.09431412
-0.06710568 0.03626743 0.026519654 -0.03782779 0.08957068 0.0020533362 -0.02837337 -0.07939905
-0.12993129 0.014089011 0.013495584 -0.0053571784 -0.0035661866 -0.021149233 0.039654 -0.042191632
-0.001397365 -0.03919196 -0.07459368 0.06925719 0.130145 -0.032540333 0.09337774 0.010183409
-0.05470216 0.11563488 -0.119921915 0.0032566555 -0.16226761 -0.072828576 0.060154203 0.11247581
0.12802485 -0.040984876 -0.1893217 0.016706793 -0.04680084 -0.017862488 0.007040398 0.10672161
0.005220064 0.023030302 -0.077313475 -0.08355381 0.022187188 0.008416307 0.043320056 0.16026962
-0.12576921 0.011348769 -0.087635055 -0.10603286 -0.09389313 0.0672925 -0.016883139 0.05231346
-0.005888971 -0.074604355 0.051542237 -0.10102748 -0.06189423 0.16210459 -0.063557185 -0.06382792
-0.047654558 0.06319413 -0.056006312 0.0019138498 -0.13311861 -0.04868214 -0.09164853 -0.04546999
0.07428546 0.12850742 0.100466505 0.1632059 -0.07183875 0.106232144 0.038673487 0.0070601823
-0.02123811 -0.10412011 -0.079372115 -0.12603416 -0.056536064 -0.08670154 -0.09316093 0.051562365
0.017997205 0.1051959 0.009229675 0.041253928 -0.12054234 -0.17476192 -0.09472162 -0.18339837
0.083393425 -0.086896524 -0.0058254017 -0.07404373 -0.056159 -0.026373085 0.06577556 -0.22982597
0.017951876 0.12836833 -0.044415526 0.017076 -0.054398652 0.03457617 -0.0028601072 0.08301695
-0.10889591 0.08018035 -0.0722539 0.1408177 -0.024801735 0.048401725 -0.18465295 0.0012580297
0.044842124 0.05594289 -0.05583053 -0.068180434 -0.039355133 0.07059838 -0.014159193 -0.082210526
-0.04176559 -0.028442599 -0.11920554 0.06715101 0.040047314 0.001102242 0.11890839 -0.09184343
-0.12963681 0.12962374 0.090573296 -0.04455702 -0.22427917 0.053563435 0.013904335 -0.00067463936
0.070435494 0.08331986 -0.049346462 -0.026602173 0.0162964 0.07600804 0.05824051 0.14682572
0.09094664 -0.04723774 -0.011759598 -0.035398155 0.0030151892 -0.028745607 -0.2564204 -0.013524725
-0.024423895 -0.047614228 0.074282914 0.082007796 -0.008497698 0.0983271 -0.039323922 0.085020214
-0.031311043 -0.16876747 -0.13631012 -0.050779566 0.00038894685 -0.004298484 0.081924595 0.0059631695
0.037184767 -0.08477307 0.12358942 0.14223692 0.10909235 -0.037098378 0.10450232 0.07744865
0.05060351 0.0010317451 0.029359596 0.19230098 0.009763905 0.036273096 -0.0077390824 -0.027213288
-0.057484716 -0.009883544 0.2178964 -0.034664284 -0.06729042 0.14778604 0.1527251 0.022806207
0.18956275 0.12841564 0.11636889 0.028404055 0.030409647 -0.21014701 0.08878661 0.050405327
0.044690862 -0.027568538 -0.022989063 -0.021383462 0.13446167 -0.015273184 0.05343737 0.06466556
0.09872414 -0.006893034 0.027161896 -0.10797165 0.06393569 0.006226683 0.12072668 0.10722423
-0.03701778 0.15435816 0.09909298 0.02834345 -0.13104169 -0.06500789 -0.14845303 0.040453006
-0.078151785 -0.08860382 0.04160097 -0.18995905 -0.13624516 -0.01677248 0.2233183 0.11081627

network_body._body_endoder.seq_layers.2.bias f4 [128]
00000000: 4840 203d 15c2 dcbc 0549 65bd ca76 9cbc
00000010: 9c1b 2a3d 929b 84bd d8f8 63bc 58af c5ba
00000020: ec50 69bd bb74 4cbd 47b2 a9bd 6d39 9b3c
00000030: f07c d8bc 34cf dabc dd40 81bd 362e 9fbb
00000040: 5801 75bc 82ab e7bb f7fe a5bd 919d 1fbd
00000050: 3b88 613c 8986 25bd 6c45 71bd eeb1 d7bc
00000060: 89ae 2bbd b78d 48bd 4e07 a1bd ce28 1fbd
00000070: 6f3f 533d 20f7 7fbd c909 8f3b 88d5 54bd
00000080: 4f66 95bc a6a1 e9bc 5c9b 2c3d 3eb3 ebbc
00000090: f578 2f3d 076d 93bd dfff 75bd 877f 36bd
000000a0: fc49 a13b 84cc 35b9 66fe 93bc b525 6fbc
000000b0: fbab 323d 62ce 0cbd 5b2e babd be8b 153d
000000c0: 1481 96bd 0da7 0abd 1bd1 07bd 94b1 543d
000000d0: 7660 78b9 54a2 273d ce88 413d 0cca 593b
000000e0: de6a aa3a a2ee babc dd22 27bd 129e 48bd
000000f0: d481 d2bc 8b1b 2fbd a69a 80bc 9c12 373c
00000100: 86e5 67bc 3855 2b3d 4376 82bd 2c2c b8bc
00000110: b17e 4d3d 0f37 debd 1203 cd3a abf3 06bd
00000120: 4f00 aa3c 559a 873b 2cfa 1c3d 8be6 a33c
00000130: d22c 193d 6b63 123d a6d8 d7bc 63f4 99bd
00000140: 6ded a1ba c2c8 f5bc 5312 06bd eff4 c43c
00000150: 53f1 883c d62f 6ebc b005 a1bd 626a 85bb
00000160: 1795 95bb d57a cabd cc02 293d 6c68 96bc
00000170: 603e 8f3c 46fc d73c 69b5 74bd 360c 0a3d
00000180: db9e a33c 36b7 ccbb 43cc 8abd 24e4 3dbd
00000190: 6266 3bbd c009 56bd 724d d43c 3702 35bd
000001a0: 658a 62bb d5c9 4fbb 4396 f7bb 5f88 8f3c
000001b0: d7c4 01bd a52b c4bc b59c a1bc 06e7 5a3c
000001c0: 8ee1 9fbb 84b6 9d3b f3c9 b8bd c3ae 1ebd
000001d0: af1c 813c c669 ff3b d91d f6bc 0e7e f9bc
000001e0: f742 74bc 2818 81bd 297d 83bb dde6 94bd
000001f0: 4949 03bd 3eca 61bc 2e4e 90bc bc56 a83c
0.039123803 -0.026948014 -0.05597784 -0.019099612 0.041530237 -0.06474985 -0.013914309 -0.0015082164
-0.05696194 -0.04991601 -0.08285957 0.018948281 -0.026426762 -0.02671013 -0.063112 -0.0048578037
-0.014953934 -0.007070006 -0.08105271 -0.038968626 0.01376539 -0.040411506 -0.058904096 -0.02632996
-0.041914497 -0.048963275 -0.078627214 -0.038857274 0.051574167 -0.062491536 0.00436518 -0.05196145
-0.018237261 -0.028519463 0.04214035 -0.028771993 0.042839963 -0.0719853 -0.06005847 -0.044555213
0.0049221497 -0.00017337693 -0.018065643 -0.014596392 0.043621045 -0.03437651 -0.09090873 0.03651022
-0.073488384 -0.03385072 -0.033158403 0.051927164 -0.00023687058 0.040926293 0.047249608 0.0033232002
0.001300182 -0.022818867 -0.040804733 -0.048978873 -0.025696672 -0.042750876 -0.015698742 0.01117387
-0.014153844 0.041829318 -0.06370213 -0.022482 0.05016965 -0.10850345 0.0015641174 -0.032947224
0.0207521 0.004138271 0.03832452 0.020007392 0.03739626 0.035739344 -0.026348423 -0.07517316
-0.0012354084 -0.030002955 -0.03273232 0.024042575 0.016716635 -0.014537772 -0.07862413 -0.0040715197
-0.004564892 -0.098867096 0.041262433 -0.01836034 0.017485797 0.02636541 -0.05974332 0.03370305
0.01997321 -0.0062474264 -0.06777241 -0.04636015 -0.045751937 -0.052255392 0.025915835 -0.044191565
-0.0034567353 -0.0031705995 -0.0075557544 0.017521081 -0.03168186 -0.023946593 -0.019728044 0.013360744
-0.004879183 0.0048130173 -0.09022894 -0.038740885 0.015760748 0.0077945916 -0.03004353 -0.030455615
-0.014908544 -0.063034356 -0.004012723 -0.07270596 -0.032052312 -0.013781128 -0.017615404 0.02054917

action_model._continuous_distribution.log_sigma f4 [1, 9]
00000000: 4ee9 b43e a4c7 d63e deab c13e 1b20 cf3e
00000010: 23e9 c03e 9d29 f53e c679 c63e 9268 d63e
00000020: 6d7a de3e
0.35334247 0.4194919 0.37826437 0.40454182 0.3767787 0.4788331 0.3876478 0.41876656
0.43452778

action_model._continuous_distribution.mu.weight f4 [9, 128]
00000000: a501 043d f086 493c 3776 58bd 8f52 ffbb
00000010: 67ef 8cba 6564 cebc bf69 3dbc eb96 37bb
00000020: 4a30 9bbb 8797 31bb 9ce0 08bd b7e6 7bbb
00000030: 1d1c a1bb 3d3c 0dbc 910f 00bd 355d 2e3c
00000040: 9dfb 123b 2423 3f3a bfba 17bc 622a ad3b
00000050: 6e21 25bd c594 fcbb e4ea eabb b1a2 33bc
00000060: c87a 0bbd b252 a0bc 1686 c4bc b0b0 2ebd
00000070: a70e 93bb 07bd 07bd 8039 69bd 1116 6ebd
00000080: 5fb7 3bbc 922e 9ebb c6f9 b4bb 8502 1dbd
00000090: ebba 9ab8 5854 0cbd 042b 5dbd 78e8 8dbb
000000a0: 98b0 d13a e34e 44bb 2ecb 88bc 0aa6 ba3b
000000b0: 9343 21bb 003d c5bc bbca 8fbb 859d c43b
000000c0: c66c 52bc 183c 4c3c f532 08bc dba0 86bc
000000d0: 3115 063c b7a8 253c 220a 233c ceff 6a3b
000000e0: 25f9 6bbc e9d9 a53c bb03 43ba ecad a3bc
000000f0: fe8f 8dbd e31a adbc c661 9e3c 8455 6c3b
00000100: 9fd1 f03b c9f9 d7bb 55b3 2d38 fe5a 0cbd
00000110: 6562 ecbb 111a e8bc 527c 83bc b182 a0bc
00000120: 070d afbc f462 69bc 19b7 603c 675a 873c
00000130: df68 563c 5c3c 9cbc 6f19 1f3c 3238 1d3c
00000140: 9f1a f4bb 860b 24bc 6c59 b3ba 57b1 0abd
00000150: 917c e43a eaa5 11bc 5a78 80bc 1619 b03b
00000160: 8a8c fc3c 43b0 63ba d1a4 4f3c 72a3 2a3c
00000170: e8eb 8f3c a988 0ebd f426 09bd c5f7 bf39
00000180: 1d65 b5bb 2a53 f13b 53a7 75bc 3a3b 62bd
00000190: a227 debb 9823 f4bc 5006 db3c ecba 25bd
000001a0: 491a c7bc 52a5 c53a 3eea 70bc 8322 ca3c
000001b0: 79d7 313c 102b efbc e37c f63b 2625 743c
000001c0: c757 073d b6d2 25bc fc83 68bc d82c 12bd
000001d0: 310c a2b9 2acc d43c 283f 953b 36e1 083c
000001e0: 0184 103d 3294 bfbc c0ca 8e3b 29f6 5abb
000001f0: ceda 1fbd 2b43 b23c 312e 0a3d 29a9 ca3c
00000200: 93b4 6ebc d0e8 f93c ea90 ed3c 1a1f 893d
00000210: 2259 603d 6480 8b3c 581b e83c 7f59 a93b
00000220: 9e6d 683c 0820 7d3b f6ca 983c 05c2 f53a
00000230: 6798 53ba 3288 86bc a85a 523d 1e53 7aba
00000240: 5c35 e13c b5ad 683c 6509 083d a43b 61bc
00000250: 5223 223d 64b6 273c dcbb b7bc ff2f 47bc
00000260: c2c0 34bb bbfa 283d 0e40 043d 03dc 6db9
00000270: aff2 e63b 99c2 8b3d 7617 3e3d 08b8 723c
00000280: bcde 38bb a646 9f3c 32c3 1abd 0f6e 153d
00000290: cc28 363c 9c56 ce3c ce99 733d c714 003d
000002a0: ac4f 2e3d 6d82 203b 8c02 2e3d 4947 3f3d
000002b0: 4121 e13c befd 4b3d caad 753c e3f6 ea3c
000002c0: 81e8 2f3d ff58 4c3c 16e8 2f3d 8cfa 99bc
000002d0: 3977 133c d482 f13c 184a 88bb 2487 9fbb
000002e0: bf06 c73b 6bed 29bc c0ad cf3b ab26 2b3c
000002f0: 8bf5 1f3d 3067 4a3b f0df e03c ce61 2abc
00000300: 1373 073d 5f24 b93c 813d 293c ca81 c8bc
00000310: 2c8d 2a3c 1dfb e43c 14c4 fc3c 6406 a7bc
00000320: c9c1 553c 2828 1a3c 79fd 11bd 5a93 ecbc
00000330: 77dc f838 08e0 603d 2dae 933c ade9 993b
00000340: d62b 86b9 1f4b e53b 5930 36bc 9a3b 85bc
00000350: dd7a 34bc 315c 023d b50b 483c fd31 533c
00000360: 5eaa 293c 35f6 423d bd50 273d ffb5 8e3c
00000370: 0f0b cd3c 75ba 2e3d f1cb 9f3b 134e c6bc
00000380: a1bd 02bc 7e0b 8e3c 0b76 6c3c 83dd 263a
00000390: f66e f33b 51af 123d 2d31 1f3d e55e 263d
000003a0: babb be3c 0b85 2a3d ee7c 36bc 2e8f 96bc
000003b0: 32a9 3e3d fc64 563c c404 babb a464 8cbc
000003c0: beab 143d c89b 04bd 1af1 d33c 4cb5 a23c
000003d0: 55e5 66bb 9d36 1cbb c75a 1f3d 19ee 063c
000003e0: 0903 e03a eb01 953c 8b69 0f3d b32b 0ebb
000003f0: 8f75 103d 9dbf 143d a9d3 6fbc ee71 2a3d
0.03222813 0.012300238 -0.052847113 -0.007791824 -0.00107525 -0.025194356 -0.011560856 -0.0028013538
-0.004735981 -0.0027098374 -0.03341733 -0.0038437077 -0.0049166814 -0.008620319 -0.031264845 0.0106423395
0.0022427805 0.0007291308 -0.009260832 0.0052845934 -0.040315084 -0.0077081644 -0.0071691144 -0.010964082
-0.03405264 -0.019570682 -0.023989718 -0.04264897 -0.0044878307 -0.033139255 -0.056939602 -0.058126513
-0.011457293 -0.004827329 -0.0055229394 -0.03833248 -7.3781084e-05 -0.034260124 -0.0539961 -0.004330691
0.0015998064 -0.0029954247 -0.016698446 0.005696063 -0.0024606928 -0.024076939 -0.004388181 0.006000223
-0.012843316 0.012465499 -0.00831293 -0.016434124 0.008183763 0.010111026 0.009951146 0.0035858038
-0.014402662 0.02024551 -0.00074392156 -0.019980393 -0.0691223 -0.021130985 0.019333731 0.0036061713
0.0073492075 -0.006591056 4.141343e-05 -0.034266464 -0.007213878 -0.028332742 -0.016050491 -0.019593569
-0.021368517 -0.014244784 0.013715529 0.0165226 0.013086527 -0.01907175 0.009710654 0.009595918
-0.0074494625 -0.010012513 -0.0013683266 -0.03386053 0.0017432143 -0.008889655 -0.015682388 0.005374084
0.030828733 -0.0008685628 0.012673573 0.010414945 0.017568544 -0.034798298 -0.033484414 0.00036614962
-0.0055357353 0.0073646503 -0.0149935065 -0.055232264 -0.006779627 -0.029802129 0.026736408 -0.040461466
-0.024304526 0.0015079177 -0.014704285 0.02467466 0.010854595 -0.029195338 0.007522212 0.014901435
0.033042695 -0.010121038 -0.014191624 -0.035687298 -0.0003090813 0.02597626 0.004554648 0.008354476
0.03528214 -0.023386095 0.004357666 -0.0033410883 -0.039027028 0.021760544 0.033735458 0.024738865
-0.014569419 0.030506521 0.028999764 0.06695385 0.054772504 0.017028995 0.028333351 0.0051681395
0.014186291 0.0038623828 0.018651467 0.0018749839 -0.0008071721 -0.016422365 0.051355988 -0.00095491286
0.027491264 0.014201571 0.033212084 -0.01374713 0.039584465 0.010236356 -0.022428446 -0.012157439
-0.0027580713 0.04125474 0.03228765 -0.00022684042 0.007047973 0.06824226 0.046409093 0.014814384
-0.0028208932 0.019442867 -0.03778381 0.036481913 0.011118125 0.025187783 0.05947285 0.031269815
0.04255645 0.0024491802 0.042482898 0.046698842 0.027481677 0.049802534 0.014995048 0.028682178
0.042946342 0.01247239 0.042945944 -0.018796228 0.009000593 0.029481329 -0.0041592233 -0.004868405
0.0060738022 -0.010371546 0.0063378513 0.010446231 0.039052527 0.0030884258 0.027450532 -0.010399295
0.033068728 0.02260035 0.010329605 -0.02447595 0.010409635 0.027951771 0.030855216 -0.02038879
0.01304669 0.009408988 -0.03564212 -0.028878856 0.00011866626 0.054901153 0.01802739 0.004697046
-0.00025591132 0.0069974805 -0.011119925 -0.016263772 -0.011015621 0.0318262 0.012209822 0.012890336
0.01035556 0.047598083 0.040848482 0.017420767 0.025029687 0.042658288 0.0048766066 -0.02420715
-0.007979781 0.017339464 0.0144324405 0.0006365405 0.007428999 0.035811726 0.038865257 0.040617842
0.023282874 0.041630786 -0.011138184 -0.01837882 0.046548076 0.0130856 -0.0056768376 -0.017137833
0.0362966 -0.032375127 0.025871802 0.01986184 -0.0035231907 -0.0023836263 0.03890493 0.008235478
0.0017090748 0.018189391 0.035012763 -0.0021693527 0.035268363 0.03631555 -0.014637866 0.041612558

action_model._continuous_distribution.mu.bias f4 [9]
00000000: 659b 243d 638d 523c 0c6f 243c ea0b 573d
00000010: cfdb 8fbc 38cc 0ebd 6e51 f03c 840c d83b
00000020: 8cc4 d33d
0.04018726 0.012851092 0.010036241 0.052501597 -0.017560868 -0.034862727 0.029335704 0.006593289
0.10340223
