results/duoCW-V1/Crawler.onnx (onnx, 162792 bytes, 10 tensors)

network_body.observation_encoder.processors.0.normalizer.running_mean f4 [126]
0	0x00000000	0.0
1	0x00000000	0.0
2	0x00000000	0.0
3	0x00000000	0.0
4	0x00000000	0.0
5	0x00000000	0.0
6	0x00000000	0.0
7	0x00000000	0.0
8	0x00000000	0.0
9	0x00000000	0.0
10	0x00000000	0.0
11	0x00000000	0.0
12	0x00000000	0.0
13	0x00000000	0.0
14	0x00000000	0.0
15	0x00000000	0.0
16	0x00000000	0.0
17	0x00000000	0.0
18	0x00000000	0.0
19	0x00000000	0.0
20	0x00000000	0.0
21	0x00000000	0.0
22	0x00000000	0.0
23	0x00000000	0.0
24	0x00000000	0.0
25	0x00000000	0.0
26	0x00000000	0.0
27	0x00000000	0.0
28	0x00000000	0.0
29	0x00000000	0.0
30	0x00000000	0.0
31	0x00000000	0.0
32	0x00000000	0.0
33	0x00000000	0.0
34	0x00000000	0.0
35	0x00000000	0.0
36	0x00000000	0.0
37	0x00000000	0.0
38	0x00000000	0.0
39	0x00000000	0.0
40	0x00000000	0.0
41	0x00000000	0.0
42	0x00000000	0.0
43	0x00000000	0.0
44	0x00000000	0.0
45	0x00000000	0.0
46	0x00000000	0.0
47	0x00000000	0.0
48	0x00000000	0.0
49	0x00000000	0.0
50	0x00000000	0.0
51	0x00000000	0.0
52	0x00000000	0.0
53	0x00000000	0.0
54	0x00000000	0.0
55	0x00000000	0.0
56	0x00000000	0.0
57	0x00000000	0.0
58	0x00000000	0.0
59	0x00000000	0.0
60	0x00000000	0.0
61	0x00000000	0.0
62	0x00000000	0.0
63	0x00000000	0.0
64	0x00000000	0.0
65	0x00000000	0.0
66	0x00000000	0.0
67	0x00000000	0.0
68	0x00000000	0.0
69	0x00000000	0.0
70	0x00000000	0.0
71	0x00000000	0.0
72	0x00000000	0.0
73	0x00000000	0.0
74	0x00000000	0.0
75	0x00000000	0.0
76	0x00000000	0.0
77	0x00000000	0.0
78	0x00000000	0.0
79	0x00000000	0.0
80	0x00000000	0.0
81	0x00000000	0.0
82	0x00000000	0.0
83	0x00000000	0.0
84	0x00000000	0.0
85	0x00000000	0.0
86	0x00000000	0.0
87	0x00000000	0.0
88	0x00000000	0.0
89	0x00000000	0.0
90	0x00000000	0.0
91	0x00000000	0.0
92	0x00000000	0.0
93	0x00000000	0.0
94	0x00000000	0.0
95	0x00000000	0.0
96	0x00000000	0.0
97	0x00000000	0.0
98	0x00000000	0.0
99	0x00000000	0.0
100	0x00000000	0.0
101	0x00000000	0.0
102	0x00000000	0.0
103	0x00000000	0.0
104	0x00000000	0.0
105	0x00000000	0.0
106	0x00000000	0.0
107	0x00000000	0.0
108	0x00000000	0.0
109	0x00000000	0.0
110	0x00000000	0.0
111	0x00000000	0.0
112	0x00000000	0.0
113	0x00000000	0.0
114	0x00000000	0.0
115	0x00000000	0.0
116	0x00000000	0.0
117	0x00000000	0.0
118	0x00000000	0.0
119	0x00000000	0.0
120	0x00000000	0.0
121	0x00000000	0.0
122	0x00000000	0.0
123	0x00000000	0.0
124	0x00000000	0.0
125	0x00000000	0.0

network_body.observation_encoder.processors.1.normalizer.running_mean f4 [28]
0	0x00000000	0.0
1	0x00000000	0.0
2	0x00000000	0.0
3	0x00000000	0.0
4	0x00000000	0.0
5	0x00000000	0.0
6	0x00000000	0.0
7	0x00000000	0.0
8	0x00000000	0.0
9	0x00000000	0.0
10	0x00000000	0.0
11	0x00000000	0.0
12	0x00000000	0.0
13	0x00000000	0.0
14	0x00000000	0.0
15	0x00000000	0.0
16	0x00000000	0.0
17	0x00000000	0.0
18	0x00000000	0.0
19	0x00000000	0.0
20	0x00000000	0.0
21	0x00000000	0.0
22	0x00000000	0.0
23	0x00000000	0.0
24	0x00000000	0.0
25	0x00000000	0.0
26	0x00000000	0.0
27	0x00000000	0.0

network_body._body_endoder.seq_layers.0.weight f4 [128, 154]
0	0x3e2388e7	0.15970193
1	0x3b8436f0	0.0040348694
2	0xba13abea	-0.0005633222
3	0x3d48d694	0.049032763
4	0xbc77524f	-0.0150953075
5	0xbdd750c4	-0.10513452
6	0xbd4fa4c2	-0.050694235
7	0xbc0b9872	-0.0085202325
8	0x3d80cb34	0.06288758
9	0x3dd53ad6	0.10411613
10	0xbc8a1205	-0.016854296
11	0xbd274b20	-0.04084313
12	0xbd88c1ba	-0.066775754
13	0x3d8ef530	0.069803596
14	0x3d53d0bc	0.051712736
15	0x3dca979e	0.098922
16	0xbd3d2df6	-0.04618641
17	0xbdedd7b5	-0.116134085
18	0xbdb62599	-0.0889389
19	0x3d855b7f	0.06511592
20	0xbe40008b	-0.18750207
21	0x3e43cf1c	0.19121975
22	0x3d343428	0.043995053
23	0x3d8107c1	0.06300307
24	0x3cfec57c	0.031100027
25	0xbda5c8fb	-0.080949746
26	0xbc1ee9ef	-0.009699329
27	0xbc3d4eeb	-0.01155446
28	0xbe10764a	-0.14107624
29	0xbd1210f6	-0.035660706
30	0x3ce4ca95	0.02792863
31	0xbb7e6045	-0.0038814705
32	0xbd697e43	-0.05700518
33	0x3db7976f	0.089644305
34	0x3d91bad4	0.07115713
35	0x3d917e27	0.0710414
36	0xbd75ad1e	-0.05997955
37	0xbe104c89	-0.14091696
38	0xbe13582a	-0.143891
39	0xbdce1b3d	-0.10063789
40	0x3c569a66	0.013098335
41	0xbd67b02a	-0.056564488
42	0xbc2a9a83	-0.010412815
43	0x3e0a841d	0.1352696
44	0x3d4b5170	0.04963821
45	0xbe384650	-0.17995572
46	0x3bd70a47	0.0065625045
47	0x3e09636a	0.1341683
48	0xbcaf7748	-0.021419182
49	0x3e4d58b1	0.20053364
50	0x3d68e0db	0.056855064
51	0x3e29db64	0.16587597
52	0x3d0510ec	0.03248684
53	0xbdd3e5d6	-0.10346572
54	0x3dc9bb04	0.098501235
55	0xbd66742e	-0.05626314
56	0x3e20f82e	0.15719673
57	0xbd281a9c	-0.041041
58	0xbce447d2	-0.027866278
59	0x3c8eb334	0.017419435
60	0xbdd584df	-0.10425734
61	0xbd44416d	-0.047913957
62	0x3cd205ba	0.025637496
63	0xbd304329	-0.0430328
64	0x3c5a9d94	0.013343234
65	0xbcc18f3c	-0.02362787
66	0xbe378e1a	-0.17925301
67	0x3cb4941a	0.022043277
68	0x3dda1ff0	0.10650623
69	0xbd94093e	-0.07228325
70	0x3c9ff08b	0.01952388
71	0xbc978bb1	-0.018499227
72	0xbd6f0f50	-0.058364213
73	0x3a8abfa4	0.0010585678
74	0xbd583ab8	-0.052790374
75	0x3e1add14	0.15123397
76	0xbd84271f	-0.06452774
77	0xbd72f2f2	-0.059313722
78	0xbcbc9af9	-0.023023115
79	0xbdd97e50	-0.10619795
80	0xbd4d0f55	-0.05006345
81	0xbda49083	-0.08035376
82	0xbc042303	-0.008064988
83	0x3e0dd2fa	0.13850012
84	0x3d484e5f	0.048902865
85	0x3dc9c726	0.09852438
86	0xbc13f7e8	-0.009031273
87	0xbc1ebe50	-0.009688929
88	0xbc50d25d	-0.012745467
89	0xbc7f45aa	-0.015580574
90	0xbd805d65	-0.062678136
91	0xbe21d27f	-0.15802954
92	0xbd01a983	-0.0316558
93	0x3d2af058	0.041733116
94	0xbdbb80df	-0.091554396
95	0xbd7dd8b4	-0.061974242
96	0x3e2d66eb	0.16933791
97	0x3d8c2022	0.06842066
98	0xbd93b64d	-0.072125055
99	0xbc0de8a2	-0.008661421
100	0x3e096109	0.13415922
101	0xbdcdfab0	-0.100575805
102	0xbc674e00	-0.014117718
103	0x3c792d9f	0.015208631
104	0xbd0860e9	-0.033295546
105	0xbdd06fee	-0.10177599
106	0x3d20e7cf	0.03928357
107	0xbd9d35e8	-0.076762974
108	0xbd51ef0d	-0.051253367
109	0x3e0ae8ec	0.13565415
110	0x3dd33f5f	0.103148215
111	0xbd334504	-0.04376699
112	0xbcf8a47b	-0.030351868
113	0xbcb2b36b	-0.021814069
114	0xbc2089cb	-0.009798477
115	0xbc99f03c	-0.01879131
116	0xbe07b592	-0.13252857
117	0x3d681040	0.056656122
118	0x3dc7cbeb	0.09755691
119	0x3d820f71	0.063506015
120	0x3da72693	0.08161654
121	0xbc8b9027	-0.01703651
122	0xbd266d18	-0.040631384
123	0x3d1a6e73	0.03770299
124	0xbe1800fe	-0.14844128
125	0x3de4575b	0.11149474
126	0x3e1b0fec	0.15142792
127	0xbda2fc38	-0.07958263
128	0x3cd02692	0.025409017
129	0xbd5e0aa6	-0.054209374
130	0xbca6172f	-0.020274727
131	0xbd5929e6	-0.053018473
132	0x3d9f0d83	0.07766249
133	0xbdb758e4	-0.089525014
134	0xbd294c75	-0.04133268
135	0xbc5b739c	-0.013394263
136	0x3cfe078c	0.031009458
137	0xbe3ac050	-0.18237424
138	0x3c0a4379	0.008438938
139	0xbd724f00	-0.05915737
140	0x3dbd402b	0.09240755
141	0x3bad9c8c	0.005298203
142	0x3d551b03	0.052027714
143	0xbd7db64b	-0.061941426
144	0x3e32e1e8	0.17468989
145	0x3c2cb603	0.010541442
146	0x3d39a48a	0.045322932
147	0x3c83e410	0.01609996
148	0x3d15ebab	0.036601704
149	0x3db6618b	0.089053236
150	0x3d49d7d3	0.04927809
151	0x3d8b5200	0.0680275
152	0xbe1ddeec	-0.15417069
153	0x3d49fab8	0.04931137
154	0xbc81fe2a	-0.015868265
155	0x3d95d7bc	0.07316539
156	0x3e1e8092	0.15478733
157	0x3d0930ec	0.03349392
158	0xbe660079	-0.22461118
159	0x3df60d69	0.120142765
160	0x3df47760	0.119368315
161	0x3dc65dae	0.09685837
162	0x3d205a33	0.03914852
163	0x3b0413cb	0.00201534
164	0x3adffd94	0.0017089122
165	0xbd06f15d	-0.032945026
166	0xbd272477	-0.04080626
167	0x3de8c4ae	0.11365639
168	0x3d29f90e	0.041497283
169	0xbe488938	-0.19583595
170	0x3cd8a99b	0.026448062
171	0xbddc4189	-0.10754687
172	0x3d0eb723	0.03484262
173	0x3d08f96e	0.033441
174	0x3d9179d3	0.07103314
175	0xbab0917b	-0.0013471091
176	0x3bf4a6ca	0.007466172
177	0xbceaef07	-0.02867843
178	0xbd90b392	-0.070655
179	0xbd1491b8	-0.03627178
180	0x3dd38606	0.10328297
181	0x3d84e9f7	0.06489938
182	0x3cd5bad7	0.026090069
183	0x3cb26dce	0.021780875
184	0x3d56a27f	0.052401062
185	0xbc6c10db	-0.0144083155
186	0x3e8a19c0	0.2697277
187	0xbd444b4d	-0.047923375
188	0x3cdfb5bd	0.02730834
189	0xbc8f37c1	-0.01748264
190	0x3d9b29d6	0.07576339
191	0xbd8e4265	-0.069462575
192	0xbbf20ff4	-0.0073871557
193	0x3d7a2969	0.061074648
194	0x3dd26b44	0.102743655
195	0xbddc72e2	-0.107641
196	0x3c8cd217	0.017190022
197	0x3d698cb2	0.057018943
198	0xbb987b95	-0.004653404
199	0xbd7de879	-0.06198928
200	0xbe2d0f37	-0.16900335
201	0x3dff208d	0.124573804
202	0xbdbfdf98	-0.09368819
203	0xbdd02b7e	-0.101645455
204	0x3bfee80b	0.0077791265
205	0xbd15342e	-0.036426716
206	0x3dd95b7e	0.10613154
207	0x3dbc8dca	0.092067316
208	0x3c21a019	0.00986483
209	0x3c33e645	0.0109801935
210	0xbd411751	-0.047141377
211	0xbda3026f	-0.079594485
212	0x3d02aeff	0.03190517
213	0x3d90185b	0.070358954
214	0x3d8b244f	0.06794035
215	0x3dad7641	0.08469821
216	0x3e03e69c	0.12880939
217	0xbda9ed59	-0.082972236
218	0x3d4ea8e2	0.050454028
219	0x3e2bd95f	0.16782139
220	0x3e1ad885	0.15121658
221	0xbdafd59c	-0.08585665
222	0x3cae447c	0.02127289
223	0xbd8dd044	-0.06924489
224	0x3d2a7bb2	0.04162187
225	0x3dc215a3	0.09476783
226	0xbb8afe9f	-0.004241779
227	0x3c3e2745	0.011606042
228	0x3cbe03e2	0.02319521
229	0x3e3c31c7	0.18378364
230	0xbdd57d30	-0.10424268
231	0xbe010b68	-0.12602007
232	0xbdd9a775	-0.10627643
233	0xbd9de8ab	-0.077103935
234	0x3b04b8a6	0.002025166
235	0xbe476f5f	-0.19476078
236	0xbda1ae38	-0.07894558
237	0x3d2a7a5c	0.041620597
238	0xbdbe2f5b	-0.09286376
239	0xbd0a6508	-0.033787757
240	0xbb805d90	-0.0039174035
241	0xbe099d02	-0.134388
242	0x3d446378	0.047946423
243	0x3ddba2e3	0.107244276
244	0x3d0280b1	0.03186101
245	0xbd00c900	-0.03144169
246	0xbc642d75	-0.013926853
247	0xbe5bf50d	-0.21480198
248	0x3ce37c5c	0.02776926
249	0xbc5c7c6e	-0.013457401
250	0x3dc733f2	0.09726705
251	0x3d71c485	0.059025306
252	0x3d8a6977	0.06758397
253	0xbe2fb0ff	-0.17157362
254	0xbe0ffd7a	-0.14061537
255	0x3d09930e	0.033587508

network_body._body_endoder.seq_layers.0.bias f4 [128]
0	0x00000000	0.0
1	0x00000000	0.0
2	0x00000000	0.0
3	0x00000000	0.0
4	0x00000000	0.0
5	0x00000000	0.0
6	0x00000000	0.0
7	0x00000000	0.0
8	0x00000000	0.0
9	0x00000000	0.0
10	0x00000000	0.0
11	0x00000000	0.0
12	0x00000000	0.0
13	0x00000000	0.0
14	0x00000000	0.0
15	0x00000000	0.0
16	0x00000000	0.0
17	0x00000000	0.0
18	0x00000000	0.0
19	0x00000000	0.0
20	0x00000000	0.0
21	0x00000000	0.0
22	0x00000000	0.0
23	0x00000000	0.0
24	0x00000000	0.0
25	0x00000000	0.0
26	0x00000000	0.0
27	0x00000000	0.0
28	0x00000000	0.0
29	0x00000000	0.0
30	0x00000000	0.0
31	0x00000000	0.0
32	0x00000000	0.0
33	0x00000000	0.0
34	0x00000000	0.0
35	0x00000000	0.0
36	0x00000000	0.0
37	0x00000000	0.0
38	0x00000000	0.0
39	0x00000000	0.0
40	0x00000000	0.0
41	0x00000000	0.0
42	0x00000000	0.0
43	0x00000000	0.0
44	0x00000000	0.0
45	0x00000000	0.0
46	0x00000000	0.0
47	0x00000000	0.0
48	0x00000000	0.0
49	0x00000000	0.0
50	0x00000000	0.0
51	0x00000000	0.0
52	0x00000000	0.0
53	0x00000000	0.0
54	0x00000000	0.0
55	0x00000000	0.0
56	0x00000000	0.0
57	0x00000000	0.0
58	0x00000000	0.0
59	0x00000000	0.0
60	0x00000000	0.0
61	0x00000000	0.0
62	0x00000000	0.0
63	0x00000000	0.0
64	0x00000000	0.0
65	0x00000000	0.0
66	0x00000000	0.0
67	0x00000000	0.0
68	0x00000000	0.0
69	0x00000000	0.0
70	0x00000000	0.0
71	0x00000000	0.0
72	0x00000000	0.0
73	0x00000000	0.0
74	0x00000000	0.0
75	0x00000000	0.0
76	0x00000000	0.0
77	0x00000000	0.0
78	0x00000000	0.0
79	0x00000000	0.0
80	0x00000000	0.0
81	0x00000000	0.0
82	0x00000000	0.0
83	0x00000000	0.0
84	0x00000000	0.0
85	0x00000000	0.0
86	0x00000000	0.0
87	0x00000000	0.0
88	0x00000000	0.0
89	0x00000000	0.0
90	0x00000000	0.0
91	0x00000000	0.0
92	0x00000000	0.0
93	0x00000000	0.0
94	0x00000000	0.0
95	0x00000000	0.0
96	0x00000000	0.0
97	0x00000000	0.0
98	0x00000000	0.0
99	0x00000000	0.0
100	0x00000000	0.0
101	0x00000000	0.0
102	0x00000000	0.0
103	0x00000000	0.0
104	0x00000000	0.0
105	0x00000000	0.0
106	0x00000000	0.0
107	0x00000000	0.0
108	0x00000000	0.0
109	0x00000000	0.0
110	0x00000000	0.0
111	0x00000000	0.0
112	0x00000000	0.0
113	0x00000000	0.0
114	0x00000000	0.0
115	0x00000000	0.0
116	0x00000000	0.0
117	0x00000000	0.0
118	0x00000000	0.0
119	0x00000000	0.0
120	0x00000000	0.0
121	0x00000000	0.0
122	0x00000000	0.0
123	0x00000000	0.0
124	0x00000000	0.0
125	0x00000000	0.0
126	0x00000000	0.0
127	0x00000000	0.0

network_body._body_endoder.seq_layers.2.weight f4 [128, 128]
0	0x3e169b55	0.14707692
1	0xbe366fe1	-0.17816116
2	0x3d2f9590	0.042867243
3	0xbd3aa74b	-0.0455697
4	0x3c1b2458	0.009469114
5	0xbb585203	-0.0033007867
6	0xbde45ddd	-0.111507155
7	0x3d056d8e	0.032575183
8	0xbd8467d8	-0.06465119
9	0xbd051d53	-0.03249867
10	0x3ce1f681	0.027583363
11	0x3d495b5c	0.049159393
12	0xbd7cc360	-0.06170976
13	0xbd2adfb7	-0.041717257
14	0x3e11d2af	0.14240526
15	0x3d6aa4bb	0.057286005
16	0x3d499db8	0.049222678
17	0x3e0b45bc	0.1360082
18	0xbd869c61	-0.06572796
19	0xbc223ad0	-0.009901717
20	0xbd5cfefc	-0.05395411
21	0xbb0913d0	-0.002091635
22	0xbdcf9e82	-0.10137655
23	0x3d2c509e	0.04206907
24	0xbd37a46f	-0.04483455
25	0xbcae6a0c	-0.021290801
26	0x3bf1c9eb	0.007378807
27	0xbdcb414d	-0.099245645
28	0xbd25d494	-0.040485933
29	0x3d6db89f	0.058037397
30	0xbd1a7451	-0.037708584
31	0xbce43c99	-0.027860926
32	0xbd0e2f86	-0.03471329
33	0x3da03def	0.07824313
34	0xbe04d88c	-0.12973231
35	0x3c9d9a46	0.019238602
36	0x3df5527c	0.11978623
37	0xbcb7dbf4	-0.022443749
38	0xbd0bf99c	-0.034173593
39	0xbe3a90ae	-0.18219253
40	0x3d410b47	0.047129896
41	0xbc4d8c3c	-0.0125456415
42	0x3cddbbe1	0.027067127
43	0x3cd6faef	0.026242701
44	0x3cb6a979	0.022297608
45	0xbd619d66	-0.055081747
46	0xbdeb3a8a	-0.11485775
47	0xbd5228be	-0.051308386
48	0x3b6507b2	0.0034947214
49	0xbac0295b	-0.0014660762
50	0x3d73fd52	0.059567757
51	0xbda19192	-0.078890935
52	0x3a897f9d	0.0010490302
53	0xbe1824b6	-0.14857754
54	0xbde2b81a	-0.11070271
55	0xbcecf99e	-0.02892762
56	0xbda410a9	-0.0801099
57	0xbc74014f	-0.01489289
58	0xbe36263c	-0.17788023
59	0xbcf66e4e	-0.030081894
60	0x3dde0241	0.10840274
61	0x3ccca989	0.024983184
62	0xbd3ed2b8	-0.046587676
63	0x3cb3a981	0.021931412
64	0x3d687818	0.056755155
65	0xbdaea191	-0.0852691
66	0xbdb2b092	-0.08725084
67	0x3d381d4a	0.044949807
68	0x3dc4ce27	0.09609633
69	0xbc736a9a	-0.014856959
70	0xbd18ec80	-0.03733492
71	0x3d44dbb6	0.048061095
72	0x3dcf7362	0.101294294
73	0x3d708241	0.05871797
74	0xbe1ad683	-0.15120892
75	0x3d8e88ab	0.06959661
76	0xbdc4d76c	-0.09611401
77	0xbe094d8c	-0.13408488
78	0x3d15b02f	0.036544975
79	0xbd288da4	-0.041150704
80	0x3cddd50c	0.027079128
81	0xbd869bd5	-0.06572691
82	0x3d3ab291	0.04558045
83	0x3d054df6	0.032545052
84	0x3cdedcad	0.027204836
85	0x3e0c6036	0.13708577
86	0x3b95f0d1	0.0045758267
87	0xbe50bc98	-0.20384443
88	0xbddfe1df	-0.10931753
89	0x3e16abb4	0.14713937
90	0x3dd5a836	0.10432474
91	0xbd37b523	-0.04485048
92	0xbdbfaea4	-0.09359482
93	0xbd3f3d73	-0.046689462
94	0xbd1adfe8	-0.03781119
95	0x3d94b5a9	0.072612114
96	0x3d592a72	0.053018995
97	0xba25f159	-0.0006330214
98	0x3c0e669a	0.008691454
99	0x3c47d54f	0.012196853
100	0x3aebb929	0.0017984259
101	0xbc98af6b	-0.018638333
102	0x3df72d2e	0.12069164
103	0x3dce5798	0.10075301
104	0x3d9418d5	0.07231299
105	0xbd80d05c	-0.062897414
106	0xbd0b9b82	-0.03408385
107	0x3e23e005	0.16003425
108	0x3e2cfbca	0.16892925
109	0x3d9ddd2c	0.07708201
110	0xbcdeba49	-0.027188437
111	0xbcacf922	-0.02111489
112	0x3d9b51f5	0.075839914
113	0x3c49dc95	0.012320657
114	0xbd3e9cbf	-0.046536203
115	0xbde14eb7	-0.11001342
116	0x3d43d71e	0.047812574
117	0xbd935dd1	-0.071956284
118	0xbc147ac7	-0.0090624755
119	0x3d692fc0	0.056930304
120	0xbcc499bc	-0.023999088
121	0x3ce3e275	0.027817944
122	0x3e2c8d77	0.1685084
123	0x3d3719a6	0.044702195
124	0x3d28f6a2	0.041250832
125	0xbcdb5c44	-0.026777394
126	0xbd9f2647	-0.07770973
127	0x3c65d2a9	0.014027276
128	0x3dd9d713	0.10636725
129	0xbc6054a7	-0.013692058
130	0xbe1728f3	-0.14761715
131	0x3dc72688	0.09724146
132	0xbd3001a6	-0.042970322
133	0x3db180c7	0.086671405
134	0x3c84ac80	0.016195536
135	0xbd37d8e5	-0.04488458
136	0x3d36a2b8	0.044588774
137	0xbe0b8848	-0.13626206
138	0x3e17b3c9	0.14814676
139	0xbd57bc08	-0.052669555
140	0xbc7fac7a	-0.015605086
141	0x3e347e3f	0.17626284
142	0xbe158878	-0.1460284
143	0xbe0af11c	-0.13568538
144	0xb9c935c3	-0.00038377763
145	0xbcdafc36	-0.026731592
146	0xbe17437f	-0.14771841
147	0x3dc390c4	0.09549096
148	0xbe299131	-0.16559292
149	0x3dfadce4	0.12249163
150	0x3d87f655	0.06638781
151	0xbd8ce7b7	-0.068801336
152	0x3da5df00	0.080991745
153	0xbe2203d8	-0.15821779
154	0x3de946cf	0.11390459
155	0x3dc396bc	0.09550235
156	0xbdcb34a1	-0.099221475
157	0xbd193b33	-0.037409972
158	0x3dcd0588	0.100108206
159	0xbd1e6101	-0.03866673
160	0x3dec7dd3	0.115474366
161	0x3cbbf7b1	0.022945257
162	0x3d455292	0.04817445
163	0xbbd573bb	-0.0065140403
164	0xbd0fd245	-0.035112638
165	0x3e0feb17	0.14054523
166	0xbdd111bc	-0.10208461
167	0x3ae02e62	0.0017103667
168	0x3e27dce9	0.16392864
169	0xbd0a2130	-0.033723056
170	0x3dbcdf6a	0.092223
171	0x3d0347fd	0.032051075
172	0xbdad4b3d	-0.08461616
173	0xbc864462	-0.01639003
174	0xbb7aa60d	-0.0038245947
175	0xbc5757fe	-0.013143538
176	0xbce6a42c	-0.028154455
177	0x3d5a9690	0.053366244
178	0x3e2c2627	0.16811429
179	0xbd4eac5d	-0.050457347
180	0x3d1f139c	0.03883706
181	0xbd0f252c	-0.03494756
182	0xbd87ec1a	-0.0663683
183	0x3d9fcdbf	0.07802915
184	0xbdf49c28	-0.11943847
185	0xbd332973	-0.0437407
186	0x3d6a57db	0.05721269
187	0x3dd8bd85	0.10583023
188	0x3e0c6592	0.13710621
189	0xbdb99147	-0.090609126
190	0xbe0b4cfc	-0.13603586
191	0xbe01f73e	-0.12691972
192	0xbc97f53c	-0.018549554
193	0x3ce3068f	0.027713088
194	0xbd4a142d	-0.049335647
195	0x3db3d648	0.08781105
196	0x3ce6a396	0.028154176
197	0x3d170e37	0.03687879
198	0x3c9bd125	0.019020626
199	0xbd7bc991	-0.061471526
200	0xbd218e80	-0.03944254
201	0xbe50713d	-0.20355697
202	0xba0f9220	-0.00054767914
203	0x3d8dc919	0.06923122
204	0xbd31b100	-0.04338169
205	0x3d2612c4	0.04054524
206	0xbdd4c43c	-0.10388991
207	0xbe2152c0	-0.15754223
208	0xbcb937d3	-0.022609627
209	0xbde36907	-0.11104017
210	0xbd775fe0	-0.060394168
211	0x3e542412	0.20716885
212	0x3c426cc0	0.011866748
213	0x3e6e07c8	0.23245156
214	0x3e38389a	0.17990342
215	0xbdc7fcf5	-0.097650446
216	0xbdb2fd36	-0.087397024
217	0xbca61d89	-0.020277755
218	0x3bcc5842	0.006236107
219	0x3d46207d	0.048370827
220	0xbde443bf	-0.11145734
221	0x3c5ff10a	0.013668308
222	0xbdc9440e	-0.098274335
223	0xbce91fe3	-0.028457588
224	0x3e105158	0.1409353
225	0x3d8524f9	0.065011926
226	0xbd9f5d7f	-0.07781505
227	0x3da31c86	0.07964425
228	0x3e1e0546	0.15431699
229	0x3d101769	0.035178576
230	0xbd3c0f2d	-0.04591291
231	0xbd5e5beb	-0.05428688
232	0x3d7fc0d7	0.062439766
233	0x3d8adfe4	0.06780985
234	0x3bb24bb3	0.005441153
235	0xbdbf5efb	-0.09344288
236	0xbb887058	-0.004163783
237	0x3ce54e16	0.027991336
238	0x3db18ae2	0.08669068
239	0xbcfcee1c	-0.030875258
240	0xbd63424b	-0.055483144
241	0xbe0e4bec	-0.1389615
242	0x3e2117af	0.15731691
243	0xba3e7541	-0.0007265397
244	0xbdc6e683	-0.09711935
245	0xbe6172b6	-0.22016415
246	0x3b07a370	0.0020696782
247	0xbe229373	-0.1587656
248	0xbdbfafcc	-0.093597025
249	0xbceff3cd	-0.029291058
250	0x3d765535	0.060139854
251	0x3d63ca3d	0.05561279
252	0x3c79f18b	0.015255342
253	0x3e0e3075	0.13885672
254	0xbd9e5d4c	-0.07732639
255	0xbda40ccb	-0.080102526

action_model._continuous_distribution.log_sigma f4 [1, 20]
0	0x00000000	0.0
1	0x00000000	0.0
2	0x00000000	0.0
3	0x00000000	0.0
4	0x00000000	0.0
5	0x00000000	0.0
6	0x00000000	0.0
7	0x00000000	0.0
8	0x00000000	0.0
9	0x00000000	0.0
10	0x00000000	0.0
11	0x00000000	0.0
12	0x00000000	0.0
13	0x00000000	0.0
14	0x00000000	0.0
15	0x00000000	0.0
16	0x00000000	0.0
17	0x00000000	0.0
18	0x00000000	0.0
19	0x00000000	0.0

action_model._continuous_distribution.mu.weight f4 [20, 128]
0	0x3bfd946f	0.007738642
1	0x3cce2e1d	0.025168473
2	0x3c8ee6d3	0.01744405
3	0x3c8e09c8	0.017338648
4	0xbc0bb438	-0.008526854
5	0xbba86fd8	-0.005140286
6	0x3a42dbfd	0.00074332935
7	0x3bb27b9f	0.0054468657
8	0x3cb039b7	0.021511896
9	0xbc244877	-0.010027043
10	0xbc639e60	-0.01389274
11	0x3c6c945f	0.014439671
12	0x3d3932e4	0.04521455
13	0x3cbc9157	0.023018522
14	0x3cbdef69	0.023185449
15	0xbc633ae7	-0.013869024
16	0x3cf6a01a	0.03010564
17	0x3b46f840	0.003036037
18	0xbc303d4c	-0.010756802
19	0x3b4256ad	0.0029653714
20	0x3c871da9	0.016493635
21	0x3d169f8e	0.036773257
22	0xbc8bdcf7	-0.017073138
23	0xbb881ed4	-0.0041540656
24	0xbcdb0d67	-0.02673979
25	0x3b69eb68	0.0035693292
26	0xbd18efb6	-0.03733798
27	0x3a8b17f8	0.0010612002
28	0x3caa864c	0.02081599
29	0x3c8f7647	0.017512454
30	0xbbf7cb90	-0.0075621083
31	0xbc23344c	-0.009961199
32	0x3c364133	0.011123943
33	0xbcec4545	-0.028841624
34	0x3c2eac86	0.01066125
35	0xbc24ef13	-0.010066765
36	0x3b4b9395	0.0031063308
37	0xbc658a90	-0.014010087
38	0xbbd2a170	-0.0064279363
39	0xbc67f84f	-0.0141583225
40	0xbc483466	-0.012219524
41	0x3d09c4e7	0.033635046
42	0x3ac75270	0.0015207063
43	0x38b188ac	8.465475e-05
44	0xbc064320	-0.008194715
45	0xbc19cff4	-0.009387959
46	0x3abe2fd3	0.0014510102
47	0xbccd94e3	-0.025095409
48	0xbc1efadf	-0.009703367
49	0xbc0fe631	-0.008782909
50	0x3c7913b2	0.01520245
51	0xbc7d4ae8	-0.015459754
52	0x3ca3d129	0.019997196
53	0xbbf0f5b8	-0.0073535107
54	0xbc1d74ed	-0.009610397
55	0xbccd733f	-0.025079368
56	0x3c4f025f	0.012634843
57	0xbbc5e0e7	-0.0060387733
58	0x3c7f3d55	0.015578588
59	0xbbc95dcb	-0.006145214
60	0x3af7b7eb	0.0018899416
61	0xbbf02557	-0.00732867
62	0xbc6f97a2	-0.014623554
63	0x3bb35cbf	0.0054737027
64	0x3be07d8f	0.0068509053
65	0x3d0302a3	0.031984936
66	0xbb28bf67	-0.002574885
67	0x3c420d3a	0.011843974
68	0x3c193b83	0.009352568
69	0xbc27188a	-0.010198722
70	0xba22041f	-0.00061804237
71	0x3c8a25e3	0.016863769
72	0xbbdd4ccd	-0.00675354
73	0x3bdc88ff	0.0067301984
74	0xb984fd83	-0.00025365883
75	0xbc209733	-0.009801674
76	0xbc13428d	-0.008988035
77	0xbcc95517	-0.024576707
78	0xbc8a99f5	-0.016919116
79	0xbccd7d02	-0.025084022
80	0xba1146fc	-0.00055418885
81	0xbbbf9e6c	-0.005847743
82	0x3c0317ef	0.008001312
83	0x3c45f20f	0.012081637
84	0xbc2c8e1f	-0.010531931
85	0xbb8ca7d6	-0.0042924685
86	0xbc698a17	-0.014254115
87	0x3c0b0465	0.008484934
88	0x3c598f9f	0.013278871
89	0xbcd216c5	-0.025645623
90	0x3ce946da	0.028476167
91	0x3beefc1d	0.007293238
92	0xbb366a59	-0.0027834384
93	0x3b77df0b	0.0037822153
94	0xbb70a4a7	-0.0036719234
95	0xbb07783c	-0.002067103
96	0xbcaca6ef	-0.021075694
97	0xbce871ff	-0.02837467
98	0xbc362386	-0.011116868
99	0x3c0bc8b8	0.008531742
100	0x3c396a4b	0.011316846
101	0xbb8f4a0a	-0.00437284
102	0xbb533bc8	-0.0032231677
103	0xbac2d500	-0.0014864504
104	0x3c6abd20	0.0143273175
105	0x3c9745be	0.018465873
106	0x3cd4202a	0.025894243
107	0xbc71c573	-0.014756548
108	0xbc843b4a	-0.016141552
109	0xbbcfe995	-0.006344984
110	0x3ca2f376	0.019891482
111	0x3cdd895f	0.027043043
112	0xbc8a71f3	-0.016900038
113	0xbc38100c	-0.011234295
114	0xbce2d6a5	-0.027690241
115	0x3b82c97e	0.003991305
116	0x3c56bbaa	0.013106266
117	0xbc97b322	-0.018518034
118	0xba5a3767	-0.00083242956
119	0x3c90d031	0.017677398
120	0x3d05e8d6	0.032692753
121	0xbbcbabcb	-0.0062155477
122	0xbccd8bcf	-0.02509108
123	0x3cff4b8b	0.031163951
124	0xbc0999f9	-0.008398526
125	0xbd00c039	-0.031433318
126	0xbbb68833	-0.0055704354
127	0xba6cfab3	-0.00090400426
128	0xbc25e234	-0.010124732
129	0xbca7a864	-0.020466037
130	0x3bc46ee5	0.005994665
131	0xbcac4b5e	-0.021032032
132	0x3ccf4240	0.025300145
133	0xba8b20da	-0.0010614649
134	0xbd246817	-0.04013833
135	0xbbf596ab	-0.0074947677
136	0x3ce208ea	0.027592141
137	0x3c89c66b	0.016818246
138	0xbcb4b105	-0.022057066
139	0xbc75f29b	-0.015011455
140	0x3a02c730	0.00049887877
141	0x3ccd586b	0.025066575
142	0xba605c73	-0.0008558698
143	0xbc0a4177	-0.00843846
144	0x3d71c1ff	0.0590229
145	0xbd231a57	-0.03982004
146	0x3ab75af7	0.0013988902
147	0xbb918cd2	-0.004441836
148	0xbbaafb07	-0.005217913
149	0xbc638e4b	-0.013888906
150	0x3c70520d	0.014668
151	0x3c92b2ff	0.017907618
152	0xbb5d0bea	-0.0033729025
153	0x3c02c3de	0.007981269
154	0x3b0b46de	0.0021251957
155	0xbb2b300b	-0.0026121165
156	0x3c813c7f	0.015775917
157	0x3c8be49b	0.017076781
158	0xbcd54990	-0.026036054
159	0x3c82a85e	0.015949424
160	0xbca09e75	-0.019606808
161	0xbbde301b	-0.006780637
162	0x38302f2f	4.2005613e-05
163	0xbcf73ea7	-0.030181242
164	0x3a85c50a	0.0010205817
165	0xbd09d2f1	-0.033648435
166	0x3c1a28fb	0.009409185
167	0x3c1ea578	0.0096830055
168	0x3cd17d3a	0.025572408
169	0x3be8e3b8	0.0071072243
170	0xbcf03fab	-0.029327234
171	0x3c9c1ff7	0.01905821
172	0xbca0542f	-0.019571392
173	0x3b0681a5	0.0020524052
174	0x3c599fc5	0.013282721
175	0x38dcfbbb	0.00010537306
176	0xbbb192fa	-0.0054191323
177	0x3b9c25cb	0.0047652475
178	0x3c2a935c	0.01041111
179	0x3aab823f	0.0013085081
180	0xbc469751	-0.012121038
181	0xbb8158e7	-0.0039473656
182	0x3b873643	0.0041263415
183	0xbbdf89e0	-0.006821856
184	0xbc1bd58f	-0.009511366
185	0xbc88505f	-0.016639886
186	0x3c6f461d	0.014604119
187	0xbc5ca0d5	-0.01346608
188	0x3c323e8a	0.010879168
189	0x3d0bbf1b	0.0341178
190	0x3c8e3ecf	0.017363934
191	0xbc816607	-0.01579572
192	0x3c3529ea	0.011057356
193	0xbcf77faf	-0.030212251
194	0x3c26103c	0.0101357065
195	0x39dc45c0	0.00042013638
196	0xbcd8256f	-0.026385037
197	0x3bd46ec3	0.0064829304
198	0xbcecef5f	-0.028922735
199	0x3d1d5627	0.03841224
200	0x3c4719af	0.01215212
201	0x3c915ddb	0.01774495
202	0x3c804f5b	0.01566284
203	0x3b89566e	0.0041912114
204	0xbcaf168f	-0.021373061
205	0x3bbb0f50	0.0057086125
206	0xbbb50efe	-0.005525469
207	0xbbeb2f07	-0.007177237
208	0xbc7a7fe7	-0.015289283
209	0x3cb338c6	0.021877658
210	0xba17796f	-0.0005778288
211	0x3ca10a31	0.01965818
212	0x3d339b47	0.043849256
213	0xbc2bb6f1	-0.010480628
214	0x3c929e20	0.017897666
215	0xbbcb5b3c	-0.0062059443
216	0x3c94d460	0.018167675
217	0x3a3550a5	0.0006916619
218	0xbc5551ab	-0.013019959
219	0xbb0c797a	-0.002143471
220	0x3cf0f5eb	0.029414138
221	0xbcb8b447	-0.0225469
222	0xbc3caaa1	-0.0115152905
223	0x3c458d5a	0.012057627
224	0x3cb01926	0.021496367
225	0x3d1e35bf	0.038625475
226	0xbc5504fa	-0.013001675
227	0xb7cd6560	-2.448511e-05
228	0xbca54057	-0.020172281
229	0xbafd76aa	-0.0019337733
230	0xbbd652fb	-0.0065406538
231	0x3be2d045	0.0069218003
232	0xbd0bdf85	-0.03414871
233	0xbb2b5df2	-0.0026148525
234	0x3bb2576a	0.0054425495
235	0x3cca5956	0.024700802
236	0x3c3a0a37	0.0113549745
237	0x3ca931c3	0.020653611
238	0xbc11ecb7	-0.008906535
239	0xbc6903a0	-0.014222056
240	0xbc941d05	-0.018080244
241	0xbaadac93	-0.0013250284
242	0x3c5d6dcd	0.013514948
243	0x3b913d97	0.004432391
244	0xbcd63b0b	-0.0261512
245	0xbcb0876c	-0.02154895
246	0xbb5dd1c0	-0.0033846945
247	0xbc439f98	-0.011939906
248	0x3b4ac47b	0.0030939865
249	0x3cc9bfcd	0.02462759
250	0x3ca13e7d	0.019683117
251	0x3c88f745	0.01671947
252	0x3c263cea	0.010146359
253	0xbc911703	-0.017711168
254	0xbd0f4bde	-0.034984462
255	0x3d190747	0.037360456

action_model._continuous_distribution.mu.bias f4 [20]
0	0x00000000	0.0
1	0x00000000	0.0
2	0x00000000	0.0
3	0x00000000	0.0
4	0x00000000	0.0
5	0x00000000	0.0
6	0x00000000	0.0
7	0x00000000	0.0
8	0x00000000	0.0
9	0x00000000	0.0
10	0x00000000	0.0
11	0x00000000	0.0
12	0x00000000	0.0
13	0x00000000	0.0
14	0x00000000	0.0
15	0x00000000	0.0
16	0x00000000	0.0
17	0x00000000	0.0
18	0x00000000	0.0
19	0x00000000	0.0

onnx::Div_61 f4 [126]
0	0x3f800000	1.0
1	0x3f800000	1.0
2	0x3f800000	1.0
3	0x3f800000	1.0
4	0x3f800000	1.0
5	0x3f800000	1.0
6	0x3f800000	1.0
7	0x3f800000	1.0
8	0x3f800000	1.0
9	0x3f800000	1.0
10	0x3f800000	1.0
11	0x3f800000	1.0
12	0x3f800000	1.0
13	0x3f800000	1.0
14	0x3f800000	1.0
15	0x3f800000	1.0
16	0x3f800000	1.0
17	0x3f800000	1.0
18	0x3f800000	1.0
19	0x3f800000	1.0
20	0x3f800000	1.0
21	0x3f800000	1.0
22	0x3f800000	1.0
23	0x3f800000	1.0
24	0x3f800000	1.0
25	0x3f800000	1.0
26	0x3f800000	1.0
27	0x3f800000	1.0
28	0x3f800000	1.0
29	0x3f800000	1.0
30	0x3f800000	1.0
31	0x3f800000	1.0
32	0x3f800000	1.0
33	0x3f800000	1.0
34	0x3f800000	1.0
35	0x3f800000	1.0
36	0x3f800000	1.0
37	0x3f800000	1.0
38	0x3f800000	1.0
39	0x3f800000	1.0
40	0x3f800000	1.0
41	0x3f800000	1.0
42	0x3f800000	1.0
43	0x3f800000	1.0
44	0x3f800000	1.0
45	0x3f800000	1.0
46	0x3f800000	1.0
47	0x3f800000	1.0
48	0x3f800000	1.0
49	0x3f800000	1.0
50	0x3f800000	1.0
51	0x3f800000	1.0
52	0x3f800000	1.0
53	0x3f800000	1.0
54	0x3f800000	1.0
55	0x3f800000	1.0
56	0x3f800000	1.0
57	0x3f800000	1.0
58	0x3f800000	1.0
59	0x3f800000	1.0
60	0x3f800000	1.0
61	0x3f800000	1.0
62	0x3f800000	1.0
63	0x3f800000	1.0
64	0x3f800000	1.0
65	0x3f800000	1.0
66	0x3f800000	1.0
67	0x3f800000	1.0
68	0x3f800000	1.0
69	0x3f800000	1.0
70	0x3f800000	1.0
71	0x3f800000	1.0
72	0x3f800000	1.0
73	0x3f800000	1.0
74	0x3f800000	1.0
75	0x3f800000	1.0
76	0x3f800000	1.0
77	0x3f800000	1.0
78	0x3f800000	1.0
79	0x3f800000	1.0
80	0x3f800000	1.0
81	0x3f800000	1.0
82	0x3f800000	1.0
83	0x3f800000	1.0
84	0x3f800000	1.0
85	0x3f800000	1.0
86	0x3f800000	1.0
87	0x3f800000	1.0
88	0x3f800000	1.0
89	0x3f800000	1.0
90	0x3f800000	1.0
91	0x3f800000	1.0
92	0x3f800000	1.0
93	0x3f800000	1.0
94	0x3f800000	1.0
95	0x3f800000	1.0
96	0x3f800000	1.0
97	0x3f800000	1.0
98	0x3f800000	1.0
99	0x3f800000	1.0
100	0x3f800000	1.0
101	0x3f800000	1.0
102	0x3f800000	1.0
103	0x3f800000	1.0
104	0x3f800000	1.0
105	0x3f800000	1.0
106	0x3f800000	1.0
107	0x3f800000	1.0
108	0x3f800000	1.0
109	0x3f800000	1.0
110	0x3f800000	1.0
111	0x3f800000	1.0
112	0x3f800000	1.0
113	0x3f800000	1.0
114	0x3f800000	1.0
115	0x3f800000	1.0
116	0x3f800000	1.0
117	0x3f800000	1.0
118	0x3f800000	1.0
119	0x3f800000	1.0
120	0x3f800000	1.0
121	0x3f800000	1.0
122	0x3f800000	1.0
123	0x3f800000	1.0
124	0x3f800000	1.0
125	0x3f800000	1.0

onnx::Div_64 f4 [28]
0	0x3f800000	1.0
1	0x3f800000	1.0
2	0x3f800000	1.0
3	0x3f800000	1.0
4	0x3f800000	1.0
5	0x3f800000	1.0
6	0x3f800000	1.0
7	0x3f800000	1.0
8	0x3f800000	1.0
9	0x3f800000	1.0
10	0x3f800000	1.0
11	0x3f800000	1.0
12	0x3f800000	1.0
13	0x3f800000	1.0
14	0x3f800000	1.0
15	0x3f800000	1.0
16	0x3f800000	1.0
17	0x3f800000	1.0
18	0x3f800000	1.0
19	0x3f800000	1.0
20	0x3f800000	1.0
21	0x3f800000	1.0
22	0x3f800000	1.0
23	0x3f800000	1.0
24	0x3f800000	1.0
25	0x3f800000	1.0
26	0x3f800000	1.0
27	0x3f800000	1.0
