results/RLEnv2/Crawler/Crawler-1499964.onnx (onnx, 180794 bytes, 7 tensors)

network_body._body_endoder.seq_layers.0.weight f4 [128, 194]
00000000: e948 733e 0d17 50ba 9b6e 163d 46c6 33ba
00000010: 9bfd 9abd e27b a73a e430 193e c49c 053d
00000020: 4749 383e 3cb6 7ebc 3ca8 493c b2dc d53d
00000030: 2d43 3a3d c7ee 8e3c 9697 2a3d 6936 f7bc
00000040: 31e5 3ebd a060 ef3c 603f da3d fa75 55bd
00000050: af28 55bd 7c8a 92bd 012b 843d 34e1 bcbd
00000060: 455d d73c 14a7 0fbe 7d93 b13d f2e3 9c3d
00000070: b85f ff3c 3077 13bc b128 27bd d51f 8e3d
00000080: f3d2 31b9 edba 8e3c 4108 e4bc 30f0 a63d
00000090: 1edb 2a3c a90c 30bc f708 0a3d 9ef5 2b3c
000000a0: 66e5 9fbd 5026 ad3d e823 37bd 172d 12be
000000b0: 7233 94bd 2a44 173e 9f13 ee3b 6e8e e03b
000000c0: 7c4f 87bd dbd5 42bd 27e0 823d d6ad 463d
000000d0: e2c7 f3bb 76b0 a43d 98b9 113d c1ab c83c
000000e0: ce09 48bd 24da cdbd 2353 a3bb 3492 1dbc
000000f0: 5878 463c ef5e 3f3e fe51 87bc 0b69 283d
00000100: c20f 873d c3e2 f9bd d7df d8bd 0d50 8ebd
00000110: f2f7 7dbd d8bf 4cbd 9088 a9bd 19ad a638
00000120: cc60 c0b9 b2de 8bbd a59a 48be 41f5 5d3d
00000130: 50a5 22be c2d5 fe3b 0532 2dbe 2d92 923b
00000140: 2913 1d3c a537 ffbd 2425 083c 4eb7 d9bb
00000150: b534 e5bb ffbc cbb9 dc66 47be 98cb 54be
00000160: 466c 45bd cf10 aabd 8590 8d3c 1546 393d
00000170: e0a5 9cbc f6eb ebbd 6dec 0d3c c2f6 aa3c
00000180: 6db7 f338 45ac a9bc 5f4e fcbc 9942 963d
00000190: d997 6cbc 8367 2a3d c7ca fa3c ddad ddbc
000001a0: 7860 ee3d db7a 913c bf2d d6bd e0fd 4a3d
000001b0: 05fb 173d 8fa1 0b3d 9da8 62bd 92c7 dc3c
000001c0: e2a6 553d a9e4 c53d e3c6 14bd d14f fa3c
000001d0: 6ba4 1f3e fb3d 7ebd 58c2 85bd e8ea c9bd
000001e0: 15d8 a1bb 3520 973d 4ff5 be3c 75b1 fdbd
000001f0: 2333 523d 9f0c bc3d fe73 04bd 4ea5 2e3d
00000200: a476 983b 1996 e5bc ebc8 4dbc f4a8 5d3c
00000210: ce20 c1bd a781 cd3c 0a88 0e3d 21b5 9abd
00000220: cc0c 1a3d 5627 763d 9429 ddbc d34f fb3c
00000230: 1a88 54bd 7f75 76bd 9011 6dbe 7b77 bbbc
00000240: 58c2 80bd ebbf 77bb eb37 653b 34af 14be
00000250: ac14 74bd b56e 27bd 50b3 923d 2682 11be
00000260: 1798 0bbe 5308 93bb f0a8 a6bd aa70 c03c
00000270: 25bf 763d 93a4 313d b693 163b 7ad5 3d3d
00000280: af51 09be 0dd9 b03d d304 063e 11fa 6c3d
00000290: 777e aa3c 845a 48bd 540e efbd f486 6bbc
000002a0: 1f68 453d 8e69 ebbb bfc3 9dbb c045 f0bc
000002b0: a447 713d 728f e63d adf4 4f3d 9bee 6d3d
000002c0: a7b5 38bc 24ca 453d 0c30 2b3d b42a 2f3c
000002d0: 411b 77bd d205 253c 1155 aebc dbeb aa3c
000002e0: 084e 613c 5abb 2bbd ec05 cdbd 893b f4bc
000002f0: 4f0b 5a3c 2aa6 02bd 4675 e6bc 6eb2 27bc
00000300: 7acf 9b3d 0182 d83d 0b99 b1bc 8924 053e
00000310: d236 51bd 3382 b33d a878 38bb cf7d bebc
00000320: f82d 6dbd 357c a33c e05f 0f3e 39b7 96bd
00000330: 5217 64bd 28da 8c3c 7de2 233d 6e09 71bc
00000340: 8ebd 8b3d 0da2 e03c 0f1f 8b3c 3dde f63c
00000350: 4d53 adbd ece7 46b9 8c34 fc3c 18ab ccbd
00000360: 726d 423d 1f4e fdbd 961e 06bd 8c62 31bd
00000370: 8752 43bd cc16 07bb e633 c4bd fe7c 113e
00000380: 6798 3abd a835 313e 5e50 423d c747 28bc
00000390: 5ac8 093d baa5 e83d 06f7 86bd a676 953c
000003a0: c1e5 7e3b d59c 87bd 752a 8e3d da9c 273d
000003b0: c852 84bd a6a6 073e 7e04 5d3d e516 a23d
000003c0: 02cb d03c 84dc bc3c 01f6 7ebc 0721 28bd
000003d0: d644 a93d 5848 14be 4d89 cabc 72ec 81bd
000003e0: 0afc 933d b19d 75bc 7cda 4c3d b045 243e
000003f0: 3258 f93c 4d8d 9e3a f5ce 68bd 7d9c adbd
0.23758282 -0.0007938005 0.036726575 -0.0006857853 -0.07567903 0.0012778009 0.14960057 0.032620206
0.17996703 -0.015546378 0.012308177 0.10442485 0.04547422 0.017447842 0.04164847 -0.030177312
-0.046605293 0.02922088 0.10656619 -0.052114464 -0.052040752 -0.0715532 0.06453515 -0.092226416
0.026289592 -0.14028579 0.08670709 0.076606646 0.031173572 -0.0090005845 -0.04081029 0.06939665
-0.0001695862 0.017423118 -0.027835967 0.08151281 0.010428218 -0.010745206 0.033699956 0.010495571
-0.07807426 0.08454573 -0.044711977 -0.14275013 -0.07236375 0.14772096 0.0072655226 0.0068529164
-0.06606957 -0.04756723 0.0639041 0.048505627 -0.0074395994 0.0804147 0.035577387 0.024495961
-0.048837475 -0.10051373 -0.004984276 -0.009617377 0.012113653 0.18688558 -0.01651859 0.0411158
0.065948024 -0.122014545 -0.10589569 -0.06948862 -0.062004037 -0.049987644 -0.08278 7.947739e-05
-0.00036693213 -0.06829585 -0.19590242 0.05418897 -0.15883374 0.0077769468 -0.16913612 0.004472992
0.009587088 -0.12461785 0.008309636 -0.006644166 -0.0069948086 -0.0003885999 -0.19472831 -0.2078079
-0.04819896 -0.08303987 0.017280826 0.04523285 -0.019122064 -0.11519615 0.008662325 0.020869616
0.00011621309 -0.020712027 -0.030799089 0.07336921 -0.0144405 0.041602623 0.03061427 -0.027060444
0.11639494 0.017758777 -0.10457944 0.04955852 0.037104625 0.03408962 -0.055336583 0.026950631
0.052161105 0.09662754 -0.036322486 0.030555638 0.15590064 -0.062070828 -0.06531209 -0.09859258
-0.004939089 0.0737919 0.023310332 -0.12387363 0.0513183 0.09182095 -0.03233718 0.042638116
0.004652815 -0.028025674 -0.01256011 0.013529051 -0.09430085 0.025086237 0.034797706 -0.07554079
0.03760986 0.060096107 -0.026997365 0.030677712 -0.05188761 -0.060170647 -0.23151231 -0.022884121
-0.06287068 -0.00378036 0.0034975957 -0.1451996 -0.059590027 -0.040877063 0.071631074 -0.14209804
-0.13632236 -0.0044870763 -0.08137691 0.023491222 0.060240883 0.04336984 0.0022976226 0.046346165
-0.13410066 0.08635149 0.13087778 0.05785567 0.020812256 -0.048914447 -0.11672655 -0.014375437
0.048195 -0.007184214 -0.0048145945 -0.029330134 0.058906212 0.11257829 0.05077045 0.05808888
-0.011273778 0.04828848 0.041793868 0.010691334 -0.060328726 0.010072188 -0.021280797 0.020864418
0.013751514 -0.04192672 -0.10010895 -0.029813545 0.01330836 -0.031896748 -0.028132092 -0.010235412
0.076079324 0.10571671 -0.021679422 0.13002218 -0.05107767 0.08765068 -0.0028148089 -0.02325335
-0.057905167 0.019956687 0.14001417 -0.07359166 -0.055686302 0.017193869 0.040010918 -0.014711721
0.06823264 0.027421022 0.016982583 0.030135268 -0.08463154 -0.00018969149 0.030786775 -0.09993571
0.047467656 -0.12368416 -0.032744013 -0.043306872 -0.047686126 -0.0020612953 -0.09580211 0.14207837
-0.0455555 0.17305624 0.047439925 -0.010271019 0.033638336 0.11359735 -0.06590085 0.018245053
0.0038894268 -0.0662171 0.06941692 0.04092107 -0.06461102 0.13247165 0.053959362 0.07914523
0.025487427 0.023054369 -0.015561582 -0.041047122 0.082650825 -0.14480722 -0.024723673 -0.063439265
0.07225807 -0.01499121 0.05001305 0.16042209 0.030437563 0.0012096554 -0.056837995 -0.084771134

network_body._body_endoder.seq_layers.0.bias f4 [128]
00000000: 3dda 9a3c 16e3 1cbb 18b1 2f3c c4f5 8dbc
00000010: b98e 943c 4735 24bd 82ea 5e3c 8b78 5a3a
00000020: f142 ab3c a4d5 8b3c c112 0d3c 4d78 d4bb
00000030: 603e be3c c6af 993c a58c 873c ea08 e73a
00000040: 3645 5dbb b705 903c b745 34bc 3b67 8a3c
00000050: 869f e93c 15ed 21ba c7c5 6a3b 28ac 413c
00000060: 93af 063c 17bb 903c 2de5 9d3a 3b0a 7f3c
00000070: 0375 603d 4edf f83b 3e9f 9a3c 02ee a03c
00000080: 4337 413c 287f af3c 47ed 993c 3dbd 183d
00000090: 284e 0a3c b6b2 c23c 2f63 9d3c 2569 c83c
000000a0: e1ae ae3c e362 943b bddc 3e3c 6fb1 73bc
000000b0: a0a4 913a 904b 033c 8be2 323c db79 0a3c
000000c0: e13b b93c a6b9 8238 9c86 8a3c ffbe 6dbc
000000d0: 15f3 ae3c c7f6 fd3c 913d f83c 910c 553c
000000e0: 8e73 523c 2362 2a3d 60e1 163c cfe3 1a3c
000000f0: e8c8 d73b c576 2a3b f66e 2b3c 64e8 243c
00000100: f30b e63c 0871 133d d31d a43c 2368 09ba
00000110: 4b06 603c de71 743c 4bf1 da3c 1ab3 8a3c
00000120: 6310 17bc 80b4 f9bc c52b fe3c 4e13 b23c
00000130: c35f 3bbd 09a2 a83c 3c4c 0c3c 6e47 02bc
00000140: a09e e73c b718 373d c6d0 343c 058b 153d
00000150: 135d ec3c 661e b83c b1af 3d3c 64b7 d63c
00000160: 8467 5b3d 1d3a e5ba 1ee1 a53c 2e1a 28bd
00000170: 7b50 61bb a25d 933c 9b66 0ebd 0843 993c
00000180: 6af3 ee3c 4531 95ba ee46 423d f873 84bc
00000190: 73f6 19bd fa2c 2b3c 8426 0d3b c913 00bc
000001a0: cbe2 ad3c a41c 5c3c d9d5 9b3c 894e 9d3c
000001b0: d394 c63c 85da 78bc f453 bdbc 344f ac3c
000001c0: 8289 b23b ad0f 47bb 74cd 773c 1c50 1bbd
000001d0: 79c4 b93c 7ae5 8d3c 5b60 c73c c97b ef3c
000001e0: bf02 233d 9956 2a3c 9ccd 403c c376 f53c
000001f0: 9c98 9ebc 5cdb 853c c3ff b73c 40e0 3d3c
0.018902892 -0.0023939065 0.010723375 -0.017329104 0.018134462 -0.04008987 0.013605716 0.00083340023
0.020905944 0.017069645 0.008610428 -0.0064840675 0.023223102 0.018760573 0.016546557 0.0017626558
-0.0033763177 0.01758085 -0.011002949 0.016894927 0.02851845 -0.00061769906 0.003582345 0.01182083
0.008220571 0.017667336 0.0012046449 0.015566404 0.05479909 0.0075949794 0.01887476 0.019644741
0.011792961 0.021422938 0.0187899 0.037289847 0.008441485 0.023766857 0.019212333 0.0244642
0.021323623 0.00452839 0.011649308 -0.014873846 0.0011111684 0.008013621 0.01091827 0.008451904
0.02261156 6.233463e-05 0.01690989 -0.014510869 0.021356145 0.031001462 0.030302795 0.013003484
0.012844933 0.041597497 0.009209007 0.009453728 0.006585229 0.0026010734 0.010463467 0.010065172
0.02808187 0.035996467 0.020033753 -0.0005241653 0.013673375 0.014919726 0.026726386 0.016931105
-0.0092202155 -0.030481577 0.03102673 0.02173772 -0.045745622 0.020585077 0.008563098 -0.0079516005
0.02827388 0.044701304 0.011036104 0.036509532 0.028852975 0.022475433 0.011577533 0.026210494
0.053565517 -0.0017488633 0.020248946 -0.041040592 -0.0034380245 0.017988984 -0.03476582 0.01870872
0.029168803 -0.0011382481 0.047430925 -0.01616858 -0.037588548 0.010447735 0.002153785 -0.007817217
0.021226307 0.013434563 0.019022869 0.019202488 0.024240887 -0.015188818 -0.023111321 0.02103386
0.005448521 -0.0030374334 0.015124667 -0.037918195 0.022676693 0.017321337 0.024337938 0.02923383
0.03979754 0.010396623 0.011767771 0.029963857 -0.01935988 0.01633995 0.022460824 0.01158911

network_body._body_endoder.seq_layers.2.weight f4 [128, 128]
00000000: e6ca 133d ef8a 8d3d 1019 013e 9455 d23d
00000010: 3a49 2f3d 2463 39bd 285f b9bd 32b6 123e
00000020: 7bd8 3f3d 2e12 003e 3971 31bd 6eb3 3b3d
00000030: bdb4 69bd 866a 953d 2174 b23c a17f 56be
00000040: 8a2a cdbd 3e84 4dbd 04f3 183e 3a3f 13bc
00000050: 4c05 6ebc 947c 51bd 2ecb 0a3d af9e e9bc
00000060: 9d60 a8bd 85ed e9bc afb8 5ebd 9cba 003e
00000070: c4bd 96bd 3e77 0cbe 41e5 fcbc 0878 a23b
00000080: bddc 0e3d 2eea b0bb 7cbc e9bd de21 5abd
00000090: bfb0 84bd 0d48 9abd cfeb a5bd 6e33 823c
000000a0: da43 d5bc f377 023e 70e0 743d 3303 443c
000000b0: 6d50 b8bd 63fb 8b3d 1df3 98bd de29 febb
000000c0: 6f25 cdbd 4200 89bd 8c0f 563c b4ce 3b3e
000000d0: 22cb 213e e14a 163e 736f bf3d 0cb6 d83d
000000e0: 60f6 b2bc 77da 8abd d577 053c 86bd 0e3a
000000f0: 830b eebd 5d2a 9e3b e41f 7c3d d63a ee3d
00000100: 999a d43c 8bb9 763a 4df4 f8bd 7116 eabc
00000110: 9956 883c 2004 fdbc 491e 0a3e 558b 8cbd
00000120: 7503 41bd 1dd0 abbc 6c0d 86bc f03b 29bd
00000130: 95c5 d0bd 21c9 033d d211 6abd 2fdc 99bd
00000140: a12e 363e 9cad 053e 20a0 633d 9630 3e3d
00000150: 3501 4e3e 7dd3 443e 9207 0c3d eb84 c83d
00000160: 97a9 9e3d 9ecd 6f3d 4912 cdbc 537d 7ebe
00000170: d302 103e eea3 86bc d921 e9bc bd6f c6bd
00000180: fccd 5f3d eafe ba3d 53dd 9ebd 72d8 d23d
00000190: cea7 bf3b a24c 223e 9bb0 783d b567 4bbe
000001a0: 67de 47bb c2ea c9bc e245 953d 5026 2cbe
000001b0: 360a 05bd e54b a5bd 0666 9bbb d786 0d3d
000001c0: 9976 ca3c 3ec5 0bbd 6960 463d d0bf 1c3d
000001d0: 5e58 ccbb c5e0 e3bc 9ed3 1f3d 1a71 f43d
000001e0: 21af cfbc 702f 1fbd 23c7 07bc 673c c63c
000001f0: 2d85 e8bd d08e e4bc ee44 6b3d d253 393e
00000200: c862 c8bc 4479 f0bc 6f4f 593e 8489 b13a
00000210: ca8a 85bd 6b5d e6bd f53d 7fbd f857 813d
00000220: 638e 38bc f459 103e 7b8e f6bc 5356 8d3d
00000230: 9162 e1ba 1008 26be 1abd f7bd d009 8a3d
00000240: 6bc7 d63d 07bf d63d 1fc5 febd e9db bdbc
00000250: 2682 89bd de15 50bd a20e 923d 1258 dcbd
00000260: 380f dc3c 89ea e33d 6463 453c 37cc 87bc
00000270: 1dca 36bd f074 003e 9767 58bd 71da 00be
00000280: f702 6fbd 32e5 423d ef21 36be 65b3 9abd
00000290: aa0a ae3d ee1e 5f3d f934 8bbd 5972 303d
000002a0: f07a ad3d 61da e5bc d30f 4bbd 740d 3d3d
000002b0: e5b1 07be 0553 ae3c a5fe 0fbe 4ed3 de3d
000002c0: 2362 48be dcbb f9bd 225a 0d3e 30ed c43d
000002d0: cf63 3cbe b68b 2ebd 5dbc 20be 8fc0 5bbe
000002e0: b5cb 103d b2cd a73d 0cda 5cbd 9622 a23d
000002f0: 9fd3 dabb fe69 f6bd 4558 4dbc 6ff2 583d
00000300: 10b2 413d 6609 ad3d b068 0cbe 18e4 37bd
00000310: 5095 0ebc c5d5 0cbd 75ce 863d 6012 5cbc
00000320: dce3 39be cc4b 8ebc d15d e03d ca5b 26be
00000330: 545b 8fbd 5bc2 02be 0060 9abd a03f 22be
00000340: dada d33d f635 773e 4fd2 adbd 0e8e b3bd
00000350: 45fe d1bd 1834 66bc 24a4 b6bd 1dff df3c
00000360: 9659 c6bd acb0 d0bd 9cdf 0e3e ab86 96bd
00000370: 8908 e3bc de21 7cbd 0c25 8fbd 919b 913d
00000380: 4469 1a3e 1008 dabc 3769 cf3d fecf bb3d
00000390: 999d cd3d a02f 80bc cfa2 d23d 7451 843b
000003a0: 48c1 17be 508c 00bc 0b5f 5e3c e718 6dbb
000003b0: 2388 853d 3438 88bb 2afc 213e 2467 b73d
000003c0: 5274 f9bc 561c 143e cf47 203d d2b2 353d
000003d0: 1668 6cbd a949 35be f766 053d a234 933d
000003e0: eeb2 be3a 2cb2 bfbd 902d a9bb c92d 243c
000003f0: 8139 9f3d 9107 22bd ae63 95bd 193b 9d3d
0.03608217 0.06911265 0.12607217 0.10270229 0.042794444 -0.045260563 -0.09051353 0.14327314
0.04683731 0.12506935 -0.04332087 0.045825414 -0.05705713 0.07295708 0.02178389 -0.20947124
-0.10017879 -0.050174944 0.14936453 -0.008987242 -0.01452763 -0.051144198 0.033885173 -0.028518049
-0.082215525 -0.028555641 -0.054375347 0.12571186 -0.07360414 -0.13717362 -0.030871036 0.0049581565
0.03487848 -0.00539901 -0.11412904 -0.053254955 -0.06479024 -0.07533274 -0.081016175 0.015893664
-0.02603333 0.1274107 0.059784353 0.011963653 -0.08999715 0.068350576 -0.07468245 -0.007756456
-0.100169055 -0.06689502 0.01306523 0.1834057 0.15800145 0.14677002 0.09347429 0.10581598
-0.021845996 -0.0677995 0.008146246 0.00054451113 -0.116232894 0.0048268274 0.06155385 0.11632316
0.025952624 0.00094118033 -0.12155972 -0.028575154 0.016642855 -0.030885756 0.13488115 -0.06862513
-0.047122438 -0.02097326 -0.016363822 -0.041316926 -0.10193936 0.032174233 -0.0571459 -0.075127
0.17791225 0.13054508 0.05557263 0.046433054 0.20117648 0.19221301 0.034186907 0.09790977
0.077471904 0.0585457 -0.025033133 -0.24852495 0.14063577 -0.01643559 -0.028458523 -0.09689281
0.0546398 0.09130652 -0.07757058 0.1029519 0.0058488613 0.15849546 0.0607153 -0.1986378
-0.0030497552 -0.024648074 0.0728872 -0.1681149 -0.03248044 -0.08071116 -0.0047423868 0.03455242
0.024714755 -0.03412365 0.048431788 0.038268864 -0.00623612 -0.02781714 0.039020173 0.11935635
-0.025352063 -0.0388636 -0.008287224 0.024198724 -0.11353526 -0.02790013 0.057438783 0.18098381
-0.024461165 -0.029354699 0.21221708 0.0013545011 -0.065206125 -0.11248287 -0.062314946 0.06315607
-0.011264416 0.14096814 -0.030097237 0.06901231 -0.0017195513 -0.16214013 -0.12096615 0.06740153
0.10487255 0.10485654 -0.124399416 -0.02317615 -0.06714277 -0.050802104 0.07131697 -0.107589856
0.026862726 0.111287184 0.012047622 -0.01657687 -0.044626344 0.12544608 -0.052833166 -0.12583329
-0.058352437 0.04758186 -0.17786382 -0.07553748 0.08498128 0.054472856 -0.06797213 0.0430778
0.08470714 -0.028058233 -0.049575638 0.046155408 -0.13251455 0.021279821 -0.14061983 0.10880147
-0.19568686 -0.121940345 0.13803914 0.096155524 -0.18397449 -0.042613707 -0.15696855 -0.21460174
0.03535052 0.0819353 -0.053918883 0.07916753 -0.006678059 -0.12031935 -0.012533252 0.052965578
0.047288954 0.08449058 -0.1371181 -0.04489526 -0.008702591 -0.034383554 0.06582347 -0.013432115
-0.18153328 -0.017370127 0.10955394 -0.16245952 -0.06999841 -0.12769453 -0.07537842 -0.15844584
0.10344477 0.24141678 -0.08487379 -0.08767329 -0.10253576 -0.014050506 -0.08918026 0.027343327
-0.09685056 -0.101899475 0.13952488 -0.073499046 -0.02771403 -0.061555736 -0.06989488 0.0710975
0.15079218 -0.026615173 0.1012749 0.09170531 0.10039825 -0.01564771 0.102849595 0.0040380303
-0.14819825 -0.007845953 0.013572465 -0.0036178173 0.06520107 -0.0041570906 0.15818849 0.089552194
-0.030450974 0.14463934 0.039130982 0.04435999 -0.05771645 -0.1770388 0.032568898 0.07187773
0.0014549175 -0.093601555 -0.005162902 0.010020682 0.0777464 -0.039557997 -0.07294403 0.076772876

network_body._body_endoder.seq_layers.2.bias f4 [128]
00000000: 9205 a33c 6c32 f23b ae2f 81bc fdd9 21bc
00000010: f8ca e33a 198e 00bd d5c8 903c 20ee eebb
00000020: ba28 93bb 46e5 08bc 35d8 aa3c 278a 58bb
00000030: 7278 273d b853 1d3c bb3a f33c f091 9b3b
00000040: b29e ca3c 7bdb 7e3c f4e1 843c f699 293b
00000050: 3ae8 dd3c f371 773c 029d 943b 50d7 4ebc
00000060: b9f1 3cbc 41a1 0dbc 50a8 da3b d90c 7bbc
00000070: 4bfa e4bb 48ae 6a3b de3c 2cba 32c7 233a
00000080: 130c 13bd cf2a aebb 9811 e53c 89b3 d3bc
00000090: 9af2 92bb 780a b6bb 8938 a6bb dc18 a13c
000000a0: 0d4f 563a ea90 203c 5fbf 3b3b a3b4 803c
000000b0: c215 3cbd 54ae 7fbb f21a 00bd 2f88 a03c
000000c0: 9e9d a5bc 5dcb 62bc 3bdf ff3c 9876 be3c
000000d0: e2d8 123b e259 e93c c675 c0bb dfbd b93c
000000e0: bed0 2abd 5436 403b 058c 863c 5471 b93b
000000f0: 6242 e83c c298 bbbb a043 193d 95af cebc
00000100: d382 393d 5d03 dd3c de4d ae3c 3dd5 1dbc
00000110: 81f8 673c a4a7 d13c 38fe ed3a 9af9 983c
00000120: 4127 203c 3934 373c c00f b6bb b94d a13b
00000130: d66d db3c 148a 6b39 315e 0b3c 9be4 ed3c
00000140: 5654 04bc 8bec eaba a4d9 6f3c 2ddc 743c
00000150: 7498 1e3c 6cd8 1b3c 578e 503c bfe7 8f3c
00000160: 2422 f93b d7b6 07bd 9e68 cabc a978 ba3a
00000170: cf19 00bc 94ea 9c3c 1e8b 4f3c b214 8a3c
00000180: 1667 c53b 17e6 00bd 78fe 7cbc d4df 03bc
00000190: b1b0 013d e802 b23c 5c47 c0bc fa0a e23b
000001a0: aae4 273c ee69 093c 4bf7 6b3c c584 943b
000001b0: 44ab bc3c 310a c43c 6b50 9b3c 6c35 66bb
000001c0: 1e84 b33c 7365 ae3c dc3d 583d 51a8 42bc
000001d0: bea4 103d c4f9 e3bc d01a c23c 9aaf c13c
000001e0: cce8 74bc 500e b53c 8208 eabc dc5f aa3b
000001f0: 21fe f1bc e552 bd3c f863 2f3c 878a 4bbc
0.019900117 0.0073912647 -0.015769806 -0.009878633 0.0017379215 -0.031385515 0.01767389 -0.0072915703
-0.004490939 -0.008355444 0.020855049 -0.003304133 0.04088635 0.00960248 0.02969109 0.0047476217
0.024733875 0.015555258 0.016221024 0.0025879121 0.027088273 0.015102851 0.0045353184 -0.012624577
-0.011532241 -0.008644403 0.0066728964 -0.015322887 -0.006987845 0.0035809446 -0.0006570349 0.0006247639
-0.035900187 -0.005315162 0.02796249 -0.025842445 -0.0044844868 -0.005555447 -0.0050726575 0.019665174
0.00081752316 0.009800175 0.0028648002 0.015711134 -0.045919187 -0.003901382 -0.031275697 0.019596187
-0.02021676 -0.013842431 0.031234374 0.02324991 0.0022407104 0.028485242 -0.0058734147 0.022673545
-0.04170298 0.0029329257 0.016424188 0.0056592617 0.028351966 -0.0057249973 0.037418008 -0.025230208
0.04529078 0.026979143 0.021277364 -0.0096333595 0.014158369 0.025592633 0.0018157428 0.018673707
0.009774984 0.011181884 -0.0055560768 0.0049225953 0.026785772 0.00022462785 0.008506344 0.029039672
-0.008076748 -0.0017923279 0.014639292 0.014945072 0.009679902 0.009512048 0.012729249 0.01756656
0.007602947 -0.033133354 -0.024708088 0.0014226633 -0.007818653 0.019154824 0.0126674455 0.016855571
0.0060242517 -0.03146943 -0.015441529 -0.00804897 0.031662647 0.021729901 -0.023471527 0.006898281
0.010247389 0.008387072 0.014402221 0.004532429 0.023030885 0.02393064 0.018959245 -0.0035127057
0.021913584 0.02128861 0.05279337 -0.01188095 0.03531336 -0.027829058 0.023694426 0.023643304
-0.014948081 0.022101551 -0.02856851 0.0051994156 -0.029540123 0.023110816 0.010704987 -0.012423164

action_model._continuous_distribution.log_sigma f4 [1, 20]
00000000: b3e7 6bbc deaf 9bbd 8032 a1bd 2a4f 07bc
00000010: f5f0 5ebd 3791 4ebd 5f59 87bd 9e83 843c
00000020: ac71 043d 3223 58be 8083 233e 31c5 023e
00000030: 83c1 383b 73ee 943b 9ee0 05bd 4c58 05bd
00000040: e457 d83c 45e8 933d 306f 30bd 3392 c53c
-0.014398503 -0.076019034 -0.0787096 -0.00825862 -0.054429013 -0.050431456 -0.06608843 0.016176041
0.03233497 -0.21107176 0.15968132 0.12770535 0.0028191514 0.004545027 -0.032684915 -0.03255491
0.026409097 0.07222036 -0.043074787 0.024117565

action_model._continuous_distribution.mu.weight f4 [20, 128]
00000000: ecdb afbc 77d3 b73c bbcc 3ebd 66c3 b3ba
00000010: 1ae2 32bc 2b1f 62bd 4eb3 273c 1f75 41bd
00000020: 1d6c 6b3a a3ee b1bd c839 323d 5fb1 48bd
00000030: 5ba8 f6bc be96 553d 361e e33b 2852 293d
00000040: 2a73 703d 2f14 893c 660d c6ba 07c5 a3bc
00000050: f3bd 52bd d271 593a c216 083d f6db c3bc
00000060: 85b5 923c 4748 8f3a 57ac 94bb 4de2 d03b
00000070: 78a1 163c f502 0ebd c62d ca3c 024e f63c
00000080: 7b46 303c 4e97 a7bc 5d61 cebc 8ad1 05bd
00000090: 9ccb c2bc 82fb 403b 68f2 84bd 77be 053d
000000a0: 34b0 05bd cc8f a73b e1a9 6abb 8815 e43c
000000b0: 627c 86bd 239f cb3c 6221 73bd 79b6 873b
000000c0: be0f 54bd f2d9 e6bc 44c3 283d 4058 853c
000000d0: b987 253d 522b 15bd 90ed b53c 7909 653c
000000e0: 5341 05bc a3eb 37bc e1ec 083c 306d 023d
000000f0: 0baf b6ba 2b28 18bd a3d2 83bc 1a3a 5cbd
00000100: e29a c3bc da2a 433d 5355 57bc c208 063c
00000110: f67d 6b3c 2ab2 873c 13df 01bc da0d 683d
00000120: b55b 61bd 69a3 273d 94c6 18bd b99d c3bb
00000130: 3033 6ebd 5d1d 51bc 2a67 24bc 25e3 1e3d
00000140: c354 f4bc a564 e2bc 9ef3 1b3d 06de cabb
00000150: 8150 373d e33e 323d dc99 fa3c 6051 df3c
00000160: 7ac6 23bd 1179 07bd 5e18 19bd 5a5f c63c
00000170: 1467 8e3c 849c 0c3d ace2 093d 2b2d c63c
00000180: fdad fdbc 8c5c d3bc b926 d1bc fc33 ec3c
00000190: 20a1 73bc 4238 b23c 9744 70bd 2e1d bbbb
000001a0: ab79 f53b 137d e03c fd87 63bb d40e a139
000001b0: 99f5 7b3c 7f0c a439 2c9f d8bc dfe6 383d
000001c0: e446 55bc 7e67 19bd 154d 70bc cf09 42b9
000001d0: 6d2b f7bc 75ca 64bc 9f3e 45bd 2e87 7cbc
000001e0: fae2 7d3c f3a1 493d f096 a6bb e24b 5cba
000001f0: a7c7 6bbc a9e2 75ba 2a4c f2bc 079c b2bc
00000200: 1c70 edbc 2989 e83c f8b7 163d bc49 423a
00000210: efdd dfba 6cc4 65bc 6246 07bd 8357 b73c
00000220: 6876 f23c 3aaf c43b 638d f53b a8c9 333c
00000230: 87b4 46bc 2568 b83c 966f 32bd e164 88bc
00000240: f2a9 3bbc c77b f73a 440e 14bd 357f 273b
00000250: 87e4 6bbd d816 0c3c f8f1 5ebc 9948 8a3c
00000260: a7ac bebc d74c 0f3d f719 ddbc 09f5 9e3c
00000270: 5a06 4bbc b28b 933c ef59 99bc a8a4 83bc
00000280: 8e78 093c 9abc bebc 7a30 18bd bb81 dd3c
00000290: 88c0 d9bc 673b 4abc 8956 bbbb 0a47 3bbc
000002a0: 5572 feba bd97 1b3c 44ab 0abd 32ba 69bd
000002b0: 35a6 163d f8d3 413c 469b 6f3b 5616 c5ba
000002c0: 0b6e 7f3d 0e9f 043d 7bca b7bc 385e 5bbc
000002d0: a750 8b3d af65 5e3c e055 e4bc 53c1 d73b
000002e0: 6393 a6ba 36e7 15bd b06d 03bc 3efc b33c
000002f0: ba8b 5dbc 8158 613b 5ce4 81bd b145 193d
00000300: a58d 7bbd f226 5dbd 2321 c73c 54ae 01bd
00000310: 277c d7bc a876 20bd 6c36 2f3c fb80 ccbc
00000320: 0a5a 33bd 7a3c ebbb 47f5 0b3c 1b81 26bb
00000330: 12a6 6dbc 9ee9 a83c 43af 01bc ab6f 21bd
00000340: 50fb bbbb b784 54bc f163 acbc ced2 a7bb
00000350: 78ee 833c d2c5 ac3a 876c 4fbd 601b 94bc
00000360: 7d17 833c 224a d53c 6cf1 963c dba8 87bb
00000370: 42be 22bc 9da6 c93b d430 1dbd cc9a 35bc
00000380: 708d 0b3c daf2 403c abf5 583c d392 c7bb
00000390: fcd8 9c3c 5648 4ebc a306 d63c 7107 10bd
000003a0: 52b1 d3bc 70fe 39bd 8d43 af3c 2325 8ebc
000003b0: 3036 7dbc f542 9bbc 811d febc e4d4 8b3c
000003c0: 659d debc 2fd1 b03b 9a1c 00bd f560 a73d
000003d0: bfd6 943c 076a 1e3d 7cc1 aabc a2be 1a3a
000003e0: a4cd eebc c246 05bd 7d79 473d 4dd7 073d
000003f0: 2c4f dd3c 361f 853c 1a55 0b3d 68f3 2c3c
-0.021467172 0.022439701 -0.046581965 -0.001371485 -0.010918165 -0.055205505 0.010235621 -0.047230836
0.00089806487 -0.086880945 0.043512136 -0.04899728 -0.030109575 0.052145712 0.0069310917 0.041338116
0.05870358 0.016733257 -0.0015110194 -0.01999141 -0.05145068 0.00082948536 0.03322483 -0.023908596
0.01790882 0.0010931575 -0.004537146 0.0063746334 0.009193771 -0.03467079 0.02468003 0.030066494
0.010758991 -0.02045789 -0.02519291 -0.032670535 -0.02377873 0.0029446785 -0.06491548 0.032652345
-0.032638744 0.0051135775 -0.0035806822 0.027842298 -0.06566693 0.024856156 -0.05935801 0.0041416255
-0.051772825 -0.028180096 0.041201845 0.016277432 0.04041264 -0.036418267 0.022208005 0.013979309
-0.00813325 -0.011225614 0.008357258 0.03184241 -0.0013937665 -0.037147682 -0.01609165 -0.053766347
-0.023877565 0.04764829 -0.0131429015 0.008180799 0.014373293 0.016564447 -0.00792672 0.056653835
-0.0550191 0.040927324 -0.037298754 -0.0059697297 -0.058154285 -0.012763348 -0.010034362 0.03879084
-0.029825574 -0.027635882 0.03807413 -0.006191018 0.04475451 0.043517005 0.030590944 0.027260482
-0.039984204 -0.033074442 -0.037376754 0.024215389 0.017383136 0.034328952 0.033663437 0.02419146
-0.030966753 -0.025800966 -0.02553116 0.028833382 -0.014869958 0.021755341 -0.058659162 -0.0057102656
0.0074913106 0.02740339 -0.0034718507 0.0003071936 0.015378379 0.00031289828 -0.026443087 0.04514205
-0.01301739 -0.037452213 -0.014666815 -0.00018504936 -0.030172074 -0.013964285 -0.048155423 -0.015413089
0.01549601 0.049226712 -0.005083911 -0.00084036414 -0.014390863 -0.00093797833 -0.029577333 -0.021802915
-0.028984122 0.028385716 0.03679654 0.00074115 -0.0017079691 -0.014023881 -0.033026107 0.022380596
0.029597476 0.006002334 0.0074936613 0.010973372 -0.012128002 0.022510597 -0.043563448 -0.016649665
-0.011454092 0.0018881493 -0.036146417 0.0025558 -0.057590988 0.008550368 -0.0136074945 0.01688032
-0.023275686 0.03498539 -0.02698992 0.019403951 -0.012391651 0.018010948 -0.018719641 -0.016069725
0.008390559 -0.023283292 -0.037155606 0.0270394 -0.026581064 -0.012343264 -0.005717103 -0.011430511
-0.0019412736 0.009496626 -0.033854738 -0.057062335 0.0367796 0.011830322 0.0036561056 -0.0015036564
0.062360805 0.03237825 -0.022435417 -0.013389163 0.068024926 0.013574048 -0.02787298 0.0065843253
-0.001270872 -0.036597453 -0.008021757 0.021970864 -0.013522083 0.0034385028 -0.06342384 0.03741998
-0.06141438 -0.05399222 0.024307793 -0.031660393 -0.026304318 -0.03917566 0.0106941275 -0.024963846
-0.04378704 -0.00717884 0.008542365 -0.0025406543 -0.014504926 0.02061921 -0.007915321 -0.039413135
-0.005736746 -0.012971095 -0.02104375 -0.0051215654 0.016104922 0.0013181514 -0.05064061 -0.01807946
0.016002411 0.026036326 0.018425666 -0.004140002 -0.009933056 0.006153895 -0.038376644 -0.01108427
0.008517608 0.01177665 0.013242166 -0.006090501 0.019146435 -0.012590488 0.026126212 -0.035163347
-0.025841389 -0.045408666 0.021394515 -0.017351693 -0.015454814 -0.018952826 -0.031019928 0.017069288
-0.027174661 0.0053960304 -0.031277277 0.0817279 0.018168805 0.038675334 -0.020844214 0.00059030403
-0.029150791 -0.032538183 0.048699845 0.03316431 0.027015291 0.016250234 0.034016706 0.010556079

action_model._continuous_distribution.mu.bias f4 [20]
00000000: b196 083d 384a aabc 3320 fb3c a3b7 9dbc
00000010: 6079 263c 6980 3b3b 42cb 463c 25d4 e03b
00000020: db5d c93c ada7 0f3d 826e 0ebb 70b5 8eb9
00000030: 496f 04bc 5451 043c f46f 38bc f1fd 6e3c
00000040: b621 423c f2ff 8ebc eacd 2abb 9ac0 dd3b
0.033346836 -0.020787343 0.030655002 -0.019252604 0.010160774 0.0028610474 0.012133421 0.006861227
0.024580887 0.035072017 -0.0021733348 -0.00027219532 -0.008083173 0.008076031 -0.01125716 0.014586912
0.011848858 -0.017456029 -0.0026062676 0.0067673447
