results/RLEnv2/Crawler/Crawler-999941.onnx (onnx, 180794 bytes, 7 tensors)

network_body._body_endoder.seq_layers.0.weight f4 [128, 194]
0	0x3e81b05d	0.25329867
1	0xbb072d26	-0.0020626276
2	0x3cf89c05	0.030347833
3	0xbcc04ee4	-0.023475118
4	0xbdbe1cbb	-0.09282824
5	0x3ce6a021	0.028152527
6	0x3e0b29ad	0.13590117
7	0x3d2f27dc	0.042762622
8	0x3e3f5eae	0.18688461
9	0xbc890d68	-0.016730025
10	0x3cc747b3	0.024326181
11	0x3de11fd5	0.109923996
12	0x3d824375	0.06360523
13	0x3b1ce00f	0.002393726
14	0x3d6045da	0.054754116
15	0xbcae7d66	-0.021300029
16	0xbd40386a	-0.0469288
17	0x3d2fda6e	0.04293292
18	0x3daffff2	0.085937396
19	0xbd303bdb	-0.043025833
20	0xbd85765b	-0.06516715
21	0xbd5956da	-0.053061344
22	0x3d94a4e0	0.0725801
23	0xbdbc80f2	-0.09204282
24	0x3d1d8367	0.038455393
25	0xbe246ebf	-0.16057871
26	0x3d9ad918	0.075609386
27	0x3d81fc71	0.063469775
28	0x3d52eb09	0.05149368
29	0x3a3033b2	0.00067215704
30	0xbd30193e	-0.042992823
31	0x3da64739	0.081190534
32	0xbbbc8037	-0.005752589
33	0xb9f0d138	-0.00045932247
34	0xbc41c6c8	-0.011827178
35	0x3dc7f248	0.09763008
36	0x3bb1eecc	0.005430078
37	0xbcabc7b5	-0.020969251
38	0x3d045100	0.03230381
39	0xbb846b02	-0.0040410766
40	0xbdb91f20	-0.0903914
41	0x3d8d9580	0.069132805
42	0xbd08bb75	-0.033381898
43	0xbe1364e6	-0.14393958
44	0xbda64601	-0.08118821
45	0x3e1c6d26	0.15276012
46	0xbc1ac592	-0.0094465185
47	0xbbb9a860	-0.005665824
48	0xbdbc87f5	-0.09205619
49	0xbd17cf17	-0.03706273
50	0x3d98f84f	0.07469236
51	0x3d2351e0	0.039873004
52	0x3c75eef4	0.015010584
53	0x3dbfa587	0.09357744
54	0x3d469cba	0.04848931
55	0x3c1f57f0	0.009725556
56	0xbd27bc86	-0.040951274
57	0xbd9f1155	-0.07766978
58	0xbc22e5ac	-0.009942453
59	0x3bda8769	0.006668974
60	0x3d1692be	0.036761038
61	0x3e4a0921	0.19730045
62	0xbcf3191e	-0.029675063
63	0x3d63a83c	0.055580363
64	0x3da4b3ca	0.080421045
65	0xbde170e2	-0.11007859
66	0xbdcea469	-0.100899525
67	0xbdb96bf6	-0.09053795
68	0xbd7ba546	-0.061436914
69	0xbd941cc8	-0.07232052
70	0xbd9e9f3d	-0.07745216
71	0x3c66a682	0.0140777845
72	0x3ca19d2c	0.019728266
73	0xbd2b98a3	-0.041893613
74	0xbe3e3e13	-0.18578367
75	0x3d8c3561	0.06846119
76	0xbdfeaf73	-0.12435808
77	0x3c32547f	0.010884403
78	0xbe10dca9	-0.14146675
79	0x3c918439	0.017763244
80	0x3cf61f79	0.030044304
81	0xbdb09757	-0.08622616
82	0x3bc04ef8	0.005868789
83	0x3c1da9d0	0.009623006
84	0x3bbd0a13	0.005769023
85	0xbbd20d1d	-0.0064102546
86	0xbe3f207f	-0.1866474
87	0xbe3ea56f	-0.18617795
88	0xbcb55bc0	-0.022138476
89	0xbd523c0e	-0.051326804
90	0xbbb480be	-0.0055085113
91	0x3ce60f8a	0.028083581
92	0x3bfe0a25	0.007752674
93	0xbe03fd44	-0.12889582
94	0x3c6aee16	0.014338991
95	0x3cb948d3	0.022617733
96	0x3bf13e0f	0.0073621343
97	0xbcc2e183	-0.023789173
98	0xbcd9be39	-0.026579963
99	0x3d41a4ca	0.047276296
100	0x3c867444	0.016412862
101	0x3d17a6c1	0.037024263
102	0x3d1e15bb	0.038594943
103	0xbcd48854	-0.025943913
104	0x3de89bd6	0.11357848
105	0x3c6d5d00	0.014487505
106	0xbdce59bb	-0.100757085
107	0x3bcadb37	0.006190683
108	0xbb5e0a42	-0.0033880626
109	0x3cdd27e0	0.026996553
110	0xbd813c2f	-0.06310307
111	0x3cb479df	0.022030769
112	0x3d41f119	0.04734907
113	0x3dc43ebd	0.09582279
114	0xbd019dac	-0.03164451
115	0x3d43eef4	0.047835305
116	0x3e26c58f	0.162863
117	0xbd84a94d	-0.06477604
118	0xbd81ed80	-0.06344128
119	0xbdc231bd	-0.09482143
120	0x39f3bd27	0.000464895
121	0x3d939559	0.0720622
122	0x3d061128	0.032731205
123	0xbe0284c5	-0.1274596
124	0x3d0fc4c5	0.035099763
125	0x3dba3cd0	0.0909363
126	0xbd0473fe	-0.03233718
127	0x3d2c02c3	0.04199482
128	0x3c2aa740	0.010415852
129	0xbce59619	-0.028025674
130	0xbcb2e5c3	-0.021838075
131	0x3c87d9f6	0.016583424
132	0xbdc120ce	-0.09430085
133	0x3c86723d	0.016411895
134	0x3d10eb1d	0.03538047
135	0xbd9ab521	-0.07554079
136	0x3d5eee06	0.054426216
137	0x3d920f91	0.07131875
138	0xbcdd2994	-0.026997365
139	0x3cbcb9d5	0.02303783
140	0xbd5963aa	-0.053073563
141	0xbd76757f	-0.060170647
142	0xbe4c1773	-0.1993082
143	0xbcb4ed6e	-0.022085872
144	0xbd80c258	-0.06287068
145	0x3b23dfd6	0.0025005243
146	0x3b51a892	0.0031991345
147	0xbe14af34	-0.1451996
148	0xbd73a037	-0.059478965
149	0xbd34a494	-0.044102266
150	0x3d92b350	0.071631074
151	0xbe0c0334	-0.13673097
152	0xbe09f020	-0.13470507
153	0xbb930853	-0.0044870763
154	0xbd332287	-0.0437341
155	0x3cdbdc39	0.026838409
156	0x3d76bf25	0.060240883
157	0x3d023293	0.031786513
158	0xbc0fedeb	-0.008784751
159	0x3d3dd57a	0.046346165
160	0xbdd28bde	-0.10280584
161	0x3ddeb000	0.10873413
162	0x3e0604d3	0.13087778
163	0x3d8ab9a6	0.06773691
164	0x3c91692f	0.01775035
165	0xbd0bd7b9	-0.034141276
166	0xbdc8c525	-0.09803227
167	0x3b829baa	0.0039858418
168	0x3d85fbbf	0.065421574
169	0xbbe65711	-0.007029422
170	0xbb9cc10e	-0.004783756
171	0xbbdafa74	-0.0066826884
172	0x3d7147a4	0.058906212
173	0x3de68f72	0.11257829
174	0x3d4ff4ad	0.05077045
175	0x3d5ce43d	0.053928602
176	0xbca04336	-0.019563299
177	0x3d45ca24	0.04828848
178	0x3d2b300c	0.041793868
179	0x3c52a9da	0.012857879
180	0xbd81f8c9	-0.0634628
181	0x3c077a4c	0.008268904
182	0xbcae5511	-0.021280797
183	0x3c1b791f	0.009489327
184	0x3c2997e2	0.010351153
185	0xbd208151	-0.039185826
186	0xbdcd05ec	-0.10010895
187	0xbcbe9ddb	-0.02326863
188	0x3c816d79	0.015799271
189	0xbd1b8785	-0.03797104
190	0xbce67546	-0.028132092
191	0xbb254848	-0.0025220085
192	0x3d984147	0.07434326
193	0x3dd6ad7c	0.10482308
194	0xbc57d855	-0.013174136
195	0x3e17dd01	0.148304
196	0xbd0764cd	-0.033055115
197	0x3d917430	0.07102239
198	0xbcfd94f7	-0.030954821
199	0xbccfd85e	-0.025371727
200	0xbd8a5838	-0.06755108
201	0x3ce69e3b	0.028151622
202	0x3dd25e80	0.10271931
203	0xbd86dc56	-0.065849945
204	0xbd3d5803	-0.046226513
205	0x3ce13895	0.0274928
206	0x3d33d007	0.043899562
207	0xbccebf2f	-0.025237648
208	0x3d7d9284	0.061907306
209	0x3cbd53a2	0.023111168
210	0x3d0c0f37	0.034194198
211	0x3d248a0d	0.040170718
212	0xbd8a5e9e	-0.06756328
213	0x3bf15905	0.0073653483
214	0x3bdb4f97	0.0066928375
215	0xbdbf6e29	-0.09347183
216	0x3d87cbad	0.06630645
217	0xbdf1b92a	-0.11802895
218	0xbcc71a3d	-0.024304504
219	0xbd5e4b45	-0.054271
220	0xbd766634	-0.060156062
221	0xbc3bb197	-0.011455915
222	0xbdb2d1ee	-0.08731447
223	0x3e139d7f	0.14415549
224	0xbd0b6450	-0.034031212
225	0x3e39ebdf	0.18156384
226	0x3d533bf9	0.051570866
227	0xbcb0b280	-0.02156949
228	0x3d11b109	0.035569225
229	0x3df57274	0.11984721
230	0xbd0ff33f	-0.035144087
231	0x3cf798ff	0.030224321
232	0x3c8a129a	0.016854573
233	0xbd9aac45	-0.07552389
234	0x3d725064	0.059158698
235	0x3d029244	0.03187777
236	0xbd76710f	-0.060166415
237	0x3e02b7d6	0.1276544
238	0x3d7af3a4	0.06126751
239	0x3dbb9feb	0.09161361
240	0x3c9f0e25	0.019415924
241	0x3c5bbfec	0.013412457
242	0xbcd651ef	-0.026162116
243	0xbd0284de	-0.031864993
244	0x3d563c1a	0.05230341
245	0xbe066ca6	-0.13127384
246	0xbc82898f	-0.015934734
247	0xbd5c8992	-0.053842135
248	0x3da5ba16	0.08092134
249	0xbce04d8c	-0.027380727
250	0x3d6b43f2	0.057437845
251	0x3e1723e5	0.14759786
252	0x3d27cb05	0.0409651
253	0x3c3cf051	0.011531905
254	0xbd2d13aa	-0.04225508
255	0xbd9ceb3c	-0.07662055

network_body._body_endoder.seq_layers.0.bias f4 [128]
0	0x3c718b38	0.014742665
1	0xb98af64f	-0.00026504925
2	0x3bcbeab1	0.0062230458
3	0xbcdad8f2	-0.026714776
4	0x3caae360	0.020860374
5	0xbd22697c	-0.03965138
6	0x3c996650	0.018725544
7	0xbb998f61	-0.0046862816
8	0x3cb1de22	0.021712366
9	0x3bda5a41	0.006663591
10	0x3c5c6b4b	0.013453315
11	0x39f68e34	0.00047026726
12	0x3c2e05bf	0.010621487
13	0x3c8cddb5	0.017195562
14	0x3c8f85cc	0.017519854
15	0xbbd51828	-0.006503124
16	0xb71d8281	-9.3883145e-06
17	0x3c9e753b	0.01934301
18	0xbc6011db	-0.013676132
19	0x3cbd9e56	0.02314679
20	0x3cdf729a	0.027276326
21	0x3bbe6e99	0.005811524
22	0x3baec13d	0.0053330944
23	0x3c7c5ba3	0.015402707
24	0x3c0008a1	0.007814557
25	0x3c82f08a	0.015983839
26	0x3b68ac8d	0.003550324
27	0x3c315f93	0.010826009
28	0x3d5acf11	0.05342013
29	0x3c29467f	0.010331749
30	0x3c77c0ea	0.015121678
31	0x3c9fe61f	0.01951891
32	0x3aa30269	0.0012436631
33	0x3b3603a9	0.0027773178
34	0x3cb65306	0.022256386
35	0x3d263aa8	0.040583283
36	0x3bdacab6	0.006676997
37	0x3ccc7984	0.024960287
38	0x3ca682e4	0.020326085
39	0x3cb9b221	0.022667946
40	0x3cab1ac8	0.020886794
41	0x3c654a26	0.013994729
42	0x3c50a0a3	0.012733611
43	0xbc9c95fa	-0.019114483
44	0x3b327826	0.0027232259
45	0x3c5048c2	0.012712659
46	0x3ccd7386	0.0250795
47	0xba374e2b	-0.0006992544
48	0x3cb01e0f	0.021498708
49	0x3ad17beb	0.0015982365
50	0x3c5f76f6	0.013639202
51	0xbc5afa23	-0.013365301
52	0x3c939e35	0.018019775
53	0x3cf484b0	0.029848427
54	0x3d04d12a	0.032426037
55	0x3cac1a91	0.021008762
56	0x3c81e28e	0.0158551
57	0x3d24e0da	0.040253498
58	0x3b88e3f1	0.0041775634
59	0x3c2df986	0.010618573
60	0xbb5e2381	-0.0033895674
61	0x3c124cc7	0.008929438
62	0x3c3e8dc5	0.01163048
63	0x3c46331e	0.012097148
64	0x3c23b3ae	0.009991569
65	0x3d04a4fe	0.03238391
66	0x3ca99f2f	0.020705787
67	0xbbbfffd4	-0.0058593545
68	0x3c63c574	0.013902057
69	0x3c747af5	0.014921893
70	0x3cdf123d	0.027230376
71	0x3c95ed5b	0.018301656
72	0xbc642cf4	-0.013926733
73	0xbba7a0af	-0.0051155905
74	0x3c46a0f3	0.012123334
75	0x3c813a8c	0.015774988
76	0xbd21a39d	-0.039462674
77	0x3c976344	0.01847995
78	0x3c24cb5b	0.010058249
79	0xbbbe513f	-0.005808025
80	0x3cc3ff19	0.023925351
81	0x3d2c2d75	0.04203554
82	0x3c1d4424	0.0095987655
83	0x3ca8011d	0.020508343
84	0x3ca617e0	0.020275056
85	0x3c5e160a	0.013555059
86	0x3c43150e	0.011906875
87	0x3ccfe63d	0.02537834
88	0x3d2000a0	0.039063096
89	0x388317f6	6.25103e-05
90	0x3c65076b	0.013978819
91	0xbd1f3a03	-0.038873684
92	0x3b44c63f	0.003002539
93	0x3c88d3f0	0.016702622
94	0xbd05d163	-0.03267039
95	0x3cadb87c	0.021206133
96	0x3d0c34be	0.034229986
97	0x3b987cb5	0.004653538
98	0x3d377683	0.044790756
99	0xbc374718	-0.011186384
100	0xbd1d98c7	-0.038475778
101	0x3c4dc3e4	0.012558911
102	0xbbc0cebc	-0.0058840197
103	0xbb844967	-0.0040370706
104	0x3ca45e0c	0.020064376
105	0x3c8a5b65	0.016889283
106	0x3c8ed571	0.017435761
107	0x3c8ecfcf	0.017433075
108	0x3cfc4354	0.030793823
109	0xbcae2ad3	-0.021260655
110	0xbd15e6ef	-0.03659719
111	0x3cc254bd	0.023722047
112	0x39aeb8c7	0.00033325536
113	0xbb90728a	-0.0044081854
114	0x3c82cbaa	0.015966255
115	0xbd10b354	-0.03532727
116	0x3ca2798a	0.019833345
117	0x3b1bf852	0.0023799133
118	0x3cc180f6	0.023621064
119	0x3ce47d09	0.027891653
120	0x3d173f3c	0.03692554
121	0xba506a88	-0.00079504447
122	0x3c188ec5	0.009311383
123	0x3ce5c544	0.028048165
124	0xbca08335	-0.019593814
125	0x3c20bcf2	0.009810673
126	0x3cd2898d	0.025700355
127	0x3c80fb91	0.015744956

network_body._body_endoder.seq_layers.2.weight f4 [128, 128]
0	0x3ca91fa2	0.020644967
1	0x3d8bfc4a	0.0683523
2	0x3df2eba5	0.11861352
3	0x3dc15baa	0.09441312
4	0x3d1bf030	0.038070858
5	0xbd0f8ebe	-0.03504824
6	0xbdb2d045	-0.087311305
7	0x3e073543	0.13203911
8	0x3d26961f	0.04067051
9	0x3dfcb75e	0.12339662
10	0xbd676461	-0.056492213
11	0x3d14a7ef	0.036292966
12	0xbd4e67fd	-0.05039214
13	0x3d8d38cf	0.06895601
14	0x3c8deb3f	0.017324088
15	0xbe592e96	-0.21209177
16	0xbdcd75cf	-0.10032236
17	0xbd4b326e	-0.04960864
18	0x3e1ce2c3	0.15320878
19	0xbc165a12	-0.009176748
20	0xbca46249	-0.020066397
21	0xbd73b78c	-0.059501216
22	0x3d09bd0f	0.033627566
23	0xbd232db0	-0.039838493
24	0xbd9b39a3	-0.07579353
25	0xbd017563	-0.03160609
26	0xbd0826a1	-0.033239964
27	0x3dfcf68c	0.123517126
28	0xbd967a30	-0.07347524
29	0xbe148c63	-0.14506678
30	0xbcec0c0b	-0.028814336
31	0x3c296be8	0.010340668
32	0x3cab5db8	0.020918712
33	0x3b9cebd0	0.004788853
34	0xbdebc741	-0.11512614
35	0xbd6245dc	-0.055242404
36	0xbd9cd068	-0.07656938
37	0xbd9a2291	-0.07526124
38	0xbd9a919e	-0.075473055
39	0x3c6c67bf	0.014429032
40	0xbcda971d	-0.026683385
41	0x3e11a8e5	0.14224584
42	0x3d911276	0.07083599
43	0x3c56a12d	0.013099951
44	0xbdbb6990	-0.09150994
45	0x3d5ff55d	0.054677356
46	0xbd9bfb9a	-0.076163486
47	0xbc91aa41	-0.017781379
48	0xbdaab197	-0.08334654
49	0xbd9abf78	-0.07556051
50	0x3c76306e	0.015026195
51	0x3e2933dd	0.1652369
52	0x3e1c28ee	0.15249988
53	0x3e0db5b1	0.13838841
54	0x3daf486b	0.085587345
55	0x3d9e29d7	0.07722824
56	0xbcbdbeec	-0.023162328
57	0xbd808e5f	-0.06277155
58	0x3c7e52db	0.015522684
59	0x3c5b2024	0.013374362
60	0xbdeb17b5	-0.11479131
61	0xbbf76f5b	-0.0075511164
62	0x3d704ad7	0.058665123
63	0x3dd3e624	0.1034663
64	0x3c9ac6e7	0.018893672
65	0xbb99cb95	-0.0046934583
66	0xbdea8984	-0.1145201
67	0xbc668752	-0.014070349
68	0x3c444d2e	0.011981292
69	0xbd2dc296	-0.0424219
70	0x3e09d6a5	0.13460787
71	0xbd8952c6	-0.06705241
72	0xbd27c14f	-0.040955838
73	0xbc1d0fca	-0.009586284
74	0xbcd5bc6f	-0.026090829
75	0xbcff25b7	-0.031145914
76	0xbdc8ce3d	-0.09804962
77	0x3d09355d	0.033498157
78	0xbd8b050e	-0.067880735
79	0xbd74fa55	-0.059809048
80	0x3e25ee3e	0.16204163
81	0x3dff7047	0.12472587
82	0x3d4c311f	0.049851533
83	0x3d1844bb	0.03717492
84	0x3e39f9e6	0.18161735
85	0x3e41ffec	0.18945283
86	0x3cbf003f	0.023315547
87	0x3dc67d84	0.09691909
88	0x3d9f0c39	0.07766003
89	0x3d561d6c	0.052274153
90	0xbcf40701	-0.029788496
91	0xbe77dcf7	-0.24205385
92	0x3e027c1f	0.12742661
93	0xbcd1b321	-0.02559811
94	0xbca54ebd	-0.020179147
95	0xbdc50ef2	-0.09621991
96	0x3d333d43	0.043759596
97	0x3da71ebe	0.081601605
98	0xbdafa4ec	-0.08576378
99	0x3dc37a85	0.09544853
100	0x3afecc32	0.0019439517
101	0x3e3115c9	0.17293467
102	0x3d8a5f88	0.067565024
103	0xbe50aa01	-0.20377351
104	0xbcb2c49b	-0.021822264
105	0xbd376293	-0.044771742
106	0x3d8c1b3f	0.06841134
107	0xbe25ad57	-0.16179405
108	0xbd04df5b	-0.03243957
109	0xbdae4776	-0.08509724
110	0xbc07fb6f	-0.0082996925
111	0x3d20f837	0.039299216
112	0x3c5bbaf9	0.013411277
113	0xbcf0d37b	-0.029397717
114	0x3d417c67	0.04723778
115	0x3d294322	0.04132379
116	0xbbd8d8c0	-0.0066176355
117	0xbcc72203	-0.02430821
118	0x3cd8ad26	0.026449751
119	0x3dde7ec1	0.1086402
120	0xbccd65bf	-0.02507293
121	0xbd3eb901	-0.046563152
122	0xbbf8b527	-0.0075899544
123	0x3c9c59f7	0.019085867
124	0xbdd8ac8f	-0.10579788
125	0xbcd91165	-0.026497552
126	0x3d3fbaba	0.046808936
127	0x3e362dbf	0.17790888
128	0xbca4381a	-0.020046283
129	0xbcff069f	-0.031131087
130	0x3e59ba4e	0.21262476
131	0xbb1c1cc1	-0.002382085
132	0xbd8f21b3	-0.069888495
133	0xbde00fac	-0.10940489
134	0xbd7b0487	-0.061283614
135	0x3d97db02	0.07414819
136	0xbc4d0341	-0.012512983
137	0x3e0d8972	0.13821962
138	0xbc7d2990	-0.015451804
139	0x3d7c9b76	0.061671697
140	0x3c3876b8	0.0112587735
141	0xbe332242	-0.17493537
142	0xbdfe94ef	-0.124307506
143	0x3d4db024	0.05021681
144	0x3dd29920	0.102831125
145	0x3dccaf89	0.09994418
146	0xbdf6058c	-0.12012777
147	0xbcc81594	-0.024424352
148	0xbd7e9d19	-0.06216154
149	0xbd568624	-0.05237402
150	0x3db35b87	0.08757692
151	0xbde2ef99	-0.11080856
152	0x3ca3bf4b	0.019988677
153	0x3de3fcaf	0.1113218
154	0x3cd930bd	0.026512498
155	0xbc2e6e98	-0.010646485
156	0xbd3bfcb9	-0.045895312
157	0x3df4e8f8	0.11958498
158	0xbd3a63b5	-0.045505244
159	0xbdf6006e	-0.12011801
160	0xbd6badf8	-0.057538956
161	0x3d5beadf	0.053690787
162	0xbe430d2a	-0.1904799
163	0xbd986e50	-0.074429154
164	0x3dc8ffea	0.09814437
165	0x3d40859d	0.047002424
166	0xbd8e7ac3	-0.06957009
167	0x3d150231	0.036379043
168	0x3da0492a	0.07826455
169	0xbd0bb3c4	-0.034106985
170	0xbd4be499	-0.049778555
171	0x3d0cc5f2	0.034368463
172	0xbdea9d0f	-0.11455738
173	0x3ca0447a	0.019563902
174	0xbe024823	-0.1272283
175	0x3deaced3	0.1146523
176	0xbe49dcd0	-0.1971314
177	0xbdf3c6ea	-0.11903174
178	0x3e0c1608	0.13680279
179	0x3dc6c674	0.09705821
180	0xbe3b0ec9	-0.18267359
181	0xbd1a5363	-0.03767718
182	0xbe1229e7	-0.14273797
183	0xbe4ac756	-0.19802603
184	0x3d0391fd	0.032121647
185	0x3daf1788	0.0854941
186	0xbd800490	-0.0625087
187	0x3da981c8	0.08276707
188	0x3c3c00c6	0.011474794
189	0xbe090a4b	-0.13382833
190	0xbbc37682	-0.005965055
191	0x3d39ae21	0.045332078
192	0x3d78ded9	0.0607594
193	0x3da58fdd	0.0808408
194	0xbe0ddfdb	-0.13854925
195	0xbd35c0db	-0.044373374
196	0xbc57abce	-0.01316352
197	0xbce1a33a	-0.027543653
198	0x3d6a60b5	0.057221133
199	0xbc9a8667	-0.018862916
200	0xbe3b6e8e	-0.18303892
201	0xbc885083	-0.016639953
202	0x3dd7f0e9	0.10543997
203	0xbe136101	-0.14392473
204	0xbd83c232	-0.06433524
205	0xbe06bff8	-0.13159168
206	0xbd8a8162	-0.06762959
207	0xbe14b405	-0.14521797
208	0x3de70fdc	0.11282322
209	0x3e743305	0.23847587
210	0xbdaabde9	-0.08337004
211	0xbdbe18d9	-0.09282083
212	0xbdf6afdf	-0.120452635
213	0xbc0dda6f	-0.008658036
214	0xbdbe15ee	-0.092815265
215	0x3ce32d69	0.027731614
216	0xbda6398c	-0.08116445
217	0xbdc722a5	-0.09723405
218	0x3ddda37f	0.108222
219	0xbd89da2f	-0.06731068
220	0xbce35228	-0.027749136
221	0xbd710140	-0.058839083
222	0xbd7ffac4	-0.062495008
223	0x3d746ad0	0.059672177
224	0x3e1aa7a5	0.15103014
225	0xbcdb2f19	-0.026755856
226	0x3dc873ba	0.09787698
227	0x3dbdda7a	0.09270187
228	0x3dd1a0c3	0.10235741
229	0xbc8a73ac	-0.01690086
230	0x3dd794e3	0.10526445
231	0x3b8c162f	0.0042751054
232	0xbe26e405	-0.1629792
233	0xbb264eac	-0.0025376482
234	0x3c10486d	0.00880633
235	0x3b3e9178	0.0029078405
236	0x3d8c8250	0.06860793
237	0x3b333174	0.0027342709
238	0x3e24a71f	0.16079377
239	0x3dc574f0	0.09641445
240	0xbcb93fb3	-0.022613382
241	0x3e1c154f	0.15242504
242	0x3d1cb358	0.038256973
243	0x3d40d987	0.04708245
244	0xbd31ed37	-0.043439116
245	0xbe1910b5	-0.1494778
246	0x3d151e13	0.036405634
247	0x3d977c94	0.07396808
248	0x380e1320	3.387325e-05
249	0xbdb6565a	-0.08903189
250	0x3c4db5c4	0.012555543
251	0x3be910bb	0.00711259
252	0x3db5f8da	0.08885355
253	0xbd4974c9	-0.04918364
254	0xbd967a9a	-0.07347603
255	0x3da79dfa	0.081844285

network_body._body_endoder.seq_layers.2.bias f4 [128]
0	0x3c5aa3b7	0.013344697
1	0x3b8e35c9	0.004339908
2	0xbc5fedcf	-0.013667538
3	0xbc3e72a8	-0.011624016
4	0x3b6f8b4c	0.0036551533
5	0xbcf1a6cb	-0.029498478
6	0x3c8f3f26	0.017486166
7	0xbb987e03	-0.0046536936
8	0xbc08ca57	-0.008349023
9	0xbbbd94b6	-0.00578555
10	0x3c814b19	0.01578288
11	0xbc26e975	-0.010187496
12	0x3d22dea1	0.039763097
13	0x3b4c6e1c	0.003119356
14	0x3cd5937d	0.026071304
15	0x3c160978	0.009157531
16	0x3cf8569a	0.030314732
17	0x3c0536eb	0.008130769
18	0x3c318056	0.01083382
19	0xbb4488ec	-0.0029988838
20	0x3c96a5bd	0.018389577
21	0x3c1ae53f	0.009454071
22	0xb9a15598	-0.00030772085
23	0xbc83db37	-0.01609574
24	0xbc90ff99	-0.017700003
25	0xbbf0ac21	-0.007344738
26	0x3c721916	0.014776489
27	0xbc6bd990	-0.014395133
28	0xbbb83a06	-0.0056221513
29	0x3b8921ad	0.0041849227
30	0xbae0f0bc	-0.0017161588
31	0x3c0fffe5	0.008789037
32	0xbd147599	-0.036244962
33	0x3bed9bfd	0.0072512613
34	0x3cd7eb66	0.026357364
35	0xbd223e35	-0.039610106
36	0xbae04f1b	-0.0017113419
37	0xbb50aca9	-0.0031841195
38	0x3a5e4bcc	0.00084799225
39	0x3cb420d4	0.02198831
40	0x3b45208f	0.003007922
41	0x3c38794b	0.011259387
42	0x3c10905c	0.00882348
43	0x3c1415ac	0.00903837
44	0xbd085bac	-0.03329055
45	0xb9084ad5	-0.00012997848
46	0xbd03a7f5	-0.0321426
47	0x3c865e01	0.016402246
48	0xbc94289b	-0.018085768
49	0xbc2a8da2	-0.010409744
50	0x3d004436	0.03131505
51	0x3c9feb92	0.019521508
52	0xba851ffe	-0.0010156629
53	0x3ce6158f	0.028086452
54	0xb9867fea	-0.00025653775
55	0x3af36526	0.0018569573
56	0xbd00999f	-0.031396504
57	0xba9e4f15	-0.0012078012
58	0x3c86dc77	0.016462548
59	0x3b4938a0	0.0030703917
60	0x3cfc2778	0.030780539
61	0xbae252cc	-0.0017267107
62	0x3d0e6e4d	0.03477316
63	0xbd14b5a4	-0.03630604
64	0x3d17e5bf	0.037084337
65	0x3cf2ffbf	0.029662965
66	0x3c2e0b10	0.010622755
67	0xbc0639a9	-0.008192458
68	0x3c429a35	0.011877586
69	0x3cb6745e	0.022272285
70	0xbc21a9cb	-0.009867142
71	0x3cc118ae	0.023571339
72	0x3c145bd9	0.009055101
73	0x3c1f6e21	0.009730847
74	0xbb09d274	-0.002102998
75	0x3b652c7a	0.0034969137
76	0xbc2d0a44	-0.01056153
77	0xbad7c051	-0.0016460513
78	0x3c3f0077	0.011657826
79	0x3ce6fed6	0.028197687
80	0xbc17c5db	-0.009263481
81	0xbb1c5706	-0.002385558
82	0x3ca63b5e	0.02029198
83	0x3c504d10	0.012713686
84	0x3c6cd5fa	0.014455313
85	0x3c39021f	0.01129201
86	0x3c7b5091	0.015339033
87	0x3c3e30b8	0.011608295
88	0xbc83b495	-0.01607732
89	0xbccc8cfb	-0.024969568
90	0xbbc6928d	-0.0060599507
91	0x3b28afd1	0.002573956
92	0x399234e2	0.0002788669
93	0x3c478d7c	0.012179729
94	0x3c742357	0.014901004
95	0x3c94eed1	0.018180283
96	0x3c083d8a	0.008315453
97	0xbca65696	-0.02030496
98	0xbd1e35eb	-0.03862564
99	0xbc167565	-0.0091832625
100	0x3cc683d2	0.024232779
101	0x3c890420	0.0167256
102	0xbc892177	-0.01673959
103	0x3acbe1e9	0.0015554997
104	0x3bcb34a5	0.006201344
105	0x3c628d6c	0.013827663
106	0x3c2f3364	0.010693405
107	0x3b83bca7	0.004020292
108	0x3c909ffc	0.017654411
109	0x3cb8549a	0.022501279
110	0x3caa2f67	0.020774556
111	0x3a8ee0d2	0.0010900742
112	0x3c84017c	0.016113989
113	0x3c9820c2	0.018570308
114	0x3d35bd5c	0.04437004
115	0xbc584252	-0.013199406
116	0xba8a58e6	-0.0010555058
117	0xbc88a0df	-0.016678272
118	0x3ca44ea0	0.020057023
119	0x3c6f0e95	0.014590879
120	0xbca783ee	-0.020448651
121	0x3ca5c120	0.02023369
122	0xbd097873	-0.033562135
123	0x3b8c33ea	0.0042786496
124	0xbc97d42b	-0.018533787
125	0x3cd79c77	0.026319725
126	0x3ca73cce	0.020414736
127	0xbc17a582	-0.009255769

action_model._continuous_distribution.log_sigma f4 [1, 20]
0	0xbbb529c6	-0.0055286614
1	0xbd9fdb8c	-0.07805547
2	0xbd76104c	-0.060074136
3	0x3c82917b	0.015938511
4	0xbcccfc62	-0.02502269
5	0xbcc21953	-0.023693716
6	0xbd1358e3	-0.03597344
7	0x3bd1c5d4	0.006401757
8	0x3dd89e1e	0.105770335
9	0xbe1ebb02	-0.15501025
10	0x3e3d6474	0.18495351
11	0x3e218a95	0.15775521
12	0xbb4b7a49	-0.003104823
13	0x3c827e2a	0.0159293
14	0xbc62ff55	-0.013854821
15	0xbd1b2434	-0.037876323
16	0x3cd635e9	0.026148753
17	0x3d2c8722	0.04212106
18	0xbd102c9d	-0.035198797
19	0x3d52722a	0.051378407

action_model._continuous_distribution.mu.weight f4 [20, 128]
0	0xbc7c8c75	-0.015414347
1	0x3ad1a614	0.001599493
2	0xbd218416	-0.039432608
3	0xbc326eb9	-0.010890656
4	0xbc94281d	-0.018085534
5	0xbd71bd68	-0.059018523
6	0x3c8867fb	0.016651144
7	0xbd5fa7bd	-0.054603327
8	0xbbc7b913	-0.0060950606
9	0xbda5db66	-0.080984876
10	0x3d3dfa37	0.0463812
11	0xbd95075d	-0.07276795
12	0xbcfecf3b	-0.031104675
13	0x3d12ae9b	0.035811048
14	0x3b53b2d4	0.0032302635
15	0x3d157233	0.036485862
16	0x3d4cfab6	0.050043784
17	0x3aac9309	0.0013166378
18	0xbb3cecdb	-0.00288277
19	0xbcc32055	-0.023819128
20	0xbd37ae53	-0.044843983
21	0x3b3c5cb3	0.0028741776
22	0x3ceea826	0.029132914
23	0xbc8a6b0f	-0.016896753
24	0x3ccc5e4b	0.024947306
25	0xbcecf2b1	-0.028924318
26	0x3c4a47ed	0.01234625
27	0xbc7abe5d	-0.015304175
28	0x3c1dbda9	0.009627738
29	0xbcecc10f	-0.028900651
30	0x3cbf5a14	0.023358382
31	0x3d038a38	0.032114238
32	0x3bf00645	0.007324966
33	0xbc92e0cf	-0.017929463
34	0xbce558fe	-0.027996536
35	0xbd38ff96	-0.04516562
36	0xbc6b87cc	-0.014375638
37	0xbc39e612	-0.011346357
38	0xbd8725e2	-0.065990224
39	0x3ced1cb2	0.028944347
40	0xbd3476ae	-0.044058494
41	0x3c2350a8	0.00996796
42	0x3bcdcb6b	0.006280353
43	0x3d065fcb	0.0328062
44	0xbd88089c	-0.06642267
45	0x3d004626	0.0313169
46	0xbd64bbc9	-0.05584315
47	0x3b6806b8	0.0035404395
48	0xbd6ea16a	-0.058259405
49	0xbd0053db	-0.03132997
50	0x3d38b1cb	0.04509143
51	0x3ccafee6	0.024779748
52	0x3d328053	0.04357941
53	0xbd06ad97	-0.032880392
54	0x3c8a6f9d	0.016898924
55	0x3cad85ca	0.02118196
56	0xbc40fede	-0.011779515
57	0xbd05bd0f	-0.032651003
58	0x3bd5692f	0.006512783
59	0x3c8e0226	0.017335009
60	0x3ac28dae	0.0014843249
61	0xbcc4aa69	-0.02400704
62	0xbc6130d8	-0.013744555
63	0xbd8939c0	-0.06700468
64	0xbbcdd41c	-0.006281389
65	0x3d444406	0.047916435
66	0xbc336234	-0.010948706
67	0x3bd51d58	0.006503742
68	0x3c8709a8	0.016484097
69	0x3c992292	0.018693242
70	0xbcd6afed	-0.026206935
71	0x3d6ec088	0.05828908
72	0xbd26fe38	-0.040769786
73	0x3cdcd843	0.02695859
74	0xbcf9cd8c	-0.03049352
75	0x3c37be2d	0.011214775
76	0xbd781745	-0.060569067
77	0xbceb61de	-0.02873319
78	0xbcacccb8	-0.021093711
79	0x3d20a5eb	0.03922073
80	0xbd319fa1	-0.043365125
81	0xbd0d87b6	-0.034553252
82	0x3d1da221	0.038484696
83	0xbc08e5b4	-0.008355547
84	0x3d430ac3	0.047617685
85	0x3d4296b5	0.047507007
86	0x3c888b8a	0.0166681
87	0x3c99dd5b	0.018782308
88	0xbd09c0f0	-0.033631265
89	0xbd23ae6b	-0.03996126
90	0xbcc6a5fa	-0.024249066
91	0x3ced1141	0.028938891
92	0x3c9b5d32	0.018965337
93	0x3cdbc09b	0.02682524
94	0x3d12fc64	0.03588523
95	0x3cbc8203	0.023011213
96	0xbd0115cf	-0.03151494
97	0xbcf441aa	-0.029816467
98	0xbd1359bf	-0.03597426
99	0x3cd377ea	0.025814015
100	0xbc9cc16c	-0.0191352
101	0x3c92bbb4	0.01791177
102	0xbd9e65d1	-0.07734264
103	0xbc51387c	-0.012769815
104	0x3c04d21d	0.008106736
105	0x3cc35c0e	0.023847606
106	0xbbe6743e	-0.0070329
107	0x3a80fe7f	0.0009841471
108	0x3c79b499	0.015240812
109	0x3bad0f6e	0.0052813804
110	0xbcb4f7c0	-0.022090793
111	0x3d4e2065	0.050323863
112	0xbc475710	-0.012166753
113	0xbd3eb918	-0.046563238
114	0xbcc23a65	-0.023709485
115	0x3ad0a51d	0.0015918348
116	0xbd29bd5a	-0.041440345
117	0xbd168474	-0.03674741
118	0xbd440ee5	-0.047865767
119	0xbc34f110	-0.011043802
120	0x3c6e01ec	0.014526825
121	0x3d4d0ae5	0.050059218
122	0xbc3b5a7f	-0.01143515
123	0xbccaba3c	-0.024747007
124	0x3bb573e8	0.0055374987
125	0xbac49417	-0.0014997747
126	0xbca0e689	-0.019641178
127	0xbd2bd55e	-0.04195153
128	0xbcd2b0a1	-0.025718989
129	0x3c4d7124	0.012539182
130	0x3d19fb20	0.037593007
131	0x3b1c12c1	0.002381489
132	0x3b62474f	0.0034527367
133	0xbc885386	-0.01664139
134	0xbcd030ad	-0.025413835
135	0x3d158ad7	0.03650936
136	0x3d0c4495	0.034245092
137	0x3c71f74b	0.014768432
138	0x3bb147b2	0.005410158
139	0x3c78cfd9	0.0151862735
140	0xbbba9bcd	-0.0056948424
141	0x3cc8e1ac	0.024521671
142	0xbd273c72	-0.04082913
143	0xbc54cbe2	-0.012988063
144	0xbc02592c	-0.007955831
145	0x3bcd52ab	0.0062659583
146	0xbd109c7f	-0.035305496
147	0xbba17559	-0.004927319
148	0xbd55c562	-0.052190192
149	0x3b4041bb	0.0029336053
150	0xbcfa1f2c	-0.030532442
151	0x3c2d9082	0.010593535
152	0xbc86641b	-0.016405156
153	0x3cea9336	0.028634649
154	0xbc1c0119	-0.009521746
155	0x3c0db836	0.008649876
156	0xbc902dec	-0.017600022
157	0x3cb05d08	0.021528736
158	0xbc96ee6b	-0.018424233
159	0xbc38ceff	-0.01127982
160	0x3b23a43f	0.0024969724
161	0xbbc34f65	-0.0059603923
162	0xbc5ed093	-0.013599533
163	0x3c5bbd99	0.013411903
164	0xbc08f97c	-0.008360263
165	0xbba40a0c	-0.0050060805
166	0xbbe60999	-0.007020187
167	0xbc3bb350	-0.011456326
168	0x3b8c94dc	0.0042902064
169	0x3c200d54	0.009768803
170	0xbc9abeff	-0.018889902
171	0xbd48fdd8	-0.04907021
172	0x3d307a59	0.04308543
173	0x3c645088	0.013935216
174	0x3b1c0f1a	0.0023812712
175	0xbc68fddf	-0.014220684
176	0x3d13989c	0.03603421
177	0x3c601f10	0.013679281
178	0xbce6ef3f	-0.028190253
179	0xbc8b473b	-0.017001739
180	0x3d859544	0.06522611
181	0x3ca11c1b	0.019666722
182	0xbd159009	-0.036514316
183	0x3baf9c2f	0.0053591947
184	0x3ba159bf	0.0049240286
185	0xbc8deaad	-0.017323816
186	0xbba1035a	-0.0049137296
187	0x3c89b813	0.016811406
188	0xbc32fff7	-0.010925285
189	0x3b1a5296	0.002354776
190	0xbd6e1ce6	-0.05813303
191	0x3cce20d2	0.025162134
192	0xbd0e185f	-0.03469121
193	0xbd5b8e1f	-0.053602334
194	0x3c84c515	0.016207257
195	0xbcec985f	-0.02888125
196	0xbcec86c0	-0.028872848
197	0xbd2d7560	-0.042348266
198	0x3cd9311d	0.026512677
199	0xbc9c1c97	-0.019056601
200	0xbd1b96bf	-0.03798556
201	0xbc624ffd	-0.013813016
202	0x3c8f2e39	0.017478095
203	0x3aae048a	0.0013276499
204	0xbc37c05b	-0.011215295
205	0x3b57ecf9	0.0032947643
206	0x3bd5570e	0.006510622
207	0xbd144d00	-0.036206245
208	0xbb88d6e2	-0.0041760067
209	0xbc6130ed	-0.013744575
210	0xbcd1dfad	-0.025619352
211	0x3bfe1a55	0.007754604
212	0x3c0bc64b	0.008531163
213	0xbb03070c	-0.0019993214
214	0xbd442f9c	-0.047896966
215	0xbc9fc996	-0.019505303
216	0x3c51631a	0.012779975
217	0x3cc4a19c	0.024002843
218	0x3ce805d6	0.028323095
219	0xbb936638	-0.0044982694
220	0xbc5b9c79	-0.013404005
221	0xbbc20604	-0.0059211273
222	0xbd114ed4	-0.035475567
223	0xbbe3dc86	-0.0069537787
224	0x3c7e4a1c	0.015520599
225	0x3c3e0043	0.011596742
226	0x3bfe5039	0.007761028
227	0xbc662dc3	-0.014048996
228	0x3ced66e3	0.028979724
229	0xbcb01666	-0.021495055
230	0x3cb631b8	0.022240505
231	0xbd0edbb5	-0.034877498
232	0xbd02aa7c	-0.031900868
233	0xbd390537	-0.04517099
234	0x3cd0f57e	0.025507685
235	0xbc6907c2	-0.014223041
236	0xbc109c08	-0.008826263
237	0xbc643d95	-0.013930698
238	0xbc994a93	-0.018712318
239	0x3ca7f3b7	0.020501954
240	0xbc87a0b9	-0.01655613
241	0xbc005c09	-0.007834443
242	0xbc99d5ba	-0.01877867
243	0x3d808cd1	0.062768586
244	0x399367b1	0.0002811528
245	0x3cf1c227	0.029511524
246	0xbc705c74	-0.01467048
247	0x39ddd0d7	0.00042308003
248	0xbd0764a7	-0.033054974
249	0xbd22de91	-0.039763037
250	0x3d433529	0.04765812
251	0x3c6a9e48	0.014319964
252	0x3d0c797a	0.034295537
253	0x3cd3332b	0.025781235
254	0x3d4fc0b9	0.050720904
255	0x3c1e320c	0.009655487

action_model._continuous_distribution.mu.bias f4 [20]
0	0x3d0ba8b9	0.034096453
1	0xbc9063f4	-0.017625786
2	0x3ce59ff7	0.028030379
3	0xbbaa07f2	-0.0051889354
4	0x3c38dd31	0.011283205
5	0xbbbc4078	-0.00574499
6	0x3c307906	0.010771042
7	0x3c2c2296	0.010506293
8	0x3c93b0cb	0.018028637
9	0x3d0bd163	0.034135234
10	0x3b04330f	0.0020172035
11	0xbac3d871	-0.0014941824
12	0xbadd9ec1	-0.0016908274
13	0x3ab9fbd7	0.0014189434
14	0xbbabf64e	-0.0052478677
15	0x3c6ac002	0.014328005
16	0x3c581935	0.013189604
17	0xbc101100	-0.008793116
18	0x3af460b4	0.0018644542
19	0x3be4e80b	0.0069856695
