results/RLEnv2/Crawler/Crawler-1999987.onnx (onnx, 180794 bytes, 7 tensors)

network_body._body_endoder.seq_layers.0.weight f4 [128, 194]
000000 d5 d9 62 3e 17 89 b0 bc f5 04 5a 3c 08 de d2 bb
       0.22153409 -0.021549745 0.013306846 -0.0064351596
000010 ac 11 bb bd 55 72 d1 b9 94 ac 16 3e 56 61 83 3c
       -0.0913423 -0.0003994877 0.14714271 0.016037624
000020 ff b9 2c 3e 80 3c 05 bd 49 c3 84 3c a8 e4 d5 3d
       0.16867827 -0.0325284 0.0162064 0.10444003
000030 85 1e 47 3d f3 a2 73 3c ed a5 ee 3c a0 17 04 bd
       0.04861309 0.014870393 0.029131854 -0.032249093
000040 89 a7 89 bd c2 10 05 3d cd a5 c0 3d 6f 13 4a bd
       -0.06721408 0.032486685 0.09406624 -0.04933494
000050 fc 31 22 bd de 16 aa bd 1a 7b 91 3d 67 4a df bd
       -0.03959845 -0.08305143 0.07103558 -0.10902863
000060 02 bd 04 3d 6c c9 10 be ba bd a0 3d 90 1f 9b 3d
       0.032406814 -0.14139336 0.078486875 0.075743794
000070 f8 de 93 3c 85 4c 45 bb 66 e0 5c bd 9b 3a 94 3d
       0.018050656 -0.0030105424 -0.05392494 0.072377406
000080 b3 20 15 3c 12 ba 8d 3c eb 31 0c bd 83 ab 91 3d
       0.009102034 0.01730064 -0.034227293 0.071127914
000090 9f 65 e7 3c 69 96 ff bc 07 5b 2c 3d 79 45 2b 3c
       0.028246699 -0.03119965 0.042078998 0.010453575
0000a0 98 de b0 bd 00 c0 b1 3d bc 57 4b bd d1 48 f9 bd
       -0.086362064 0.08679199 -0.049644217 -0.12172092
0000b0 0b fd ae bd 81 35 20 3e cd 67 0f 3d 7e 99 ab bb
       -0.08544358 0.1564541 0.0350111 -0.0052368036
0000c0 0e c6 44 bd fa 19 81 bd 4c b0 a4 3c c6 83 d7 3c
       -0.048040442 -0.06303783 0.020103596 0.026307952
0000d0 84 2d 7b bc 9b 18 ab 3d 27 9b 1b 3d 83 95 bf 3c
       -0.015330676 0.083543025 0.03798976 0.023386722
0000e0 61 10 6d bd 03 ad c4 bd 3c 18 9a bc 42 87 2c bc
       -0.05787695 -0.09603312 -0.018810384 -0.010530295
0000f0 6d 46 ac 3b db a5 44 3e ed 27 9f bc 1c 99 18 3d
       0.005257419 0.19203894 -0.019428218 0.03725539
000100 a4 b8 29 3d e3 c2 1f be 6b c4 a7 bd d1 e6 cf bd
       0.041435853 -0.15601687 -0.08191761 -0.101514466
000110 56 4f 95 bd 9e 6b ec bc 45 b1 c1 bd 95 79 13 bd
       -0.07290523 -0.02885991 -0.094576396 -0.03600462
000120 e9 c4 89 3c ef d8 8e bd f6 eb 6e be e3 16 a3 3d
       0.016817527 -0.069749705 -0.233322 0.0796335
000130 cf 49 17 be 3a cf dd bc 8d c6 44 be 85 3f f1 ba
       -0.1477425 -0.027076352 -0.19216366 -0.0018405771
000140 66 9c f8 bc 28 19 30 be be b9 26 3d 17 85 9b bb
       -0.030348014 -0.17197096 0.04070448 -0.00474609
000150 5e 7b 8f bc fc a4 17 bd bb 33 5b be 0d af 39 be
       -0.01751488 -0.037022576 -0.21406452 -0.18133183
000160 df cd 16 bd 90 55 be bd 70 ee 3c 3c dd 3b f2 3c
       -0.036817428 -0.092936635 0.011531457 0.02956956
000170 66 63 aa bc b0 f4 f0 bd 36 c3 81 3c 0d 34 bb 3c
       -0.02079935 -0.117654204 0.015840154 0.022851968
000180 b9 36 ab 3b 88 2c a1 bc 7e 9c d6 bc 93 06 63 3d
       0.0052250293 -0.019674554 -0.026197668 0.05542619
000190 b6 27 72 3c a5 d3 45 3d 56 20 f6 3c 49 d7 05 bd
       0.014779976 0.048297543 0.030044716 -0.032676015
0001a0 1b 3e e3 3d b1 95 7d 3c bf 44 d2 bd d4 da 8e 3d
       0.1109583 0.015477584 -0.102670185 0.06975332
0001b0 0c da 86 3d 58 17 01 3d 7e 24 2d bd 8c 3b d5 3c
       0.06584558 0.031516403 -0.04227113 0.02602937
0001c0 4e 32 4b 3d 98 2f bf 3d d5 11 09 bd a6 5f 31 3d
       0.04960852 0.0933525 -0.03346427 0.043304108
0001d0 d1 2e 3b 3e 94 d8 80 bd 61 f6 84 bd de 8a c5 bd
       0.18279578 -0.06291309 -0.064923055 -0.096456274
0001e0 b0 52 32 bb 4c 39 93 3d ee 3c 1a 3d 73 d1 11 be
       -0.002720993 0.07188663 0.037655763 -0.14240055
0001f0 bd 38 29 3d 5e f8 c3 3d fe 73 04 bd 2d 6b 11 3d
       0.041313875 0.09568857 -0.03233718 0.0355026
000200 28 06 26 bc 19 96 e5 bc 32 9d 5a bc fe b1 13 3a
       -0.010133304 -0.028025674 -0.013343142 0.0005634128
000210 ce 20 c1 bd 26 31 95 3b 48 ba 8f 3c 21 b5 9a bd
       -0.09430085 0.004552978 0.01754488 -0.07554079
000220 25 d3 13 3d 3d ed 43 3d 94 29 dd bc a3 d1 b1 b7
       0.036090035 0.04783367 -0.026997365 -2.1197664e-05
000230 42 b4 98 bd 7f 75 76 bd 90 1c 73 be 39 bc 09 bd
       -0.074562564 -0.060170647 -0.23741364 -0.03362677
000240 58 c2 80 bd 89 f6 f3 bb d1 ae b4 3b 34 af 14 be
       -0.06287068 -0.0074451608 0.005514004 -0.1451996
000250 c7 ee 6d bd 39 ef 25 bd 50 b3 92 3d 7a 53 df bd
       -0.058089044 -0.040511344 0.071631074 -0.10904594
000260 23 79 e0 bd 53 08 93 bb 03 22 e0 bd 5f 3a 64 3c
       -0.10960605 -0.0044870763 -0.10943987 0.013929932
000270 25 bf 76 3d 98 cc 51 3d a5 28 d2 bb 7a d5 3d 3d
       0.060240883 0.051220506 -0.0064135366 0.046346165
000280 70 4d 1d be 02 ed 73 3d d3 04 06 3e 41 51 6a 3d
       -0.15361571 0.0595522 0.13087778 0.057206396
000290 66 e9 89 3c cb 4a 61 bd 6c fe e3 bd 3c fe 90 bc
       0.016834926 -0.05500297 -0.111325115 -0.017699353
0002a0 8c 09 93 3c f6 b8 e6 bb b2 8d 9c bb 68 fe 2b bd
       0.017948888 -0.007041092 -0.0047776336 -0.041990668
0002b0 a4 47 71 3d 72 8f e6 3d ad f4 4f 3d f5 96 66 3d
       0.058906212 0.11257829 0.05077045 0.056296308
0002c0 a3 f6 54 bc 24 ca 45 3d 0c 30 2b 3d a4 bc 0c ba
       -0.012998256 0.04828848 0.041793868 -0.0005368686
0002d0 16 e4 9b bd 78 a5 80 3b 11 55 ae bc b2 b1 94 3b
       -0.07611863 0.0039259754 -0.021280797 0.0045377845
0002e0 35 ff 03 3c 12 84 40 bd ec 05 cd bd a8 b7 05 bd
       0.008056452 -0.047000952 -0.10010895 -0.03264585
0002f0 f5 9e 79 3a 56 90 3a bd 46 75 e6 bc 8a e9 55 bc
       0.00095222826 -0.045547806 -0.028132092 -0.013056168
000300 2f 20 8e 3d 67 1d c7 3d ba ee 9a bc 12 3f 03 3e
       0.06939732 0.09722405 -0.018912662 0.12817028
000310 b2 44 80 bd 04 ee a7 3d e8 f7 ce 3b a0 c6 ba bc
       -0.062631026 0.08199695 0.006316174 -0.02279979
000320 ab 6f 68 bd 26 29 91 3c 1c e3 15 3e f4 16 99 bd
       -0.05674712 0.017719816 0.14637417 -0.07475081
000330 d2 cf 6d bd 5f c1 85 3c 7e 78 0a 3d 62 51 7a bc
       -0.05805952 0.016327558 0.033806317 -0.015278192
000340 38 3e 8d 3d 63 ff 10 3d 8d ff 51 3c b5 17 f7 3c
       0.06896633 0.035399806 0.012817276 0.030162672
000350 0e c2 9e bd 56 35 5b bb fc 81 c4 3c e8 35 bc bd
       -0.07751857 -0.0033448539 0.023987763 -0.09189969
000360 de 55 31 3d 05 c0 fd bd 9d 54 0c bd 87 a3 25 bd
       0.04329478 -0.123901404 -0.03426038 -0.040439155
000370 e8 04 2a bd da ac 01 bb 2e e2 af bd 44 db 1a 3e
       -0.041508585 -0.0019786865 -0.08588062 0.15122706
000380 10 56 3a bd 82 dc 30 3e 34 19 10 3d 22 48 bc bb
       -0.04549223 0.17271617 0.035180286 -0.0057459036
000390 77 1e 0c 3d b1 f3 f9 3d 91 a9 9e bd 4c 66 ad 3b
       0.03420874 0.122046836 -0.07747186 0.0052917358
0003a0 b8 72 d2 3b e3 96 84 bd 4d a1 8f 3d ce fe 25 3d
       0.006422367 -0.06474092 0.070131876 0.040526204
0003b0 e7 34 65 bd 65 ac 15 3e 98 74 3e 3d 31 eb a7 3d
       -0.055958655 0.14616545 0.04649791 0.08199156
0003c0 7e b4 e8 3c e7 e3 bc 3c 66 3f 80 bc e5 70 2d bd
       0.028406378 0.023057891 -0.01565523 -0.042343993
0003d0 ab 64 74 3d cd 65 21 be 67 f2 de bc e0 28 83 bd
       0.059666317 -0.1576149 -0.027215196 -0.06404281
0003e0 94 4b 90 3d 96 56 65 bc b4 14 4c 3d 38 36 26 3e
       0.070456654 -0.0139976945 0.04982443 0.1623162
0003f0 b6 c5 af 3c e4 25 90 ba 67 2f 4a bd 35 77 b0 bd
       0.02145658 -0.001099762 -0.049361613 -0.08616487

network_body._body_endoder.seq_layers.0.bias f4 [128]
000000 0c 2b 8c 3c b8 ac 1e bc 8a e4 06 3c 52 e3 11 bc
       0.01711037 -0.009684734 0.008233199 -0.008904295
000010 c7 62 94 3c 62 f7 06 bd fb 44 42 3c 85 80 29 3b
       0.018113507 -0.032950766 0.011857267 0.0025863957
000020 b6 3a 69 3c 65 92 86 3c f8 bb b9 3c fc 4d bd bb
       0.014235189 0.016427228 0.022672638 -0.0057771187
000030 f4 07 2b 3d aa b6 96 3c 88 38 98 3c 3b 77 91 39
       0.04175563 0.018397648 0.018581644 0.0002774539
000040 25 e4 5c bb f8 49 a5 3c a5 d4 f4 bb ba 6a 4c 3c
       -0.003370532 0.020176873 -0.0074716383 0.0124766175
000050 d1 47 fe 3c 7a 1e 2b bb 7f 63 44 3c e3 e7 c7 3c
       0.031040104 -0.0026110695 0.011986612 0.024402564
000060 4e ca 35 3c ad f7 9a 3c 9d 17 25 3a 0a a1 8b 3c
       0.0110955965 0.01891693 0.0006297769 0.017044563
000070 c2 46 5a 3d 7a f3 5d 3c 70 92 65 3c 98 94 85 3c
       0.053290136 0.013546819 0.014011964 0.016306207
000080 f5 51 3c 3c 83 fa 9c 3c e1 0e 89 3c 49 56 21 3d
       0.011494149 0.019162422 0.016730728 0.03938893
000090 a4 53 4d 3c 9c cc de 3c ec 14 b8 3c 93 f1 1f 3d
       0.0125321485 0.027197175 0.022470914 0.039048743
0000a0 f7 c1 cf 3c 52 0b f2 3b 52 f9 98 3c 80 98 b6 bb
       0.025361044 0.0073866034 0.018673573 -0.0055723786
0000b0 d9 eb da 3c f5 8e 2e 3c 6b a4 c2 3b 0f 7f 05 bb
       0.026723789 0.010654201 0.0059400103 -0.0020369922
0000c0 29 fa 9a 3c 8a d4 a0 3b 01 22 9d 3c 17 c9 10 bc
       0.018918114 0.004908149 0.019181253 -0.008837006
0000d0 ac ba 9e 3c 19 11 0c 3d be ca e7 3c b1 7f d9 3c
       0.019376121 0.034195993 0.028294917 0.026550146
0000e0 0f 65 44 3c fb f5 26 3d 1f a3 29 3c c3 b2 3f 3c
       0.011986985 0.04076193 0.0103538325 0.011700335
0000f0 31 45 50 3c 86 09 a8 38 36 4e 51 3c 53 5d 20 3c
       0.012711809 8.012638e-05 0.012774995 0.009787875
000100 8e 93 03 3d 26 cd 13 3d 75 5e ad 3c 79 e8 d3 3c
       0.03212314 0.036084317 0.021163205 0.025867688
000110 a9 c3 6e 3c fc df b6 3c 94 20 ec 3c c1 61 66 3c
       0.014573016 0.022323601 0.028824128 0.014061392
000120 06 58 bc bb f9 32 d5 bc 73 9d db 3c 40 ef c9 3c
       -0.005747798 -0.026025282 0.026808476 0.024650216
000130 5c de 16 bd 64 f5 a7 3c 4b 3f 83 3c 22 03 c5 bb
       -0.036833152 0.020502754 0.016021391 -0.0060123364
000140 90 e6 a4 3c be bf 2e 3d 73 b4 6e 3c db 6c 48 3d
       0.020129472 0.04266333 0.01456939 0.048931938
000150 41 b6 06 3d 13 77 85 3c 1f 53 37 3c 45 61 cb 3c
       0.032888655 0.01629213 0.011189251 0.024826655
000160 84 34 4c 3d ba 4d 08 bc 04 b1 cc 3c bd 60 3d bd
       0.04985477 -0.008319313 0.024986751 -0.046234835
000170 eb 92 31 bb a6 12 8f 3c 76 52 c0 bc d8 e5 dd 3c
       -0.0027095627 0.017464947 -0.02347682 0.027087137
000180 3b bb f1 3c 12 cc bf bb 42 e3 48 3d 9d 7d 73 bc
       0.029508224 -0.0058531845 0.049044855 -0.0148614915
000190 db be 2e bd 84 ee 4c 3c f2 79 dc 3b 79 b0 63 bb
       -0.042662483 0.012508038 0.006728404 -0.0034742637
0001a0 da de c6 3c c9 a2 e6 3b 3c 8b 8f 3c 48 c1 a0 3c
       0.024276186 0.0070384485 0.017522447 0.019623414
0001b0 d3 0b cc 3c 82 d5 32 bd 52 99 0e 3b 9a ce c3 3c
       0.024907982 -0.04366065 0.0021758866 0.023902226
0001c0 3b 3c 2c 3c 2a 64 36 b9 00 7e 6b 3c 79 2f 09 bd
       0.010512407 -0.00017394187 0.014373302 -0.03349254
0001d0 b0 c7 ad 3c d9 1a 63 ba 1a 59 d2 3c eb 30 f4 3c
       0.021213382 -0.00086633634 0.025677253 0.029808482
0001e0 54 8f 1d 3d a9 c1 ae 3c 8b a3 26 3c 56 8a da 3c
       0.038466766 0.021332579 0.010170828 0.026677292
0001f0 e7 83 4a bc 69 f5 80 3c a1 85 ab 3c 93 85 53 3c
       -0.0123605495 0.01574202 0.020937743 0.012910265

network_body._body_endoder.seq_layers.2.weight f4 [128, 128]
000000 99 2d 80 3d bb c8 80 3d ae 2a ed 3d c2 35 00 3e
       0.06258697 0.06288286 0.11580406 0.12520507
000010 07 bd 1c 3d d9 af 07 bd 81 c7 a2 bd 5c 13 39 3e
       0.038266208 -0.033126686 -0.079482086 0.18073791
000020 0a 5a 1a 3d fe f9 ff 3d 53 43 4f bd 1a a0 56 3d
       0.037683524 0.12498854 -0.050601315 0.05239878
000030 99 1b 33 bd f0 d9 81 3d 18 c7 12 3c b3 c1 69 be
       -0.04372749 0.063403964 0.0089586 -0.22827797
000040 91 e6 df bd 65 8b 6e bd 2e 6c 31 3e a4 1f 4a bc
       -0.10932649 -0.058238406 0.17326424 -0.012336645
000050 4f e6 ee bc ab 54 75 bd bd d5 2b 3d d2 54 d9 bc
       -0.029162554 -0.0598952 0.041951884 -0.026529703
000060 0c 24 a3 bd e2 29 10 bd 38 89 81 bd bc 38 07 3e
       -0.0796586 -0.035196193 -0.063250005 0.13205236
000070 58 14 bf bd 1e 21 fa bd d0 8c cc bc 84 a1 3b bb
       -0.09330052 -0.12213348 -0.024969488 -0.0028630206
000080 44 05 52 3c d6 3c 8a bc 92 cf f3 bd d2 be 96 bd
       0.012818638 -0.016874712 -0.11904825 -0.07360615
000090 ca ce a9 bd 88 13 a8 bd d8 71 b1 bd 75 4d 34 3c
       -0.08291395 -0.0820685 -0.08664292 0.011004795
0000a0 e1 1d 14 bd c4 60 14 3e c5 6a 94 3d 3e ea b2 3c
       -0.036161307 0.14490038 0.07246927 0.021840211
0000b0 b4 ac d4 bd a0 f2 a7 3d 79 0c 9c bd 00 ea dd bb
       -0.10384503 0.08200574 -0.076195665 -0.0067722797
0000c0 5c 42 d6 bd 99 35 97 bd dc a4 09 3c fd 51 41 3e
       -0.10461876 -0.0738327 0.008401122 0.18878932
0000d0 bb 53 21 3e 4b 5b 0d 3e a4 56 c1 3d b9 a0 d7 3d
       0.15754597 0.13804357 0.094403535 0.10528702
0000e0 0e 2c 96 bc ad 12 8d bd 0a 73 3c bc 7f 49 9a 3b
       -0.018331554 -0.06888328 -0.011502037 0.0047084684
0000f0 f0 a6 0e be 76 ae 4d 3c 9f 0b 4d 3d c0 3c 05 3e
       -0.13930869 0.012553802 0.05005991 0.13011456
000100 68 0d ab 3c 9e 0b 54 bc af 89 0d be a9 10 1d bd
       0.020880416 -0.012942223 -0.13822053 -0.038345966
000110 1b 1f 8f 3c 06 eb ea bc 8c 37 fe 3d e2 c3 9a bd
       0.017470887 -0.028676521 0.124129385 -0.07556893
000120 f0 7c d5 bc e7 8a 49 bb 82 01 35 bc 34 bd 04 bd
       -0.026060551 -0.0030752958 -0.011047723 -0.032407
000130 b0 8b c9 bd 9a 3d ed 3c d7 a2 7c bd 69 05 99 bd
       -0.098410964 0.028960038 -0.061678734 -0.07471735
000140 c5 b0 38 3e 68 36 f2 3d 62 da 4d 3d 08 5e 76 3d
       0.18036182 0.118267834 0.050257094 0.06014827
000150 88 95 5e 3e b5 ff 3b 3e d1 41 1c 3d 5f 52 b6 3d
       0.21736729 0.18359263 0.038148705 0.0890243
000160 bf 5b b2 3d 21 3b 7c 3d 6c 3f f5 bc ef 8c 75 be
       0.087089054 0.061579827 -0.029937468 -0.23979543
000170 f4 f9 25 3e 0d 12 0d bd e2 e2 dd bc 1a a0 de bd
       0.16208631 -0.034441043 -0.027085725 -0.10870381
000180 a1 dd 21 3d 46 38 ba 3d 9f aa b9 bd 6a 93 e2 3d
       0.039518002 0.090927646 -0.090657465 0.11063273
000190 f4 a1 8c 3c d2 7b 32 3e e7 76 52 3d f6 8b 52 be
       0.017167069 0.17430046 0.051382925 -0.20561203
0001a0 c6 98 f0 3b 9e 36 e0 bc c8 93 8d 3d 0e ce 23 be
       0.0073424308 -0.027369794 0.06912953 -0.15996572
0001b0 83 30 48 bd ab 0f ae bd 18 21 d4 bb 2c 08 16 3d
       -0.04887439 -0.08499082 -0.0064736716 0.036628887
0001c0 b4 72 0c 3d 6d 44 6e bd 94 40 23 3d 74 1c 0e 3d
       0.034289077 -0.058170725 0.03985651 0.034695104
0001d0 bb 3b 84 bc 6c 19 da bc ef 00 e2 3c 06 46 e0 3d
       -0.016141763 -0.02662345 0.027588336 0.10950856
0001e0 59 bc 11 bd e9 66 41 bd c7 5b 66 3b 05 1b cf 3c
       -0.035580013 -0.047217283 0.0035149918 0.025281439
0001f0 3c 4c f3 bd 03 e7 d4 bc c4 4f 50 3d 3c 12 39 3e
       -0.11879775 -0.025989061 0.05085732 0.18073362
000200 dc 88 8d bd ae 98 d4 bc 51 87 56 3e cf a6 24 bc
       -0.069108695 -0.02595171 0.20950057 -0.010049536
000210 f2 ef 83 bd 1d cd e7 bd 65 83 8c bd 20 b5 5e 3d
       -0.0644225 -0.11318419 -0.06860999 0.054371953
000220 ad 1f 3d bc ad 48 11 3e 36 c7 27 bd ff 27 7f 3d
       -0.011543197 0.1418788 -0.040961467 0.062294003
000230 82 51 52 bc 8b 60 23 be 96 f6 de bd ba b2 a7 3d
       -0.012836816 -0.15954797 -0.10886876 0.08188386
000240 b3 e0 cc 3d 52 b8 e1 3d b8 b1 0d be 87 da 43 bc
       0.100037955 0.110214844 -0.13837326 -0.011953956
000250 14 de 76 bd b1 61 26 bd a1 b3 f0 3d 51 b6 df bd
       -0.060270384 -0.04062051 0.117530115 -0.10923446
000260 40 c2 e6 3c c5 9c e6 3d fc f8 84 3b 1b f6 1a bc
       0.028168797 0.1126037 0.0040580016 -0.00945809
000270 74 ac 68 bd dc e3 0e 3e 75 a7 92 bd 9e d5 0a be
       -0.05680509 0.13954109 -0.07160846 -0.13558051
000280 10 41 6c bd 41 0d df 3c b0 5a 39 be a6 8c c4 bd
       -0.057679236 0.027228 -0.18101001 -0.09597139
000290 51 a3 b9 3d 63 67 53 3d 76 a1 88 bd 7c e3 33 3d
       0.09064353 0.05161227 -0.06671421 0.043918118
0002a0 a7 c1 af 3d 81 51 18 bd 00 74 3f bd b4 94 70 3d
       0.08581858 -0.037187103 -0.046741486 0.058735564
0002b0 49 b4 24 be 8c c9 fb 3b 21 5d 17 be dd f4 b3 3d
       -0.16084398 0.0076839384 -0.1478162 0.08786938
0002c0 c9 6f 52 be 27 6e fa bd 38 79 0b 3e 92 f7 cc 3d
       -0.20550455 -0.12228041 0.1362046 0.10008158
0002d0 8f 0e 42 be 6d 1f e5 bc d9 e2 43 be ae f7 75 be
       -0.18950866 -0.027969087 -0.19129504 -0.24020264
0002e0 51 b9 09 3d fb 35 68 3d df e9 4f bd 56 e2 18 3d
       0.033623997 0.056692105 -0.050760146 0.037325226
0002f0 ab 71 b0 3c 91 89 ea bd 84 73 7f bc 76 ce 36 3d
       0.021538576 -0.1145202 -0.015591506 0.04463049
000300 38 e3 23 3d 34 e6 af 3d 61 4f 03 be 0e 63 0c bd
       0.040011615 0.0858883 -0.1282325 -0.034274153
000310 c1 a3 af bb 41 45 49 bd a0 d1 92 3d 4b 1d c3 bc
       -0.005360097 -0.04913831 0.07168889 -0.023817679
000320 ee d0 3e be 43 bd 94 bc 41 43 c9 3d fd 83 46 be
       -0.18634388 -0.018156653 0.09827281 -0.19386287
000330 65 7a 9a bd 02 3b 18 be 67 b9 a2 bd f1 20 1a be
       -0.07542876 -0.1486626 -0.07945519 -0.15051629
000340 ae 1c a4 3d 40 78 72 3e fa 06 b6 bd 33 8f d6 bd
       0.08013283 0.23678684 -0.088880494 -0.10476532
000350 aa 5e 03 be 20 71 9a bc 00 ef a9 bd 50 1a b3 3c
       -0.1282908 -0.01885277 -0.08297539 0.021863133
000360 7c 2a c9 bd d8 47 e5 bd 4d 31 f8 3d ad 87 a0 bd
       -0.098225564 -0.11195344 0.121187784 -0.07838378
000370 a5 c9 1b bd f9 e5 68 bd 95 68 90 bd 8e 99 ad 3d
       -0.0380341 -0.056859944 -0.070511974 0.08476554
000380 89 d1 1a 3e d9 d3 ee bc d1 92 c8 3d 5f 99 a4 3d
       0.15118994 -0.029153751 0.09793628 0.08037066
000390 4d 89 d5 3d 20 b9 24 bd 1e 6a e6 3d 1a cb 32 bb
       0.10426579 -0.04021561 0.11250709 -0.0027281702
0003a0 30 a8 26 be ed c5 29 bc 21 8a a7 3c 23 7c e7 bc
       -0.16275096 -0.010362131 0.020451607 -0.028257435
0003b0 12 d3 a0 3d 47 c6 63 bc 83 70 22 3e da 7c b4 3d
       0.078527585 -0.0139022535 0.15863232 0.08812876
0003c0 5d b7 0e bd e2 e6 16 3e 84 83 29 3d 34 d0 1c 3d
       -0.034842838 0.14736512 0.04138519 0.038284495
0003d0 55 96 9b bd 6e 89 4a be fe 77 10 3d 61 55 a7 3d
       -0.07597033 -0.19778988 0.035270683 0.081705816
0003e0 54 82 41 bb 85 d0 c7 bd 1b a3 ad bc 56 e6 44 3c
       -0.0029527145 -0.09756569 -0.021195939 0.012017807
0003f0 1a ed 71 3d ce 62 44 bd ff a7 90 bd 2d bd a2 3d
       0.05906401 -0.04794579 -0.07063293 0.07946239

network_body._body_endoder.seq_layers.2.bias f4 [128]
000000 b4 a6 54 3c 38 bb 0d 3c 22 3f 90 bc 4d 5a 12 bc
       0.012979198 0.008650593 -0.01760823 -0.008932662
000010 79 ff e3 bb 75 86 dd bc c6 68 c5 3c 57 58 50 bc
       -0.006957945 -0.027041653 0.024097811 -0.012716374
000020 b6 3f e3 bb 34 d8 1e 3b 29 af b5 3c 0a 50 32 3c
       -0.006935085 0.0024237754 0.02217825 0.010883341
000030 cc d4 18 3d f6 e3 b2 3b 49 5e 00 3d e3 99 1a ba
       0.037312314 0.005459304 0.031339917 -0.00058975647
000040 c0 4f ed 3c ab e2 8c 3c 2b 6d 8e 3c 1a db 8a 3b
       0.028968692 0.017197927 0.01738604 0.0042375447
000050 65 22 e2 3c 01 54 af 3c f7 05 f1 3b d8 33 63 bc
       0.027604291 0.02140236 0.0073554474 -0.013867341
000060 ff 4b ec bc d7 b3 f7 bb cb bc e2 3b 51 c9 09 bc
       -0.028844832 -0.0075592804 0.0069194785 -0.008409814
000070 0f 2a 69 bc f0 17 2e ba aa 33 54 bb a9 a1 d4 bb
       -0.014231219 -0.000664114 -0.0032379427 -0.006488998
000080 a1 44 4d bd be 7d 3b bc f2 82 af 3c cd f0 90 bb
       -0.050114278 -0.0114435535 0.021424744 -0.004423237
000090 3f eb a9 bb ef f6 ad bb 38 3e 82 bb 0f fe b4 3c
       -0.005185514 -0.005308978 -0.003974702 0.0220938
0000a0 75 cc 36 35 a9 1d 29 3c 3c 28 62 3a 92 58 ab 3c
       6.809781e-07 0.010322013 0.0008627211 0.020916257
0000b0 c5 7f 14 bd 81 d1 bf b9 97 ad 1a bd 65 94 a6 3c
       -0.036254663 -0.00036586451 -0.037763204 0.020334432
0000c0 e4 e3 ce bc 8d ff d8 bb ef 67 05 3d 4d 19 dc 3c
       -0.025255151 -0.006622261 0.032569822 0.026867533
0000d0 1e 68 47 3c dd fa 02 3d 95 99 98 bb 0a cf 2e 3d
       0.01217082 0.031977523 -0.0046569803 0.042677917
0000e0 37 43 61 bd 27 6b a6 ba 24 cc 34 3c 85 2a 0f 3c
       -0.05499574 -0.0012696729 0.011034999 0.008738165
0000f0 fc a3 f0 3c 4a 84 c0 bb 81 5c 19 3d 1e ca 28 bc
       0.029375069 -0.005875145 0.037441734 -0.010302095
000100 26 5e 27 3d fc e3 e7 3c de 63 e7 3c 02 83 55 bc
       0.04086127 0.028306954 0.028245863 -0.013031723
000110 94 14 36 3c e5 52 de 3c c3 49 2e 3c 99 f6 3e 3c
       0.011113305 0.027139137 0.010637703 0.011655473
000120 ab dc 30 3c ff 5c 56 3c 6c 34 b3 b9 18 f9 16 bb
       0.010794799 0.013083695 -0.00034180598 -0.0023036655
000130 fe e8 d5 3c 90 87 2f 3b 78 00 cd 3b 14 1c f6 3c
       0.026112076 0.0026783682 0.0062561594 0.030042686
000140 cb eb c9 bb 38 02 b6 bb f3 b1 a2 3c 5c ad 9c 3c
       -0.006162142 -0.0055544637 0.019860243 0.019125633
000150 da 8c 14 3c 6e 0e 4f 3c 06 3f 31 3c 6b 5f a5 3c
       0.009066785 0.012637718 0.010818249 0.0201871
000160 61 34 b2 3c e7 b9 2a bd 44 8b 0c bd c0 08 e2 3b
       0.021753492 -0.041681197 -0.0343125 0.0068980157
000170 31 42 37 bb 94 f2 dc 3c dc 4b 2b 3c ab 39 83 3c
       -0.0027963037 0.026971139 0.010455098 0.01601871
000180 3e 94 8a 3c ca 06 fc bc 2c 86 64 bc 65 d0 b1 3a
       0.01691639 -0.030764956 -0.013948005 0.0013566135
000190 50 2a b8 3c a4 c5 b3 3c 1e ba ae bc e1 91 12 3b
       0.022481114 0.021944828 -0.021328982 0.0022364783
0001a0 98 aa 5b 3c 63 a1 aa 3b 4f 1e c5 3c 97 48 94 3b
       0.013407372 0.005207227 0.024062304 0.004525255
0001b0 9d 70 fa 3c 71 0a e8 3c 4d d3 21 3c 11 86 1c bc
       0.030571276 0.028325291 0.009877038 -0.009553448
0001c0 07 4b e0 3c b8 a0 96 3c 9b ed 58 3d 25 39 41 bc
       0.027379526 0.018387184 0.052960973 -0.0117934095
0001d0 ea 95 21 3d 76 af 1b bd 48 91 c3 3c a0 d1 e0 3c
       0.03944961 -0.03800913 0.023872986 0.027443707
0001e0 65 42 87 bc 21 28 c9 3c e4 77 f9 bb 02 80 38 3c
       -0.016511152 0.024555268 -0.007613169 0.011260988
0001f0 9c 97 15 bd b8 3d bd 3c 43 46 85 3c a9 d6 44 bc
       -0.03652154 0.023100719 0.016268855 -0.01201407

action_model._continuous_distribution.log_sigma f4 [1, 20]
000000 30 d9 46 bd bd bd b1 bd 7a 56 db bd 5a 7d 17 bd
       -0.04854697 -0.08678768 -0.107098535 -0.03698478
000010 60 f1 93 bd c8 4a 5e bd 89 b3 ff bd c0 2f 7c 3c
       -0.07223773 -0.054270536 -0.124854155 0.015392244
000020 6a e7 5c bd f2 53 7e be eb da d5 3d d2 90 87 3d
       -0.05393163 -0.2483671 0.10442146 0.06619419
000030 02 b9 76 bc c8 d4 35 bd fc 97 42 bd cb f2 49 bd
       -0.015058758 -0.044392377 -0.047508225 -0.04930381
000040 1d c4 c0 3c 2c c0 a2 3d dc 8a af bd 5b 8b 85 3b
       0.023531014 0.0794681 -0.08571407 0.0040754504

action_model._continuous_distribution.mu.weight f4 [20, 128]
000000 37 b7 c5 bc 2e 98 d0 3c 44 94 af bd a3 f4 b1 bb
       -0.024135215 0.02546319 -0.08573201 -0.0054307743
000010 c9 7e 41 bb f6 38 5d bd c2 01 28 3c 5c 79 a4 bc
       -0.0029525033 -0.0540094 0.010254325 -0.0200774
000020 df a9 3c bc 5a 37 d3 bd 64 c8 4d 3d 97 df 95 bd
       -0.01151511 -0.10313292 0.050239936 -0.07318037
000030 2a d6 4b bc 61 b3 86 3d 92 3f 5c 3c 7a a4 42 3d
       -0.012441197 0.065771826 0.013442891 0.04752014
000040 99 41 80 3d 3e ac 3b 3b f9 65 e8 3a 14 04 d7 ba
       0.06262512 0.00286366 0.0017730586 -0.0016404414
000050 5c 4f 77 bd 67 ea cd 3b 50 06 b3 3c 72 13 0f bd
       -0.060378417 0.0062840465 0.021853596 -0.034930654
000060 7e 61 b8 3b cb b2 15 3d 96 93 92 3b e8 2c 64 3b
       0.0056268563 0.036547463 0.00447316 0.0034816805
000070 13 1a 56 3b 8a 45 08 bd c6 8b 68 3c c8 de f6 3c
       0.003266935 -0.033269443 0.014193481 0.030135527
000080 e6 d6 1b 3c e0 40 28 bd 40 5a 89 bc 58 d0 54 bd
       0.009511685 -0.041077495 -0.016766667 -0.051956505
000090 34 6d 9f bb 68 3f 09 bc 06 3a 83 bd cc de 12 3d
       -0.004865313 -0.008376934 -0.064075515 0.035857007
0000a0 91 26 09 bd 1c 1d 17 bc ab 31 13 3b 2c 6a bd 3c
       -0.033484045 -0.009223249 0.0022460024 0.023121916
0000b0 f1 53 84 bd 1d 25 94 3c 34 21 91 bd 4a df e6 3a
       -0.06461323 0.018084103 -0.07086411 0.0017614153
0000c0 d9 be 4c bd 9e f9 5a 3c 41 41 0f 3d 23 1d c5 3b
       -0.049986694 0.013365177 0.03497434 0.0060154363
0000d0 db 35 2a 3d e5 5a 3b bd f4 90 1f 3c fe be ad 3c
       0.041555267 -0.04574098 0.009739149 0.021209236
0000e0 b1 cb b9 bc 4a e9 a2 3a 2b 09 3e 3c dd fa fe 3c
       -0.022680135 0.0012429145 0.0115988655 0.03112548
0000f0 e3 a9 ad ba d4 7a 71 bd d3 39 c8 bc 4b b0 ba bd
       -0.0013249483 -0.05895503 -0.024441635 -0.091156565
000100 07 5c 3a bc 61 0a 39 3d 4f 8c 1b bd d8 35 2a 3c
       -0.01137448 0.045175914 -0.037975606 0.010388814
000110 68 63 a2 3a 68 df e9 3b 15 f2 65 3a d2 f4 7b 3d
       0.0012389245 0.007137228 0.000877173 0.061512776
000120 04 8c 3e bd fa af c1 3c d3 92 ae bc 7f b3 43 bc
       -0.046520248 0.023643482 -0.021310246 -0.011944651
000130 61 5f 79 bd dc 34 b4 3c 74 91 b9 39 67 1b 29 3d
       -0.060881976 0.021997862 0.0003539432 0.0412859
000140 9b 7a 27 bd a6 70 d5 bc 67 8d 13 3d 05 8a a9 3b
       -0.04088841 -0.026054692 0.036023524 0.005173924
000150 83 df 16 3d 3d 81 0b 3d e9 58 3d 3d e1 85 3b 3c
       0.03683425 0.034058798 0.04622737 0.011445493
000160 1f 4a 8f bd a7 0b ed bc 40 55 1a bd 83 99 e4 3c
       -0.06996559 -0.02893622 -0.037678957 0.027905231
000170 80 99 16 3c dd 92 db 3c af 10 0d 3d 38 6b 78 3d
       0.009191871 0.026803428 0.03443974 0.060649127
000180 4e c7 c2 bc bc 83 c4 bc 09 74 5d bd f2 e3 6f 3c
       -0.023776677 -0.023988597 -0.054065738 0.014641749
000190 1d 6c c6 bb 47 00 ae 3c 06 64 63 bd 84 03 04 bc
       -0.0060553686 0.021240367 -0.05551531 -0.008057479
0001a0 e9 46 20 bc d0 31 81 3c 52 7c ec 3a c0 44 14 3c
       -0.009782531 0.015770823 0.0018042421 0.009049594
0001b0 11 48 bf 3c 65 1d 6c bc 8d 79 d5 bc b8 af e2 3c
       0.023349794 -0.014411305 -0.026058936 0.02767168
0001c0 8b ed 25 3c 3e a8 08 bd 96 26 c7 bb 34 3c 66 bc
       0.010127435 -0.033363573 -0.006077598 -0.0140524395
0001d0 7d 8a da bc a4 14 17 3c cf 12 42 bd 14 af ce bc
       -0.026677364 0.00922123 -0.04738122 -0.025229968
0001e0 34 9c 32 3c c2 47 2f 3d 22 d3 00 bd a3 b4 f0 3b
       0.0109015 0.042793043 -0.031451352 0.0073457523
0001f0 07 56 db bc 96 12 d0 3b 1a c3 e3 bc 4e 6c 8b bd
       -0.02677442 0.006349872 -0.027802993 -0.06807767
000200 15 df c7 bc 38 bc 08 3d 65 96 af 3c 6a 4d 5f bc
       -0.024398366 0.033382624 0.021434018 -0.013629297
000210 24 f8 74 bc 4d 0e a3 bc cd 80 02 bd 9a 53 44 3d
       -0.014951739 -0.01990428 -0.031861115 0.04793129
000220 ad fb 93 3c 86 c5 e8 bc 32 e2 e2 3b 91 e3 9e 3c
       0.018064344 -0.028414499 0.0069239372 0.019395621
000230 bb 63 a6 bb b4 14 98 3c 9e 74 34 bd ad 6a d2 bc
       -0.0050778068 0.01856456 -0.044056527 -0.025685633
000240 ff 61 7a bc ba d2 3b bb b5 b5 00 bd ec da ec 3b
       -0.015282153 -0.0028659538 -0.03142329 0.007228246
000250 d6 c5 82 bd af 28 ad 3b b1 fe 4a bc e6 4a 9c 3c
       -0.063853905 0.005284391 -0.012389825 0.019078683
000260 60 74 f2 bc 89 37 78 3d 9d 40 0b bd e2 f7 b5 3c
       -0.029596508 0.060599837 -0.033997167 0.022212926
000270 03 d3 bf 3a 35 0a 43 3b 8b 53 8a bc 33 d4 8d bc
       0.001463503 0.0029760723 -0.01688554 -0.017313099
000280 ff d4 fa 3a 82 7d d1 bc 63 6b 0a bd 71 c2 be bb
       0.0019136964 -0.025572542 -0.03379382 -0.005821519
000290 ee e4 80 bc 85 66 af bc d5 88 14 bb dd 5b 59 bc
       -0.015734162 -0.02141119 -0.0022664566 -0.013266531
0002a0 9d 08 d2 bb 17 a6 1e bc 99 1b 01 bd 08 18 55 bd
       -0.006409718 -0.009683154 -0.03152046 -0.05202487
0002b0 5c 93 f4 3c c5 2b 99 bb 12 76 7d 3b 2d 9f 6a bc
       0.029855423 -0.004674407 0.0038675112 -0.014320177
0002c0 5c 9e 81 3d 8f 4e 0f 3d 47 f7 bf bc bb 66 40 bc
       0.06329033 0.03498703 -0.02343334 -0.011743243
0002d0 e8 42 92 3d fa 43 8e 3c 9e a4 4b bc 43 4d 59 3c
       0.071416676 0.017366398 -0.0124293845 0.01326305
0002e0 d4 24 e6 ba 9d 57 12 bd 31 d8 1d bc f7 d0 a5 3c
       -0.0017558583 -0.035728086 -0.009634064 0.020241244
0002f0 4c 42 c1 bc b8 ac 76 bc 08 33 5f bd 80 d3 cd 3c
       -0.023591183 -0.015055828 -0.054492027 0.025125265
000300 30 ea 44 bd c2 2c 6d bd 6e a0 ad 3c 21 ac 30 bd
       -0.0480749 -0.057904013 0.021194663 -0.043132905
000310 f7 7f 10 bd e9 ea 0d bd 40 4f 18 3d f9 c7 88 bc
       -0.035278287 -0.034647856 0.037184954 -0.016696917
000320 d8 d1 e9 bc fe ed 23 bc 51 2b c3 3c d3 ac 53 3a
       -0.028542444 -0.010005472 0.023824366 0.0008074764
000330 de 5a 0f bd 1b e3 f2 3c 5f 55 14 3b 47 26 1e bd
       -0.034998767 0.029649308 0.0022633893 -0.038610723
000340 08 31 52 bb 27 84 b2 bb 07 53 bc bc 07 80 aa 3b
       -0.0032072682 -0.0054478827 -0.02298881 0.0052032503
000350 d2 66 16 3c ed a7 3b bc 7f 79 3b bd 0e 7b a7 bc
       0.009179788 -0.011453611 -0.045770165 -0.02044442
000360 b7 a8 b8 3c 7f 84 a6 3c 7a 84 42 3c 0c 35 10 3b
       0.022541387 0.020326851 0.011872405 0.0022004275
000370 8b a0 d7 bc e1 b1 12 3c 3b 69 1b bd 51 db e3 bb
       -0.02632167 0.008953542 -0.037942152 -0.006953635
000380 22 5a 21 bc 49 e7 08 bb bc 89 02 3d 02 fb af 3c
       -0.0098481495 -0.002088981 0.031869635 0.021481995
000390 9e 7f 0f 3d 29 c6 61 bc 98 bf c1 3c b2 87 06 bd
       0.035033815 -0.013780155 0.02365093 -0.032844253
0003a0 76 2e 1a bd 39 a2 38 bd 93 62 c4 3c 0d 1a 87 bc
       -0.037641965 -0.045076583 0.023972785 -0.016491914
0003b0 e7 33 d2 bb 81 2a 94 bc 9d c4 1a bd 31 97 9d 3b
       -0.0064148786 -0.018086674 -0.03778516 0.004809283
0003c0 64 c0 a6 bc d6 9c 7f 3c 0e 97 a7 bc 54 d4 b3 3d
       -0.02035541 0.015601357 -0.02045777 0.08780733
0003d0 bd a0 16 3d 44 41 1f 3d f6 55 be bc 0c f7 33 3c
       0.036774386 0.0388806 -0.023234349 0.0109841935
0003e0 09 e6 19 bd cc 15 26 bd 4c f8 8d 3d 8b 8f 47 3d
       -0.037572894 -0.04054813 0.069321245 0.048720878
0003f0 49 b2 32 3b 72 86 93 3c 80 09 ff 3c 41 02 27 3b
       0.002726691 0.018008444 0.03113246 0.0025483521

action_model._continuous_distribution.mu.bias f4 [20]
000000 33 88 0c 3d ae be 99 bc 87 e8 f3 3c 6c 3a b1 bc
       0.034309577 -0.018767681 0.029773964 -0.021634303
000010 7f 31 2c 3c 7a 6a 61 3c 10 91 58 3c c1 58 63 b9
       0.010509848 0.013758296 0.013218179 -0.0002168147
000020 9f ea d2 3c 4a b0 1e 3d 39 2f 28 3b 8d 36 66 ba
       0.025746642 0.03874234 0.0025662913 -0.00087819324
000030 72 65 36 bc c4 d4 dd 3b 3d eb 38 bc 16 7e 84 3c
       -0.011132585 0.0067697484 -0.011286554 0.016173404
000040 99 cb b6 3c 8b 2a c3 bc 92 53 78 3b 81 b7 16 3c
       0.02231388 -0.023823997 0.0037891609 0.009199024
