Proyecto-RL-main/Assets/Models/Phase-3 (duoCW-V2)/Crawler.onnx (onnx, 711108 bytes, 9 tensors)

network_body._body_endoder.seq_layers.0.weight f4 [256, 154]
0.057633452 -0.04224885 -0.030675955 -0.14405876 0.015909676 -0.007500377 0.060860302 -0.03984603
0.035085887 0.015721316 -0.0737894 -0.087701425 -0.10508182 -0.15263343 -0.103487715 -0.112019874
-0.10693132 0.03540501 -0.062243324 0.0066138594 0.1874244 0.0073126443 0.09308759 -0.011191787
-0.028393527 -0.047071777 0.09392075 0.09869457 -0.06513892 0.117196515 0.21326178 0.0007745909
-0.021052793 0.07039534 -0.013507969 0.069697216 -0.05717746 0.056977253 -0.0866876 0.1394111
0.059697766 0.08046583 0.110203326 0.07538357 -0.054751933 0.066780314 0.025476035 -0.06675078
0.072930396 -0.014057581 -0.015149893 -0.010928631 -0.07094699 -0.07360823 0.047787707 -0.06597198
0.046230055 -0.056638982 0.067688935 -0.099523544 -0.21983288 0.06498704 0.05543584 0.06343346
-0.15423039 -0.09919959 0.16211946 0.0055339877 0.096618205 0.00088445895 -0.1967664 0.07702001
-0.04451657 -0.035416633 -0.0022121805 0.017361375 0.039054576 -0.020024713 0.015352709 0.032034975
-0.030777305 0.07111306 -0.0035619983 0.26295203 0.0059914207 0.07842155 0.016412545 -0.10546674
0.027383214 0.089824826 -0.04375635 0.008215303 -0.16543753 -0.016706442 -0.095322385 0.07326976
-0.08863575 -0.18373963 0.08881733 0.17056778 0.15090299 -0.044497423 -0.04355867 -0.06956665
0.15172835 0.014147749 0.05736506 0.033164512 0.10609675 -0.048263177 -0.01779608 0.014278229
-0.02580992 0.037723277 -0.03005672 -0.19483341 -0.23596904 -0.0497954 0.052225538 -0.072203025
-0.036290396 0.06521693 0.066902414 -0.0067112255 0.054041635 0.043552816 -0.014926277 -0.04082165
0.12957491 -0.05218637 0.07056791 0.05997461 0.11045979 -0.026911696 -0.1591582 -0.08684104
-0.0071105175 -0.092554554 -0.08478279 0.032383677 0.06520804 0.040345535 0.006882525 0.08046751
-0.0788826 0.016702522 -0.0072038234 0.026523989 -0.035273924 0.03569773 0.18760845 -0.009440235
0.18978907 0.16077137 -0.015027062 0.07748761 -0.004272986 -0.01731875 -0.07495191 0.1726751
-0.121485986 0.07220595 -0.14443578 0.08528342 0.13042611 0.021499706 0.12576638 -0.06366508
-0.025978034 0.15876925 -0.13750634 -0.10136855 -0.080680914 -0.017670643 -0.0983543 0.047715336
-0.18613589 0.03890744 -0.12049993 -0.057354975 -0.060654134 -0.13852307 0.055278383 0.070682295
-0.041201144 0.019491361 -0.05406743 -0.07740264 -0.033179473 0.009358122 -0.15694259 -0.13835923
-0.0053407038 -0.12386118 -0.13013007 -0.22413057 0.0013955997 -0.03955092 -0.18771861 0.013549411
-0.1007816 -0.07367226 -0.0535637 -0.11001551 -0.008943064 -0.26722947 0.1111628 0.0038685862
0.19868481 0.02764721 -0.029167214 0.05870688 -0.020234035 0.09433097 -0.02689086 0.0076802224
0.09665554 -0.04333777 -0.06915233 -0.055272553 -0.10751017 0.032669477 0.042877834 0.044812962
0.01846789 -0.021007257 0.14155078 -0.13188007 -0.00997439 -0.0073946994 -0.09644426 0.009150679
-0.12086897 0.029080227 -0.19346736 -0.08836525 0.14438803 -0.07635003 0.08026361 -0.13396086
-0.1604639 -0.025377577 -0.011819069 -0.06647317 0.018462298 -0.076251626 0.15387568 -0.08143052
0.049127523 0.0019067258 -0.010621599 -0.15249988 0.07919238 0.19201197 0.11013047 -0.016089294
00000000: 0e11 6c3d 210d 2dbd 244c fbbc 2484 13be
00000010: 0255 823c b9c5 f5bb a748 793d 9735 23bd
00000020: 38b6 0f3d fdc9 803c e61e 97bd ce9c b3bd
00000030: 2335 d7bd f04b 1cbe 5ef1 d3bd ad6a e5bd
00000040: cffe dabd d804 113d dbf2 7ebd 13b9 d83b
00000050: 2fec 3f3e e89e ef3b b5a4 be3d c25d 37bc
00000060: 8b99 e8bc 56ce 40bd 8659 c03d 6120 ca3d
00000070: 8e67 85bd ba04 f03d 4c61 5a3e ea0d 4b3a
00000080: e876 acbc 6f2b 903d 8750 5dbc 6abd 8e3d
00000090: ea32 6abd fb60 693d 4589 b1bd c9c1 0e3e
000000a0: a585 743d 45cb a43d 48b2 e13d b362 9a3d
000000b0: 9043 60bd 1ec4 883d 1eb3 d03c a2b4 88bd
000000c0: 885c 953d c551 66bc 4237 78bc 000e 33bc
000000d0: a84c 91bd e9bf 96bd 0bbd 433d 511c 87bd
000000e0: ba5b 3d3d 47fe 67bd 7fa0 8a3d 00d3 cbbd
000000f0: df1b 61be ed17 853d b110 633d 67e9 813d
00000100: 92ee 1dbe 2829 cbbd a502 263e 7456 b53b
00000110: c4df c53d 09db 673a 227d 49be abbc 9d3d
00000120: 0257 36bd 0811 11bd 3bfa 10bb 7139 8e3c
00000130: b1f7 1f3d de0a a4bc ee89 7b3c 1b37 033d
00000140: b020 fcbc b9a3 913d 6a70 69bb a6a1 863e
00000150: ae53 c43b 7a9b a03d 9a73 863c f2fe d7bd
00000160: c352 e03c 14f6 b73d dc39 33bd 7a99 063c
00000170: 7568 29be f3db 88bc 6238 c3bd 750e 963d
00000180: a986 b5bd 3e26 3cbe dce5 b53d 52a9 2e3e
00000190: 5086 1a3e ee42 36bd 936a 32bd f678 8ebd
000001a0: ad5e 1b3e f6cb 673c a0f7 6a3d 83d7 073d
000001b0: 4149 d93d 9caf 45bd 16c9 91bc 3cef 693c
000001c0: 536f d3bc b983 1a3d 8339 f6bc 6982 47be
000001d0: dea1 71be 43f6 4bbd 72ea 553d 2edf 93bd
000001e0: 3da5 14bd 7490 853d 2204 893d d7e9 dbbb
000001f0: c35a 5d3d 7064 323d 588d 74bc 9a34 27bd
00000200: 49af 043e 60c1 55bd e985 903d f0a7 753d
00000210: be38 e23d eb75 dcbc 5efa 22be b7d9 b1bd
00000220: 58ff e8bb 3e8d bdbd 99a2 adbd bfa4 043d
00000230: cb8b 853d 5c41 253d ce86 e13b 26cc a43d
00000240: 338d a1bd bad3 883c 0d0e ecbb d648 d93c
00000250: 647b 10bd c837 123d 6e1c 403e 37ab 1abc
00000260: 1158 423e 40a1 243e 1134 76bc d3b1 9e3d
00000270: 6804 8cbb 0de0 8dbc 6380 99bd bed1 303e
00000280: a5cd f8bd b7e0 933d f9e6 13be 13a9 ae3d
00000290: 6c8e 053e 2720 b03c e7c8 003e d662 82bd
000002a0: e3cf d4bc 6894 223e 76ce 0cbe 509a cfbd
000002b0: 093c a5bd 06c2 90bc fb6d c9bd 2871 433d
000002c0: 689a 3ebe 685d 1f3d abc8 f6bd 0ded 6abd
000002d0: 7870 78bd fed8 0dbe 966b 623d e1c1 903d
000002e0: 88c2 28bd 59ac 9f3c cf75 5dbd 4685 9ebd
000002f0: 33e7 07bd cf52 193c 8fb5 20be 0bae 0dbe
00000300: 1201 afbb eeaa fdbd d140 05be 7c82 65be
00000310: 8eec b63a 2500 22bd 4f39 40be 59fe 5d3c
00000320: 9566 cebd 7be1 96bd 9c65 5bbd d04f e1bd
00000330: ee85 12bc 4dd2 88be 52a9 e33d 1b88 7d3b
00000340: 0874 4b3e 677c e23c 15f0 eebc a076 703d
00000350: d9c1 a5bc 9830 c13d 394a dcbc 60aa fb3b
00000360: 57f3 c53d f282 31bd bd9f 8dbd 7965 62bd
00000370: 4b2e dcbd 6ed0 053d aba0 2f3d cc8d 373d
00000380: f949 973c 6917 acbc b0f2 103e 920b 07be
00000390: a06b 23bc 3c4f f2bb 9184 c5bd bbec 153c
000003a0: 278a f7bd a839 ee3c 4f1c 46be d7f8 b4bd
000003b0: 75da 133e 685d 9cbd 3f61 a43d 092d 09be
000003c0: a650 24be a3e4 cfbc c5a4 41bc 1623 88bd
000003d0: 3f3e 973c d029 9cbd 9691 1d3e 0bc5 a6bd
000003e0: f139 493d 1aeb f93a 3706 2ebc ee28 1cbe
000003f0: 9d2f a23d c99e 443e 158c e13d b2cd 83bc

network_body._body_endoder.seq_layers.0.bias f4 [256]
0.003476621 -0.037988897 0.003337362 0.003750142 0.010304384 -0.009240626 0.004650533 -0.002486676
0.004702571 -0.027508557 0.0021135644 -0.0010873493 0.013713622 0.01526609 0.002426674 -0.014180653
-0.0015678075 0.002848602 0.0056719976 -0.009480416 -0.007673489 0.00544161 0.0052530477 -0.006114821
0.031473175 0.0020305035 -0.006224874 0.0007920136 0.020567643 0.016746454 0.009262346 0.012518395
0.013574737 0.0070998026 0.003624547 0.024181055 0.01043843 -0.0009168813 0.0039450494 -0.0012441379
-0.00418909 0.023996854 -0.002164847 0.026202267 -0.016378889 0.008780437 0.0027528442 0.0057812114
0.015274314 0.0065741334 -0.0008759709 0.0077782487 0.0039016632 0.006249365 -0.0026257345 -0.012418846
-0.007611946 -0.0025320803 0.0019803566 0.010236409 -0.010161478 0.0140920505 -0.020564852 0.0051782313
-0.002194254 0.0059516346 -0.004760987 0.0070752376 0.02548633 0.009700612 0.021950925 0.00013759448
0.02121363 0.012461445 0.018069176 -0.003458357 -0.0006068523 0.001672737 -0.02816983 0.0064203055
-0.023965843 -0.005904593 0.004816535 0.010353092 -0.0035117941 -0.008573814 0.027431358 0.0066576726
-0.0019006084 0.019852398 0.0153277805 0.005876363 -0.0006965076 0.016636133 0.01580593 0.012802667
0.032665543 -0.0017311415 -0.006205348 0.008567277 0.002236526 0.0032761914 0.014772465 0.008650208
-0.005936912 0.014513639 0.014131018 0.0019645868 0.00349574 0.0052040163 -0.0027243178 0.003774239
-0.00122399 0.014724071 0.026005128 0.0073932926 -0.0058017345 0.005391015 -0.016466927 0.027446376
-0.014779396 0.0013261727 -2.7719268e-05 0.014495376 -0.015671995 -0.012307199 -0.0019779631 -0.016553791
0.013759518 0.007026624 0.031012408 -0.001857661 -0.001149287 0.012965747 0.0082022045 0.005404935
-0.0028469267 0.0069275107 0.007200463 -0.027683696 0.0038484712 0.008321754 0.0056989733 0.02213417
0.017299717 -0.005114001 0.012710283 0.006484649 -0.0047029154 0.010503964 0.0022121603 0.0027663258
0.0045746877 0.013407885 0.00056232733 -0.0013564081 0.0058237743 -0.0045602075 0.015817933 0.017964626
0.008546501 0.012402903 -0.008846662 0.010829531 0.00051298254 0.02041547 0.018619895 0.0039957357
0.0007885471 0.0022292149 -0.0010626133 0.01861921 0.0076546012 -0.004238206 -0.0059381016 0.015849771
-0.0016621255 0.013444624 0.014748493 0.005042307 -0.0041695284 0.03648541 -0.00404322 0.011504288
0.0050063096 -0.0021512345 0.012990269 0.008627764 0.011959213 0.011529 -0.012688836 0.0049567902
0.009990481 -0.043107226 -0.018464403 0.0023935519 0.0027470766 0.01685709 0.013086198 0.018336803
-0.00035589552 0.017336266 0.0003885953 0.0060931686 0.008362665 0.010588724 0.012139937 0.008636438
-0.019835614 0.015961291 0.025923433 0.03349012 0.020530585 0.012354695 -0.013217102 0.0100016175
-0.008817298 -0.016384838 -0.005279163 0.005332862 0.005010643 0.0017264277 0.018057982 0.010459554
-0.0004777656 0.005713343 0.018843437 0.0075845555 -0.012327947 0.0021138173 0.02040261 -0.004832521
0.0033858598 -0.0062337867 -0.0062834867 0.015248138 0.015411278 0.01392785 -0.0040176692 0.00749169
0.019036924 0.010571082 -0.003052772 -0.004157857 0.0055059 0.027063098 0.006304002 0.010767355
-0.0028405231 0.004297762 0.007409144 0.002264984 -0.024925116 0.017435612 0.008219761 -0.0064266394
00000000: 05d8 633b 3f9a 1bbd a5b7 5a3b f1c4 753b
00000010: b8d3 283c ff65 17bc 8063 983b 80f7 22bb
00000020: 0618 9a3b a059 e1bc ba83 0a3b 6385 8eba
00000030: 19af 603c 9f1e 7a3c d508 1f3b f855 68bc
00000040: e47e cdba 9caf 3a3b 2adc b93b bf53 1bbc
00000050: e471 fbbb 884f b23b c221 ac3b d65e c8bb
00000060: 04ea 003d 3212 053b 07fa cbbb 229f 4f3a
00000070: 797d a83c dc2f 893c 18c1 173c f419 4d3c
00000080: 9368 5e3c 76a5 e83b cf89 6d3b 5917 c63c
00000090: f305 2b3c dd5a 70ba 7945 813b 5712 a3ba
000000a0: a244 89bb 0d95 c43c 1be0 0dbb 23a6 d63c
000000b0: 052d 86bc d2db 0f3c 1069 343b 5170 bd3b
000000c0: 1e41 7a3c d46b d73b 69a1 65ba aee0 fe3b
000000d0: 0cb3 7f3b 79c7 cc3b 8414 2cbb 6a78 4bbc
000000e0: a26d f9bb 42f1 25bb dfc8 013b 9cb6 273c
000000f0: 547c 26bc 58e2 663c 9f77 a8bc 27ae a93b
00000100: 79cd 0fbb ee05 c33b 0e02 9cbb 65d7 e73b
00000110: b5c8 d03c 51ef 1e3c 6dd2 b33c 3d47 1039
00000120: 35c8 ad3c 172b 4c3c cf05 943c 9aa5 62bb
00000130: 2b15 1fba bd3f db3a 6ac4 e6bc 6d61 d23b
00000140: 0454 c4bc 517b c1bb 06d4 9d3b 04a0 293c
00000150: 2126 66bb 2f79 0cbc bab7 e03c 9b28 da3b
00000160: d61d f9ba 7fa1 a23c 5f21 7b3c 818e c03b
00000170: d595 36ba 8048 883c 707b 813c 47c2 513c
00000180: 4ecc 053d 78e7 e2ba 3b56 cbbb c45d 0c3c
00000190: ae92 123b 5fb5 563b 3608 723c 9ab9 0d3c
000001a0: 6d8a c2bb 9dca 6d3c c985 673c 4cc0 003b
000001b0: c918 653b 7486 aa3b 788a 32bb 3959 773b
000001c0: 4a6e a0ba 3b3d 713c b508 d53c 6f43 f23b
000001d0: 7a1c bebb 1da7 b03b a6e5 86bc 39d7 e03c
000001e0: 4825 72bc f9d2 ad3a ad86 e8b7 037e 6d3c
000001f0: 8e62 80bc 22a4 49bc b7a0 01bb d19b 87bc
00000200: 9a6f 613c 983f e63b bc0d fe3c c27c f3ba
00000210: aca3 96ba 496e 543c 8a62 063c e21b b13b
00000220: 8193 3abb 2c00 e33b ddf1 eb3b ebc8 e2bc
00000230: a236 7c3b f757 083c 74be ba3b b852 b53c
00000240: 23b8 8d3c 5a93 a7bb ca3e 503c 2e7d d43b
00000250: ea1a 9abb d118 2c3c e4f9 103b 3f4b 353b
00000260: 43e7 953b bfac 5b3c 2669 133a 81c9 b1ba
00000270: 5cd5 be3b cb6d 95bb 9c94 813c 8d2a 933c
00000280: a006 0c3c 8c35 4b3c 97f1 10bc 586e 313c
00000290: ad79 063a 583e a73c c088 983c a9ee 823b
000002a0: 80b6 4e3a 0518 123b 6347 8bba 5087 983c
000002b0: 73d3 fa3b a6e0 8abb 6894 c2bb 61d7 813c
000002c0: addb d9ba d746 5c3c aaa3 713c f039 a53b
000002d0: 8aa0 88bb ba71 153d fd7c 84bb 7b7c 3c3c
000002e0: f80b a43b bafb 0cbb 23d5 543c 775b 0d3c
000002f0: 93f0 433c 21e4 3c3c d6e4 4fbc 926c a23b
00000300: 1daf 233c 3491 30bd a942 97bc 23dd 1c3b
00000310: 4c08 343b e117 8a3c 7e67 563c 1037 963c
00000320: 7d97 bab9 c904 8e3c 61bc cb39 34a9 c73b
00000330: 8f03 093c 547c 2d3c 96e6 463c d97f 0d3c
00000340: 4c7e a2bc 41c1 823c 615d d43c f02c 093d
00000350: c22f a83c 596b 4a3c 8b8c 58bc d3dd 233c
00000360: 6e76 10bc 7f39 86bc d4fc acbb 4abf ae3b
00000370: 5230 a43b 4d49 e23a 55ee 933c 8d5e 2b3c
00000380: 9d7c fab9 ff36 bb3b 8d5d 9a3c dd87 f83b
00000390: 28fb 49bc f887 0a3b 6023 a73c 205a 9ebb
000003a0: 4de5 5d3b cb44 ccbb b5e5 cdbb 54d3 793c
000003b0: 967f 7c3c a331 643c a7a6 83bb da7c f53b
000003c0: 53f3 9b3c 5532 2d3c 0411 48bb a23e 88bb
000003d0: d66a b43b 6eb3 dd3c cd91 ce3b 8f69 303c
000003e0: 1228 3abb 3ed4 8c3b 68c8 f23b 2070 143b
000003f0: c22f ccbc 21d5 8e3c 2dac 063c 8f96 d2bb

network_body._body_endoder.seq_layers.2.weight f4 [256, 256]
0.07166155 -0.012052642 0.02486907 -0.030099515 0.093930766 0.008093751 -0.03558954 -0.0027322783
0.03483678 -0.09595389 -0.04636941 0.035321135 0.03150104 -0.010425142 -0.08675764 -0.019954424
-0.03696076 -0.054417357 -0.050261244 -0.0235567 0.020032845 -0.05958275 -0.030635359 -0.09880432
-0.1099909 -0.025939003 0.013628596 -0.06348794 -0.076725975 0.12122756 -0.007820421 0.0043155598
0.012787898 -0.08766955 0.092241965 -0.13257559 0.0022416485 -0.09544335 0.055556286 0.006267351
0.099187024 -0.0069132554 -0.06652462 0.13947009 -0.060495768 -0.096158355 -0.028927755 -0.037319846
-0.0043025124 0.04533184 -0.11885274 0.0571027 -0.10599983 0.002439633 0.01829288 -0.0630008
-0.015390481 -0.09600149 0.038961202 0.04881963 0.039793342 -0.042558197 0.03215183 0.07051641
-0.14355119 0.0070348457 -0.10161103 -5.029975e-05 -0.022046652 -0.008192551 -0.015578243 0.11885103
0.05166307 -0.10476169 0.028208148 -0.05521721 0.111145295 0.06292795 0.019011727 -0.11332509
-0.048615124 0.008257073 -0.024409004 0.14605512 0.06114268 -0.044614617 0.026982466 -0.072432995
-0.0026170434 -0.008554561 0.014033969 0.11897859 0.022591481 0.011014991 -0.055169504 0.03537554
0.009673841 -0.047166802 0.05318461 0.0055544185 -0.02715533 -0.057461455 -0.017049706 0.068616696
-0.120590314 0.036598876 0.0022498472 -0.09889576 -0.07543264 -0.056499135 -0.0059900354 -0.041460745
0.09172292 0.20682657 -0.043904107 0.10977877 -0.07774102 -0.024328014 -0.044049945 0.1840803
-0.12668538 -0.007627501 0.009082695 -0.014448322 0.074215524 -0.12275034 -0.08581342 0.016493797
0.009992609 -0.07731239 0.02364392 0.08102 0.07000708 -0.035022404 -0.11920982 -0.072242245
0.06667589 -0.012964155 0.12713543 0.06613474 -0.10925274 -0.07981718 0.051878907 0.052431174
-0.14487287 0.10523535 -0.061928406 -0.083005026 -0.103432626 0.073397286 0.014183707 0.07975485
-0.038842306 0.01120654 -0.062628396 -0.06661299 0.028536184 -0.06438822 -0.034679193 0.019489834
0.060922205 -0.050841987 -0.0092560295 0.053886477 0.07828136 0.14370973 -0.21687947 0.04503875
0.005702807 0.016732562 -0.06254247 0.009709388 -0.017610302 -0.061088715 0.0037483138 -0.0360145
-0.0460671 0.0041101463 0.122933045 -0.0057122195 0.042516656 -0.029399937 -0.027787445 -0.0056917374
-0.049886785 0.026473135 0.11029594 -0.025248779 0.060373206 0.028328476 -0.06449834 -0.056741256
0.094842225 -0.0719993 -0.047276888 0.06368126 -0.04908332 -0.010506374 0.049577847 0.0127686765
0.023139158 0.07827627 -0.068978004 -0.07686518 0.0185329 0.059967354 -0.022753943 0.07149075
0.050948877 -0.010485601 -0.04427979 0.088462025 0.05910988 0.0835058 -0.009919909 0.0048517874
-0.03905557 -0.018007774 -0.05490032 0.029317403 -0.068178676 0.069723636 -0.021777458 -0.10395235
-0.0012147102 -0.016547615 0.04971286 0.02769086 0.12254353 -0.03167161 0.0566553 -0.014306834
-0.012438124 -0.043936476 -0.017023463 0.06044989 0.07534073 0.096705616 -0.09115413 0.019481529
0.017904779 -0.018162731 -0.17108084 0.0005704666 0.0044592298 0.04488296 -0.077381015 -0.0024458815
-0.061356 -0.050264616 -0.10623682 -0.066968784 0.038928907 -0.12771866 -0.027198894 -0.039324876
00000000: 4ac3 923d 7278 45bc 38ba cb3c 4293 f6bc
00000010: c65e c03d a79b 043c 56c6 11bd 0610 33bb
00000020: 03b1 0e3d 7983 c4bd daed 3dbd e5ac 103d
00000030: 3c07 013d 37ce 2abc fdad b1bd 7677 a3bc
00000040: 2a64 17bd bce4 5ebd bcde 4dbd fbf9 c0bc
00000050: ec1b a43c 0b0d 74bd 01f7 fabc eb59 cabd
00000060: e942 e1bd 087e d4bc 7a4a 5f3c f705 82bd
00000070: 8222 9dbd 2846 f83d 3921 00bc 8a69 8d3b
00000080: 5584 513c 188c b3bd 5be9 bc3d e5c1 07be
00000090: 9fe8 123b ce77 c3bd fd8e 633d 5a5e cd3b
000000a0: 9122 cb3d 9788 e2bb 0f3e 88bd 3fd1 0e3e
000000b0: 69ca 77bd acee c4bd e6f9 ecbc b2dc 18bd
000000c0: 17fc 8cbb e1ad 393d 1169 f3bd 85e4 693d
000000d0: 7016 d9bd 40e2 1f3b f3da 953c 9006 81bd
000000e0: 5b28 7cbc 6e9c c4bd c895 1f3d 18f7 473d
000000f0: 58fe 223d 8151 2ebd a3b1 033d e86a 903d
00000100: 15ff 12be 9084 e63b 7219 d0bd f2f8 52b8
00000110: 2e9b b4bc 0d3a 06bc e33b 7fbc 2b68 f33d
00000120: a89c 533d 4c8d d6bd c614 e73c 712b 62bd
00000130: 25a0 e33d 5ee0 803d 7bbe 9b3c fc16 e8bd
00000140: a720 47bd ad48 073c 64f5 c7bc 798f 153e
00000150: bf70 7a3d d1bd 36bd 550a dd3c c057 94bd
00000160: b482 2bbb 6e28 0cbc bbee 653c 0cab f33d
00000170: c511 b93c 3978 343c 6bf9 61bd f1e5 103d
00000180: 087f 1e3c fa31 41bd 1bd8 593d d701 b63b
00000190: db74 debc b45c 6bbd d3ab 8bbc e986 8c3d
000001a0: 0ef8 f6bd b4e8 153d 2c72 133b dc89 cabd
000001b0: 6e7c 9abd a36b 67bd 0f48 c4bb bed2 29bd
000001c0: 3ad9 bb3d 58ca 533e cbd4 33bd b1d3 e03d
000001d0: af36 9fbd 8b4b c7bc b76d 34bd 8c7f 3c3e
000001e0: d0b9 01be 1ef0 f9bb 95cf 143c a8b8 6cbc
000001f0: 4ffe 973d 8864 fbbd f2be afbd 001e 873c
00000200: 0ab8 233c f555 9ebd e5b0 c13c d0ed a53d
00000210: df5f 8f3d a773 0fbd 4724 f4bd bef3 93bd
00000220: 5e8d 883d 9b67 54bc ca2f 023e a771 873d
00000230: e7bf dfbd 3177 a3bd fa7e 543d 12c2 563d
00000240: 8e59 14be a285 d73d a4a8 7dbd 8afe a9bd
00000250: 7cd4 d3bd 5151 963d c762 683c 8356 a33d
00000260: 1c19 1fbd a39b 373c 5143 80bd 646c 88bd
00000270: b7c4 e93c f9dd 83bd c50b 0ebd 25a9 9f3c
00000280: 9089 793d b03f 50bd 9aa6 17bc 11b8 5c3d
00000290: fa51 a03d a528 133e a715 5ebe 8d7a 383d
000002a0: 9dde ba3b ba12 893c 4416 80bd 2014 1f3c
000002b0: 7b43 90bc 2938 7abd 45a6 753b f183 13bd
000002c0: dbb0 3cbd 68ae 863b 52c4 fb3d 922d bbbb
000002d0: f225 2e3d 23d8 f0bc 7fa2 e3bc c181 babb
000002e0: 1656 4cbd 30de d83c d6e2 e13d 87d6 cebc
000002f0: e549 773d 1f11 e83c b517 84bd 8569 68bd
00000300: a43c c23d 5e74 93bd 69a5 41bd 526b 823d
00000310: 970b 49bd ed22 2cbc 2412 4b3d b633 513c
00000320: 558e bd3c 4f4f a03d 5744 8dbd 7e6b 9dbd
00000330: 4fd2 973c 54a0 753d 7a66 babc be69 923d
00000340: c5af 503d cccb 2bbc ba5e 35bd 942b b53d
00000350: 341d 723d 1705 ab3d 1d87 22bc befb 9e3b
00000360: bcf8 1fbd 0a85 93bc 28df 60bd 0d2b f03c
00000370: 43a1 8bbd 44cb 8e3d a466 b2bc f8e4 d4bd
00000380: e936 9fba dd8e 87bc b69f 4b3d f1d7 e23c
00000390: 1af8 fa3d 17ba 01bd 630f 683d 3667 6abc
000003a0: 46c9 4bbc bcf6 33bd ca74 8bbc 4e9a 773d
000003b0: 3e4c 9a3d 980d c63d 04af babd ba97 9f3c
000003c0: 0bad 923c 02ca 94bc d12f 2fbe 5e8b 153a
000003d0: bb1e 923b 32d7 373d f079 9ebd 154b 20bb
000003e0: 6e50 7bbd 45e2 4dbd b192 d9bd ee26 89bd
000003f0: eb73 1f3d aec8 02be 37d0 debc 1f13 21bd

network_body._body_endoder.seq_layers.2.bias f4 [256]
0.01251848 0.008476854 0.0059134876 -0.011934065 0.0070898277 0.006216554 0.0045983028 -0.0052074804
0.025214234 0.006923843 -0.009249729 0.0021739209 0.0042870943 0.0063888896 0.001962333 0.013100174
0.0041915984 -0.00013806045 0.002436431 0.0072434163 0.015180318 -0.014159386 0.008868823 0.0046699517
0.018632025 0.015846172 0.0054756585 -0.014910985 -0.0060883407 0.005001223 0.024775052 -0.019865852
0.009199944 0.011156503 -0.0042015184 -0.00017790239 0.0050697424 -0.0051840553 0.013684561 -0.006064014
0.008472404 -0.0048751733 0.022490246 0.0048080646 0.020098632 0.0006953832 0.008497257 0.0051715444
0.0053210678 -0.0008240836 0.0073334337 0.005283059 0.010838701 0.017338421 0.0007026165 0.0082629025
0.0066110725 0.011786722 -0.0023549637 0.0030788982 0.020925885 0.014875134 0.009567736 0.0007394269
-0.0030792581 0.0021538818 0.0090772705 0.015028864 0.0011106619 -0.011695808 0.009922087 0.0033119
0.0022675926 0.0028619359 0.005132007 -0.015825665 0.008645244 0.0021296162 0.00042236308 0.004752961
0.017445194 0.010228125 0.00086947344 0.015787316 0.008559293 -0.025466751 0.016282745 -0.014443644
-0.00083246257 0.025757927 -0.0033591485 0.015454451 0.008620669 -0.0029928156 -0.00072454556 0.007221609
0.000525041 0.01035532 0.01811403 0.0023105245 0.008716705 0.004492497 -0.00837603 0.00873378
0.0052760975 0.009332058 0.004240361 -0.006148613 0.0149994055 0.005626397 0.0075147487 -0.020530384
0.0035678875 0.0067329677 -0.006771123 0.015207752 0.004853789 -0.008661784 0.003875953 -0.021884631
0.0030628915 0.006981981 0.0013742712 -0.0023905812 -0.0062030014 -0.0065837684 0.0032328102 0.003571338
0.0066711023 0.005891799 -0.013480959 0.010384575 0.0013864429 0.0027682409 0.009799374 0.006309133
0.007688997 0.014508067 0.015087756 -0.0065910826 -0.0026137251 -0.009279652 -0.006638395 0.002357558
0.0011038987 0.008604528 0.009086902 0.008664848 0.0070898603 0.007824052 -0.013617487 0.008893478
0.010568529 -0.0050276164 -0.0006092323 -0.00024313631 0.004636525 0.012890875 0.006153424 0.0021501041
0.014436792 -0.003962668 0.002837961 0.010115931 0.007838756 -0.002332363 -0.012232667 0.005236576
0.0072471024 0.008675061 0.0126576 -0.0034791457 0.0077564023 -0.00367142 -0.0015448749 0.012266761
-0.007026746 0.01643414 -0.009961841 0.0057903593 -0.007625728 0.011024315 0.0014724347 -0.00050180696
0.0041580494 -0.0019750297 0.01541487 0.0020543176 -0.0014929514 0.007895462 0.0054016756 0.011887106
0.014845713 0.0026132737 -0.00035941583 -0.007783196 0.0046352586 0.0068065776 0.0011106165 0.025201647
0.013715176 -0.015653588 0.0022721144 0.007379954 0.010343922 -0.017329197 0.008300028 -0.016153768
0.009759287 0.0029354522 0.008953483 0.0062321476 0.014923975 -0.019001415 0.006590238 0.00063246407
0.015609125 -0.0027691333 -0.0016028405 0.007529346 0.013837215 0.007963768 0.019598817 0.011868313
0.0036881997 0.013534881 0.0020610527 -0.007663056 -0.002453494 0.008800798 0.012022725 0.014959388
0.0014080673 0.0057881866 0.0055142147 0.0048683994 -0.006602852 0.00861257 0.019512378 0.007694132
-0.00403425 0.00202372 0.003055567 -0.02077526 -0.0073162266 -0.015581668 -0.0071677906 -0.010537249
0.018310178 0.0016959413 0.012512085 -0.025009649 0.0026328668 -0.0060956115 0.0055087456 -0.0045020836
00000000: 501a 4d3c 81e2 0a3c eec5 c13b 1987 43bc
00000010: c951 e83b 3cb4 cb3b 5cad 963b 83a3 aabb
00000020: 158e ce3c 68e1 e23b 2d8c 17bc 5778 0e3b
00000030: c17a 8c3b e459 d13b 7c9a 003b 1da2 563c
00000040: ad59 893b 52c4 10b9 87ac 1f3b 2e5a ed3b
00000050: deb6 783c c5fc 67bc 8a4e 113c 6506 993b
00000060: 30a2 983c d5cf 813c 276d b33b 344d 74bc
00000070: b480 c7bb 4de1 a33b 0df5 ca3c b6bd a2bc
00000080: 5dbb 163c c4c9 363c e4ac 89bb 4f8b 3ab9
00000090: 1520 a63b 02df a9bb 3535 603c a3b4 c6bb
000000a0: d7cf 0a3c ebbf 9fbb 773d b83c f88c 9d3b
000000b0: e3a5 a43c 604a 363a 1438 0b3c 0f76 a93b
000000c0: 5a5c ae3b 5007 58ba 4d4d f03b 831d ad3b
000000d0: cf94 313c 4e09 8e3c cc2f 383a 2061 073c
000000e0: b2a1 d83b 181d 413c bc55 1abb 57c7 493b
000000f0: c36c ab3c d6b6 733c fec1 1c3c 19d6 413a
00000100: 61cd 49bb 2428 0d3b d5b8 143c a03b 763c
00000110: a193 913a c69f 3fbc 4090 223c 760c 593b
00000120: e49b 143b 518f 3b3b 652a a83b d3a4 81bc
00000130: c8a4 0d3c 0891 0b3b 9d70 dd39 babe 9b3b
00000140: 39e9 8e3c de93 273c 60ed 633a 6754 813c
00000150: 473c 0c3c a69f d0bc 6463 853c 09a5 6cbc
00000160: 9e39 5aba 4a02 d33c 2925 5cbb aa34 7d3c
00000170: b53d 0d3c 1d23 44bb 6eef 3dba 3fa3 ec3b
00000180: e8a2 093a 5ca9 293c e063 943c 2b6c 173b
00000190: 83d0 0e3c cc35 933b 9e3b 09bc 2118 0f3c
000001a0: 1de3 ac3b 7de5 183c baf2 8a3b 4e7a c9bb
000001b0: 11c0 753c a45d b83b 483e f63b 562f a8bc
000001c0: 38d3 693b 3aa0 dc3b 4ce0 ddbb ef29 793c
000001d0: 890c 9f3b 28ea 0dbc b303 7e3b 6647 b3bc
000001e0: cbba 483b 1ac9 e43b e420 b43a 4cab 1cbb
000001f0: 8c42 cbbb a7bc d7bb 8edd 533b 1c0d 6a3b
00000200: 4399 da3b fe0f c13b 3edf 5cbc 1124 2a3c
00000210: 4eb9 b53a 606b 353b 8e8d 203c d8bc ce3b
00000220: fbf3 fb3b 3eb3 6d3c a332 773c 02fa d7bb
00000230: 084b 2bbb ae09 18bc e586 d9bb 4381 1a3b
00000240: b2b0 903a 02fa 0c3c 3be1 143c 02f7 0d3c
00000250: 0f52 e83b 7430 003c e11b 5fbc f3b5 113c
00000260: a027 2d3c b4be a4bb e3b4 1fba 68f2 7eb9
00000270: feed 973b 4034 533c a9a2 c93b c3e8 0c3b
00000280: 4b88 6c3c 45d9 81bb 16fd 393b 4abd 253c
00000290: 206e 003c 8fda 18bb 866b 48bc 9597 ab3b
000002a0: 1a79 ed3b d821 0e3c d361 4f3c 6102 64bb
000002b0: 6b29 fe3b 359c 70bb 667d caba 86fa 483c
000002c0: 9e40 e6bb e4a0 863c fd36 23bc 0ebd bd3b
000002d0: 3ee1 f9bb 549f 343c b6fe c03a b28b 03ba
000002e0: 3f40 883b 806f 01bb a78e 7c3c bba1 063b
000002f0: 23af c3ba f85b 013c 8a00 b13b 23c2 423c
00000300: 6f3b 733c 7543 2b3b fa6f bcb9 2e0a ffbb
00000310: 5ee3 973b b609 df3b 1b92 913a af73 ce3c
00000320: 9eb5 603c f43b 80bc c1e7 143b 8bd3 f13b
00000330: 8e79 293c f6f5 8dbc d7fc 073c e854 84bc
00000340: 6be5 1f3c b760 403b a1b1 123c 0b37 cc3b
00000350: b083 743c dba8 9bbc ecf2 d73b f2cb 253a
00000360: 6abd 7f3c 597a 35bb 6716 d2ba bbb8 f63b
00000370: 7cb5 623c 777a 023c b38d a03c 5073 423c
00000380: b9b5 713b 68c1 5d3c ba12 073b 5f1a fbbb
00000390: ccca 20bb 3931 103c f7fa 443c 3918 753c
000003a0: e68e b83a d4aa bd3b 96b0 b43b 1887 9f3b
000003b0: bd5c d8bb bd1b 0d3c 6cd8 9f3c 0f1f fc3b
000003c0: be31 84bb 63a0 043b e83f 483b e130 aabc
000003d0: f5bc efbb 414a 7fbc c9df eabb 6da4 2cbc
000003e0: 3aff 953c 594a de3a 7dff 4c3c 09e1 ccbc
000003f0: 2d8c 2c3b b2bd c7bb b582 b43b 3786 93bb

network_body._body_endoder.seq_layers.4.weight f4 [256, 256]
0.05835381 -0.05165069 0.020936605 -0.058307365 0.13939467 -0.06676984 -0.015794247 0.08339533
-0.05847516 0.019170597 0.004945891 -0.01566528 0.024839494 -0.001615776 -0.08360667 0.09062455
-0.09716349 -0.06879274 0.049916048 -0.009705713 -0.039778244 0.04689817 0.06913416 0.08643835
0.066718295 0.0029267035 0.07398023 -0.05296794 0.00411138 -0.05534894 -0.058487307 0.1593369
0.05851029 0.053461265 -0.04298197 -0.03092499 -0.091906525 -0.15291288 0.013805889 -0.016557565
-0.080293395 -0.07953741 0.0064633987 -0.031359535 -0.03447332 0.015993958 -0.01720665 -0.100479044
0.012120816 0.027880186 0.07446095 0.09559898 -0.03827333 -0.041867398 0.0065780366 0.09005518
0.078017235 0.056618378 -0.064445436 -0.06875252 -0.08046672 0.038942594 0.0550355 -0.025181657
0.009981169 -0.059361316 0.018225761 0.088139325 0.13667817 -0.04144223 -0.07474925 -0.10863833
-0.0048591397 0.047968816 0.04168424 -0.079706065 -0.09291781 0.05851171 -0.091723874 0.032233357
-0.07173638 -0.14363386 0.0057078553 0.045329567 0.02925718 0.0047503463 0.061185256 0.08843391
-0.03515933 -0.023250435 -0.06671383 -0.023181222 0.03295063 -0.082394086 -0.060988665 0.0793353
0.12025486 0.071534745 -0.033044934 -0.0685858 -0.050951276 0.023271073 -0.009250893 0.002778458
0.043412592 0.016033068 0.05544707 -0.03691614 0.06335446 -0.12049522 -0.07577807 0.0105282
0.017265087 0.05078277 0.00050121057 0.05844831 -0.13533135 -0.12547186 -0.010657958 -0.118865095
0.023031874 -0.023478435 -0.024819663 -0.06896205 0.04516481 -0.16343944 -0.012086502 0.035797443
-0.052000698 0.031032933 -0.0056897025 0.018297287 0.053876463 0.027217483 0.06536999 0.0895052
-0.02496714 0.06933709 0.09639095 0.03472418 -0.09432019 -0.1075391 -0.037943956 -0.009817115
-0.1153697 0.013398603 0.027662963 0.018716283 0.12510237 -0.12699226 -0.067257635 -0.0007288625
-0.07118238 0.093737155 -0.0014175411 -0.07012684 0.04590335 -0.12894338 0.0046146507 -0.16067328
0.10638203 0.03152336 -0.09493328 0.031865686 -0.08072107 0.076595336 -0.03118277 0.025531426
0.007152967 0.0083941985 0.01648576 -0.059318673 -0.020367268 0.015286747 0.013401234 0.029227361
-0.0117692035 0.05532292 0.09887876 -0.031170659 -0.07090573 -0.04152473 0.037117194 -0.021202998
0.022056902 -0.03837433 0.11264924 -0.06022984 -0.04893204 -0.03473468 0.0092268055 -0.12856942
-0.062822066 -0.031240167 0.021107642 -0.097530566 -0.018065302 -0.00019057278 0.02753054 0.04448961
0.012906098 0.06808313 0.08061606 0.07334931 -0.07661899 -0.026805883 -0.051422086 -0.09410025
-0.024987057 0.01594404 0.026348341 0.037859302 -0.053408325 -0.05393054 0.07031454 0.09963415
0.09341263 0.0563704 -0.024574941 -0.09925827 -0.05528204 -0.0042491327 -0.023387095 -0.00050667726
-0.061153367 0.08880133 -0.008995672 -0.08889304 0.046872728 0.015012863 -0.048402164 0.040774163
-0.006504689 0.061054245 -0.029028451 -0.07389098 0.096524805 -0.0059535042 0.06585261 -0.10629638
-0.063527755 -0.005709567 -0.0019799434 -0.00089180784 -0.077777475 0.041886516 -0.123626515 0.06091128
-0.033543967 -0.10915642 0.005328948 -0.12510048 -0.03223612 -0.0399789 -0.07489518 -0.03527541
00000000: 6804 6f3d ad8f 53bd 3e83 ab3c b4d3 6ebd
00000010: 7abd 0e3e a0be 88bd f062 81bc 2ccb aa3d
00000020: a683 6fbd a80b 9d3c 2411 a23b 7954 80bc
00000030: 327c cb3c 72c8 d3ba f939 abbd 5d99 b93d
00000040: a7fd c6bd 35e3 8cbd c574 4c3d b604 1fbc
00000050: 83ee 22bd 4c18 403d 3696 8d3d 9706 b13d
00000060: 9aa3 883d f0cd 3f3b f282 973d e9f4 58bd
00000070: c1b8 863b 92b5 62bd 6390 6fbd 3629 233e
00000080: 7ca8 6f3d 33fa 5a3d dd0d 30bd 6856 fdbc
00000090: 7d39 bcbd 3295 1cbe 1832 623c bba3 87bc
000000a0: dd70 a4bd 82e4 a2bd ebca d33b db72 00bd
000000b0: e533 0dbd c305 833c f6f4 8cbc f5c7 cdbd
000000c0: 6396 463c fd64 e43c fc7e 983d 66c9 c33d
000000d0: 7fc4 1cbd 267d 2bbd 928c d73b da6e b83d
000000e0: 80c7 9f3d ace8 673d f8fb 83bd 1fce 8cbd
000000f0: bccb a4bd 4582 1f3d e86c 613d c349 cebc
00000100: 0f88 233c da24 73bd 314e 953c 6482 b43d
00000110: 5df5 0b3e 54bf 29bd 2316 99bd c67d debd
00000120: 6b39 9fbb f37a 443d 18bd 2a3d ef3c a3bd
00000130: b14b bebd faa9 6f3d bad9 bbbd 2007 043d
00000140: 86ea 92bd c114 13be f608 bb3b 7fab 393d
00000150: c1ac ef3c cba8 9b3b 649d 7a3d d61c b53d
00000160: 3b03 10bd b277 bebc 43a1 88bd 8ce6 bdbc
00000170: 3df7 063d 3bbe a8bd 40cf 79bd 8c7a a23d
00000180: 2e48 f63d cf80 923d 205a 07bd b676 8cbd
00000190: 49b2 50bd faa2 be3c 0f91 17bc ca16 363b
000001a0: 67d1 313d c857 833c 781c 633d 6135 17bd
000001b0: fcbf 813d 33c6 f6bd 8831 9bbd 797e 2c3c
000001c0: 836f 8d3c 9801 503d ac63 033a 7f67 6f3d
000001d0: 4d94 0abe b27b 00be b79e 2ebc 8b6f f3bd
000001e0: 57ad bc3c d955 c0bc 9b52 cbbc fa3b 8dbd
000001f0: bcfe 383d ab5c 27be 7706 46bc 57a0 123d
00000200: affe 54bd c738 fe3c af70 babb 31e4 953c
00000210: 91ad 5c3d 33f7 de3c b4e0 853d 814e b73d
00000220: e387 ccbc 9b00 8e3d 9e68 c53d f13a 0e3d
00000230: f22a c1bd 763d dcbd 1f6b 1bbd f7d7 20bc
00000240: f346 ecbd d085 5b3c 709d e23c e452 993c
00000250: d61a 003e 420a 02be 5fbe 89bd 2211 3fba
00000260: 11c8 91bd 44f9 bf3d c9cc b9ba a99e 8fbd
00000270: 2705 3c3d bc09 04be 7f36 973b 8987 24be
00000280: d2de d93d a41e 013d 616c c2bd 9885 023d
00000290: 1751 a5bd 04de 9c3d 0273 ffbc 4827 d13c
000002a0: 7063 ea3b d287 093c 250d 873c 23f8 72bd
000002b0: 42d9 a6bc 4475 7a3c d990 5b3c 386e ef3c
000002c0: 9ed3 40bc 499a 623d f380 ca3d 9c59 ffbc
000002d0: 0637 91bd d615 2abd 3308 183d e9b1 adbc
000002e0: adb0 b43c 672e 1dbd a5b4 e63d 91b3 76bd
000002f0: f66c 48bd f445 0ebd 072c 173c b4a7 03be
00000300: dba8 80bd 61eb ffbc efe9 ac3c 1bbe c7bd
00000310: affd 93bc 7ed4 47b9 ba87 e13c bd3a 363d
00000320: 1974 533c 2b6f 8b3d 081a a53d 2a38 963d
00000330: 6bea 9cbd 0398 dbbc f79f 52bd a2b7 c0bd
00000340: a8b1 ccbc 139d 823c 7ad8 d73c 5b12 1b3d
00000350: b0c2 5abd 45e6 5cbd 1201 903d fd0c cc3d
00000360: 1f4f bf3d a6e4 663d 6351 c9bc eb47 cbbd
00000370: 6c6f 62bd 4f3c 8bbb 4b96 bfbc 89d2 04ba
00000380: f47b 7abd 79dd b53d 9562 13bc 8e0d b6bd
00000390: 9efd 3f3d 83f8 753c 5941 46bd cf02 273d
000003a0: 4925 d5bb 0414 7a3d 13cd edbc 2754 97bd
000003b0: ccae c53d 9d15 c3bb bcdd 863d ebb1 d9bd
000003c0: d71a 82bd 5217 bbbb f0c1 01bb 36c8 69ba
000003d0: cc49 9fbd 3291 2b3d e62f fdbd 1b7e 793d
000003e0: 6665 09bd 678d dfbd 759e ae3b 571a 00be
000003f0: 060a 04bd eac0 23bd a562 99bd f37c 10bd

network_body._body_endoder.seq_layers.4.bias f4 [256]
-0.007134732 -0.006208782 0.012492693 -0.0011566288 -0.0014284553 0.0119261285 0.013267986 0.0032344745
0.015166413 0.003443467 0.010691891 -0.009387877 0.015793707 -0.012765542 0.013948985 0.019086977
-0.0064125643 0.00929398 -0.013070782 0.00022222282 -0.009377119 -0.012808603 0.0018928715 -0.0055920444
0.013967958 0.005871372 -0.01073845 0.019156272 0.0056321626 -0.0077886516 -0.014587613 -0.0058735297
-0.010399166 0.004253076 0.020842347 -0.000298359 0.009930959 0.012558353 0.012083515 -0.017884905
0.0041303835 0.00387713 -0.0020482547 0.008946575 0.021098202 0.00078509323 0.010910458 -0.0034812237
0.003229212 0.0070930156 0.01762563 0.0004180166 0.010927238 0.0052397666 -0.0018006896 0.011076245
0.007600686 -0.009240947 0.0053070374 0.012710294 0.0145644015 -0.0044915597 -0.0026337174 0.005483541
0.018854884 0.0039449246 -0.013114335 -0.029289354 -0.015355318 0.02967018 -0.0095818 0.01918357
0.0051552453 0.021490756 -0.0075231455 0.012239858 -0.0035817942 0.0071848338 0.0010195705 -0.0015032006
-0.007210243 0.00061409344 -0.010853928 0.0036847277 -0.0012153703 0.005827017 -0.007132467 0.017046766
-0.021929123 0.0023309158 -0.002505695 -0.0033781051 -0.0016801558 0.005205284 0.009226926 -0.009592175
0.00079007656 0.007786291 -9.4138595e-05 -0.0053515634 5.15483e-05 0.0030142474 0.010994101 0.0021591368
0.007096417 0.031214131 0.009428089 0.008474513 0.0079392055 0.00073697 -0.010956036 0.007644868
-0.003493865 0.00051136524 -0.0021193863 0.014524599 0.00811958 0.0015423347 0.008750314 0.014731272
-0.022039378 0.011623673 0.0033738366 -0.016109921 -0.0038923407 -0.00011025593 -0.012620233 -0.0055196052
0.0023592904 0.02018478 -0.0024886192 0.007428248 0.009448276 0.019890355 0.0051889317 0.00089654734
-0.0044563985 0.006868517 0.00018025981 -0.0052671595 -0.017272891 0.006329018 -0.00038601132 -0.0018776546
0.015064402 -0.016173616 -0.0043471097 -0.019988324 -0.0032247074 0.004361819 -0.0018966551 -0.00091656734
-0.0023033936 0.0011324661 -0.007551153 0.0027502263 0.022123214 0.0046013757 0.03699411 0.028846059
0.008570746 -0.0009652415 0.0014832905 -0.006607236 -0.00902524 0.0090514505 0.008230843 -0.0021264954
-0.0042182524 3.6396325e-06 -0.024442155 0.0032010009 0.011331805 0.0031667065 -0.02283977 0.0032154175
0.03206666 -0.0060317176 -0.0023956657 -0.012981519 -0.0070129144 -0.0063571287 0.0030109293 -0.0031028963
0.00010858993 -0.004935294 -0.0060507753 0.0012127834 -0.016276337 0.007423956 -0.010817548 -0.0053426605
-0.008630835 0.0058797784 0.012246556 0.014615365 0.01480099 0.004792104 0.00021470236 0.006601464
0.004053782 0.013431675 0.0071336315 -0.003160016 -0.009357294 -0.016107058 -0.01391086 0.0049270834
0.020479633 0.0015035619 0.012199764 0.0061590583 0.01019032 0.0011934477 -0.0056842146 0.017258976
0.012785287 -0.0035351533 0.008452724 -0.0018556091 -0.005056097 -0.020760182 -0.0018271109 0.013803113
0.01631537 -0.0012982646 0.020194132 0.008947034 0.0010776843 -0.007688653 0.011649969 0.01337574
0.0019368315 0.02622445 0.008718283 0.017827515 0.0033500763 0.0080005275 -0.0064376355 -0.0019570957
0.01481676 -0.0028421192 -0.018198512 -0.014547625 0.00988425 -0.022285808 0.02193646 0.015856044
0.011361507 -0.0093452465 -0.012338104 0.00085892715 -0.008138547 0.007309964 0.014468092 -0.0083302
00000000: 78ca e9bb 0a73 cbbb 27ae 4c3c 069a 97ba
00000010: 023b bbba cf65 433c f761 593c 7af9 533b
00000020: 8c7c 783c caab 613b 0b2d 2f3c 9ccf 19bc
00000030: ce61 813c 9026 51bc 498a 643c 4b5c 9c3c
00000040: 7d20 d2bb c745 183c d526 56bc 7c04 6939
00000050: 7da2 19bc 2ddb 51bc 3a1a f83a 783d b7bb
00000060: ddd9 643c a364 c03b 53f0 2fbc 9ded 9c3c
00000070: 018e b83b f237 ffbb e200 6fbc bd76 c0bb
00000080: 4361 2abc 635d 8b3b 92bd aa3c 116d 9cb9
00000090: 76b5 223c 8dc1 4d3c eff9 453c 5d83 92bc
000000a0: 2b58 873b 7317 7e3b 033c 06bb a894 123c
000000b0: 23d6 ac3c b7ce 4d3a c7c1 323c 3e25 64bb
000000c0: 30a1 533b 876c e83b a063 903c 3d29 db39
000000d0: 2808 333c 59b2 ab3b 1e05 ecba 2479 353c
000000e0: 2d0f f93b 5767 17bc a8e6 ad3b d63e 503c
000000f0: 879f 6e3c ef2d 93bb 729a 2cbb 47af b33b
00000100: 8f75 9a3c 6d44 813b 82dd 56bc 3af0 efbc
00000110: df94 7bbc e10e f33c fbfc 1cbc dd26 9d3c
00000120: 55ed a83b 620d b03c b884 f6bb af89 483c
00000130: 89bc 6abb c16e eb3b 1ca3 853a 0b07 c5ba
00000140: e743 ecbb 1dfb 203a acd4 31bc 797b 713b
00000150: 0f4d 9fba 90f0 be3b 78b7 e9bb a9a5 8b3c
00000160: b4a4 b3bc 47c2 183b 9636 24bb 3363 5dbb
00000170: ac38 dcba 1691 aa3b 882c 173c 7f28 1dbc
00000180: 241d 4f3a 2524 ff3b 466c c5b8 2b5c afbb
00000190: 9135 5838 ae8a 453b 9a20 343c 4e80 0d3b
000001a0: 0f89 e83b c7b4 ff3c 4578 1a3c afd8 0a3c
000001b0: 7113 023c 3831 413a f280 33bc cd81 fa3b
000001c0: 54f9 64bb 240d 063a 67e5 0abb 95f8 6d3c
000001d0: fd07 053c 2a28 ca3a 7a5d 0f3c 6f5b 713c
000001e0: ed8b b4bc 3871 3e3c 961b 5d3b f4f8 83bc
000001f0: a416 7fbb 3439 e7b8 18c5 4ebc cedd b4bb
00000200: 539e 1a3b 8d5a a53c 1a18 23bb a968 f33b
00000210: f1cc 1a3c 19f1 a23c ea07 aa3b 4606 6b3a
00000220: fb06 92bb 4c11 e13b 2004 3d39 2398 acbb
00000230: e17f 8dbc a763 cf3b 9061 cab9 a21b f6ba
00000240: aed0 763c 887e 84bc 3372 8ebb 8ebe a3bc
00000250: 9d55 53bb 97ed 8e3b 2f99 f8ba cb45 70ba
00000260: 88f4 16bb 426f 943a aa6f f7bb 243d 343b
00000270: be3b b53c 23c7 963b 2387 173d 924e ec3c
00000280: 506c 0c3c 4308 7dba f86a c23a 8381 d8bb
00000290: 9ade 13bc 894c 143c a8da 063c ac5c 0bbb
000002a0: 4439 8abb 6940 7436 ea3a c8bc e2c7 513b
000002b0: 09a9 393c 8588 4f3b 781a bbbc c1b9 523b
000002c0: 5458 033d b7a5 c5bb 9a00 1dbb 70b0 54bc
000002d0: 97cc e5bb 764f d0bb 0353 453b f659 4bbb
000002e0: c6ba e338 3fb8 a1bb 9545 c6bb 42f6 9e3a
000002f0: f455 85bc a844 f33b 163c 31bc 7c11 afbb
00000300: 5968 0dbc 28ab c03b c7a5 483c 4975 6f3c
00000310: da7f 723c 1507 9d3b ba21 6139 1851 d83b
00000320: 97d5 843b 8710 5c3c 3dc1 e93b 4518 4fbb
00000330: 564f 19bc f3f2 83bc 60ea 63bc 5f73 a13b
00000340: e7c4 a73c 2a13 c53a 85e1 473c edd1 c93b
00000350: 4df5 263c 766d 9c3a a642 babb b262 8d3c
00000360: 6179 513c 08ae 67bb 4b7d 0a3c e937 f3ba
00000370: 9ead a5bb 4211 aabc ab7b efba 7426 623c
00000380: d0a7 853c 882a aaba 2a6e a53c 9596 123c
00000390: 1641 8d3a 19f1 fbbb 83df 3e3c eb25 5b3c
000003a0: 48dd fd3a a8d4 d63c 21d7 0e3c 020b 923c
000003b0: f48c 5b3b a514 033c cdf2 d2bb 9e42 00bb
000003c0: ffc1 723c d942 3abb 0c15 95bc 2959 6ebc
000003d0: 8df1 213c ba90 b6bc 17b4 b33c 89e4 813c
000003e0: 9d25 3a3c ce1c 19bc c225 4abc a029 613a
000003f0: 8a57 05bc 6c88 ef3b 930b 6d3c 647b 08bc

action_model._continuous_distribution.log_sigma f4 [1, 20]
-0.055662572 -0.07021694 -0.114725724 -0.060246512 -0.05010429 -0.055990923 -0.06349554 -0.0123133
-0.109297305 -0.34304452 -0.09433105 -0.014169811 -0.020198548 -0.054000244 -0.024702912 -0.044829085
-0.06037584 0.023361912 -0.033125207 -0.06846657
00000000: 70fe 63bd e6cd 8fbd 52f5 eabd 0cc5 76bd
00000010: 283a 4dbd bd56 65bd f309 82bd b9bd 49bc
00000020: 44d7 dfbd 88a3 afbe a330 c1bd 7f28 68bc
00000030: 6d77 a5bc 5c2f 5dbd c35d cabc b49e 37bd
00000040: a84c 77bd 7b61 bf3c 4cae 07bd 3338 8cbd

action_model._continuous_distribution.mu.weight f4 [20, 256]
-0.035394162 0.001382188 0.017983597 0.030219845 -0.007583065 0.01756277 -0.065331526 -0.046475444
0.014883905 -0.008995528 -0.00796445 0.0078058136 0.0025505587 -0.008550944 -0.011917754 -0.0035590657
0.009934935 -0.0059298845 4.602383e-05 0.038726885 0.01096323 -0.013728684 -0.042788204 0.015504794
0.08939593 -0.008644067 -0.0039398614 0.011768021 -0.02040458 0.012431612 0.00088658056 0.008227237
-0.019158574 0.049869247 -0.028259637 -0.00038342844 0.018288651 0.01662984 0.011104586 -0.01764215
0.029672552 0.007125258 0.019894917 -0.018247642 -0.0065839007 0.0076777125 0.002804797 0.014867882
0.005747485 -0.027013535 -0.0019696192 0.0261459 -0.009121107 0.019387659 -0.012160133 0.008766197
-0.016551455 -0.011127232 -0.018177483 0.002331433 0.019715289 -0.011946493 -0.017832145 0.03926993
0.03698338 0.027915364 -0.024006056 -0.001561695 0.022869086 0.00027705374 0.009343437 0.0098163085
0.043148648 -0.04041297 -0.01725603 -0.04312788 -0.008267774 0.070829496 0.0134123005 -0.028994808
-0.031884983 0.0027186335 -0.002365683 0.048911765 0.05047832 -0.051233005 -0.025450649 0.0076750233
-0.008715906 -0.010100491 0.0177065 -0.0014228805 0.037114367 0.014351765 -0.05627906 -0.012350183
-0.05103943 0.04781651 0.009742735 0.009823014 -0.015437216 0.022906959 -0.058585554 -0.0029549657
-0.022694074 0.008980344 -0.0025979213 -0.015408256 0.0008360044 -0.0027822952 -0.027759677 -0.019918835
0.0395645 0.0013759868 -0.033065844 0.0011582528 -0.02905897 0.03801515 0.007905306 -0.036266346
-0.015967201 -0.03355402 -0.04695275 -0.012335266 -0.02016687 -0.009406715 0.04860577 0.018457763
0.04247886 -0.043972492 -0.013716687 -0.008470975 0.010068111 -0.043714575 -0.039780345 0.016466996
0.0029643246 0.011597045 -0.027143134 0.007829784 0.031427085 -0.026222069 0.0056504398 -0.0020172459
0.04349377 0.0049889367 0.027648926 0.016612545 -0.014234426 -0.013895298 0.0012016329 0.008418319
0.023667347 0.028766453 0.001239033 -0.023715714 -0.034767 -0.010114005 -0.011209437 -0.017966231
0.00039825623 0.04384327 0.010514996 -0.0008944077 -0.00084355904 -0.009767584 -0.038174223 0.0072391066
-0.011390835 -0.0075685945 0.004801015 -0.006498591 -0.014021278 0.0020477017 -0.002918615 -0.046394467
0.017411826 -0.03261688 -0.04633131 -0.0011570231 -0.03471853 -0.018904356 0.058099438 -0.017851999
0.016507482 0.01925979 0.0042889775 -0.025412256 0.031789746 -0.020195931 0.031120356 -0.0068382793
-0.03808584 -0.024604466 -0.0154094 0.015519482 0.07785915 -0.0075325533 -0.0010063557 -0.030067064
0.0662208 -0.023414373 0.0124623105 -0.026620721 0.035621345 0.036854174 -0.0072279777 0.018564168
-0.014039328 0.0027983272 0.009992508 -0.016964875 0.04396622 -0.02065206 -0.0036796178 -0.0023400993
-0.0027769762 0.026155377 -0.030146874 -0.01657724 -2.6847141e-05 0.021445265 -0.03844403 0.038352557
0.0017669122 -0.013523696 -0.008945806 0.025452174 -0.02167157 0.024443941 -0.013463639 0.0053912783
0.006146475 -0.018818328 0.030414071 0.013998705 0.024299208 -0.014017674 -0.0111042345 -0.0012476887
-0.026451083 0.00236671 0.01556868 0.012466194 0.068130046 -0.011109112 -0.037858505 -0.014723004
-0.0060341526 0.022801505 -0.0018061536 0.005296742 -0.012397916 -0.017877638 0.077721976 0.04953794
00000000: 78f9 10bd 892a b53a 5652 933c 9c8f f73c
00000010: 5c7b f8bb ccdf 8f3c 89cc 85bd 095d 3ebd
00000020: 9fdb 733c fb61 13bc 537d 02bc e9c7 ff3b
00000030: 4627 273b 4219 0cbc af42 43bc 373f 69bb
00000040: 23c6 223c 7a4f c2bb b609 4138 15a0 1e3d
00000050: 1f9f 333c 46ee 60bc af42 2fbd d207 7e3c
00000060: 3715 b73d d89f 0dbc f419 81bb a8ce 403c
00000070: 8127 a7bc f6ad 4b3c 6a69 683a 88cb 063c
00000080: 71f2 9cbc b243 4c3d c180 e7bc e506 c9b9
00000090: 15d2 953c 4d3b 883c 02f0 353c 4586 90bc
000000a0: da13 f33c ff7a e93b aafa a23c 147c 95bc
000000b0: c3bd d7bb 5295 fb3b afd0 373b 6b98 733c
000000c0: 6655 bc3b 7d4b ddbc ba14 01bb ed2f d63c
000000d0: b270 15bc ded2 9e3c 4b3b 47bc 18a0 0f3c
000000e0: eb96 87bc fe4e 36bc f2e8 94bc f4ca 183b
000000f0: f581 a13c 39bb 43bc b814 92bc 82d9 203d
00000100: e27b 173d c3ae e43c 59a8 c4bc cab1 ccba
00000110: f357 bb3c 8641 9139 3715 193c 95d4 203c
00000120: a3bc 303d 1288 25bd 855c 8dbc dca6 30bd
00000130: 8f75 07bc 0e0f 913d 44bf 5b3c 8586 edbc
00000140: d499 02bd 1a2b 323b 9309 1bbb b457 483d
00000150: 5bc2 4e3d b3d9 51bd e17d d0bc c37e fb3b
00000160: 29cd 0ebc 887c 25bc 390d 913c f27f baba
00000170: 3c05 183d aa23 6b3c df84 66bd 6c58 4abc
00000180: b90e 51bd 3fdb 433d fe9f 1f3c b5f0 203c
00000190: 60ec 7cbc 60a7 bb3c 68f7 6fbd 19a8 41bb
000001a0: ece8 b9bc 4b22 133c e341 2abb e972 7cbc
000001b0: 4e27 5b3a 2b57 36bb 4368 e3bc d32c a3bc
000001c0: 630e 223d 755a b43a 0d70 07bd 84d0 973a
000001d0: 140d eebc c6b5 1b3d 4285 013c 058c 14bd
000001e0: a6cd 82bc f16f 09bd 8751 40bd db19 4abc
000001f0: fe34 a5bc 9f1e 1abc d816 473d bc34 973c
00000200: 50fe 2d3d 801c 34bd f5bb 60bc d8c9 0abc
00000210: b8f4 243c 0e0e 33bd b7f0 22bd cbe5 863c
00000220: 1d45 423b 8801 3e3c 475b debc 7f48 003c
00000230: b0b9 003d aacf d6bc 5327 b93b c533 04bb
00000240: 8626 323d 3c7a a33b 0080 e23c 0817 883c
00000250: 8337 69bc 1ba9 63bc 1c80 9d3a fdec 093c
00000260: 06e2 c13c a0a7 eb3c 0c67 a23a 7547 c2bc
00000270: d767 0ebd 36b5 25bc c9a7 37bc eb2d 93bc
00000280: 0ccd d039 0095 333d 1747 2c3c af76 6aba
00000290: 4a22 5dba 3708 20bc 935c 1cbd 0736 ed3b
000002a0: a0a0 3abc f901 f8bb d551 9d3b 22f2 d4bb
000002b0: 81b9 65bc bc32 063b 3c46 3fbb 2008 3ebd
000002c0: 3fa3 8e3c 4799 05bd e6c5 3dbd 41a7 97ba
000002d0: 0435 0ebd 4fdd 9abc adf9 6d3d 5b3e 92bc
000002e0: b33a 873c b5c6 9d3c 8d8a 8c3b 5d2d d0bc
000002f0: f735 023d f071 a5bc 1ef0 fe3c a513 e0bb
00000300: e6ff 1bbd 4e8f c9bc b577 7cbc 6d45 7e3c
00000310: 9e74 9f3d a3d3 f6bb b2e7 83ba 344f f6bc
00000320: c59e 873d 80cf bfbc b82e 4c3c b313 dabc
00000330: b0e7 113d 67f4 163d acd8 ecbb e213 983c
00000340: 3605 66bc 2464 373b 9eb7 233c ecf9 8abc
00000350: ec15 343d 822e a9bc be25 71bb 5a5c 19bb
00000360: eefd 35bb cd43 d63c 94f6 f6bc fecc 87bc
00000370: cc35 e1b7 fbad af3c 7d77 1dbd 9217 1d3d
00000380: bc97 e73a 7e92 5dbc 6e91 12bc 1481 d03c
00000390: 9488 b1bc a93e c83c 9896 5cbc 52a9 b03b
000003a0: 5f68 c93b e528 9abc ee26 f93c d35a 653c
000003b0: 220f c73c 63aa 65bc 89ee 35bc 7c89 a3ba
000003c0: f1af d8bc ce1a 1b3b c713 7f3c 023f 4c3c
000003d0: c487 8b3d fe02 36bc 8511 1bbd c138 71bc
000003e0: 24ba c5bb 39ca ba3c 75bc ecba 4b90 ad3b
000003f0: a120 4bbc 2074 92bc b32c 9f3d 4ce8 4a3d

action_model._continuous_distribution.mu.bias f4 [20]
-0.013188033 -0.0023857725 0.019006222 0.002916931 -0.0071796635 0.008390478 -0.016774138 0.004576787
0.0055995197 -0.0011357231 -0.02531752 0.00067249936 -0.0007945722 -0.014043726 0.015093692 0.0023780307
0.013239062 -0.006592261 -0.003329354 -0.002843117
00000000: 9f12 58bc 9f5a 1cbb f0b2 9b3c fb29 3f3b
00000010: 6243 ebbb 3778 093c eb69 89bc dff8 953b
00000020: 2d7c b73b 8bdc 94ba b066 cfbc ab4a 303a
00000030: d64a 50ba a817 66bc 884b 773c bcd8 1b3b
00000040: a7e8 583c e503 d8bb 4b31 5abb 9753 3abb
