results/soloWorm-V2/Worm/Worm-8999997.onnx (onnx, 581953 bytes, 9 tensors)

network_body._body_endoder.seq_layers.0.weight f4 [256, 39]
000000 42 04 ce bd eb 99 e1 be 72 6a 2e be b0 d0 c5 be
       -0.10059406 -0.44062743 -0.17032793 -0.38635778
000010 e0 89 8a 3e 5f 55 2c 3e 76 18 db bc c4 9c f0 be
       0.27058315 0.16829441 -0.026745062 -0.46994603
000020 97 54 0d 3e 3e 1b e4 bd b6 de 49 3e 75 fe 42 be
       0.138018 -0.111380085 0.19713864 -0.1904238
000030 26 bf e4 bd eb 79 a4 bd fc 6c 7a bd ea d5 ae 3d
       -0.11169271 -0.080310665 -0.06113909 0.085368946
000040 a8 d3 65 be 36 51 d2 bd 93 63 94 3e 21 cf 12 be
       -0.22444022 -0.10269396 0.2898222 -0.14336826
000050 96 38 31 bb d6 44 99 be fa 1c 55 be ef 15 5d 3d
       -0.0027041784 -0.2993533 -0.20811835 0.053975996
000060 ee 48 97 bc f9 d2 9e be 20 aa f0 bb fb ab 09 bd
       -0.018467393 -0.31020334 -0.007344499 -0.03361128
000070 93 5b 8d be d6 72 0d 3d 8b 9d ee bd de a9 50 3c
       -0.27608928 0.034533344 -0.11651143 0.012735812
000080 4c b6 6a 3d 2d 9e 8e be 4d db 2f be 45 da 90 3d
       0.057302758 -0.27855054 -0.171735 0.070728816
000090 f7 af 66 bb 0c 78 1b bd f0 95 a9 be f0 fc 8e bc
       -0.0035200098 -0.037956282 -0.33122206 -0.017454594
0000a0 ed 61 e8 be 96 7e ae 3c 71 ff ea 3c 75 54 52 be
       -0.4538721 0.021300595 0.028686257 -0.2054003
0000b0 0d 24 63 bd b8 a5 82 3e 63 61 ea 3c d0 fb 4f 3e
       -0.055454303 0.25517058 0.02861089 0.20310903
0000c0 c4 71 05 be 1d 42 ee 3d 35 21 a7 bd 39 27 39 be
       -0.1303168 0.11633704 -0.081606306 -0.18081369
0000d0 47 7c 3b 3e 07 d2 ee bd 76 aa 27 3b 79 7b 36 be
       0.18309127 -0.11661153 0.002558378 -0.17820539
0000e0 a0 7a 2a 3e f3 5a be bd 6e aa 95 be f3 aa 79 be
       0.1664834 -0.09294691 -0.2923159 -0.24381618
0000f0 09 59 eb bd 84 65 98 bc b4 b0 db bd 66 92 50 3e
       -0.114915915 -0.018603094 -0.10727063 0.20368347
000100 ac df 87 3b 6d 0f 9b 3e 00 9c cc ba da b6 12 3d
       0.004146537 0.30285206 -0.0015610456 0.035818912
000110 15 76 cc 3b f0 94 cb bd 70 27 a4 3d 6c 4f 03 3e
       0.0062396624 -0.09940517 0.080153346 0.12823266
000120 57 45 a9 3d 19 7a 88 bd 1e 41 d8 be e5 82 1a be
       0.08265179 -0.06663913 -0.4223718 -0.15088995
000130 5b e0 68 be e2 b6 8f 3e 04 b4 f1 bc 2d e0 8e bb
       -0.22741835 0.28069216 -0.029504783 -0.00436022
000140 c4 7e 00 3d 90 1b 9a 3e de 98 84 3e f0 46 37 be
       0.031370893 0.30099154 0.25897878 -0.17898154
000150 11 70 49 3e f7 80 24 be d2 4e 76 3e 6d 6f a5 3c
       0.19671656 -0.16064821 0.24053505 0.020194734
000160 3d 5b 68 bd 5b 81 06 be 0b cf 66 bd ca e5 53 bd
       -0.056727637 -0.13135283 -0.056349795 -0.051732816
000170 2a b9 92 3e bc 14 e8 3d e9 95 73 bd 29 79 9c bd
       0.28656894 0.1133208 -0.059469137 -0.07640297
000180 04 df 5f 3d 5a 0e 3a 3e e4 5a e6 3d 0c 7a 96 bd
       0.054656044 0.18169537 0.11247805 -0.07347497
000190 6a b1 bd bd 47 a3 8e 3e 74 bb 6c be 26 d9 b6 bd
       -0.09262355 0.27858946 -0.23118383 -0.089281365
0001a0 16 0f 9f 3e 51 70 e2 3c 75 e5 15 3e 1e 89 9a 3d
       0.31066197 0.027641447 0.14638312 0.07545684
0001b0 6d 8d 88 bc f9 a5 0d 3e da cc 83 3b 8d 90 d7 bd
       -0.016669 0.13832845 0.004022223 -0.10525618
0001c0 35 06 8d 3e 27 d5 88 3e 3a cd 34 3d fe b0 d4 3d
       0.27543798 0.26725122 0.04414103 0.10385321
0001d0 4f dd bb bd 45 74 4d be 9f eb 32 3e 74 74 2d be
       -0.09173071 -0.20063885 0.17472695 -0.16938955
0001e0 15 a5 aa bd ce 04 42 3d 96 ae 70 bd 83 e7 a3 bd
       -0.08332268 0.047367863 -0.058760248 -0.08003142
0001f0 39 d7 41 3e 4e 48 d2 3b 41 52 8c 3d 1b 66 04 3e
       0.18929757 0.006417311 0.06851626 0.12929575
000200 da 18 05 3e 50 c3 50 bd 1b 67 d9 3e 26 c2 63 be
       0.12997761 -0.050967515 0.42461476 -0.2224203
000210 f4 42 80 be 85 c5 08 3d fe 3e 3f be c5 d1 7b bd
       -0.2505108 0.033391494 -0.18676373 -0.06147935
000220 61 27 4f be 97 81 41 3c 52 fa d3 39 ab e2 a3 3e
       -0.20229866 0.011810682 0.0004043156 0.3200887
000230 98 f6 80 be a6 83 fc bb 5c 7a d6 be 82 54 9b 3d
       -0.25188136 -0.0077061234 -0.41890228 0.07584478
000240 4a 08 96 3d 1c 4c 1c be f8 5f 31 3e 90 03 59 bd
       0.073258 -0.15263408 0.17321765 -0.052981913
000250 2e 05 b1 3d 0d 70 97 3d 70 2d c8 bd ee c4 47 3d
       0.08643566 0.07394419 -0.097742915 0.04877179
000260 a9 d5 69 bd 2e ef 19 3e 64 64 7b be 84 e5 28 3e
       -0.057088528 0.15032646 -0.24550015 0.16493803
000270 7f 72 c3 3d cb 50 1a 3e 4c 2f 8c be 2a 16 3f be
       0.09543323 0.15069883 -0.27379835 -0.18660799
000280 29 59 ff 3c 42 72 93 3e ff 9c db bd 50 7e 9b bd
       0.031170445 0.2879811 -0.10723304 -0.075924516
000290 73 43 da bc 24 55 20 be 68 ed c2 3d 54 d6 f4 3c
       -0.02664349 -0.15657479 0.09517938 0.029887356
0002a0 3b e1 60 be 45 cc 83 3e fc ba 2c 3e 87 c0 8d be
       -0.21960919 0.25741783 0.16868204 -0.2768595
0002b0 f6 09 08 be 6d 4a a8 bd f8 fd 95 bd f2 6f 22 be
       -0.1328505 -0.082173206 -0.07323831 -0.15863016
0002c0 10 55 c8 be 64 6c 76 bd 15 e1 e3 3d ea 39 e1 3c
       -0.39127398 -0.060161963 0.11126915 0.027493436
0002d0 92 15 06 3e e7 7c a2 3d 13 d4 ce 3d 54 5c 47 3c
       0.13094166 0.079339795 0.10099044 0.012168009
0002e0 7d 18 fe 3c d1 fc 0e 3d e1 eb 06 be 8e 2d 89 3d
       0.031017536 0.034909073 -0.13175918 0.06698142
0002f0 6c 65 52 be 3f 0f e1 bd a0 ff 47 3e 55 d0 5e 3e
       -0.20546502 -0.10989236 0.19531107 0.2175916
000300 6a 74 88 bb 53 b4 b2 3d e1 4b 5a 3e 81 22 f0 3d
       -0.0041642683 0.087258 0.21318008 0.11725331
000310 ea aa fb 3c 00 ff 96 bc fe 9c e9 bd 3e e3 e5 3b
       0.030721147 -0.01843214 -0.11406897 0.007015615
000320 90 84 41 3e 92 67 c4 3d d0 36 b1 3b 89 ce e7 ba
       0.18898225 0.09590067 0.0054081455 -0.0017685454
000330 3d 03 fd 3b cf 7e e9 3d 80 8e 6f 3e fa e1 6b 3e
       0.0077213333 0.1140114 0.23394203 0.23035422
000340 65 72 86 3b 92 4a e5 bc 05 c4 6d 3d 4d 0f 69 be
       0.0041029924 -0.02798966 0.058048267 -0.22759743
000350 6e 43 1a 3e d4 15 9c bd d0 29 8c 3e 3d 4c 11 3e
       0.15064785 -0.07621351 0.2737565 0.14189239
000360 3b 43 2d 3e be 43 18 3e 13 c1 24 3e 98 3a 09 3e
       0.16920178 0.14869592 0.16089277 0.13401258
000370 60 8b 14 bc f1 4e 78 3e 95 1a 29 be 27 c7 0b bd
       -0.009066433 0.24248864 -0.16514046 -0.034125473
000380 d0 a8 1d 3e 20 53 9c bc 46 2e 31 3e f0 14 e6 3d
       0.15396428 -0.019082606 0.17302808 0.11234462
000390 3a 90 29 be 59 fc 9e bd 66 1c 89 bd 95 e5 9e be
       -0.16558924 -0.07762975 -0.0669487 -0.31034532
0003a0 e4 4d fd bd 7d 3f 04 be d1 29 5a 3c 2d 2b e4 3b
       -0.12368372 -0.12914844 0.013315634 0.0069631548
0003b0 e5 ef 25 3e 4f 5e 67 3e 71 6a 8d 3e ae 57 17 be
       0.16204794 0.2259457 0.2762027 -0.14779541
0003c0 e0 8b ac 3d b1 19 7d 3e 16 1b 33 be 8e 22 8e 3e
       0.084251165 0.24716832 -0.17490801 0.27760738
0003d0 cc 46 35 bd 05 94 a3 bc 33 12 b5 3d 79 fb 7e be
       -0.04425697 -0.019968042 0.08841362 -0.24900617
0003e0 5e a0 5e 3d b1 db 8f 3d f9 e4 24 3d d9 6f 57 be
       0.054352157 0.07024325 0.040257428 -0.2103876
0003f0 37 28 5d bc 96 e9 8c 3d aa cc 92 be 1f 7c 5b be
       -0.0134983575 0.068804905 -0.2867177 -0.21434067

network_body._body_endoder.seq_layers.0.bias f4 [256]
000000 71 d2 aa 3c 6b c0 c9 bc e5 f3 1c 3d cb 87 14 bd
       0.0208523 -0.024627885 0.038318533 -0.036262315
000010 20 b3 2a bc 12 5c 74 3c 30 fd f0 3c 81 19 bc bc
       -0.010418683 0.014914529 0.029417604 -0.02296138
000020 0b 36 13 3d 51 ad 8e bd c0 94 e7 bc 12 5f a3 bc
       0.03594021 -0.06966651 -0.028269172 -0.019942794
000030 0b 3e 5e 3d ef f4 97 3d 84 e0 8b bd 12 78 09 3d
       0.054258388 0.07419764 -0.06829932 0.033561774
000040 33 5f 63 bc 97 78 05 3d aa fe 3f 3d cd 87 de 3c
       -0.013877678 0.032585707 0.046873726 0.027164364
000050 be 3e 65 bd 3f db a1 3d 69 98 47 bd 13 70 8b bc
       -0.05596804 0.07903146 -0.048729334 -0.017021215
000060 d6 e0 30 3d 44 2e f3 3c ce 25 6b bd f2 33 c6 bc
       0.04318317 0.029685147 -0.0574091 -0.024194691
000070 4d 36 10 3d 7b c0 d9 3c bd 29 a9 3c a7 ef 1b 3c
       0.035208035 0.02658104 0.020649785 0.009517587
000080 e3 ff c1 bc af 48 d1 3c e2 ef df bc 35 d0 5b bc
       -0.023681587 0.025547354 -0.027336065 -0.01341634
000090 d8 1f 15 3d 90 ad 0d bd 6f 55 8a 3d 65 a4 8c 3b
       0.03640732 -0.03458935 0.067545764 0.0042920583
0000a0 1c c2 93 3d 62 ee b3 3c f4 75 27 bd aa 89 50 3a
       0.07214758 0.021964256 -0.040883973 0.0007955084
0000b0 d2 2a 14 bc 10 c6 91 3c 95 d7 7a bd 0a fc 98 3c
       -0.009043412 0.017794639 -0.06124075 0.01867487
0000c0 ec c7 c4 3b 35 85 28 3d 4e c1 c9 bc dd 21 73 bc
       0.006005278 0.04114266 -0.024628308 -0.014839617
0000d0 ad eb ca bc 2f 09 af 3d d3 aa 37 bb ee e3 e4 bb
       -0.024770582 0.085466735 -0.0028025403 -0.006985179
0000e0 13 1a b9 3c 31 58 2c 3d 12 b2 27 3d 23 3d af 3c
       0.022595441 0.042076293 0.040941305 0.021391457
0000f0 9c 03 15 3d 5b 8e 01 3c 55 78 45 bd 6c 07 e7 bc
       0.036380395 0.007907475 -0.04821046 -0.028201781
000100 2b d2 c3 bb bc 49 cf 3c 86 83 35 3c ab 28 e5 3b
       -0.0059759817 0.025303714 0.011078721 0.0069933734
000110 0b 71 70 3d 2e c6 7b 3d 9b 20 9e 3c eb 6f 76 bc
       0.058701556 0.061468296 0.019302657 -0.015041332
000120 6c 19 66 b8 5b 4a c4 3d 32 5d e9 bc ca 8a b3 bb
       -5.485995e-05 0.09584495 -0.028486822 -0.0054791914
000130 84 d5 4d 3d 12 7e b4 3d 1d ee 00 3d 2a f4 9b bc
       0.050252452 0.088131085 0.031477083 -0.019037325
000140 ed 98 4f 3d 1d ce 54 b9 da 09 1a 3b 8e 27 0b 3d
       0.05068295 -0.00020294679 0.0023504407 0.03397327
000150 cc bd 9e bc b0 4e b5 3c 6e aa b9 bc 03 a9 38 3d
       -0.019377612 0.022132248 -0.022664275 0.045083057
000160 d7 17 71 3d d1 3b 6c bd 31 a7 10 bd 86 f9 ae bb
       0.058860626 -0.057674233 -0.035315696 -0.005339804
000170 ce 33 2f 3d a3 60 62 3c 4f e1 2b bc 34 a0 68 3c
       0.042774014 0.013816985 -0.0104907295 0.014198352
000180 8c 72 3c bd 49 4d 2f 3d 8b f7 4c 3b e7 11 40 3d
       -0.046007678 0.042798314 0.0031275477 0.046892073
000190 13 28 0b bc 75 8f f7 bb 9e 8e 9f 3d 90 ff 48 bc
       -0.008493441 -0.007554943 0.07790874 -0.012267962
0001a0 2d 42 1a 3d 17 c6 6b bc c0 ec de 3c 56 0c 05 3c
       0.037660766 -0.01439049 0.0272125 0.008120617
0001b0 d9 b6 38 bd 38 ec 25 bd 75 07 31 bd 3a 29 a8 3d
       -0.045096252 -0.04050848 -0.043220002 0.08210988
0001c0 78 1e 1a 3d ec 9b da bc 3b 11 d2 3b a1 fc d2 bb
       0.037626714 -0.026685677 0.0064107454 -0.006438807
0001d0 80 7b d6 3c da a3 79 3b cb a4 b6 3c 4b cf d9 bc
       0.026181936 0.0038092048 0.022295376 -0.026588103
0001e0 f0 f2 38 bc 4f 43 43 3d c8 49 0e 3d 37 18 ab 3d
       -0.01128839 0.047671612 0.034738332 0.08354228
0001f0 98 07 2b 3d 45 10 36 3d 97 5d 26 bd 67 88 66 bd
       0.04175529 0.04444911 -0.040616598 -0.056282427
000200 d1 a4 8a 3d 6a 0a 13 bd f5 24 71 bc 3c f1 f0 3c
       0.067697175 -0.035898603 -0.014718284 0.029411905
000210 54 c9 67 3b d7 f1 66 bd 88 26 15 3c d3 d6 63 3c
       0.0035367804 -0.05638298 0.009103425 0.013906199
000220 86 1b 0b 3d 4b 30 4c 3d 12 45 1b 3c 90 31 3e 3d
       0.033961795 0.049850743 0.009476917 0.046433985
000230 2c 44 0d bc a5 ed d1 3c be c0 87 bb 3a 43 4e 3d
       -0.0086222105 0.025626013 -0.0041428497 0.05035708
000240 3c 06 4b 3c aa d3 67 bc 7b d0 f7 bc 70 48 09 3d
       0.012391623 -0.014149586 -0.030250778 0.033516347
000250 8b 7f a2 3d 8f e2 dc bb 2c 45 97 3c 43 c0 93 3c
       0.07934483 -0.006740875 0.0184656 0.018036013
000260 cc cb 85 3d 7c 5f f6 bc e8 a5 36 3d a9 91 b2 3b
       0.06533012 -0.030074827 0.044591814 0.005449493
000270 5d ae bb 3c 32 fa 17 bd 00 9c 19 bc 47 3f de bc
       0.022910291 -0.03710384 -0.009375572 -0.027129782
000280 db 26 01 3d 50 16 2f bc 7e 98 4d 3d b7 8f ba 3b
       0.031531196 -0.010686472 0.050194256 0.0056934017
000290 ed 22 e4 3c fe 96 51 bc 27 0e 9b bb b5 fa 67 bd
       0.027848685 -0.012792347 -0.0047319117 -0.056635577
0002a0 b3 f5 59 bb 70 f0 81 3d 48 2f 98 3d fd 9b 05 3d
       -0.003325802 0.06344688 0.07430893 0.032619465
0002b0 01 14 5e bd 06 6f 5e bc b4 e2 ca bc a0 8f ec 3c
       -0.054218296 -0.013576275 -0.024766304 0.02887708
0002c0 58 0d fd bc 1f d1 55 3b 8e ff ec bc 0a 9b 8e bb
       -0.030890152 0.0032625867 -0.028930452 -0.004351978
0002d0 48 c8 42 bd 8a 7f 99 ba 75 14 6c bd ff d8 57 bc
       -0.047554284 -0.0011710983 -0.057636697 -0.0131742945
0002e0 34 59 a9 bc df ba 22 3d a4 bb f0 bc 93 5b c7 3c
       -0.020672418 0.039728995 -0.029386349 0.024335658
0002f0 78 1a 29 3c 54 01 4e bc 3f 07 57 bc 9a 66 83 3d
       0.010321252 -0.012573559 -0.013124286 0.06416054
000300 a6 14 11 3d 51 d7 fb 3b 2f b8 3e 3d e9 3c 25 3d
       0.035420083 0.00768558 0.04656237 0.04034129
000310 26 99 93 3d 7f e7 15 3d 83 05 6c bc 14 53 7e 3c
       0.07206945 0.036597725 -0.014405611 0.015522737
000320 27 2d 14 3d da 79 d3 bc 52 63 92 bd f7 cc 87 bc
       0.036175873 -0.02581494 -0.0714785 -0.016577227
000330 be 8f 2b bc cb 66 1e 3d 69 cd dc 3b 86 ec 1a 3d
       -0.0104712825 0.03867225 0.006738354 0.037823223
000340 1f 42 7d bd 9a c3 d5 3c 34 7d 84 3b d1 6a 15 bd
       -0.061830636 0.026094247 0.0040432457 -0.03647882
000350 a5 c6 e3 bb 64 b6 03 bd 99 5e 1c bc 62 a5 f6 3c
       -0.0069511705 -0.032156363 -0.009544038 0.030108158
000360 8b 66 d6 bc 2a d4 a1 3d 13 c4 a4 3c f7 63 e4 ba
       -0.026171943 0.07901795 0.020113027 -0.0017424811
000370 b0 40 14 3b 81 57 f3 bc 69 f4 c9 3c 98 63 d4 bc
       0.0022621565 -0.029704811 0.024652677 -0.025926396
000380 83 b6 4e 3d 1e cf 78 3d c9 16 4c bb 56 93 06 3d
       0.050467025 0.060744397 -0.003114151 0.032855354
000390 c5 b7 4c bd 35 89 5a 3b fb 3c d0 3c 49 c1 61 bd
       -0.049979944 0.0033345942 0.025419703 -0.05511597
0003a0 1e 20 03 bd ca 6b 0d 3c c9 0b ac 3d ad 8c 64 3d
       -0.03201305 0.008631656 0.08400685 0.05579822
0003b0 68 7e 8d bc ac 8b 68 3d fa 5b 11 3d f7 b6 23 bd
       -0.01727219 0.056773826 0.035488106 -0.03996941
0003c0 ae b0 6b 3c bb ac d1 3c 0a 96 1e bc fd 27 20 3d
       0.014385385 0.02559506 -0.009679327 0.039100636
0003d0 a0 9f 9b bc d9 aa 28 bd 30 74 42 38 ff 31 10 bd
       -0.018997014 -0.041178558 4.6361412e-05 -0.03520393
0003e0 ed 38 e5 bc b6 37 ef 3b 66 64 e4 bc 67 99 23 bb
       -0.027981246 0.0073003424 -0.027879905 -0.002496326
0003f0 f2 4d 9a bd 7e 84 45 bc 2a a9 ab 3d 40 c3 6a bd
       -0.07534398 -0.012055514 0.08381875 -0.05731511

network_body._body_endoder.seq_layers.2.weight f4 [256, 256]
000000 c0 60 d7 3c 6b f0 01 3e 36 e5 21 3d 0d 96 5e 3d
       0.026291251 0.12689368 0.039525233 0.05434232
000010 2e d6 57 3d c0 84 cc bc ac bf ad bb 5f ce ac bd
       0.052694492 -0.024965644 -0.00530239 -0.084378
000020 7a 0c 4f 3b 34 8a bb 3b 3b e1 d3 bd 13 1b db bd
       0.003159313 0.005723262 -0.10345694 -0.10698523
000030 18 2f 1a bd 81 b0 04 3e ae 76 2e 3c a4 b9 82 3d
       -0.03764257 0.12957956 0.010648413 0.063830644
000040 a6 1f 69 3c b1 58 6c be ad 36 11 be 03 3b a6 3d
       0.014228737 -0.23080708 -0.14181013 0.08116724
000050 58 d0 89 bd 94 e5 2f bd 51 58 87 bd 83 5e a1 bd
       -0.067291915 -0.042943552 -0.06608642 -0.07879355
000060 41 3a 0c 3e af cf 65 3d 38 36 57 bc 2b a3 d9 3d
       0.13694097 0.056106266 -0.013135485 0.10626825
000070 bb 5d 0e bd 68 4e ed 3d e4 8c 4b 3d 86 f8 b7 3d
       -0.034757357 0.115872204 0.04969491 0.08982949
000080 da cd 15 3d 53 76 5b bd 25 97 73 bc f4 b0 35 bc
       0.03657327 -0.05357964 -0.014867579 -0.011089552
000090 02 88 8f ba 5f ad d5 3c d2 a7 8e bc 92 f9 e6 3c
       -0.0010950568 0.026083646 -0.017414007 0.028195176
0000a0 23 2b 62 3d 23 c2 b2 bd ac 81 c1 3b de 95 3c bd
       0.05521692 -0.08728435 0.0059053507 -0.046041362
0000b0 3d be 9b bc 29 5f a6 3d be e0 27 bd e1 5f 9f bc
       -0.019011611 0.08123619 -0.040985815 -0.019454898
0000c0 d4 e3 f6 3c 8c b4 5e 3a de b9 61 3d 60 ca b6 3d
       0.030137934 0.00084955315 0.055108897 0.08925319
0000d0 f2 f6 24 3c b6 2d c9 3b dc 55 0c 3d dc 7b 05 be
       0.010068642 0.0061394824 0.03426157 -0.1303553
0000e0 e0 7c 30 bb 4d 17 af 3d 68 29 23 3d 94 87 06 3c
       -0.00269299 0.08549366 0.03983441 0.008211035
0000f0 9a da 07 be a5 fc f3 3c c8 be d2 bd 03 db 15 bd
       -0.13266984 0.029783556 -0.10290295 -0.03658582
000100 4a 18 d7 bb 8f 29 41 3d 49 ef 96 3c d9 82 ab 3d
       -0.006564175 0.047158774 0.018424647 0.083745666
000110 8d bb 22 3c aa 01 cc 3d 83 51 1d bd 1b 1e 0b 3e
       0.009932411 0.09961255 -0.038407814 0.13585703
000120 1a b6 e4 3c 43 20 92 3d 9e df 0d be 76 e1 9c bd
       0.027918864 0.0713506 -0.13854834 -0.07660191
000130 a1 5f 0a 3e 8a 1f 1e bd 2b 7a 00 3c ce 87 0d bd
       0.13513042 -0.038604297 0.007841627 -0.03455334
000140 8f 4f c9 bc 0c e8 00 be 81 6c e4 bc 9c e1 ca 3c
       -0.02457407 -0.12588519 -0.02788377 0.024765782
000150 da 49 da 3d fa f9 55 be 74 0f ff bd c4 28 92 3b
       0.10658617 -0.2089614 -0.12454119 0.004460426
000160 d5 0e 3b bd e0 48 05 be 96 20 e6 bd 74 e9 19 3d
       -0.04566844 -0.13016081 -0.11236684 0.037576154
000170 7c 2e 91 bd 11 a6 3b bd 19 53 b3 bd 88 f9 9f bd
       -0.07088944 -0.04581267 -0.08756084 -0.07811266
000180 fa 85 25 3d 51 b1 2c 3d 99 0e 26 3e a6 85 91 3d
       0.040410973 0.04216129 0.16216506 0.071055695
000190 b8 bf 20 bd bb 5a 20 3d bd 11 8f 3c fe b5 9a bb
       -0.039245337 0.039149027 0.017464513 -0.004721402
0001a0 84 65 96 bc 5f c7 b5 3b b7 5a 2e 3d 92 35 a7 bd
       -0.018358953 0.0055474485 0.04256698 -0.081645146
0001b0 9f 93 85 3b d3 d7 c8 bc 31 27 fb 3b 37 e0 df 3d
       0.0040764357 -0.024516976 0.007664584 0.109314375
0001c0 20 26 13 3e dc 8e 3c 3c e5 61 01 ba ec 18 b3 3c
       0.14370012 0.01150867 -0.0004935547 0.02186247
0001d0 5b 10 4e 3d 0a bc 15 bd 23 7b cf 3d ec 53 fa bd
       0.050308567 -0.03655628 0.10130908 -0.12223038
0001e0 fc f1 04 be f4 67 ba 3d 05 02 8e 3d 4c c3 11 be
       -0.12982935 0.09101859 0.06933979 -0.14234656
0001f0 69 98 15 ba f0 d4 c8 3d 29 0a 90 bd 46 bf 8a bd
       -0.000570661 0.098062396 -0.07033188 -0.06774764
000200 f4 b3 e4 3d 69 12 b0 bc a6 b8 f8 bd 53 47 49 3d
       0.11167136 -0.021493154 -0.12144594 0.049140286
000210 da bb f3 bd 40 49 20 3d 35 0b e3 3d a8 77 dd 3d
       -0.11901064 0.039132357 0.11086122 0.10813838
000220 8f dd 0f 3d 95 ae f9 3b 97 29 20 3b ed 47 d2 3d
       0.035123404 0.0076196888 0.0024438852 0.10267625
000230 f2 f3 5f bd cc 8a f2 bc 5e 01 37 be 6e 67 16 3d
       -0.054676004 -0.0296072 -0.17871615 0.036719732
000240 94 6d c1 bd 83 42 d3 3c 32 b3 dd bd 57 45 88 3d
       -0.094447285 0.025788551 -0.108251944 0.066538505
000250 19 20 0b 3e 5b f2 2b be f9 24 4c bd 77 75 bf bd
       0.13586463 -0.1679167 -0.049839947 -0.093485765
000260 e4 a5 39 bc 94 7d 1a bd 42 2c f2 3d 9b 4f 6e bb
       -0.011331055 -0.037717417 0.11824848 -0.0036363367
000270 b5 7a 53 3d b3 13 9a 3c 51 03 fc 3c 76 00 82 bd
       0.051630694 0.018808221 0.0307633 -0.06347744
000280 99 eb ef bb 47 b0 fb 3c f4 66 cf 3c 22 4c 22 bd
       -0.0073217866 0.030723704 0.025317647 -0.039623387
000290 d3 28 24 bc d9 5d a6 3d b3 b6 b8 3c 5f ea 6b bd
       -0.010019499 0.08123369 0.022548055 -0.05759656
0002a0 d7 cf 2b be ae 1b f5 3d ec cf 96 3d f9 67 e0 bc
       -0.16778503 0.1196817 0.07363877 -0.027393328
0002b0 5d f5 70 3c b1 ef ce 3d 9e 2e 8f bd ae 74 4a 3d
       0.014706937 0.10104311 -0.069913134 0.04942768
0002c0 7c 6d c8 bd a0 81 2b 3c a5 39 6d bd 70 9e 59 bd
       -0.097865075 0.010467917 -0.057916302 -0.053129613
0002d0 45 a7 9a bd 6a fa 9b 3c 98 e8 df bd 5f c8 d3 bc
       -0.075514354 0.019040305 -0.109330356 -0.02585238
0002e0 81 0f 41 bd f0 b2 93 bd 01 98 09 be f5 cb af 3d
       -0.047133926 -0.07211864 -0.13436891 0.085838236
0002f0 85 8a 01 3d 96 3d ae 3c 91 1c a7 bd bc 6e 06 3d
       0.031626243 0.0212696 -0.081597455 0.03282045
000300 b8 28 cb bd 46 98 6b 3d 16 fa 54 bd bb 22 cb bd
       -0.09919876 0.057518266 -0.051996313 -0.09918734
000310 01 3a 21 3e b5 6c ad 3c 6e bf ab 3b eb 65 b9 bd
       0.15744783 0.02117 0.005241326 -0.090526424
000320 ce 0c 68 3d 38 43 da bc ca 35 fb 3c f9 2e 2a 3e
       0.056652837 -0.02664338 0.030665297 0.16619481
000330 84 1d 5d 3d 9f 12 40 3c 97 df 25 3d 0c 26 6b 3d
       0.053983226 0.01172319 0.040496435 0.05740933
000340 c0 c3 71 bc 13 e8 73 bd e6 2e dc 3c d1 c7 42 bd
       -0.014756143 -0.059547495 0.026877832 -0.04755384
000350 ad b3 8c 3d 77 95 5b bb 91 60 36 bd 67 08 d5 bc
       0.06870208 -0.0033505836 -0.044525687 -0.026004983
000360 1f 9b 1d be 0d 4a 6d 3d a9 4e 6e bd 04 63 8e bd
       -0.15391205 0.05793195 -0.058180485 -0.069524795
000370 3a 64 94 bc 54 57 9c 3d 39 66 e2 3c d4 6a 2c bd
       -0.018114198 0.07633844 0.027636634 -0.042094067
000380 b3 e9 c7 bb 2d 6f 38 3d d9 bc b9 bc 77 ce f9 bc
       -0.006100857 0.0450279 -0.022673057 -0.030493958
000390 23 34 fa 3a de 02 33 bd 65 2e cd bd 19 62 ae bc
       0.0019089024 -0.043703906 -0.10018615 -0.021287011
0003a0 f8 0c b4 bc 1a e5 ab bd ca 0c af bd f2 00 f8 bc
       -0.02197884 -0.08393307 -0.08547361 -0.030273888
0003b0 b3 92 cd bd 15 76 68 3e c5 13 d5 3c 6a eb 67 3d
       -0.10037746 0.22701295 0.026010403 0.056620993
0003c0 6a 9f ea bc ce 12 7d 3c 5c 21 7b bd 52 cb 8d bd
       -0.028640468 0.015446378 -0.06131111 -0.06923546
0003d0 80 67 98 3c de a1 67 bd 10 a6 1c 3c c1 7b 22 3d
       0.01860404 -0.056550853 0.009561077 0.039668802
0003e0 89 25 d8 bd ef 02 09 3e a4 02 d0 3d a9 66 1b bd
       -0.10554034 0.13380025 0.10156754 -0.0379397
0003f0 4c 5b 97 bd d6 2c 85 bc 2e bb ec 3d 79 84 27 bc
       -0.0739046 -0.016256731 0.11559139 -0.010224455

network_body._body_endoder.seq_layers.2.bias f4 [256]
000000 8f bc 99 3d a5 71 51 bc d6 4b e8 bc bf 58 02 bd
       0.07506668 -0.012783443 -0.028356474 -0.031822916
000010 04 b6 5e 3c 7f 66 e2 ba fe 93 f2 3b 8d 50 e1 3d
       0.013593201 -0.0017272978 0.007402896 0.11001692
000020 38 51 28 3d 5b 33 dd 3b fd 05 00 3d a3 78 51 3d
       0.04109308 0.006750507 0.03125571 0.05114044
000030 3c 82 d1 38 58 8d d7 bb 3d b3 09 bd 12 63 b1 bc
       9.990155e-05 -0.006578129 -0.0336182 -0.021653686
000040 e7 17 f4 3c 57 28 1d 3a bf 37 44 bc 2e e3 3e 3d
       0.029796554 0.0005995086 -0.0119761815 0.046603374
000050 e0 48 9e 3c f9 45 00 bd 10 bd 3e bd 91 ec e0 bc
       0.019321859 -0.03131673 -0.046567023 -0.027456554
000060 6c cf ad 3c c7 5b 02 bd d1 5d e3 bc fb 8f 53 bd
       0.02121707 -0.031825807 -0.027754696 -0.051650982
000070 9a ee 1e 3d 0a dd 87 bc be e9 83 bc 73 f2 c3 3c
       0.038801767 -0.016584892 -0.016102668 0.02391932
000080 14 46 ea bb c2 2f 9a 3c 16 75 03 3d 83 10 4d bc
       -0.0071494672 0.0188216 0.032094084 -0.012516144
000090 cd 72 67 3d 4d 81 95 bd 17 b2 7c 3c 4e 34 37 bd
       0.056505967 -0.07300053 0.015423319 -0.044727616
0000a0 59 01 70 bc 35 f4 d6 bb 9b e6 79 3c 72 d0 5d bb
       -0.014648759 -0.0065598735 0.015252735 -0.0033846167
0000b0 d5 e2 f7 bc ac ff b6 3c 3d 4f 40 3d 3c c8 db 3b
       -0.03025953 0.02233871 0.046950568 0.0067072194
0000c0 e8 82 9d 3c df ed 3b 3d f4 a6 94 3d fb 52 5a bd
       0.01922746 0.04588115 0.07258406 -0.053301793
0000d0 60 db 17 bd 48 8e 05 3c 4d 7e 65 3d bc ac 63 bc
       -0.037074447 0.008151598 0.056028653 -0.013896164
0000e0 64 03 a2 bd 54 76 81 bc a0 53 02 bc a6 fc 40 3d
       -0.07910803 -0.015803494 -0.007954508 0.047115944
0000f0 f0 ac 86 bb f6 ac 59 bd 09 da a7 3c 4a ce e2 3c
       -0.004109971 -0.053143464 0.02048971 0.027686257
000100 d1 ff 4f 3c 34 f4 e8 bc 1f 52 8d 3d a3 bc ca 3d
       0.012695269 -0.028436758 0.06900429 0.09899261
000110 d9 f6 2b bd c9 88 13 bd 4b 5d c5 3c e8 84 3f 3c
       -0.04198346 -0.03601912 0.024092337 0.011689402
000120 72 bb f8 3c fc 01 b2 bb 63 f5 21 3d 63 03 c4 bb
       0.030362818 -0.0054323655 0.03954066 -0.005981849
000130 f5 dc da bb ed 6a 5e 3d 01 f4 15 3d e0 dd 33 3d
       -0.006679172 0.05430119 0.036609653 0.04391277
000140 7f f9 75 3d 5f 14 2e bd 0f 9f b9 3b e2 70 1b bd
       0.06005239 -0.042499896 0.005664713 -0.03794945
000150 be c4 fc bc 3c d3 a8 3b 93 0d d4 3b b6 4b 43 3d
       -0.030855533 0.005152134 0.0064713447 0.047679625
000160 fb 43 6c bd 7b 27 f6 bb 32 44 80 bd 89 cd 82 3c
       -0.05768202 -0.0075120307 -0.06263007 0.015967147
000170 54 b0 5a bd a3 a9 8d 3d e6 02 14 bd f7 21 2d 3c
       -0.053390816 0.06917121 -0.036135577 0.01056718
000180 14 65 d9 3b 33 af ea 3b b9 e0 1d b9 e7 d2 7b bc
       0.006634364 0.0071619987 -0.00015056402 -0.015370107
000190 94 ae 05 bb a6 c6 1c bd a8 be 63 3d dd 4f 18 bb
       -0.0020398246 -0.038275383 0.055601746 -0.0023240962
0001a0 e0 d1 14 3b 4d b7 83 3d 75 8d 19 bd a3 55 85 bd
       0.0022708103 0.06431446 -0.03748842 -0.065104745
0001b0 7d 59 eb bb 83 f6 7f bc 61 68 0f bd d6 8e f2 bc
       -0.0071822987 -0.015622738 -0.035011653 -0.029609125
0001c0 cb e8 d1 ba 85 94 2a bd c1 77 7f 3c 6b 0c 1e 3c
       -0.0016014812 -0.041645546 0.015592516 0.009646515
0001d0 88 8c 57 3d 21 af 1f 3d dc 76 ec 3b f9 24 e6 3c
       0.052624255 0.038985375 0.0072163176 0.028093802
0001e0 6b 19 94 3d 69 ca d6 3c 73 9a da 3c f6 3f 43 3d
       0.072314106 0.026219564 0.026684975 0.04766842
0001f0 04 36 4d bd 44 48 99 bd 49 60 d0 bc 33 85 0b 3d
       -0.05010034 -0.07484487 -0.025436537 0.034062576
000200 9e 29 e9 3c 4d 64 78 bd d4 31 e8 bc a0 36 24 bc
       0.028462227 -0.06064253 -0.028344072 -0.010022789
000210 c5 1d 9e 3c c9 0c 59 bd c0 59 04 bd bc f4 3a bd
       0.019301305 -0.05299071 -0.032312155 -0.045643553
000220 f7 a5 23 3d 8a 69 08 3c 87 50 f2 bc 85 61 66 bd
       0.0399532 0.008325944 -0.029579414 -0.056245346
000230 47 d4 08 bd da df 3e 3d c4 84 49 3d f1 b7 88 3d
       -0.03340557 0.0466002 0.04919888 0.06675709
000240 a3 58 5b bc a5 df a6 bc 5c a9 28 bd d7 73 ab 3d
       -0.013387832 -0.020370314 -0.04117714 0.08371704
000250 db 0b 4d 3d 4e c5 66 3d 6b 6c 89 ba c7 7a 43 3d
       0.050060134 0.05634051 -0.0010484582 0.04772451
000260 fe 2a fb bc 52 24 8e bd 9f 3d 6e 3c 0e 75 4b ba
       -0.030660149 -0.06940521 0.014541059 -0.0007761278
000270 c1 10 1b 3c 30 cb b1 39 fc e1 03 3d 48 cf 55 bb
       0.009464444 0.00033911457 0.032197937 -0.003262477
000280 69 68 08 3c 8d 56 86 bc 47 de d8 3c b6 ba 84 bc
       0.008325675 -0.016398693 0.026473178 -0.016202312
000290 94 53 1f bc ac 31 06 3c a5 66 2c bd 12 db 30 3c
       -0.009724516 0.008190554 -0.042090077 0.010794418
0002a0 af 90 25 bd 10 90 8f bb 98 94 9a 3c 33 2e aa 3d
       -0.040421184 -0.0043811873 0.018869683 0.08309593
0002b0 b2 82 2f bd e5 81 8b bd f6 d2 46 3d 40 ee 8e 3d
       -0.04284925 -0.06811885 0.04854103 0.06979036
0002c0 47 5a c9 bc 97 89 41 3d 7f 85 78 3d 72 a2 aa 3c
       -0.02457918 0.047250357 0.060674187 0.020829413
0002d0 94 80 cc bb d4 a0 e4 3b fb 85 ef ba e4 4a 7a 3d
       -0.0062409136 0.00697718 -0.0018274182 0.061106578
0002e0 7a 9d ac bc 74 11 06 ba f5 33 48 bd 59 f0 2b 3d
       -0.021071184 -0.0005114295 -0.048877675 0.04197726
0002f0 23 ea d7 bc 60 97 3f bc 90 97 03 bc 45 d4 9f bc
       -0.026356762 -0.011693805 -0.008031741 -0.019510398
000300 64 ce 3a bd 3f f8 9a 3c 6f c6 99 3c 72 e0 e7 3c
       -0.045606986 0.018917201 0.018771378 0.028305266
000310 0a 0a 4b bc fd c2 30 3d 2a 4d 15 3c 1c c8 83 3b
       -0.01239253 0.043154705 0.009112636 0.0040216576
000320 c9 98 bf bb fd 7d f6 bc 83 3c a6 bc 63 9f a1 bd
       -0.005847071 -0.030089373 -0.020292526 -0.07891729
000330 d7 3b 5d bd 89 50 a4 3d f9 6b 1a bd ca f0 07 bd
       -0.054012146 0.08023173 -0.037700627 -0.03318862
000340 b0 aa 28 3d 2f db e4 bc 05 cf 8e ba 5c d4 9a 3d
       0.041178405 -0.027936546 -0.0010895437 0.075600356
000350 f7 58 09 3d cc 04 e4 bc 18 4e 5b 3d c0 3a 0d bd
       0.03353211 -0.027834319 0.053541273 -0.034479856
000360 07 38 c7 ba ff f5 59 3c 6a ac e4 3a 27 81 bd bc
       -0.0015199193 0.013303279 0.0017446403 -0.023132874
000370 d6 22 34 bd 57 6e 8c 3c bf 4b 7b bc f5 a7 cd 3c
       -0.043978535 0.017142458 -0.0153378835 0.025104502
000380 be 84 02 3d 17 ea 00 3d df 20 cb 3c c6 f5 be 3d
       0.031864874 0.031473245 0.024795948 0.09324221
000390 e0 eb c8 3c 78 54 fb 3c 6d d8 bb bc 63 38 00 bd
       0.024526536 0.030679926 -0.022930348 -0.031303775
0003a0 6c 49 09 3d fa ec 84 3d 75 a6 00 3b ff 8f 4c bc
       0.033517286 0.06490512 0.0019630466 -0.012485503
0003b0 5e ad 97 bc 3d 6c 2f bc 2b dd dc 3c ee 09 72 3d
       -0.018515285 -0.010706958 0.02696093 0.0590915
0003c0 de 8f 8a 3d aa 71 38 3a ca fa 2d 3c 64 e3 4b bb
       0.06765722 0.000703598 0.010618875 -0.0031110877
0003d0 75 0b 89 3d cf ae 4b bd b9 24 87 bc b6 18 58 bd
       0.066916384 -0.049727257 -0.016497003 -0.05275794
0003e0 c4 6e 8f 3c f2 21 56 3d 60 bb 6a bc 1e d4 11 bd
       0.017508872 0.052278467 -0.0143269 -0.03560268
0003f0 36 c9 1a bd cd f2 c1 bd cc 78 b6 bc 19 09 da 3c
       -0.037789546 -0.09470139 -0.022274397 0.026615666

network_body._body_endoder.seq_layers.4.weight f4 [256, 256]
000000 ec fc 6c 3d 46 2b 8e 3d 6c f0 de bc 1a fb 2e 3c
       0.057858393 0.069418475 -0.027214251 0.010679984
000010 45 d5 40 bd 14 88 b7 3d 8a d5 1a bd 5e 62 91 bc
       -0.04707839 0.08961502 -0.037801303 -0.0177471
000020 29 ca 42 3c ec 1e ed bd 28 2d e2 bd 8c 67 21 3e
       0.011889019 -0.115781635 -0.11043769 0.15762156
000030 a5 9b 7f 3d 5e 01 df bc 68 9c ab bc e6 c7 e4 bd
       0.062404294 -0.027222332 -0.020948604 -0.1117094
000040 ff 4b 49 3c ee d1 27 3d eb 1f 27 be fc a3 1d bc
       0.012286185 0.04097169 -0.1632077 -0.009621616
000050 a3 4c 8d be 2c 60 ee bc 17 fb aa bd 1a ae 31 3d
       -0.27597532 -0.029098593 -0.08348673 0.043378927
000060 d8 43 48 3d 47 a0 98 bd 33 3a fb 3d 82 99 2e 3d
       0.048892826 -0.074524455 0.1226696 0.042626865
000070 52 e1 6e bd db a1 2d be 01 01 42 3e 61 c6 1a be
       -0.05832035 -0.16956274 0.18945695 -0.15114738
000080 ab 05 d2 3d bd 0c 7b bc 3e da 50 3c 2d d8 40 bd
       0.10254987 -0.015322861 0.0127473455 -0.04708116
000090 69 f9 38 bd 53 42 f7 bd 74 57 0a bd 96 59 a0 3d
       -0.04515973 -0.12073197 -0.033774808 0.07829587
0000a0 f1 34 c8 3c 97 52 8f bc 35 96 9b 3d 49 71 4d 3d
       0.024439307 -0.017495437 0.07597009 0.050156865
0000b0 38 80 1f bc cb 68 33 3c d1 ac 00 be 66 04 07 be
       -0.00973516 0.010950278 -0.12565924 -0.13185272
0000c0 fd 16 ff bc 6f bf 1c be 32 12 39 be 7d 73 7b 39
       -0.031138891 -0.15307401 -0.18073347 0.00023980248
0000d0 8b 6b 3e 3d db e4 31 bd 8f 66 bb bb e3 fe 51 3d
       0.04648928 -0.043431144 -0.005719013 0.05126847
0000e0 aa e4 f4 bc 8e e6 36 be 51 38 8a bd 01 08 cc 3b
       -0.029894192 -0.17861387 -0.06749023 0.00622654
0000f0 5e 32 39 bd 6c c4 c6 bc 6d 41 32 bd 4f d2 a6 bd
       -0.04521405 -0.024263583 -0.043519426 -0.08145582
000100 6d 96 0d 3c b0 3f 6a bc e2 88 4b 3d a1 02 95 3d
       0.008641821 -0.014297411 0.04969109 0.07275892
000110 71 13 02 3e fe 0d 7b bd ac 68 c9 3d 61 c9 87 bc
       0.12702729 -0.06129264 0.09834418 -0.016575517
000120 51 58 c7 3c ba ae 31 bb 6b 40 96 3d b8 5b d1 bb
       0.024334105 -0.0027112202 0.073365055 -0.0063891076
000130 1b 51 4f 3d ce 70 60 3b d7 9d 1f 3c 4c 29 da 3b
       0.050614458 0.0034246924 0.009742222 0.006657755
000140 c5 34 bd 3b 4e 14 a1 3b 5d a9 4e 3d 85 34 43 3d
       0.005774113 0.0049157506 0.050454486 0.04765751
000150 04 25 fa 3b 98 8f a3 3d c4 cc ff bd ba 5b d2 bd
       0.007633807 0.07986373 -0.12490228 -0.10271402
000160 c0 29 9c bd 39 a3 ed 3c 75 6b fc bd 38 b3 8e bc
       -0.07625151 0.029008495 -0.12325183 -0.017419443
000170 df 03 b9 bd 79 b2 56 3d fe 73 bc 3d 3c 07 dd 3c
       -0.090339415 0.0524163 0.09201811 0.026980989
000180 23 95 68 3c e1 d0 b4 3d 68 4e 25 bc 12 0b 0c bd
       0.014195713 0.08828903 -0.010089494 -0.034190245
000190 ab e9 df 3d 9c 57 98 bd 81 fc 34 bd c7 6d e4 3d
       0.109332405 -0.07438585 -0.04418612 0.11153751
0001a0 b7 04 94 3d 76 a6 5d 3d 63 4d e1 3d d0 33 3f bd
       0.07227462 0.054113828 0.110010885 -0.04668027
0001b0 f0 83 ed 3c 2a 51 87 3d 50 a6 29 bc 1a 6b c9 bd
       0.028993577 0.06607278 -0.010354593 -0.09834881
0001c0 77 8a 7f 3d 19 d3 42 bb a7 88 fd 3c 20 6d df bd
       0.06238791 -0.0029727875 0.03094895 -0.10909486
0001d0 31 62 10 3e 71 b6 37 bc b8 3a b2 b9 b9 96 f3 bd
       0.14099957 -0.011212931 -0.00033994555 -0.118939824
0001e0 1b a7 72 bd 1c 76 95 bd 56 3a 56 3d 76 c7 ed 3c
       -0.059241395 -0.07297918 0.052301727 0.029025774
0001f0 03 b5 8c 3c 91 d8 55 bd 07 5a 98 3c 4a 67 ea 3c
       0.017176157 -0.052208487 0.018597616 0.028613705
000200 14 a3 42 be 2f 2d 16 3e 4f 74 cf 3b 26 a1 b5 3d
       -0.19007522 0.14665674 0.0063310037 0.08868627
000210 f4 de 6a bd 90 5c 43 bb 4d 9c 0f be 94 08 1b 3d
       -0.05734153 -0.002980981 -0.14024468 0.037849978
000220 e1 70 de 3c 18 50 6f bd 76 90 1c 3d f0 f7 05 bd
       0.027153434 -0.058425993 0.038223706 -0.032707155
000230 66 e1 bf 3c 68 40 20 be 56 c6 7e bd 17 ea 65 3d
       0.023422908 -0.15649569 -0.062200867 0.05613145
000240 b4 c0 a0 3d 76 67 18 be 6c c8 6d bd d2 a2 18 bd
       0.07849255 -0.14883217 -0.058052465 -0.037264653
000250 23 29 0c 3d 46 bd dd 3d d4 1d 8b 3d b6 b6 52 3e
       0.03421892 0.10827117 0.06792799 0.20577511
000260 d3 5f c0 bd 29 67 00 be 39 9b 76 bd a4 b8 05 3d
       -0.09393277 -0.12539352 -0.060206626 0.03264679
000270 1e 8f f5 bd 11 9f da 3a 7b 10 de 3b 2b 60 1b be
       -0.11990188 0.0016679486 0.006776867 -0.15173404
000280 1d 7e 21 bd 5f 87 05 3c 4b 98 91 3d bf f0 99 bd
       -0.03942691 0.008149951 0.07109126 -0.07516622
000290 b9 4b 83 bd 88 bc 5e bd 50 61 1c bc 95 4a cc 3d
       -0.06410927 -0.054379016 -0.0095446855 0.09975163
0002a0 c4 fb d9 bd 46 4e 0d 3d e1 c9 8e bc df 3b 0c be
       -0.106437236 0.034498475 -0.017430248 -0.13694714
0002b0 88 34 5e 3d 3f 0f 7a bd bf 1f 33 bd 27 f5 02 ba
       0.054249316 -0.061049696 -0.043731447 -0.0004995637
0002c0 98 c0 83 bd 5d 97 59 bd 03 52 b1 bd 29 77 be bd
       -0.06433219 -0.053122867 -0.086582206 -0.09300072
0002d0 d0 95 07 3e 29 49 ee bd 73 8a 8d 3d 02 ce d2 bd
       0.13240743 -0.11635048 0.06911173 -0.10293199
0002e0 5b 1d 29 3b c7 55 24 3d 39 f4 54 bd bb 16 21 3d
       0.002580485 0.040120866 -0.05199072 0.039328318
0002f0 a5 91 0c 3d ce e6 82 3c 04 bd 82 bb d8 36 29 3c
       0.034318585 0.015979197 -0.0039898176 0.010328017
000300 22 37 b8 3d 60 e0 12 bd db f3 e2 3c ab 44 fb bc
       0.08994891 -0.035858512 0.02770417 -0.030672392
000310 af 60 1d 3d e6 5c d7 bb 09 6b 1a 3d 10 df 0b bd
       0.038422283 -0.0065723537 0.037699733 -0.034148276
000320 10 ca a9 bd b3 8e 65 3b c0 a3 a9 bd 87 7e 8b 3c
       -0.082904935 0.0035027682 -0.08283186 0.017028106
000330 f6 64 70 3d 66 94 73 be 90 d8 3c be 0a 65 45 bd
       0.058690034 -0.23787078 -0.18441987 -0.04819206
000340 a7 b5 33 3e 6b 9d f5 bc 19 12 4a 3d dd d0 ed bd
       0.17549764 -0.02998229 0.049333666 -0.11612103
000350 83 18 3b bd 50 b2 15 bc 39 05 9d bc 15 2a b7 bd
       -0.045677673 -0.009136751 -0.01916753 -0.089435734
000360 65 f6 26 bd eb 11 2d 3d e8 0c 63 bc c6 9b 25 bd
       -0.040762324 0.042253416 -0.013858058 -0.04043176
000370 e5 2f 12 3d 96 7a 2a 3d 8e c3 ed 3d 73 53 a3 bd
       0.035690207 0.041620813 0.11609565 -0.07974901
000380 df 71 80 bd 3e 5f f2 bc 56 78 84 3d 51 ff a6 bd
       -0.06271719 -0.02958643 0.06468265 -0.081541665
000390 c8 6c 80 ba 2f 88 ea 3d fb e9 4d bc 45 e8 6c 3d
       -0.0009798044 0.11451756 -0.012567992 0.057838697
0003a0 f8 1a b6 bd 06 a5 2d bb 70 27 94 bb 86 13 06 3d
       -0.08891863 -0.0026496067 -0.004521303 0.032733463
0003b0 25 67 15 be f7 a3 18 3d 76 f9 8d 3b 98 af 04 be
       -0.14590128 0.037265744 0.0043327166 -0.12957609
0003c0 71 c4 41 bd 5d 05 2f bc 3e 39 76 3d bf c7 54 bc
       -0.04730648 -0.010682431 0.060113184 -0.012987076
0003d0 ea 39 22 bd 9b f3 73 3c c6 6c 86 3d 3f 8b ea 3d
       -0.039606012 0.014889623 0.06563716 0.1145234
0003e0 56 9c a7 3d bb d9 a0 bc 43 60 c2 3d 28 24 60 bd
       0.081841156 -0.019635072 0.09491017 -0.05472198
0003f0 6e d2 d4 3c bf 01 24 3d 20 50 0a 3d f2 58 1a bd
       0.025979247 0.040040728 0.03376782 -0.03768248

network_body._body_endoder.seq_layers.4.bias f4 [256]
000000 38 9b 8e 3b ab f1 40 3d 05 f0 5d 3d be bf b0 3c
       0.0043519996 0.047105473 0.05418398 0.021575805
000010 af 99 4c bb 05 9b 9d 3b 69 64 61 3d 15 e0 c1 3d
       -0.0031219532 0.0048097395 0.0550274 0.094665684
000020 7d 97 98 3d f1 c8 3e 3c 08 6d 86 3d d8 29 45 3d
       0.07450769 0.011644588 0.06563765 0.04813561
000030 a0 d9 2b 3d 77 c3 9f bc a2 3f d9 3b 0a f3 42 3d
       0.04195559 -0.019502385 0.0066299 0.04759506
000040 f6 ad 7b 3c e3 66 15 bc 9d 6c 4f 3c f7 98 49 3c
       0.0153613 -0.009118768 0.012660173 0.012304536
000050 cd e5 21 3d 65 2f 1a 3d ba 12 e2 3c 1f fb 36 bc
       0.039525796 0.037642855 0.02759682 -0.01116827
000060 9f 3f 93 3d d7 7a da bb 80 d6 08 3d c7 de f4 3a
       0.07189869 -0.0066674757 0.03340769 0.0018682115
000070 4b 8a 90 3b bb 34 b1 bc ed 3a 04 3c 4e d9 c2 3d
       0.004411017 -0.02163159 0.00807069 0.09514104
000080 62 7a 60 3d 49 0b 1c 3d 3e a7 2b bc c9 4a 75 bd
       0.054804213 0.0380967 -0.010476885 -0.059885774
000090 7a b1 3a 3d ed 56 90 3d c4 f4 9a 3c 85 fa 25 3c
       0.04557941 0.0704783 0.018915541 0.010130529
0000a0 f4 42 f1 bc 76 91 ae 3d 47 1c a7 bb 79 a0 fc 3c
       -0.029450871 0.08523838 -0.0050998065 0.030838238
0000b0 00 a9 ac 3d 4e 9c 8e 3c e0 b0 75 3d b9 b6 a4 3d
       0.08430672 0.017408516 0.059983134 0.08042664
0000c0 4c 72 37 bc 57 e4 e5 3c f8 3a 2c 3c 6c 40 16 bc
       -0.011196684 0.028062982 0.010512106 -0.009170633
0000d0 7b f7 c9 bc d0 36 bf 3c dc 1c 3c bd cc 7d 9b 3d
       -0.02465414 0.023341566 -0.04592596 0.07592353
0000e0 f5 e9 89 3c 29 11 fd 3b 59 8a 57 bb e6 3e a9 3a
       0.016835192 0.007722993 -0.0032888858 0.0012912422
0000f0 4e 3f 8e bc 7d 3f 8e 3d bd d9 46 3c 7c da 1d 3b
       -0.01736417 0.06945703 0.012136874 0.0024086526
000100 33 58 1c 3c 4f 30 73 3c d6 83 28 3d 9c cc b8 3a
       0.009542513 0.014843061 0.041141354 0.0014099064
000110 13 1b a2 bc 0b d9 89 bc 31 3b f5 3b 88 12 3f 3d
       -0.0197883 -0.016827127 0.007483863 0.046648532
000120 ad 53 96 3d 55 1e 99 3c ef ad 24 3d a4 61 6a 3d
       0.07340179 0.018691221 0.04020494 0.057222024
000130 11 5e 8e bb f4 05 bc bb f4 1f c2 bb e9 81 9b bc
       -0.0043447097 -0.0057380144 -0.0059242193 -0.018982844
000140 89 ba 9b 3d 66 78 d3 3c 95 b2 67 3d 92 7b 9e bc
       0.07603938 0.025814246 0.056566793 -0.019346032
000150 70 6c 0c 3d 83 95 a4 3d 88 59 da bb cd f2 44 3d
       0.0342831 0.080363296 -0.006663505 0.048083115
000160 dc 80 be 3c ea 19 64 3d 05 4f 90 bc 7d 6b c6 3b
       0.023254804 0.055688776 -0.017615804 0.006055294
000170 cd 14 2e 3b cc 52 e5 3c 98 50 f9 bc c1 44 b0 3c
       0.0026562691 0.027993582 -0.030433938 0.02151716
000180 11 21 65 b9 dc f8 40 3c a4 f4 b0 bc b3 98 71 3b
       -0.0002185146 0.011778083 -0.021601029 0.0036864697
000190 2f 20 55 3d 78 e3 d0 bc de 99 6b 3c cb 62 f0 bc
       0.052032646 -0.02549909 0.0143799465 -0.029343983
0001a0 7c 19 98 3a 00 16 c8 3c e4 4d 11 3d be ad 25 3d
       0.0011604275 0.024424553 0.035474673 0.040448897
0001b0 2c 85 80 3d ee c8 3b 3d b0 a2 11 bd 1f 7e f0 bb
       0.062754005 0.04584592 -0.03555554 -0.0073392536
0001c0 ed c7 c4 3d 8a d2 51 3d 3b ea 05 bc f2 54 2b 3d
       0.09608445 0.051226176 -0.008173521 0.041829057
0001d0 ed 12 2c bd e9 e8 f2 3c fc 5a 41 3d 54 01 8d 3d
       -0.042010237 0.029652076 0.04720591 0.06885019
0001e0 4e 0a 31 3c f8 06 9e 3d f2 97 b1 3c c6 28 31 3d
       0.0108056795 0.07716173 0.021678898 0.043251775
0001f0 6f 8f 6b bc 3b 99 a5 3d c5 a3 84 3d 03 66 33 3d
       -0.014377459 0.08085867 0.06476549 0.043798458
000200 78 8c 21 bd ee b6 a2 3b 06 8b 94 3c 4f ca 0f 3c
       -0.039440602 0.0049656546 0.018132698 0.0087762615
000210 5e 1b 40 bb 79 0c f7 bb b7 f8 00 3d 1d b0 dd bb
       -0.0029313187 -0.0075393287 0.031487193 -0.006765379
000220 48 db c1 bb 49 b5 e4 39 e9 86 8c bc 29 78 90 bc
       -0.005916033 0.00043622617 -0.017154174 -0.017635422
000230 65 06 c6 bc c8 f5 53 3c b5 20 91 bd 63 87 8a 3c
       -0.024172971 0.012937017 -0.070863165 0.01691026
000240 79 91 00 3d 2a 5e c3 3c e9 91 83 3d bb 7e cf bc
       0.031388734 0.023848612 0.064243145 -0.025328984
000250 76 4a d5 bb f0 b8 00 3d 82 80 ca 3c b3 2d 3a 3d
       -0.0065091206 0.03142637 0.02471948 0.04545374
000260 9f 18 20 3d a4 66 30 3d bc f4 68 3d 3e e3 a6 bb
       0.03908598 0.043066636 0.056874022 -0.0050930073
000270 63 1d 0b 3d 5a c0 a3 3d 60 7f 94 3b 15 01 7e 3c
       0.033963572 0.079956725 0.004531786 0.015503188
000280 d6 0c 0d bd a9 6b 07 3b 65 7f 8a 3b dc 4f 46 3d
       -0.03443607 0.0020663536 0.0042266124 0.048416004
000290 8f 0b 7b 3d df 27 af 3a d7 a3 20 bd 2a c6 51 bb
       0.06129032 0.0013363323 -0.03921875 -0.0032008984
0002a0 4d d6 fa 3c 3a 35 63 3d 9b b0 bf 3d a5 48 25 3d
       0.030619765 0.055470683 0.09359857 0.040352482
0002b0 96 4c 0e bd 19 55 41 3d 17 18 52 3d 27 fb ea 3c
       -0.034741007 0.047200296 0.051292505 0.028684212
0002c0 73 8c 39 3d 64 e7 9c 3c 13 92 25 3d 46 cc 58 3d
       0.04529996 0.019153304 0.04042251 0.052929185
0002d0 19 82 5b bb d9 ae ae 3b a2 a6 b0 3b f4 01 23 3d
       -0.0033494292 0.005330902 0.005390958 0.039796785
0002e0 b1 72 1a bd 0a a4 95 3d 23 97 09 3d 9c c2 3f 3d
       -0.037707034 0.073066786 0.0335914 0.046816453
0002f0 d3 9b 47 3c 7d b9 dc 3c 3c a6 9c 3c d6 63 90 3d
       0.0121831475 0.026943916 0.019122235 0.07050292
000300 1c 40 cc bc 77 57 43 3b a3 d2 df 3c 87 78 af bc
       -0.024932913 0.0029806772 0.02732212 -0.021419777
000310 ab 9c ab 3d 80 49 15 bd 8c 60 be bb 74 ac f4 3c
       0.083794914 -0.03644705 -0.005809849 0.029867388
000320 43 59 4b bd 13 28 83 3c 74 19 d7 bc d3 d5 2a 3d
       -0.049645673 0.01601032 -0.026257254 0.041707825
000330 ff 45 81 3d 5f 0d df 3c b6 3e 74 3d 08 ce 8d 3c
       0.06312179 0.027228056 0.05963012 0.017310157
000340 68 43 a3 bb aa 62 e7 3b d8 48 27 3d 2b df 61 3d
       -0.0049824007 0.007061322 0.040840954 0.05514447
000350 76 85 03 3b ab ec 0b 3d 4a 65 dc 3c ca c6 9e 3c
       0.0020068563 0.03416125 0.026903767 0.0193819
000360 97 f9 97 3d d1 9b 98 3c ba 0f 99 3a 9c 82 b0 3c
       0.07420652 0.018628987 0.001167766 0.021546654
000370 d9 a7 e7 3c f3 b6 1c bd 78 12 d0 3c 86 c3 95 3d
       0.028278278 -0.03826041 0.025399432 0.07312684
000380 11 5e 91 3c e0 86 02 3d 91 e7 80 3d 21 29 e8 3c
       0.01774505 0.031866908 0.06294168 0.028339924
000390 ad 16 85 3d 6b 30 44 3d a7 a4 cd 3c ee e6 a5 3d
       0.06498466 0.047897737 0.025102926 0.08100687
0003a0 b9 0c 97 3c 89 47 e5 3c ce ef 9e 3d 3b 13 c9 bc
       0.018438684 0.027988212 0.07760583 -0.024545303
0003b0 2f cf 14 3d be 29 22 3d 59 4b be 3c f0 d3 a0 bb
       0.0363304 0.03959059 0.023229288 -0.0049080774
0003c0 b8 5d 8d 3d c9 3a 94 bc 35 0e 15 bd 5d 02 ef bc
       0.06902641 -0.018094437 -0.036390502 -0.029175932
0003d0 f8 ab c0 3d 15 ad a1 ba 65 f7 86 3d c1 15 5f 3d
       0.094078004 -0.0012334908 0.065901555 0.054464106
0003e0 13 1e 8d 3c 13 19 ff bb f0 71 ad 3b 01 53 7c bc
       0.017226255 -0.0077849715 0.0052931234 -0.015400649
0003f0 0b f3 be 3c 47 37 6c 3b 98 0a 1d 3d bc 18 fc bc
       0.023309251 0.003604369 0.03834018 -0.030773513

action_model._continuous_distribution.log_sigma f4 [1, 9]
000000 a3 b9 aa bd 77 2c 2a bd 1b 0b 1e 3d f3 59 56 bd
       -0.08336189 -0.04154631 0.03858481 -0.052331876
000010 37 35 0f 3d 11 e4 0f be 83 a6 44 3e 84 30 97 3d
       0.03496286 -0.14051844 0.19204144 0.073823005
000020 70 e3 12 3e
       0.14344573

action_model._continuous_distribution.mu.weight f4 [9, 256]
000000 9c 72 3e 3d 98 36 3f 3c 05 f5 b8 3d 05 0b 36 bc
       0.04649602 0.011670731 0.09031109 -0.011111026
000010 48 2b 5b 3c 15 62 64 3d cc 13 0d 3d 0f 51 bc 3d
       0.013377018 0.0557576 0.034442708 0.09195148
000020 aa d5 3c 3d 8d 44 e3 3b ab b3 68 3d 6a 16 2d 3d
       0.046102203 0.006935662 0.05681197 0.042257704
000030 36 d2 18 3d b3 ab a5 bd 96 bd 0d 3d c2 d6 3e 3d
       0.037309848 -0.0808939 0.03460463 0.046591528
000040 fb ae b8 bd d4 df d3 bd ff a0 83 3d 60 ec 29 bd
       -0.0901775 -0.10345426 0.06427192 -0.04148519
000050 ef bd d3 3c db 2d 8b bd f2 6b c8 3a 0b cc 8c 3d
       0.025847403 -0.067958556 0.0015290959 0.068748556
000060 b5 06 de b9 7d 76 1d bd 9b 02 8b bc 16 f0 d6 3c
       -0.00042348137 -0.038443077 -0.016969016 0.026237529
000070 b6 53 99 3c 9f b1 1c 3d 43 8c 52 bd 72 d5 5c bc
       0.018716674 0.03825533 -0.051403295 -0.013478624
000080 f4 f6 3d 3c da df f1 3b ff 78 5d 3c b7 57 4a bc
       0.011594523 0.0073814215 0.013517617 -0.012350014
000090 30 99 91 3d 81 d5 ad bb ac 2e 56 3c 1e 03 32 3d
       0.07109296 -0.0053049927 0.013072651 0.043460004
0000a0 41 ad c7 bd 66 d1 8c 3d 5a bd 07 be 76 fa 09 bd
       -0.097498424 0.06875877 -0.13255826 -0.033686124
0000b0 4e 40 82 3c eb a1 9f bd 31 5e 7a bc 5a c8 e2 3b
       0.015899803 -0.07794555 -0.015281246 0.0069208564
0000c0 24 af 29 bd 94 2f c5 ba 44 9c 5b bd 8d 6e 06 3d
       -0.041426793 -0.0015044087 -0.053615823 0.032820273
0000d0 6c 21 c1 bd a9 76 8d bc 7e 9c 6d 3d 84 38 74 3d
       -0.09430203 -0.017268496 0.05801057 0.05962421
0000e0 35 eb 49 bd ff 8a 1d bd 16 e1 ca bc 48 90 61 bd
       -0.049296577 -0.038462635 -0.024765532 -0.055069238
0000f0 30 e7 59 3b a5 e8 78 3d f9 41 c2 3b 8c f6 85 3c
       0.003324937 0.060768742 0.0059282747 0.016352914
000100 69 55 2f 3d dd b8 9f bc 65 0c c9 3c 27 27 7c bc
       0.042806063 -0.01949733 0.024542043 -0.015390194
000110 df 91 fb 3c 1f f0 8c bd 60 e8 f6 bc 45 20 e3 3c
       0.030709205 -0.06881737 -0.030140102 0.027725348
000120 98 5b f6 bb 91 cf 5f 3d b1 a1 83 bd 22 08 c3 3c
       -0.007518243 0.05464131 -0.064273246 0.023807589
000130 bc 59 11 bc 4c e7 be bd 86 a5 c1 3c ab 6f a9 bd
       -0.008871492 -0.0932146 0.023638498 -0.08273252
000140 76 78 fb bb 60 ef 32 3c b3 3c a5 ba 29 33 34 bd
       -0.007674272 0.010921329 -0.0012606591 -0.043994103
000150 bb 82 a8 3d 25 d1 96 3c 20 64 63 3d 41 f1 dc bc
       0.0822806 0.018410275 0.05551541 -0.026970508
000160 26 95 9c bd 20 92 4b 3d f5 15 c8 3c 4c f2 fe 3c
       -0.07645635 0.049699903 0.024424532 0.031121396
000170 fb 9a 57 bc 40 22 c8 3d 01 a3 d0 3c 39 69 31 bd
       -0.013159509 0.09772158 0.025468351 -0.04331324
000180 63 53 a1 b9 65 a5 b3 bb 38 c4 0b bc da 23 3e 3d
       -0.0003077044 -0.005482363 -0.008530669 0.04642091
000190 1c 1c b8 3d ce 3d ca bc 56 89 0e 3d 40 5c 83 bd
       0.089897364 -0.024687674 0.034798943 -0.0641408
0001a0 dd fb 8b 3d c4 9f cd bd d4 65 02 3d 2d 13 26 3b
       0.068351485 -0.100402385 0.031835392 0.002534102
0001b0 dc 2d 9e 3c 37 bb 9e 3c dc e9 00 bd 06 24 25 bd
       0.019308977 0.01937638 -0.031473026 -0.040317558
0001c0 ff ee 13 bd ae a5 f0 3c e9 32 a7 bc d4 1e 29 bd
       -0.036116596 0.029375877 -0.020410018 -0.041289166
0001d0 6f 8f c9 bd 76 b9 85 bb 0d 65 01 3d a3 81 a7 bd
       -0.09841811 -0.0040809466 0.03159051 -0.08179023
0001e0 1a b6 5e bb c0 aa 40 3d d1 eb 24 3d dc c8 27 3d
       -0.0033983053 0.04703784 0.040263955 0.04096304
0001f0 3d 6f 77 bc ea c8 8a 3d fd b2 48 3d 85 70 2e bc
       -0.015102205 0.067766026 0.04899882 -0.010646944
000200 1b c8 24 be af e4 5b bd 92 ea 15 bd d4 6a 56 bd
       -0.16091959 -0.053684887 -0.036600657 -0.052347973
000210 90 de 2e 3d 1e 1b c1 bc c3 fd ff 3c 8b af 00 bd
       0.04269272 -0.0235725 0.031248933 -0.03141741
000220 90 9f 74 3c f8 c9 49 3d 61 55 ad bd c7 20 8a 3b
       0.014930621 0.049264878 -0.0846355 0.004215333
000230 51 8b 45 bd 07 75 09 bd c7 a1 3f bd a9 94 ac 3d
       -0.048228566 -0.03355887 -0.046785142 0.08426792
000240 95 a6 ca ba 5f 57 ef 3c 0c 47 18 3d 47 d6 81 ba
       -0.0015461022 0.029216466 0.03717713 -0.0009905779
000250 d0 e3 7b bd e3 d9 b5 bb 8b 90 95 bd 3b 02 a5 bb
       -0.061496556 -0.0055496558 -0.0730296 -0.0050356663
000260 0f 02 98 3b 7f f6 67 bd 00 54 37 3d 28 dd a4 bd
       0.0046389173 -0.05663156 0.044757843 -0.08049995
000270 5d 63 ea 3b c9 66 cd bb bd 9e c7 bd 12 2f 47 bd
       0.0071529583 -0.0062683565 -0.09747074 -0.048628874
000280 63 e3 b2 bc 8d a4 d1 3b 44 e3 d4 3c de fa a6 3c
       -0.021836942 0.00639779 0.025987275 0.020383295
000290 3d f5 ac 3c de 83 2c bc 2e 57 10 3d 53 be ab bc
       0.021113032 -0.010529486 0.03523939 -0.020964777
0002a0 27 85 ff 3c 12 73 3b 3c f3 f3 65 3d e6 da 16 3b
       0.031191422 0.011441009 0.05614085 0.0023018657
0002b0 02 09 ca 3c ab 17 e5 3b f0 77 8f bc f5 d8 80 bd
       0.024662498 0.006991347 -0.017513245 -0.06291381
0002c0 bd 4a be 3d 7b 52 b3 3c 25 09 f8 bb ba 70 78 3d
       0.09291599 0.021889916 -0.0075694495 0.06065438
0002d0 94 91 5a bd b7 82 0a 3d bf ae 55 bd 7b 63 8e 3c
       -0.05336149 0.033816066 -0.052168604 0.01738142
0002e0 84 bc 00 bd d9 8d 39 bb 50 0d 7c 3a 63 d9 16 3d
       -0.031429783 -0.0028313308 0.0009615021 0.03682841
0002f0 74 e2 6a bd 32 97 99 bc cc 2c 6e bc 0f 19 84 3c
       -0.05734487 -0.018748853 -0.014537048 0.01612523
000300 3a 83 96 bd 63 3b 6f 3d d3 1a a2 3c 54 35 51 bd
       -0.07349248 0.058406245 0.019788181 -0.05107625
000310 8a 6b 3e 3d 3f ed ab bd aa 1e df bc 9d 7e 26 3d
       0.046489276 -0.083948605 -0.027236301 0.04064809
000320 8a 74 80 bc 6b f7 80 bd 59 7a 59 bd 75 13 b2 3c
       -0.01568057 -0.06297191 -0.053095195 0.021737793
000330 ba ff 3e 3c 0f 83 00 3d 13 27 fc 3c a0 b6 1d bd
       0.01165765 0.031374987 0.03078035 -0.038504243
000340 54 f9 03 3b e3 b4 19 bd dd 95 87 3d 39 33 23 bd
       0.0020137625 -0.037526023 0.06620381 -0.03984377
000350 09 73 77 3c f9 a6 ae bb 79 2a 8a 3d ae ef 20 bc
       0.01510311 -0.0053299633 0.06746382 -0.009822769
000360 bb 5d 67 3d ae 26 94 3d e8 30 bb bd b0 63 2e 3d
       0.056485873 0.0723394 -0.091401875 0.04257554
000370 fc 9d 0f 3c 9c 2b be bd 25 77 5e bc 71 4b 9b 3d
       0.008765694 -0.092856616 -0.013578211 0.07582749
000380 4c 1a 04 bc ec 5c aa bb 4d 7c bc 3d f1 03 94 3b
       -0.00806291 -0.0051990654 0.09203396 0.0045170714
000390 f2 d7 50 3d cc 81 5c 3c 12 c5 51 bd 5b 18 d3 3c
       0.05098719 0.01345868 -0.05121333 0.02576845
0003a0 f6 31 63 3d 11 d0 48 3d 43 67 55 bb c5 74 82 bd
       0.05546757 0.049026553 -0.003256277 -0.06369928
0003b0 43 8d ae bc 9e bd 4a 3c 19 1b 4b bb de 47 35 bd
       -0.021307593 0.01237431 -0.0030991493 -0.04425799
0003c0 32 b5 07 3c 87 92 f3 3c b0 ef 5a bc 0d bb 59 bd
       0.008282946 0.029732956 -0.01336281 -0.0531569
0003d0 7c f8 d4 3c 53 8a e7 3c a5 ff 59 3d 1d 3f 40 3d
       0.025997393 0.0282642 0.053222317 0.04693519
0003e0 0a 5d ff bc c3 c0 d6 3c 4b 90 af bd 00 eb e4 ba
       -0.031172294 0.026214963 -0.085724436 -0.0017465055
0003f0 c4 7d e5 bd 48 bb 2d bd ed b8 36 bd a4 1c 94 bd
       -0.112056285 -0.042414933 -0.044609953 -0.07232025
