results/soloWorm-V2/Worm/Worm-9499938.onnx (onnx, 581953 bytes, 9 tensors)

network_body._body_endoder.seq_layers.0.weight f4 [256, 39]
00000000: 56a8 cebd 4383 e1be c728 30be c1e4 c5be
00000010: 7ad3 893e a633 2c3e 0eb3 e4bc 03ff efbe
00000020: a210 0d3e c55e e4bd 6cab 483e 02c3 41be
00000030: 5519 ebbd 394e a7bd 4e41 76bd 6d9f af3d
00000040: 4d1f 66be c5d0 d2bd 4e47 943e d8b6 11be
00000050: ae4c 39bb 67b7 98be 5906 54be ed13 5f3d
00000060: 6b25 a2bc 121d 9fbe 03ef f2bb 42e3 0cbd
00000070: eaf4 8dbe 2af7 0a3d 1b07 eebd 4f2a 5c3c
00000080: d36c 693d fa68 8ebe 0b43 32be 3038 8d3d
00000090: c0f3 8dbb 7b2f 1bbd e992 a9be f211 84bc
000000a0: 7be8 e8be 1d57 ab3c 8209 f33c 7fde 50be
000000b0: 8905 5fbd a4f9 823e 5e17 ef3c c4cf 503e
000000c0: 356a 04be 7a91 ef3d a0f3 a5bd 0911 39be
000000d0: 740d 3c3e a7ad eebd c9b0 483b 6679 36be
000000e0: 97ca 2b3e 3041 bcbd 0f4b 95be e1bb 79be
000000f0: b4e2 ecbd 253a a2bc bbcd d9bd dd39 513e
00000100: 87cf aa3b 26db 9a3e d1c2 0bba 3aad 0e3d
00000110: 9c0e cf3b 9421 cdbd 3c50 a73d f321 053e
00000120: ccf3 a83d b0a7 88bd c486 d8be 58a1 1abe
00000130: a1f2 67be 9fe3 8f3e cbbf ebbc 6dec 7ebb
00000140: eb46 023d 3b64 9a3e 8826 853e 40a7 37be
00000150: 99c6 473e 6be3 22be b5e7 763e 3c6c a23c
00000160: eb00 6fbd cfe3 04be 630e 61bd 09e7 55bd
00000170: 753d 923e a4f7 e83d 598e 6fbd b04f 9ebd
00000180: 98c0 563d d401 3c3e 70f6 e73d 28d7 94bd
00000190: 074a bebd 15d0 8e3e a3c7 6cbe 6422 b8bd
000001a0: 8d37 9f3e dc63 f13c b212 183e 240e 973d
000001b0: 58f9 7abc facf 0d3e 2ba5 893b 3d10 d7bd
000001c0: ef05 8e3e fa5d 893e 4aa0 363d 32ff d73d
000001d0: 3f15 bcbd cff2 4bbe f6d1 333e dee2 2ebe
000001e0: bb06 a8bd 31d0 463d 479c 74bd acd5 a3bd
000001f0: e523 403e bc3e fc3b 625b 8a3d 066f 043e
00000200: 8665 033e 9b68 55bd b986 d93e 332e 64be
00000210: 4822 7ebe 4bcb 0e3d 0d00 40be 3380 70bd
00000220: 92e2 4fbe e676 533c 5843 21ba 8a6b a43e
00000230: afaf 80be a0df e9bb 4e0d d7be aa31 9f3d
00000240: d92e 973d 3428 1fbe 7b1a 323e 91e0 57bd
00000250: 9f57 b53d 3a06 9c3d cb38 c9bd de0a 423d
00000260: 232d 6ebd 0e3b 193e 61a3 7abe cdb7 293e
00000270: 2e9c c43d 1c54 1a3e a41d 8dbe 1d69 3ebe
00000280: bb35 fc3c 7157 933e 815a dcbd ef99 9bbd
00000290: 992f d4bc 9d8a 20be e62f c23d df67 f43c
000002a0: 84a4 62be 45f3 833e a3a6 2b3e 7cb5 8dbe
000002b0: 77a2 07be 1288 a8bd 6b59 97bd ae3c 22be
000002c0: 21dc c8be e2c5 77bd 8f11 e23d 3909 e53c
000002d0: bc06 073e ece0 a33d 8c5b cd3d fc76 433c
000002e0: f289 fb3c f2b6 0f3d eb8a 08be 0aac 8a3d
000002f0: f470 51be 2eb3 e4bd 9be5 443e 4536 5e3e
00000300: 3b41 38bb ff90 b43d a039 593e 395c f13d
00000310: 9858 e53c 50f1 97bc 4418 e8bd 9f1b ff3b
00000320: e656 443e 9d93 c23d 8462 a73b 24ec 5aba
00000330: 00a7 2b3c daaa e73d c63f 6f3e 476f 6c3e
00000340: 20fa fa3a a570 e6bc df90 6f3d ec92 67be
00000350: b52d 1e3e 7446 9ebd d0e2 8c3e b884 113e
00000360: e351 2c3e 897f 183e 2110 263e c8e7 0a3e
00000370: 8ddf a5bb c3e1 753e ca5d 25be ab0f 12bd
00000380: a6c3 1c3e 91d9 a7bc 6a1f 323e fe8a e83d
00000390: 4c19 2bbe 790b 9fbd 50eb 89bd c72b 9fbe
000003a0: e3f9 f5bd 7708 04be bc0a 623c 9508 8c3b
000003b0: 5b5d 253e 085b 683e 76e8 8d3e 897d 14be
000003c0: 3f96 ad3d 11d3 7f3e ffff 31be a68f 8f3e
000003d0: 1532 33bd 49c9 8dbc 4a8b b73d e3a2 80be
000003e0: 1140 4f3d 678b 8f3d 8f17 2b3d 47a9 53be
000003f0: 5876 69bc e812 953d e05c 92be 6169 5abe
-0.10090701 -0.44045457 -0.17203055 -0.38651088 0.26919156 0.16816577 -0.027917411 -0.46874246
0.13775876 -0.11150888 0.19596642 -0.18922046 -0.11479441 -0.08169217 -0.060120873 0.0857533
-0.22472878 -0.10293726 0.2896065 -0.14229906 -0.0028274464 -0.29827425 -0.20705546 0.054462362
-0.019793233 -0.31076866 -0.0074137463 -0.034396417 -0.27725917 0.03392712 -0.11622449 0.0134378215
0.05698855 -0.27814466 -0.17408387 0.068954825 -0.004332036 -0.037887078 -0.33119896 -0.016121838
-0.4548987 0.020915562 0.02966762 -0.20397376 -0.054448638 0.25581086 0.029185947 0.20391756
-0.1293114 0.11697669 -0.081031084 -0.18072905 0.18364507 -0.11654215 0.003062295 -0.17819747
0.167765 -0.09192121 -0.29158828 -0.24388076 -0.11566678 -0.019803116 -0.10634943 0.2043223
0.0052127275 0.30245322 -0.0005331459 0.03483317 0.0063188802 -0.1001617 0.081696 0.13001232
0.082496256 -0.06672609 -0.42290318 -0.1510061 -0.2265115 0.2810335 -0.028777977 -0.0038898245
0.031805914 0.30154595 0.2600596 -0.17934895 0.19509353 -0.15907066 0.24111827 0.019827
-0.058350485 -0.12977527 -0.05494536 -0.052222285 0.28562513 0.11375359 -0.058485363 -0.07730043
0.052429765 0.18360072 0.11326301 -0.072676 -0.09291463 0.2789313 -0.2312303 -0.089909345
0.3109707 0.029466562 0.14850882 0.07375744 -0.015318237 0.13848868 0.0042005978 -0.10501144
0.27738902 0.2682951 0.044586457 0.105467215 -0.0918374 -0.19916843 0.17560562 -0.1707873
-0.08204409 0.04853839 -0.05971935 -0.07999739 0.18763693 0.007697908 0.06755711 0.12932977
0.12831697 -0.052101713 0.42485598 -0.22283249 -0.24817765 0.034861844 -0.1875002 -0.05871601
-0.20301273 0.012906766 -0.00061516976 0.32113296 -0.25134036 -0.007137254 -0.42002338 0.077731445
0.07381982 -0.1554268 0.17392914 -0.052704398 0.08854603 0.07618375 -0.098252855 0.047373645
-0.058148514 0.14963934 -0.24476387 0.1657402 0.096001014 0.15071148 -0.27561677 -0.18594785
0.03078734 0.2877765 -0.1075945 -0.0759772 -0.025901603 -0.15677877 0.09481792 0.029834686
-0.2213307 0.25771537 0.16762786 -0.27677524 -0.13245569 -0.08229078 -0.07390102 -0.1584346
-0.39230445 -0.06049145 0.11038505 0.0279585 0.13186163 0.08001885 0.10027227 0.011930224
0.030705426 0.03508658 -0.13334243 0.06771095 -0.20453244 -0.11166988 0.19228213 0.2170039
-0.0028115052 0.08816718 0.21213388 0.11785168 0.027996346 -0.018547684 -0.11332753 0.007785275
0.19173774 0.09500811 0.0051081795 -0.0008351228 0.010476828 0.11311884 0.23364171 0.23089324
0.0019148029 -0.028129885 0.05848777 -0.2261464 0.15447123 -0.077282816 0.27516794 0.14210784
0.16828112 0.14892401 0.1621709 0.1356498 -0.0050620497 0.24011903 -0.16149059 -0.035659473
0.15309009 -0.020489486 0.17394796 0.11354636 -0.16708869 -0.0776586 -0.067343354 -0.31088087
-0.12010553 -0.12893854 0.013796505 0.004273484 0.16148894 0.22690976 0.27716416 -0.14501013
0.08475923 0.24982859 -0.17382811 0.28039283 -0.043748934 -0.017307894 0.08962114 -0.25124273
0.050598208 0.07009011 0.041770514 -0.20670043 -0.014249407 0.07278997 -0.28586483 -0.21329261

network_body._body_endoder.seq_layers.0.bias f4 [256]
00000000: 43a6 a93c 7aba c1bc 7a33 1f3d ba48 0fbd
00000010: 36ca 1fbc b639 803c 50df f83c a0b6 c2bc
00000020: 2cae 143d 6035 8ebd 54a2 f0bc cd76 94bc
00000030: c262 5d3d 4595 943d 81b1 8abd cc8a 073d
00000040: 4e43 66bc 402b 003d e471 3e3d 89a1 df3c
00000050: 753e 63bd bb6e 9e3d 1fd4 44bd e5c7 8bbc
00000060: 10b2 313d 3cde f83c bc0e 6cbd a646 babc
00000070: 03c5 0a3d eeed d43c 995d 993c 1dce 143c
00000080: f204 b4bc e042 d13c 6da7 dabc 5891 51bc
00000090: ab1d 143d 59b3 0bbd c5cc 893d 5448 c23b
000000a0: 590f 963d 83b2 b73c 5315 2dbd f1b1 fdba
000000b0: d1b9 2bbc 42e0 9b3c 4197 76bd d30e 9d3c
000000c0: 9cdd 963b 256a 2c3d dcd9 c7bc 59bd 85bc
000000d0: 45fc d3bc 18ed af3d 2910 25bb eed6 08bc
000000e0: eef6 c03c d41e 313d 3249 263d fd2f bf3c
000000f0: d72f 223d 896e 043c 4a91 47bd ac8d ddbc
00000100: 0321 90bb 6e19 d03c 8b2f 2d3c d053 b23b
00000110: 3897 6c3d 1e82 7b3d afa0 973c 16d4 66bc
00000120: eeca f93a 78b8 c63d 7b42 f4bc 9103 b2bb
00000130: ab99 423d e213 b93d b9fa 023d 00de 94bc
00000140: 91f8 533d 2fcb 453a d137 343b 40a0 0d3d
00000150: f62a 9bbc 0d0b c63c d277 b8bc d86c 373d
00000160: a30f 6f3d 7b50 6dbd b10a 0dbd 153c 93bb
00000170: f03f 363d d3ed 643c 381f 36bc 19c1 673c
00000180: dc6b 39bd 7431 2c3d 51ea 663b b5e3 3d3d
00000190: 55aa fdbb 0abf dcbb 046e a03d ee61 4cbc
000001a0: 0257 173d d53e 69bc 82ea ea3c 4eec d63b
000001b0: 72b1 3cbd 41c6 20bd 4625 31bd bbb7 a73d
000001c0: 1492 1a3d cfeb d9bc e4ae 993b 2854 cdbb
000001d0: 658a d43c 2310 273b 97da b43c 266f eabc
000001e0: 20a9 42bc c3d8 463d 1885 083d 9142 ad3d
000001f0: 5804 2e3d d201 3a3d ca96 1abd 40ec 61bd
00000200: 404a 8c3d 8af8 0fbd 2dad 6abc 83b0 f53c
00000210: 97d4 943b 23f0 5fbd 1373 373c 7e51 583c
00000220: 700c 0b3d 4a23 4c3d e3db 253c 5c41 393d
00000230: afbe 29bc b6cf e13c 6a91 60bb e3f4 4d3d
00000240: b6e0 3a3c 6b59 4dbc 6c35 00bd c412 063d
00000250: 60e0 a03d 11f2 1dbc 2473 8e3c b0cd 933c
00000260: f79a 823d a7ce 03bd f80d 3d3d 52c4 b13b
00000270: 34cf c13c 01fc 1dbd e33a 12bc 80e7 cdbc
00000280: 25be 073d 757c 3abc d64e 513d 61f0 8c3b
00000290: fc77 da3c 56e1 3bbc 6372 97bb 31ea 6cbd
000002a0: 2b07 a6bb f8f8 813d cf78 9a3d 2fd4 0d3d
000002b0: 8c19 5fbd 4255 7cbc e347 c7bc c5fc ec3c
000002c0: 9283 02bd f87b 833b 805f f0bc 4945 a2bb
000002d0: 2b32 41bd a274 2aba c469 66bd f45c 55bc
000002e0: 06e9 b4bc 5310 1c3d 82a7 f7bc cbfc cb3c
000002f0: c92c 1d3c bd4b 5fbc ba30 51bc 249c 863d
00000300: 3f0f 0c3d acfb fd3b 2a7a 3d3d 03b1 1e3d
00000310: 5f92 943d 64b4 163d a1ea 57bc 2a03 873c
00000320: 400d 173d 75d0 d4bc dd3b 95bd 569c 8abc
00000330: ef79 46bc dc6c 243d e501 d33b 8998 0f3d
00000340: 13b8 7ebd 89c9 dd3c d582 9f3b 2c5c 12bd
00000350: f150 d3bb 2bb8 04bd cf72 24bc 358a f13c
00000360: c16a ddbc 9697 a03d 81f8 a13c bef4 18ba
00000370: 8533 543b a495 efbc 924c c83c 0f7d ddbc
00000380: 11ec 4b3d f5ce 703d 124e 86bb fa19 0b3d
00000390: a1c7 4abd e311 493b 32ef c53c 6290 5ebd
000003a0: e745 02bd d772 093c 8960 a93d bfbd 583d
000003b0: 6c05 8fbc 9521 663d 9ef4 133d b6fd 2bbd
000003c0: 0276 573c 4d9a d93c 6825 1abc 5c72 243d
000003d0: 176d b2bc 4b0a 27bd cc60 cfb9 b73e 07bd
000003e0: 19a2 ddbc 092a d03b c802 f1bc 08cc 1abb
000003f0: 114f 9cbd b125 18bc 1c7d ad3d 472d 67bd
0.020709163 -0.02364849 0.03886745 -0.034981467 -0.009752801 0.015652519 0.030379921 -0.023768723
0.036298916 -0.06943774 -0.02937428 -0.018123055 0.05404926 0.072550334 -0.067721374 0.03309135
-0.014054133 0.031291246 0.046495333 0.027298706 -0.055479486 0.07735964 -0.048053857 -0.01706309
0.043382704 0.030379407 -0.05763124 -0.022738766 0.03387929 0.02599236 0.018721389 0.009082344
-0.021975014 0.025544584 -0.026691163 -0.012791 0.036161106 -0.034106586 0.0672851 0.0059290323
0.07327146 0.022423988 -0.042256664 -0.0019355399 -0.010481314 0.019027833 -0.06020284 0.019172108
0.0046040546 0.042093415 -0.024395876 -0.01632564 -0.025877127 0.08590144 -0.0025186634 -0.0083520245
0.023555245 0.04324229 0.04059715 0.023338312 0.039596405 0.008082994 -0.048722543 -0.027045093
-0.0043984666 0.02540275 0.010570417 0.00544212 0.0577614 0.061403386 0.018509237 -0.014088651
0.001905767 0.09703153 -0.029816857 -0.005432554 0.04750983 0.090369955 0.03197739 -0.018172264
0.051750723 0.00075452303 0.002749909 0.034576654 -0.018941384 0.024175191 -0.022518072 0.044781536
0.05836452 -0.05793808 -0.034434024 -0.0044932463 0.04449457 0.013972717 -0.011115842 0.014145159
-0.04526888 0.04203935 0.0035234878 0.046359736 -0.0077412524 -0.006736641 0.07833484 -0.01247452
0.03694821 -0.014236172 0.028676275 0.0065589314 -0.046067663 -0.03925157 -0.043248437 0.08189341
0.037736967 -0.0266017 0.004690038 -0.0062661357 0.025944898 0.0025491796 0.022076888 -0.028617453
-0.011881143 0.048546564 0.033330053 0.08459962 0.04248461 0.045411892 -0.03774146 -0.055156946
0.068500996 -0.035149135 -0.014323515 0.029991394 0.0045419442 -0.05467237 0.011196869 0.013203023
0.03394741 0.04983834 0.010123226 0.045228347 -0.010360404 0.027564865 -0.003426636 0.05028237
0.011406114 -0.012533526 -0.031300947 0.03273274 0.07855296 -0.009640233 0.017388888 0.018042415
0.063772134 -0.0321795 0.0461559 0.0054250145 0.023658372 -0.038570408 -0.0089251725 -0.025134802
0.03314032 -0.011382212 0.051100574 0.0043011163 0.026668541 -0.0114672985 -0.0046217903 -0.05784053
-0.0050667725 0.06346315 0.07542574 0.034626182 -0.054467723 -0.015401186 -0.02432627 0.028929124
-0.031863756 0.004012581 -0.029342413 -0.004952107 -0.047166985 -0.0006502365 -0.05625321 -0.01302265
-0.02208377 0.038101505 -0.030231241 0.024900815 0.009593197 -0.013628897 -0.012767965 0.0657275
0.034194227 0.007750949 0.046259083 0.03874303 0.072544806 0.036793128 -0.0131784985 0.016481
0.03687787 -0.025978306 -0.07286809 -0.01692025 -0.012114032 0.04014288 0.006439435 0.03505758
-0.062187266 0.027073639 0.0048678913 -0.035732433 -0.006448858 -0.0324022 -0.010037138 0.029484848
-0.027028443 0.07841413 0.019771816 -0.0005834809 0.003237934 -0.029246159 0.024450574 -0.027037172
0.049785677 0.05879112 -0.004098662 0.03396032 -0.049506787 0.0030680827 0.024161909 -0.054336913
-0.031804945 0.008389196 0.08270366 0.05291533 -0.01745864 0.05618437 0.036121957 -0.041990004
0.013150694 0.026562834 -0.009408332 0.040148124 -0.021780534 -0.0407813 -0.00039554236 -0.033018794
-0.027054833 0.006352667 -0.029420272 -0.0023620147 -0.07632268 -0.00928633 0.08471128 -0.056439664

network_body._body_endoder.seq_layers.2.weight f4 [256, 256]
00000000: 3c37 d03c 85dd 013e 4e1e 203d 4fe7 5b3d
00000010: 4845 593d 10d1 ccbc cd95 bebb 0e69 acbd
00000020: 7499 793b f150 d63b 9c8f d1bd 8d9a ddbd
00000030: 1e37 1cbd 1370 043e 8205 403c 1a7f 823d
00000040: 9cf6 733c 46c3 69be 9f02 10be 1da7 a83d
00000050: b74e 88bd 1eeb 2fbd c6ca 85bd e4c8 a3bd
00000060: 7d1e 0b3e 91c2 653d 315d 57bc 9fea d73d
00000070: fc8b 0dbd 3d0b eb3d ac02 503d 6e65 b83d
00000080: 82f5 0d3d 59ba 54bd c7ea 6abc 15d3 4abc
00000090: 254f 0bba 14ae cc3c 5756 93bc 593a e13c
000000a0: c2a6 623d bef9 aebd 35c6 c33b d10b 38bd
000000b0: 5703 98bc 67f6 a53d be54 27bd 6602 9ebc
000000c0: 91a2 f33c bb89 aa3a 11d7 5d3d efd8 b83d
000000d0: 9106 303c d30e d33b a740 0b3d fe42 03be
000000e0: b00e 37bb e568 ae3d 1e87 233d 3e2a ff3b
000000f0: 3600 0abe 3715 fc3c 0c2d d4bd 51c9 15bd
00000100: ca56 cdbb 0e25 443d 3450 963c 4e77 aa3d
00000110: d842 183c dbba ca3d 9194 1fbd ff9c 0b3e
00000120: fd4d de3c c6e1 8f3d bce6 0ebe 76f6 9cbd
00000130: cb31 0b3e adee 1cbd 0fd8 083c 54ba 0dbd
00000140: 4f3d d4bc 6c3f 03be 6ab9 ecbc ac54 d43c
00000150: 145f d93d 1b0c 56be 68f7 fdbd bf3a 903b
00000160: f51b 42bd 4f9c 04be 5b0f e5bd 4325 1f3d
00000170: fa10 91bd 970f 39bd 7815 b0bd e8ac a0bd
00000180: 7080 283d f354 293d 59cd 263e 8860 8f3d
00000190: 220a 17bd 354a 1e3d bcb9 893c 9fb2 b9bb
000001a0: b5b8 91bc 9954 9b3b 1a89 2c3d e88a a6bd
000001b0: 7838 9b3b f73b cdbc f98f 013c 1ec0 e03d
000001c0: e399 123e 472e 2d3c a83c 39b7 bd5a b33c
000001d0: 6fac 4e3d febf 17bd 2c2f ce3d 469c fbbd
000001e0: 44cb 04be 5ca7 ba3d ca5c 8e3d 4f51 12be
000001f0: 3f41 d43a db24 cb3d 81d0 91bd edc8 86bd
00000200: 9cea e53d 1971 b0bc 57c1 fabd 2b37 3e3d
00000210: 4783 f5bd e4d4 203d c001 e43d f7ad dc3d
00000220: a845 0a3d f784 b53b 6cc4 343b 55ae d03d
00000230: bded 5bbd 6840 f7bc 0b25 36be 646b 123d
00000240: 8834 bfbd c827 c83c e3a5 dcbd 1321 893d
00000250: 1849 0a3e f0fc 2abe cf6a 4bbd d5ca bebd
00000260: 9d9b 5fbc 9b49 18bd 158b f13d 4714 89bb
00000270: e33e 513d 09c2 933c 9f2f fd3c 9f0c 81bd
00000280: 7bfa 04bc dece f73c 504e db3c 0607 22bd
00000290: 4102 1dbc c8c4 a43d f941 ae3c 0785 66bd
000002a0: 4cb4 2bbe 2011 f43d 9cb7 943d 6ed2 e4bc
000002b0: 8b47 803c 51e1 d03d bd43 8cbd 13b1 503d
000002c0: 011a c7bd 0dd3 3b3c d162 6fbd df2a 58bd
000002d0: 4730 99bd f423 933c fc5e e1bd 6c10 d3bc
000002e0: 2f7f 36bd 8298 93bd 4920 0abe 9ef0 b13d
000002f0: 4a43 043d 0e39 b03c 0fcf a9bd f85a 083d
00000300: 556b c8bd 7744 6e3d 3200 57bd 4d6b cfbd
00000310: 6085 203e 8bb4 a53c 3616 aa3b 84d9 b5bd
00000320: 94c8 6a3d 5af7 e4bc b88c 013d 7ca3 2a3e
00000330: 34e7 5e3d 6016 373c 4d89 293d 2bd4 703d
00000340: 3acc 6dbc 427a 73bd a38d dd3c 7603 4abd
00000350: 8818 8c3d 1502 80bb bda4 37bd afb0 d4bc
00000360: 7e7b 1dbe 99d2 683d 2a62 71bd dba7 8abd
00000370: 6e15 88bc bcae 9d3d cb73 e93c 5403 2bbd
00000380: d47d 02bc 2acb 363d 5fef c2bc aeaa 02bd
00000390: 3914 993a 4bcf 31bd 939b cfbd 5d6c a5bc
000003a0: 905d b2bc 0735 aabd d526 afbd 549d f2bc
000003b0: faac cebd 6d6e 683e 72c2 d43c 269f 6f3d
000003c0: 15b5 f3bc 7c27 643c 8385 7cbd d6e0 8fbd
000003d0: 96fb a03c 13d4 6abd fc9a 2d3c fc22 243d
000003e0: cb7e d8bd 92a1 073e 3261 d03d de44 16bd
000003f0: c9d9 96bd c7ce 7ebc ca02 ef3d 1a3b 13bc
0.025416963 0.12682159 0.0390914 0.05368739 0.053044587 -0.025002033 -0.0058161975 -0.08418475
0.003808585 0.0065404107 -0.102324694 -0.10820494 -0.0381385 0.12933378 0.011720063 0.06371899
0.014890339 -0.22828397 -0.140635 0.08234999 -0.06655639 -0.042948835 -0.065328166 -0.07997301
0.13585849 0.056093756 -0.013144777 0.10542797 -0.034557328 0.11476753 0.050783798 0.09003721
0.034657963 -0.051935527 -0.014338202 -0.012379427 -0.00053142227 0.02498535 -0.017985506 0.027493643
0.055334814 -0.08543728 0.005974556 -0.044933144 -0.01855628 0.08103638 -0.0408523 -0.019288253
0.029740604 0.0013011018 0.05416018 0.09025752 0.010743753 0.006440976 0.033997204 -0.12818524
-0.0027932338 0.08516101 0.03992378 0.007787018 -0.13476643 0.030771835 -0.103601545 -0.036568943
-0.0062664496 0.0478869 0.01834879 0.08323537 0.009293281 0.09898921 -0.038960043 0.13634108
0.027136797 0.07025485 -0.13955206 -0.07664196 0.13593213 -0.038313556 0.008352294 -0.034601524
-0.02590814 -0.12817162 -0.028897006 0.025919281 0.10613838 -0.20903055 -0.124007046 0.0044015343
-0.047389943 -0.12950252 -0.111845694 0.038853895 -0.07083316 -0.045180883 -0.08597845 -0.07845479
0.041138113 0.04134078 0.16289271 0.07000834 -0.036874898 0.038644988 0.016812198 -0.0056670452
-0.01778827 0.0047403094 0.042122938 -0.08131963 0.004736956 -0.025053008 0.007907861 0.109741434
0.14316516 0.010570115 -1.1040982e-05 0.021893853 0.050457414 -0.037048332 0.10067591 -0.12285666
-0.12968165 0.091139525 0.06951292 -0.1428883 0.0016193761 0.09919139 -0.07119847 -0.06581292
0.11226389 -0.021538304 -0.12243908 0.04643933 -0.1198793 0.03926553 0.11133146 0.10775369
0.033757836 0.0055395323 0.0027582897 0.10189501 -0.05369352 -0.030182078 -0.17787568 0.035746947
-0.093361914 0.024433032 -0.10773828 0.066957615 0.13504446 -0.1669805 -0.049662407 -0.09316031
-0.013647941 -0.03717957 0.11794106 -0.0041833255 0.051085364 0.01803686 0.030906497 -0.063012354
-0.00811636 0.03025001 0.02677074 -0.03955748 -0.009583057 0.080453455 0.021271693 -0.05627921
-0.16767997 0.11917329 0.07261583 -0.027932372 0.015659114 0.10199226 -0.068488576 0.05095012
-0.09721757 0.011463893 -0.058443848 -0.05277526 -0.07479911 0.01796148 -0.11004445 -0.025764666
-0.044554885 -0.07206823 -0.13488878 0.08688472 0.032290734 0.02151158 -0.082914464 0.03328988
-0.09786097 0.058170762 -0.05249042 -0.10127888 0.15675879 0.020227691 0.005190636 -0.088793784
0.057320192 -0.027949978 0.03162834 0.16663927 0.05441971 0.011174768 0.041390706 0.05879609
-0.014514023 -0.059442766 0.027045077 -0.049319707 0.068406165 -0.003906498 -0.04483484 -0.025963156
-0.1537914 0.056841467 -0.058931507 -0.06770297 -0.016611781 0.076993436 0.028497597 -0.04175122
-0.00796457 0.044627346 -0.023795782 -0.031901054 0.0011679 -0.04341058 -0.10137095 -0.020193273
-0.02177313 -0.083108954 -0.085523285 -0.029616036 -0.100915864 0.22698374 0.025971625 0.058501385
-0.029749433 0.013925429 -0.061650764 -0.07025306 0.019651216 -0.057331156 0.010596033 0.040072426
-0.10571059 0.13245228 0.101747885 -0.03668677 -0.07365758 -0.015552229 0.11670454 -0.008986259

network_body._body_endoder.seq_layers.2.bias f4 [256]
00000000: 2e85 983d 185b 50bc a4e2 f6bc abf3 febc
00000010: 77b5 843c baea 27bb a2cb 0c3c 0142 e23d
00000020: bd79 243d db4c e03b 8fac 093d 07a1 4d3d
00000030: a6a0 43ba bd81 cfbb dc49 07bd abb8 aabc
00000040: 4ad5 df3c 4d7b 91b9 428a 51bc 6b64 463d
00000050: 1c75 9c3c 285e fdbc 793d 46bd 5f60 e2bc
00000060: 4ccc af3c 6a5a 0bbd 0b0c ebbc 8c0e 54bd
00000070: a09b 203d d4fb 8abc 6f8c 5abc f8ff c13c
00000080: d5fa 03bc 2bc0 a13c 16af 063d f746 52bc
00000090: 8a4e 703d 899b 95bd 6979 6d3c 88d5 2dbd
000000a0: f3c1 57bc 72db b4bb 3f61 803c b21f 65bb
000000b0: 522a f9bc 81b9 a23c a128 373d 42e5 cc3b
000000c0: d4cf aa3c a8b0 393d 0108 943d 1c1b 56bd
000000d0: 32da 0ebd 76a9 d93b 8827 6a3d 3d10 78bc
000000e0: 9f8c a5bd 709b 8ebc a32e 05bc 158a 443d
000000f0: 8200 86bb c980 5ebd 107a ae3c 1df4 eb3c
00000100: 4900 623c 41e1 eabc 51e9 8f3d 665f ca3d
00000110: 6291 2fbd ab46 17bd 2d52 ca3c cfe4 453c
00000120: fefb f83c 46bf b9bb bb7c 1f3d 9839 e4bb
00000130: a36f b8bb 0584 5b3d 6d79 113d 2c21 2f3d
00000140: a89d 743d cc2a 2abd 5c7d a83b 8226 16bd
00000150: 925c fdbc 5b1f 8d3b acbb ae3b 7ae4 463d
00000160: 6a27 70bd c599 f3bb 1259 80bd bbac 863c
00000170: 82c1 5bbd 5273 8e3d 0e9c 1abd af4a 213c
00000180: 7e75 aa3b 0edd 053c f9cf f038 17c4 8bbc
00000190: 8d4f 223a ca05 1fbd c56c 683d fab2 5aba
000001a0: f08a 893b c0c2 823d 22cd 10bd 42bc 85bd
000001b0: 5c20 fbbb 81d2 89bc 9cec 10bd 2e59 f3bc
000001c0: b3b7 1abb d6d7 2bbd 2eb5 703c ab6c 123c
000001d0: ec50 573d 5ccb 193d 8c9d d43b 4fc0 e33c
000001e0: 82cc 923d 2d6a e53c aa07 d93c caf7 433d
000001f0: 4de1 54bd 4e48 97bd a2c7 cbbc d452 0b3d
00000200: ca48 e23c f728 75bd f283 e0bc 56a9 21bc
00000210: 1060 983c b162 59bd 6578 03bd 1d0e 3cbd
00000220: f2ef 243d 42b1 fe3b 3ed6 ebbc e358 69bd
00000230: d52d 03bd 8ebe 363d 01d8 433d b3ed 8a3d
00000240: 5ed4 72bc 9106 a7bc f4fd 23bd 1a86 ac3d
00000250: 4d29 533d 4f46 693d 031d 8339 ab09 403d
00000260: 7261 01bd b031 8ebd 3017 3e3c 316c 6eba
00000270: 4db1 2c3c 0ff8 4c3a 3f29 083d c5fc 92bb
00000280: d0be 003c 1798 7abc 1ebb de3c 2c76 8dbc
00000290: 982a 26bc 8f00 f43b 2a16 2ebd 75a9 443c
000002a0: 8b1a 21bd dd35 96bb e59f 883c ca42 aa3d
000002b0: cb26 2fbd 1186 8dbd 004c 3f3d 8f40 8b3d
000002c0: 0759 c1bc 618f 433d 89bd 723d 441b a73c
000002d0: 6214 a1bb 2fe7 f53b 400f eeba 7a6b 7c3d
000002e0: 3080 9fbc a4ba b1b9 fc1c 44bd 71be 273d
000002f0: 30eb d8bc 1d03 3ebc b8fb 0bbc 260e acbc
00000300: 7b30 39bd ab92 943c cc26 913c 296f ee3c
00000310: 1534 53bc 07f5 2f3d ed63 193c fc0d 893b
00000320: af28 d8bb 0fcc f2bc 6f03 a8bc c037 a5bd
00000330: 852a 5abd cd15 a03d 9a60 1abd 4071 07bd
00000340: c009 233d c5c5 ddbc e46b 46ba 491c 9b3d
00000350: a20f 0c3d fbd0 ddbc 280d 623d d1c7 0ebd
00000360: 7029 e9ba e94a 653c 1b01 2c3b e9b1 b9bc
00000370: e6ed 33bd 4f6d 903c 3118 65bc 46f8 d33c
00000380: 608c 023d 25b9 0a3d 0313 cc3c d6d0 bf3d
00000390: 0927 ce3c 9e3f fe3c 659d b6bc 1c0e f5bc
000003a0: 0ef4 0a3d 658d 823d e873 4f3a 0b48 50bc
000003b0: 837e a3bc 1af3 2bbc 5878 ea3c 3b91 6e3d
000003c0: 57d9 8b3d 29f9 dd3a cc4b 383c 2d06 9ebb
000003d0: 3e59 893d d8d9 49bd 45ce 8cbc ecab 57bd
000003e0: c9b7 823c 8be2 513d 777b 6bbc 85c2 17bd
000003f0: ed2c 17bd c45c c3bd 1046 b5bc 64a7 e23c
0.07447277 -0.012717031 -0.030137368 -0.03112205 0.01619981 -0.0025622086 0.008593472 0.110477455
0.04015516 0.0068450994 0.03361183 0.050202396 -0.0007462598 -0.0063326047 -0.033029422 -0.02084001
0.027323384 -0.0002774842 -0.012789311 0.04843561 0.01909881 -0.030928686 -0.04839847 -0.027633844
0.021459721 -0.034021772 -0.028692266 -0.051771685 0.039210916 -0.016965784 -0.013339146 0.023681626
-0.0080554085 0.019744953 0.03288182 -0.012834302 0.05866865 -0.073050566 0.0144942785 -0.042439967
-0.0131688 -0.005519324 0.01567137 -0.0034961519 -0.030415688 0.019863846 0.04471648 0.0062529156
0.020851053 0.04533449 0.07228089 -0.052271947 -0.034876056 0.006642516 0.057166606 -0.01514059
-0.08083462 -0.017408103 -0.008128795 0.047983248 -0.004089416 -0.054322038 0.021298438 0.028802926
0.013794013 -0.028671863 0.070269234 0.09881477 -0.042863257 -0.03693263 0.024697388 0.012078478
0.030393597 -0.0056685535 0.03893731 -0.0069648735 -0.0056285425 0.0535927 0.03551619 0.042756245
0.059720665 -0.04154472 0.005141897 -0.036657818 -0.03092793 0.0043067164 0.005332431 0.048557736
-0.05863134 -0.0074341022 -0.06266989 0.016439786 -0.05365134 0.06955589 -0.03774648 0.009844466
0.0052019944 0.008170379 0.0001148283 -0.017061276 0.00061916636 -0.03882388 0.056744356 -0.00083427096
0.004197471 0.06384802 -0.03535188 -0.06530048 -0.0076637696 -0.016824009 -0.0353819 -0.02970561
-0.0023608028 -0.041953884 0.014691634 0.008937041 0.052567407 0.037547454 0.0064885076 0.02780166
0.07167913 0.02800473 0.026492912 0.047843732 -0.051972676 -0.07386838 -0.024875466 0.034014538
0.0276226 -0.05985352 -0.027406666 -0.009867033 0.018600494 -0.053072635 -0.03209724 -0.045911897
0.040267892 0.0077725956 -0.028788682 -0.056969535 -0.03202613 0.04461532 0.04781342 0.06783619
-0.01482114 -0.020388873 -0.04003711 0.08424015 0.05155306 0.056951817 0.00025007883 0.04688422
-0.03158707 -0.06943071 0.011602208 -0.0009095101 0.010540319 0.0007818946 0.03324246 -0.004485699
0.007857993 -0.01529505 0.027188834 -0.017268263 -0.010141991 0.0074463557 -0.042501606 0.012003292
-0.039331954 -0.0045840577 0.016677806 0.0831352 -0.042761605 -0.06910337 0.04670334 0.06799423
-0.023602022 0.04774416 0.059262786 0.020398743 -0.00491576 0.007504366 -0.0018162504 0.061625935
-0.019470304 -0.0003389913 -0.047879204 0.040953103 -0.026479334 -0.011597422 -0.008543901 -0.02100284
-0.04521225 0.018136343 0.017718695 0.02910574 -0.012890835 0.042958286 0.009362203 0.0041825753
-0.0065966467 -0.029638318 -0.02050945 -0.08067274 -0.053263206 0.07816658 -0.037689783 -0.033066988
0.03980422 -0.027071843 -0.00075691775 0.07573754 0.034194596 -0.027077189 0.055188328 -0.03485853
-0.0017788839 0.013994911 0.0026245776 -0.022667842 -0.04392805 0.017630247 -0.013982818 0.025875222
0.031872153 0.033867974 0.02491141 0.09366004 0.025165098 0.031036194 -0.022291848 -0.029913954
0.033924155 0.06374625 0.0007913695 -0.012712489 -0.019957786 -0.010494972 0.028621837 0.05824397
0.06828564 0.0016935217 0.01124854 -0.0048225136 0.06706475 -0.049280018 -0.0171882 -0.05265419
0.015956776 0.05124144 -0.014372698 -0.037050743 -0.03690808 -0.09539178 -0.022128135 0.027667709

network_body._body_endoder.seq_layers.4.weight f4 [256, 256]
00000000: 413f 703d f64f 923d 0f85 c2bc 4ef3 543c
00000010: d697 42bd 757c ba3d e764 19bd b9aa 91bc
00000020: 2a77 5a3c 4dd3 f3bd aa44 e4bd a49f 203e
00000030: 2d29 813d d881 cbbc 7eae 99bc b3bc e2bd
00000040: 4aa5 6a3c 02fe 283d 38bc 26be 558a 00bc
00000050: 908a 8ebe 69ca e5bc afcb acbd 4915 353d
00000060: e01e 4f3d 0c5f 95bd 54f7 fb3d 29d0 283d
00000070: f53b 71bd 19c5 2bbe 2f03 433e 00c6 1bbe
00000080: 9985 d13d b2b7 56bc 1137 4c3c 49ef 3abd
00000090: 677f 35bd 805b f4bd 9a81 07bd 44ac 9e3d
000000a0: 7817 d13c 826b 8abc a6b3 9c3d 26f8 543d
000000b0: 4d9a 06bc a86d 483c 146a 00be 9126 05be
000000c0: 5b15 f8bc 33b7 1bbe 6af8 38be 0ca2 3e3a
000000d0: 3f42 423d 37fc 31bd b3a0 e9bb 0658 533d
000000e0: 7f71 f6bc 4285 36be 61d7 87bd 5293 c43b
000000f0: bcd6 2fbd 844e c2bc cb7c 36bd e69a a9bd
00000100: 463b 1f3c 2aa9 45bc fcfc 4f3d bd62 963d
00000110: 80e0 033e f98a 77bd f2b2 cd3d e898 6ebc
00000120: 6411 d53c f91c 12bb bbe6 9b3d 0f81 8bbb
00000130: cf2b 533d e908 3d3b 0397 383c 9039 f93b
00000140: 6acd df3b 28f4 993b 9f18 543d 8f98 4c3d
00000150: 63f6 043c 5a97 a23d baf3 fcbd 8727 d3bd
00000160: 7d8d 98bd cdf5 f13c 191f f9bd 1c15 7fbc
00000170: 98cf b7bd 2bd7 5b3d 2c0c c13d 4ee1 da3c
00000180: 270e 643c 7b3f af3d ef42 37bc 95c1 07bd
00000190: e50c d93d e77d 99bd 2021 3abd 9bb2 e63d
000001a0: d2c1 963d fc99 633d 5d99 e13d 4f65 43bd
000001b0: efcc eb3c 5204 863d f146 18bc aa34 c7bd
000001c0: d1a0 823d 19b6 26ba 7a70 fe3c d65a e1bd
000001d0: 0f99 113e 4829 2abc 8464 ec3a 2417 f6bd
000001e0: 51c6 72bd 0dba 94bd 11f2 5d3d cb91 f73c
000001f0: 66e1 953c 5050 59bd d4d6 9a3c ddc3 f33c
00000200: 7248 41be e5b5 163e f752 053c eb9e b53d
00000210: 2647 69bd 9c7e 94ba b1a5 11be 0e25 253d
00000220: 6e28 ef3c 1bb5 65bd 95f5 213d d291 08bd
00000230: 6b3b b93c e3fb 1cbe f21a 78bd bb68 683d
00000240: b3f4 a23d a2d1 19be 383c 70bd aabd 13bd
00000250: b904 133d 6664 db3d b656 8d3d 7107 533e
00000260: 5318 c1bd e6be fdbd 21b3 73bd 3c4a 093d
00000270: ef94 f4bd dd67 c5ba 4224 f83b 24ab 19be
00000280: 7c98 1ebd 127f 2d3c 6323 933d 7daf 98bd
00000290: b7a5 83bd 0f86 5dbd b120 0fbc 6603 ce3d
000002a0: 4e12 d9bd b866 0f3d 7001 88bc 5a82 0bbe
000002b0: 93f1 5d3d 29fd 74bd 3b66 33bd 862d 3fb8
000002c0: 71e7 81bd 8531 58bd 8189 b2bd 69c6 bdbd
000002d0: a439 083e 6f71 edbd 95e3 8d3d a12e d2bd
000002e0: 843e 743b dbd7 1d3d b579 56bd 8c55 233d
000002f0: 3c4b 0e3d 929e 8b3c 146d bfba f174 f43b
00000300: 1c9d b73d e0cd 0ebd e7de f33c ff90 f9bc
00000310: 3459 1a3d 9b62 99bb e4d8 123d d37e 0cbd
00000320: 5c4f a6bd 0a62 733b 51a7 aabd 78b6 923c
00000330: ffc0 723d 68d9 72be f04f 3bbe 8979 4abd
00000340: aca6 363e 944c f3bc d770 4d3d 3ea1 eabd
00000350: d816 38bd d76a 31bc d421 8ebc ba60 b4bd
00000360: f785 20bd 20ef 2e3d 6413 5ebc 0739 20bd
00000370: e5d0 193d 4b00 2f3d 3bd0 eb3d 0f55 a0bd
00000380: 5c17 7fbd fd7b 04bd 8af2 823d 1da8 a3bd
00000390: 9953 cf39 b830 ed3d 039c 5abc 7986 723d
000003a0: 9ee2 b1bd e6bd 0eba f609 1abb 578f 083d
000003b0: d238 16be 41bf 143d 538b 813b d41e 04be
000003c0: a522 3bbd 5c58 1bbc 35d6 773d ccd7 36bc
000003d0: 16eb 1fbd f18e 943c dec8 893d 8623 ec3d
000003e0: 5067 a63d 4552 99bc 3876 c83d 6a17 54bd
000003f0: 3422 c83c 5a19 293d 188f 143d d026 18bd
0.058654074 0.071441576 -0.023745088 0.0129974615 -0.047508083 0.091057695 -0.037449744 -0.017781602
0.013334075 -0.11905537 -0.11145909 0.15685898 0.06306682 -0.024842188 -0.018759962 -0.11071148
0.014321635 0.041257866 -0.16282737 -0.007845481 -0.2784009 -0.028050618 -0.08437287 0.044209752
0.050566554 -0.072935194 0.123030335 0.041214142 -0.05889507 -0.16774406 0.19044183 -0.1521225
0.1023056 -0.01310532 0.012464301 -0.045638356 -0.044310953 -0.11931515 -0.033082582 0.07747701
0.025523886 -0.016896967 0.07651453 0.051994465 -0.008215499 0.012233175 -0.12540466 -0.13002993
-0.03028362 -0.15206604 -0.18063512 0.00072720717 0.04742646 -0.04345342 -0.0071297525 0.051597618
-0.030083416 -0.17824271 -0.06632877 0.0059990073 -0.042929396 -0.02371908 -0.044552606 -0.08281498
0.009718722 -0.012064258 0.050778374 0.073430516 0.12878609 -0.06043527 0.10043897 -0.014562823
0.026009269 -0.00222951 0.07612368 -0.0042573283 0.05155545 0.0028844422 0.011266473 0.007605739
0.006829907 0.004698295 0.051781293 0.04995018 0.008115384 0.07939024 -0.12351175 -0.103102736
-0.07448862 0.029536152 -0.121641345 -0.015568998 -0.08975142 0.053671997 0.0942615 0.026718762
0.01391939 0.0855703 -0.011185392 -0.0331436 0.105981626 -0.07494717 -0.045441747 0.11264535
0.07361187 0.055566773 0.1101558 -0.047704037 0.028784243 0.06543793 -0.0092942575 -0.09726842
0.063783295 -0.0006359532 0.031059492 -0.11003654 0.14218543 -0.010385819 0.0018035327 -0.120161325
-0.05927116 -0.07262049 0.05418593 0.030220887 0.018295955 -0.053055108 0.018901266 0.02975648
-0.18875292 0.14717825 0.008137456 0.08868202 -0.056952618 -0.0011329236 -0.14223363 0.04031854
0.029194083 -0.05608092 0.039540846 -0.03334219 0.02261134 -0.15330462 -0.060572572 0.056740504
0.07956829 -0.15021375 -0.05865118 -0.03606955 0.035893176 0.10712509 0.069013044 0.20608307
-0.094284676 -0.123899266 -0.059497003 0.03351806 -0.11942469 -0.0015060861 0.0075726816 -0.15006691
-0.03871964 0.010589378 0.07184484 -0.07455347 -0.06428092 -0.054082926 -0.008735822 0.10059242
-0.105991945 0.03501007 -0.016602248 -0.13623944 0.05418546 -0.059811745 -0.043798666 -4.5580346e-05
-0.06342972 -0.0527816 -0.08717633 -0.09266359 0.13303238 -0.11593901 0.069281735 -0.102628
0.0037268708 0.038535934 -0.052362163 0.039876506 0.034739718 0.017043386 -0.0014604651 0.0074602296
0.08965513 -0.034864306 0.029769374 -0.030464647 0.037682727 -0.004680944 0.035851374 -0.034300637
-0.08120605 0.0037137293 -0.08332694 0.017909274 0.059266087 -0.23715746 -0.18292212 -0.04943231
0.17837018 -0.029699601 0.05015644 -0.11456536 -0.04494366 -0.010828695 -0.017350115 -0.08807512
-0.03919026 0.042708516 -0.013554428 -0.039116886 0.037552733 0.04272489 0.11514326 -0.07828724
-0.062278137 -0.032344807 0.06393917 -0.079910494 0.00039544402 0.11581558 -0.01334286 0.059210274
-0.08685802 -0.0005445167 -0.0023504472 0.033339825 -0.14670113 0.036315206 0.0039533763 -0.12902385
-0.045687336 -0.009481516 0.060507018 -0.011159848 -0.039042555 0.018134566 0.067277655 0.11530213
0.08125174 -0.018715987 0.097881734 -0.051780142 0.024430372 0.041283943 0.036269277 -0.03714639

network_body._body_endoder.seq_layers.4.bias f4 [256]
00000000: adec cf3b 1a0f 393d fa33 613d bf87 a43c
00000010: 992c 4abb f4a8 b13b 7c51 5d3d eff6 c23d
00000020: 305a 983d 9f53 323c edf9 833d 0f65 473d
00000030: 84e4 2d3d 8d46 a7bc 996c ee3b 0c42 3f3d
00000040: b397 863c c5e0 fbbb 1c7a 6a3c fdcb 393c
00000050: 8961 273d c964 213d 5006 d73c 073e 39bc
00000060: 7866 933d 4a3c cbbb 476f 053d 3835 1d3b
00000070: 3995 4f3b 2885 b5bc db4f 0d3c b37b c13d
00000080: c993 5f3d 8e80 143d 0c5d 20bc 8ab9 6bbd
00000090: 069e 3f3d deee 8e3d c83e 913c abd4 183c
000000a0: 9f23 e2bc d6b1 ab3d b392 adbb ffa5 ef3c
000000b0: bf60 ab3d 4913 863c 4013 6e3d f512 a63d
000000c0: 7cf0 3fbc 4b54 ec3c 1fd0 333c a450 09bc
000000d0: 5166 c3bc d24a bc3c de2d 44bd 332c 9d3d
000000e0: 967e 903c 50a0 e43b 9f62 31bb e9a9 4039
000000f0: 88ed 8dbc 810a 8f3d 37c8 2d3c 9b80 093b
00000100: d77a 373c 8a88 713c b059 303d 976a ec3a
00000110: ace8 aabc 3963 84bc f3c7 1b3c 3d21 403d
00000120: 1fc6 923d f6f0 923c d23a 263d 1d44 6d3d
00000130: 96a9 9abb 0c11 cbbb 8ede b3bb 2da7 a3bc
00000140: 1d9d 9a3d ff30 db3c 3252 633d c1d0 a3bc
00000150: f9bb 163d 9d54 a43d 5229 c9bb ed78 453d
00000160: 338d b13c de8f 6c3d c3a7 98bc 44d1 b83b
00000170: c16d 323b 7486 e53c ebfe 02bd 2bc8 a23c
00000180: 3b4c 0a3b 8f8b 423c 8160 a4bc 2e2f af3b
00000190: a726 603d f07b d7bc e505 783c 0754 eebc
000001a0: 8dd4 e53a ef84 c03c 528f 0f3d f6f6 2a3d
000001b0: dc05 813d 4071 3d3d 6e95 13bd 09af d9bb
000001c0: 8d02 c63d e0cd 4d3d cda4 06bc c41c 2a3d
000001d0: 98fb 28bd cf37 ee3c 2934 423d 41fa 8a3d
000001e0: 8f77 333c 8d6d a03d 7a0a b83c e437 303d
000001f0: 1932 53bc c83e a63d 4640 853d 2972 323d
00000200: e384 22bd 1064 d43b 1dea 8f3c 294f 113c
00000210: c81b e2ba 2720 05bc 4550 013d befb b7bb
00000220: 45b8 bfbb 8cc1 503a 9a39 8bbc 1702 95bc
00000230: 869f d1bc 79e3 543c 22e6 91bd be26 9d3c
00000240: 226a f73c 1862 c83c 16ca 7e3d b350 c4bc
00000250: 1328 e0bb ea77 fa3c 461d c93c 1308 313d
00000260: f7e8 243d 482b 313d 40e5 693d 2e46 b5bb
00000270: fbc8 0a3d 3735 a03d ddd1 a03b fc57 903c
00000280: a777 05bd 3331 073b 56d0 e73b 5801 493d
00000290: a438 793d 7dcf da3a 3db3 1abd 65fa 44bb
000002a0: cfd7 fb3c 2b1d 673d 8703 bd3d 0f90 203d
000002b0: 15c9 12bd cc6a 453d 8a34 533d 625e e93c
000002c0: 3b77 3a3d 3eb0 b23c a7ad 233d 3170 5f3d
000002d0: 874d 35bb 8145 d13b 4bd2 d63b f888 2c3d
000002e0: 75d6 18bd 3427 953d e369 0a3d 7645 423d
000002f0: 8c65 4a3c 0c2c d93c 815c 9f3c 42f3 8f3d
00000300: c2d7 cabc 90c5 ff3a c521 023d d73d afbc
00000310: 7aa4 ac3d ece7 16bd b644 89bb a0da d83c
00000320: 19c4 4dbd 808b 773c 7f96 e2bc c754 233d
00000330: a669 823d 253d db3c ccd2 793d 5cdd 863c
00000340: de7f a0bb 58aa f43b 33d1 323d 6379 603d
00000350: 601c 2e3b dc15 0a3d 66cf db3c aefb b83c
00000360: fc4f 973d 13bd 993c 30fd 0a3a 9323 b03c
00000370: e6fc ef3c 2b1c 24bd b95f dd3c 6206 943d
00000380: 6c8e 903c 997e 003d 01e7 833d 43d1 ef3c
00000390: a598 873d 803d 453d 339c c73c 8418 a23d
000003a0: 9611 9a3c 6414 f73c 528e 9f3d 23e2 c6bc
000003b0: 3ac3 133d 3d3e 213d 8ffe ac3c dcad e2bb
000003c0: 6507 8c3d edb0 96bc 1095 10bd 80c4 e5bc
000003d0: 38a7 c03d 0da4 02bb c751 863d 96e5 603d
000003e0: a0bf 8b3c cda6 cebb cf9b a03b 8d4e 6abc
000003f0: 886a c13c 75dc 443b b06b 213d 7025 05bd
0.0063453526 0.045180418 0.05498121 0.02008426 -0.0030849336 0.005421752 0.054032788 0.09519755
0.07439077 0.010884195 0.06444154 0.04868036 0.042454258 -0.020419383 0.0072761294 0.046693847
0.016429758 -0.0076867067 0.01431134 0.0113401385 0.0408645 0.039402757 0.026248127 -0.011306292
0.07197279 -0.0062022554 0.032576825 0.002398802 0.0031674637 -0.02215822 0.008624996 0.09447422
0.0545843 0.03625541 -0.009787809 -0.05754999 0.046781562 0.06979154 0.017730132 0.009328048
-0.027604876 0.08383529 -0.005297029 0.029253958 0.08368062 0.016366618 0.058123827 0.081090845
-0.011715051 0.028848788 0.010974913 -0.008381043 -0.0238525 0.022984896 -0.047895305 0.07674446
0.017638486 0.0069771186 -0.002706684 0.00018373843 -0.017325178 0.06984425 0.010606817 0.0020981196
0.011198721 0.014742026 0.043054283 0.0018037137 -0.0208629 -0.016160594 0.009508121 0.0469067
0.07166695 0.017937165 0.04058344 0.057926286 -0.0047199233 -0.0061971005 -0.005489177 -0.019977177
0.07549498 0.026756762 0.05549831 -0.019997003 0.03680036 0.08023951 -0.006138959 0.048211027
0.021673774 0.05775439 -0.018634683 0.005640181 0.0027226063 0.028018214 -0.03198139 0.019870838
0.0021102566 0.011874094 -0.020065548 0.0053462004 0.05472436 -0.026304215 0.015138124 -0.029092802
0.0017534659 0.023500888 0.03504879 0.041739427 0.06299946 0.04625058 -0.03603118 -0.0066431803
0.09668455 0.050245166 -0.0082180025 0.04153134 -0.041255563 0.029079346 0.047413025 0.067860134
0.010953798 0.07833395 0.022465933 0.04302205 -0.012890362 0.08117443 0.065064 0.043565903
-0.039677512 0.006481655 0.017567689 0.008868971 -0.0017250711 -0.0081253415 0.03157069 -0.005614727
-0.005850824 0.0007963411 -0.01699524 -0.018189473 -0.025588762 0.012993687 -0.071239725 0.019183513
0.030201975 0.024460837 0.062204443 -0.023964262 -0.0068407147 0.030574758 0.024550091 0.04322059
0.040261235 0.043254167 0.057103395 -0.0055320477 0.033883076 0.0782265 0.00490783 0.01762008
-0.032584812 0.002062869 0.007074396 0.049073547 0.060845032 0.0016693916 -0.03776859 -0.0030056473
0.030742554 0.0564243 0.092291884 0.039199885 -0.035836298 0.048197553 0.051563777 0.028487388
0.045523863 0.021812554 0.03996053 0.054550353 -0.0027664618 0.0063864593 0.0065558306 0.04212281
-0.037313897 0.07282868 0.033792388 0.047429524 0.012353312 0.026510261 0.019453289 0.070288196
-0.024761084 0.0019513834 0.031770486 -0.021391792 0.08429809 -0.03684227 -0.004189099 0.026471436
-0.05023584 0.015108943 -0.027659653 0.03987577 0.06367807 0.026762554 0.060992047 0.016462974
-0.0048980555 0.0074665956 0.04365654 0.054803263 0.0026567206 0.033712253 0.026832294 0.022580948
0.07388303 0.018766915 0.000530201 0.021501338 0.029295396 -0.040065926 0.027023183 0.0722778
0.017646037 0.031370733 0.06440545 0.029274588 0.066209115 0.048154354 0.024366474 0.07914832
0.018807214 0.03016109 0.07790817 -0.024277752 0.036074854 0.039365996 0.021117477 -0.0069176983
0.06837348 -0.018394912 -0.035298407 -0.0280478 0.094068944 -0.0019934208 0.065585665 0.05490645
0.017059147 -0.0063065053 0.0049013863 -0.0143009545 0.023610368 0.003003863 0.03940934 -0.032506406

action_model._continuous_distribution.log_sigma f4 [1, 9]
00000000: 91d9 adbd 860b 2cbd bdda 143d b934 59bd
00000010: ac7a 043d f65d 11be 7a1b 443e b7a6 963d
00000020: 47b4 123e
-0.08488763 -0.042003177 0.036341418 -0.053028796 0.03234355 -0.14196 0.19151106 0.07356017
0.14326583

action_model._continuous_distribution.mu.weight f4 [9, 256]
00000000: 4b40 403d 759e 4f3c 343c b93d 474f 38bc
00000010: fe43 673c 5fd4 6b3d 4e5a 123d b0fd be3d
00000020: 13b3 3e3d e581 103c bfc1 683d d6c1 2c3d
00000030: c932 1b3d ca58 a6bd 02bf 063d 45a0 3a3d
00000040: a225 b9bd 74d5 d6bd 57f5 873d 61c7 27bd
00000050: 4222 d63c 4da1 8bbd 1674 163b 108f 8c3d
00000060: 4889 683a 182c 1fbd 2535 8dbc 9635 d73c
00000070: ca3f 9b3c 8854 1b3d 8600 57bd 04f8 6ebc
00000080: 9fe5 3d3c 4f35 033c d338 6e3c 6b72 49bc
00000090: 94c8 933d 19be babb d600 6f3c aaba 333d
000000a0: 76fa c6bd 81a4 8e3d 7a2d 07be b4c0 07bd
000000b0: 2188 7d3c 5dfd 9cbd f4fe 4ebc 1900 073c
000000c0: 4c95 2bbd 38ad 6fba 5bb1 5ebd 471c 053d
000000d0: 23c4 c0bd aeaf 91bc 0f99 6b3d f1b7 783d
000000e0: 79e3 45bd d43f 23bd d752 cfbc d4be 5fbd
000000f0: 2d9a 653b 5080 7f3d edcf da3b 7dba 913c
00000100: 80ac 373d 764c aebc f293 c03c 6ff9 85bc
00000110: 84fe f53c 8960 8ebd 164f f3bc 19eb de3c
00000120: 80b5 a2bb 2d8b 5b3d fbe1 7fbd 055c d23c
00000130: 5e7a 07bc 7248 c1bd 0da0 cc3c 8dc2 a4bd
00000140: 3aa5 c2bb e4c0 3f3c 1ff3 15b9 5fbf 34bd
00000150: f287 a93d 0cf6 823c 86c9 683d e808 dbbc
00000160: 7e19 9abd 3355 4b3d 4844 bc3c f759 003d
00000170: cd0e 4dbc 824e c33d 4ccd e13c 0926 33bd
00000180: bd3c 73ba f008 b2bb aef1 f3bb 1e8c 403d
00000190: 3e0b bc3d 59e6 d0bc 6f7a 0d3d 8c21 84bd
000001a0: da65 8c3d 37a7 cebd ce64 003d 00e4 8a3b
000001b0: c530 9d3c 3873 9a3c b46b f5bc a1eb 28bd
000001c0: 583d 12bd 00c6 ed3c 83e1 9fbc b430 28bd
000001d0: bb30 cbbd 8a94 84bb 5e80 053d a3a1 a5bd
000001e0: e8a7 aabb d1bc 3e3d a2e1 243d ed18 273d
000001f0: 7b40 80bc b061 8a3d 6ee6 463d 07e5 5bbc
00000200: bafe 22be f7b3 56bd bb24 19bd 3e05 4dbd
00000210: 3530 393d 475d c7bc 31e2 f83c e83b 00bd
00000220: e2e2 7e3c 41ac 4a3d 3e01 adbd 46ef 953b
00000230: 2507 41bd b5e2 0cbd 2885 3fbd 8494 b13d
00000240: 85f1 37bb dc71 053d af5e 173d 92eb 74ba
00000250: 54db 73bd ce6b babb 71be 91bd d25e 86bb
00000260: 5fba af3b ea36 63bd e2ae 353d b694 a3bd
00000270: 247d fd3b 8c20 b6bb afc0 c7bd 1d22 51bd
00000280: f7f1 adbc e60d 083c da0e c73c 1ae6 a03c
00000290: f2b0 ab3c c7d0 0ebc ed75 193d 44a3 a5bc
000002a0: d22b 073d ba7d 4c3c 5db5 683d c80b 0d3b
000002b0: a9d2 c63c 797c f53b f102 9ebc 1245 7dbd
000002c0: 5575 be3d 3350 be3c 2092 e8bb f420 733d
000002d0: 984c 5dbd f51e 083d 255d 54bd cb65 863c
000002e0: 6faa febc a773 9ebb d532 dc3a 5f01 1d3d
000002f0: 591d 6bbd 910d 98bc 0bf7 69bc 68b0 923c
00000300: 325b 96bd 19f5 683d f7fb 9c3c 03ab 49bd
00000310: 6834 423d 207f adbd 5a46 dbbc c351 253d
00000320: 5cba 81bc 1d78 81bd f3f0 53bd 35ef b23c
00000330: bad0 503c 5da8 f73c b9db fc3c 5417 10bd
00000340: e2c4 4239 5177 19bd a8ab 8d3d 3e66 24bd
00000350: 0cb4 7c3c b9d4 e4bb 0d75 893d 3c68 1bbc
00000360: 5d65 6d3d 61c2 923d e7f9 bbbd 5b85 2f3d
00000370: a837 203c 3991 bdbd 3d1d 49bc 9cdc 9a3d
00000380: 2ef2 14bc 6b3f abbb 0729 c13d 23d6 a83b
00000390: 4816 523d cbf0 5d3c 8fff 4ebd 462b d33c
000003a0: d9f2 673d b046 4f3d 3647 10bb 95d5 80bd
000003b0: 818d b6bc 3487 323c 0f47 fcba aaa1 2cbd
000003c0: d55d ff3b b29c fc3c 2767 54bc c74e 5bbd
000003d0: bcab d33c 6f9c e13c fb42 643d d569 3a3d
000003e0: c7c0 fcbc 10e7 d63c 94ca adbd f8dd 7539
000003f0: bc57 e5bd 1f2d 2abd 5f2d 3cbd 0e3f 92bd
0.046936315 0.012672056 0.09044686 -0.01124937 0.014115332 0.05757558 0.035730653 0.09325731
0.046557497 0.008820032 0.056825396 0.042177044 0.03789023 -0.08122404 0.032897003 0.045563
-0.09040381 -0.10489932 0.06638592 -0.040961627 0.026139382 -0.06817875 0.0022957376 0.068632245
0.0008870554 -0.03886041 -0.017237255 0.026270669 0.018951315 0.037922412 -0.052490734 -0.014585499
0.0115903905 0.008008315 0.014539915 -0.012295346 0.072159916 -0.005698931 0.014587602 0.04387919
-0.097157404 0.069649704 -0.13200942 -0.03314276 0.01547435 -0.07665513 -0.012634028 0.008239769
-0.041890427 -0.0009142938 -0.054368358 0.03249767 -0.0941241 -0.017783966 0.057519015 0.060722295
-0.048312638 -0.039855793 -0.025308056 -0.054625347 0.0035034523 0.062378228 0.0066776187 0.01778912
0.044842243 -0.021276694 0.023508046 -0.01635429 0.03002859 -0.06952006 -0.029700797 0.027211713
-0.004965484 0.053599525 -0.06247137 0.025678644 -0.008268921 -0.09437646 0.024978662 -0.0804492
-0.0059401067 0.011703704 -0.00014300317 -0.04412782 0.08277883 0.015986465 0.056832813 -0.026737645
-0.075243935 0.0496418 0.022981778 0.031335797 -0.012515736 0.095364586 0.027563713 -0.043737445
-0.0009278765 -0.0054331943 -0.007444582 0.047008626 0.09181832 -0.025500463 0.03454059 -0.06451711
0.06855364 -0.100904875 0.031346135 0.0042386055 0.019188294 0.018853769 -0.029958583 -0.04124034
-0.035703033 0.029025078 -0.019516712 -0.041062072 -0.09921404 -0.0040460275 0.032593124 -0.080874704
-0.0052080043 0.046566788 0.040254243 0.040795255 -0.015655747 0.06756914 0.0485596 -0.013421304
-0.15917483 -0.05241772 -0.037388545 -0.050053827 0.04521199 -0.02433647 0.030381294 -0.03130713
0.015557023 0.04948068 -0.084475026 0.0045756428 -0.047125954 -0.034395892 -0.046757847 0.08670905
-0.002806754 0.032579288 0.03695553 -0.0009342964 -0.05953534 -0.005689121 -0.07116402 -0.004100659
0.0053627933 -0.055472292 0.044356234 -0.07987349 0.007735865 -0.005558079 -0.09753548 -0.051057924
-0.021233542 0.008304095 0.024299074 0.019640971 0.020958398 -0.008716769 0.03746598 -0.020219453
0.033000775 0.012481147 0.056813587 0.0021521915 0.024270372 0.007491645 -0.019288512 -0.06183345
0.09299723 0.023231601 -0.0070974976 0.0593576 -0.054028124 0.033232648 -0.051846642 0.01640596
-0.031087128 -0.004835564 0.0016799817 0.038331386 -0.057401035 -0.018561156 -0.014280091 0.017906383
-0.07341613 0.05687437 0.019163115 -0.049235355 0.04741326 -0.08471513 -0.026766945 0.040361177
-0.015835933 -0.06321738 -0.05174346 0.021842578 0.012745077 0.030231649 0.03086649 -0.035178497
0.00018574626 -0.037467305 0.069175065 -0.04013657 0.015423786 -0.0069833663 0.06711779 -0.009485301
0.057957996 0.07165981 -0.091785245 0.042851787 0.0097788945 -0.09256215 -0.012275037 0.07561609
-0.009090943 -0.005226066 0.094316535 0.00515248 0.05129078 0.013546179 -0.05053669 0.02577747
0.056628082 0.050604522 -0.0022015101 -0.062907375 -0.022284271 0.010896493 -0.0019247251 -0.042146362
0.007793168 0.030836437 -0.012964047 -0.053541925 0.025838725 0.027540414 0.05572794 0.045511086
-0.030853642 0.026233226 -0.08485904 0.0002344771 -0.11198375 -0.041546937 -0.045941707 -0.07140933

action_model._continuous_distribution.mu.bias f4 [9]
00000000: 6246 e93c b863 7bbd 6a8d 983d 50ae 59bb
00000010: 4f97 bd3c ba27 13bd 3a97 b63c 9b51 283c
00000020: 3ef1 e03b
0.028475944 -0.061374396 0.074488476 -0.003321547 0.023143439 -0.035926558 0.022288907 0.0102733625
0.006864696
